trained_models/model_corvette_launch_max.pth (torch, 909751 bytes, 20 tensors)

conv1.weight f4 [64, 2, 3, 3]
0.044658773 -0.17358707 0.21438847 -0.105227105 0.12609124 -0.06743156 -0.0114664715 0.13473332
0.14518124 0.20651937 0.15516557 0.20774536 -0.23157038 -0.17030856 -0.19782734 -0.044775378
0.19134834 0.21881494 -0.054964744 -0.0004775324 -0.08948009 0.036685597 -0.086269766 0.070555575
-0.020003164 0.01992572 -0.1643466 0.009403889 0.009685655 -0.21761715 -0.018748969 -0.07098805
0.17692266 -0.1668063 0.03560029 0.17881908 -0.1543205 0.19485144 -0.074742615 -0.099678524
-0.23314871 0.056256328 0.18917274 0.06199948 0.15974282 -0.09794152 -0.08302786 0.15041699
0.045574512 -0.1671038 -0.2305382 -0.053271677 0.10125345 0.16913337 0.08420323 0.19587617
-0.08595766 0.16358319 -0.15809733 -0.1340379 0.005882805 0.23664144 0.20957084 0.11650196
0.06156966 -0.069174245 0.1718089 0.10880066 0.21453257 -0.0879342 0.23513918 0.16677472
0.0020215944 -0.0065177544 -0.1822514 -0.19558224 0.08445569 -0.16932227 -0.042743992 -0.11512806
0.11231315 0.05980666 0.05950854 0.14983682 -0.014143134 -0.0051492774 -0.09758187 -0.20875357
0.16017474 -0.13469832 -0.23532152 0.052402988 0.15193014 0.22636522 -0.07776039 -0.008309473
-0.008080536 0.21158446 0.011591775 0.026066786 -0.10891841 -0.20143406 0.13803886 -0.004169981
-0.19849606 -0.036629237 0.0007165526 0.10125707 0.11447375 -0.23724483 0.17854024 0.021806289
0.10407422 0.14622468 -0.14881308 0.18768908 0.12563182 -0.15527582 -0.1837638 -0.017846212
0.018972348 0.19457588 0.034686577 0.026569907 0.009153677 0.13558191 0.18087153 0.1602306
-0.010243516 -0.082012475 0.1592311 -0.022839768 -0.20849285 -0.12705636 -0.09586429 -0.07018605
0.018539893 -0.12988988 0.17507374 -0.20711984 -0.054451395 -0.058197156 -0.14870963 0.02278026
0.17160946 0.23494017 0.14418156 0.12278617 0.0014858244 -0.1844429 -0.10818348 0.21566163
-0.05405749 0.059881542 -0.17894569 0.23232639 -0.17869592 0.049813755 -0.018187208 -0.2098595
-0.014065892 -0.16238531 0.07850781 0.046439987 -0.109070666 -0.1944541 -0.03369328 0.18228579
-0.14001079 -0.13599198 -0.09525767 -0.08698222 0.21320559 0.07295339 0.14431006 -0.10468746
-0.044800725 0.060855243 0.08538738 0.17964052 -0.21377799 -0.028463213 0.15993707 -0.10889791
-0.03198123 -0.08427743 0.10270831 0.05873816 0.15685499 -0.057355903 -0.07019667 0.13972391
0.22583 0.050781697 0.21160541 0.16732414 -0.12550177 0.0602494 -0.1353673 0.06424391
0.22002707 -0.045296244 0.21990642 0.16698326 -0.040704217 -0.02459056 0.14020227 0.20117514
-0.1070431 0.15610746 -0.22382095 -0.0063431007 0.16275668 0.0003239126 0.09000982 -0.21246803
-0.027657159 -0.19630432 -0.2004988 -0.057552684 -0.112766735 0.12069312 -0.029085683 0.032146994
0.16696668 0.0788905 0.18160152 0.21394457 0.22061315 0.02991631 -0.05997935 -0.1486721
-0.1349545 0.035457075 -0.04511935 0.057260312 0.17537375 -0.15312235 0.015471336 -0.1488908
0.057938505 0.050455786 -0.16503209 -0.105158046 -0.075890966 0.17600858 -0.062006555 -0.04587176
0.059220903 -0.19495888 -0.1782477 -0.040946703 0.18794592 -0.17540549 0.0812337 0.22934094
00000000: 1eec 363d cfc0 31be a788 5b3e 4f81 d7bd
00000010: 101e 013e 8f19 8abd dedd 3bbc 88f7 093e
00000020: 64aa 143e d079 533e b9e3 1e3e 33bb 543e
00000030: c920 6dbe 5e65 2ebe 4093 4abe 6366 37bd
00000040: d2f0 433e 0611 603e b622 61bd 505d fab9
00000050: 5641 b7bd a343 163d 34ae b0bd 717f 903d
00000060: addd a3bc 433b a33c 7a4a 28be c512 1a3c
00000070: 95b0 1e3c 08d7 5ebe 7097 99bc 2f62 91bd
00000080: 372b 353e 45cf 2abe 9cd1 113d 591c 373e
00000090: 3106 1ebe 2387 473e a812 99bd 4124 ccbd
000000a0: 89be 6ebe 096d 663d 80b6 413e 2bf3 7d3d
000000b0: 9f93 233e 9095 c8bd 830a aabd e906 1a3e
000000c0: 57ac 3a3d 421d 2bbe 3512 6cbe 6733 5abd
000000d0: f85d cf3d 4c31 2d3e be72 ac3d c393 483e
000000e0: 920a b0bd 5a82 273e 44e4 21be 3b41 09be
000000f0: 8cc4 c03b 2252 723e bd99 563e 9498 ee3d
00000100: 7830 7c3d 3aab 8dbd acee 2f3e e1d2 de3d
00000110: 6dae 5b3e d916 b4bd 53c8 703e fec6 2a3e
00000120: ba7c 043b e392 d5bb 1ca0 3abe b646 48be
00000130: 1bf7 ac3d d162 2dbe 5314 2fbd 43c8 ebbd
00000140: 7004 e63d d4f7 743d 3abf 733d d36e 193e
00000150: 9ab8 67bc 45bb a8bb 01d9 c7bd 7fc3 55be
00000160: d904 243e 5bee 09be 20f8 70be 84a4 563d
00000170: 9393 1b3e 49cc 673e d740 9fbd 7524 08bc
00000180: 3964 04bc 99a9 583e 6eeb 3d3c 038a d53c
00000190: 9e10 dfbd bb44 4ebe 0f5a 0d3e 56a4 88bb
000001a0: 8d42 4bbe 8a08 16bd 08d7 3b3a de5f cf3d
000001b0: 3771 ea3d 4ff0 72be 41d3 363e 1aa3 b23c
000001c0: dd24 d53d ecbb 153e 7562 18be 9131 403e
000001d0: a1a5 003e a000 1fbe 942c 3cbe 3832 92bc
000001e0: e66b 9b3c e63e 473e 8313 0e3d 22a9 d93c
000001f0: 4ef9 153c fcd5 0a3e 6336 393e 7e13 243e
00000200: 6cd4 27bc 28f6 a7bd 7a0d 233e 771a bbbc
00000210: 267f 55be 101b 02be 7f54 c4bd b4bd 8fbd
00000220: f9e0 973c da01 05be 8846 333e 3917 54be
00000230: 6d08 5fbd 2460 6ebd 5647 18be ab9d ba3c
00000240: 64ba 2f3e 2894 703e 55a4 133e 5177 fb3d
00000250: febf c23a 99de 3cbe 4d8f ddbd 67d6 5c3e
00000260: 636b 5dbd 5946 753d 8a3d 37be f8e6 6d3e
00000270: 10fc 36be 8209 4c3d 57fd 94bc 69e5 56be
00000280: a174 66bc 5648 26be b4c8 a03d db37 3e3d
00000290: 7160 dfbd fa1e 47be f701 0abd 20a9 3a3e
000002a0: fd5e 0fbe 7b41 0bbe 7416 c3bd bc23 b2bd
000002b0: 9152 5a3e 9668 953d 04c6 133e 6166 d6bd
000002c0: f780 37bd 5943 793d 94df ae3d aff3 373e
000002d0: 9ee8 5abe af2b e9bc 8bc6 233e de05 dfbd
000002e0: c0fe 02bd a599 acbd bc58 d23d 6d97 703d
000002f0: 989e 203e 06ee 6abd 46c3 8fbd c913 0f3e
00000300: fb3f 673e 7800 503d 17af 583e 0557 2b3e
00000310: 8983 00be 13c8 763d ba9d 0abe 5092 833d
00000320: c74e 613e 8e88 39bd 262f 613e a9fd 2a3e
00000330: 77b9 26bd 2472 c9bc 2f91 0f3e db00 4e3e
00000340: 6a39 dbbd a2da 1f3e 5231 65be c9d9 cfbb
00000350: b0a9 263e d0d2 a939 1257 b83d 3891 59be
00000360: 4491 e2bc 0004 49be 8f4f 4dbe 5dbc 6bbd
00000370: 3ff2 e6bd f42d f73d 1945 eebc 91ac 033d
00000380: 50f9 2a3e 5891 a13d c0f5 393e 4914 5b3e
00000390: 6ae8 613e 0d13 f53c e8ac 75bd 803d 18be
000003a0: 8331 0abe 703b 113d 11cf 38bd ca89 6a3d
000003b0: 2d95 333e 1bcc 1cbe 7d7b 7d3c d476 18be
000003c0: ed50 6d3d baaa 4e3d 2cfe 28be 1a5d d7bd
000003d0: b96c 9bbd 983b 343e 96fa 7dbd 07e4 3bbd
000003e0: 9e91 723d 4da3 47be 9186 36be bbb7 27bd
000003f0: e574 403e 7f9d 33be db5d a63d 5ad8 6a3e

conv1.bias f4 [64]
-0.050327413 -0.19049713 -0.16016322 -0.06329793 -0.1745673 -0.20412895 -0.015524941 -0.031936154
-0.18452352 -0.18557334 0.07482937 0.08603042 0.02725258 -0.06866042 -0.010157689 0.015806368
-0.053671714 -0.2020073 -0.06173114 -0.20214824 0.19209021 -0.19756 0.18382625 0.104503356
-0.15185444 -0.2331735 -0.11178917 0.12459853 0.037091058 -0.18661544 0.016097948 -0.13335416
0.11223285 -0.1851166 0.061716236 0.021917645 -0.22001284 0.1164239 0.113984026 0.051995214
-0.02683391 0.18494633 0.20773523 -0.22998665 0.027221419 0.026821988 -0.14230892 -0.13693623
-0.1657715 0.119359426 -0.15067741 0.121437244 -0.1713632 -0.18402201 -0.2159733 -0.19514728
0.13901314 -0.1691303 -0.14754438 0.09549388 -0.22021453 0.0030389205 0.21030498 0.009563172
00000000: 1e24 4ebd ae11 43be d401 24be 58a2 81bd
00000010: c5c1 32be 2e07 51be 525c 7ebc 7ccf 02bd
00000020: bcf3 3cbe f006 3ebe 2440 993d b830 b03d
00000030: cd40 df3c d69d 8cbd 706c 26bc 5b7c 813c
00000040: dfd6 5bbd 00db 4ebe cbd9 7cbd f3ff 4ebe
00000050: 4cb3 443e 2b4d 4abe f33c 3c3e db05 d63d
00000060: bb7f 1bbe 09c5 6ebe b8f1 e4bd 842d ff3d
00000070: cbec 173d 1e18 3fbe d8df 833c fe8d 08be
00000080: 56da e53d 358f 3dbe 2aca 7c3d a28c b33c
00000090: 0c4b 61be a76f ee3d 7570 e93d eff8 543d
000000a0: cad2 dbbc 9262 3d3e 8bb8 543e 9f81 6bbe
000000b0: 74ff de3c c9b9 db3c 6eb9 11be 0339 0cbe
000000c0: 01c0 29be b772 f43d 2e4b 1abe 17b4 f83d
000000d0: d679 2fbe 4470 3cbe 1b28 5dbe b0d4 47be
000000e0: 7659 0e3e 7e30 2dbe e015 17be 4c92 c33d
000000f0: eb7f 61be a028 473b 305a 573e daae 1c3c

bn1.weight f4 [64]
0.9970582 1.0081762 0.9968558 0.9920575 1.0059263 0.9939719 0.9965148 1.0017734
0.9990018 1.0003372 0.9967139 1.0050222 1.0023417 0.9968235 0.99622065 0.9982755
1.0032314 1.0011895 1.0064975 0.9956527 1.0086839 0.99417716 0.99956644 1.020132
0.99769014 1.0143106 0.9911633 1.005511 1.0012063 1.0082382 0.99920213 1.0001712
1.0053906 1.006642 1.0065237 1.0082104 0.9932251 1.0104734 0.9908472 0.99993306
0.9909214 0.99866855 0.99626833 0.9930709 0.9974029 1.0010633 0.99644965 0.9975758
0.99424136 0.9989006 1.0005524 1.0021573 1.0081038 1.0060152 0.9974224 0.99642384
0.99680275 0.99393046 0.99534214 0.9942602 1.0010614 0.9964704 0.99988836 1.0000801
00000000: 353f 7f3f eb0b 813f f131 7f3f 7bf7 7d3f
00000010: 31c2 803f f174 7e3f 981b 7f3f 1c3a 803f
00000020: 95be 7f3f 0d0b 803f a428 7f3f 91a4 803f
00000030: bc4c 803f d32f 7f3f 5108 7f3f fc8e 7f3f
00000040: e369 803f fa26 803f e9d4 803f 18e3 7e3f
00000050: 8e1c 813f 6582 7e3f 96e3 7f3f af93 823f
00000060: 9f68 7f3f eed4 813f e1bc 7d3f 96b4 803f
00000070: 8727 803f f30d 813f b6cb 7f3f 9c05 803f
00000080: a4b0 803f a5d9 803f c5d5 803f 0a0d 813f
00000090: 0044 7e3f 3157 813f 29a8 7d3f 9dfb 7f3f
000000a0: 06ad 7d3f bea8 7f3f 710b 7f3f e539 7e3f
000000b0: cc55 7f3f d822 803f 5317 7f3f 2161 7f3f
000000c0: 9a86 7e3f f3b7 7f3f 1a12 803f b146 803f
000000d0: 8c09 813f 1bc5 803f 1357 7f3f a215 7f3f
000000e0: 772e 7f3f 3a72 7e3f bece 7e3f d687 7e3f
000000f0: c822 803f af18 7f3f aff8 7f3f a002 803f

bn1.bias f4 [64]
0.006703338 0.015395306 0.007942168 0.006883443 0.011928468 0.0014203158 0.0051437835 0.007472342
0.010979283 0.009901549 -0.0051102014 0.012926035 0.012291417 0.012111829 0.0058558187 0.0071123
0.007824912 0.008954439 0.004369114 0.0018170961 0.014466271 0.0011920346 0.008170619 0.020487621
-0.002612285 0.01602857 0.0026781606 0.0155136725 0.005278054 0.017875124 0.0025779027 0.0074522006
0.006671 0.017676925 0.013593033 0.017438997 0.010279711 0.018394442 0.003467716 0.0048281928
-0.0022380103 0.006427103 0.004199488 -0.00193183 0.0040953723 0.016266268 0.009321114 0.00529383
0.0008140192 0.0073898183 0.009504427 0.013743121 0.012940707 0.014758277 0.0077116345 0.0046719247
0.009860541 -0.0021014772 0.0010160811 0.005405742 0.008347472 0.0043878336 0.005431535 0.002484377
00000000: ada7 db3b 983c 7c3c de1f 023c 818e e13b
00000010: 9f6f 433c e429 ba3a 2f8d a83b 8cda f43b
00000020: 73e2 333c 1b3a 223c 7a73 a7bb b8c7 533c
00000030: f161 493c b170 463c 2be2 bf3b 4c0e e93b
00000040: 0f34 003c a4b5 123c c92a 8f3b a12b ee3a
00000050: f003 6d3c 0b3e 9c3a 0fde 053c a8d5 a73c
00000060: df32 2bbb 594e 833c 1484 2f3b 0f2d 7e3c
00000070: 87f3 ac3b da6e 923c 08f2 283b 9731 f43b
00000080: 6798 da3b 33cf 903c 50b5 5e3c 3adc 8e3c
00000090: 3c6c 283c f1af 963c 9f42 633b d135 9e3b
000000a0: 95ab 12bb 739a d23b dc9b 893b 7535 fdba
000000b0: 7932 863b d640 853c 96b7 183c dd77 ad3b
000000c0: e763 553a 4a26 f23b 75b8 1b3c d42a 613c
000000d0: 4205 543c b3cc 713c e1b1 fc3b f216 993b
000000e0: 1b8e 213c f0b8 09bb 062e 853a a722 b13b
000000f0: d6c3 083c d1c7 8f3b 05fb b13b eed0 223b

bn1.running_mean f4 [64]
-0.023439523 -0.2163814 -0.1673797 -0.020477276 -0.2292345 -0.16779046 0.038880806 -0.024339398
-0.12769605 -0.2244129 0.06433515 0.15674399 -0.011078916 -0.089355186 0.010143334 0.03241466
-0.027802074 -0.14477982 -0.09125336 -0.15417176 0.14027993 -0.17448424 0.193886 -0.0064204624
-0.15155476 -0.3419548 -0.108730875 0.07599964 0.072598845 -0.24110997 0.026356833 -0.104225375
0.14064623 -0.22906429 -0.012186102 -0.049074195 -0.24235195 0.061498947 0.15728298 0.039509133
-0.010192102 0.20044012 0.22422093 -0.213836 0.0348515 -0.008819629 -0.15554963 -0.09126529
-0.16171151 0.17939395 -0.113274366 0.058459237 -0.23822168 -0.24167477 -0.20238158 -0.1760061
0.1691395 -0.097432666 -0.14078316 0.0813949 -0.19464031 0.07127791 0.23903671 0.03668498
00000000: 3e04 c0bc 1693 5dbe 9665 2bbe f6bf a7bc
00000010: 73bc 6abe 43d1 2bbe 7b41 1f3d 6b63 c7bc
00000020: c1c2 02be 7fcc 65be 26c2 833d 7f81 203e
00000030: 5784 35bc daff b6bd 3a30 263c 3cc5 043d
00000040: 2dc1 e3bc 2941 14be 0be3 babd 34df 1dbe
00000050: 8ba5 0f3e ffab 32be 0d8a 463e be62 d2bb
00000060: 2c31 1bbe b314 afbe 4bae debd b3a5 9b3d
00000070: b4ae 943d 88e5 76be 49ea d73c 1d74 d5bd
00000080: 9105 103e d48f 6abe 37a8 47bc 0602 49bd
00000090: 1c2b 78be 52e6 7b3d ca0e 213e 54d4 213d
000000a0: c6fc 26bc 2d40 4d3e 2c9a 653e d3f7 5abe
000000b0: 72c0 0e3d 3580 10bc 6748 1fbe 4ce9 babd
000000c0: b497 25be 0cb3 373e 64fc e7bd f472 6f3d
000000d0: 62f0 73be 9779 77be 1e3d 4fbe f13a 34be
000000e0: e832 2d3e c78a c7bd 7629 10be 5fb2 a63d
000000f0: ca4f 47be 27fa 913d 0ac6 743e fd42 163d

bn1.running_var f4 [64]
0.0133334445 0.0044268807 0.019804755 0.022277828 0.012621669 0.016433185 0.018588075 0.016199805
0.020986678 0.013878296 0.011164862 0.018081103 0.013617365 0.010166616 0.023301926 0.018371481
0.009354504 0.014725788 0.016872736 0.01600494 0.018385123 0.014463016 0.016362462 0.016246129
0.02364382 0.020096274 0.01686898 0.014963658 0.012470838 0.021897966 0.014747862 0.011206493
0.014783634 0.017464224 0.020432023 0.016377682 0.020686503 0.017800178 0.0146942455 0.01796149
0.018968994 0.0084256055 0.020463988 0.0062288744 0.011621472 0.015281497 0.015277823 0.011735667
0.012165465 0.022737367 0.011090331 0.021944266 0.02294399 0.010509261 0.012782839 0.012934253
0.0070571136 0.012999661 0.010055124 0.012505155 0.012254485 0.015364976 0.012219309 0.013019439
00000000: 8574 5a3c 5e0f 913b 953d a23c fe7f b63c
00000010: 1ecb 4e3c e39e 863c 0546 983c 74b5 843c
00000020: 41ec ab3c cb61 633c d3ec 363c d21e 943c
00000030: 5e1b 5f3c e191 263c aee3 be3c ca7f 963c
00000040: a243 193c 6e44 713c b138 8a3c cb1c 833c
00000050: 669c 963c 49f6 6c3c 920a 863c 9a16 853c
00000060: afb0 c13c f1a0 a43c d130 8a3c 212a 753c
00000070: 7c52 4c3c 5d63 b33c 04a1 713c 709b 373c
00000080: 0e37 723c 2211 8f3c 0f61 a73c 7d2a 863c
00000090: be76 a93c aed1 913c 22c0 703c fa23 933c
000000a0: dd64 9b3c 8d0b 0a3c 18a4 a73c 961b cc3b
000000b0: fd67 3e3c 3e5f 7a3c d64f 7a3c f446 403c
000000c0: a951 473c b743 ba3c 38b4 353c 76c4 b33c
000000d0: 09f5 bb3c 092f 2c3c 1d6f 513c 30ea 533c
000000e0: 5c3f e73b 88fc 543c 3fbe 243c 6ce2 4c3c
000000f0: 09c7 483c 61bd 7b3c 7f33 483c 7c4f 553c

conv2.weight f4 [128, 64, 3, 3]
0.03757815 -0.034678787 0.0056812908 0.010922349 0.03423369 0.0075381896 0.010733257 -0.019650897
0.026338318 0.028843625 -0.024616092 0.017115528 -0.011163462 0.028291827 -0.046271462 0.030717045
-0.0035089885 -0.013871592 -0.033178773 -0.03105006 -0.04326648 -0.03240677 0.00493417 0.015044757
-0.041381635 0.0032670007 0.035190497 -0.018559504 -0.0023978238 -0.0007901351 -0.0004977052 0.013093603
-0.0073421067 -0.040620428 -0.0151400585 -0.02260047 -0.0068642297 -0.033347096 0.03539124 0.036816288
0.02966649 0.0007594715 -0.012767393 -0.023079975 0.02153888 0.031023007 -0.012297922 0.037165765
-0.024831548 0.0023821613 -0.010034635 0.019307151 -0.030162692 -0.040064275 0.01640253 -0.03664231
-0.00032802927 -0.0021344735 -0.023194792 -0.008385211 0.031348713 -0.006027966 -0.031744804 -0.013574308
0.031401552 0.01669463 -0.037851457 -0.001311898 -0.016900878 0.0074980417 0.009999142 -0.019121228
0.021392861 -0.04194488 0.00567282 -0.0023477578 0.037161347 0.027164593 -0.0060557276 0.027510943
0.03480315 0.01341117 -0.031990822 -0.0063290745 -0.0008751269 0.01843544 0.01958311 0.026604524
0.02174696 -0.00886792 0.0038427967 -0.02520221 0.02362798 0.00021962659 0.031940144 -0.018288108
0.031810936 0.016559888 0.012305477 0.0022390082 -0.0012399298 -0.01688476 0.034720883 0.027079582
-0.026284054 -0.008895751 0.02237535 0.014865653 0.005487678 -0.0144922575 -0.0144449975 -0.013635605
-0.008825373 0.018952213 0.029946854 -0.011547676 0.034851626 -0.01983906 -0.009220601 -0.038076375
-0.040293556 -0.0003734834 -0.005831478 0.0056798784 0.005066728 0.02513256 0.036959216 -0.013132325
-0.016118659 -0.008977252 0.008411938 -0.01281193 -0.018187828 0.024529498 -0.036597114 0.022471903
0.026450496 0.0066274996 0.038671535 0.015709067 -0.0007504184 0.022433173 0.0026599076 0.005518411
0.014627761 0.038624246 0.03172472 -0.03636887 0.009770068 0.018920263 0.024081942 0.0057866587
0.024376499 0.007318846 -0.03213497 0.01619284 0.023312904 -0.01956934 -0.029792545 0.03485868
0.022768995 -0.045721434 -0.024288876 0.045620658 0.007898388 -0.03618268 -0.002746416 -0.014698549
-0.013154431 0.034194253 0.023754817 -0.033202536 -0.013012077 0.013058506 -0.03138471 -0.02954057
0.012541379 -0.008071359 -0.040072117 -0.005349216 -0.022785092 0.023863751 -0.006767146 0.007450033
-0.020635014 -0.030315286 -0.02287902 -0.0006666313 -0.01921089 0.0044721505 0.0018699667 -0.04078098
0.0156066995 -0.019310487 0.008090412 0.0072600897 0.031708665 -0.026150417 0.03914714 0.03470598
-0.0024039382 0.031292353 -0.016425012 0.038348254 -0.0054810597 -0.016322073 -0.04147526 0.0017609318
0.009894665 -0.037390053 0.039060634 -0.0014295568 0.021765597 0.03209606 -0.0043381485 -0.0035828867
0.0036272581 -0.04554207 -0.047043413 -0.029216155 0.038893852 0.02607802 -0.03722884 -0.009222048
-0.009804534 0.042314347 0.043973897 0.036654435 -0.00023997242 -0.029410217 -0.03338206 0.011277173
0.042504776 0.032195862 0.0024078025 0.041030634 0.00073475187 -0.024127483 0.01416287 -0.032361433
-0.030956231 0.034455836 -0.0045717163 -0.028450496 0.0051725907 -0.018911103 0.038045816 -0.025488628
0.02189806 0.03277218 -0.016760718 0.034460742 -0.0045573963 0.034587935 0.029715054 -0.0043081203
00000000: 8ceb 193d 580b 0ebd 1f2a ba3b a7f3 323c
00000010: a038 0c3d eb02 f73b 8bda 2f3c ebfa a0bc
00000020: 75c3 d73c 7749 ec3c b0a7 c9bc dd35 8c3c
00000030: f4e6 36bc 43c4 e73c 2587 3dbd 50a2 fb3c
00000040: 0ff7 65bb ac45 63bc 77e6 07bd b25c febc
00000050: 3138 31bd f6bc 04bd d1ae a13b 497e 763c
00000060: ca7f 29bd 2d1b 563b e923 103d 1a0a 98bc
00000070: cf24 1dbb 1221 4fba 6e78 02ba 8d86 563c
00000080: 0e96 f0bb 9b61 26bd 020e 78bc 9f24 b9bc
00000090: 55ed e0bb f796 08bd 68f6 103d adcc 163d
000000a0: 2407 f33c 4517 473a 542e 51bc 3712 bdbc
000000b0: 4e72 b03c f623 fe3c 397d 49bc 213b 183d
000000c0: 886b cbbc 091e 1c3b 4f68 24bc 082a 9e3c
000000d0: c017 f7bc 701a 24bd 995e 863c 3f16 16bd
000000e0: 58fb abb9 86e2 0bbb 0103 bebc 2062 09bc
000000f0: 8267 003d 3e86 c5bb d706 02bd c666 5ebc
00000100: ea9e 003d 2dc3 883c 210a 1bbd fef3 abba
00000110: b673 8abc 22b2 f53b 71d3 233c 1fa4 9cbc
00000120: 1540 af3c 65ce 2bbd 10e3 b93b d7dc 19bb
00000130: 7f36 183d 4888 de3c 206f c6bb a15e e13c
00000140: bf8d 0e3d 86ba 5b3c cf08 03bd 2064 cfbb
00000150: c668 65ba eb05 973c c26c a03c bbf1 d93c
00000160: ae26 b23c c14a 11bc 6ed7 7b3b dd74 cebc
00000170: 778f c13c 904b 6639 abd3 023d f1d0 95bc
00000180: 2f4c 023d 9aa8 873c e99c 493c 53bc 123b
00000190: 2485 a2ba e951 8abc 7c37 0e3d 00d6 dd3c
000001a0: a851 d7bc 7cbf 11bc 834c b73c 118f 733c
000001b0: fbd1 b33b ef70 6dbc b6aa 6cbc df67 5fbc
000001c0: 4c98 10bc ac41 9b3c 1b53 f53c 7732 3dbc
000001d0: 94c0 0e3d 8685 a2bc 0112 17bc f9f5 1bbd
000001e0: db0a 25bd 18d0 c3b9 fc15 bfbb 461e ba3b
000001f0: cc06 a63b cce2 cd3c 8c62 173d f728 57bc
00000200: 470b 84bc 5315 13bc 3ad2 093c 21e9 51bc
00000210: a4fe 94bc 16f2 c83c dbe6 15bd ff16 b83c
00000220: b6ae d83c 7f2b d93b 0b66 1e3d 4db0 803c
00000230: bab7 44ba c6c5 b73c d851 2e3b c9d3 b43b
00000240: 47a9 6f3c 7534 1e3d c8f1 013d 86f7 14bd
00000250: a312 203c abfe 9a3c 7e47 c53c 039e bd3b
00000260: 39b1 c73c eed2 ef3b f59f 03bd d9a6 843c
00000270: b4fa be3c e14f a0bc 7f0f f4bc fac7 0e3d
00000280: 0b86 ba3c 6646 3bbd 77f9 c6bc badc 3a3d
00000290: 3e68 013c 4a34 14bd 37fd 33bb 2fd2 70bc
000002a0: af85 57bc 460f 0c3d 7699 c23c 62ff 07bd
000002b0: 9b30 55bc 58f3 553c 418d 00bd 11ff f1bc
000002c0: 5b7a 4d3c bc3d 04bc a922 24bd 7a48 afbb
000002d0: cda7 babc ea7d c33c efbe ddbb 681f f43b
000002e0: c30a a9bc c357 f8bc c86c bbbc dfc0 2eba
000002f0: 2860 9dbc 1e8b 923b ac19 f53a f509 27bd
00000300: 3eb3 7f3c 0731 9ebc a68d 043c 0ce6 ed3b
00000310: f2e0 013d 6639 d6bc c058 203d dc27 0e3d
00000320: 648b 1dbb 692c 003d bf8d 86bc 0f13 1d3d
00000330: 769a b3bb deb5 85bc f6e1 29bd 11cf e63a
00000340: 3c1d 223c 5026 19bd 0bfe 1f3d f75f bbba
00000350: c44d b23c 2977 033d 0727 8ebb ddce 6abb
00000360: 4bb7 6d3b 528a 3abd 98b0 40bd b856 efbc
00000370: 294f 1f3d 92a1 d53c 457d 18bd 1318 17bc
00000380: 32a3 20bc cf51 2d3d f91d 343d f622 163d
00000390: 1ba1 7bb9 b2ed f0bc a0bb 08bd e4c3 383c
000003a0: 7d19 2e3d cfdf 033d 39cc 1d3b bd0f 283d
000003b0: 5d9c 403a 00a7 c5bc 620b 683c 6c8d 04bd
000003c0: ec97 fdbc 9021 0d3d 56ce 95bb 0411 e9bc
000003d0: d67e a93b 75eb 9abc eed5 1b3d 87cd d0bc
000003e0: 8f63 b33c 1f3c 063d c64d 89bc b526 0d3d
000003f0: 3656 95bb 14ac 0d3d fc6c f33c 222b 8dbb

conv2.bias f4 [128]
-0.0005659587 0.0015529807 -0.024654021 0.010283672 0.0043954444 -0.028782591 -0.036189973 -0.007537602
-0.022796797 0.0056527397 -0.038539898 0.027933983 0.028123619 -0.019522842 0.027753608 -0.040753543
0.012577737 -0.030184198 -0.00046604496 -0.021676997 0.03747088 -0.0005420859 0.010003627 0.03114577
-0.036182296 -0.02012954 0.028589012 -0.016705517 -0.0034934934 -0.030752277 0.010000614 0.030482067
0.005902626 0.017813902 0.01639429 0.037050918 0.029798744 -0.031543285 -0.030461518 0.0050533586
0.023476396 0.0051947124 5.6055072e-05 0.0065050363 -0.025849218 -0.011073263 0.019755492 -0.0055305436
0.019498935 -0.032553885 -0.028405933 -0.024667883 -0.0067313514 0.022093114 -0.039691653 0.019503277
0.0023842773 -0.038875446 0.023320703 -0.019185832 -0.018939482 0.03080491 0.005518332 0.0299181
-0.028809149 0.023714624 0.0013166629 0.039882693 -0.011004765 -0.015268372 -0.015921846 0.028818065
0.0197364 0.033368208 0.0020442444 -0.036117394 -0.004988571 0.031914946 0.018086137 -0.0009375079
0.031016726 -0.017751396 0.031284187 0.019753395 -0.020678815 0.022635613 0.041307133 -0.014814737
0.019609733 0.0073898234 0.039528597 -0.030329932 0.034153886 -0.0052016005 -0.026748085 0.019596558
0.0285134 0.014300383 -0.011146767 0.02085799 -0.037938293 -0.036294088 0.019619195 -0.014585165
-0.039321225 -0.0011036679 0.013300039 -0.01890273 0.029684443 -0.015382698 0.038845588 -0.04126002
-0.039897334 0.0029312335 -0.021446073 0.008471786 0.015740758 -0.01928542 0.033639666 0.015732486
0.02358901 0.03639424 0.0007372889 0.012816558 0.02600997 -0.017810486 -0.010243548 -0.00077106705
00000000: d85c 14ba 638d cb3a 3bf7 c9bc d97c 283c
00000010: a907 903b 78c9 ebbc f03b 14bd fdfd f6bb
00000020: 59c0 babc 9e3a b93b 03dc 1dbd cfd5 e43c
00000030: 8163 e63c 5eee 9fbc 895b e33c 30ed 26bd
00000040: da12 4e3c da44 f7bc 7f57 f4b9 f593 b1bc
00000050: 117b 193d c51a 0eba 41e6 233c 6a25 ff3c
00000060: e333 14bd b4e6 a4bc 8133 ea3c 02da 88bc
00000070: 18f3 64bb 33ec fbbc 9ed9 233c 87b5 f93c
00000080: d16a c13b 76ee 913c 514d 863c b4c2 173d
00000090: 7f1c f43c 8833 01bd 6f8a f9bc a596 a53b
000000a0: 9251 c03c 6838 aa3b ad1c 6b38 3328 d53b
000000b0: bdc1 d3bc a26c 35bc 45d6 a13c 9039 b5bb
000000c0: 3bbc 9f3c 3957 05bd 8fb3 e8bc 4d14 cabc
000000d0: ab92 dcbb 9efc b43c b793 22bd 56c5 9f3c
000000e0: 8941 1c3b dc3b 1fbd 0f0b bf3c 9b2b 9dbc
000000f0: f926 9bbc 945a fc3c 20d3 b43b ce16 f53c
00000100: 2a01 ecbc 2c45 c23c e093 ac3a 095c 233d
00000110: 544d 34bc 3228 7abc 886e 82bc dd13 ec3c
00000120: 3bae a13c 1aad 083d bbf8 053b d5ef 13bd
00000130: 2b77 a3bb 3fb9 023d 6129 943c 17c3 75ba
00000140: ca16 fe3c 606b 91bc d923 003d dfd1 a13c
00000150: 9e66 a9bc 526e b93c ab31 293d 83b9 72bc
00000160: 97a4 a03c 5526 f23b bde8 213d 7a76 f8bc
00000170: f2e4 0b3d 3072 aabb cd1e dbbc f688 a03c
00000180: ef94 e93c 274c 6a3c eea0 36bc 60de aa3c
00000190: 2f65 1bbd 1ca9 14bd 6fb8 a03c 9ef6 6ebc
000001a0: 4b0f 21bd f3a8 90ba 68e8 593c e6d9 9abc
000001b0: ca2c f33c b607 7cbc 8d1c 1f3d 4400 29bd
000001c0: 636b 23bd f019 403b adaf afbc 3fcd 0a3c
000001d0: c3f2 803c 75fc 9dbc bfc9 093d 6ae1 803c
000001e0: bd3d c13c 2012 153d 9f46 413a 8afc 513c
000001f0: dc12 d53c 4ce7 91bc 8ed4 27bc 6f21 4aba

bn2.weight f4 [128]
0.9972318 0.99216783 0.99895734 0.9972574 1.0150363 0.99436164 1.0038182 0.9906161
1.00599 0.9885759 1.0013311 1.0074528 1.0065777 1.0206462 0.99694604 1.0081342
0.99231625 1.0113535 1.0055327 1.0016824 1.0059767 0.9961257 1.0137734 1.0143673
1.0014437 0.99257195 1.0028095 0.9946948 1.00387 0.999934 0.9964483 1.0052462
0.9917882 1.0181488 0.9907782 1.0079825 0.99756557 1.0007354 0.9905063 0.9951749
0.9953331 0.99481064 0.9982307 1.0158935 0.9947393 1.0014975 1.0021112 0.99380904
1.0123138 1.012464 1.002095 1.0107086 0.99110097 0.98257166 0.99385256 1.0134493
0.9942279 1.0059288 1.0098678 0.9976969 0.99126947 1.0103937 1.0026094 1.0063895
1.0014229 1.007198 0.9924312 0.99806786 0.9952881 0.98744917 1.0023469 0.99028903
1.0163729 0.9977168 0.9926585 1.0019192 0.9929749 0.9953218 1.0027304 1.0045056
1.0098257 0.99213636 0.9912359 0.99143356 0.99311304 0.99540246 1.0131047 0.9986467
0.9963961 1.0046806 0.99416465 0.9956641 1.0017192 1.0145547 0.99469006 1.0203847
0.98741317 1.0103006 0.9960362 0.9910092 0.9963198 0.9909942 1.0062612 0.9997821
0.9980774 0.99388903 0.9977746 1.0030895 1.0125219 1.0052948 0.9989818 0.99031144
1.005981 1.0003579 0.98914105 0.99383837 1.0055634 0.9949712 0.9998711 1.0084112
1.0132779 0.9993181 0.99156237 1.0179054 1.003354 0.9924838 0.99010086 0.9911716
00000000: 954a 7f3f b6fe 7d3f abbb 7f3f 434c 7f3f
00000010: b6ec 813f 7c8e 7e3f 1d7d 803f 0499 7d3f
00000020: 48c4 803f 4f13 7d3f 9e2b 803f 37f4 803f
00000030: 8ad7 803f 89a4 823f db37 7f3f 8b0a 813f
00000040: 7008 7e3f 0874 813f 4cb5 803f 2137 803f
00000050: d8c3 803f 1802 7f3f 54c3 813f cad6 813f
00000060: 4f2f 803f 3219 7e3f 105c 803f 52a4 7e3f
00000070: d07e 803f adfb 7f3f 3c17 7f3f e8ab 803f
00000080: d5e5 7d3f b352 823f a4a3 7d3f 9205 813f
00000090: 7560 7f3f 1918 803f d291 7d3f c8c3 7e3f
000000a0: 26ce 7e3f e9ab 7e3f 0c8c 7f3f cc08 823f
000000b0: 3ca7 7e3f 1231 803f 2e45 803f 456a 7e3f
000000c0: 8093 813f 6c98 813f a644 803f e65e 813f
000000d0: cbb8 7d3f d189 7b3f 1f6d 7e3f b5b8 813f
000000e0: b885 7e3f 46c2 803f 5943 813f 1069 7f3f
000000f0: d6c3 7d3f 9554 813f 8155 803f 5fd1 803f
00000100: a02e 803f ddeb 803f f90f 7e3f 6081 7f3f
00000110: 33cb 7e3f 78c9 7c3f e74c 803f 9583 7d3f
00000120: 8218 823f 5e6a 7f3f de1e 7e3f e33e 803f
00000130: 9a33 7e3f 69cd 7e3f 7859 803f a493 803f
00000140: f841 813f a6fc 7d3f a3c1 7d3f 97ce 7d3f
00000150: a83c 7e3f b2d2 7e3f 6aad 813f 4fa7 7f3f
00000160: d113 7f3f 6099 803f 9381 7e3f d8e3 7e3f
00000170: 5638 803f eedc 813f 02a4 7e3f f79b 823f
00000180: 1cc7 7c3f 8851 813f 3afc 7e3f c7b2 7d3f
00000190: d00e 7f3f ccb1 7d3f 2bcd 803f b8f1 7f3f
000001a0: 0082 7f3f 836f 7e3f 286e 7f3f 3d65 803f
000001b0: 519a 813f 80ad 803f 45bd 7f3f 0d85 7d3f
000001c0: fcc3 803f ba0b 803f 5938 7d3f 316c 7e3f
000001d0: 4db6 803f 6fb6 7e3f 8df7 7f3f 9e13 813f
000001e0: 17b3 813f 50d3 7f3f 08d7 7d3f b94a 823f
000001f0: e76d 803f 6b13 7e3f 4077 7d3f 6cbd 7d3f

bn2.bias f4 [128]
0.0051961816 -0.007633675 0.0025526753 -0.0011818404 0.008716076 -0.0064887684 0.007077489 -0.0049630394
0.001263823 -0.005253854 0.00033864414 0.0028427925 0.011552342 0.011391462 -0.00311184 0.010498934
-0.000989301 0.008395457 0.006677783 0.006269365 0.008718168 0.0032514818 0.012177658 0.014250179
0.0054467386 -0.0013980615 0.0024241097 -0.00092824 0.0025666598 -0.00030352175 0.00039080056 0.008035624
0.0005160805 0.0052485405 -0.0044592386 0.007953132 -0.0017054057 -0.006648783 -0.007662986 -0.00069562974
0.0033231366 -0.0023215653 0.0005755084 0.00370447 -0.00021502 0.0057392437 0.0039560245 0.004547328
0.008449712 0.0028134866 0.00042715203 0.0047844797 -0.002405887 -0.0073316707 -0.0012020478 0.0129774315
-0.0034252615 0.008037597 0.0074055176 0.0013689518 -0.004974604 0.009415236 -0.0019380089 0.0014830169
0.00093110744 0.008703756 0.0069057457 0.0015235726 0.0010932616 -0.0077527855 0.0038235406 -0.008440301
0.012401691 -0.002877039 -0.004197664 -0.0026707468 -0.007705035 -0.0026526393 0.0072253644 0.0038040355
0.0077714296 -0.003743414 -0.00017424484 -0.007921243 -0.0013864889 -0.0015850158 0.008394523 0.0095562115
0.0010561838 0.0046483213 0.001607872 0.0018034136 0.0077714515 0.0073147486 -0.0004335483 0.00997785
-0.0040113954 0.0033746944 -0.0014989865 -0.0027971743 0.0010205664 -0.0021500716 0.0069104 0.0034876945
0.00021576912 -0.00368194 0.0014840182 0.005872019 0.006612166 0.004488746 0.00013350695 -0.001175779
0.007175462 -0.0010980098 -0.0032647778 -0.0084678605 0.0092316205 -0.0005330033 0.0026551438 0.00702037
0.008753003 -0.0035866627 -0.0017873057 0.013041843 0.0010835648 -0.0002318313 -0.0020845197 -0.0124474475
00000000: bb44 aa3b e823 fabb c94a 273b fce7 9aba
00000010: dfcd 0e3c bc9f d4bb 48ea e73b fea0 a2bb
00000020: dda6 a53a 8628 acbb 0c8c b139 254e 3a3b
00000030: 0946 3d3c 41a3 3a3c 03f0 4bbb b903 2c3c
00000040: 6fab 81ba 198d 093c 4ed1 da3b 3f6f cd3b
00000050: a6d6 0e3c d016 553b cd84 473c 9579 693c
00000060: 8e7a b23b 293f b7ba d0dd 1e3b 2255 73ba
00000070: 6835 283b 0022 9fb9 5de4 cc39 daa7 033c
00000080: 9349 073a f3fb ab3b ce1e 92bb da4d 023c
00000090: eb87 dfba 09de d9bb c919 fbbb ec5a 36ba
000000a0: fbc8 593b 6725 18bb b7dd 163a b1c6 723b
000000b0: fe76 61b9 4410 bc3b 8aa1 813b c101 953b
000000c0: a970 0a3c 7962 383b 60f3 df39 20c7 9c3b
000000d0: 16ac 1dbb 833e f0bb 088e 9dba 4b9f 543c
000000e0: 5a7a 60bb 20b0 033c fca9 f23b 666e b33a
000000f0: 0102 a3bb 5d42 1a3c ca04 feba ca61 c23a
00000100: 9015 743a 339a 0e3c 9849 e23b 9db2 c73a
00000110: c64b 8f3a 140b febb 5e94 7a3b 3049 0abc
00000120: 7630 4b3c b48c 3cbb 8f8c 89bb b207 2fbb
00000130: 857a fcbb e7d7 2dbb c0c2 ec3b 204d 793b
00000140: 7aa7 fe3b 1154 75bb 7eb5 36b9 1ac8 01bc
00000150: d9ba b5ba 4ec0 cfba 2e89 093c a891 1c3c
00000160: a66f 8a3a f250 983b 3bbf d23a 8560 ec3a
00000170: a9a7 fe3b 8fb0 ef3b de4d e3b9 237a 233c
00000180: 0672 83bb fa29 5d3b a479 c4ba cc50 37bb
00000190: 87c4 853a 37e8 0cbb a370 e23b ce91 643b
000001a0: 1540 6239 b44c 71bb 6383 c23a 116a c03b
000001b0: deaa d83b 5516 933b 00fe 0b39 991c 9aba
000001c0: 2320 eb3b 18eb 8fba e2f5 55bb c8bc 0abc
000001d0: 3940 173c 3fb9 0bba ec01 2e3b 220b e63b
000001e0: c168 0f3c 370e 6bbb 0744 eaba 74ad 553c
000001f0: 6706 8e3a be17 73b9 709c 08bb 61f0 4bbc

bn2.running_mean f4 [128]
0.30639663 -0.13666144 -0.13322034 0.20954382 -0.2297713 -0.021479456 -0.11666183 -0.23717248
-0.46578777 0.15514296 -0.1227501 -0.37661046 0.04373557 -0.6398952 -0.0035869672 -0.4632573
0.068775065 -0.3312219 -0.26162043 -0.02943467 -0.4449089 -0.12194335 -0.5771311 -0.3014256
-0.14512518 0.4027316 -0.24435602 -0.08201514 -0.21714799 0.037916042 0.068577565 0.014315337
0.13283426 -0.7230167 -0.0045356643 -0.45579538 -0.13279322 -0.19563267 -0.17324388 0.00010497408
0.081325315 -0.22358668 0.096282594 -0.31071392 -0.4657774 -0.16435036 0.24535413 0.008201366
-0.27910024 -0.6893246 -0.04145889 -0.54184926 0.04035507 0.123948224 0.015064648 -0.3273589
0.043823823 -0.38689277 0.019921284 -0.39390862 -0.018613325 -0.37819046 -0.082919344 -0.017677674
-0.07466805 -0.0789012 0.07843486 0.27783433 0.109072484 0.019609144 0.006675757 0.35054433
-0.6430082 0.16444832 -0.13317472 -0.35631704 0.16378982 0.1286335 -0.13142385 -0.21419156
-0.2955069 0.17810181 0.11623314 0.20291579 -0.0209759 -0.114149734 -0.49866182 0.17032044
0.0754428 -0.3508957 0.29639542 -0.09673325 0.036699057 -0.6574598 -0.02313337 -0.54465944
-0.0024775546 -0.2432411 -0.057813194 0.032630194 -0.16629806 -0.011580618 -0.03709545 -0.42513338
-0.24634705 -0.15462846 0.050166074 -0.2819561 -0.22961578 -0.34366792 -0.06903855 0.3865081
-0.39017838 -0.0454933 0.18211704 -0.0071583 -0.48476183 0.011461987 -0.1474012 -0.2022842
-0.42458013 0.3664093 0.024047535 -0.5585629 -0.39936844 0.107908785 -0.06728438 0.12376612
00000000: 05e0 9c3e faf0 0bbe ea6a 08be a892 563e
00000010: 2b49 6bbe aff5 afbc 66ec eebd 58dd 72be
00000020: bc7b eebe ccdd 1e3e 6864 fbbd 16d3 c0be
00000030: 1224 333d 2cd0 23bf 5313 6bbb 1030 edbe
00000040: f1d9 8c3d eb95 a9be 1df3 85be fa20 f1bc
00000050: 19cb e3be 6fbd f9bd ddbe 13bf 7554 9abe
00000060: b29b 14be d632 ce3e 7738 7abe 8ef7 a7bd
00000070: 0b5c 5ebe da4d 1b3d 6572 8c3d e08a 6a3c
00000080: b405 083e 9f17 39bf e99f 94bb 035e e9be
00000090: f2fa 07be ee53 48be d866 31be 8825 dc38
000000a0: e38d a63d e8f3 64be cf2f c53d e515 9fbe
000000b0: 607a eebe 764b 28be 1d3e 7b3e 065f 063c
000000c0: 3ae6 8ebe 9477 30bf ccd0 29bd a2b6 0abf
000000d0: 5c4b 253d 91d8 fd3d b7d1 763c 969b a7be
000000e0: 9c80 333d cf16 c6be f631 a33c 64ae c9be
000000f0: f97a 98bc 2ea2 c1be 9ed1 a9bd c5d0 90bc
00000100: 90eb 98bd f496 a1bd 75a2 a03d 4d40 8e3e
00000110: 6561 df3d 5ba3 a03c 4fc0 da3b 8c7a b33e
00000120: 2f9c 24bf 2465 283e f45e 08be 306f b6be
00000130: 85b8 273e 80b8 033e f993 06be 0855 5bbe
00000140: ae4c 97be 5260 363e a40b ee3d 28c9 4f3e
00000150: a7d5 abbc 56c7 e9bd 9a50 ffbe 7b68 2e3e
00000160: c181 9a3d 9aa8 b3be 24c1 973e 151c c6bd
00000170: c051 163d 494f 28bf 3182 bdbc cd6e 0bbf
00000180: 785e 22bb 3214 79be 87cd 6cbd 3da7 053d
00000190: 0a4a 2abe a2bc 3dbc 66f1 17bd 15ab d9be
000001a0: 6742 7cbe ec56 1ebe f17a 4d3d 8d5c 90be
000001b0: 6620 6bbe 3ef5 afbe 1564 8dbd 64e4 c53e
000001c0: 76c5 c7be 2f57 3abd e47c 3a3e 2c90 eabb
000001d0: b432 f8be 0fcb 3b3c 57f0 16be 9723 4fbe
000001e0: 9162 d9be 009a bb3e 56ff c43c fafd 0ebf
000001f0: 057a ccbe 48ff dc3d 65cc 89bd 1779 fd3d

bn2.running_var f4 [128]
0.10643167 0.07158797 0.095704526 0.18522651 0.11733179 0.13357398 0.081463076 0.17371011
0.19392605 0.15931994 0.16442667 0.0730323 0.09766026 0.13639857 0.128723 0.15782636
0.13563946 0.08974641 0.10774017 0.16669421 0.24594213 0.16509335 0.23626374 0.15568848
0.17055656 0.15722686 0.12280252 0.13659872 0.15145057 0.083577015 0.1214486 0.11184143
0.122276925 0.101066366 0.07015459 0.20881635 0.078203134 0.09033926 0.08988288 0.11210881
0.11534801 0.22833538 0.15182543 0.06074181 0.21571729 0.122765474 0.08402128 0.1424764
0.09340524 0.13362913 0.072235346 0.102974355 0.10827595 0.09108211 0.100812614 0.07427635
0.16133541 0.102636755 0.07887737 0.11850179 0.09654937 0.13405627 0.069064975 0.06388642
0.074170105 0.11370042 0.15296997 0.11947433 0.11907338 0.065807305 0.15340783 0.1358189
0.16685715 0.105588414 0.06927824 0.09174344 0.1469851 0.088142686 0.09321112 0.13660842
0.115586944 0.14725912 0.16103733 0.10454579 0.097064056 0.1149042 0.17125027 0.1900276
0.07242612 0.1173591 0.12713325 0.13374723 0.12025842 0.11194203 0.1123996 0.13921484
0.12134573 0.07217433 0.08974443 0.10157154 0.14113308 0.17152603 0.10516937 0.17197749
0.118193485 0.11275607 0.1378367 0.1665963 0.07575158 0.111056454 0.08861176 0.25425026
0.17588389 0.11377978 0.117363654 0.0995141 0.26670113 0.15594073 0.13134821 0.1471111
0.16170587 0.16999103 0.18875913 0.13998449 0.10313956 0.12295037 0.10276288 0.10597425
00000000: d9f8 d93d b79c 923d bc00 c43d 05ac 3d3e
00000010: a64b f03d 9ec7 083e 1dd6 a63d 10e1 313e
00000020: 8d94 463e c424 233e 775f 283e f591 953d
00000030: 1a02 c83d 11ac 0b3e f6cf 033e 3c9d 213e
00000040: 12e5 0a3e f7cc b73d e1a6 dc3d e3b1 2a3e
00000050: 41d8 7b3e 3b0e 293e 1fef 713e cd6c 1f3e
00000060: 61a6 2e3e 1400 213e e37f fb3d 89e0 0b3e
00000070: dc15 1b3e 6d2a ab3d 0bba f83d 1f0d e53d
00000080: 536c fa3d e2fb ce3d 36ad 8f3d f4d3 553e
00000090: f728 a03d ca03 b93d 8414 b83d 4e99 e53d
000000a0: 943b ec3d c0d0 693e 2078 1b3e 67cc 783d
000000b0: fee4 5c3e 776c fb3d 5913 ac3d 55e5 113e
000000c0: 3f4b bf3d 13d6 083e 20f0 933d 38e4 d23d
000000d0: c8bf dd3d 4289 ba3d d876 ce3d 331e 983d
000000e0: 1c35 253e 3833 d23d 758a a13d 11b1 f23d
000000f0: adbb c53d 0c46 093e f071 8d3d e2d6 823d
00000100: 7fe6 973d c4db e83d 29a4 1c3e f5ae f43d
00000110: bfdc f33d fbc5 863d f116 1d3e 1c14 0b3e
00000120: 9adc 2a3e bd3e d83d c0e1 8d3d fce3 bb3d
00000130: 4383 163e 2784 b43d 79e5 be3d 14e3 0b3e
00000140: d9b8 ec3d 18cb 163e f8e6 243e 1a1c d63d
00000150: 85c9 c63d e552 eb3d 3b5c 2f3e 9896 423e
00000160: 2554 943d f859 f03d 382f 023e 09f5 083e
00000170: 0c4a f63d dd41 e53d c331 e63d 568e 0e3e
00000180: 1c84 f83d 23d0 933d edcb b73d bd04 d03d
00000190: 3185 103e 85a4 2f3e 0a63 d73d de1a 303e
000001a0: 6d0f f23d a8ec e63d 1025 0d3e 3898 2a3e
000001b0: a523 9b3d 9171 e33d 157a b53d 172d 823e
000001c0: e81a 343e 6005 e93d 5b5c f03d 0cce cb3d
000001d0: 0d8d 883e edae 1f3e 2580 063e 4ba4 163e
000001e0: 3996 253e 2112 2e3e 134a 413e 1858 0f3e
000001f0: d53a d33d 67cd fb3d 5875 d23d 0709 d93d

conv3.weight f4 [128, 128, 3, 3]
0.024430407 -0.028070189 0.005877588 0.027680147 0.0076529034 -0.007310411 0.00251328 -0.020910276
-0.013987758 -0.020417776 -0.004328818 0.018264335 0.010853131 -0.006190657 -0.020347692 0.011879977
0.004718435 -0.030290663 -0.007848235 0.022910217 0.0076159136 0.0074091083 0.007343107 0.0144246165
0.020513771 -0.012403764 -0.022050127 -0.012042868 -0.019544203 -0.017279498 0.028218474 0.013208334
-0.01373339 -0.019652091 0.01382451 0.006298935 0.007344927 -0.011165451 -0.024887808 -0.013569532
-0.010323145 -0.023456745 0.020285377 -0.008311404 -0.026108494 -0.027161585 -0.0103052715 0.0264986
-0.013702066 0.026279714 0.016410483 0.006177575 -0.014530873 0.02440434 0.004297369 -0.03418433
-0.018615639 -0.0067355814 0.02142271 -0.00014660848 0.020331845 -0.028698873 0.020302758 0.019793035
0.014394575 -0.014103426 -0.009004851 0.020353982 -0.01750241 -0.026169358 -0.0009479938 -0.011550162
-0.024500396 -0.025369756 0.022051467 -0.0007791528 -0.0007006209 -0.026038272 0.019138122 0.005660211
-0.014551458 -0.0050913165 0.013756923 -0.006038617 0.0004780023 -0.008103635 -0.026797865 0.02988123
-0.021048605 -0.016426098 -0.003123635 9.35428e-05 0.01757473 -0.016413962 -0.018149339 0.023665437
0.018636296 -0.023277838 -0.00449041 -0.0033459545 0.010601375 0.027408015 -0.009165523 -0.014302063
0.01592695 0.022208584 0.023211373 -0.031415135 0.014194709 -0.031796407 0.017968055 0.007396539
0.006947347 0.014881556 0.0017625163 -0.023457857 0.0020961126 0.010820487 0.023691209 -0.0142558925
-0.0077249045 0.020050112 0.0049222857 -0.0132552665 0.015772048 0.024639498 0.007441536 0.020466244
-0.018215178 0.02070989 0.020102508 0.010156032 0.033730228 0.008633188 -0.016546387 -0.020085728
0.021384742 -0.029095877 0.012045488 -0.00023952057 0.011265749 -0.018079896 0.015375343 0.016676918
0.01722393 -0.026548438 0.02526214 -0.008288106 -0.017598245 0.007213614 -0.020298121 0.024164205
0.004111681 -0.006420341 0.01833385 0.007053107 0.01961731 -0.0049266685 0.008993416 0.027002817
0.025407802 -0.025426311 -0.023788521 0.00855835 -0.014916054 -0.025999984 -0.00976751 0.0053912983
0.011709416 -0.023164522 -0.025559554 -0.009054483 -0.011025062 -0.012061221 0.016886532 -0.022343691
0.00028456573 -0.011225054 0.027028022 0.02022389 0.0019201381 0.027317869 0.0010195948 0.0076769297
0.023692949 0.0045619844 0.017330758 0.0076731457 -0.02486756 -0.010211272 0.020808822 0.010749211
-0.011589583 0.020007608 -0.008059516 -0.017086182 -0.011411084 0.008353583 0.028929325 0.012690023
-0.008936271 0.008015073 -0.014990738 -0.010027426 -0.013277757 0.02722929 -0.02114846 0.0037718464
0.02147856 -0.03194112 -0.006264176 0.014081115 -0.009756185 -0.009354463 0.0049381885 -0.010520875
-0.028283134 0.011146738 0.016075362 -0.020874003 0.0020063198 0.017688792 0.01110953 -0.007614976
0.012446619 -0.013964146 0.022485515 -0.019869495 0.025949012 0.023748247 -0.02312124 0.024696015
-0.020076526 0.018281486 0.01148008 0.014235001 -0.018997144 -0.00034142713 0.02362548 -0.029305931
-0.0028862606 0.0066595455 0.0069617373 0.0012885137 -0.009619046 0.0071430723 0.02271781 0.019959493
-0.01903365 -0.008452733 -0.02305717 -0.0086414665 0.0043171984 0.0010942667 -0.015126647 0.016874937
00000000: 4722 c83c 74f3 e5bc c898 c03b 7ac1 e23c
00000010: 35c5 fa3b 2c8c efbb d7b5 243b 074c abbc
00000020: e92c 65bc 2e43 a7bc c2d8 8dbb 169f 953c
00000030: 55d1 313c ffda cabb 34b0 a6bc 3ca4 423c
00000040: 1a9d 9a3b 2024 f8bc e295 00bc 35ae bb3c
00000050: ea8e f93b 1bc8 f23b 729e f03b 3a55 6c3c
00000060: 7f0c a83c 2839 4bbc 78a2 b4bc 734f 45bc
00000070: 2a1b a0bc bc8d 8dbc 6e2a e73c c567 583c
00000080: 0302 61bc 6cfd a0bc 3380 623c 4c67 ce3b
00000090: b7ad f03b 4cef 36bc 84e1 cbbc be52 5ebc
000000a0: 6922 29bc 5c28 c0bc 852d a63c 8e2c 08bc
000000b0: 7be1 d5bc f981 debc 71d7 28bc 9813 d93c
000000c0: a17e 60bc 8e48 d73c 476f 863c 416d ca3b
000000d0: e612 6ebc 9ceb c73c f2d0 8c3b de04 0cbd
000000e0: d37f 98bc 27b6 dcbb ae7e af3c eaba 19b9
000000f0: f88e a63c e619 ebbc f851 a63c 0125 a23c
00000100: 39d7 6b3c 0e12 67bc 1589 13bc 65bd a63c
00000110: 3761 8fbc 1f61 d6bc c982 78ba e43c 3dbc
00000120: 0eb5 c8bc 3cd4 cfbc 47a5 b43c 0f40 4cba
00000130: dfa9 37ba 374e d5bc 8dc7 9c3c 4b79 b93b
00000140: 3d69 6ebc 0fd5 a6bb b864 613c 97df c5bb
00000150: 629c fa39 1cc5 04bc 3287 dbbc 7bc9 f43c
00000160: 206e acbc 0690 86bc e6b5 4cbb 692c c438
00000170: e1f8 8f3c 9376 86bc ecad 94bc 05de c13c
00000180: 25ab 983c 2ab1 bebc 4a24 93bb cd47 5bbb
00000190: 64b1 2d3c c686 e03c fd2a 16bc 3353 6abc
000001a0: 3c79 823c c7ee b53c c725 be3c 28ad 00bd
000001b0: ed90 683c f33c 02bd be31 933c ab5e f23b
000001c0: 92a6 e33b c5d1 733c 3c04 e73a b12a c0bc
000001d0: ef5e 093b 6948 313c 1114 c23c 8c91 69bc
000001e0: 3221 fdbb 2240 a43c 204b a13b 9e2c 59bc
000001f0: 6234 813c c6d8 c93c 21d8 f33b d3a8 a73c
00000200: ff37 95bc caa7 a93c 04ae a43c 7c65 263c
00000210: b528 0a3d 3772 0d3c 4a8c 87bc d38a a4bc
00000220: 0e2f af3c 7a5a eebc 705a 453c d027 7bb9
00000230: fa93 383c 4a1c 94bc dde8 7b3c 089e 883c
00000240: 3319 8d3c 1c7c d9bc 8cf2 ce3c d6ca 07bc
00000250: 322a 90bc 2e60 ec3b 3f48 a6bc 03f4 c53c
00000260: 48bb 863b b961 d2bb df30 963c c01d e73b
00000270: 7bb4 a03c e46f a1bb 1f59 133c 0335 dd3c
00000280: 0624 d03c d74a d0bc 25e0 c2bc 5238 0c3c
00000290: 7762 74bc ebfd d4bc e807 20bc 7da9 b03b
000002a0: dad8 3f3c 86c3 bdbc 4562 d1bc 4159 14bc
000002b0: 76a2 34bc 6d9c 45bc a055 8a3c 1e0a b7bc
000002c0: c431 9539 4ae9 37bc df69 dd3c 92ac a53c
000002d0: 25ad fb3a b9c9 df3c eda3 853a c18e fb3b
000002e0: b717 c23c b37c 953b 3cf9 8d3c 036f fb3b
000002f0: 0eb7 cbbc 2e4d 27bc 4377 aa3c 751d 303c
00000300: 3ce2 3dbc ffe6 a33c 0f0c 04bc 52f8 8bbc
00000310: 8ef5 3abc 77dd 083c 31fd ec3c d0e9 4f3c
00000320: 7069 12bc a751 033c b69b 75bc 134a 24bc
00000330: f38a 59bc f60f df3c 893f adbc 1531 773b
00000340: cef3 af3c b1d4 02bd b843 cdbb 7ab4 663c
00000350: 68d8 1fbc 7643 19bc 87d0 a13b c05f 2cbc
00000360: 08b2 e7bc cfa0 363c 7ab0 833c f5ff aabc
00000370: 767c 033b 16e8 903c bf04 363c 0c87 f9bb
00000380: e7ec 4b3c e0c9 64bc 8b33 b83c 5ac5 a2bc
00000390: 0693 d43c af8b c23c c168 bdbc 4c4f ca3c
000003a0: 8777 a4bc 0ec3 953c f216 3c3c ec39 693c
000003b0: e69f 9bbc 9301 b3b9 398a c13c fe12 f0bc
000003c0: 6b27 3dbb 5138 da3b 491f e43b 58e3 a83a
000003d0: 3499 1dbc 6f10 ea3b b31a ba3c 1782 a33c
000003e0: 75ec 9bbc 557d 0abc 64e2 bcbc f094 0dbc
000003f0: 4977 8d3b 7f6d 8f3a c2d5 77bc 4f3d 8a3c

conv3.bias f4 [128]
-0.017898548 -0.018848388 0.02923422 0.014478776 0.0214041 0.003916527 -0.0025086827 0.01828635
0.021031173 -0.014803893 -0.020999018 -0.0057722926 0.014455712 0.020528883 -0.01774687 0.017817039
-0.002975734 0.011322161 9.39489e-05 -0.009401536 -0.024203515 0.018344183 -0.013741635 -0.009639859
0.007518366 -0.009420293 -0.0223061 -0.017036222 -0.014411985 0.014937584 -0.013729907 -0.019630147
-0.01767434 -0.017543092 -0.0108820405 0.01580494 0.025331007 0.019898994 -0.015847595 0.02189624
-0.0034383475 -0.008206475 -0.018886732 0.023084555 -0.023019208 -0.025060974 0.0063320897 -0.018713387
-0.015605748 0.014328954 0.028822014 0.02020331 0.009627493 0.027171096 -0.027809268 -0.018942183
0.024690833 0.0058595994 -0.008650525 -0.023280498 0.005373407 -0.024208248 0.0083240215 0.017993493
0.007957879 -0.010519429 0.0030674473 0.011378383 -0.013865565 0.0161838 0.0019022466 0.022599362
-0.013370169 0.027960155 0.017847557 0.025501987 -0.017993094 -0.012936365 -0.0027943412 0.0024763762
-0.020930912 0.0037882123 -0.026165156 0.029022053 0.013284844 -0.00064331584 0.0066131805 0.02446941
-0.0095155565 0.020199945 0.029052073 -0.014128726 -0.018534014 0.027036265 0.013479477 -0.017878285
-0.006040905 0.025272654 -0.0022314105 0.0028740934 0.015392263 0.02336932 0.016306303 0.013061394
0.019944731 -0.0234982 0.01958797 0.02364816 -0.01280796 0.0130493995 0.0044501293 -0.00393255
-0.0039677154 0.020665934 -0.027872618 -0.0278154 -0.024008973 0.013262409 0.02053946 -0.017232167
0.004028117 0.015607975 -0.006664815 0.0056255376 0.002356941 0.0039823977 0.028208204 0.00024036827
00000000: fa9f 92bc ef67 9abc 9a7c ef3c 6338 6d3c
00000010: a757 af3c 3656 803b b668 24bb 41cd 953c
00000020: 9149 ac3c 078c 72bc 2206 acbc 8025 bdbb
00000030: a7d7 6c3c 302c a83c e261 91bc 0af5 913c
00000040: 8804 43bb 9680 393c 6e06 c538 e608 1abc
00000050: 7346 c6bc 8a46 963c 9824 61bc 80f0 1dbc
00000060: a05c f63b 9357 1abc 48bb b6bc 8c8f 8bbc
00000070: 3f20 6cbc c5bc 743c 67f3 60bc 67cf a0bc
00000080: c7c9 90bc 88b6 8fbc 964a 32bc 5d79 813c
00000090: f982 cf3c 3703 a33c d1d2 81bc be5f b33c
000000a0: e655 61bb 7374 06bc 59b8 9abc d21b bd3c
000000b0: c792 bcbc ac4c cdbc 6b7d cf3b d14c 99bc
000000c0: 40af 7fbc fdc3 6a3c 251c ec3c 6981 a53c
000000d0: a2bc 1d3c eb95 de3c 43d0 e3bc a32c 9bbc
000000e0: 6e44 ca3c e201 c03b eeba 0dbc beb6 bebc
000000f0: 6813 b03b 6050 c6bc 7a61 083c 1767 933c
00000100: c461 023c af59 2cbc 3a07 493b 666c 3a3c
00000110: 652c 63bc e393 843c ce54 f93a 4c22 b93c
00000120: 8e0e 5bbc b20c e53c 0a35 923c 8be9 d03c
00000130: 4166 93bc 0cf3 53bc 4421 37bb b34a 223b
00000140: 4e77 abbc a843 783b 4f58 d6bc a8bf ed3c
00000150: ada8 593c 32a4 28ba 61b3 d83b 1274 c83c
00000160: 23e7 1bbc 5b7a a53c 9dfe ed3c 2c7c 67bc
00000170: a5d4 97bc 287b dd3c 06d9 5c3c 7b75 92bc
00000180: c9f2 c5bb 9908 cf3c db3c 12bb 495b 3c3b
00000190: d52f 7c3c 0471 bf3c cc94 853c 75ff 553c
000001a0: 2263 a33c 4c7f c0bc f376 a03c c9b9 c13c
000001b0: 7ad8 51bc 26cd 553c 64d2 913b 9fdc 80bb
000001c0: 9c03 82bb 9b4b a93c 1e55 e4bc 1fdd e3bc
000001d0: 77ae c4bc 934a 593c 5f42 a83c 792a 8dbc
000001e0: 4bfe 833b 98b8 7f3c 8564 dabb 6e56 b83b
000001f0: e976 1a3b c67e 823b e414 e73c 5e0b 7c39

bn3.weight f4 [128]
1.0182279 1.0286332 1.0328544 1.0254788 1.0264724 1.0201037 1.0272535 1.0214065
1.0222878 1.0242634 1.0058913 1.0330688 1.0250642 1.0094416 1.031088 1.0127453
1.0102787 1.021829 1.0198033 1.0328834 1.0310147 1.0193987 1.0342543 1.0182899
1.0282097 1.020109 1.0115339 1.0159122 1.0166262 1.0238231 1.0286853 1.0140651
1.034833 1.0030675 1.001361 1.0021276 1.0043417 1.0153798 1.0240977 1.0146188
0.99849474 1.0266551 1.0339093 0.99829 1.0335593 1.0324467 1.0161573 1.034116
1.0315452 1.0294055 1.0244641 1.0159664 1.03548 1.0324417 1.0340134 1.0208772
1.0319546 1.0155969 1.0290351 1.0161844 1.0244925 1.0205821 1.0105139 1.0263816
1.0289754 1.0336591 1.0314196 1.0216019 1.0187862 1.0141027 1.0329717 1.0291868
1.0287563 1.034303 1.0063086 1.0297087 1.0342741 1.0324367 0.9979589 1.02472
1.0016983 1.0306412 1.0334771 1.0131335 1.0298533 1.0285194 1.0261574 1.0232354
1.0025548 1.0317273 1.0102607 1.0387491 1.0343813 1.0326972 1.0132127 1.0178007
1.0275673 1.0324467 1.0313897 1.0217682 1.0219772 1.0207468 1.0222418 1.0279617
1.0260143 1.005181 1.0159328 1.0310119 1.0388463 1.0342362 1.0197487 1.0328553
1.0279257 1.021749 1.0075672 1.0274792 1.0225352 1.0312006 1.0245268 1.0295283
1.017266 1.0240829 1.023355 1.019718 1.0265611 1.0239788 1.0262979 1.0286661
00000000: 4b55 823f 41aa 833f 9334 843f e442 833f
00000010: 7363 833f c292 823f 0b7d 833f 73bd 823f
00000020: 54da 823f 101b 833f 0cc1 803f 993b 843f
00000030: 4e35 833f 6235 813f b1fa 833f a3a1 813f
00000040: d050 813f 4bcb 823f ea88 823f 8635 843f
00000050: 4af8 833f a87b 823f 7262 843f 5357 823f
00000060: 609c 833f ef92 823f f179 813f 6909 823f
00000070: cf20 823f a30c 833f f6ab 833f e3cc 813f
00000080: 6875 843f 8464 803f 992c 803f b845 803f
00000090: 458e 803f f7f7 813f a215 833f 07df 813f
000000a0: 5a9d 7f3f 6f69 833f 2457 843f ef8f 7f3f
000000b0: ac4b 843f 3727 843f 7111 823f ea5d 843f
000000c0: ac09 843f 8fc3 833f a421 833f 300b 823f
000000d0: 9c8a 843f 0d27 843f 8d5a 843f 1bac 823f
000000e0: 1717 843f 14ff 813f 6cb7 833f 5512 823f
000000f0: 9222 833f 6fa2 823f 8558 813f 7960 833f
00000100: 77b5 833f f14e 843f 8f05 843f dac3 823f
00000110: 9667 823f 1ece 813f 6b38 843f 65bc 833f
00000120: 49ae 833f 0a64 843f b8ce 803f 7fcd 833f
00000130: 1863 843f e326 843f 3c7a 7f3f 062a 833f
00000140: a637 803f 0dec 833f fa48 843f 5cae 813f
00000150: 3cd2 833f 86a6 833f 2059 833f 61f9 823f
00000160: b753 803f a40f 843f 3950 813f bbf5 843f
00000170: 9b66 843f 6c2f 843f f4b0 813f 4b47 823f
00000180: 5387 833f 3727 843f 9404 843f 4dc9 823f
00000190: 26d0 823f d5a7 823f d2d8 823f 4094 833f
000001a0: 7054 833f c5a9 803f 160a 823f 33f8 833f
000001b0: eaf8 843f da61 843f 2087 823f 9a34 843f
000001c0: 1293 833f acc8 823f f6f7 803f 7084 833f
000001d0: 6fe2 823f 62fe 833f b223 833f 95c7 833f
000001e0: c635 823f 2615 833f 4cfd 823f 1f86 823f
000001f0: 5b66 833f bd11 833f bb5d 833f 55ab 833f
