trained_models/model_corvette_cyclotron_max.pth (torch, 908232 bytes, 20 tensors)

conv1.weight f4 [64, 2, 3, 3]
000000 d8 c7 17 be 40 56 44 3e ad d8 69 be 6f fe fe bc
       -0.14822328 0.19173527 -0.22836562 -0.031127183
000010 b9 ae 52 3e 97 53 b2 3d 96 c4 65 be 5e 27 d0 3c
       0.20574464 0.0870735 -0.22438273 0.025409397
000020 27 96 e2 bd 96 54 5e be 01 52 7e 3d a4 14 4a 3e
       -0.110637955 -0.21711954 0.062089924 0.19734436
000030 94 56 35 be be 6b 36 3e 32 f7 28 be 59 b6 a2 bd
       -0.17708808 0.17814538 -0.16500548 -0.07944936
000040 e8 cc 68 3e 88 84 b1 3d e1 10 01 be c2 1e 45 bc
       0.22734416 0.086678565 -0.12604095 -0.012031259
000050 0c 20 12 bd 42 01 6e bb 83 d9 30 bd 81 1f 20 be
       -0.035675094 -0.0036316668 -0.043176185 -0.15637018
000060 77 fc 2f 3e fc bb 64 3e 10 df 8e bd 94 a8 f6 bc
       0.17186151 0.22337335 -0.069761395 -0.030109681
000070 79 0b 1e bd c8 64 a8 bd 5a cf 38 3e 41 b4 12 be
       -0.03858516 -0.082223475 0.18047848 -0.14326574
000080 e3 82 83 bd 68 88 f7 3d 5f 9e c6 bd 18 7d 40 3e
       -0.06421449 0.12086564 -0.09698176 0.1879772
000090 38 4a 0b 3e 44 c9 ca 3d 75 84 63 3c 4e 69 60 3c
       0.13602531 0.099016696 0.013886561 0.013696982
0000a0 a6 28 6a be d5 57 46 bd c7 70 5e 3e 54 30 30 3e
       -0.22867069 -0.048423607 0.21722709 0.17205936
0000b0 da d6 df 3d 12 6f 1e be 0a 12 54 3e 28 2c 3e bd
       0.109296516 -0.15472057 0.20710006 -0.04642883
0000c0 04 02 82 bd 98 26 c1 3d 79 0c 55 3e 1c b5 52 3e
       -0.06348041 0.09431189 0.20805539 0.205769
0000d0 ab 11 0a be 96 71 50 be d0 7f 48 be 08 89 68 be
       -0.13483302 -0.2035583 -0.19580007 -0.22708523
0000e0 e2 38 fe bd 52 4c df 3d 50 7f d9 3c 16 06 c6 3c
       -0.12413193 0.10903229 0.026549965 0.024172824
0000f0 01 52 dc bc 6c cc 4f 3e 77 59 21 3e 30 8b 65 3e
       -0.026894571 0.20292825 0.15756784 0.22416377
000100 37 0e c9 bd e4 59 b5 bd 3c ae 1b be a3 1b 99 bc
       -0.098171644 -0.08855036 -0.15203184 -0.018689936
000110 e1 92 2a be ad 52 d2 bd ef b0 a4 3d eb 1c ec 3d
       -0.16657592 -0.102696754 0.0804156 0.11528953
000120 b7 d8 22 3e d1 bc 59 3e 0e 04 a4 3d 8e 79 7a be
       0.15902983 0.21263434 0.08008586 -0.24460432
000130 ca e3 62 3d 43 ba 3d be 0e 1b 27 bc 89 67 e3 bd
       0.055393018 -0.18528084 -0.010199321 -0.11103732
000140 00 2e 36 3e b8 6d b5 3c 3e ec 40 3e 09 46 d2 bc
       0.17790985 0.022147045 0.18840119 -0.025668161
000150 72 1e 3a bd 2a bc 49 3d 1f e6 4e 3e 83 cb 4c 3e
       -0.04543919 0.049251713 0.20204972 0.19999509
000160 7b 2e a2 bc 52 e3 8c bd 04 13 f2 3c 65 ba 80 3d
       -0.019797554 -0.068792954 0.029550083 0.06285552
000170 fa 35 b3 3d 2a ea 53 bd be 57 a2 3d 6e 07 4b 3e
       0.087505296 -0.051736988 0.07926892 0.19827053
000180 1a 3e 63 be bb a9 b4 3b 3d 8c bd bc 01 32 0b be
       -0.22191659 0.0055133975 -0.02313816 -0.13593294
000190 b1 36 39 bd ee 26 ac 3d a3 bd 73 bd d8 69 5e 3e
       -0.045218173 0.08405863 -0.059507024 0.21720064
0001a0 90 9c cf bd a5 7f c2 3d c6 82 3a 3e dd 9e 54 3e
       -0.10137284 0.094970025 0.18213949 0.20763727
0001b0 aa b0 57 be ea fa e8 bd e0 e9 76 3c f2 d1 8d bd
       -0.21063486 -0.11375983 0.015070409 -0.069248095
0001c0 95 4c 71 bc 0c ec 32 be 2b 89 45 be ea 35 42 be
       -0.014727731 -0.17472857 -0.19290607 -0.18965879
0001d0 dc 62 35 3e 71 70 41 3e ec 19 96 bd 10 4e 1a 3e
       0.17713493 0.18890549 -0.07329163 0.15068841
0001e0 c4 96 53 be 34 00 f8 3d 23 67 28 3e 8f ef 4b 3e
       -0.20662981 0.12109414 0.16445594 0.19915603
0001f0 8e a4 8d 3c 0f fd 2c 3e a1 42 5f be 6d df a5 bd
       0.01729038 0.16893409 -0.2180276 -0.08099256
000200 ae df 34 be 2a 84 53 be 64 c8 aa 3d 32 f8 07 be
       -0.17663452 -0.20655885 0.08339003 -0.13278273
000210 34 b2 0b bd b6 5e 80 3d 15 f9 48 3e a7 6b 32 be
       -0.034105495 0.06268065 0.19626267 -0.17423879
000220 80 47 0c 3e e2 7b 81 3d ab 1c 8b 3c 77 3d 61 3d
       0.1369915 0.06322457 0.016981443 0.054990258
000230 fc 5a 05 3e 5c a4 4e be 62 24 98 3c cc 7f fc bd
       0.13022989 -0.20179886 0.018572036 -0.12329063
000240 cc a7 5b 3e 52 97 35 3e f6 3a 14 bd 1f 44 59 3e
       0.21450728 0.17733505 -0.036189042 0.21217392
000250 5e d7 0b 3e 3c a0 53 bd e9 1a 99 bb c1 c8 3a 3d
       0.13656375 -0.051666483 -0.0046723974 0.04560161
000260 8e c6 42 3e e0 18 40 be 3e a5 3b be a9 76 2d be
       0.19021055 -0.18759489 -0.18324754 -0.16939797
000270 bb 6c 3f be 10 25 1f 3e a5 c1 ae bc 1f bc 5f bd
       -0.18693821 0.15541482 -0.021332571 -0.054622766
000280 09 9c fa bd 50 2e 3d be dd 23 ec 3d 12 c6 8d 3d
       -0.122367926 -0.18474698 0.11530278 0.069225445
000290 ae 6b 50 3e b7 bd 32 3d bb 21 57 3e a4 93 0a 3e
       0.20353577 0.043637957 0.21008961 0.13532883
0002a0 80 2e cd bd 94 3b 28 3d 4a f5 20 bd 20 02 1a bd
       -0.10018635 0.041072443 -0.039296426 -0.037599683
0002b0 83 e9 6b be 4f 5f f9 bd 07 22 dd bd f3 bf 58 3e
       -0.23038296 -0.12176382 -0.10797506 0.21166973
0002c0 fc c6 55 be e6 88 74 bd e2 92 ba 3d 8f ea fd bd
       -0.20876688 -0.05970087 0.09110047 -0.12398254
0002d0 b1 7c eb bd 8f 79 de bd 35 3d ad bd de ea 5f 3e
       -0.114983924 -0.10863029 -0.0845894 0.21866938
0002e0 26 b0 c2 bd ab bc e2 3d d1 b9 1f 3d ea 79 db bd
       -0.09506254 0.11071142 0.038995568 -0.10716613
0002f0 4b 16 4f be 0e 34 db bd ea 35 ac bd 75 85 be bd
       -0.20223348 -0.10703288 -0.08408721 -0.09302799
000300 c0 b0 16 be dc 2b 3e 3d 8f 40 65 be 1f 16 52 3e
       -0.14715862 0.046428546 -0.22387908 0.20516251
000310 28 86 41 3e af a7 05 3e fb e0 1a 3d 4e 5a 45 be
       0.18898833 0.13052247 0.037812214 -0.1927273
000320 7a f5 e8 3c 5b 23 63 be 48 d5 67 3c 33 dd 1b 3e
       0.028437365 -0.22181456 0.014149971 0.152211
000330 e5 7a b4 3d 52 f0 80 bc 59 63 2b be 9e a9 ad 3d
       0.08812503 -0.015739594 -0.16737117 0.084796175
000340 32 ec 81 bd 62 fc 18 be 91 26 08 3e 15 e2 3e be
       -0.06343879 -0.14940026 0.13295962 -0.18640931
000350 43 94 aa 3d c5 cd bd bd a7 cc 26 3e c0 30 4f 3e
       0.0832906 -0.09267763 0.16289006 0.2023344
000360 01 87 f5 3a 15 2c 6c 3e d7 66 39 3e 13 8a 8e bc
       0.0018732251 0.23063691 0.18105637 -0.017399823
000370 02 ee 51 bd d4 5b 5a be f3 53 4f 3e 2a ce c5 bd
       -0.051252373 -0.21324092 0.20246868 -0.09658463
000380 e4 fb 2e 3e 53 f3 15 3d c4 71 09 3e b6 27 22 be
       0.17088276 0.036609005 0.13422304 -0.15835461
000390 ac 8b 5a 3d 6b fb 50 be 40 68 2c be e4 68 59 3e
       0.053355858 -0.20408408 -0.16836643 0.21231419
0003a0 bb 75 4f be ad 64 ee 3d a2 06 51 3e 6d 7a aa bc
       -0.20259754 0.11640296 0.20412686 -0.02081033
0003b0 2c 83 36 be 9b b9 34 3d e1 24 5b bd 6b 38 3f 3e
       -0.17823476 0.04412232 -0.053501967 0.18673865
0003c0 42 da a9 ba be cf c5 3d 14 7b 27 3e 99 15 5f 3c
       -0.0012958723 0.09658764 0.16355544 0.013615989
0003d0 a9 48 cc bd 01 44 a8 bc a3 15 98 3d b0 1d 11 be
       -0.09974796 -0.02054024 0.07426002 -0.14171481
0003e0 d6 38 60 be 1c 0d f9 bd 25 27 4f be bd e0 6a bd
       -0.21896681 -0.121607035 -0.20229776 -0.057343233
0003f0 7e 8c 50 3e 8d 43 8b 3d 53 72 75 be 70 b6 73 be
       0.20366094 0.06799994 -0.23969392 -0.23800063

conv1.bias f4 [64]
000000 28 af f7 3c 36 12 c4 3d 5c 58 a5 bb 35 ea 3c 3e
       0.030234888 0.09573786 -0.0050459336 0.18448718
000010 35 56 ec 3b 40 a0 19 3e bd ca 89 3d 09 83 65 be
       0.007212425 0.15002537 0.067281224 -0.22413267
000020 42 d3 f9 3c b5 d0 63 be cb 55 c7 bd ab de 82 3d
       0.030496243 -0.22247584 -0.097331606 0.06390127
000030 00 a9 a3 bc 68 9e 28 be c2 01 20 bc 57 ee 9c 3c
       -0.019978046 -0.16466677 -0.009766044 0.019156618
000040 41 db e3 3d be 2c c0 bd f9 35 f4 3d ef 57 11 3e
       0.11125804 -0.09383534 0.11924357 0.141937
000050 dd a6 63 be d2 1b 1c be 1e b2 b0 3c bc a9 f5 3d
       -0.22231622 -0.15244988 0.021569308 0.11995265
000060 09 e3 5a 3e 1f 77 f1 bc 5a 18 5d 3e a2 a2 99 bd
       0.2137567 -0.029475747 0.2159132 -0.07501723
000070 8f 6b a8 3c 5f f5 2c 3e 54 50 10 be 46 7b 49 3e
       0.0205591 0.16890477 -0.14093143 0.19675931
000080 20 b7 d2 bd bf 89 58 3e b1 63 11 be b4 f4 2c be
       -0.102888346 0.21146296 -0.14198186 -0.16890222
000090 7f 03 d5 bd 96 3b 79 3c 3c 0b 4a be 3f 38 f2 bd
       -0.104010575 0.01521196 -0.19730848 -0.11827134
0000a0 4a 24 07 bd d7 b6 69 3d 70 9c a5 3d 29 ab 05 be
       -0.032993592 0.057059135 0.08086479 -0.13053574
0000b0 39 f0 86 3d 3c 11 7d 3d dc 89 b5 bd fe ab 0c 3c
       0.065887876 0.061784014 -0.08864185 0.008585928
0000c0 c6 cf 48 be c0 dd a7 3d f6 5d 99 bd 4f 1d 5a be
       -0.1961051 0.08196592 -0.07488625 -0.21300243
0000d0 a1 b5 63 3d 0a ec 99 3d 08 0b 81 3d 28 a0 6d be
       0.055593137 0.07515724 0.06300932 -0.23205626
0000e0 4f 60 c7 3d 42 7f 60 be 37 69 4c bd 93 6a ff 3d
       0.09735166 -0.21923545 -0.04990503 0.12471499
0000f0 a3 39 6b be f1 0e ea 3d 2b 32 04 be d2 78 fd bc
       -0.22971205 0.11428631 -0.12909763 -0.0309414

bn1.weight f4 [64]
000000 c7 0c 7e 3f 04 8e 7d 3f 92 db 7e 3f c1 e6 7f 3f
       0.99238247 0.99044824 0.9955379 0.9996148
000010 5e d6 7e 3f 6d 3f 80 3f 88 54 82 3f e9 2e 80 3f
       0.9954585 1.0019356 1.0182047 1.0014316
000020 28 b7 80 3f 14 09 7e 3f f3 c4 7f 3f 07 8c 80 3f
       1.0055895 0.992326 0.99909896 1.0042733
000030 02 43 7e 3f 07 cc 7f 3f 92 dc 7e 3f 96 1a 82 3f
       0.99320996 0.99920696 0.99555314 1.0164363
000040 32 0b 80 3f 5b 59 80 3f 3f 5e 80 3f 0e 69 80 3f
       1.0003417 1.0027269 1.0028762 1.003206
000050 cb 86 7e 3f 34 a8 7f 3f 64 54 7d 3f 9f f5 80 3f
       0.9942443 0.9986603 0.98956895 1.0074958
000060 4b d8 80 3f 78 05 80 3f fb ca 80 3f 95 c6 81 3f
       1.0066007 1.0001669 1.0061945 1.0138727
000070 4e 16 7f 3f 84 fa 7d 3f 16 49 81 3f 0a 82 7f 3f
       0.9964341 0.9921038 1.0100429 0.998078
000080 55 11 81 3f e6 24 7f 3f 31 37 7d 3f 8a ad 80 3f
       1.0083414 0.9966568 0.9891234 1.005296
000090 98 0a 7e 3f 11 50 7f 3f 95 93 7e 3f 07 6f 80 3f
       0.99234915 0.99731547 0.9944394 1.0033883
0000a0 b8 3e 7c 3f 36 8d 80 3f 4c de 80 3f 95 1e 80 3f
       0.985332 1.0043094 1.006784 1.0009333
0000b0 cc 4a 7e 3f 62 25 82 3f 4b ee 81 3f 5b 6a 7f 3f
       0.9933288 1.0167658 1.0150846 0.9977166
0000c0 24 ba 7f 3f 13 d3 7d 3f db 68 7f 3f 5c 45 80 3f
       0.99893403 0.991502 0.9976937 1.0021167
0000d0 a9 91 7f 3f b2 74 80 3f dc 82 82 3f f2 ed 7e 3f
       0.99831635 1.0035613 1.0196185 0.99581826
0000e0 f6 2c 7f 3f ea 1d 7d 3f 40 07 7e 3f 84 34 80 3f
       0.9967798 0.9887377 0.9922981 1.0016026
0000f0 30 75 80 3f 0e 97 7e 3f 73 90 7d 3f 5f 7e 7e 3f
       1.0035763 0.9944924 0.99048537 0.99411577

bn1.bias f4 [64]
000000 e3 25 7b 3b 0c 9b 78 bb 3e c9 de bb 47 e9 c2 ba
       0.0038322143 -0.0037934212 -0.0067988923 -0.0014870547
000010 85 48 2c 3c c7 68 45 3c 32 d8 b1 3c a0 a0 86 3c
       0.010515337 0.012048907 0.021709535 0.016434014
000020 4d 58 94 3b 97 36 19 3b 30 6d eb 3b 86 05 9f 3b
       0.004527128 0.0023378485 0.007184647 0.0048529534
000030 5c 0e 0c 3b 82 7e 04 3c 20 e5 88 3b 44 1a a3 3c
       0.0021370864 0.008086802 0.0041777045 0.019909985
000040 e1 cb 7e 3c 45 1d 09 3c dc 84 ea 3b 76 a9 d3 3b
       0.015551538 0.008368795 0.0071569514 0.0064594103
000050 61 8b 26 3c 0d e0 1d 3c 89 3f cb ba 8b 56 41 3c
       0.010165066 0.009635937 -0.0015506606 0.011800419
000060 3c c8 5e 3c 2c a4 0a bb 6f 21 fa 3b 22 0c b3 3c
       0.013597544 -0.0021154983 0.00763338 0.021856371
000070 9f 3e 14 3c e1 29 0e bb 7b 2b 4e 3c c9 ef 95 3a
       0.009048133 -0.0021692442 0.012583609 0.0011439259
000080 41 29 ec 3a 8d 05 34 3c 6e a7 20 bb 1d cf 21 3c
       0.0018017666 0.010987652 -0.0024513858 0.00987604
000090 86 da 02 3c d2 05 83 3b fa 0b 9b bb dd 72 9f b9
       0.00798667 0.0039984966 -0.0047316523 -0.00030412423
0000a0 53 c0 6c ba 26 af 13 bc 87 33 25 3b 60 ba 2b 3b
       -0.0009031344 -0.009013927 0.0025207715 0.0026203617
0000b0 26 b6 04 3b 65 c8 c3 3c 29 35 bf 3c 19 1e 4f 3b
       0.002025017 0.023899266 0.023340778 0.0031603633
0000c0 c5 43 dc ba 44 bc 21 3b f5 4b 07 3c 06 3b 40 3c
       -0.0016804865 0.0024678865 0.008257856 0.011732822
0000d0 10 e1 46 3b 3e af 44 3c a3 32 aa 3c ac f6 ba 3b
       0.003034655 0.012004672 0.020776099 0.005705675
0000e0 76 4a c6 ba 13 46 65 ba e5 64 e4 3b 3a e5 3f ba
       -0.0015128392 -0.00087460986 0.0069700354 -0.0007320229
0000f0 e6 9c 72 bb 5e 0f 1d bb 40 b8 a2 38 3d b3 65 bb
       -0.0037019788 -0.0023965458 7.759081e-05 -0.0035049461

bn1.running_mean f4 [64]
000000 5a aa 3c 3d d8 82 b1 3d d6 a4 d2 3c 50 fd 3d 3e
       0.046060897 0.086675346 0.025713366 0.18553662
000010 3e e0 4a 3c 28 7c 3f 3e f2 71 17 bd b1 ce 90 be
       0.012382565 0.18699706 -0.0369739 -0.28282693
000020 16 5d 1d 3e 5d 6f ec bd d5 79 0c be e9 f5 c3 3c
       0.1536754 -0.11544678 -0.1371835 0.02392097
000030 8d d8 22 3c 4c 49 e8 bd 38 fa 3d bd 66 8a 3c bd
       0.009939325 -0.11342105 -0.046381205 -0.046030425
000040 2a 52 9e 3d 72 28 8a 3c 0f cc f6 3d 1e 4d e1 3d
       0.07730515 0.016864989 0.1205064 0.11001037
000050 30 2d 42 be da 34 64 be 6e b7 9f 3d 65 40 84 3c
       -0.1896255 -0.22285786 0.07798658 0.016143987
000060 bc a2 1b 3e eb f0 7c bd 2f cf 13 3e 12 5b 2f be
       0.15198797 -0.061753195 0.14434503 -0.17124584
000070 9a 1a 80 3d 31 09 fe 3d 38 06 7e be 8e a0 4f 3e
       0.06255074 0.12404097 -0.2480706 0.2027609
000080 0d 37 93 bd 22 b1 3e 3e 84 d8 d3 bd 3a ef 23 be
       -0.071882345 0.18622258 -0.103440315 -0.16009226
000090 57 39 08 be 8a 53 d9 bc 23 5b 82 be dd 4b fd bd
       -0.13303123 -0.026529092 -0.25460157 -0.123679854
0000a0 14 50 0c bc 6f c2 59 3d b7 a8 b1 3d 72 0c 1d be
       -0.008564014 0.053163942 0.08674758 -0.15336779
0000b0 98 5d 90 3c c8 2a 18 bd bb 69 47 be a3 80 01 3d
       0.017622754 -0.037150174 -0.19473927 0.03161682
0000c0 27 6c 51 be 31 d4 21 3e 68 b0 da bd 29 49 8c be
       -0.20451413 0.15803601 -0.10678178 -0.27399567
0000d0 55 b9 c6 3d 6a 03 d8 3b cb aa 81 bd 41 77 57 be
       0.09703318 0.006592204 -0.06331404 -0.21041586
0000e0 3b 2f c2 3d 0d 15 e8 bd 3d e7 05 3d 77 d3 cd 3d
       0.09481665 -0.1133214 0.03269123 0.10050099
0000f0 47 0a ab bd b6 a3 38 3e cd a3 d6 bd 30 ac 02 bd
       -0.083515696 0.18031201 -0.10480461 -0.031902492

bn1.running_var f4 [64]
000000 54 ea bf 3c 1f 2c 77 3c b1 e2 b1 3c 81 75 c2 3c
       0.023427166 0.015086203 0.02171454 0.02373767
000010 38 60 c8 3c 4a 9d 5a 3c 00 11 aa 3c 47 59 b7 3c
       0.024459943 0.013343165 0.02076006 0.022381438
000020 d6 3d ba 3c c9 23 97 3c 54 0e 8c 3c 59 40 7f 3c
       0.022734564 0.01844968 0.017096676 0.0155793065
000030 90 bb b1 3c 92 82 72 3c 69 b8 c7 3c a1 4d 2c 3c
       0.021695882 0.014801638 0.024379926 0.010516555
000040 c2 ed 88 3c 4a 7b cf 3c 29 d3 8e 3c b2 79 9e 3c
       0.016714934 0.025327343 0.017434673 0.019345138
000050 d6 92 93 3c d4 5a c7 3c b4 11 7f 3c 59 5a d0 3c
       0.018014353 0.024335302 0.015568186 0.025433706
000060 d8 1c c8 3c 7c 3e b8 3c f3 cf d7 3c 8e 3b 4e 3c
       0.024427816 0.022490732 0.026344275 0.012587441
000070 87 f0 af 3c 03 db d9 3c 80 73 eb 3c d1 37 89 3c
       0.021476997 0.02659369 0.028741598 0.016750248
000080 f5 50 f1 3c df cd 68 3c 68 15 00 3d 57 96 5c 3c
       0.029457549 0.01420924 0.031270415 0.013463578
000090 60 fc ad 3c 8f 0c a9 3c d0 95 a0 3c 36 1b c8 3c
       0.021238506 0.020635871 0.019602686 0.024427038
0000a0 92 29 82 3c 6b fc 64 3c 49 c6 8b 3c 06 db 96 3c
       0.015888963 0.013976197 0.017062323 0.018414985
0000b0 3e 52 81 3c e7 f3 93 3c 46 c7 a7 3c 7b f1 d5 3c
       0.015786286 0.018060638 0.020480763 0.026116123
0000c0 56 10 97 3c ba 71 93 3c 84 33 80 3c 01 b3 97 3c
       0.018440407 0.017998565 0.015649565 0.018517973
0000d0 f1 54 ac 3c d8 ee c0 3c aa 5d c2 3c af 39 a5 3c
       0.021036597 0.02355139 0.023726303 0.020169107
0000e0 72 73 8b 3c 3e 0c ae 3c 83 27 a5 3c b4 5c 17 3c
       0.017022822 0.021246072 0.020160442 0.009238411
0000f0 8c 77 b1 3c c4 53 97 3c 93 f7 9e 3c ec 18 2c 3c
       0.02166345 0.01847256 0.019405162 0.010503989

conv2.weight f4 [128, 64, 3, 3]
000000 59 14 a1 bc 22 e0 1a 3c e1 1a 0a bb 43 73 8d bc
       -0.019663023 0.0094528515 -0.002107315 -0.017266875
000010 35 37 9c bc 23 b2 6c 3c a0 45 fd bc b9 f5 b8 bc
       -0.019069294 0.014446768 -0.030916989 -0.022578107
000020 df 1c 33 3b 62 f7 b7 3b 76 70 da 3c 82 6e 47 bd
       0.002733044 0.005614207 0.026664954 -0.048689373
000030 3c 46 09 3c 28 9a ed 3c 20 11 14 3d ab 13 1b 3d
       0.008378562 0.029004171 0.036149144 0.037860554
000040 d4 40 80 bc 29 ad d6 bc 52 58 17 bb 0a fc c5 bc
       -0.015655912 -0.026205616 -0.0023093414 -0.024168033
000050 5d fc 4a bc f2 26 22 bd 8e a8 2e bc e0 63 39 bd
       -0.01238927 -0.039587922 -0.010660304 -0.045261264
000060 53 5d 07 bd bf 99 37 3c aa 4b 98 bc 80 d4 ff 3c
       -0.033047985 0.0112060895 -0.018590767 0.031229258
000070 1f e7 73 3b de 27 d1 bb 51 c6 33 bd 0c df d3 3a
       0.0037216616 -0.0063829264 -0.0438903 0.0016164496
000080 07 a8 06 bd 78 84 34 3c 54 39 fc bc af 22 a9 3c
       -0.032875087 0.011017911 -0.030789055 0.020646421
000090 20 8c 01 bd 74 6d 9b bb 69 04 09 bd 04 7e 0b 3d
       -0.031627774 -0.0047432724 -0.03345147 0.034055725
0000a0 de 38 ee bc 7e 7f c3 bc a7 a1 d8 bc 22 f9 fa bc
       -0.02907985 -0.023864504 -0.02644427 -0.030636374
0000b0 cf a6 f8 3c ea 42 db 3c 32 7f 22 bd 82 f6 2c bc
       0.030352978 0.026765306 -0.039672084 -0.010556819
0000c0 11 c4 b0 bc fb ce 4e 3b 5c b3 dc 3c 63 3e 3a bd
       -0.021577867 0.0031556475 0.026940994 -0.045469653
0000d0 92 c1 96 bb c8 ed 18 3d d4 2e 40 bc 74 36 99 bc
       -0.004600712 0.03733614 -0.011729915 -0.018702723
0000e0 e8 db c9 bb 19 35 ad 3c 58 7b a9 3c 9c 5f 15 3d
       -0.006160248 0.021143483 0.020688698 0.036468133
0000f0 0c 7d 31 3d 48 2a ab 3c af 1c 37 bd c1 c2 93 bc
       0.043332145 0.020894185 -0.04470509 -0.018037202
000100 8e 9b 1a bd f5 7b f1 bc 58 99 2d bd 24 a0 03 bc
       -0.037746005 -0.029478053 -0.042382568 -0.008033786
000110 eb 0c ca 3b ba 2d 42 3d 28 19 87 bc 24 d8 08 bd
       0.0061660907 0.04740689 -0.016491488 -0.033409253
000120 a4 17 d3 bb 59 00 00 3d 3a 90 75 3c 91 47 d0 3c
       -0.006442027 0.03125033 0.014988 0.02542475
000130 4f 40 0a 3c f9 14 1a bc 79 40 b2 bb 42 c2 bc 3b
       0.008438184 -0.009404414 -0.0054398146 0.005760462
000140 f2 4b 1d bd 0d 85 85 3c 50 aa 9a bc 04 d3 ac bc
       -0.038402505 0.016298795 -0.01888004 -0.021096714
000150 a7 4b 9a bb 2d 7f 6f bc c0 a5 16 3d 4e 6a 52 3c
       -0.0047087255 -0.014617723 0.036779165 0.012842728
000160 d0 42 f5 bb 96 d5 3f bb ed 35 2d 3d b3 16 c7 3c
       -0.0074847713 -0.0029271594 0.042287756 0.024302816
000170 37 99 87 3c d2 9a 28 bc a5 a7 3a 3c 62 c3 74 3b
       0.01655255 -0.010290818 0.011392509 0.0037347903
000180 7c d2 33 bd 92 8e d2 3b 39 24 69 3c 0f 39 8c bc
       -0.043901905 0.006425687 0.014229828 -0.017117051
000190 60 56 0b bd 25 47 17 3d 11 77 a8 3c 60 1b b8 3c
       -0.03401792 0.036933083 0.020564588 0.02247399
0001a0 07 2d fa 3c cb 7e 1a bd bc cb 0d 3d f4 16 6c 3c
       0.030539049 -0.037718575 0.034618124 0.014409769
0001b0 74 b2 0f 3d ca b9 25 bc 5f f7 f2 3b a0 9c 77 3c
       0.035082296 -0.010115096 0.007414743 0.015113026
0001c0 f7 63 4a bc 0c 75 98 bb 96 89 13 bd f6 fb 18 3c
       -0.012352935 -0.004652625 -0.036019884 0.009337416
0001d0 5e bc 1b bd e0 c2 ad bb 5e 7f 95 3c f1 7d ab 3a
       -0.038021438 -0.005302772 0.01824921 0.0013083798
0001e0 38 5b 5e bc 7a ec db 3c 90 78 27 3d e7 ab 82 3c
       -0.013571553 0.02684616 0.04088646 0.01595111
0001f0 a1 5d 09 3b fa e3 0c bc 93 c3 0b bd 29 ce 39 bd
       0.0020960348 -0.008599276 -0.03412206 -0.045362625
000200 20 e0 36 3d f9 51 c4 3c 0a 07 3f bc c9 c8 66 3c
       0.044647336 0.023964869 -0.011659393 0.014085957
000210 55 53 4d bc b6 df bb bb 3f 9c d7 3c 98 e1 09 bd
       -0.012532075 -0.0057334555 0.026319621 -0.03366241
000220 03 2b 9a bb de 21 cd 3c ee 61 ba 3c 23 ed f6 bc
       -0.0047048344 0.025040563 0.022751775 -0.030142372
000230 63 21 31 3c ae 38 c2 bc aa 13 89 bc cc c1 a7 bc
       0.010811183 -0.023708668 -0.01673301 -0.020478152
000240 8a a1 81 bc 3f 63 e3 bc 26 4d fc 3b f4 c8 18 bd
       -0.015824098 -0.027757285 0.0076996265 -0.03730102
000250 da f8 03 3d fc 77 f3 3c 80 ce 12 bc b0 6d 37 bc
       0.032219745 0.029720299 -0.008960366 -0.011195585
000260 07 ed 41 3c f3 00 b4 3c 76 ee 53 bc 7b ee 0c bd
       0.011836297 0.021973109 -0.0129352715 -0.03440712
000270 e3 1c c2 3b 4e a0 90 bc b4 a5 1a 3d ab a8 ed ba
       0.0059238537 -0.017654564 0.037755683 -0.0018131932
000280 fa 04 09 3d 40 4a a1 bb 58 45 de bc 70 e5 b3 3c
       0.03345201 -0.0049221814 -0.027132675 0.02195999
000290 ea 0f c2 bc b4 25 a1 bc 6a b3 13 bc 59 02 1a bd
       -0.023689229 -0.019671299 -0.009014944 -0.037599895
0002a0 dc 86 2f bd 80 aa 02 bd 04 2e 2c bd f4 ed c9 bb
       -0.04285322 -0.031900883 -0.04203607 -0.0061623994
0002b0 c7 cd 19 bd 38 e4 21 bc 0c 08 ec 3b 2c a4 0c 3d
       -0.03754976 -0.009881072 0.0072031077 0.034336254
0002c0 99 43 b0 bc ed 71 a0 3c ce 9e 8b 3a 5a 4e ef 3c
       -0.021516608 0.019585574 0.0010652186 0.029212166
0002d0 d3 55 c4 3c a1 55 94 bc 63 95 f7 3c 74 8b 08 3c
       0.023966705 -0.018107237 0.0302226 0.0083340295
0002e0 db 00 c8 bc 6b e5 e7 bb 5e 76 12 bc 1c b1 12 3c
       -0.02441447 -0.0070769093 -0.008939354 0.008953359
0002f0 3a 4a 0c bd 5b 07 a0 bc 68 7a 6c bc 5c e0 8d 3c
       -0.034250475 -0.019534757 -0.014433481 0.017318897
000300 4a ef 5b bc 01 0b 89 bc 1b 39 b6 3b 6a 55 22 3d
       -0.01342375 -0.01672888 0.0055610067 0.03963224
000310 71 11 c4 3c 58 6a e9 bc 6e 54 04 bd 07 f4 98 3c
       0.023934098 -0.028493091 -0.03230708 0.018671049
000320 82 76 92 bc 77 f7 88 3c b6 45 88 3b 70 66 19 bd
       -0.017878775 0.016719563 0.004158701 -0.037451208
000330 df d9 11 3c 37 08 70 bc d5 49 1e bb 01 8d 0f bd
       0.008902042 -0.014650396 -0.0024152894 -0.03504658
000340 f0 57 0d 3d b6 d0 2b 3d c2 8a a8 3c ec b5 00 bd
       0.03450769 0.04194709 0.020573977 -0.031423494
000350 6b a7 fd bc 7f ae 54 bc e6 4b 07 bc 1b e6 d1 bc
       -0.03096362 -0.012981056 -0.008257842 -0.025622418
000360 ce 6b 15 3d a9 55 12 bd 54 4d 10 bd 13 b1 c8 bc
       0.036479764 -0.035726223 -0.035229996 -0.024498498
000370 9a ce e9 3c c4 8b 83 bb b4 61 13 bd 9d 23 e5 3c
       0.028540898 -0.004014464 -0.03598185 0.027971083
000380 b1 5f 24 3d a0 04 04 bd 46 73 59 3c 87 7d 39 bc
       0.04013032 -0.032230973 0.013272112 -0.011321432
000390 f3 8c f4 3c 19 e4 d1 3c 46 0e 54 bc 8f 29 0f 3d
       0.029852366 0.02562146 -0.012942856 0.034951743
0003a0 56 5f 0e bc 58 db cf bc 5c 9a ae 3c 26 4a 8d bc
       -0.008689722 -0.025373146 0.021313839 -0.01724727
0003b0 45 5a 2a 3b e1 49 ef 3c 02 ef b3 bc 98 7a 23 3b
       0.0025993746 0.029210033 -0.021964554 0.0024944898
0003c0 df 8e 8d bc 25 2a 09 3d c8 bc e2 3c 80 7a 8f 39
       -0.01728004 0.033487458 0.027677909 0.00027366355
0003d0 37 82 d8 bb aa 67 03 3a 17 81 67 bc 06 43 00 3d
       -0.0066073197 0.00050127006 -0.0141298985 0.03131392
0003e0 22 24 94 bc 00 84 9b 3c 6e a0 39 3c 09 59 b6 bc
       -0.018083636 0.018983841 0.011329753 -0.022259252
0003f0 48 f9 59 3b ea f5 08 bd 3f 5e 3c bc d3 c7 ea 3c
       0.0033260155 -0.033437647 -0.011497079 0.028659737

conv2.bias f4 [128]
000000 6b f8 f4 3c f3 47 d4 bc 6e cf 24 3d e2 88 b5 3c
       0.029903611 -0.025913214 0.040236883 0.022159997
000010 1e 29 ad bc 62 cf 67 3c 1f 0e 87 3b 42 9d fc bc
       -0.02113777 0.014148565 0.0041215564 -0.030836705
000020 2c ee 8a 3b 5b c0 90 bc a3 86 dc bc 57 dd eb 3c
       0.004239818 -0.017669847 -0.026919669 0.028792066
000030 b4 7d 2a 3d 76 89 9e 3c 04 97 16 3d 94 d9 07 3a
       0.041623786 0.019352656 0.036765113 0.0005182263
000040 2c ed 5c 3c 8a 27 0e bd ce 0c c7 3c 16 2f 14 3d
       0.013484281 -0.034705676 0.024298098 0.036177717
000050 be 81 92 3c 29 18 01 bd 78 a9 e5 3a cb fa d1 bc
       0.017884132 -0.03151718 0.0017521819 -0.025632283
000060 e6 1f 03 3d fb 51 04 bd b0 e8 20 3d ab a8 51 3b
       0.032012843 -0.032304745 0.039284408 0.0031991403
000070 ec a5 1e bd 21 74 f1 3c f6 39 2f 3b 1c 1e b1 bb
       -0.038732454 0.02947432 0.0026737428 -0.0054052006
000080 ee 8b a6 3c 88 e6 04 3d 74 72 cb bc 65 0f bd bc
       0.020330396 0.032446414 -0.024834849 -0.02307863
000090 59 c4 8e bb de 78 01 bd db 27 fc bc 75 14 f2 3b
       -0.0043569026 -0.03160941 -0.030780723 0.0073876926
0000a0 cb 79 05 bc 26 30 69 3b d9 1e 0a bd 39 c4 56 bb
       -0.0081467135 0.0035581677 -0.033720825 -0.0032770766
0000b0 a6 7d fa bc 64 ed 31 3c 4a 92 7f 3c a6 52 24 bd
       -0.030577492 0.010859821 0.015598843 -0.040117882
0000c0 7a 29 14 3d 54 9f e8 bc 1f 4e e5 3c ed ff 19 bc
       0.036172368 -0.028396286 0.027991353 -0.009399396
0000d0 db 7e 13 bd 5b a3 fc 3b 5b bf e2 bc 9e 74 15 bb
       -0.03600965 0.007709903 -0.027679136 -0.0022805105
0000e0 ee 87 b4 3b b0 21 d3 3c 09 92 35 3c 85 29 b9 bc
       0.005509368 0.0257729 0.011082181 -0.022602806
0000f0 38 3c 30 bc 7f e6 1c bc c9 17 8f 3c 9a 2a 1f bd
       -0.010756545 -0.009576439 0.017467396 -0.038858987
000100 3f 30 e1 3c 9c 0d ce 3b 11 58 48 bc 56 d3 20 3d
       0.027488826 0.0062882435 -0.012228028 0.039264046
000110 37 ca ad 3c 61 2f 0f bc 9c 96 e1 bb 43 f4 0b 3d
       0.021214588 -0.008739323 -0.006884409 0.034168493
000120 39 d1 85 3c 16 e3 28 3c 34 c6 08 3d e9 8c b0 bc
       0.016335117 0.010308048 0.033392146 -0.021551566
000130 86 0a 67 3c dc 52 f3 3c 3e 3c a7 bc ac 1f ac bc
       0.01410163 0.029702596 -0.020414468 -0.021011196
000140 4a 15 ad 3c a5 f7 d4 bc 75 45 9d 3c 1d 89 98 bb
       0.021128315 -0.025996992 0.019198159 -0.004655017
000150 7e af 18 bd 04 f3 cd bb 09 4b e1 3c a5 02 8c bc
       -0.037276737 -0.0062850732 0.0275016 -0.017091105
000160 ee 46 44 3c 06 d2 6a 3b 94 6b 32 bb a8 d1 29 bb
       0.011979802 0.003583075 -0.0027224766 -0.0025912318
000170 2c 27 cb bb 48 83 18 3d b1 1b 08 3c 28 6b df bc
       -0.006199738 0.037234575 0.008307383 -0.027272776
000180 11 e2 f5 bc 90 b7 c9 3b 09 f2 f1 3b df fe c0 bc
       -0.030015023 0.0061559156 0.007383589 -0.023559032
000190 f5 d2 1d 3d 02 f5 1a 3d 0f 62 e5 3c 0f f6 d6 bc
       0.038531262 0.037831314 0.02800086 -0.026240377
0001a0 2e 09 ef 3c ad ff 23 3d a3 9d 07 bd 6c c0 e4 bc
       0.029179182 0.040038753 -0.03310932 -0.027923785
0001b0 23 fe 10 3d c0 29 fa 3c 69 07 35 bb 62 5a dc 3c
       0.035398614 0.030537486 -0.0027622825 0.026898567
0001c0 35 d9 a2 bc 7b 01 0b 3c 9c 07 e7 bc f6 be 14 bc
       -0.019878963 0.00848424 -0.02820187 -0.009078732
0001d0 c1 12 d3 bc 71 b5 f1 3b bd bd b8 bc 8f f1 34 3c
       -0.025765778 0.007376366 -0.022551412 0.01104392
0001e0 8f 39 25 bd 33 57 f6 bc f7 f1 a5 3c 3e 3a 05 3d
       -0.040338095 -0.030070877 0.02025698 0.032526247
0001f0 1b 4b 00 bd a7 aa 9f 3b 33 e8 09 bd 4e 2f 0c bd
       -0.031321626 0.0048726383 -0.033668708 -0.0342248

bn2.weight f4 [128]
000000 8b 57 80 3f 91 99 80 3f 8c 4e 80 3f 52 f7 7e 3f
       1.0026716 1.0046865 1.0023971 0.9959613
000010 0b c4 80 3f d7 aa 7f 3f 02 f0 80 3f ba 0c 80 3f
       1.0059828 0.99870056 1.0073245 1.0003884
000020 13 8f 7b 3f 6f 53 7f 3f f7 f2 82 3f 84 c1 7d 3f
       0.9826519 0.99736685 1.0230397 0.99123406
000030 37 3a 80 3f a1 59 80 3f f1 a4 7b 3f 03 cf 7c 3f
       1.0017766 1.0027353 0.98298556 0.98753375
000040 82 ee 7e 3f 5c 31 80 3f 2a 9b 80 3f d9 cf 7e 3f
       0.99582684 1.0015063 1.0047352 0.995359
000050 f6 8c 80 3f 45 6c 80 3f c0 c8 80 3f 05 02 7c 3f
       1.0043018 1.0033041 1.0061264 0.9844058
000060 f9 70 7f 3f be 1d 7e 3f 42 18 80 3f 8d 0e 80 3f
       0.9978176 0.9926413 1.0007403 1.000444
000070 8e 40 80 3f 95 b7 7f 3f 64 f4 81 3f b9 3b 7e 3f
       1.00197 0.998895 1.0152707 0.9930988
000080 4d 90 80 3f 9e ce 80 3f 28 52 7d 3f d6 b3 81 3f
       1.0044037 1.0063055 0.98953485 1.0133007
000090 d1 15 7e 3f 35 3d 80 3f 45 37 80 3f 8f 23 81 3f
       0.9925204 1.0018679 1.0016867 1.0088977
0000a0 72 53 81 3f f7 e4 82 3f 93 88 7f 3f 69 9a 7f 3f
       1.010359 1.0226125 0.9981777 0.99844986
0000b0 57 6f 80 3f c3 6e 80 3f 74 51 80 3f 56 cc 7f 3f
       1.0033978 1.0033802 1.0024858 0.99921167
0000c0 a5 2c 7f 3f 66 54 80 3f 11 51 80 3f b4 bd 7e 3f
       0.996775 1.0025756 1.002474 0.99508214
0000d0 d2 7a 7f 3f 01 10 7f 3f 04 ac 80 3f e0 ec 7d 3f
       0.99796784 0.99633795 1.0052495 0.9918957
0000e0 54 ec 7c 3f 4c ad 7e 3f 87 c8 80 3f 54 2a 80 3f
       0.9879811 0.9948318 1.0061196 1.0012918
0000f0 06 ca 80 3f 43 27 80 3f 79 dd 80 3f ac 47 81 3f
       1.0061653 1.0011982 1.0067588 1.0099998
000100 bb 39 82 3f 8c 7e 7d 3f b9 34 7f 3f 5e 36 7f 3f
       1.0173868 0.9902122 0.99689823 0.9969233
000110 bd 68 80 3f 68 f0 7e 3f c8 e6 7d 3f fd e0 7d 3f
       1.0031964 0.9958558 0.9918027 0.9917143
000120 52 b2 7f 3f 9e b6 80 3f cf e4 81 3f 96 40 80 3f
       0.9988147 1.005573 1.0147952 1.001971
000130 24 68 80 3f dc 48 83 3f 3c c9 80 3f 2b e7 80 3f
       1.0031781 1.025661 1.0061412 1.0070547
000140 38 dd 80 3f 62 7f 7c 3f 7d 1d 80 3f cf 07 80 3f
       1.0067511 0.9863187 1.0008999 1.0002383
000150 85 49 7c 3f 25 7d 7e 3f 3f 2f 7e 3f a9 60 80 3f
       0.9854968 0.99409705 0.9929084 1.0029498
000160 14 aa 7f 3f 4a d2 81 3f dc b7 7e 3f d2 bc 7e 3f
       0.99868894 1.01423 0.994993 0.99506867
000170 b6 40 80 3f cd 05 80 3f 98 32 7d 3f aa e0 82 3f
       1.0019748 1.000177 0.98905325 1.0224812
000180 d9 23 80 3f a8 b2 7c 3f be 19 80 3f ad 8f 80 3f
       1.001094 0.9871011 1.0007856 1.0043846
000190 db a6 81 3f 06 e5 80 3f c3 9c 7d 3f 44 a7 80 3f
       1.0129045 1.0069892 0.99067324 1.0051045
0001a0 dc bc 7d 3f 12 93 7e 3f da 6c 7e 3f ef 57 7f 3f
       0.991163 0.9944316 0.99384844 0.9974355
0001b0 c8 72 7d 3f 98 c1 7d 3f 3e 45 80 3f 84 ed 80 3f
       0.9900327 0.99123526 1.0021131 1.0072484
0001c0 cf 30 81 3f 92 6d 7f 3f 9f 86 7e 3f c9 79 80 3f
       1.009302 0.99776566 0.99424165 1.0037166
0001d0 ab ad 81 3f d9 90 7f 3f 53 90 7d 3f d7 35 7d 3f
       1.0131124 0.99830395 0.99048346 0.9891028
0001e0 1d 03 7e 3f b3 b3 7b 3f 2d 40 7f 3f 56 26 81 3f
       0.992235 0.98321074 0.997073 1.0089824
0001f0 21 ef 7e 3f c7 71 80 3f e6 b6 7d 3f 31 ba 80 3f
       0.9958363 1.0034722 0.99107206 1.0056821

bn2.bias f4 [128]
000000 98 17 6e bb e9 a6 0e bc 8e 02 2d bc 82 4d 3b bc
       -0.003632998 -0.008706787 -0.010559691 -0.0114320535
000010 ad bd 8d 3a b6 97 e9 bc c0 3c 82 3b 6b db f6 bb
       0.0010813974 -0.028514724 0.003974527 -0.007533481
000020 76 0f c9 bb 82 46 69 bc 25 79 97 3c 0b fa 10 bc
       -0.0061358763 -0.014238002 0.018490383 -0.008848677
000030 02 33 7d bc fc 31 85 bb 73 75 86 bb 2e ce 92 bc
       -0.015454056 -0.0040647965 -0.0041033565 -0.01792058
000040 41 99 3e bc 45 10 ef ba 72 5f 87 3a d0 5f 08 bc
       -0.011633218 -0.0018239102 0.0010328128 -0.008323625
000050 08 c5 07 bc 5f 25 6a bb da ad e6 bb e1 17 05 bc
       -0.008286722 -0.0035727841 -0.0070397677 -0.008123369
000060 3e b2 8f bb b4 a2 8d bc 9d 76 1a 3c 00 08 fc ba
       -0.004385262 -0.017289497 0.009427694 -0.0019228458
000070 84 3a 97 bc 74 91 d4 39 17 bb b2 bb 55 d9 07 bc
       -0.01846052 0.00040544162 -0.0054544318 -0.008291562
000080 68 c5 b5 3b a9 cc 1e bc d7 fc f4 bb 9f dc 7a ba
       0.0055472143 -0.0096923495 -0.00747643 -0.0009569618
000090 f3 bd e7 bb 19 ac f3 bb fd 11 4c bb 73 2e 10 3b
       -0.0070722043 -0.007436287 -0.0031138652 0.0022000342
0000a0 e3 9e 2e b8 8a f9 0a bb d1 50 01 bc db ca ea ba
       -4.1632808e-05 -0.0021205866 -0.007892803 -0.0017913239
0000b0 06 24 51 bc eb fb 89 bb a1 33 02 bc 29 78 2e bc
       -0.012764936 -0.004210939 -0.00794688 -0.010648766
0000c0 1a af 14 bc 32 c3 f7 bb e3 9f a6 bb 03 70 08 bc
       -0.009074951 -0.007561111 -0.005084978 -0.008327487
0000d0 2b 87 5f bb 70 e9 04 3c 25 e6 fb bb 13 6d 3f bc
       -0.0034107666 0.008112296 -0.0076873475 -0.01168372
0000e0 21 57 23 bc 43 4d 56 ba e0 11 47 bb 2c d6 e1 bb
       -0.009969504 -0.0008174965 -0.0030375645 -0.0068919864
0000f0 fb 23 e0 3a eb a3 33 bc e5 35 1e bc 6b d7 7f bb
       0.0017100567 -0.010964374 -0.009656404 -0.0039038311
000100 bb 16 6d 3b f8 7e 0e bc 1a 6f 04 bc 54 d9 64 bb
       0.0036176878 -0.008697264 -0.008083129 -0.0034919577
000110 7a a9 7e bb bd 3f 62 3b 03 11 09 bc 98 f5 6c bc
       -0.003885834 0.0034522854 -0.008365872 -0.014462851
000120 85 fe 27 bc 5c fb 7e bb b5 f6 fb ba ce 40 07 bc
       -0.010253553 -0.0038907146 -0.0019223305 -0.008255197
000130 d6 f8 93 bb ac bb 86 3b 2f a8 95 bb 63 1a 8f ba
       -0.0045157475 0.0041117277 -0.004567168 -0.0010917898
000140 52 d7 de bb cf c7 ba bc 1d 63 05 bc 0a c1 86 bb
       -0.0068005705 -0.022800354 -0.008141306 -0.0041123675
000150 7c be 97 bc 7f 2d 97 39 24 f0 27 bc 48 1d 43 bb
       -0.018523447 0.00028834862 -0.010250125 -0.0029772092
000160 1c 42 97 bb 95 c5 65 ba ae d8 51 bb 63 d6 a0 bc
       -0.004616035 -0.0008765099 -0.003202002 -0.019633478
000170 17 6c 9d bb cd b1 8f ba 8e 76 63 bc 58 a8 14 bc
       -0.004804145 -0.0010963023 -0.013883246 -0.009073339
000180 fe f4 7d b9 4a eb 36 bc d1 a7 81 3b 46 b0 e1 bb
       -0.00024219227 -0.011164496 0.003956773 -0.0068874685
000190 13 bb 20 3b 05 b3 8b 3b 86 66 19 bb f9 f2 d6 bb
       0.0024525567 0.004263284 -0.0023407056 -0.0065597263
0001a0 ac 49 20 bc f0 74 33 bc 6e f0 aa bb 84 85 81 bc
       -0.00978319 -0.010953173 -0.0052166497 -0.015810736
0001b0 0c e3 7f bc 33 cd 11 bc 0a ff 53 3a 2d 34 97 ba
       -0.015618097 -0.008899021 0.0008087015 -0.0011535935
0001c0 7a 4e 3e 3b 8b 69 13 bc a4 49 13 bb ac b4 0e 3c
       0.0029038475 -0.008997331 -0.0022474313 0.008710068
0001d0 67 3a 4e 3a de 8e f6 3b 3c 27 da bb db ee 31 bc
       0.0007866979 0.0075243553 -0.006657509 -0.01086017
0001e0 bc b0 51 bc cc 7e 25 bc 25 dd 31 bc d0 ce 16 bc
       -0.012798484 -0.0101010315 -0.010855948 -0.009204581
0001f0 ba bf 34 bc 4f 09 2d bc c8 cd 2f bb 89 e1 ca bc
       -0.011032039 -0.010561301 -0.0026825536 -0.024765747

bn2.running_mean f4 [128]
000000 bb 8b f6 3c 65 d9 80 3c 39 50 9e bd 85 9f 92 bd
       0.030095926 0.015728662 -0.07730145 -0.07159332
000010 96 9b 5b bc 08 b6 2d bd 4e 1e f7 bd d9 5c ab bd
       -0.013403794 -0.042409927 -0.12066327 -0.08367319
000020 94 a5 61 3d 57 e9 f9 bc 91 48 b4 be 99 2c 38 bb
       0.05508955 -0.030506773 -0.35211614 -0.0028102754
000030 a5 dc 13 be ac d7 ab bd 98 aa 0e 3e fd 33 90 3d
       -0.14439638 -0.083907455 0.13932264 0.07041166
000040 19 8c 90 bd fd fc 18 3e ae 3d 5b be ed f1 81 3d
       -0.070579715 0.14940257 -0.21410248 0.06344972
000050 2e 94 d3 3d ad 51 2f be b1 b8 cb be 90 ec dc bc
       0.103309974 -0.17121 -0.39789346 -0.02696827
000060 6f af f3 3c 08 3a c0 3d 40 e7 64 be 90 f9 3c bd
       0.02974674 0.093860686 -0.2235384 -0.04613644
000070 5b e3 b0 bd ff 62 50 3d 2d 78 81 be 40 35 eb 3d
       -0.086371146 0.05087566 -0.25287 0.11484766
000080 e8 2d b6 bd 3e 72 2e be 21 0e 73 3e 9f 23 51 be
       -0.08895475 -0.17035767 0.23735859 -0.20423745
000090 99 34 c6 bd 1e 93 95 3d da c7 73 be 76 86 cd be
       -0.09678001 0.07303451 -0.23806706 -0.40141648
0000a0 78 6a 7e be 33 32 fb bd 99 60 0c 3d 54 8c 2f be
       -0.24845302 -0.12265434 0.03427181 -0.17143375
0000b0 83 01 9d be 54 5b 38 3c 5c de ad be 57 01 ed bd
       -0.30665216 0.011252243 -0.3395871 -0.11572521
0000c0 19 41 f0 3e e1 69 0e bd 6e 07 cc be e3 bb 44 bd
       0.46924666 -0.034768943 -0.39849418 -0.048030745
0000d0 05 f1 55 bd 40 6c 54 be 26 7c 22 3e c0 d8 11 bd
       -0.052231807 -0.20744419 0.15867671 -0.0356071
0000e0 42 f1 4b 3d ec be 6c bd 2d 9f 9c be 2f b8 93 be
       0.04979063 -0.057799265 -0.3059019 -0.28851458
0000f0 76 25 d7 ba 86 d2 21 bd 1e 86 90 3e 6e ce 15 be
       -0.0016414362 -0.03950741 0.28227323 -0.14629528
000100 18 8e d8 be e4 91 5c 3d 59 65 4a be b5 2d 02 be
       -0.4229591 0.05385007 -0.19765224 -0.12712748
000110 71 7a 84 be 9f e8 b4 bd e6 61 7f bd 07 d9 b1 3e
       -0.25874665 -0.088334315 -0.062349223 0.3473589
000120 ed d5 a2 3d 2d 39 12 be d1 e3 bb bd b3 bb ff bd
       0.07950959 -0.14279623 -0.09174312 -0.12486973
000130 b8 6d e0 bc a1 6a 49 be f5 a2 4b be 44 5f 3a be
       -0.027396068 -0.19669582 -0.19886382 -0.18200403
000140 09 02 c2 bd 25 4a f1 bd 57 cc b2 3c cc 04 12 3d
       -0.094730444 -0.1178172 0.021825952 0.035649106
000150 9a 52 2d 3e 2a d0 42 3d ec 8c 8e 3d e2 bc 20 be
       0.16926041 0.047561802 0.069604725 -0.15697053
000160 51 36 55 be 36 65 78 3e 24 91 00 3d 3e e5 a2 3d
       -0.20821501 0.24257359 0.031388417 0.07953881
000170 17 09 b0 bd ed d9 6a be fe ee c4 3d ea cf e2 be
       -0.08595484 -0.22934695 0.09615897 -0.4429925
000180 cc 0c 29 3e 96 16 72 be ec 0d 8b be 2d 66 ec be
       0.16508788 -0.23641428 -0.2715906 -0.46171704
000190 8c 14 37 3d 08 d3 43 be 44 19 0c be cd ce b3 be
       0.04469733 -0.19123471 -0.13681513 -0.35118714
0001a0 7b 9d d6 bd e1 32 f8 bc 29 60 da bd 90 0f 7e 3e
       -0.10479256 -0.030297698 -0.10662872 0.24810624
0001b0 f8 4f 79 be b9 95 8e 3d 4b 04 a4 be ea d1 26 be
       -0.24346912 0.06962151 -0.32034525 -0.16291013
0001c0 a8 71 b4 be 66 ae 46 be 63 49 1e be 05 a0 e6 bb
       -0.35242963 -0.19402465 -0.15457682 -0.007038119
0001d0 a3 28 28 bd 46 d4 49 bd 37 cc 85 bd 2a 60 7d be
       -0.04105438 -0.049274705 -0.065330915 -0.24743715
0001e0 d4 bf 70 3d 64 a2 0c bb 3f 52 f7 bc 37 9a 24 bd
       0.05877669 -0.0021459097 -0.030190585 -0.040186133
0001f0 e3 29 6a be 30 9d 1d be de 16 8e bd 2e 89 7b bc
       -0.22867541 -0.15391994 -0.06937955 -0.01535253

bn2.running_var f4 [128]
000000 96 5d ad 3d df 92 3d 3d 00 30 aa 3d 5a 0d 14 3e
       0.08465116 0.046282645 0.083099365 0.14458218
000010 e3 70 d0 3d c7 c7 3f 3d 81 52 11 3e a3 c8 dc 3d
       0.101777814 0.046821382 0.14191629 0.10780456
000020 9e 50 a1 3d 85 61 8a 3d 92 3e 9c 3d b6 d1 1b 3e
       0.07876705 0.067568816 0.07629122 0.15216717
000030 90 97 cb 3d 51 2f 98 3d 78 da 13 3e f8 e8 68 3d
       0.09941018 0.074309 0.14438808 0.0568628
000040 86 dd a2 3d 47 1e a1 3d a5 70 83 3d cb f5 c8 3d
       0.079524085 0.07867103 0.064179696 0.09812506
000050 f4 1c ba 3d 1e f2 65 3d 1d 63 ac 3d 12 a4 e3 3d
       0.090875536 0.056139104 0.08417342 0.11115278
000060 e3 aa 85 3d b2 5c d4 3d 7d cb 15 3e 22 e8 8d 3d
       0.06526735 0.10369243 0.14628406 0.069290414
000070 62 7d 40 3d 98 5d 55 3d 29 c1 b5 3d a9 fe 74 3d
       0.046994574 0.05209121 0.08874733 0.059813175
000080 56 9f aa 3d 90 63 ba 3d f8 09 d8 3d 59 4e ef 3d
       0.08331172 0.09101021 0.105487764 0.116848655
000090 2f 07 ed 3d 13 64 45 3d 31 dc be 3d a5 e9 d3 3d
       0.11573636 0.04819114 0.09319342 0.103472985
0000a0 44 9c 4e 3d e6 bf 56 3d e1 fe b8 3d 94 75 e9 3d
       0.050441995 0.052429102 0.09032989 0.113993794
0000b0 80 45 a2 3d 2f 9b 10 3e 38 08 a3 3d bf bc 8e 3d
       0.07923412 0.14121698 0.07960552 0.06969594
0000c0 d7 ae a1 3d 06 b2 8f 3d 34 c5 15 3e 0e 28 b6 3d
       0.07894676 0.07016377 0.14626008 0.088943586
0000d0 12 d5 b8 3d 0a 2b 91 3d ab de a8 3d d3 2c a8 3d
       0.09025015 0.07088287 0.082455955 0.082116745
0000e0 4e 54 9d 3d 14 d9 e6 3d 99 d4 a9 3d 73 0e af 3d
       0.076820955 0.11271873 0.08292503 0.08547678
0000f0 b9 b2 aa 3d 97 54 80 3d 8d 85 8a 3d 26 35 3b 3d
       0.0833487 0.06266134 0.06763754 0.045704983
000100 d1 fb ad 3d d0 88 a2 3d fb 1e af 3d 63 2a 87 3d
       0.08495296 0.07936251 0.08550831 0.065998815
000110 af 0f e9 3d d6 d3 6d 3d 86 e1 af 3d 5f e0 cc 3d
       0.113799445 0.05806335 0.08587937 0.10003733
000120 9f 9b 4c 3d 7b b5 9e 3d d1 43 91 3d 28 52 9e 3d
       0.0499531 0.077494584 0.07093013 0.07730514
000130 0a 03 89 3d ba 25 3a 3d 7e 53 87 3d a5 7d ad 3d
       0.06690033 0.045446135 0.06607722 0.084712304
000140 ff 18 38 3d 62 58 a4 3d 8c 03 17 3d 90 e7 89 3d
       0.044945713 0.0802467 0.036868617 0.0673362
000150 02 1b b7 3d b2 07 a4 3d 6d 1e c7 3d b6 3c e7 3d
       0.08940698 0.0800928 0.097226 0.112908766
000160 35 39 15 3e 90 90 83 3d b6 6b 53 3d 34 d4 72 3d
       0.14572604 0.064240575 0.051616393 0.059284404
000170 e5 b6 6b 3d 35 c2 cb 3d 18 79 8f 3d 4d 6f 4e 3d
       0.05754747 0.099491514 0.07005519 0.050399113
000180 da 06 a1 3d ad 8c 8a 3d 84 02 df 3d 91 c1 da 3d
       0.07862635 0.06765113 0.10889152 0.10681451
000190 9a 19 ac 3d ee 44 e8 3d a6 0f eb 3d be ba bf 3d
       0.084033206 0.11341272 0.11477594 0.0936179
0001a0 bc 85 fb 3d 67 62 d2 3d 7f 99 94 3d 9c 3e b1 3d
       0.12281367 0.10272675 0.072558396 0.0865452
0001b0 ee 01 ef 3d 24 92 76 3d 87 7a 88 3d 11 25 50 3d
       0.1167029 0.060197964 0.06663995 0.0508166
0001c0 bb 01 d3 3d 7b f1 98 3d fe 8b a4 3d b7 e9 98 3d
       0.103030644 0.07467934 0.08034514 0.074664526
0001d0 c4 9c 9b 3d c1 26 08 3e c8 5c f3 3d 2e 47 9c 3d
       0.0759826 0.13296033 0.11882931 0.07630764
0001e0 b2 fa a3 3d 6e 34 0e 3e 73 dd 71 3d 00 78 ae 3d
       0.08006801 0.13887188 0.05904908 0.08518982
0001f0 9b 7d a3 3d 89 73 9a 3d e7 a2 b0 3d 7b b4 84 3d
       0.07982942 0.07541568 0.08624821 0.064797364

conv3.weight f4 [128, 128, 3, 3]
000000 50 d7 77 bc 93 c7 f9 ba a5 9d 89 3c 26 39 0c bc
       -0.015127018 -0.001905667 0.016798804 -0.008558547
000010 93 e5 01 bd f8 49 5a bc d3 59 b9 bc c6 41 b4 3c
       -0.03171308 -0.0133233 -0.02262584 0.02200402
000020 de 7b 06 3d 01 60 c7 3c a4 d6 8f bb 2a 80 86 bb
       0.032832973 0.02433777 -0.004389601 -0.004104634
000030 4f ff eb bc ee 63 e6 3c a0 3b a8 3c 25 60 19 3c
       -0.028808264 0.028123822 0.020536244 0.009361302
000040 4f 70 cd 3c bd 22 29 bc 8e 29 02 3d 93 b0 0f bd
       0.025077967 -0.010323224 0.03177791 -0.035080504
000050 f6 82 e5 3c b1 f7 5e bc 1e c7 01 3b 11 48 aa 3c
       0.028016549 -0.013608859 0.001980252 0.020786317
000060 99 d7 21 3c aa a6 8b 3c 7e 46 74 bc ed b9 8f bb
       0.009878063 0.017047245 -0.014909385 -0.0043861778
000070 96 11 ca 3a cd 78 38 bc c2 78 6d 3c ae df 36 3c
       0.0015416618 -0.01125927 0.014494123 0.011161728
000080 a1 6e d2 bc 6e 4e 38 3c 11 cd cb 3c ea f3 23 3c
       -0.025687518 0.011249168 0.024878057 0.010006884
000090 26 9b a9 3c 5f d9 75 38 8f f0 cb 3b b5 d4 fe bb
       0.020703863 5.8614994e-05 0.006223745 -0.0077768215
0000a0 20 c4 a2 3c 0c 21 ac bb e1 4e dd bc 02 a8 6f 3c
       0.01986891 -0.005252963 -0.027015151 0.0146274585
0000b0 1e d1 0b 3c e8 af 37 3c 8d cf d0 3c a0 df c7 bc
       0.008533744 0.011211373 0.025489593 -0.024398625
0000c0 20 55 3d 3a b0 4a 35 3c 66 e3 85 bc f0 64 ff 3b
       0.00072224624 0.01106517 -0.016343784 0.007794015
0000d0 d7 2e 17 ba 2e 0d 17 3c 6e d8 c8 3c b0 4f 1d bd
       -0.00057671726 0.009219451 0.024517264 -0.038406074
0000e0 f7 5c 3f 3c 44 79 d6 bc e4 27 8a bc 80 90 ab bc
       0.011679879 -0.02618087 -0.016864724 -0.020942926
0000f0 f7 91 c1 bc 27 7c 08 bc c5 8e ba 3c 29 63 85 bc
       -0.023629172 -0.0083303815 0.022773156 -0.016282635
000100 60 45 00 bd e9 e2 14 3c 1d 09 af bb 77 ad 66 3c
       -0.03131616 0.009087303 -0.0053416626 0.014079443
000110 83 4b 29 bc 1c 86 02 bd 33 3d a1 3c c2 ba ea 3b
       -0.010332945 -0.031866178 0.019682502 0.0071633765
000120 73 b2 da bb a0 c2 db 3c 79 b7 84 3b 6e 23 14 bc
       -0.006674105 0.026826203 0.004050192 -0.00904165
000130 86 6d 62 3c 6b 81 cf bb 3e 4d 27 bb a7 7d a6 bb
       0.013820058 -0.0063325665 -0.0025528218 -0.005080897
000140 a5 79 46 bc 30 2a 88 3c 39 37 b0 bc d4 37 c3 3b
       -0.012113963 0.016621679 -0.021510707 0.005957583
000150 62 6c 05 bc a0 32 94 3c 2e 6d ef bc 87 3e 09 3c
       -0.008143516 0.018090546 -0.029226866 0.008376724
000160 85 88 00 bc b4 8e eb b9 49 11 81 3a 01 e7 44 bc
       -0.007845049 -0.00044929015 0.000984707 -0.012017966
000170 41 4a 6d bb a4 de df bc 92 d6 4d bc 4c 68 f4 bc
       -0.003620759 -0.027327843 -0.012563365 -0.029834889
000180 40 e1 b3 bc 7d 46 ae bc f8 5e f5 bb 1b bb cb bc
       -0.021957994 -0.021273846 -0.007488128 -0.024869492
000190 ed 95 f5 b9 c4 6d 90 3b b1 cf 21 b8 e3 b2 d2 3c
       -0.00046841745 0.0044076163 -3.857882e-05 0.025720065
0001a0 96 9f e3 b9 96 d6 0a 3c 7a 34 b1 3c 86 f0 18 bc
       -0.00043415715 0.008474013 0.021631468 -0.009334689
0001b0 8f 29 41 3c 81 c5 83 3c f7 bb c3 3a e6 aa 90 3a
       0.0117896935 0.016085388 0.0014933337 0.001103726
0001c0 30 5b 26 3b f5 4a fe 3b 9f 5e 89 bb fa de ab 3b
       0.0025383942 0.0077604004 -0.004192188 0.0052450867
0001d0 e3 92 fa 3b ad 38 a5 3c c9 54 a6 3c 86 1d 9f 3c
       0.007646905 0.020168627 0.0203041 0.019423258
0001e0 b4 62 3b bc 9d d7 75 bc b6 d7 b1 bc 1e 02 83 3c
       -0.011437107 -0.0150050195 -0.021709304 0.01599222
0001f0 5b 27 19 bc 8d b4 8a 3c c5 b2 c3 3b 71 a2 96 bc
       -0.009347762 0.016931796 0.0059722387 -0.018388005
000200 17 e3 2f bc bb a5 88 bc 3a 9d db bc 2c 93 9c 3c
       -0.010735295 -0.016680589 -0.02680837 0.019113146
000210 85 d0 3b bb 57 c7 29 38 eb 8a 14 3b 47 e7 d7 3b
       -0.0028658223 4.047839e-05 0.002266581 0.0065888497
000220 1a 59 05 bc 56 37 87 bc 55 3d 8b 3c 62 77 ed bc
       -0.008138919 -0.016505878 0.016997019 -0.02898759
000230 ab 76 d6 3c 28 5c e1 bb d4 25 8e 3c 16 4e 5c 3b
       0.026179632 -0.006877441 0.017352022 0.0033615879
000240 d7 9f 0e bd 8c a3 81 bc 80 bf f4 3c 14 8d a3 3c
       -0.034820404 -0.015825056 0.02987647 0.019964732
000250 94 f6 76 3c ad 3d f4 3b 13 32 16 bb 34 8d ec bc
       0.015073437 0.0074536414 -0.002291803 -0.028875925
000260 ab 1c 1e ba 9f d5 3f 3c bc 8a 89 3c 08 d4 d0 bb
       -0.00060314935 0.011708646 0.016789787 -0.0063729323
000270 04 13 5f 3c 55 75 0c ba b4 e4 2b bc b8 aa 8b 3c
       0.0136153735 -0.000535806 -0.010491539 0.017049178
000280 9f 38 a3 3c a4 56 5c b8 06 75 3b 3c 19 a4 13 bd
       0.01992446 -5.2532778e-05 0.011441475 -0.036045168
000290 52 00 7b 3c ba 6b 85 bc 1c 91 9e 3c b6 17 51 3b
       0.015319901 -0.01628672 0.019356303 0.0031905002
0002a0 d7 a6 e5 3b 6c 59 c7 bc 31 e2 e1 bc 73 e8 68 bc
       0.0070084142 -0.024334632 -0.027573677 -0.014215576
0002b0 57 20 f7 3c 53 56 d5 3b 52 54 8b 3c c6 81 1a 3c
       0.030166788 0.006510535 0.01700798 0.009430354
0002c0 1b ac 1f bc 0b 96 63 3c 98 65 d7 bc 7b 13 67 bc
       -0.009745623 0.0138907535 -0.02629356 -0.014103766
0002d0 a0 a9 d8 bc e0 c6 17 3c ee 75 e0 bb 69 37 ca 3c
       -0.026448071 0.009263724 -0.006849996 0.024684625
0002e0 b2 8b e4 bc 6c bc 6c bc c2 c8 3c 3b 31 db e5 bb
       -0.027898643 -0.01444922 0.0028806184 -0.007014655
0002f0 6b 69 a6 3c 54 85 4c 3b b4 34 8c 3c c0 dd 6c bc
       0.02031394 0.00312074 0.017114975 -0.014457166
000300 60 3b cb bb 94 d9 6a 3c cf 36 99 3c 49 db be bc
       -0.0062021464 0.014334101 0.018702893 -0.023297923
000310 6a cf 81 bc 1a 3d fa 3c 25 4d 79 3c f3 49 b4 bc
       -0.015845973 0.030546714 0.015216147 -0.022007918
000320 7d b1 5f bc c0 41 dc bc c2 d6 14 bc 26 ed 61 bc
       -0.013653156 -0.02688682 -0.009084405 -0.013789451
000330 e8 aa a5 3c 14 68 dc bb 59 c3 62 3c 7e e4 1d bc
       0.020223096 -0.0067262743 0.01384052 -0.009636996
000340 8a aa ec bb a6 78 8d 3c ad c0 cf 3c 30 40 12 bc
       -0.0072224783 0.017269444 0.02536043 -0.008926436
000350 73 82 92 3a 11 72 d9 3c a0 82 ff 3a ed 93 cf bc
       0.0011177793 0.026543649 0.0019493885 -0.025339091
000360 ab a5 b1 bc 60 bc aa 3c e0 ee ff 3b 28 bb 46 bc
       -0.021685442 0.020841777 0.0078104585 -0.012129582
000370 f2 27 4d bc f6 1c ee 3b 0b f0 fa 3b 08 74 a8 3b
       -0.012521731 0.007266636 0.00765801 0.005140785
000380 c6 96 ae bc 2b 31 fc 3c 50 35 d6 3c 6f 22 1b 3b
       -0.021312129 0.030785164 0.026148468 0.0023671647
000390 41 54 b6 37 2f 72 32 3a 89 de 0c 3c 49 0f 23 3c
       2.1735324e-05 0.0006807176 0.008597978 0.009952375
0003a0 0f b4 0b bd f7 79 06 bb d5 24 0f bc 4f 64 4b 3c
       -0.034107264 -0.0020519474 -0.008736809 0.012414052
0003b0 44 2f de bb c3 a2 98 3b a2 65 4b 3c 83 9d 20 3b
       -0.006780537 0.0046580746 0.012414368 0.0024507947
0003c0 58 94 92 bc a8 c1 d6 3b b8 b8 a7 bc 17 cd ca 3c
       -0.017893001 0.0065538473 -0.020473823 0.024755998
0003d0 eb a3 58 bb d4 a0 86 3c a4 9e d7 3c cd 31 6c 3c
       -0.0033056687 0.01643411 0.026320763 0.01441617
0003e0 af 3a 1b 3d 0e 03 9a bc e9 b9 a8 3c f7 a0 a6 3b
       0.037897762 -0.018800285 0.020596461 0.0050851065
0003f0 03 ed ea bb ff 7a 46 3c 22 fb 04 bd e4 f2 74 3c
       -0.0071693673 0.0121142855 -0.03246606 0.014950488
