src/training/trained_models/model_standard-mt_bolt-caster.pth (torch, 908943 bytes, 20 tensors)

conv1.weight f4 [64, 2, 3, 3]
00000000: 2a8a ffbd 449b 723e d460 333e 1973 883b
00000010: 07f1 233e eb10 46bd 32d5 613e 21f6 5d3e
00000020: 80fe 9b3d 0d3f 0cbe fa7d 66be 10f1 5e3d
00000030: 56b2 d7bd 7102 413d b12d 163e 731b 30bd
00000040: 9e28 6dbe 33c2 2c3e 77e4 2f3e ff03 ea3d
00000050: a00c 9ebd 2643 37be 2bee b33c 7386 6b3d
00000060: c856 043e c89e ed3d 0859 193e 7ecc 22bd
00000070: 2b2a 1c3e 25ab 4bbe 3efe 313e 931a 30be
00000080: 32d2 8e3c e03d 063e 29d6 b2bd 0270 50be
00000090: 5bb1 4fbe 46da a8bd b513 f2bd 8ea6 37be
000000a0: b037 1dbe 8b5b de3a 699b 5bbe 82e9 203c
000000b0: 8367 37bd 44c9 45be 3018 e53d 47f9 6cbe
000000c0: 75f9 093e a377 b03c 8cf1 cebd 4c42 6fbd
000000d0: 6e58 65bd bdbb 28bc caa7 3f3e f496 cf3d
000000e0: f931 cbbd cc9e dd3c af8b 12bd 0d21 a6bd
000000f0: 0560 023e 5977 e83d 035c bfbd e8d3 71bd
00000100: 7d80 1a3d f2d5 46be c276 f7bd 13f6 353d
00000110: 8eea d23c 752a 51be 507b 453e bdc4 bcbc
00000120: 38b0 5abe f96a bdbd 780f 673b e56a 113d
00000130: 0098 c83d ab75 1e3e fe7f 9a3d 239d 9f3c
00000140: 8c53 303e 5c00 a33d ab71 8bbd 55dd 62be
00000150: 9001 703e 9335 a53d b40a 62bd 26fc 2dbe
00000160: f973 463e 5916 853d 93d3 90bd 52d1 1abc
00000170: 3a44 143e 2fb7 5fbe 6213 bcbd 2899 afbd
00000180: 9ec5 50be f138 6fbd 77d5 d43d 240b 603d
00000190: 2c52 fb3d a25e 4cbe a02a 963d e506 323e
000001a0: bcb2 223e 3722 dbbd 06aa 0b3e 262f 07be
000001b0: 1611 143e f183 463e 750d 343d c1ef 0d3e
000001c0: 62a4 1dbe 8d61 a63d 1ab5 f4bc 08c9 b6bd
000001d0: c45f d73d c139 5bbe 39e3 e93d e899 0bbe
000001e0: 98d3 073d 8cb9 68bd c46b b7bd 90a5 29be
000001f0: 5b40 053e 939a 2cbd 05e2 70bd 4fed 783d
00000200: 4d2c 0abe 2930 37be dab2 5ebe faf0 4bbd
00000210: 9ff4 64be 17cf 2e3e 8767 8ebd cbf3 56be
00000220: 94b7 c1bc 4f08 0ebe f405 edbc fab6 d0bd
00000230: 4318 a7bd 0c43 18be 91de 65be 0acc 6a3e
00000240: aac7 fc3d ef29 cd3c a9c4 0abe a60e 553e
00000250: d376 6e3e bca9 5e3e 8b84 56be 9ac9 f5bd
00000260: 1909 dcbd b0e7 073d 4d83 d83d 90dc 00be
00000270: f47f 5d3e e174 ec3c 65cf 6f3d d6e8 4d3d
00000280: 449a 83bd 6a82 82bd 4515 49be 644a a83d
00000290: 6aa7 2bbe c075 003e 3b61 463e fb64 8bbd
000002a0: 0774 3a3e a65c 61bd 6352 d1bd 7e11 bf3d
000002b0: 85a3 28be d4ac 2ebe 57f5 293c 638f 193e
000002c0: dcc3 3b3e 40fb 3ebc 9a24 633e edd9 c5bd
000002d0: 83d9 88ba 8abd 4abe 6409 fdbc c41b 463e
000002e0: 812c 07be e381 563e cb20 2fbd 6da3 243e
000002f0: 67ef c53d e78a 19be 1a87 853d 554f 213d
00000300: d8d6 93bd 4dde 373d cdb1 163d ec8b 523d
00000310: 66f7 5e3e 1815 923d d193 843d eb70 2cbe
00000320: 8224 4fbe 233c 00be 0933 49be e165 1c3e
00000330: d8ba afbd b957 60be dc64 f33c e67e 0dbe
00000340: 3a96 9ebd 9e49 173e 69d5 223e 1ca2 94bd
00000350: b8df 43be e967 ba3d c18e 6dbe e2da 443e
00000360: 3674 2dbe 4785 72bd b4ea 913c 68e4 65be
00000370: 104c 4b3e eb3d fbbc ae7d 3a3e dde1 643e
00000380: 8ea1 0b3e f284 25be 956f bfbd cd56 533e
00000390: 01b9 ab3c 169d 68be add2 aebb 78bb 5d3d
000003a0: a861 593c 9238 2bbe 8dcb 8dbd abcd dd3d
000003b0: aa69 163e 0923 163d e843 18be 99b4 093e
000003c0: e32e 1abe d527 6cb9 9b76 d5bc 9366 d8bd
000003d0: 3686 013e f715 0cbe 0dd7 333e 78b4 10be
000003e0: 383f 62be 8f19 123d f573 20be 856a 83bd
000003f0: 5617 cfbd ee13 673d e9c2 efbc 3480 513e
-0.124775246 0.23692042 0.17517406 0.0041641113 0.16009913 -0.048355978 0.22053984 0.21675922
0.076169014 -0.13695927 -0.22508994 0.054429114 -0.10532062 0.04712147 0.14665867 -0.042994928
-0.23160025 0.16870956 0.17176996 0.114265434 -0.07717252 -0.17896709 0.021964153 0.057501268
0.1292373 0.11602551 0.14975369 -0.0397458 0.15250461 -0.19889505 0.17382142 -0.17197637
0.017434213 0.13109541 -0.08732254 -0.20355228 -0.202825 -0.08244757 -0.11820165 -0.1793463
-0.15353274 0.0016964538 -0.21446003 0.009821298 -0.04477645 -0.19315058 0.11186254 -0.23141967
0.13474067 0.021541422 -0.10104665 -0.058412835 -0.055992536 -0.010298667 0.1871635 0.10136214
-0.09921641 0.02705326 -0.035777744 -0.08111773 0.12731941 0.11350889 -0.09343722 -0.05903998
0.037720192 -0.19417551 -0.12083198 0.044424128 0.02574661 -0.20426352 0.19285321 -0.02304303
-0.21356285 -0.09248919 0.0035257023 0.035502333 0.09794617 0.15474574 0.07543944 0.019484108
0.1721937 0.07959053 -0.0680879 -0.22154744 0.23438096 0.08066859 -0.05518599 -0.16990718
0.19380178 0.06498403 -0.070716046 -0.00944932 0.14479151 -0.21847223 -0.091833845 -0.08574134
-0.20387885 -0.058403913 0.10392278 0.054698125 0.122715324 -0.19957975 0.07332349 0.17385443
0.15888494 -0.10699885 0.13639078 -0.1320158 0.14459643 0.19386269 0.043958146 0.1386099
-0.15394738 0.08124075 -0.029871512 -0.089250624 0.10516313 -0.2140875 0.114202924 -0.1363293
0.033160776 -0.056817576 -0.089561015 -0.16567063 0.13012831 -0.0421396 -0.0588093 0.06077319
-0.13493462 -0.17889465 -0.21747914 -0.04979036 -0.2235894 0.17071186 -0.0695334 -0.20991437
-0.023647107 -0.13870357 -0.028933503 -0.1019115 -0.081589244 -0.14869326 -0.22448184 0.22929397
0.123427704 0.02504441 -0.13551582 0.20806369 0.23287515 0.21744436 -0.20948999 -0.12001343
-0.10743923 0.03317994 0.10571919 -0.12584138 0.21630841 0.028864326 0.058547396 0.050270878
-0.06425908 -0.06372531 -0.1963702 0.08217314 -0.16763082 0.12544918 0.19373028 -0.0680637
0.18208323 -0.055019997 -0.10220792 0.09329508 -0.16468628 -0.17058116 0.010373435 0.14996104
0.18336433 -0.011656582 0.22181931 -0.09660707 -0.00104408 -0.19798866 -0.030888267 0.19346529
-0.1320057 0.20947985 -0.042755883 0.16077967 0.09664803 -0.14994393 0.06519909 0.039382298
-0.072187126 0.044889737 0.036790658 0.05140297 0.21774063 0.071329296 0.06473506 -0.1683995
-0.2022877 -0.1252294 -0.19648375 0.15273239 -0.085805595 -0.21908464 0.02971118 -0.13817939
-0.07743497 0.14774176 0.15901722 -0.072574824 -0.1912831 0.091018505 -0.23198988 0.19224122
-0.16938862 -0.059209134 0.01781211 -0.22450411 0.19853234 -0.030669173 0.18212005 0.22351785
0.13635847 -0.16163996 -0.093474545 0.2063858 0.02096224 -0.22716174 -0.005335173 0.054133862
0.013267912 -0.16720799 -0.0692359 0.10830244 0.14688745 0.036654506 -0.14869654 0.13447799
-0.15056948 -0.00022521552 -0.026057532 -0.105664395 0.12648854 -0.13680254 0.17562504 -0.14131343
-0.22094429 0.035668906 -0.15669234 -0.06416801 -0.10111873 0.05641549 -0.029267745 0.20459062

conv1.bias f4 [64]
00000000: 8620 e1bd 1827 8b3d 80f9 3ebe d0a9 843d
00000010: e1d1 07be a316 4d3e ee90 69be 8da1 1cbe
00000020: 2953 113e fc36 a7bd 0d6f 983c fef5 bbbd
00000030: e51c a8bc 3122 413e 181c d0bd d52f 4e3e
00000040: 948d 92bd 336e f93d d251 e33d e982 afbc
00000050: 9925 5a3e a4cb fabd 4360 9c3d 33c6 aebb
00000060: f816 33be 358f f63d ac0c 863c b997 6ebe
00000070: df18 0cbd fd9c 6e3d 8172 373e e246 73bd
00000080: a215 09be c529 033e 4531 07be 9b8b 663e
00000090: d508 1c3e b1ee 223e 3189 243b 04d4 fcbd
000000a0: 9ab6 153e 1a5e 1ebe 9e64 cf3d f860 5fbe
000000b0: eab1 6d3e fab5 533e edb4 573d c25a 98bd
000000c0: 1cd9 5f3e cffc 8f3d f334 64bd 4d42 0b3e
000000d0: 6dc9 7d3c 56ed 6a3e 023e 5ebd c447 d53d
000000e0: 9e89 d03c a476 6c3e a7d6 133e d982 1ebe
000000f0: 19c5 403c 997f 5c3e 2932 e63c 59f7 3fbe
-0.109925315 0.06794566 -0.18649864 0.06477702 -0.13263656 0.20028166 -0.22809193 -0.15296002
0.1419188 -0.08164784 0.01860764 -0.09177779 -0.02052159 0.18860699 -0.101616085 0.20135434
-0.0715591 0.12179222 0.1109959 -0.021424728 0.21303405 -0.122458726 0.07635548 -0.005333686
-0.1748923 0.12039033 0.016363464 -0.23300065 -0.034203406 0.058255184 0.17914774 -0.05939377
-0.13387159 0.12808903 -0.13202389 0.22514193 0.15237744 0.15911366 0.0025106187 -0.12345126
0.14620438 -0.15465584 0.10126613 -0.21814334 0.232124 0.20674887 0.05266278 -0.07439186
0.21860164 0.07030641 -0.05571456 0.1359951 0.015489918 0.22942099 -0.054258354 0.10414079
0.025456246 0.23092133 0.14437352 -0.15479602 0.011765742 0.2153305 0.02810009 -0.187467

bn1.weight f4 [64]
00000000: afbf 7e3f 0cfd 7e3f 64b6 813f adaf 813f
00000010: 8e78 7f3f 2dae 823f 885b 7f3f 585e 823f
00000020: 43c5 7e3f 4008 803f a9f4 7d3f 514c 813f
00000030: d542 803f ab35 7f3f 8bdd 7e3f c1d2 803f
00000040: 9c8e 7f3f b0f4 7e3f ddc0 803f 6fc3 803f
00000050: 25fd 7f3f 88eb 7d3f 95e9 813f 0a82 803f
00000060: 91e0 7c3f db04 823f 3a16 803f f2de 803f
00000070: 0dea 7b3f 50d9 7e3f 388d 7e3f aa4f 7f3f
00000080: e47f 803f 932d 803f a495 803f 83b8 7d3f
00000090: 4af7 7f3f ed58 7f3f 195b 823f 4142 7c3f
000000a0: a510 7e3f 7007 803f 3ebc 803f 16d1 7d3f
000000b0: 6856 813f 3b19 7d3f 9bb2 7e3f 8800 7f3f
000000c0: 87c8 7d3f a4bd 7e3f 8529 7d3f aa1a 823f
000000d0: 766e 803f c381 7f3f e48e 803f acfc 7f3f
000000e0: a2d3 7c3f 7b7f 7f3f 6f43 813f a658 823f
000000f0: 2b0e 7d3f 770d 803f 59e4 7e3f 8821 7e3f
0.99511236 0.9960487 1.0133786 1.0131737 0.99793327 1.0209404 0.9974904 1.0185041
0.9951975 1.0002518 0.99201447 1.0101415 1.0020396 0.99691266 0.995568 1.0064317
0.9982698 0.99592113 1.0058857 1.0059642 0.9999564 0.9918752 1.0149409 1.0039685
0.9878016 1.0157732 1.0006783 1.0068038 0.9840401 0.9955034 0.9943423 0.9973093
1.0039029 1.0013908 1.0045667 0.9910967 0.9998671 0.99745065 1.0184051 0.98538595
0.9924415 1.000227 1.0057447 0.99147165 1.0104494 0.98866624 0.9949128 0.99610186
0.99134105 0.9950812 0.9889148 1.0164387 1.003371 0.99807376 1.0043607 0.9999492
0.98760426 0.99803895 1.0098704 1.0183303 0.98849744 1.0004109 0.9956718 0.99269915

bn1.bias f4 [64]
00000000: 4c80 3c3b 5c77 5f3b a279 bd3c 83a6 173c
00000010: 8fa4 053c 7ce2 cf3c 42ed 7b3b 61d2 cf3c
00000020: 6538 453c 3368 5c3c 307c 933b 7d40 943c
00000030: c894 933c 6000 46ba df54 af3b f70d 143c
00000040: 4fbc 403c b4bc 363c 1ea5 8c3c 7cb2 a7ba
00000050: fe96 6cb9 02c8 6d3c 23f4 073c d7ca a23c
00000060: 7cef 6d3c a099 993c ae24 173c 532e 083c
00000070: fa62 21bc 5c99 173b c688 a23b bf03 0fbb
00000080: 2c8f 973b f33b 633c 4b00 863b 3905 543b
00000090: cd87 15bc 9691 073c 061d 993c 646a 603a
000000a0: 3ce9 72bb 3c09 29bc c886 143a 8981 233c
000000b0: 133a ac3c 73fd 053c 874b 5cbc 7aff 113c
000000c0: 6610 883b e69a 283b 27dd 2d3b 5cd6 f43b
000000d0: 3649 8c3b f70f b6bb cb83 9dbb 01f3 dc3b
000000e0: 81c6 06bb cbcf 003c 6961 d43b 0dad 813c
000000f0: 791e 02ba db5a 4ebb 8578 28bc 7243 0f3b
0.0028762994 0.0034098243 0.023129288 0.009256008 0.00815691 0.02537655 0.0038440977 0.025368871
0.012037371 0.013452577 0.0045008883 0.018097157 0.01801528 -0.00075531565 0.0053506936 0.009036533
0.011763646 0.011153389 0.017168578 -0.0012794281 -0.00022562963 0.014513018 0.008297953 0.019872112
0.01452243 0.018750012 0.009225054 0.008311826 -0.009850258 0.002313218 0.0049601523 -0.0021822301
0.0046252217 0.0138692735 0.0040893904 0.0032351746 -0.009126616 0.0082744565 0.018690597 0.00085607753
-0.0037065288 -0.010317143 0.0005665836 0.009979614 0.021023786 0.008178103 -0.0134457415 0.008911008
0.0041523455 0.0025727092 0.0026529522 0.0074718427 0.0042811884 -0.0055561024 -0.0048069707 0.0067428355
-0.0020565095 0.007862042 0.0064813388 0.015829587 -0.0004963647 -0.003148726 -0.01028264 0.002186027

bn1.running_mean f4 [64]
00000000: dfc6 08bc 162f e83d 4caa 94be 94bf af3d
00000010: b930 c6bd 0b8e 0c3e bc4d 46be 1b1f 6ebe
00000020: 7641 483e 7676 7ebd 95cf 353d 9044 39be
00000030: 59d4 6b3c 5b58 413e 49d8 e1bd f0ae 323e
00000040: 37cb 8fbd e9e9 283e f414 193d 42e1 00bd
00000050: 4d3d 663e 289a 3ebe ef03 4dbc 2dca 4abd
00000060: 7cb7 f6bd b58f cc3d 87a0 0ebc dd4e 82be
00000070: 438a 54bd 10c3 413d c92e 513e d98a d53c
00000080: 7f72 74bd 5ba9 093e f413 09be 2fd8 4f3e
00000090: 7c79 123e 39d7 773e 4135 74bd 0ec7 d1bd
000000a0: 6e03 e93d 2129 2ebe 1dec a13d 2601 58be
000000b0: 7f36 323e 1b2c 713e 97d9 213e db0f 90bd
000000c0: 1a64 333e b873 f63d 4773 dabd a1ce 943d
000000d0: 5656 dc3c cb04 5d3e a940 433d 115b 943d
000000e0: 0c6d 073d ff1a 9b3e 07f1 c23d 87f4 76be
000000f0: 8279 993c fd17 733e 7648 c83c 0067 31be
-0.008348196 0.11337106 -0.29036176 0.085814625 -0.09677262 0.1372606 -0.19365591 -0.23254053
0.19556221 -0.062124692 0.04438742 -0.18092561 0.014393889 0.18881361 -0.11027581 0.17449546
-0.07021182 0.1649548 0.037373498 -0.031464823 0.22484322 -0.18613493 -0.012513145 -0.049509216
-0.120467156 0.099883474 -0.008705265 -0.25450793 -0.05188967 0.047305167 0.20428003 0.026067184
-0.059679504 0.1344351 -0.13386518 0.20297311 0.14304155 0.24203195 -0.0596211 -0.10243045
0.11377607 -0.17007877 0.07906363 -0.21094188 0.17403601 0.23551981 0.1580566 -0.07034274
0.17518654 0.1203379 -0.10666519 0.07265974 0.026896637 0.2158386 0.047669087 0.07243932
0.03306298 0.30294034 0.095186286 -0.24116717 0.018734697 0.2373962 0.024448615 -0.17324448

bn1.running_var f4 [64]
00000000: b4d1 b33c e5f3 473c faaa 853c bcf0 113c
00000010: 0235 413c 6422 643c 025f 5f3c bb42 9f3c
00000020: 805e ce3c 2e5e 873c a272 993c 2c45 af3c
00000030: 0f5f c23c 788d 2d3c d041 8e3c a590 6e3c
00000040: daf9 363c 34b6 7d3c a94c 203c 4b52 313c
00000050: 2bad 3b3c 9b10 a23c c98e 6c3c 064f 593c
00000060: 9fe8 4e3c 59d2 3b3c fb9b 4a3c 91da 843b
00000070: 9493 943c 77b0 6c3c 7a66 203c 572f 9c3c
00000080: d163 493c daf6 413c ac75 a93b 349e 573c
00000090: 1e24 b23c 95b3 983c 2961 803c 7cd1 893c
000000a0: 297d 993c 1895 953c 7adb 6f3c a35c 3d3b
000000b0: 0d74 903c 2683 9d3c ba8c 863c 6ea9 6c3b
000000c0: 0958 883c 57dc 613c 0043 a73c 8717 143c
000000d0: c6e3 173c 9fd5 3d3c 8a7d a03c 69ab a73c
000000e0: 5bf0 803c 0948 db3c 5f50 923c 9395 143c
000000f0: 73f3 493c 0a9d 8d3c 5d66 8f3c e711 c23c
0.02195058 0.012204145 0.01631688 0.008907493 0.011792423 0.013924215 0.0136334915 0.019441
0.025191545 0.0165244 0.018731419 0.021395288 0.023726968 0.010592811 0.017365366 0.014560853
0.011167968 0.015485335 0.009783902 0.010822843 0.011454861 0.019783309 0.0144383395 0.01326347
0.012628703 0.011463725 0.01236629 0.0040543755 0.018136777 0.014446369 0.009790057 0.019065542
0.0122918645 0.011838639 0.0051714983 0.013160277 0.021745738 0.018640319 0.01567133 0.016823523
0.018736439 0.01825957 0.01463973 0.0028894327 0.017633462 0.019227576 0.016424526 0.003611173
0.016643541 0.013785443 0.02041769 0.0090388125 0.009270614 0.011586576 0.019591112 0.020467477
0.01573961 0.026767747 0.01786059 0.009068864 0.012326109 0.017286796 0.017504865 0.023690177

conv2.weight f4 [128, 64, 3, 3]
00000000: 5b1e b8bc 8e7b c93c ff68 b2bc 019c 8ebc
00000010: b1ff 0e3d 0d6b c9bc 3663 06bd 06be e43a
00000020: 89f9 313d 33dc 9abc f42b ddbc 8c31 a33c
00000030: ed91 e63c fba8 f83c 0f2d 27bc b7bb 823c
00000040: 6289 b2bc 4473 ccbb 7de7 fbbb a6f8 333d
00000050: 1934 a03c 0967 bcbb b9bd 933c 7ae1 d23c
00000060: 31fa 843a 7e7e 053b 4da0 743b 3018 25bd
00000070: 11a8 61bc 0517 c0ba f77c 1cbd 2491 25bc
00000080: fd1e 913c 1cae d1bb 05f8 173c 9724 3c3d
00000090: 559a a6bc b23b 783c fa16 233b 0b2b d73c
000000a0: 4045 e33c 6d14 02bc f142 3fbd 8611 a83c
000000b0: 5165 0fbb 69fe 4dbd c875 133d 23f3 093d
000000c0: 4a56 45bd 0ecd fc3c f4da 393b 6f1a 05bd
000000d0: 9f43 f2bc ffa5 bc3b 61ec 223c cfa8 ac3c
000000e0: 0cc8 c23b 452b e3bb 147a 3ebc 4954 4bbc
000000f0: 7dcd 093d a199 36bc 11b4 6ebb 3161 c9bc
00000100: 225b 0b3c 40cb 8bbc 1d9d 0dbd 2ee9 1abd
00000110: 6de2 46bd 0461 f7bb a477 babc f57e 4abd
00000120: 4fe7 abbc fb01 233d 72e6 b5bc db23 a53b
00000130: 951e ea3b 84d6 f43c 71e6 3bbd 295d adbb
00000140: 36c5 02bd 3710 24bd 721f 5ebc dd97 a9bc
00000150: b368 fc3c b70d 9cbc 89f1 b5bc 7bb0 f7bc
00000160: 9068 d139 9604 063d ef0d 00bd a32b 693c
00000170: 2ab9 cd3c b5e8 e0bc c893 68bc 6073 acbb
00000180: 58ba fbbc 1616 a83b 9b00 a43c 3bd3 3fbd
00000190: 48d4 973c db29 e0bb 53f6 6fbb d527 24bd
000001a0: 0460 783c ddbe 05bd be09 bf3a cb32 eb3c
000001b0: 4ff3 f73c 014f d7bb 141b 38bd 5d27 22bd
000001c0: 73e0 073d 5d2f 81bc 3f5e e7bc 4325 b6bc
000001d0: b490 f2bc 5127 2fbd 4482 88bc 20e5 9a3c
000001e0: a794 1a3d d515 bc3c 0a4c 8bbc 229e d2ba
000001f0: 3848 deb9 9f75 f33c ac06 223d 3181 e9bc
00000200: ba13 913c 6152 373d 72a5 ba3c a699 60bb
00000210: a442 3dbd 2c8b ab39 5fee 613b 27ff d4bc
00000220: 0a54 8f3b 9b01 83bc ba6e 94bb 99e2 c5bc
00000230: fb0c 023d aeb5 1e3b fa35 b63c 08df 27bc
00000240: 2d54 ac3c 68f2 2bbc 9fa3 9e3c 6cf4 b0bc
00000250: 5ae2 05bd 4ce9 f3bc 7fd7 053c ac8d f5bc
00000260: 533d f33b 8e72 de3c 203f 03bd 1b59 1fbc
00000270: a840 8bbb 4766 193d eed3 afba 7f88 773b
00000280: fe5a a1bc 459d 05bd 6732 023b 2bf8 3cbc
00000290: f5d8 fb3b cfa7 e3ba 6ea3 f73c 18da 563c
000002a0: ae29 0f3d e097 963c 1c8f 06bd 738e 87bc
000002b0: 8188 c53c 0ae5 e13c c264 dc3c fe3f 14bd
000002c0: 8da0 453c 88d8 d73c 8148 a8bc c197 b8bc
000002d0: 5b85 68bc 2b5c 95bc 1279 993b 9b82 d73c
000002e0: d191 f33c 6e41 54bc f76e e73c 7d86 e0bc
000002f0: 2433 96bc 1dbf 6b3c f15e 1d3c 4f6f 013c
00000300: aa13 31bd 63cb 21bc dae1 9d3c 9ba4 53bd
00000310: 8437 35bc a6df ae3c 02af fbbb 2e0c fbbc
00000320: 3872 8bbc 9cfb 26bc 35b9 ddbc 3bfe fcbb
00000330: bf07 19bd f65a 3cbd de3b 96bc acac e03a
00000340: 01ab 02bd 0c29 f8bc 80eb a5bc 448a ebba
00000350: 4d05 00bd 899a d33b f10d 083d d6a3 c63c
00000360: 638a af3c da48 f83c 6ff4 e4bc 8a69 5d3c
00000370: 2a4b f93b df0e 05bc 29ef b7bc a096 083d
00000380: 88fb c7bc 888e ed3c b080 0b3d b67a b0bc
00000390: 019f 15bd 4225 04bd b031 dcbc e096 aabc
000003a0: 6733 60bc 7c1f 2cbc fb67 d03a b328 fd3c
000003b0: de3e 193d b88b 903c f39f 70bc 07cc 1ebd
000003c0: 8c5f dabc 8ea9 bebc 5373 53bd 6d93 e23c
000003d0: 037d 09bd 4a24 a93c 3b47 c5ba c54b 37bc
000003e0: 7ef1 c03b 8530 0bbc 1eab 0f3b e76b e0bc
000003f0: 24de ecba 43a6 4a3b 2f93 00bd c282 e1bc
-0.022475412 0.024595048 -0.021778582 -0.017408373 0.034911815 -0.024587179 -0.03280946 0.0017451651
0.043450866 -0.018903827 -0.026998498 0.019921087 0.028145755 0.030354014 -0.010203614 0.01595865
-0.021794025 -0.0062393267 -0.0076875077 0.0439383 0.019556092 -0.0057495874 0.018034803 0.025742281
0.0010145364 0.0020369585 0.0037326992 -0.04030627 -0.01377298 -0.0014655298 -0.038205113 -0.010105405
0.017714972 -0.0063989293 0.009275441 0.045933332 -0.020337263 0.015150951 0.0024885521 0.026265642
0.027742982 -0.00793944 -0.0466947 0.020516168 -0.0021880458 -0.050291453 0.036000997 0.03367914
-0.048177995 0.030859496 0.0028359266 -0.032495912 -0.02957326 0.005757093 0.009944052 0.021076588
0.0059442576 -0.0069326484 -0.011625785 -0.012410232 0.033643235 -0.011145026 -0.0036423246 -0.024582477
0.0085056145 -0.01706469 -0.034573663 -0.037820034 -0.04855578 -0.007549407 -0.022762127 -0.049437482
-0.02098432 0.03979681 -0.022204611 0.0050396747 0.007144759 0.029887445 -0.045874063 -0.0052906466
-0.031926356 -0.040054526 -0.013557302 -0.020702297 0.030811643 -0.019049508 -0.0222099 -0.03023552
0.00039941492 0.032719217 -0.031263288 0.014231595 0.025112707 -0.027454713 -0.01419539 -0.005262777
-0.030728504 0.005129586 0.02001982 -0.046832304 0.01853384 -0.006840927 -0.0036615327 -0.04007705
0.015159611 -0.032652725 0.0014575047 0.028710743 0.030267386 -0.0065706973 -0.0449477 -0.03958832
0.033173036 -0.015769655 -0.028243182 -0.022234565 -0.029610015 -0.042762104 -0.016663678 0.018908083
0.037739422 0.02295963 -0.017004032 -0.0016068856 -0.00042396947 0.029719172 0.039557144 -0.028503986
0.017709602 0.044756297 0.022783969 -0.003427127 -0.04620613 0.00032719353 0.0034474356 -0.026000572
0.004374032 -0.015991976 -0.004529801 -0.024155902 0.03175066 0.0024217176 0.022242535 -0.010246046
0.021036232 -0.010494806 0.01936513 -0.021600924 -0.03268657 -0.02977433 0.008169054 -0.029974781
0.007423082 0.027154233 -0.032042623 -0.009725834 -0.004249651 0.037451055 -0.00134146 0.0037770567
-0.019696709 -0.032620687 0.0019866468 -0.011533777 0.0076857754 -0.0017368736 0.030229297 0.013113521
0.03495186 0.018382967 -0.032851323 -0.016547417 0.024112942 0.027575035 0.026903514 -0.03619384
0.012062204 0.026348367 -0.020542385 -0.0225333 -0.014191951 -0.018232426 0.004683622 0.026307395
0.029732617 -0.012955053 0.028251154 -0.027407879 -0.018334933 0.014388827 0.009605155 0.007900073
-0.043231644 -0.009875151 0.019272733 -0.051670652 -0.011060599 0.021346878 -0.0076807747 -0.030645456
-0.017022237 -0.010191824 -0.027065853 -0.0077207363 -0.037360903 -0.045985185 -0.018339094 0.0017141304
-0.031901363 -0.03029301 -0.020253897 -0.0017970284 -0.031255055 0.006457631 0.03321642 0.024248045
0.021428293 0.030308176 -0.027948586 0.013513932 0.007607837 -0.008121221 -0.022452908 0.033346772
-0.024411932 0.028998628 0.034058273 -0.021542888 -0.03652859 -0.032262094 -0.026879162 -0.020823896
-0.01368413 -0.010505553 0.0015900129 0.030903196 0.03741347 0.017644748 -0.014686572 -0.038768794
-0.026656888 -0.02327421 -0.051623654 0.027658189 -0.033566486 0.020647187 -0.0015051136 -0.011187498
0.005888163 -0.008495455 0.0021922062 -0.027395202 -0.0018071574 0.0030921854 -0.031390365 -0.02752817

conv2.bias f4 [128]
00000000: f57a dabc 97af 1b3c 842a 13bd 3a5e f03c
00000010: f89d a53b fbea 4fbc 457e d03c 9103 74bc
00000020: 5d76 10bd 5504 b5bc 4c29 2a3d 8d52 413c
00000030: 9edc 28bd cdb4 b23c b137 653c cc38 913a
00000040: e02b 513b c45d 513a 2f91 84bc cb12 8d3c
00000050: 24f1 53bc df5b 283c 151e 5fbc 2f49 f53b
00000060: 767d 22bd 041d d539 90e1 0fbd 955e e0bc
00000070: 9e88 ff3c 2901 fa3b 80e9 24bd 9cb4 b5bc
00000080: 76c4 29bd baf7 ed3c 9ea4 d3bc 9aa1 d13c
00000090: 2e77 49bc 44c3 253d b0ad 27bd 4fe6 d9bb
000000a0: a930 883c e80f 723c 07f1 833c c7b7 473c
000000b0: a1c3 d0bb 69b7 bebc 009f 2a3d fc9e 173c
000000c0: aae4 e03c 6947 d7bc bb25 d4b9 75a1 f43a
000000d0: b521 67bc 3bab 11bb e8a8 9bbc 35c5 113c
000000e0: 4bd9 99bc 4e7e 14bc 95ac cdbc 2782 e03c
000000f0: 5b78 ebbc b9dc 97bc 4a12 063d 5301 0d3c
00000100: 6bba a3bc 210d 1fbd 9962 a1bc ddb6 f83b
00000110: 412b a9bc 0f8c 19bc 815b 0c3c b66a 71bb
00000120: 6ee8 49bc abea e23c 1d21 a1bc 9605 d83c
00000130: aef1 38bc be32 0aba 6184 81bc 2a32 97bc
00000140: 3df1 c9bb cb48 18bd 3eca 6cbc 1dd0 82bc
00000150: 46ca a4bc 5485 f03c 8047 b9bc 1be6 123c
00000160: f43a f03c b5a7 25bd 6728 59bc 12de f2bb
00000170: 41f2 10bb 72a9 86bc 966e 8cbc d28e 16bc
00000180: 77ca db3c e14d ebbc dc90 82bc 0c29 d0bc
00000190: 7497 e3bc 5705 e3bc 1379 db3c c4dc b43c
000001a0: f8ac 1c3d d57a 4f3c 5ba4 f2bc afea b8bc
000001b0: cac6 ebbc 505a a83c 4aee 22b9 b2cd ce3c
000001c0: c820 fa3c 5300 a6bc 7f6d 7a3c 09c8 873c
000001d0: 2753 bb3c 01ce 093d 925d 3b3b 07ed 8e3c
000001e0: 8220 21bd 614d 523c b3a5 e2bb 835e 3b3c
000001f0: 7fdb febc fb9f f13c 73b4 9ebc a134 043d
-0.026669959 0.009502313 -0.035929218 0.029341806 0.0050542317 -0.012690301 0.025450835 -0.014893428
-0.03526913 -0.022096792 0.04154329 0.011799467 -0.041226022 0.021814728 0.013990329 0.0011079549
0.003191702 0.00079866895 -0.01618251 0.017220875 -0.01293591 0.01027581 -0.013618012 0.007485531
-0.03967043 0.00040648144 -0.035127223 -0.02738885 0.031193074 0.007629533 -0.040261745 -0.022180848
-0.041447125 0.02904879 -0.025835332 0.025589753 -0.012296481 0.040469423 -0.040937126 -0.0066497694
0.016624765 0.0147743 0.016106142 0.012189812 -0.006370977 -0.023280816 0.04165554 0.009254213
0.027452786 -0.026279168 -0.00040463902 0.0018663841 -0.0141071575 -0.0022227305 -0.01900144 0.0088971155
-0.018780371 -0.0090633165 -0.025106708 0.027405811 -0.028743913 -0.018537866 0.032732286 0.008606273
-0.019986352 -0.03883088 -0.019700335 0.0075901584 -0.020650508 -0.0093717715 0.008566738 -0.0036837286
-0.012323482 0.027699789 -0.01966911 0.026369851 -0.01128809 -0.00052718434 -0.015810193 -0.018456537
-0.006162791 -0.037178796 -0.014452515 -0.015968377 -0.020115983 0.02936045 -0.022617102 0.008965994
0.029324986 -0.04044314 -0.013254262 -0.0074117268 -0.002211705 -0.01643822 -0.017142575 -0.009189324
0.026829941 -0.028723659 -0.015938215 -0.025410198 -0.02778218 -0.027712507 0.026791131 0.022077926
0.038250893 0.012663563 -0.029619386 -0.022572843 -0.028781313 0.020550877 -0.00015538294 0.025244568
0.03053321 -0.020263826 0.015284895 0.016574876 0.022866799 0.033643726 0.0028589708 0.017447008
-0.039337642 0.012835831 -0.0069167255 0.011436108 -0.031110523 0.02949523 -0.019373154 0.032276753

bn2.weight f4 [128]
00000000: b155 823f 52ef 7f3f 12f8 823f da66 7d3f
00000010: 4cbf 803f 2956 803f 8bbf 803f e726 813f
00000020: f68d 803f 3434 7d3f 7b2b 813f 04e1 7d3f
00000030: a46a 7f3f 28af 7f3f f002 793f c0d9 7f3f
00000040: ee24 7e3f befb 813f 648a 823f e4e3 7d3f
00000050: ad3c 7d3f 35d7 803f 4c41 813f 198a 7a3f
00000060: 4d87 7f3f 6fc3 7c3f 4643 813f 49b0 7e3f
00000070: 183f 833f a135 823f 8da5 803f 0657 813f
00000080: 9556 7e3f 9240 803f 28d5 7e3f f97f 7f3f
00000090: 9b9c 7d3f b5ef 803f 43a9 823f 075f 7d3f
000000a0: d81b 823f 9ff9 803f abfd 7f3f 8c4e 7c3f
000000b0: 863e 7f3f eeb6 7d3f 4a93 7d3f 3bf6 803f
000000c0: d3e2 7f3f f83e 803f 918f 7e3f f3b6 7a3f
000000d0: 54de 7c3f 0f0d 813f 93c8 7e3f 227a 7e3f
000000e0: 055c 803f 5c46 803f 9aa6 823f 8702 803f
000000f0: f581 7e3f 6559 803f 056c 803f d925 813f
00000100: fda3 813f 8200 7f3f 694d 803f 5d80 7e3f
00000110: 274c 803f 051b 823f 32f7 7f3f 5c30 7c3f
00000120: ad4e 803f 7c7c 7d3f 7273 813f 0a54 803f
00000130: 64fb 7c3f 10f9 793f e239 803f 8b04 813f
00000140: 83e8 803f 7bc6 7f3f 8eeb 813f d59f 813f
00000150: 3653 7c3f 2f24 813f 0d1f 7c3f bd27 7e3f
00000160: 7c1c 7e3f 79eb 7f3f 0463 7c3f 76d7 7b3f
00000170: 1983 7f3f 5304 813f 47c7 7d3f 81bf 803f
00000180: 9ca6 7e3f def7 803f 4fc4 803f 67c8 7e3f
00000190: 320e 7b3f 245c 813f 1693 7c3f a44f 813f
000001a0: ba88 803f 5177 7d3f 1047 803f 595a 813f
000001b0: a293 803f 2180 823f 9ad1 7f3f 69f7 813f
000001c0: d66a 7c3f 34e7 7c3f a06b 7d3f cca8 7c3f
000001d0: f0bc 7f3f fdbc 803f a09c 7a3f 6d8f 833f
000001e0: 943c 823f 5f5a 7e3f 9e3a 7c3f 845c 7d3f
000001f0: c123 813f bf5d 803f 52e5 823f 9b65 7e3f
1.0182401 0.9997455 1.0231955 0.98985064 1.0058379 1.0026294 1.0058454 1.0089997
1.0043323 0.9890778 1.0091394 0.9917147 0.99772096 0.9987664 0.9727011 0.99941635
0.992751 1.0154951 1.0198483 0.9917586 0.9892071 1.0065676 1.0098052 0.9786697
0.9981583 0.9873571 1.0098655 0.9948774 1.025363 1.0172616 1.0050522 1.0104682
0.99350864 1.0019705 0.99544 0.99804646 0.99067086 1.0073153 1.0207905 0.98973125
1.0164747 1.0076178 0.9999644 0.98557353 0.9970478 0.99107254 0.9905287 1.0075144
0.9995548 1.0019217 0.99437815 0.9793541 0.98776746 1.008211 0.995248 0.9940511
1.0028082 1.0021472 1.0207093 1.0000771 0.9941705 1.0027281 1.0032965 1.0089675
1.012817 0.9961015 1.0023624 0.99414617 1.002324 1.0164496 0.99986565 0.9851129
1.002401 0.99018073 1.0113356 1.0025647 0.9882109 0.97645664 1.0017664 1.0079511
1.0070957 0.9991223 1.015001 1.0126902 0.9856447 1.0089167 0.9848488 0.99279386
0.99262214 0.9996868 0.98588586 0.9837564 0.99809414 1.0079445 0.991322 1.0058442
0.99472976 1.0075643 1.0059909 0.9952454 0.98068535 1.0106244 0.98661935 1.0102429
1.0041726 0.9901019 1.0021687 1.0105697 1.0045054 1.0195352 0.999292 1.0153629
0.9860052 0.9879029 0.9899235 0.98695064 0.9989767 1.0057675 0.9789524 1.0278145
1.0174737 0.99356645 0.9852694 0.9896929 1.0089036 1.0028609 1.0226233 0.9937379

bn2.bias f4 [128]
00000000: b0d1 25bc 387d 90bb a0f8 873b 71d7 15bb
00000010: 92b8 fdba b411 4cbb 917f f43a 341a 563c
00000020: 07f2 e33a 1da8 4fba 0e56 09bc 6f08 bebb
00000030: 0757 f739 aba6 8fbc ddd4 49bc f92f 84ba
00000040: 5bdc ddbb 0595 233c dfa6 8a3a b8e2 963b
00000050: a802 0abc 3e74 c0b9 41e5 51bb ab52 c6bb
00000060: 40da 07bc 404f 32bb e8f4 2a3c fd3e 19bb
00000070: f7da 1a3c 8c68 daba 0356 1bbc ef5f b1ba
00000080: fa7a 21bc 1c86 5bbc ab55 1abc abfb babc
00000090: cd5a 0cbc 9cf0 dfba 8aa0 fbbb 4088 29bc
000000a0: 59b0 45bb f85f 06bc 1ac8 d0ba 5958 e4bb
000000b0: 9908 08bc d3ad 1bbc 0503 01bc 9cd4 31bc
000000c0: bea0 dcbb 099b 75bc 3693 7dbc 1193 a6bc
000000d0: 935f 59bb fe9e 383a b552 c5bb c592 51bc
000000e0: d49b 223b aa0a 48bc 8ca4 eebb 61db 11bb
000000f0: 4f9c bdba f7b9 e2bb 5367 6cbc c0bf 213a
00000100: a17f e8bb 117f a63a efb7 4f3b 2921 6ebb
00000110: ddba 99bc 3bad 4a3b ff2a a8ba 6ac9 a7bb
00000120: 437a c6bc b488 f73a 935f 96bc 62de ccbb
00000130: 3353 8fbc e989 b7bc f2c9 11bc 04f6 15bb
00000140: 4c71 8dba d0c7 08bc e8dd 97bc 58a4 5d3b
00000150: 20a1 0fbc 77f6 d5ba ccbf 3bbc a4a4 01bb
00000160: 8334 c7bc 8550 afb9 1c6e 17bc 427b afbc
00000170: 5907 4dbb d54b 8a3a 6833 07bc 5faf 0b3c
00000180: fb79 b2bc 9e24 16bc a5ac 04b7 245c 48bc
00000190: 4453 81bc f07c 003a 0cb9 86bc 0320 a4bc
000001a0: 3982 94bb 83b7 e6bb 10d1 26bc 74d9 f43b
000001b0: c6d1 c1ba 165b 243c b5ba 52b9 8dd1 d33b
000001c0: ced3 26bb 5e00 cbbb d3b3 08bb 10a8 c3bc
000001d0: 4089 a9ba 6084 adba 5d3c 14bc 2b75 a3bc
000001e0: e09d 9e3b 23c3 3ebc 31c2 34bc c597 a2ba
000001f0: 69db 9abc 41ea 033a 7677 bfba 2d5f 81ba
-0.010120794 -0.0044094585 0.0041495115 -0.0022864009 -0.0019357374 -0.0031138482 0.001865374 0.013067771
0.0017390855 -0.0007921474 -0.008382333 -0.005799345 0.00047176352 -0.017535528 -0.012318817 -0.0010085098
-0.006770653 0.0099842595 0.0010578296 0.0046046637 -0.008423485 -0.000367077 -0.0032027515 -0.0060523353
-0.008291781 -0.0027207881 0.010434367 -0.0023383491 0.009451619 -0.0016663237 -0.009480956 -0.0013532619
-0.00985598 -0.013398673 -0.009419839 -0.022825083 -0.0085665705 -0.0017085257 -0.00767905 -0.010347426
-0.0030164926 -0.008201592 -0.0015928776 -0.0069685397 -0.008302831 -0.009501892 -0.007874255 -0.010853913
-0.006733029 -0.014990577 -0.015476992 -0.020333799 -0.003316854 0.00070427347 -0.0060218223 -0.01279134
0.002481212 -0.012209574 -0.007282799 -0.0022256004 -0.0014466139 -0.0069191414 -0.014428931 0.00061702356
-0.0070952927 0.0012702664 0.0031695326 -0.0036335683 -0.018765861 0.0030926007 -0.0012830197 -0.005120446
-0.02422822 0.0018885345 -0.01835612 -0.006252096 -0.017495727 -0.022404628 -0.008898245 -0.0022882232
-0.0010791211 -0.00834842 -0.01853843 0.003381988 -0.008766443 -0.0016324063 -0.011459302 -0.0019781971
-0.024317032 -0.00033438593 -0.009242561 -0.021421079 -0.0031284897 0.0010551164 -0.008252002 0.008525698
-0.02178668 -0.009164004 -7.90801e-06 -0.012228999 -0.015786774 0.00049014296 -0.01644566 -0.020034796
-0.0045321253 -0.0070409193 -0.01018168 0.0074722115 -0.0014787249 0.010031482 -0.00020096714 0.0064641894
-0.0025455835 -0.006195112 -0.0020859137 -0.02388385 -0.001293458 -0.0013238303 -0.009047595 -0.019953331
0.0048405975 -0.011643204 -0.011032627 -0.001240485 -0.018903451 0.000503216 -0.0014607746 -0.0009870284

bn2.running_mean f4 [128]
00000000: 304a e6be aa5a e0bd b8bc e7bd d421 d53d
00000010: 76ea 443d bcfc 00bf 2ee3 8bbe b5fd 8bbe
00000020: 5de9 f0be 4cea 5d3d bb90 8ebe b945 01be
00000030: bc88 28be 0997 693d ea4f e83d e2b3 05be
00000040: 2c75 133e 60b9 b9be 3d84 83bd da0a 573d
00000050: d311 953d 0ad2 d43d daf0 40be 2c36 033d
00000060: 1a10 4abe 2433 563e 35c5 94be c5c6 1dbe
00000070: 4584 0abe 2ee2 1fbe 3a64 9dbe 6dfc 6cbe
00000080: f33b c8be 5527 3bbc 2bb1 4abe 6117 c63d
00000090: 4839 fb3c 7495 283d e6c4 eebd 72f2 b4be
000000a0: 7bec 9a3d a57d febd 0eb0 78be 5976 783d
000000b0: e2c2 f6be 93bd c43d 7408 0e3f 31f2 ec3a
000000c0: daef 563c 1eff c3bc ec6b 39be 2041 673e
000000d0: d71b 803e 3683 93be 81ec 8dbe 9ce2 743e
000000e0: 1fbd 1dbe 3f39 0cbe 6369 3dbd 2be4 343e
000000f0: 75c8 0cbe fe95 943c 2728 493d 4d25 00be
00000100: 43b6 1dbe b78e 21be b00a e2bd 495b 3abe
00000110: 018f 0dbc 103c 393d 5d9d 023e 5ae0 97bb
00000120: 12da 2ebc da71 ae3d 3116 acbb 1263 c93e
00000130: e136 31be ff95 993e 6a1b c8bd 3c48 d9be
00000140: f48d c3be 3e73 1ebe 98b7 f83d 3f40 e5be
00000150: c6ab 05be 31d8 40be 7305 90bd 5513 62bd
00000160: b05f a13c 6304 3cbe ed6d b23e d23d 883d
00000170: 789b 2bbe 34de 603e da37 0bbe ebb9 b8be
00000180: 7e65 a33e 6436 b63d 0806 6ebe 5512 88bb
00000190: e7da 66bd ad60 d5be fc57 6c3e 6066 063f
000001a0: 6b61 09be 1fc9 d2bd ef00 8bbe 5dd5 bebd
000001b0: a641 cdbe e43f cdbe 85d9 8dbe 4a92 35be
000001c0: 9616 7fbd 2503 283d 875c 55bd 9a94 d63e
000001d0: c021 bcbd f803 25be 3b77 b23e 3c66 68be
000001e0: b64a cdbe 8722 61be a17c bbbd db42 02be
000001f0: f911 5dbe e5db 47be 92e3 b8be ce2c 10be
-0.44978476 -0.10954793 -0.11315292 0.10406843 0.048075162 -0.5038564 -0.27321762 -0.27342
-0.47053042 0.05417852 -0.27844796 -0.12624253 -0.1645841 0.057028804 0.113433674 -0.13056901
0.14400166 -0.36274242 -0.06421707 0.052500583 0.0727879 0.10391624 -0.18841878 0.032034084
-0.19732705 0.20917946 -0.29056707 -0.15407856 -0.1352702 -0.15613624 -0.3074053 -0.23143168
-0.39108238 -0.011422952 -0.19794147 0.09672428 0.030666962 0.041158155 -0.11658649 -0.3534122
0.07564636 -0.124263085 -0.2428591 0.06065974 -0.4819556 0.09606471 0.5548165 0.001807755
0.0131187085 -0.02392536 -0.18107575 0.22583437 0.2502124 -0.28811044 -0.277195 0.2391457
-0.15404175 -0.13693713 -0.046243083 0.17665164 -0.13748343 0.018137928 0.049110558 -0.12514229
-0.15401559 -0.15777098 -0.11037195 -0.18198885 -0.008640052 0.045223296 0.12755342 -0.004634899
-0.010672109 0.08517809 -0.005251669 0.39333397 -0.17306091 0.2999725 -0.09770854 -0.42437923
-0.3819424 -0.15473649 0.12144393 -0.44775578 -0.13053808 -0.1883247 -0.07032289 -0.055194218
0.019698948 -0.18361048 0.34849492 0.06652416 -0.16758525 0.21959764 -0.13595524 -0.36079344
0.3191337 0.08897093 -0.23244488 -0.004152576 -0.056361105 -0.4167532 0.23080438 0.5249996
-0.13416068 -0.10292267 -0.2714915 -0.093180396 -0.40089148 -0.40087807 -0.27705017 -0.17731586
-0.0622774 0.041018624 -0.052090194 0.4191025 -0.09186125 -0.16114795 0.3485659 -0.2269525
-0.40096062 -0.21985827 -0.091546305 -0.12720816 -0.21588887 -0.19517477 -0.36111122 -0.14079592

bn2.running_var f4 [128]
00000000: 7808 c53d a659 923d 410b 8f3d fedc 873d
00000010: dfc9 903d a926 183e 0fe5 953d 120d bf3d
00000020: 7bdb c93d fd37 103e 38ee e63d a074 b13d
00000030: 0f4f e83d 471b 933d 571e c03d 5526 c73d
00000040: efeb f73d b550 bd3d f204 773d 58e5 9d3d
00000050: b138 bc3d 16ca a93d c820 9a3d 1e5d d53d
00000060: 7c54 8c3d a3cf a33d 65a0 533d 057b 943d
00000070: a0ab 913d a937 8a3d 7de3 893d 1c29 923d
00000080: 1faa 9c3d d486 733d 91c4 7f3d 21d2 743d
00000090: 4763 073e 07d1 073e e34a d23d 8384 f93d
000000a0: a7a5 973d 98bb 9c3d 0123 063e eb71 1a3e
000000b0: 7077 c13d 383d a63d 90f6 463e a007 a73d
000000c0: 4902 a03d 1e80 8a3d 5eba a33d 8f96 3d3e
000000d0: 77d6 593e 6eba bb3d b675 a93d 621c 0b3e
000000e0: f905 bc3d b54d bf3d 277d 793d 0c04 163e
000000f0: 9141 c63d 8e6d 7e3d bc60 eb3d b9e9 7a3d
00000100: 564c b93d fead da3d a326 e13d d458 da3d
00000110: 06c0 c83d f0c7 7a3d 5dfe f73d a185 0a3e
00000120: d3a6 633d 25b4 0a3e 3823 993d 1c03 b43d
00000130: 204b ae3d 1b3b f63d da5c 923d c640 f33d
00000140: 7b0c 183e 5798 823d 2883 b93d 0799 d03d
00000150: 9257 cd3d 2d49 ff3d e8c5 ec3d 5104 1d3e
00000160: e5f5 f73d fc6e d43d e02f 0c3e f585 243e
00000170: c464 aa3d 8e51 e43d 35ee 2c3e 44d8 0a3e
00000180: 145b 043e fbff d63d 5e49 943d 601d e23d
00000190: 34fb 873d c8ab 103e 81d2 bc3d 852f 9f3d
000001a0: 8d76 ac3d 98c4 b83d c8de 073e 335c 613d
000001b0: be46 073e 49ba c13d 5dd4 a53d 8395 583d
000001c0: 3ea2 073e 98dd db3d 1295 e13d 614a 013e
000001d0: 4e86 233e 1a83 043e 7b1d 0d3e d65f 3a3d
000001e0: 271e f73d c283 a13d 0f75 b43d 6ddb 833d
000001f0: 23f6 653d 96c1 903d 6ded 9b3d 5025 613e
0.09620756 0.07146005 0.069845684 0.06633948 0.07069754 0.14858498 0.0731908 0.09328665
0.09856316 0.14083858 0.11275905 0.086648226 0.11343204 0.07182937 0.09380787 0.09724108
0.12105548 0.09243909 0.06030745 0.077097595 0.091905005 0.08290498 0.07525784 0.10418151
0.068520516 0.07998588 0.051666636 0.072500266 0.07112813 0.067488976 0.06732843 0.07136747
0.076496355 0.059454754 0.06244332 0.059770707 0.13221465 0.13263331 0.1026819 0.12183478
0.074046426 0.07652968 0.1309929 0.15082519 0.09446609 0.08117145 0.19429994 0.08155751
0.07812936 0.06762718 0.07994531 0.18514465 0.21273218 0.09166418 0.08274405 0.13585046
0.09180827 0.09340993 0.06091037 0.14649981 0.096804745 0.0621162 0.1149306 0.06125805
0.09047763 0.106777176 0.109936975 0.10661474 0.098022506 0.06122583 0.12109063 0.13527538
0.055579018 0.13545282 0.074774206 0.087896556 0.08510423 0.12022992 0.07146616 0.11877589
0.14848511 0.06376713 0.09058219 0.10185438 0.10026468 0.12465129 0.11561185 0.15333678
0.121074475 0.10372731 0.13690138 0.16066726 0.08320001 0.11148368 0.16887744 0.13559061
0.12925369 0.10498043 0.07240556 0.11040759 0.0663971 0.1412803 0.09219838 0.077727355
0.08421049 0.09021872 0.13268578 0.05501957 0.1321058 0.09459359 0.08097146 0.05287696
0.13245484 0.10735625 0.11014761 0.1262603 0.15969202 0.12940636 0.13780777 0.045501553
0.12066298 0.07886459 0.0881139 0.064383365 0.056142937 0.070681736 0.07613645 0.2198689

conv3.weight f4 [128, 128, 3, 3]
00000000: b0a1 643b 4a9b f3bc a953 b0bc c7d4 4fbc
00000010: b643 a43b ce25 c2bc 92fe e43a 6f3c 813b
00000020: 632b 9d3c 7dac ac3c ecba 113c 1bca 7a3c
00000030: e471 07bd 8b30 b6bc e89d c6bc f206 aabc
00000040: 8b78 8bbc b013 693b e120 efbc 9079 75bb
00000050: b4fe 773b 2b82 88bc 975d 8abc 1319 95bb
00000060: eb8e fabc a1a9 e73c d705 88bb 4572 00bb
00000070: fc43 4bbb 1f01 62bc 8023 b33c dc82 5dba
00000080: ac5f a2bb 26fc dd3c a9f6 81bc 08d3 153b
00000090: 83be f53b 4852 78bc fb40 87bc e1f3 a1b9
000000a0: 2a6a 0c3c ee97 ad3c 5bed 21bd 80a1 943c
000000b0: f860 0abc 8518 9f3c f4eb 1abd 84b5 f53b
000000c0: ab0e 13bb c8b7 793c 5f96 eb3b 66d3 0dbc
000000d0: ad74 e83b 539b 26bc 1427 d73b 9a83 9abb
000000e0: 2677 f83c 00ae c8bc 99dd 503c 03c8 debc
000000f0: 388a 3dbc 146d 8b3c e1e0 15bd c341 35bc
00000100: 2a34 8abb 2528 743c 9b67 3abc 8f33 a13c
00000110: 719e 0b3d b0ca 0bba ef13 623c dccd 38bc
00000120: ed73 f13c 1432 c73c 01b3 5dbc 9f2a a9bc
00000130: a593 87bc 3c8f 74bb 9379 0dbc 5079 21bc
00000140: cdc4 5d3c 129d 3bbc 87c0 dd3c 6382 dcba
00000150: aa75 203c 97ae 2d3c a966 49bc 72f7 cdb8
00000160: 9838 013d ed65 9c3c e0a9 83bc f9f9 78bb
00000170: c5d4 ddbc 45f3 3fbb 8e71 a43c fcbd 8dbb
00000180: 0db3 b53b 9084 b6bc 5089 41bc 45fb 8bbb
00000190: 2da8 9d3c 1f0e 3d3c 9094 d93b 064b 2fba
000001a0: ee06 56bc 4702 513b bb09 d439 9f49 99bb
000001b0: 23ff 76bc dbae c7bc f7db 613c 8169 ac3c
000001c0: cfec 78bc 53b1 37bb 1b71 1abc cf1a d2bc
000001d0: 2e6e a2bc de94 753c 62c6 7a3a 9419 94bc
000001e0: b372 f5bc d242 b63b 43a7 743c fed0 ecbc
000001f0: d019 cebc 1c88 9e3c 65ad 483c 6509 04bc
00000200: e309 9f3c 6c5c 4b3c 64e3 9abc bd62 863c
00000210: 0564 b7bc 37ba 3b3c 45ae 9fbc 0988 ccbc
00000220: db73 b43b 5621 893c 3ee6 f1ba c273 333c
00000230: e294 fd3b 2831 5d3c 5135 e33c 0eee bbbb
00000240: 2c08 6d3c fc9a 0b3d e2f8 0c3c 0b6c 51bc
00000250: a68c 31bc 4cd8 5abb 6ad8 09bc 741f 5e3c
00000260: 9087 fabb fe09 22bb 7fa6 f1bc 9137 ccbb
00000270: 73b3 95bc a16b 883c 294f ad3c 1962 c9bc
00000280: f46d 163c 80d6 4b3c 1ca3 873a 05b4 173b
00000290: aeba 383c 4778 d9bc 8609 b53a e710 3fbc
000002a0: 13a8 9fbb bd18 dcbc 9c96 a8bc 211d c3bc
000002b0: c26e 87bb 2213 523c cec5 2cbc 889b 123b
000002c0: 845a 4c3c d986 ef3b b4e1 533c 83a8 7b3b
000002d0: 4d5a c43b c0b8 febc 1960 bcbc 6a2e 6a39
000002e0: 868c f7ba 5d1f c2bc eafe 4abc 1e1b d3bc
000002f0: 142d e63b a15d 2c3c a923 b83c d16f 953b
00000300: eed3 3ebc 079b 25bc 9bcd 32bc a280 85ba
00000310: b621 533c 384b 8cbc 3cc5 64bc fe30 84bc
00000320: ecb3 a3bc c117 95bc e39c 00bc adc6 3d3b
00000330: 215f fa3c 8ae1 7a3c 0578 b43b 69f6 b53b
00000340: bb1c 123c e2f0 353b 1672 d83c 6afb c23b
00000350: a9bf 143b 42ce 7ebb 3408 41bc 4dd7 27bc
00000360: 3cc9 5d3c 70e5 d13c 1578 ac3a aa3d c03c
00000370: 08ff 46bc 74e9 c33b 9a32 033d 57a2 bd3c
00000380: a520 383b 5afe c13c ae9d 963b 1d9c eeba
00000390: ce99 be3c d0d3 57bc 7f2f fabb 4154 9e3c
000003a0: dd83 053c 7abc d3bc 08e3 78bc 6910 2a3c
000003b0: dd79 e7bc 1ac7 e63c 6849 bd3c 2db3 2f3c
000003c0: 7a60 7fbc dc5d 783b ff80 9bbc 9e5e df3b
000003d0: 5086 c1bc cc7d 69bb 3281 97bb 1225 46bb
000003e0: 3b90 88bc 4ae1 383c a203 9cbc 280b 253c
000003f0: 43f2 9b3c 5fd5 3d3c 06c3 7039 ff24 b1bc
0.0034886412 -0.029737134 -0.021524267 -0.012685007 0.0050129546 -0.023699667 0.0017470887 0.003943972
0.019185727 0.021078343 0.008894663 0.015306975 -0.0330676 -0.022239944 -0.024245217 -0.020755265
-0.017025253 0.0035564713 -0.029190483 -0.003745649 0.0037841024 -0.016663631 -0.01689033 -0.004550108
-0.030585727 0.028279128 -0.004151087 -0.001959936 -0.0031015864 -0.013794213 0.021867514 -0.00084499805
-0.0049552526 0.027097773 -0.015864687 0.002286138 0.0074995174 -0.015156336 -0.016510477 -0.00030890017
0.008570233 0.02119061 -0.039533 0.018143415 -0.008445971 0.019420872 -0.03782268 0.007498445
-0.0022439163 0.015241571 0.0071895565 -0.008656358 0.007093987 -0.010168868 0.006565938 -0.004715395
0.030330252 -0.024497032 0.0127481455 -0.027194982 -0.011568598 0.017019786 -0.036591414 -0.011063042
-0.004217644 0.014902149 -0.0113772405 0.019677905 0.03408665 -0.0005332632 0.013798698 -0.011279549
0.029474223 0.024315871 -0.013531447 -0.020650206 -0.016549895 -0.003731682 -0.008634943 -0.009855583
0.0135356905 -0.011451023 0.027069343 -0.0016823526 0.009793678 0.0106007075 -0.0122925425 -9.821252e-05
0.031548113 0.01909157 -0.016072214 -0.0037990792 -0.027078995 -0.0029289287 0.020073678 -0.0043256264
0.005545026 -0.022280008 -0.011812523 -0.004271897 0.019245232 0.011539011 0.0066400245 -0.00066868996
-0.013063176 0.0031892227 0.0004044304 -0.004677966 -0.015075478 -0.02437537 0.013785354 0.021046402
-0.015193178 -0.0028029277 -0.0094263805 -0.025647549 -0.019827928 0.014989106 0.00095663045 -0.018078603
-0.02996192 0.005562165 0.014932456 -0.028908249 -0.025158793 0.019352011 0.012248372 -0.00805888
0.019413894 0.012412172 -0.018907256 0.016404504 -0.02238656 0.011457971 -0.019492278 -0.02496721
0.005506975 0.016739529 -0.0018455458 0.010952892 0.0077386955 0.013500489 0.027735384 -0.0057351654
0.01446728 0.03408335 0.00860426 -0.012782107 -0.010836756 -0.0033393083 -0.008413414 0.013557304
-0.007645555 -0.0024725194 -0.029498337 -0.00623221 -0.018274045 0.016652884 0.02115591 -0.02458291
0.009181488 0.0124412775 0.0010348293 0.0023148071 0.011274977 -0.02654661 0.0013812042 -0.011661745
-0.004872331 -0.026867265 -0.020579629 -0.0238176 -0.0041330764 0.012821944 -0.010545207 0.0022370536
0.0124727525 0.0073097763 0.01293223 0.0038400001 0.00599221 -0.031093955 -0.022995042 0.0002233327
-0.0018886484 -0.023696596 -0.012389878 -0.025769766 0.0070244167 0.01052037 0.022477942 0.0045604487
-0.011647208 -0.010107762 -0.010913278 -0.001018543 0.012886455 -0.01712571 -0.01396304 -0.016136643
-0.019983254 -0.018199803 -0.007849905 0.0028957531 0.03056294 0.015312562 0.0055074715 0.005553056
0.008917983 0.0027761986 0.026421588 0.005950381 0.0022697246 -0.0038880263 -0.011781741 -0.010244203
0.013536748 0.0256221 0.0013158346 0.023466904 -0.012145765 0.0059787575 0.03203068 0.023148699
0.002809563 0.023680855 0.0045964336 -0.0018204484 0.0232667 -0.013173059 -0.0076350565 0.019327285
0.008149114 -0.025846709 -0.015190847 0.010379889 -0.028256351 0.02817111 0.023106292 0.010723871
-0.015586967 0.0037897741 -0.018982409 0.006816699 -0.023623616 -0.003562796 -0.0046235556 -0.0030234498
-0.016670337 0.011284182 -0.019044701 0.010073461 0.019036418 0.011586516 0.00022960835 -0.021624086

conv3.bias f4 [128]
00000000: fdb0 e7bc c52f edbc 752a 423c 085f 4ebc
00000010: 7f32 acbc d12e 3abb ebb5 c13c 30a7 ec3c
00000020: 4713 ce3c 44f4 e23a 679a 13bc db99 ec3c
00000030: 26ce f639 ca2b ea3a 2a29 e53c f179 ec3c
00000040: ba24 1938 8d28 f53b 8ec2 803c 7af4 35bc
00000050: 2b1f eebb 4be4 0f3c 9df5 963c 52a5 9a3a
00000060: eafd 09bc c9e0 8cbc 479e 8fbc 84c7 123c
00000070: 660e 84bc 23b3 d63c b557 87bc 99d3 d1bc
00000080: 82ec c43c 6e96 603c b2ce 99bc c6e7 abbb
00000090: af8c a0bc e7ce b93b 8e39 cd3c 28aa 8c3b
000000a0: c6b5 93bc dda7 00bc bdf4 283b 5dbc 3dbc
000000b0: adb0 d1bc 8c74 e23b edd8 413c f815 593c
000000c0: 131b 013b 9b9e 8a3c 806c 56bc 0df4 c2bc
000000d0: b056 c4bb 0451 c4ba 5d7a b73c 39cd d8bb
000000e0: 94c0 0fbc 499c 43bb 413c 12bb c085 9c3c
000000f0: 8878 0c3c 0e83 ae3c 14bb 8cbc d0bb 82ba
00000100: 29bd 903c ed6a 033c 6faf 2e3a d63f 64bc
00000110: e32e 0bbc e7a8 a33c de8b 023b 3888 b13c
00000120: 0391 86bc 6c2a 263c f5a1 7fb9 ce2b a5bc
00000130: f6ef 9cbc 1119 11bb d621 ebbc 6e34 22bb
00000140: 884b 14bc 7e3d 023c 0f9c 9ebc 841a acbb
00000150: 2923 a93c 9025 953c e16a a13c 1deb d83c
00000160: a2fa b5bc 8cf5 0cbc 36d1 81bc 8f41 4bbc
00000170: b7ed 883c 24dc c63c cb10 7f3b c169 203b
00000180: 9f27 bbbc 9bb0 853c 3f12 f3bb 70e4 abbc
00000190: d550 4cbc 9ecf f13c e0ae be39 ed8d c53c
000001a0: 5f2f 96bc 3983 cb3c 565a 8f3c ac00 973c
000001b0: 216e eb39 857b 51bc c158 6cbc 54e3 eb3b
000001c0: 09c7 213c 3f8c 7f3c c94f d63c 5ef1 d93c
000001d0: 5345 633b ccdc 9fbc 0bf4 a2bb 5530 f2bb
000001e0: dd85 e43c c1e3 ab3c bd84 8f3c f313 3c3c
000001f0: ea9e a73c 61d8 b03c 7ee4 29bb 469b e2bc
-0.028282637 -0.028953442 0.011850943 -0.012595899 -0.021020172 -0.0028409252 0.023646316 0.028888315
0.025155677 0.0017315228 -0.00900898 0.028881958 0.0004707437 0.0017865833 0.02797373 0.02886674
3.6512247e-05 0.0074816407 0.01571777 -0.011105651 -0.007266899 0.008782457 0.018427664 0.0011798537
-0.008422354 -0.01719703 -0.017531527 0.008958701 -0.016120147 0.026208466 -0.016521314 -0.025613593
0.024038557 0.01370774 -0.018775318 -0.0052461354 -0.019598333 0.0056704166 0.025051858 0.004292745
-0.018031012 -0.007852522 0.002578064 -0.011580554 -0.02559694 0.006910866 0.011831504 0.013249867
0.0019699975 0.016921332 -0.013087392 -0.023798013 -0.0059917793 -0.0014977758 0.022397215 -0.0066162613
-0.008773942 -0.0029847792 -0.0022313746 0.019106746 0.008573659 0.021302726 -0.01717905 -0.0009974185
0.017668324 0.008021099 0.0006663715 -0.013931235 -0.008495065 0.019978 0.0019919793 0.0216714
-0.016426569 0.01014195 -0.00024379029 -0.02016249 -0.019157391 -0.0022140185 -0.028702658 -0.0024750489
-0.009051211 0.007949231 -0.019361524 -0.0052521843 0.020646648 0.018206388 0.019704284 0.026479298
-0.022214238 -0.008603465 -0.01584683 -0.012405767 0.016714914 0.024274893 0.0038919921 0.0024477097
-0.022846041 0.016319564 -0.0074179466 -0.02098295 -0.012470444 0.029517945 0.00036369916 0.024115527
-0.018333135 0.024842845 0.01749913 0.018432938 0.00044904745 -0.012785797 -0.014425457 0.0071987305
0.009874114 0.015597402 0.026161091 0.02660435 0.0034678772 -0.019514464 -0.00497294 -0.0073910155
0.027895862 0.020982625 0.01751935 0.011479366 0.020461518 0.021587553 -0.0025923545 -0.02766193

bn3.weight f4 [128]
00000000: f951 8a3f 32e7 8a3f 0c87 863f c42e 8e3f
00000010: 5c6e 833f 0de1 8b3f 21cb 883f b5f9 843f
00000020: fc4f 8b3f e8e5 8a3f 11e4 843f 2b42 953f
00000030: 1380 883f 7ae7 8d3f fc6d 823f 93a4 8b3f
00000040: 637e 8b3f d846 8a3f 8c90 863f d49b 8a3f
00000050: 2123 8d3f 4504 8e3f 7c45 8b3f 2fb0 8c3f
00000060: aba0 8c3f a437 883f ecc7 883f 7245 893f
00000070: 50e9 8b3f fb03 8d3f 8086 883f 9099 873f
00000080: 5fb5 8f3f e58b 893f 199e 883f a262 8a3f
00000090: 5c6c 8c3f 2c20 8c3f 9f5f 8a3f 4ef0 8f3f
000000a0: 1c70 8a3f 206c 863f 4e51 823f 011a 8d3f
000000b0: 6b7e 853f 9474 913f f555 843f 6033 8d3f
000000c0: 16bf 843f f141 943f b169 8d3f 2bdd 843f
000000d0: bb2d 8b3f e280 8a3f 661e 8c3f d6e4 813f
000000e0: 0725 8f3f 720f 923f 9aeb 8c3f d57c 833f
000000f0: 3358 863f 594a 873f dffa 843f 2c61 933f
00000100: e186 893f bc5f 8c3f 7553 843f 00b2 8a3f
00000110: c016 8b3f ce1d 873f 7b8f 883f 2780 863f
00000120: 9e3b 8e3f c3ea 8f3f 6d87 903f d33c 7e3f
00000130: 0dad 8e3f 82fb 893f 6c6e 883f 242d 833f
00000140: 1003 843f b7c6 843f 5338 863f 151b 863f
00000150: 64ea 893f b625 8b3f bcc4 8e3f 5828 923f
00000160: 959b 853f 7c2b 893f 7b04 933f 7427 8c3f
00000170: b4e5 8e3f cbc0 8b3f 7309 8d3f 3d08 913f
00000180: 1362 883f 14a8 8b3f 93bc 833f 649b 8c3f
00000190: 87de 873f 6f97 8b3f b806 853f e4ad 873f
000001a0: 2229 8d3f 0148 8c3f ca37 8b3f e7f3 863f
000001b0: 2abb 893f 2e93 8a3f 8bb7 903f d451 883f
000001c0: cc22 893f ee13 8f3f 71c3 833f 3d65 903f
000001d0: 3eb7 813f 4ce4 8a3f ff5a 8a3f 774a 8c3f
000001e0: 091e 913f a72f 823f bc6a 853f f9f2 8e3f
000001f0: 00dd 813f 868f 8d3f 4619 893f 9576 8c3f
1.0806266 1.0851805 1.0509963 1.1108022 1.0268054 1.0928055 1.068699 1.0388705
1.0883784 1.0851412 1.03821 1.1660818 1.0664085 1.1086266 1.0189815 1.0909599
1.0897945 1.080287 1.0512862 1.0828805 1.1026345 1.1095053 1.088058 1.0991267
1.0986532 1.064198 1.0686011 1.0724318 1.0930576 1.101684 1.0666046 1.0593739
1.1227225 1.0745817 1.0673248 1.081135 1.0970569 1.0947318 1.0810431 1.124521
1.0815463 1.0501747 1.0181062 1.1023561 1.0429205 1.1363702 1.0338732 1.1031303
1.0370815 1.1582624 1.104788 1.0379995 1.0873331 1.0820582 1.0946777 1.014796
1.1183175 1.1410964 1.10094 1.0272471 1.0495666 1.0569564 1.038906 1.151403
1.0744287 1.0966716 1.0337969 1.0835571 1.0866318 1.0555971 1.0668787 1.0507859
1.1111944 1.1243519 1.1291329 0.9931156 1.1146561 1.0779879 1.0658698 1.0248151
1.0313435 1.0373143 1.0485939 1.0477015 1.0774655 1.0870883 1.1153789 1.1418562
1.0438105 1.0716395 1.1485742 1.094954 1.116385 1.0918211 1.1018509 1.1330639
1.065493 1.0910668 1.0291923 1.0984921 1.0614785 1.0905589 1.0392675 1.0599942
1.1028178 1.0959474 1.08764 1.0543183 1.0760243 1.0826166 1.1306013 1.0649972
1.0713744 1.1177957 1.0294019 1.1280895 1.0134046 1.0850921 1.080902 1.0960225
1.1337291 1.0170792 1.0423198 1.1167899 1.0145569 1.1059425 1.0710838 1.0973688
