src/trained_models/model_standard_launch.pth (torch, 906955 bytes, 20 tensors)

conv1.weight f4 [64, 2, 3, 3]
00000000: 2ce0 b8bd cc1f abbd 19b7 7e3d aaf5 363e
00000010: 5435 0bbe cf9c 1e3e 8d47 0abe 695a 573d
00000020: 62a4 5d3e 2bff 2dbe 1cde 063d dc49 1b3e
00000030: bfa3 183e 1f2c 07be 3a82 6dbb 83a3 363e
00000040: 475f 323e 0a4c 963d 5a4b a6bd 8c78 693e
00000050: d5d2 92bd bb11 6d3e d523 15be 9a94 4a3e
00000060: 167d d7bd 12e8 a3bd dfe3 8d3d dff1 56bc
00000070: 5361 d43d 4fe8 0fbe cd50 2a3e 86e0 24be
00000080: 6f40 293e e237 693d a9bc 7fba fb86 64bd
00000090: 36b1 6d3d a49f ec3d e232 9c3b e039 40be
000000a0: f5bf fa3d 607d 473e c859 88bc dc0a 24be
000000b0: 7dfc 63be a05b 03be 51b1 63bd 4d41 293e
000000c0: 5505 073e 936e 1a3e f6d4 e0bc de03 323e
000000d0: 5300 dfbc 35eb 693e 5a9c 70be cf7e c93d
000000e0: 251f 133e 843f 20bd 5387 f73d 2630 acbd
000000f0: 08c1 cbbd 6250 b23c 4f42 683e 6b43 87bd
00000100: a811 6c3e f8f2 f6bd 91df e6bd 6d80 06be
00000110: 79c3 e6bb da15 b7bd 6a0d f73d a1f4 20be
00000120: 92c4 4fbe 5187 66bd 741e 673e 4682 c63c
00000130: ebbe 9e3d c203 5ebe f6d7 2e3e acc2 45be
00000140: 9a91 93bd 0250 cb3b dff2 43be 9215 37bd
00000150: 4d34 53bd ac23 42be c7b8 54be e7ad 493e
00000160: d147 123d d5ae d1bb b098 223e ce69 14be
00000170: 13fc ff3d cb26 1ebe 9214 afbc bfd8 573e
00000180: 2ffd 51be 915b fbbc 1498 ee3b c13a 2c3e
00000190: ce3b eb3c e170 febd d263 50be c146 0ebe
000001a0: 3b1a db3d e488 e1bd 9d8c 353e 3d3c c4bd
000001b0: 70ce 383e efba 9a3d 5242 663d 6a2b 633e
000001c0: 374c 503e e452 403e 4a6e 17bb b92f 3f3e
000001d0: 7af9 c03c bbb9 cf3b 40aa 2abe 790c 393e
000001e0: 48e0 5cbe 90d2 0abe 61c2 573d f931 ee3d
000001f0: 6d5b 4e3e e38e 513e ba00 22be 84e7 48be
00000200: a144 233e f0d5 a8bd 45c4 38be 3440 a8bd
00000210: 43ef d9bd 2eec 50be 7362 283e 255b 4dbe
00000220: 637b 09be 4f3f 4dbd ca6c 9fbd 2e88 943d
00000230: 6c10 41be d619 26be 2476 903d bacd 9bbd
00000240: 2b74 52be 8b1f bf3d 3295 3ebe b6b8 633e
00000250: 73f0 c5bc 8878 f13c f3b2 543e 12dd 813d
00000260: bb73 6abe 7eeb 02be d306 053e c327 273e
00000270: 3f60 9cbd 88ac 653e 37d9 21be 09db 90bb
00000280: eaf6 633e 2801 2dbe 9c67 f23d dc5f 2abe
00000290: 26b0 08be 2a51 ecbd 0aea c03d b1db 45bc
000002a0: 9dff 5bbe 962f 9fbd abcd f0bc f387 b93c
000002b0: 618a f7bc e37e 1f3e 8eaf 08be 7aaa 7c3d
000002c0: 749b 4dbe baef 06bd 59e8 f6bd d7ec 303e
000002d0: 6d3f 89bc d9c5 36be b1cd 08bd 9a3a 803d
000002e0: 7637 ffbd 0db1 013d 472c 363e a058 493e
000002f0: c3ac 043d 84a3 50be 879c 3c3e 9f03 90bd
00000300: ebc2 5ebe bc84 c5bd 94b2 1ebe 3759 213e
00000310: e354 26be afee 19be ed0d 53be bc35 47be
00000320: 2495 a53d 7d97 263e 8228 073e 5aaa 6a3d
00000330: 05e2 633d 5730 53be 4c2c 05be a47e 6dbe
00000340: d08b 833d 7c05 28bd d6df c03d fdbc 91bd
00000350: 6730 0dbe 855c 3ebe ea85 453d 1e31 1bbe
00000360: 468e 60be 1864 a4bd 437e ff3c 30af fb3c
00000370: b327 11be c429 df3d 1c61 c53d 45e3 ac3d
00000380: b485 55be 052a 50be 0e0d 5dbe ea65 393e
00000390: 103c 67be aa06 453e c3c9 153e ceb8 5bbe
000003a0: f2d1 953c b5ef 313e dce4 6abe 6ca1 6e3d
000003b0: 38dc 44bc 1a84 d33c 6ab9 edbd 08de f63d
000003c0: 362a 533d 4d9d 3ebe 07cf e8bd 76d2 5c3e
000003d0: b259 e4bd 13ec 173e 498f 123e f5f4 36bd
000003e0: c1b4 3fbe 3a53 6ebe a375 bf3c ae92 73bc
000003f0: 97f3 82b9 9344 1cbe f225 26bd 26a8 7fbd
-0.090271324 -0.08355674 0.062186334 0.17867151 -0.13594562 0.15489505 -0.13503857 0.052576456
0.21644738 -0.1699187 0.032926664 0.15164894 0.14906214 -0.13200425 -0.003624095 0.17835812
0.17419158 0.07338722 -0.08119841 0.22799891 -0.07169119 0.23151295 -0.1456445 0.1978325
-0.10521905 -0.08003248 0.069282286 -0.01311919 0.103701256 -0.14053462 0.16632386 -0.16101274
0.16528486 0.05693806 -0.00097555906 -0.05579279 0.05803033 0.115538865 0.004766808 -0.18772078
0.12243644 0.1948142 -0.016644374 -0.16019768 -0.22264285 -0.12827921 -0.055589024 0.16528817
0.13185628 0.15081243 -0.027445298 0.17384288 -0.027221834 0.2284363 -0.23497143 0.0983864
0.1436735 -0.039123073 0.12086358 -0.08407621 -0.09948927 0.021766845 0.22681545 -0.06604656
0.2305361 -0.12058061 -0.11273111 -0.13134928 -0.007042345 -0.08939715 0.120631054 -0.15718319
-0.2028983 -0.05628139 0.2257021 0.024232041 0.077512585 -0.21681121 0.1707457 -0.19312543
-0.07205506 0.006204606 -0.19135617 -0.044698305 -0.05156355 -0.1895892 -0.20773612 0.19695245
0.03571302 -0.0063990154 0.15878558 -0.14493486 0.12499251 -0.15444486 -0.021372113 0.21078776
-0.20506738 -0.03068331 0.0072813127 0.16819288 0.02871504 -0.12423874 -0.20350578 -0.13894178
0.106983624 -0.11012438 0.17729421 -0.09581802 0.180475 0.07555186 0.05621559 0.2218453
0.20341574 0.1878162 -0.002310651 0.18670548 0.02355646 0.0063392795 -0.16666508 0.18071164
-0.21569932 -0.13556886 0.05267561 0.11630625 0.20152064 0.20464663 -0.1582059 -0.19619566
0.15944149 -0.0824393 -0.18043621 -0.08215371 -0.10641339 -0.20402595 0.16443805 -0.200543
-0.13425975 -0.050109204 -0.07784422 0.07252537 -0.1885392 -0.16220793 0.070537835 -0.076075986
-0.20552127 0.09332188 -0.18611601 0.2223843 -0.024162507 0.02947642 0.20771389 0.06340994
-0.2289571 -0.12785146 0.12990884 0.16323762 -0.07635545 0.22429097 -0.15805517 -0.0044206423
0.22262159 -0.16894972 0.11836168 -0.1663813 -0.13348445 -0.11538918 0.094196394 -0.012076304
-0.21484227 -0.07772748 -0.029394945 0.022647833 -0.030217351 0.15575747 -0.13348219 0.061686017
-0.20078832 -0.032943465 -0.120560355 0.17277847 -0.016753877 -0.1784891 -0.033399288 0.06261177
-0.1246175 0.03166299 0.17790328 0.19662714 0.03239132 -0.20374876 0.18419085 -0.07031941
-0.21754043 -0.09644458 -0.1549781 0.15756689 -0.16243319 -0.15032457 -0.20610781 -0.19454092
0.08085087 0.16268726 0.13199046 0.057291366 0.05563547 -0.20623909 -0.13005179 -0.23192841
0.064231515 -0.041020855 0.09417693 -0.07116125 -0.13787995 -0.18589981 0.048223414 -0.15155455
-0.21929273 -0.08026904 0.031188136 0.030723184 -0.141753 0.10896638 0.09637663 0.08441786
-0.20851785 -0.20328529 -0.21587011 0.18105283 -0.22581506 0.19240823 0.14627747 -0.21457216
0.018288586 0.17376597 -0.22938865 0.058259413 -0.012015395 0.025819827 -0.116076306 0.12054068
0.051553927 -0.18614693 -0.11367612 0.2156466 -0.111499205 0.14836149 0.14312471 -0.044667203
-0.18721296 -0.23273936 0.023371523 -0.014866514 -0.0002497702 -0.15260534 -0.04056353 -0.06241622

conv1.bias f4 [64]
00000000: 6e12 1fbe 5259 2fbd 1fd9 d73d fbe0 56be
00000010: b682 68be eb8e 81bd 110f 6ebd 1d91 943d
00000020: 2b54 3abe c095 a9bd 21e8 11bc 597f aabd
00000030: 66a0 4c3e 7a6c 51be 5a29 183a a6ed c63b
00000040: 626f 00bd fade 603d aa2b 163d 3f83 23be
00000050: 6f9a 273d 287b 14be 876f 4cbe 2c3b 383e
00000060: 56ea 0cbe 438f e63d 7523 cf3d 6a35 4ebe
00000070: bf7b 60bd 4116 193c e226 81bd 126f f13d
00000080: 87db 9f3b 00dd 14be a1b4 3c3e c8cf 69be
00000090: 8fbc 013e 757a d83d e42b 55be ca1d a0bc
000000a0: 5f90 87bc 4a0f 20bd 9818 3a3e b512 133e
000000b0: 52ef 543e 02dd b13c f7af 003e c5a5 083e
000000c0: 3eef 123e e8da 0d3e 452b 11be 333b 993b
000000d0: fe82 0bbe f8fa 3e3d 534b c8bd 6211 a5bc
000000e0: 97fb d4bd 8ab1 95bd 451a 423e f4bb 4ebe
000000f0: 4d17 ed3c 31c3 0abc 0352 2f3e 1f12 4e3e
-0.15534374 -0.042809792 0.105394594 -0.2098426 -0.22706112 -0.063260876 -0.058119837 0.07254241
-0.1819617 -0.08280516 -0.0089054415 -0.08325071 0.19983062 -0.20451537 0.00058045017 0.0060708104
-0.031356223 0.054900147 0.036662735 -0.15968035 0.040918764 -0.14500105 -0.1996442 0.17991322
-0.13761267 0.11257794 0.10114185 -0.20137563 -0.054805513 0.009343685 -0.063062444 0.11788763
0.0048784646 -0.1453743 0.1842828 -0.22833169 0.12669586 0.10570232 -0.20817524 -0.019545455
-0.016548334 -0.03907708 0.18173444 0.14362605 0.20794418 0.02171183 0.12567125 0.13344486
0.14349076 0.13853037 -0.14176662 0.0046762465 -0.13624188 0.04662606 -0.09779992 -0.02014989
-0.103995495 -0.073092535 0.18955334 -0.20188886 0.028941775 -0.008469389 0.17121129 0.201241

bn1.weight f4 [64]
00000000: 658a 7e3f 6981 803f 6f89 803f 8c38 7e3f
00000010: b54f 803f 5d75 7f3f 4f5c 7e3f b783 803f
00000020: ef30 7e3f 5717 803f e261 803f 0ce6 7f3f
00000030: 403c 803f 0a0c 813f e929 803f f092 803f
00000040: 08e3 7f3f 8fd0 803f 11f1 803f 16b9 7f3f
00000050: 3d35 7f3f d424 803f 4def 803f 5021 7f3f
00000060: 936d 7f3f 7fd3 7f3f c15e 7e3f a57a 803f
00000070: 1cc0 7f3f 935c 803f d51c 803f f1bf 7f3f
00000080: a20d 803f c5cc 7f3f 7124 803f 5b94 7f3f
00000090: fd1a 7f3f c3d6 7e3f 6002 803f 5869 7f3f
000000a0: 875c 7e3f 9a3c 803f 180b 803f 3f3a 803f
000000b0: 52a4 7f3f d675 803f a605 803f ec8d 7f3f
000000c0: a328 7e3f 39e3 803f 5d89 803f e11d 7f3f
000000d0: 4e5d 7f3f fecd 803f 62a0 803f 1b37 803f
000000e0: 2217 813f d626 803f 13e5 7e3f 48a2 7f3f
000000f0: 9af7 7f3f f5b4 7e3f 8e4d 7f3f 2c7a 803f
0.99429923 1.0039493 1.0041941 0.99305034 1.0024325 0.9978846 0.993596 1.0040196
0.99293417 1.0007123 1.0029871 0.999604 1.0018387 1.0081799 1.001279 1.0044842
0.999558 1.0063647 1.0073568 0.99891794 0.9969061 1.0011239 1.0073029 0.99660206
0.9977657 0.9993209 0.99363333 1.0037428 0.9990251 1.0028251 1.0008799 0.99902254
1.000416 0.9992183 1.0011121 0.9983575 0.99650556 0.9954645 1.0000725 0.99770117
0.99359936 1.0018494 1.0003386 1.0017775 0.9986011 1.0035961 1.0001724 0.9982593
0.99280757 1.0069343 1.004192 0.99654967 0.99751747 1.0062864 1.0048945 1.0016817
1.0085185 1.0011852 0.9956829 0.99856997 0.99987185 0.9949487 0.99727714 1.0037284

bn1.bias f4 [64]
00000000: 3065 10bb 68fc 1ebb e201 f93b 151f 5a3b
00000010: a885 a83b b3b0 bfba c1d7 01bc 49cb b73b
00000020: 3192 7fb9 44f9 73bb 5f96 cc3a fbf6 ad3b
00000030: ea76 8e3b 3e7f 5e3c 1927 09bb d363 933a
00000040: 3a1b 663b e1f4 6f3b 8faf 3f3c f4be 6b3b
00000050: 383e 8638 8029 9fba 4ab1 ea3b d93b d73b
00000060: d5e9 51ba da59 68bb 10d4 fe3a 8db9 003a
00000070: 4011 ad3a fd8f 253b d836 e43a ec90 c83a
00000080: 5ba4 f33b a3c8 5e3b 493a 123b 2f83 baba
00000090: f807 e6bb a5d7 29ba 528d 5139 e575 da3b
000000a0: 34e0 c0bb 9fed a23b 9195 503b 8af9 e03b
000000b0: 487e 003b cfd3 333c 35b8 b43b 31eb 333b
000000c0: 151e 29bb cbf9 453b 3824 793b 94fb 3fbb
000000d0: 56de 54b9 0740 e339 da66 bc3b 5500 a43b
000000e0: ce6d 253c ec2b 823b e6bf 023b b41f 60bb
000000f0: 6cf2 573b 817a 0bba 6786 ac3b 7fd3 2bb9
-0.0022032969 -0.0024259333 0.0075991014 0.0033282686 0.005142886 -0.0014624804 -0.007924975 0.0056089503
-0.00024373156 -0.0037227431 0.0015608779 0.0053089834 0.0043476718 0.013580142 -0.0020927845 0.001124496
0.0035111443 0.0036614465 0.011699571 0.0035971971 6.401207e-05 -0.0012143105 0.007162248 0.0065684137
-0.0008007561 -0.0035453946 0.0019441862 0.0004910462 0.0013203993 0.0025262826 0.0017411364 0.0015301979
0.007435364 0.00339941 0.0022312573 -0.001422977 -0.007019993 -0.0006478972 0.00019984439 0.006666886
-0.005886102 0.0049721743 0.003182743 0.006865685 0.001960652 0.010975792 0.0055151233 0.0027453417
-0.0025805284 0.0030208703 0.0038015973 -0.002929424 -0.00020300722 0.00043344518 0.0057495655 0.0050049224
0.01009698 0.003972521 0.0019950806 -0.0034198584 0.0032950891 -0.00053206837 0.0052650454 -0.00016386619

bn1.running_mean f4 [64]
00000000: 7872 15be e26d 9cbb 112b fa3d 1298 20be
00000010: 461d 8dbe 8594 b6bd 263d 303e 3351 d0bd
00000020: b7d0 23be 0f8d 20be fab7 8dbc df8b e6bd
00000030: 73f9 0f3e 6b10 90be 07fe 4cbc 90da cebc
00000040: 9234 17bc d0ea 48bc 78c7 43bd 18b2 70be
00000050: 0210 353d 7e08 38be 8708 53be 05b6 a53d
00000060: 2f31 00be 46bc 103e bbd3 d53d 06ff a1be
00000070: 731f 83bd 05b5 8fbd d089 1abe 5cf3 463e
00000080: a899 b43c 355d bbbd dad9 893e cd90 18be
00000090: b954 4dbd 3b2d 253e c25c 4dbe 3fce 94bd
000000a0: e92e be3d f876 d1bd 7137 c93d b074 0f3d
000000b0: dc77 523e 89ad 0ebe 4e4f 143e 7222 e13d
000000c0: acfe a53e 4322 133d 03bf 29be a396 2dbc
000000d0: 289f f3bd f934 953b 84bd 2cbe 8284 a1bd
000000e0: 36f1 67be 0cef f13d a22e 3c3e 8162 25be
000000f0: c109 723d da07 c33c f71a 513e 62d0 c63d
-0.14594448 -0.0047738412 0.122152455 -0.1568301 -0.27561396 -0.089150466 0.17210826 -0.101717375
-0.15997587 -0.1567881 -0.01729964 -0.11257147 0.14060001 -0.28137526 -0.012511737 -0.025250703
-0.009228842 -0.012263015 -0.04779765 -0.23505437 0.04420472 -0.1797199 -0.20608722 0.08091358
-0.12518762 0.1413432 0.10440775 -0.3163988 -0.06402483 -0.070169486 -0.15091634 0.19428772
0.022045925 -0.09148637 0.2692402 -0.14898987 -0.050129626 0.16130535 -0.20054916 -0.07265901
0.09286291 -0.102277696 0.09825028 0.03502339 0.20553535 -0.13933386 0.14483377 0.10992898
0.32420862 0.035921346 -0.16576771 -0.010594997 -0.11895591 0.004553434 -0.1686917 -0.07886602
-0.22650608 0.11813173 0.18377164 -0.16150858 0.059091333 0.023807455 0.20420443 0.097077146

bn1.running_var f4 [64]
00000000: ee76 b23c cf7b d13c 178c ce3c 724a b63c
00000010: db55 be3c 9978 ce3c 2dba 113d 79dc 193d
00000020: 9c00 ea3c 1d8d 8c3c 711b ac3c f5df db3c
00000030: c3fb 8f3c 0a82 943c f58a 813c 5d1f 493c
00000040: d5b2 923c d1c3 3f3d 44ff 913c 6653 1d3d
00000050: e9d0 a83c 7223 a53c d53a ad3c 6f69 bc3c
00000060: baa0 fc3c ec71 bd3c ce2d d23c b70c da3c
00000070: 350d a73c 6cc2 093d f433 be3c 72af c03c
00000080: e8f7 eb3c 4628 e33c 15a3 b13c d6f2 9f3c
00000090: dbfe 293d 8d61 8d3c 3cda f23c 03f0 863c
000000a0: 6a38 953c 1de6 f43c 022f 0f3d e1d3 e83c
000000b0: 6217 bb3c 8bb4 db3c efe6 813c 6cba c23c
000000c0: 8e7b 0b3d 1ef3 f33c d67c c13c 5be2 893c
000000d0: e0bb b33c 34e0 3b3c 53e4 813c 6751 483c
000000e0: 1964 bb3c 687f f43c 505b 983c 580e ac3c
000000f0: 9a60 1e3d dc48 be3c fd37 c13c be95 b73c
0.021785226 0.025571732 0.025213284 0.022252295 0.023234298 0.02520399 0.03557794 0.037563775
0.028564744 0.017157132 0.021009179 0.02684019 0.017576104 0.018128414 0.01581333 0.012275544
0.01790754 0.046817604 0.017821915 0.038409613 0.020607429 0.020158503 0.021146217 0.022999493
0.03083836 0.023125611 0.025656607 0.026617391 0.02039204 0.03363268 0.023218133 0.023521159
0.028804734 0.027729165 0.021684209 0.019524973 0.041502815 0.01725843 0.029645078 0.016471868
0.018215377 0.029894883 0.03495694 0.028421344 0.022838298 0.026819488 0.015857188 0.023770534
0.034053378 0.029779013 0.023619097 0.016831568 0.021940172 0.011467028 0.015855944 0.012226439
0.022874879 0.029845908 0.018598229 0.021002933 0.038666345 0.023228101 0.023586268 0.02241027

conv2.weight f4 [128, 64, 3, 3]
00000000: fd29 993a 68dc 773c cd7b 07bd a295 243c
00000010: 3316 b83b a694 8d3c 18b5 d0bc 4b65 8d3b
00000020: 374a a7bc b427 fc3c 3794 07bc 62a9 4e3c
00000030: 2302 e13c bd94 a7bc e981 52bc fc08 973c
00000040: bfe4 033d 9546 afbc 243e 183c 2d89 15bb
00000050: a299 e83c 95be eabc ebbc 673b 374e 1cbd
00000060: d102 f7bc 7dc8 0ebd 476e 50bc 6fcf 21bd
00000070: 2af8 babc 856a e83c 13ab 47bb eda9 543b
00000080: bc31 9ebc bb96 f4bb f94c 84bc e68c e43c
00000090: 240e 25bd 7061 133c ddd1 de3a 6d29 acbc
000000a0: 9713 29bd b771 873c 3442 18bd c96e 1cbd
000000b0: bfa3 8a3c 12c4 23bd f1c2 933c b52a 85bc
000000c0: a18a 0f3d 5c88 26bd 98c5 e93c 7efb 043d
000000d0: c0c3 183d 902b d13c a311 82b9 116f 81bb
000000e0: 0987 49bc 9b29 113d 0376 3cba 0ecb 1d3d
000000f0: ae16 ed3c 60fa 7dbc 2ef2 0abd c821 24bc
00000100: 76af 1d3d 4ffd 013d 2fc0 1d3d d839 87b8
00000110: 754f f63c 19ba c8bc 91f3 afbc 6e4b c53c
00000120: f8d1 233d 195d 4fbc ceaf 2ebd 4552 af3c
00000130: 045a ecbb 6053 ff3c 6f08 033c 3024 d03c
00000140: 8a48 db3c 1dbb a33c beb0 91bc 9d85 2e3d
00000150: de14 80bc 0b3f 213d c8c8 cdbc aa89 e6bc
00000160: 3f39 d9bc 1679 e13c 27eb 3c3c 81b7 23bb
00000170: 2a2d f03b da1f 9b3c 7237 983b 090b 0b3d
00000180: 3d97 2fbd aee3 18bd da32 d8bc c887 9f3c
00000190: 1694 e5bc 4162 0dbd a452 0cbc bc7b 943c
000001a0: 0a53 11bd 1fd8 c4bc d366 15bc 0b35 1bbc
000001b0: 3a3b beb8 17d2 553b 69d8 ba39 b647 2abd
000001c0: 25ea 34bd 129c b6bc cad2 173d c83e a73c
000001d0: b996 7c3b ddc9 2fbd a2a0 b63c 3181 f83c
000001e0: a938 afbb d30b 95bc bbe2 e63c 83b5 223d
000001f0: 6086 33bc 6814 8bbc 3f3b 9fbc 3361 a8bc
00000200: 0fdf 313c ea89 d0ba d78f 8a3b 48c8 fbbc
00000210: dd96 123c 9019 b6bc 3a88 1c3d 1b74 d1bc
00000220: 3fc5 ff3b c078 f93c 0277 e3bc b304 ddbc
00000230: 1a0a 37bc 327e a13c c7ab babc ca31 1ebc
00000240: 3bd1 8cbc ced2 2fbc 385b 1e3d fc4f 0d3d
00000250: f9e7 08bb 74a9 9fbc ffde 2dbc b55a 6e3b
00000260: 47bd 79bc 6904 203d 5515 53ba 6600 81bb
00000270: a37e 243b cc3a f6bb 10ca a83c 2e27 403d
00000280: 6b04 a63c cdb3 e23a dab5 12bd d34a cfbc
00000290: 45d7 c4bb 1dbf e73c a630 06bc d8a5 1abd
000002a0: e5d1 293d fe3b 363c c339 d1bc b2ca 14bd
000002b0: 3700 05bc 2dba 7abb fd0a 58bc c44c 503c
000002c0: d712 01bd f0e9 b4ba f9da a13c 2c84 bdbc
000002d0: 7bdd dabc 87e6 8ebc 9a57 0fbc 5615 013d
000002e0: 55f6 aa3b 603c e73c c5b5 f6bc a0cc 013d
000002f0: 3ba3 23bd edaf 1f3d a71a e63c fd0e bb3c
00000300: 6a4e 1a3d 7b9e 953c b2d9 183c 1257 993c
00000310: 430a 013d 5d61 143d 71da e2bb d9db 513c
00000320: 814c e3bc e97c a3bc 51ad a03c d409 6ebc
00000330: 7752 04bd 28b0 24bb 1b75 b8bb 3030 d2bb
00000340: a930 8c3c 93a2 853c 087f a2bc 9d56 583c
00000350: 7709 f0bc dd01 dbbc 089a 233d a4ba 19bd
00000360: c51c 26bc c444 cebc a461 f83c bcaa 6abb
00000370: 1d1e 1d3d ab07 0ebd 9e32 ddbc 3e57 96bb
00000380: 29a4 54bc 73dd 2bbc bc31 dabc 98a7 f93c
00000390: 0a54 15bd 74b8 803c f63a 1abd cd2f 273d
000003a0: c5cd 1b3d 5941 38bc 1733 923c 41ae d239
000003b0: 0796 663c 8e76 4fbc a924 643c ea63 2ebb
000003c0: af54 9cbc 77e6 e63c cbc8 65bc 4822 6c3c
000003d0: d3c1 e03c 7fa2 3fbb 17f6 38bc 84e8 f13b
000003e0: 3d31 3ebc 59c6 a63c 07a9 9fbc e4e2 13bd
000003f0: da5c 41bc 2708 203d 9766 bebc 6d9f babc
0.0011685487 0.015128233 -0.03307705 0.010045441 0.0056178807 0.017282795 -0.025476977 0.0043150536
-0.02042113 0.03078065 -0.008275083 0.012613626 0.02746684 -0.020456666 -0.012848356 0.018436901
0.03220057 -0.02139596 0.009292159 -0.002281736 0.02839357 -0.02865533 0.0035360407 -0.03816053
-0.03015271 -0.03485917 -0.012721605 -0.039504465 -0.022823412 0.028371105 -0.0030466958 0.0032449916
-0.019310825 -0.0074642575 -0.016149985 0.027899217 -0.04029669 0.008995399 0.00169998 -0.021015847
-0.041278448 0.016533716 -0.03717251 -0.03819159 0.016923783 -0.03998191 0.018037291 -0.016255716
0.035044316 -0.040657386 0.028536603 0.032466404 0.037296057 0.025533468 -0.00024808673 -0.0039500077
-0.012300261 0.03544007 -0.0007189216 0.038523726 0.028941479 -0.015501589 -0.033922367 -0.01001782
0.03849741 0.031735715 0.03851336 -6.448076e-05 0.030067185 -0.0245028 -0.021478446 0.02408382
0.039995164 -0.012656474 -0.04264813 0.021401534 -0.007212879 0.031167686 0.007997616 0.02540788
0.026767988 0.019986684 -0.017784473 0.042607892 -0.01563495 0.039366763 -0.025120154 -0.028141815
-0.026516555 0.027523559 0.011530674 -0.0024981203 0.0073296027 0.018936086 0.0046452815 0.03394607
-0.04286884 -0.037326507 -0.026391435 0.019473925 -0.028024714 -0.03451753 -0.008564625 0.018125407
-0.035479583 -0.024028836 -0.0091187535 -0.009473096 -9.070938e-05 0.0032626444 0.00035637923 -0.041572295
-0.04416861 -0.022291217 0.03706626 0.020415679 0.0038541986 -0.04291712 0.022293393 0.03033504
-0.0053473306 -0.018194115 0.028184285 0.039723884 -0.01095733 -0.016977504 -0.01943743 -0.02055416
0.010856404 -0.0015910242 0.004228573 -0.03073515 0.008947101 -0.022228986 0.038215853 -0.025568059
0.007805496 0.030453086 -0.027766708 -0.02697978 -0.011171842 0.019713495 -0.022786988 -0.009655425
-0.017189613 -0.010731412 0.03866121 0.034500107 -0.002089022 -0.019489981 -0.010612248 0.0036369984
-0.015242881 0.039066706 -0.000805219 -0.003936815 0.0025099895 -0.0075143334 0.020604163 0.046912365
0.020265779 0.0017296016 -0.03581796 -0.025304234 -0.0060071074 0.028289372 -0.00819031 -0.037755817
0.041459937 0.011122702 -0.025540238 -0.036326118 -0.008117727 -0.0038257942 -0.013186214 0.012713615
-0.031512108 -0.0013802629 0.019757735 -0.023134314 -0.026716938 -0.017443908 -0.008748913 0.03151449
0.0052173533 0.028227031 -0.030115971 0.031689286 -0.03995059 0.038986135 0.02808888 0.022834295
0.037672438 0.018264046 0.009329246 0.018718276 0.031503927 0.036225665 -0.006923013 0.012808763
-0.02774644 -0.019957023 0.019613894 -0.01452871 -0.032305207 -0.0025129411 -0.0056291944 -0.006414436
0.017113047 0.016312873 -0.019835964 0.013204244 -0.029301388 -0.026734287 0.039941818 -0.03753151
-0.010138695 -0.025179274 0.030319996 -0.0035807332 0.038358796 -0.03467528 -0.027001675 -0.004588037
-0.012978592 -0.010489809 -0.026635043 0.030475423 -0.0364571 0.015712954 -0.037653886 0.04081707
0.038038034 -0.011246049 0.017846627 0.0004018415 0.014073855 -0.012662543 0.013924756 -0.0026609846
-0.019083349 0.028186066 -0.014024924 0.01441247 0.027436173 -0.0029241142 -0.011289141 0.0073824544
-0.011608419 0.020358251 -0.019489778 -0.03610505 -0.011801923 0.039070275 -0.023242278 -0.022781098

conv2.bias f4 [128]
00000000: 2c7f a8bc 9538 87ba 46a3 d83c ce5e 243d
00000010: 11c7 c63b c57c 99bb d7f1 913c d553 bcbc
00000020: 785f c1bb 61b0 ed3c d8b5 b1bc b610 f73c
00000030: 5c11 28bd 38e6 a6bc ab8e 02bd 1cf0 bcbc
00000040: 4782 13bd e44d 973c 11c6 bebc 202e 00bc
00000050: 1746 903c ff6d f33b 938f 5a3c 4c2f 003d
00000060: a500 0bbd 7242 66bc c2e7 c6bb ee16 e7bc
00000070: 5dab d5bc 46ab 563c d550 0c3c 726e 333c
00000080: 6db8 893c 7aab 00bd bc9e df39 0db7 dcbc
00000090: 4060 923b fec1 213d 7b6c 84bc 138c 003d
000000a0: a845 08bc e194 e63c 9be9 41bc 11de fd3c
000000b0: 4f3b cbbc 46fa c73c 8a0a b43c d058 21bd
000000c0: b5a6 523c 49fc 593c 8c65 923c 05fb 14bd
000000d0: a041 113c 7056 b13b cb56 713b 0946 ebbc
000000e0: 5d6e 23bd 8314 04bd f387 a23c acf7 e43b
000000f0: 3ab7 083d ad7e db3c afc3 253c c957 4fbb
00000100: ebb8 063d 1101 e83c 3369 08bd 7219 b6bc
00000110: 2258 3c3b ddf4 ebbb b61b 12bd b80f 5a3c
00000120: 983c 5dba 204f 01bd 3046 ea3b 7d5c 18bd
00000130: 26e2 103d e00b bbbb 492e 23bd 5390 5e3c
00000140: e61b b73c 661a f83c 2828 d43b fe45 663c
00000150: 2463 2d3c b2b1 a13c 7ef3 74bb c533 1ebd
00000160: fdf1 acbc cee6 0d3d 7505 93bc be00 813c
00000170: 75be 92bc 37d2 60bc 925c f1bc c4a5 083d
00000180: c278 d7bb a98e 70bb 5363 d03b c4c4 063d
00000190: 80a7 c0bb 8fcc c6bb d0f2 533c 8230 99bc
000001a0: c9c0 e43c cde4 0bbd 7491 0f3d a8a6 323c
000001b0: ae40 1cbd d9cf 7c3c eee9 13bd f852 d5bc
000001c0: a1aa c4bc 09a2 d03c 2a19 d5bc 7b56 abbc
000001d0: 94ca 4bbc a899 5d3c c33a b4bc 1b78 a4bb
000001e0: f973 203d 0fa9 583c 45b5 cabb a78f c6bc
000001f0: ef6f 123d 1841 a0bc 068b f6ba 41c8 b0bc
-0.020568453 -0.0010316545 0.026445042 0.040129475 0.006066211 -0.004684063 0.017815514 -0.022989193
-0.0059012733 0.029014768 -0.021693155 0.030159336 -0.04103218 -0.020373449 -0.03187434 -0.023063712
-0.036012914 0.018469758 -0.023287805 -0.007823497 0.017611546 0.007428884 0.013339895 0.031295106
-0.03393616 -0.014053928 -0.006070108 -0.028209176 -0.026082689 0.013102358 0.008564194 0.010951625
0.016811574 -0.031413533 0.0004265214 -0.026942754 0.0044670403 0.039491646 -0.016165009 0.031383585
-0.008317389 0.028147163 -0.011835481 0.030989679 -0.024808554 0.024411332 0.021977682 -0.03939134
0.012857129 0.013304778 0.017870687 -0.036372203 0.008865744 0.0054119155 0.0036825414 -0.028719919
-0.039900173 -0.032246124 0.019840216 0.0069875326 0.033377863 0.026793802 0.010117455 -0.0031638017
0.032891195 0.028320821 -0.03330345 -0.02222893 0.0028739055 -0.007200821 -0.03567096 0.013309412
-0.000843951 -0.0315696 0.0071494803 -0.03719758 0.035371922 -0.0057082027 -0.039839063 0.013584214
0.02235217 0.030286025 0.0064745136 0.014054773 0.010582719 0.019738052 -0.0037376578 -0.03862359
-0.021111483 0.03464394 -0.017946938 0.015747424 -0.017913083 -0.013721994 -0.029463086 0.03336121
-0.0065756747 -0.0036706126 0.0063594966 0.032902494 -0.0058793426 -0.0060668658 0.012936309 -0.018699888
0.027923958 -0.03415375 0.035050824 0.010903992 -0.03814762 0.015430414 -0.036111765 -0.02604054
-0.024007143 0.02546789 -0.026012976 -0.02091526 -0.012438435 0.013525404 -0.022000676 -0.0050192005
0.0391731 0.0132239 -0.00618616 -0.02423842 0.03575128 -0.01956229 -0.0018809743 -0.021579864

bn2.weight f4 [128]
00000000: f48d 803f 92d9 7f3f 3c2d 7e3f 3628 7f3f
00000010: 63ee 803f c328 7f3f b037 803f 5cff 7f3f
00000020: 3530 7f3f b47f 803f 52e0 7f3f 1e5f 813f
00000030: 6e45 813f 89ff 7e3f fa68 803f f559 7f3f
00000040: 33c4 7d3f ac14 7e3f 17e5 7e3f fdd9 7f3f
00000050: c8dd 7f3f 2b98 803f 46d3 7d3f 4079 7f3f
00000060: 982e 803f 9c1d 803f 70fe 7e3f 52ac 7f3f
00000070: d2de 7f3f d86d 7f3f 88f1 7c3f 260c 813f
00000080: b613 803f be81 7f3f 2f04 813f f57d 7e3f
00000090: e407 813f 8b32 803f 6733 7f3f 63fa 7e3f
000000a0: 9a3c 803f 6691 7e3f d184 7f3f 45b1 7e3f
000000b0: 144e 803f ad1c 803f 7f62 803f 8cbe 7f3f
000000c0: d391 7e3f 06b7 7f3f 846c 7e3f f242 803f
000000d0: 77b0 803f a6a4 813f eadf 803f 096a 803f
000000e0: 864c 7f3f 6b52 813f 739d 7f3f 9720 813f
000000f0: 0307 803f 40e7 7f3f 5868 803f 22d1 803f
00000100: 46c6 7e3f 88c9 803f 95e6 7f3f a16d 803f
00000110: 96b6 813f 1568 7f3f 5a9e 803f 898e 803f
00000120: 96ac 7f3f 1aea 7e3f 41f4 7f3f 27c3 803f
00000130: 8549 803f 8d30 803f 1436 7f3f 04a8 803f
00000140: 867a 7f3f 1928 803f 5120 7f3f 315a 7f3f
00000150: 670d 803f 99bb 7f3f 032b 813f 5e4c 813f
00000160: b1b7 803f 6ce8 7e3f aa51 7e3f 5cb4 803f
00000170: 5daf 7f3f 8b96 7f3f 5007 803f d2c3 7f3f
00000180: 9cea 7e3f 525a 7e3f 051b 7f3f 3a6c 803f
00000190: 3bd1 7f3f 016e 7e3f 51dc 7f3f 3f16 7f3f
000001a0: c814 813f 9c42 7e3f ea5a 803f 8814 803f
000001b0: 70bc 813f cae7 7d3f da3d 7f3f 06f0 7d3f
000001c0: ed80 813f 727d 7f3f 8a58 803f db8e 7c3f
000001d0: cfcb 7f3f ecd2 7e3f b701 813f cfdc 7f3f
000001e0: 2ca7 7d3f 0019 7e3f 638d 803f f691 7d3f
000001f0: 30fa 7f3f db3a 7f3f 8468 803f eb8e 7f3f
1.0043321 0.9994136 0.9928777 0.9967073 1.007275 0.9967157 1.0016994 0.9999902
0.99682933 1.0038972 0.9995166 1.0107152 1.0099313 0.99608666 1.0032036 0.9974664
0.991275 0.9925029 0.99568313 0.99942 0.99947786 1.0046438 0.991505 0.9979439
1.0014219 1.0009036 0.9960699 0.99872315 0.9994937 0.99776983 0.9880605 1.0081832
1.0006015 0.99807346 1.0079402 0.99410945 1.0080533 1.0015424 0.9968781 0.9960081
1.0018494 0.9944061 0.99812037 0.9948924 1.0023828 1.0008751 1.0030059 0.99900126
0.9944126 0.99888647 0.9938433 1.002043 1.0053853 1.0128372 1.0068333 1.0032359
0.9972614 1.0103277 0.99849623 1.0088071 1.000214 0.99962234 1.0031843 1.0063822
0.9952129 1.0061502 0.99961215 1.0033456 1.0133846 0.9976819 1.0048325 1.0043498
0.9987272 0.9957596 0.99982077 1.0059556 1.0022436 1.0014817 0.9969189 1.0051274
0.9979633 1.0012237 0.99658686 0.99746996 1.000409 0.99895626 1.0091251 1.010143
1.0056058 0.995734 0.9934336 1.0055041 0.9987696 0.99839085 1.0002232 0.99908173
0.99576735 0.9935657 0.99650604 1.0033028 0.99928635 0.993866 0.9994555 0.9964332
1.0084467 0.9932039 1.0027745 1.0006266 1.0135632 0.9918181 0.99703753 0.9919437
1.011747 0.9980079 1.002702 0.9865548 0.9992036 0.9954059 1.0078648 0.999463
0.9908321 0.99256897 1.0043148 0.99050844 0.9999113 0.9969918 1.0031896 0.9982745

bn2.bias f4 [128]
00000000: cb33 2f3b ced8 4ab8 4b46 89bb 347f 4dbb
00000010: db8a 703b 7dea 1bbb 2d8a 00bc a5b7 c8bb
00000020: 7d89 013b 32ec 133b 8a39 1d3b 4a2a 023c
00000030: 9e0a ac3b e68d 6ebb 62ab 903b 3cf7 acbb
00000040: 0221 12bc 516d 33bc 3201 f83a ee41 d5bb
00000050: 6187 41bb 04bb 723a 80b2 15bc b4b1 82ba
00000060: 0a24 d0bb 3d84 45bb e176 5ebb baa2 ee3a
00000070: 9179 10bb 8a71 53bb c3eb deba d16c 313b
00000080: 47bd 02b8 9fac 1ebb 0fc2 eb3a 14be 5ebb
00000090: 2ead bf3b 8f8f abbb 4ed9 8a39 a8c8 05bc
000000a0: 6cb9 833a e300 14bb adb9 ba39 43b2 19bc
000000b0: 6a2b 53ba 5101 dcba a4f5 fc3a 4d23 a33a
000000c0: c622 f0ba d3a7 23bb f2cd e4bb 2b12 c139
000000d0: 0aab 08bc 8b1d aa3b 4a4a 00bb c6cf 963b
000000e0: 987a 22bb 46b7 543b 26b6 26bb af10 2fba
000000f0: 0df4 d6bb dd7f bcba 1120 36bb 535d c339
00000100: aff3 63bb 52d5 853b dc9d 863b 2a55 e4bb
00000110: 0590 d83b 2531 e2bb 405c 4b3b ac05 4bb9
00000120: 6d38 90bb e4f9 d9bb 594a 003b 35b1 9c3b
00000130: 5c3d 633b 8e04 63bb d5ba 1ebb b63c 33bc
00000140: 089c 63ba 5e1f cb3b d211 8d3b fa14 d73b
00000150: c24e 3abb cb91 b7ba 776c 65bb 934c 9e3a
00000160: 4ea8 873b ac51 0cbb 5dd6 80bb d14e 963a
00000170: 99bd c2bb db4d 97bb 2255 b6bb db0b b1bb
00000180: 963c 65bb a8a4 aebb b2e1 9cba 4352 f13a
00000190: ee5f 0e3b 7f46 88ba 9fe1 dcba e312 ffba
000001a0: bdf4 dd3a 4e2d a9bb afa5 a03a e1f4 5cbb
000001b0: e6cc 403b 6ecf 8bbb 763b 6238 09fe b1bb
000001c0: dc92 c73b 1912 c6bb fae3 833b 550d 32bc
000001d0: 151f 143b 2c1c 82ba ca2f 183b 6425 dcbb
000001e0: d76b 93bb 4cad 85bb dc80 4c3b f73b 5dbb
000001f0: 6ffe ad3a 7562 27ba 130f 993a a6a7 85ba
0.0026733752 -4.8362468e-05 -0.004189288 -0.0031356337 0.0036703858 -0.002379089 -0.007845444 -0.0061254078
0.0019765787 0.0022571203 0.0023990595 0.007944653 0.005250289 -0.0036400496 0.0044149617 -0.005278496
-0.0089190025 -0.010951356 0.0018921255 -0.0065081036 -0.0029530155 0.0009259435 -0.009136796 -0.0009971173
-0.0063519524 -0.0030138635 -0.003394537 0.0018206455 -0.0022045115 -0.003226372 -0.0017007518 0.0027072916
-3.1170694e-05 -0.0024211777 0.0017986911 -0.0033987807 0.005849502 -0.0052356194 0.00026483316 -0.008165516
0.0010049767 -0.0022583536 0.00035615024 -0.00938088 -0.00080554804 -0.001678506 0.0019299281 0.0012446434
-0.001832091 -0.0024971857 -0.0069825584 0.00036825365 -0.00834156 0.00519151 -0.001957553 0.0046024052
-0.002479231 0.0032457872 -0.0025438159 -0.0006678206 -0.006559855 -0.0014381368 -0.002779011 0.0003726283
-0.0034782698 0.0040842677 0.004108174 -0.00696816 0.0066089653 -0.006902831 0.0031030327 -0.00019361702
-0.0044012577 -0.0066521037 0.0019575565 0.004781867 0.0034674024 -0.0034640166 -0.0024220247 -0.010939768
-0.0008682613 0.0061988076 0.004305103 0.00656378 -0.002842829 -0.0014005242 -0.0035007277 0.0012077264
0.0041399365 -0.0021410985 -0.003931804 0.0011467581 -0.005943012 -0.0046174354 -0.005564348 -0.0054030246
-0.003497874 -0.005329687 -0.0011969118 0.0018411357 0.002172466 -0.0010396986 -0.0016851908 -0.0019460585
0.00169339 -0.0051628714 0.0012256409 -0.0033715295 0.0029419004 -0.004266671 5.3937976e-05 -0.0054318947
0.006090505 -0.006044638 0.0040249797 -0.010867436 0.0022601534 -0.0009926609 0.0023221844 -0.0067183245
-0.0044989395 -0.0040794965 0.0031204736 -0.0033757666 0.001327468 -0.00063852157 0.0011677466 -0.0010197058

bn2.running_mean f4 [128]
00000000: b43d eebd ec94 3f3d ee80 b33b 011c 923d
00000010: 66c3 08bd 154c f03c 7ba2 06be faa2 5dbd
00000020: 1fb7 32bd d6cf 2bbd ae94 f23d 0c79 c0be
00000030: 0483 763d 48f1 1a3d 79cb e4bd bfb5 643e
00000040: fc90 033e f562 493d f54b 533d 712c e6bc
00000050: 511e c4bd b480 4ebd 3ecd 883e f567 d93d
00000060: bc74 09be 0088 33bd 40a9 903e 88db 90bd
00000070: 6139 94be d4f2 aabc d7f9 99bd 3012 f6bd
00000080: 670a 1ebe 019d 1dbc 7f83 47be 14ae 62bc
00000090: 3ba9 d23c 9a41 acbd d2d7 6a3d 5c76 0c3d
000000a0: 5a8d b5bd 2e1f 2a3e 7280 2d3e 4084 643d
000000b0: 355f 3abd 195b 22be d7d8 abbe 63c5 ebbb
000000c0: a0ab e4bd 085e de3d 72df e6bd caaf 683d
000000d0: f5b3 073e cdfa ba3a 7fe1 0d3e 6580 32be
000000e0: 451a 19be a9e3 e5be b4ef da3b 8ae4 20be
000000f0: fd22 18bc 4300 7cbe 1dab 7dbe 619a 23be
00000100: 7c28 11be 5710 8ebe 2c57 843e e043 c63c
00000110: 5216 4fbe e569 adbd b890 133d 2d2b 8ebc
00000120: db12 8a3c 8f94 60be e5f6 8abd 3f1a 7bbe
00000130: 7bb4 1a3e e0ff 06be e4dc 2d3e 7e92 0abe
00000140: ae42 d43d dcd5 ab3b c0f9 44bd af14 283e
00000150: 8dfa 03be 117f c3bd b729 64bd 4def 543b
00000160: d6a2 30be e3dd e3bb 87bd a0bd f52e 5abc
00000170: aaeb a03d d12a 10bd 9ff4 8abe fd66 33bd
00000180: dc56 3dbe 7e59 bbbd 2272 ffbb 7459 183d
00000190: 8bc7 40bd 91f9 8a3e 2b35 293d 66d2 6e3d
000001a0: 10e6 97bd 3ef3 c33c f6c2 e0bd 87c0 39bc
000001b0: 59ec 4fbe c6f2 b43d 0242 86be f2cb 44bd
000001c0: 1b52 88bd 3d1d 8dbc a75a 11be 1c53 a33d
000001d0: 115d 663e 8c0f 233e b455 5ebe 1c4d 3bbd
000001e0: e7b6 e83d a730 693c bc2b 59bd 8af9 653e
000001f0: 1d44 18be 9f9a a03e ad72 f9bd 6919 523d
-0.11632863 0.046772882 0.005478016 0.071342476 -0.03338947 0.029333154 -0.13147919 -0.054110505
-0.04363167 -0.041946255 0.11844765 -0.3759235 0.06018354 0.03782776 -0.11171622 0.22334956
0.12848276 0.04916664 0.05158611 -0.028097363 -0.09576095 -0.05041571 0.26719087 0.10615531
-0.13423437 -0.04383087 0.28254128 -0.07073122 -0.28950027 -0.020867743 -0.07518356 -0.12015188
-0.15433656 -0.009619952 -0.19483756 -0.013835449 0.025715461 -0.0841095 0.05733473 0.034292564
-0.08864851 0.16613457 0.16943529 0.055790186 -0.045500953 -0.15855063 -0.33563873 -0.007195161
-0.11165547 0.10857779 -0.112730876 0.05680827 0.13252242 0.0014265418 0.13855551 -0.17431791
-0.14951427 -0.44900253 0.006681407 -0.1571218 -0.009285686 -0.24609475 -0.24772306 -0.1597686
-0.141756 -0.2774684 0.25847757 0.024202287 -0.20223358 -0.084674634 0.036026686 -0.017354572
0.016854694 -0.2193167 -0.06785373 -0.24521731 0.1510791 -0.13183546 0.16978794 -0.13532445
0.10364281 0.005244 -0.048089743 0.1641414 -0.12888546 -0.0954572 -0.055703845 0.0032491267
-0.17249617 -0.006953941 -0.078486495 -0.0133168595 0.07857449 -0.035197083 -0.27139756 -0.04379939
-0.18490165 -0.09147929 -0.007795588 0.037194684 -0.0470653 0.2714353 0.04131047 0.05830612
-0.07416928 0.023919698 -0.10974686 -0.011337406 -0.20305003 0.08835368 -0.26222235 -0.04804606
-0.066562854 -0.017225856 -0.14194737 0.07974836 0.2249644 0.159239 -0.2171238 -0.045727834
0.11363011 0.014232791 -0.053020224 0.22458473 -0.14869733 0.31367967 -0.12180076 0.051293764

bn2.running_var f4 [128]
00000000: 625b 383d 06cf 9f3d b31e 973d 6b1b 4a3d
00000010: f1a1 2c3d 3057 853d b69f 393d 38cb 913d
00000020: cd13 903d c639 343d 779e d63d 349a 1d3d
00000030: c2fd 1f3d 6c9f 853d ae81 5d3d 1fab ea3d
00000040: 313f 493d c34d d33d ce2e 893d 7ee0 e63c
00000050: dbd2 a03d 34c9 ef3c 5019 813d 70e8 053e
00000060: a51c a43d f963 043d e566 953d 8cb0 9c3d
00000070: 0fdc b33d 4bba 513d 24be 6f3d b4dd 1b3d
00000080: 7f44 383d be01 af3d 138c 613d 3171 8c3d
00000090: eab0 6a3d a43e 5a3d 7829 973d ff2c 0c3d
000000a0: e852 153d f65d 873d 279d fe3d a4d2 823d
000000b0: 8879 9b3d 5095 c23d d422 8a3d 8ef7 4f3d
000000c0: eaa1 933d 8081 7b3d 5a19 333d 0c8a 933d
000000d0: 7d23 343d 2b5b 0e3d 3d4b e53c f97d 4e3d
000000e0: e37d e03d e658 7d3d eb65 073e a23a 3a3d
000000f0: e8ad fc3c 872d 953d 9e9c 973d edb1 743d
00000100: 8bb2 7c3d 0f81 d53d 94a1 393d dca6 783d
00000110: a5ab 0a3d d40f 5d3d eecb 163d 9811 0d3d
00000120: 3ee0 3e3d b790 c93d 15dd bd3d aeb9 4e3d
00000130: 0c8d 6b3d 65a3 a43d 0abf c43d c768 d13c
00000140: d5fe 243d 0f4a 793d 19a0 593d 42c2 c23d
00000150: 2ab4 ae3d 7b30 813d 9a86 ff3c 8ab2 643d
00000160: 0d8b 483d 0f9d e33d 7a0d 9b3d 4526 233d
00000170: 3868 4b3d d65b 563d 5709 5a3d 623c 1f3d
00000180: 96b1 363d ecd1 873d d530 c63d f382 243d
00000190: be07 653d 99b3 783d ff35 143d fd35 5b3d
000001a0: a68d 4f3d f51c f83d 4371 813d a203 313d
000001b0: 9502 0b3d a978 df3d a14f 8a3d 6b51 293d
000001c0: a09b 1a3d 6d57 a53d 1edc cd3d 16bf 8a3d
000001d0: 89ad 1c3e 0fd7 563d ca47 ec3d 78a0 b23d
000001e0: 5b46 c93d 994d db3d 6326 7d3d f1f9 db3d
000001f0: 7f6e 1e3e 1072 053e f8cf 4f3d 3833 5b3d
0.045009024 0.078031585 0.07378902 0.049342554 0.042146627 0.0651077 0.045318328 0.07118839
0.07035027 0.04400041 0.104794435 0.038477138 0.03906036 0.06524548 0.05407875 0.1145842
0.04913253 0.10317566 0.066983804 0.028183218 0.078527175 0.029270746 0.06303656 0.13076949
0.08013276 0.032321904 0.07295016 0.07650861 0.08782207 0.051203053 0.05853094 0.03805323
0.044987198 0.08545254 0.055065226 0.06857527 0.057297625 0.053282395 0.073809564 0.0342226
0.03645602 0.066097185 0.12432318 0.06387833 0.075915396 0.09501135 0.06744924 0.050773196
0.07208617 0.061402798 0.04372535 0.07204065 0.043979157 0.034754913 0.027989978 0.050413106
0.10961511 0.06185236 0.13222472 0.045466073 0.030844644 0.07284074 0.07402919 0.059739996
0.06169371 0.104250066 0.04532011 0.060706005 0.0338551 0.053970173 0.036815576 0.034440607
0.046600573 0.09842055 0.09270684 0.050470047 0.05750756 0.080389775 0.0960675 0.025562657
0.04028209 0.060861643 0.053131197 0.09509708 0.08530457 0.06308075 0.031192113 0.05583433
0.048960734 0.11113941 0.0757093 0.03983142 0.049659938 0.052333675 0.053231563 0.038875945
0.044602953 0.06631836 0.09677283 0.040163945 0.055915587 0.060718153 0.036184307 0.053518284
0.050672196 0.12114898 0.06320431 0.043216355 0.03393801 0.10911686 0.06753469 0.04133741
0.03774607 0.08073316 0.1005175 0.06774728 0.15300573 0.05245119 0.1153713 0.08722013
0.09827872 0.1070816 0.061804187 0.10741032 0.15471838 0.13031793 0.050735444 0.053515643

conv3.weight f4 [128, 128, 3, 3]
00000000: ec92 c6bc a077 423b ebfc cd3c 0c26 dabb
00000010: 8e3a 30bc 925b e1bc 2637 3abb 69bc 7b3b
00000020: 081f 8abc 7447 2abc fba0 c8bc aff9 ab3c
00000030: daa4 ccbb 2644 8dba 3dcf c6bb 94fc 033d
00000040: 2344 98bc 328e fe3c 3bae a6bc d911 173b
00000050: 59ee 383c dfcf 133b 3a9f 8d3c 6d68 4ebb
00000060: 1e8f 893c 84c3 eebc 1be4 843a c67d f8bb
00000070: 2f5c 553b c5f1 393b a0a4 fdbb 4528 7b3c
00000080: 3592 82bc f8a0 f23b d687 ef3c c9b9 6dbc
00000090: 8489 cc3c dbf0 e43b 5a4f b3bc ef98 753c
000000a0: d0ff bd3b 8520 fa3c 9d43 81bc 57e2 4fbb
000000b0: dbce 503c 93b2 d63c 5265 06bd 220f ed3b
000000c0: a4c3 953c 5a19 9f3a fa37 46bc 2cf4 efbb
000000d0: 1f4c aabb 5d28 5d3c 956e 55bc d352 993c
000000e0: 9f3c ebbc b3b6 fd3b 2800 85bc 52c0 2d3c
000000f0: 9deb 6a3c 1f00 7b3c 09a1 093b cfbb d53b
00000100: cee2 c73c c8f5 2d3c 178d 663c fef1 4c3b
00000110: 062c 26bc b751 573c 86df 353c 26f0 883c
00000120: 2c13 9fbc 4989 01bd fa34 0fbc 5736 b7bc
00000130: e5a2 f43c c19d 913c 26b4 053d 66b0 a53c
00000140: 93eb d33c 1083 b93c e06e 85bc 11f6 7fbc
00000150: e83d 613c 461b 653c 622e 993c ac07 87bc
00000160: 234a ecba 50dc 6bbc cf29 a73b 2d45 eebb
00000170: c5ad bc3c f6e0 f2bc 243e 223c 38de a9bc
00000180: 983c 2bbc 76da debb 26a9 a03b bc10 a53c
00000190: 2a2f dbbc 89dd 8cbc dc93 9d3b 8e7b 933c
000001a0: 4266 80bc 1f61 2e3c 2daa 83bc b659 3f3d
000001b0: 65ff 00bc fe34 afbc d8c6 243c 78e1 70bc
000001c0: c3c4 5cbc 9a08 75bb 998d 093c 124e 7fbc
000001d0: a3c4 a1bc 4ea1 043c ee4e b7bb 5a2f c33c
000001e0: 5780 d43b 4ea0 73bb 4732 513c c60a 413c
000001f0: 393b c0bc d5e1 ad3c 49fb 92bc 0c9d aebc
00000200: 5a60 95bc 1174 aebc d0ca f93b 509d be3c
00000210: f373 71bc cbe3 a33c 6895 053d 9c8a debc
00000220: a60c ee3c b17d f63c 4704 713c dddd fe3b
00000230: f725 9b3b 8e45 aabb 37fd 473c 5326 a83c
00000240: 16c5 9bbc 0feb e9bb 426f fe3c 3367 803a
00000250: 2d42 cdbc bb8d cebc 7957 e63b 516d 90bb
00000260: 72a8 273c 43b0 903c 3c9e faba 9dc5 283c
00000270: 40a9 00bb 943d 773c 84ee 5a3b d5ab 5c3a
00000280: f4fe f3bc c2b4 723c 8dc4 8e3c 8495 993c
00000290: 4311 80bc 6f6b d53c 1dd7 c4ba 2ff5 7dbc
000002a0: 3c20 403c 3d29 9f3b 7736 013d cf41 973c
000002b0: 9193 9b3c 9078 473c 236d cb3c 2e77 fdbc
000002c0: 666a 09bc 8079 143c 5c5e 54bb a092 6d3c
000002d0: 87b7 de3c ae48 9d3c 0aff a53c 5c92 acbc
000002e0: 9f60 163c 7ebe 6ebb 5a0b b23b 2e85 203c
000002f0: 1afe 293a a58c c2bc ca98 debc b759 273c
00000300: 331a d63c 90a8 d9bb 4205 a8bc 28cd d13c
00000310: d3ed 0dbc c344 e2bb 4225 01bc 16b9 23bc
00000320: fb3b 933c 6820 6e3c 6301 acbb a332 a23b
00000330: 57b7 393c 12ff bfbc 1fc3 b53b 8db3 b4bc
00000340: 61b6 f2bc 75c3 b2ba 6b2f 6c3c 57c0 a5ba
00000350: c0c8 c03c 1c9f d93c 02c1 afbb 373b 07bd
00000360: bbb8 803b ac4c 78bc 63bb 23bc 2272 82bc
00000370: 764b 82bc 2b1e c5bc cb23 553c ffc8 8bbc
00000380: eb5f de3c 971a e83b 0e87 a43c 9a39 d23c
00000390: 3229 71ba 3f4c 2cbc edde 06bc 9592 d1bb
000003a0: 7ef3 a33b cead 593b 477f 9b3b 0d31 e03b
000003b0: 5ad5 913c aa83 b0bc 9e6a e03c 2f83 0fbc
000003c0: a222 70bb 59d1 b53c b95d 86bb caea 40bb
000003d0: 436c 6b3c 314c d73c abb0 a6bb 01f3 1a3b
000003e0: af96 983c 148b 49bc 6cff 91bc 0909 7f3c
000003f0: a29b c5bc 1dde 76bc 6fc9 babc 05b5 9e3c
-0.02423998 0.0029673353 0.025145015 -0.0066573676 -0.010756148 -0.027509484 -0.0028414219 0.0038411862
-0.0168605 -0.010393012 -0.024490824 0.020993082 -0.006245238 -0.0010777756 -0.006067185 0.0322233
-0.018587178 0.031073663 -0.020346751 0.002305141 0.011287295 0.002255432 0.01728784 -0.0031495348
0.016791876 -0.029145963 0.0010138782 -0.0075833527 0.0032556166 0.0028372866 -0.007740572 0.015329425
-0.015938858 0.007404443 0.029239576 -0.014509627 0.024967916 0.00698672 -0.021888424 0.0149900755
0.0057983175 0.030533085 -0.01577931 -0.0031720602 0.012744631 0.026208198 -0.03281147 0.00723447
0.018281765 0.0012138293 -0.012098307 -0.0073228087 -0.0051970626 0.013498393 -0.013026853 0.018716251
-0.02871543 0.0077427267 -0.016235426 0.010604935 0.014338401 0.015319853 0.0021000525 0.0065226327
0.024400141 0.010617681 0.014071724 0.0031272168 -0.010142332 0.013142041 0.011100655 0.016716074
-0.019418322 -0.031625066 -0.008740658 -0.022364778 0.02986283 0.017775418 0.032642506 0.020225715
0.025869166 0.022645503 -0.01628822 -0.015622632 0.01374767 0.013983553 0.018698875 -0.01648315
-0.0018027466 -0.014395788 0.0051014195 -0.00727143 0.023032079 -0.029648285 0.009902511 -0.020735845
-0.010451458 -0.006800945 0.0049029766 0.020149581 -0.026755888 -0.01719548 0.004808886 0.018003251
-0.01567376 0.010643273 -0.016072357 0.046716414 -0.007873391 -0.021387573 0.010057174 -0.014702193
-0.013474646 -0.003738916 0.008395576 -0.015582578 -0.019747084 0.008095099 -0.005594126 0.02382629
0.006485026 -0.0037174406 0.012768335 0.011782354 -0.02346574 0.02122585 -0.017942088 -0.02131512
-0.01823442 -0.02129558 0.007623054 0.023268372 -0.014737117 0.020006081 0.032613188 -0.027165703
0.029058766 0.030089231 0.014710492 0.007777913 0.0047347504 -0.00519628 0.012206367 0.020526087
-0.019014876 -0.007138617 0.031058911 0.0009796381 -0.02505597 -0.025214067 0.0070294705 -0.004407563
0.010233032 0.017662173 -0.0019120644 0.010301021 -0.001963213 0.015090365 0.0033406327 0.0008417939
-0.029784657 0.014813604 0.017427707 0.018748052 -0.015633231 0.026052205 -0.0015017722 -0.015500351
0.011726435 0.004857211 0.031546082 0.018463997 0.018991264 0.01217474 0.024832314 -0.030940618
-0.008387184 0.009062171 -0.0032404875 0.01450029 0.027187122 0.019199695 0.020263214 -0.021065883
0.00917831 -0.003642946 0.005433482 0.0097973775 0.00064847025 -0.023748705 -0.027172465 0.010214261
0.02613554 -0.0066424087 -0.02051032 0.025610521 -0.008662659 -0.0069051697 -0.007882418 -0.009992858
0.017972937 0.014534093 -0.0052491887 0.004949884 0.0113352155 -0.023437057 0.005546942 -0.022058273
-0.02962798 -0.0013638573 0.014415602 -0.0012645823 0.023533225 0.026565127 -0.0053635845 -0.033015456
0.0039282716 -0.015154999 -0.009993407 -0.015923563 -0.015905123 -0.024062237 0.013009022 -0.017063616
0.027145347 0.007083248 0.02008393 0.025662232 -0.0009199559 -0.010516225 -0.008231861 -0.006395648
0.0050033918 0.0033215168 0.0047453973 0.006841785 0.01780193 -0.021547157 0.027394589 -0.008759304
-0.0036641737 0.022194551 -0.004100528 -0.002943682 0.014369073 0.026281448 -0.0050869784 0.0023643377
0.018626539 -0.012301225 -0.01782199 0.015566119 -0.024122063 -0.015067604 -0.02280113 0.019373426

conv3.bias f4 [128]
00000000: 220e c5bc 9a48 b5bc 9d3b a43c bfeb abbc
00000010: d77b a03b c2f0 c93c 8b62 98bc 6bef 813c
00000020: 5688 c13b c55e b6bc 454a b53c 1d60 e6bb
00000030: b08a 2dbc acee b93c 6a15 5a3c d854 8bbc
00000040: 7d2b bebc 9b81 eb3c 7ed8 593c 9bee adbc
00000050: 7b3b 7c3b d4ec 9a3b 07c1 e5bc 63de ed3a
00000060: ee90 c4bc 0626 183b 310b 08bc 5a73 59bc
00000070: 41bb 903c a2a9 22bc 334a d43c 084d adbc
00000080: cb56 1b39 c4a2 c9bb c25c 0dbc 27d5 99bc
00000090: 5be2 b139 a596 ae3c 4376 59bb 8790 7339
000000a0: 2fbf bd3c 2586 8fba d738 aabb 18a9 bfbc
000000b0: 0057 a23b 4a84 85bc 05f9 193a 6bac 8dbc
000000c0: 1a84 b03c c12f 86bc 54ca 073c 6918 61bc
000000d0: 58be 273c b7f3 753c 8960 0c3b d467 043b
000000e0: da49 60bc e930 c53c b5ae c43c 2cb9 68bc
000000f0: 886f 483b 9fca 82bc 8bd2 5a3c 15f9 bcbc
00000100: e155 203c 16c5 c7bc a7bd eb3c 984e a23c
00000110: 9b9c 8fbc 07d5 6dbb cb76 8b3c aa6f 46bc
00000120: 2c85 23bc 0f8d afbc 69cf 073c 6ddd 5abc
00000130: 1479 43bc f9d1 e3bc 0747 dc3c 6ec4 fc3b
00000140: 9253 83bc 6fb5 dbbc 4411 ac3c 13ab db3c
00000150: 2f1d c8bc 7924 b1bc 095f cdbc ecfa 32bc
00000160: 9423 ad3c da2b 26bc 270b b1bc 0977 bf3c
00000170: f4a5 c33b e109 bdbc e811 aabc 275d b5bb
00000180: 29e5 cb3c 4cd3 c1bc 38c2 363c 6c4e 923c
00000190: 2ce0 403c 4d93 993c 5bf3 71bc 0259 ccbc
000001a0: 5d10 6ebb f91f 0f3c aabe d0bc 1e1e 36bc
000001b0: a373 093c 0c16 11bc 4042 9c3c ab3c a4bc
000001c0: 1b00 453c 8b6c c33c 5033 a7bc 451a 6ebc
000001d0: 2d15 e2bc 5b4a 613c 64a4 20ba 44a2 ad39
000001e0: fca6 57bb 83cd a5bc 3d8d 453c 5632 aabc
000001f0: 1827 fb3b ab70 583c b785 503b 1f5d c1bc
-0.02405459 -0.022129346 0.020047957 -0.020986436 0.0048975754 0.024650935 -0.018601676 0.015861234
0.005906145 -0.022261987 0.022130141 -0.0070305006 -0.010592148 0.022696815 0.01331077 -0.01700823
-0.023214096 0.028748324 0.013296245 -0.02123194 0.0038487602 0.004727939 -0.028046144 0.0018147941
-0.02399489 0.0023216023 -0.0083034495 -0.013272131 0.017667415 -0.009928139 0.025914287 -0.021154895
0.00014814285 -0.0061534364 -0.008628072 -0.018778397 0.0003392872 0.021312067 -0.0033182062 0.00023228127
0.023162453 -0.0010950012 -0.005194764 -0.02339606 0.004954219 -0.016298432 0.00058735936 -0.01729413
0.021547366 -0.016380193 0.008287985 -0.01373873 0.010238253 0.015011719 0.0021419844 0.0020203488
-0.013689483 0.024071174 0.024009088 -0.014204305 0.0030584056 -0.015965758 0.013355861 -0.02306799
0.0097861 -0.02438597 0.028776957 0.019812867 -0.01753073 -0.0036290304 0.017024418 -0.012111584
-0.009980481 -0.021429567 0.0082891965 -0.013358456 -0.011930723 -0.027810084 0.026889337 0.007713846
-0.01603106 -0.026819913 0.021004327 0.026814973 -0.024427978 -0.021623837 -0.02506973 -0.010924082
0.021135129 -0.010142291 -0.021611763 0.02337219 0.005970711 -0.023076 -0.020760491 -0.0055347863
0.024889546 -0.023660325 0.011154704 0.01785966 0.011772197 0.018746996 -0.014767493 -0.024944786
-0.0036325671 0.00873565 -0.02548154 -0.011115579 0.008389386 -0.008855354 0.01907456 -0.02004846
0.012023951 0.023855468 -0.02041021 -0.01453263 -0.027597988 0.013750638 -0.0006128012 0.0003311803
-0.0032905927 -0.020239597 0.0120576 -0.020775955 0.0076645724 0.013210456 0.0031817982 -0.023603974

bn3.weight f4 [128]
00000000: d3ed 863f b646 853f 9d58 883f d4b6 873f
00000010: 165b 893f 647f 883f 65c0 813f 930a 843f
00000020: 1b36 7f3f 8f62 883f 757a 883f bd9e 863f
00000030: 9017 873f e169 883f 8478 873f 2a3c 833f
00000040: b781 863f d816 873f ecf6 873f 6515 833f
00000050: 7044 893f dc23 853f 3946 813f 227a 873f
00000060: 6153 883f 8db2 843f e5eb 873f 4678 833f
00000070: 3ac7 873f 3b7a 873f 65c0 873f 3203 883f
00000080: fd6a 873f 4bff 863f 3d9f 863f 2a52 893f
00000090: 1d42 863f 86a2 873f 33de 873f 9f42 883f
000000a0: 81de 813f 2f72 813f 0c85 883f 7cbb 843f
000000b0: 2545 863f f008 863f 8149 873f 50ef 863f
000000c0: 74d3 863f ad7b 833f 3753 843f e1ec 833f
000000d0: 385d 853f cb47 833f f448 873f 19ed 853f
000000e0: e694 833f 2829 823f 0c5c 883f facb 853f
000000f0: ea5c 883f 9214 843f ca1e 853f dff0 863f
00000100: 3660 873f 81b9 893f d70c 863f 1e5c 883f
00000110: de58 863f 2a45 813f 79e3 873f 121a 803f
00000120: 62b6 873f c7f1 873f a201 883f 5814 893f
00000130: aee0 873f 276c 843f d9b7 873f b9fe 843f
00000140: f15e 873f d2c1 863f 1033 873f 5ddc 863f
00000150: ce23 833f ea9c 833f c266 883f be17 883f
00000160: a7e4 823f fdb9 843f 367a 863f 742a 893f
00000170: 8355 833f c6a8 833f 3892 873f ed0e 863f
00000180: 6fde 7f3f 9ed1 873f 60c0 843f 0437 863f
00000190: e451 863f 0964 883f af6a 853f e219 863f
000001a0: fa0d 853f 78f6 873f 7207 853f 4b2c 823f
000001b0: 8794 823f 9036 853f 7097 853f 971d 853f
000001c0: 9d78 883f ae8b 863f a611 873f b444 843f
000001d0: c1ad 873f 7c50 873f b6b5 873f 009a 823f
000001e0: 9d0d 863f 756a 813f 58b5 823f bbc9 883f
000001f0: 89db 863f 486d 7f3f e884 863f 668b 863f
1.0541328 1.0412204 1.0652043 1.060267 1.0730922 1.0663877 1.0136839 1.0315727
0.99691933 1.0655078 1.0662371 1.0517193 1.0554066 1.0657312 1.0583653 1.0252736
1.0508336 1.0553846 1.062223 1.0240904 1.072401 1.0401568 1.0099555 1.0584147
1.0650445 1.0366989 1.0618864 1.027108 1.0607674 1.0584177 1.0605589 1.0625975
1.0579525 1.0546659 1.0517346 1.07282 1.0488926 1.0596473 1.0614685 1.0645331
1.0146028 1.0112971 1.0665603 1.0369716 1.0489851 1.0471478 1.0569307 1.0541782
1.053328 1.0272118 1.0337895 1.0306665 1.0419073 1.0256284 1.0569139 1.0462981
1.0279815 1.016881 1.065309 1.0452874 1.0653355 1.0318778 1.0400021 1.0542258
1.0576236 1.0759736 1.0472668 1.0653112 1.049587 1.0099232 1.0616294 1.0007956
1.0602534 1.062066 1.0625498 1.0709333 1.0615442 1.0345505 1.0602981 1.0390235
1.0575849 1.0527899 1.0562458 1.0536 1.0245302 1.0282261 1.0656359 1.0632246
1.0226029 1.0369259 1.0506046 1.0716081 1.0260471 1.028588 1.0591497 1.0473305
0.9994878 1.0610845 1.0371208 1.048554 1.0493741 1.0655528 1.0423182 1.0476649
1.039489 1.0622091 1.0392897 1.0169767 1.0201577 1.0407276 1.043684 1.0399655
1.0661808 1.0511377 1.0552261 1.0333467 1.05999 1.0571437 1.0602329 1.0203247
1.0472904 1.0110613 1.0211592 1.0686563 1.0535747 0.99776125 1.050931 1.0511291
