src/trained_models/model_corvette_positron_max.pth (torch, 908205 bytes, 20 tensors)

conv1.weight f4 [64, 2, 3, 3]
000000 c2 1b 22 be 7b d5 cd 3d 08 cf 16 3d 28 c2 b1 bc
       -0.15830901 0.10050484 0.036818534 -0.021699026
000010 5f d3 34 3e 7d 82 47 3d c3 4c 50 be 11 08 61 be
       0.17658757 0.048708428 -0.20341782 -0.21975733
000020 71 23 82 3d 90 e6 bd 3d 03 17 01 be 42 0e 30 be
       0.06354416 0.09272492 -0.12606435 -0.17192939
000030 db c8 38 be b2 6b fe 3d 8c 6d 34 be d8 6e 0e bd
       -0.1804537 0.12422885 -0.17619914 -0.034773678
000040 14 af 56 3d 38 ec 44 be 89 c0 17 be 86 76 ee bd
       0.05241306 -0.19230735 -0.1481954 -0.116437
000050 3a 34 f5 3d 37 b3 14 be 84 e2 99 bd 6c 36 55 be
       0.11972852 -0.1452149 -0.075139076 -0.20821542
000060 a4 cd 1a be 27 4d d9 3c e3 ed 2e be de 6a c6 3d
       -0.15117508 0.026526047 -0.17082934 0.09688352
000070 e0 ee 30 3d 20 7b 4d be 84 20 3e bd 4c 99 e0 bd
       0.04319656 -0.200665 -0.046417728 -0.10966739
000080 90 2c 2a 3e 15 48 58 bd 31 fc 30 bd 6f 77 e9 bd
       0.16618562 -0.052803118 -0.04320926 -0.11399733
000090 15 4f 13 be ff a4 b4 bd 2c 13 a1 3d e0 93 49 be
       -0.14385636 -0.08820533 0.07864985 -0.19685316
0000a0 c3 66 23 be 58 d2 27 3e 99 5e 00 bb 68 3c cd bc
       -0.15957169 0.16388834 -0.0019587635 -0.025053218
0000b0 da 25 4d be 3e 15 07 be 51 13 da bd 5c 16 22 3e
       -0.2003397 -0.13191697 -0.106482156 0.15828842
0000c0 e3 d3 e7 3d 32 22 fd bd 30 6e 8a bc 9c 68 44 be
       0.11319711 -0.12360038 -0.016898245 -0.1918053
0000d0 3e b9 82 bc 99 0c 58 be 7c 80 39 be 6c ae b3 3d
       -0.015957471 -0.21098556 -0.18115419 0.08773503
0000e0 b8 14 36 be 61 7f 5b be 29 9e 7c 3d 83 d2 36 be
       -0.17781341 -0.2143531 0.06167427 -0.17853741
0000f0 99 40 70 3d b5 cd 1b be f0 b1 58 3e 01 aa 1f 3e
       0.058655355 -0.1521519 0.21161628 0.15592195
000100 bb e9 05 3e 68 1f 6f be 51 e1 5e be a1 30 13 bd
       0.13077442 -0.23351824 -0.21765639 -0.035935048
000110 82 71 17 be 6f 5e 46 be 97 54 7b bb 05 93 51 3b
       -0.14789394 -0.19371961 -0.003834998 0.00319785
000120 18 70 eb 3d 56 98 39 3e 70 ee 2b bc 5c 1b d1 bd
       0.114959896 0.18124518 -0.01049386 -0.102102965
000130 6b 4b 71 3e cd 2c 37 be a9 21 b1 3d eb 92 f7 3d
       0.23563926 -0.17888184 0.08648998 0.12088569
000140 57 44 40 3d 1d be 41 3e 53 b7 46 3e 5e b4 4e 3d
       0.046940174 0.18920179 0.1940587 0.05046498
000150 17 99 2f be a9 a2 55 be 93 05 7d bc f7 a0 67 be
       -0.17148243 -0.20862831 -0.0154432235 -0.22619997
000160 60 6d 63 3d b9 c7 40 3d ae 1d 4a 3e 95 06 f8 bc
       0.05552423 0.04706547 0.19737884 -0.030276576
000170 7d ef 55 3e 0a 14 76 3d ba f4 6e be f6 61 b7 bd
       0.20892139 0.060077704 -0.23335543 -0.089542314
000180 77 ce 6c 3e 8c 32 da 3c 84 b0 c7 3d 3a b8 6b 3d
       0.23125635 0.02663543 0.097504646 0.05754874
000190 74 0b 01 be 3d e9 d5 bc 8e cf 06 3d 45 10 a9 3d
       -0.12602025 -0.026112193 0.032912783 0.08255056
0001a0 b4 88 97 bd 1c 10 28 be 01 0a 24 be 28 ab 70 3e
       -0.07399121 -0.16412395 -0.16019441 0.23502791
0001b0 60 88 5a be 73 a1 ef bd 83 9e 80 3c 55 fa 00 be
       -0.21341085 -0.11700716 0.015700584 -0.12595494
0001c0 a2 bf 63 3d 86 32 5f be 30 38 cc 3c d8 06 3c be
       0.055602677 -0.21796617 0.024929136 -0.18361986
0001d0 37 7d 3c 3e ab 4f 24 3e 89 8f f7 bd 3b a5 ee bd
       0.1840714 0.16046016 -0.12087924 -0.11652609
0001e0 e5 07 49 be 98 47 8a bc cb ab 96 bc 0a a2 69 3e
       -0.19631918 -0.016879842 -0.018392464 0.22815719
0001f0 46 c2 0c be e0 9a bd 3b 74 ee 5e bd 45 6e 34 be
       -0.13745984 0.005786285 -0.054426625 -0.1762019
000200 3f ff b4 bd 6e 90 6e 3d fb 64 16 3e bd af 1f b8
       -0.08837747 0.058243208 0.14686958 -3.8072223e-05
000210 b7 b3 39 bd 82 af e6 bc ac ca 14 be 9c 68 51 3e
       -0.045337405 -0.02815986 -0.14530438 0.20450062
000220 bb c8 2f be b5 fd 1e be 78 ab 55 3e 28 9a d3 bc
       -0.17166416 -0.15526469 0.20866191 -0.025830343
000230 75 83 19 be 0b e3 bd bd 04 79 6b 3e 4b 05 a2 bc
       -0.14991553 -0.09271821 0.22995383 -0.019777915
000240 a3 00 ad bd 88 d5 21 bd 9b 4c 1b 3e a9 2f 13 be
       -0.08447387 -0.03951028 0.15165941 -0.1437365
000250 8e 43 19 3d ea 07 82 bd 0c e3 44 be dc 4a 0e be
       0.03741794 -0.06349166 -0.19227237 -0.13895744
000260 9d 17 ec bd 76 b7 53 3e f4 d5 40 3c 27 2c 21 3e
       -0.115279414 0.20675454 0.01176976 0.15739499
000270 99 b2 17 3d d7 81 a5 bc fe 52 48 be 5d 8b 36 be
       0.03703556 -0.020203514 -0.19562909 -0.178266
000280 46 5e 6f 3e 93 26 4d 3e ff 93 9c bd ff c6 5c bd
       0.23375806 0.20034246 -0.076454155 -0.053900715
000290 17 11 6c be e1 54 f7 3d 3e 52 ff bd 7c a8 2b 3e
       -0.23053394 0.12076736 -0.12466858 0.1676349
0002a0 63 25 74 be f6 65 49 3e 2b fc 3f be 3f d4 53 be
       -0.23842387 0.19667801 -0.18748538 -0.20686434
0002b0 02 bb ab 3d 4a e5 ba bd 09 58 0b 3d 4f 41 4b be
       0.08385278 -0.09125765 0.034019504 -0.19849132
0002c0 59 cb 3e 3e eb 5d 23 bd 37 b6 36 be a7 84 13 3e
       0.18632258 -0.03988449 -0.17842947 0.14406072
0002d0 d6 f0 f2 bd 1f b7 39 be b7 ad 09 3c 93 98 88 3d
       -0.11862342 -0.18136261 0.008403233 0.06669726
0002e0 a2 19 38 bc ab 0b 95 3b 50 cc b0 bd b7 fd 1c 3e
       -0.01123658 0.00454851 -0.086327195 0.1533116
0002f0 7b 47 f3 3c d5 19 4e bc 18 77 a9 3d b0 77 fe 3d
       0.02969717 -0.012579401 0.082746685 0.12425172
000300 8d fd f7 bd 1d 3c d5 3d 10 31 5f 3e a6 b5 1e 3d
       -0.12108908 0.10411856 0.2179606 0.038747452
000310 5b ab 6c 3e 1c 61 b5 3d c6 55 40 bd 13 e7 ff 3a
       0.23112242 0.08856413 -0.0469568 0.0019523822
000320 e7 01 78 be 63 45 c9 3d c3 7b 25 3d 14 88 5c 3c
       -0.24219476 0.098276876 0.04040123 0.013460178
000330 41 f8 47 bd f1 57 23 be 5f 28 32 3e 47 4f 65 3e
       -0.048820738 -0.15951516 0.17398213 0.22393523
000340 01 fe 6c 3e 67 51 71 be a4 e3 0d 3e a7 31 62 be
       0.2314377 -0.23566209 0.1385637 -0.22089253
000350 80 15 69 bd 5f cf c9 bd 3f 70 88 ba 08 aa 40 be
       -0.05690527 -0.09854006 -0.0010409429 -0.18814862
000360 0b b5 23 3e a4 4c 3c be 74 8d 74 be a2 eb 68 3e
       0.15987031 -0.18388611 -0.23882085 0.22746137
000370 c3 4c 23 bd ef 12 2f be cb ad 02 be 21 1c 2b 3e
       -0.039868128 -0.17097066 -0.1276161 0.16709949
000380 f9 7d 3a 3e 7d c5 5f bd 13 29 bd 3d d4 ff 8d bc
       0.18212117 -0.0546317 0.0923635 -0.017333902
000390 0e 92 b8 bc 5d d0 08 be 9f 77 43 bd 63 53 01 3e
       -0.022530582 -0.13360734 -0.0477215 0.12629466
0003a0 d7 91 5e bd 1b b0 a9 3d 7d 81 58 be 97 9b 68 bb
       -0.054338302 0.082855426 -0.21143146 -0.003549313
0003b0 51 0d a4 bc d3 51 83 bd 96 b4 11 3e 32 52 3f be
       -0.020025881 -0.06412091 0.14229044 -0.18683699
0003c0 21 75 60 3d ae 46 49 3d 75 3c 38 3e 02 89 30 be
       0.054799203 0.04913967 0.17991813 -0.17239764
0003d0 5d 02 87 bd 7e 68 3a be 20 91 80 3d 3e 4b 19 3e
       -0.06592248 -0.18203923 0.062776804 0.14970109
0003e0 70 6e 59 3e eb 66 10 3e e6 63 3a be 8c c0 1a 3e
       0.21233535 0.1410176 -0.1820217 0.15112513
0003f0 1c 5d 99 bd f5 ae 1a be 63 2e 20 be 54 dc 78 be
       -0.07488462 -0.15105803 -0.15642695 -0.24302799

conv1.bias f4 [64]
000000 61 4a a6 bd eb 9f 3c 3e b3 84 0c 3e 34 7e 58 3e
       -0.081196554 0.18420379 0.13722496 0.21141893
000010 ff fa 8f ba 90 50 11 be c9 a5 47 3e 0f 29 52 be
       -0.0010984837 -0.14190888 0.19496836 -0.20523475
000020 16 db 41 3d 3b 4f 68 bc 69 a1 e5 3b c1 14 6f be
       0.047328077 -0.014179046 0.007007767 -0.2334776
000030 e6 87 26 be c3 bb 2e be 82 28 6b 3e 7e e5 22 bd
       -0.16262779 -0.17063813 0.22964671 -0.039769642
000040 f3 ab 24 be 5d de 5f be 35 62 3b be ac 0c 20 be
       -0.16081218 -0.21862169 -0.18299182 -0.15629834
000050 b0 4e 46 3e 90 71 4c be 43 1f ee 3d 59 5a e0 3c
       0.19365954 -0.19965196 0.116270564 0.027386831
000060 ac ce 8d 3b 80 05 3d be cf 4a f0 3d 37 dd 69 3e
       0.0043276157 -0.1845913 0.117330186 0.22838293
000070 0a a3 91 bd 83 b0 0d be 76 36 03 bd da f3 06 3d
       -0.07111175 -0.13836865 -0.03203436 0.0329474
000080 78 77 45 be 56 83 3c 3d cd 92 3c be e2 99 49 3e
       -0.19283855 0.04602369 -0.18415375 0.19687608
000090 1c 13 5f 3e cf e8 bf bd c4 1c 32 3e 51 a3 25 be
       0.21784633 -0.093705766 0.17393786 -0.16175582
0000a0 5d 2c 25 3e 18 6c cd 3d cf 31 40 3e 65 76 46 bb
       0.16130204 0.10030383 0.18769 -0.003028297
0000b0 5b b9 9f 3c ac be c6 bc 84 7e 2c 3d da 1b 3f 3e
       0.019497564 -0.024260841 0.042112842 0.18662968
0000c0 8a 54 3d 3e 4c 91 98 bd 46 d9 de bd 91 eb 07 bd
       0.1848928 -0.07449588 -0.10881285 -0.033183638
0000d0 7d f7 bd 3d f4 0d 28 3e 02 d3 eb bc 12 3c b4 3c
       0.0927572 0.16411573 -0.02878714 0.0220013
0000e0 e3 39 6a 3e c1 16 d5 bd e8 7d 94 bd 98 72 1f bd
       0.22873645 -0.104047306 -0.07250577 -0.038927644
0000f0 21 48 a6 3d f4 7e 5f be 59 2d 6a 3e 54 d2 7d bb
       0.08119226 -0.21825773 0.22868861 -0.0038730102

bn1.weight f4 [64]
000000 55 aa 7f 3f e1 51 81 3f 72 de 80 3f 50 97 7f 3f
       0.9986928 1.0103112 1.0067885 0.9984026
000010 9d eb 7e 3f 7e 62 7e 3f 6a e8 7f 3f ce d1 80 3f
       0.9957827 0.9936904 0.9996401 1.0064027
000020 3f bb 81 3f 3f 99 7f 3f 03 c6 7f 3f e2 9b 7d 3f
       1.0135268 0.9984321 0.99911517 0.99065983
000030 f0 7a 7d 3f 3e 44 80 3f 8c f4 80 3f b2 64 7f 3f
       0.9901571 1.0020826 1.007463 0.99763024
000040 7f 81 80 3f 02 a3 7e 3f ab f9 7f 3f 26 b3 80 3f
       1.0039519 0.9946748 0.9999034 1.0054672
000050 1c aa 7f 3f 10 24 80 3f d3 08 80 3f 1a 9b 80 3f
       0.9986894 1.0011005 1.0002693 1.0047333
000060 d3 ad 7f 3f 6c 84 81 3f 7d fd 7e 3f 37 cb 7e 3f
       0.9987461 1.0118537 0.9960554 0.9952883
000070 84 c5 7e 3f 0d 04 7f 3f 35 32 80 3f e9 93 7e 3f
       0.99520135 0.99615556 1.0015322 0.99444443
000080 75 9f 7f 3f ca 14 80 3f 7d 60 80 3f 92 ba 7e 3f
       0.9985269 1.0006344 1.0029446 0.99503434
000090 42 fc 7e 3f a8 67 80 3f 54 06 80 3f 00 25 7d 3f
       0.99603665 1.0031633 1.0001931 0.9888458
0000a0 29 6c 7f 3f 7c 63 81 3f ad bf 7e 3f ec 05 80 3f
       0.99774414 1.0108485 0.99511224 1.0001807
0000b0 1c 8a 7c 3f 08 40 7e 3f 1f 47 80 3f 91 44 7f 3f
       0.9864824 0.99316454 1.0021704 0.99714
0000c0 38 e6 81 3f b5 e7 7e 3f ab 18 7e 3f cc fe 80 3f
       1.0148382 0.99572307 0.9925639 1.0077758
0000d0 ea 43 7f 3f e3 f4 80 3f 77 08 80 3f 0e 18 7e 3f
       0.99713004 1.0074733 1.0002583 0.99255455
0000e0 45 1d 80 3f dd f6 80 3f b5 e3 82 3f 14 29 80 3f
       1.0008932 1.0075337 1.0225741 1.0012536
0000f0 ab b8 7e 3f df e8 7f 3f 3f 34 80 3f 5b 21 7f 3f
       0.9950053 0.9996471 1.0015944 0.9966027

bn1.bias f4 [64]
000000 a9 de dc bb 1b b8 97 3c f8 a9 4b 3c 7c 35 19 3c
       -0.0067404103 0.018520406 0.01243066 0.009351131
000010 3d a7 05 bb 2d a6 cd bb 19 63 f2 3b d0 3e 82 3b
       -0.0020393871 -0.006275913 0.0073970673 0.003974773
000020 b4 3f 8f 3c 7f 0c 74 3b 72 a7 f4 3a e7 4b cc bb
       0.01748643 0.0037238894 0.0018665625 -0.006234634
000030 8e ff 66 bc e3 b2 9b 3b ec 55 f6 3b 71 fa 63 3b
       -0.014099015 0.0047515496 0.007517567 0.0034786726
000040 98 c5 e7 3b f3 74 a2 3b 1a a3 4a bb a2 c0 c0 3b
       0.0070731156 0.004957789 -0.003091997 0.0058823386
000050 e8 9f 62 3b 8b 3a bf 3b de dc d7 3b d9 c7 d1 3b
       0.0034580175 0.0058358363 0.0065876087 0.0064019975
000060 c1 3e 66 ba f7 fc 69 3c 9f a5 09 3c e1 98 5b 3b
       -0.0008783155 0.014281503 0.008401304 0.003350787
000070 9a 9d f0 bb e7 b7 06 bb c9 9f e7 ba 1d fc 67 bb
       -0.0073430063 -0.0020556392 -0.0017671521 -0.0035398074
000080 5b f6 d6 3b 6d 79 57 3c ec 51 91 bb d9 bb 39 3c
       0.0065601296 0.013151509 -0.0044348147 0.01133629
000090 ff 61 93 bb 54 78 81 b9 fb 96 c1 ba df c2 c4 3b
       -0.004497766 -0.0002469445 -0.0014769727 0.0060046758
0000a0 6f 08 03 3c e5 a1 4c 3c 67 51 a5 38 39 5a 5b 3c
       0.007997616 0.012489771 7.8829755e-05 0.01338821
0000b0 25 0c aa bb b0 38 a3 3a dc 73 d4 3b f8 2f bb 3b
       -0.005189436 0.0012452807 0.006483538 0.0057125054
0000c0 e8 f6 a8 3c a0 fc 5c bb 4b 46 3d bb 4d 46 3d 3c
       0.020625547 -0.0033719912 -0.002888101 0.011552406
0000d0 e0 9a e1 3b 42 5a 77 3c 59 dc 49 3b 69 39 45 3c
       0.0068849176 0.015097203 0.0030801503 0.012037613
0000e0 6c 28 06 3c c8 0c 1d 3c 8c 53 b8 3c b9 c3 56 bb
       0.008188348 0.009585567 0.022500776 -0.0032770468
0000f0 fa 97 f3 3b 7b c9 16 3c 38 af 46 3c 91 6d 95 3b
       0.0074338885 0.00920331 0.012126736 0.0045601805

bn1.running_mean f4 [64]
000000 63 f6 a5 bd 97 44 95 3d 24 90 6b 3d 39 e4 19 3e
       -0.08103635 0.07288473 0.05751051 0.15028466
000010 e9 d1 98 3d 97 04 01 be de 00 ed 3d e9 fc 67 be
       0.07461912 -0.12599407 0.11572431 -0.22655071
000020 36 ae ab bc e3 15 4b bd d9 55 cc bb 48 bc 7d be
       -0.020957094 -0.04958142 -0.00623582 -0.24778855
000030 7c 3a 2d be f6 b0 2e be 97 56 38 3e d5 f5 b5 3b
       -0.16916841 -0.17059693 0.18001781 0.005552987
000040 ef 9f 65 be ee 37 83 be 47 83 3b be c8 b4 5b be
       -0.22424291 -0.25628608 -0.18311797 -0.21455681
000050 db 8c 6d 3e c7 51 75 be cc ac 69 3d a9 12 46 bd
       0.23198263 -0.23956977 0.057049558 -0.04835764
000060 30 19 b3 3b 3c 08 98 be af d8 7b 3d 29 5c 8a 3e
       0.005465649 -0.29693782 0.061485942 0.27023438
000070 7c 3c d6 bd 70 37 ef bd 6c c0 75 bd b3 54 41 3c
       -0.10460755 -0.11680496 -0.05999796 0.011799979
000080 5d 51 1b be 84 82 c8 3d 68 e5 4e be d5 0f 59 3e
       -0.15167756 0.09790519 -0.20204699 0.21197446
000090 a9 e9 4b 3e 9d 4d e8 bd d7 02 24 3e d4 9f fe bd
       0.19913353 -0.113429286 0.16016708 -0.124328285
0000a0 3a 8c 86 3e 31 77 46 3d c0 75 13 3e c0 56 16 bd
       0.2627886 0.048453514 0.14400387 -0.036703825
0000b0 11 cf b4 3d a0 a7 8a 3c 5a 71 b4 3d dc bc fd 3d
       0.08828557 0.016925633 0.088106826 0.12389538
0000c0 0c f1 9c 3d 7b cd 63 bd fa 34 db bd 74 9e cf bd
       0.076631635 -0.055615883 -0.10703464 -0.101376444
0000d0 20 5e 1c 3e c6 56 a6 3d 78 7f 6b 3d 09 8b c2 3c
       0.15270281 0.081220195 0.05749461 0.023747938
0000e0 e4 dc 24 3e 2d 48 87 bd 77 79 61 be bc a1 2c bd
       0.16099888 -0.06605563 -0.22018991 -0.04214643
0000f0 19 c0 06 3e b6 ae 91 be 32 d8 7c 3e 5b be e1 3c
       0.13159217 -0.28453606 0.24691847 0.027556589

bn1.running_var f4 [64]
000000 e1 63 9b 3c bc 0c 9b 3c 4c 07 a1 3c 7b 60 ae 3c
       0.018968524 0.01892697 0.0196568 0.02128624
000010 f8 0a ae 3c 18 60 b2 3c 4f e3 ab 3c 09 87 34 3c
       0.021245465 0.021774337 0.020982413 0.011018523
000020 58 48 67 3c 42 3d c9 3c 28 7f 1c 3c 3f d2 3a 3c
       0.014116369 0.024565343 0.009551801 0.011402666
000030 e3 db ec 3c 46 b5 6f 3c 9f 08 8e 3c 8c e4 91 3c
       0.028913444 0.014630621 0.017338095 0.017809175
000040 3c 5d 69 3c 2e 80 d9 3c ae 17 36 3c 2b 10 68 3c
       0.01424342 0.026550379 0.011114044 0.014164011
000050 8a a9 65 3c 6f 6f 8e 3c c5 16 b2 3c 77 64 3b 3c
       0.014017472 0.01738712 0.021739373 0.011437527
000060 36 68 77 3c c0 e3 0c 3d bb 88 8f 3c f3 49 8e 3c
       0.015100529 0.034396887 0.017521253 0.017369246
000070 63 31 a4 3c 8e 60 53 3c 20 af 4b 3c 4b 66 ea 3c
       0.02004308 0.012901438 0.01243189 0.02861323
000080 d0 10 90 3c f1 c1 8c 3c 0f 51 e1 3c d7 19 da 3c
       0.017586142 0.017182322 0.027504472 0.02662365
000090 a9 38 a5 3c 0c 34 8a 3c 24 12 ac 3c 8c a3 c3 3c
       0.02016862 0.016870521 0.021004744 0.023881696
0000a0 00 a9 b4 3c c5 2a 08 3c bc 3c ad 3c 16 ee 3a 3c
       0.022053242 0.008310978 0.021147124 0.011409303
0000b0 00 07 d2 3c 48 aa c5 3c 31 7f 62 3c b2 dd 88 3c
       0.025638103 0.024129048 0.01382427 0.016707275
0000c0 8f c6 c6 3c 72 7c 54 3c bf ae 96 3c df 40 8a 3c
       0.024264602 0.012969123 0.018393872 0.016876636
0000d0 4e 4b 96 3c 82 96 8c 3c ac 7b 77 3c 9f 16 17 3c
       0.018346455 0.017161611 0.015105169 0.009221702
0000e0 f2 d2 be 3c b4 c7 3a 3c 5a 84 c2 3c 38 40 9b 3c
       0.023293946 0.011400152 0.02374475 0.01895152
0000f0 19 37 ad 3c 98 a6 9e 3c b0 3e 1b 3c 47 94 a0 3c
       0.021144437 0.019366547 0.009475395 0.019601954

conv2.weight f4 [128, 64, 3, 3]
000000 1a 43 d0 bc 50 8d a6 3c 28 c0 cb bc 62 59 e0 bc
       -0.025422622 0.020331055 -0.0248719 -0.027386371
000010 78 6f 26 bd 0f 2b aa 3c 8a 6e 35 3c 03 bf 22 3b
       -0.04063365 0.020772485 0.011073718 0.002483309
000020 2a 18 0e 3c ab 16 f3 bc b3 a5 1c 3d 91 39 13 bd
       0.008672753 -0.029673895 0.03824396 -0.03594357
000030 e9 95 95 bb 03 63 ac bb d0 75 b6 bc 13 c2 96 3c
       -0.00456499 -0.0052608266 -0.022272974 0.018403089
000040 12 35 14 3d fe 06 28 bc 85 bf 16 3a 2a 31 09 bc
       0.036183424 -0.010255573 0.00057505845 -0.008373538
000050 95 03 e0 3c 05 69 ca 3c aa 09 00 3d 14 68 fe 3c
       0.027345458 0.02470828 0.031259216 0.031055488
000060 dd 13 9c bc cc 9c bb bb 14 9e f9 3c 67 c7 f1 bc
       -0.01905244 -0.0057254788 0.030470885 -0.029514028
000070 5a ab d5 bc 60 1e 19 3d d7 32 5c 3c b1 87 f1 bc
       -0.026082683 0.037382483 0.013439856 -0.029483648
000080 75 96 e6 3c be fa 6b bc 93 11 42 3c af 1e 06 3b
       0.028147915 -0.014403043 0.01184501 0.0020465066
000090 68 3d ef bc 4b c4 a6 3c f6 3e b2 bc 15 3d bc bc
       -0.029204085 0.020357272 -0.021758538 -0.022978345
0000a0 81 83 96 b9 e4 e4 f1 3c 8c fe 81 3c 1b bd 41 bd
       -0.00028708208 0.029528089 0.015868448 -0.047299486
0000b0 44 e2 1a bc b8 95 97 3c 56 91 2d bd 5b 92 2e 3a
       -0.00945336 0.018504009 -0.04237493 0.0006659382
0000c0 1f 54 58 3a 62 10 2e 3d 68 6a 07 bc f4 97 01 3d
       0.0008252281 0.042496093 -0.008265115 0.031639054
0000d0 81 d6 04 bd 77 1a e3 3c 93 77 20 bd 35 df 11 bd
       -0.03243113 0.02772258 -0.039176535 -0.035613257
0000e0 c6 99 17 bd 44 8c fe 3c 70 1e c0 bb 7f 2b 02 3c
       -0.037011884 0.031072743 -0.0058630034 0.007944941
0000f0 c1 ca 4c bc ea 64 ca 3b d2 1b b4 bc e1 f0 5b 3c
       -0.012499512 0.0061765807 -0.021985922 0.013424129
000100 bb 7f ea 3c 17 f6 81 3c d9 be 14 bd b7 77 99 3c
       0.02862536 0.015864415 -0.03631482 0.018733842
000110 69 fb df 3c 5c 64 c7 bb 42 83 61 bd 1d b8 0d bd
       0.027341561 -0.006084962 -0.055056818 -0.034599412
000120 ff bf cd ba 91 4f 2a 3d be 06 0d 3d 2c 90 8b bc
       -0.0015697478 0.041579787 0.034430258 -0.01703652
000130 31 ab c6 bc 6d c3 10 bc 6f 93 d1 3c a0 fd 74 bc
       -0.024251552 -0.008835656 0.025582997 -0.014953047
000140 ad 93 c2 bc 66 c0 b8 3c cd f2 1f 3c 40 b9 94 3b
       -0.023752058 0.02255268 0.009762478 0.004538685
000150 da cc 34 bd fd 9f 81 3c cf a3 c8 bc ea 51 60 bc
       -0.044140674 0.015823359 -0.024492173 -0.013691405
000160 6d f6 41 3c b0 50 9b bc 53 1e 1e bc a8 0e e6 3c
       0.011838538 -0.018959373 -0.009650785 0.02808316
000170 88 c6 99 3b d4 39 e6 3b 3a 49 8d bc 72 27 d0 3c
       0.004692856 0.0070259366 -0.017246831 0.025409434
000180 23 57 ca bc 88 cb 07 bc f6 03 c3 3c d6 1f b2 3c
       -0.024699753 -0.008288272 0.0238056 0.021743696
000190 9e f0 27 3d bb 31 cc 3c 2f 9b ed 3c 15 fc fb bc
       0.041000955 0.024926057 0.029004661 -0.03075985
0001a0 39 94 7a 3c 6a 71 c9 3c c2 54 98 3c e4 6a 00 3d
       0.015294128 0.024590213 0.018595103 0.03135194
0001b0 8e f8 1e bd f2 83 20 bd 04 75 c1 bc 90 60 c1 bc
       -0.03881126 -0.039188333 -0.023615368 -0.023605615
0001c0 20 e8 e9 bc 20 40 aa 3c ae ec 84 3c 63 87 b2 3c
       -0.028553069 0.02078253 0.016226139 0.021793073
0001d0 5a 9f 0f bd 1d d1 be bc b6 e9 d1 3c 97 e1 8a 3c
       -0.03506408 -0.023293072 0.025624137 0.016953273
0001e0 ea 75 b7 bc dd 09 67 ba f1 eb a6 bb e5 05 07 bd
       -0.022395093 -0.00088134204 -0.0050940444 -0.032964606
0001f0 e1 63 22 bd 6e d5 39 3c bc 2e 5a bc af 3a cb bc
       -0.039646033 0.0113423895 -0.013316806 -0.024808256
000200 b9 30 8f bc 38 29 bc bc d1 18 1a b9 61 93 46 3d
       -0.017479287 -0.022968873 -0.0001469583 0.048480395
000210 0b 80 cf bc ff 2a 2d 3d 9b 0d da 3c a8 1f f5 3b
       -0.02532961 0.042277332 0.026617816 0.0074805804
000220 73 0c c0 bc 32 60 00 3d 75 81 b3 bc 9a 2a 2c 3c
       -0.023443436 0.03134174 -0.021912316 0.010508204
000230 03 ba 32 bd 27 db 09 3c 3c f9 e4 bc 92 3d d7 3c
       -0.043634426 0.008414066 -0.027950875 0.026274476
000240 e0 d8 fd bc ed 94 eb 3b 48 22 88 bc 7d 66 32 bb
       -0.030987203 0.007189384 -0.01661791 -0.0027221732
000250 bd 10 d9 bb 81 cf 14 3d 99 15 52 bc 68 1e 98 3c
       -0.00662431 0.036330704 -0.012822532 0.018569186
000260 3a 60 30 3d 93 8c b3 bc 71 ca 89 bc 2f cf 62 bb
       0.04306052 -0.021917617 -0.016820164 -0.0034608354
000270 0b c9 69 bc 41 26 18 3c 46 42 02 bd cb e0 18 3d
       -0.014269124 0.009286464 -0.031801485 0.037323754
000280 bc ff 6b bc 08 68 37 bc 41 59 1c 3d 60 f2 5e bc
       -0.014404234 -0.011194237 0.038171057 -0.013607591
000290 b8 19 05 3d f2 a0 06 bd 7b 55 11 bd a5 68 2a bc
       0.03249523 -0.032868333 -0.03548191 -0.010400926
0002a0 bc 2c 21 3c 1c c4 8c bc 58 ab 86 3c 26 76 0f bd
       0.009837326 -0.017183356 0.016439125 -0.035024785
0002b0 26 24 a1 3b 67 cc 20 bd bc 4b 43 bb 03 9f 2e 3d
       0.0049176393 -0.039257433 -0.002979978 0.042632114
0002c0 38 dc c3 3b 40 78 12 3d 70 70 70 3c a3 f7 0c bd
       0.00597718 0.03575921 0.014675245 -0.034415852
0002d0 a3 ea 68 bb 5e a5 ab bb b8 d2 27 3d 2c dc b5 3c
       -0.0035540245 -0.005238219 0.04097244 0.022199713
0002e0 28 3b 09 bd c3 bc e2 3c f3 aa bf 3c a3 ae e5 3c
       -0.03350368 0.0276779 0.023396945 0.028037375
0002f0 25 6f 91 bc d6 63 27 3c 4f a4 36 3d 37 1b 08 3c
       -0.017753193 0.010216674 0.04459029 0.00830727
000300 32 25 27 3d 98 22 1e bd e2 3a 02 3d 95 28 f1 bc
       0.040806957 -0.03860721 0.031794436 -0.029438296
000310 4e f2 bc bc 49 8f 8b bb 26 d9 86 3c 26 9f e8 bb
       -0.023064759 -0.0042590243 0.016460966 -0.00709905
000320 ff ad a8 3b a0 a3 28 3d 0b 08 10 bd 68 e6 86 3c
       0.005147695 0.04117167 -0.03516392 0.016467288
000330 6d 8b 13 bc 88 17 ff bc 0e 24 e4 3c 96 7f 1e bd
       -0.00900541 -0.03113915 0.027849223 -0.038695894
000340 46 ac c9 3c a5 0a 74 bc a5 bb 06 3d d1 b3 03 bd
       0.02461828 -0.014895116 0.032893796 -0.03215391
000350 f6 91 c9 3c 7d 85 c3 bc 3a c9 ed 3c ab ec e3 bc
       0.024605732 -0.023867363 0.029026616 -0.027822813
000360 d7 38 28 bd c4 7e 5b bc 13 14 a7 bc f0 69 20 bb
       -0.04106983 -0.0133969225 -0.020395314 -0.0024477206
000370 af c3 c4 bc 84 e3 15 bd 44 06 7a 3c 13 6e 3b bd
       -0.02401909 -0.03659393 0.015260283 -0.04575927
000380 f9 e2 0f bc 20 41 37 3c 4a 3b 7a bc d6 bf b3 bc
       -0.008782142 0.011184961 -0.015272925 -0.02194206
000390 e0 7d 85 bc 2f 0a 2a bd 39 0b 0d bd 55 1a 30 bc
       -0.016295373 -0.041513618 -0.03443453 -0.010748466
0003a0 04 7b e3 3c 2d 74 14 3c 0c 84 11 3d f9 81 eb bc
       0.02776862 0.009060902 0.03552632 -0.0287485
0003b0 9d 93 1b 3d 1c dc 93 bc cf 28 bf 3b c5 fe 44 bc
       0.037982572 -0.018049292 0.005833722 -0.012023632
0003c0 ab cf a3 bc 4b e3 f7 3c 32 54 0e bd 94 1e 7f bc
       -0.019996485 0.030259749 -0.034748264 -0.015571255
0003d0 2e e1 ea 3c 7c ef 95 3c 62 91 7d 3c 7c f0 bf bc
       0.028671827 0.018302672 0.0154765565 -0.023430102
0003e0 55 94 7a 3c 34 ab c1 bc 37 64 9d 3c db ca 65 b7
       0.015294154 -0.023641206 0.019212825 -1.3696695e-05
0003f0 a9 f6 dc 3c 97 5f 0b 3c b9 1a d7 3b ea 1a 7d 3c
       0.026973085 0.008506677 0.006564465 0.015448311

conv2.bias f4 [128]
000000 4f c9 d9 3c 36 57 87 ba 30 0b 06 3c 3b 1d f6 3c
       0.02658525 -0.0010325674 0.008181378 0.030043235
000010 49 2d a5 3a 00 c9 f3 bc 0a 75 70 3c 78 08 8e bb
       0.0012601997 -0.02975893 0.014676342 -0.0043345056
000020 e3 2c 9d 3c 5b 7c 1d 3d 4d ca 04 bd 3f 37 c1 bc
       0.019186443 0.038448673 -0.03241949 -0.023585914
000030 0a 1f ff 3c 45 00 9f bc d3 9b a1 bb 2f 13 5d bc
       0.03114273 -0.019409308 -0.004931906 -0.013493343
000040 f0 cc 82 bb 3d 74 fc 3c ca 08 ea 3c b4 99 0b 3d
       -0.0039917156 0.030817145 0.028568644 0.03408213
000050 b7 fa e1 bb d2 a2 21 bc f7 51 d6 3c c9 f8 9d bb
       -0.0068963426 -0.00986548 0.02616213 -0.0048209173
000060 18 a6 c9 3c 2c 26 b7 3c 27 53 22 3d 47 e5 f0 bc
       0.024615332 0.022357069 0.03963008 -0.029406203
000070 70 41 bc b9 3d 5b 67 3b a5 7d 1a ba f9 fc 09 bd
       -0.0003590691 0.0035302185 -0.0005893356 -0.03368852
000080 12 9b 0b bd 00 46 21 3b f7 d8 43 3c 8f 2a 9a 3c
       -0.034083433 0.0024608374 0.011953584 0.018819122
000090 08 3b 1b bd 45 4c f0 3c 34 6d d0 3c dd de d3 3b
       -0.037898093 0.029333243 0.025442697 0.0064657764
0000a0 bd 7f 20 bd 2a 0a 07 3d dc 0a 11 3d 24 ac ee 3c
       -0.03918432 0.032968678 0.035410747 0.029134817
0000b0 c2 16 00 3d 69 79 96 bc 16 21 da ba 71 08 06 bd
       0.031271704 -0.01836844 -0.001664194 -0.032722894
0000c0 3f 6c a9 bc 73 36 1d bc b1 53 1c bc c6 74 03 3d
       -0.020681499 -0.009595501 -0.009541438 0.032093786
0000d0 41 40 cc bc d1 22 d2 3c 97 84 ba bc b5 6a 74 3c
       -0.024932982 0.025651367 -0.022768302 0.014918019
0000e0 78 fb f9 ba 7b 42 a7 3a af 43 43 bb 00 cd 0d 3d
       -0.0019072136 0.0012760902 -0.0029794981 0.03461933
0000f0 3f fd de bc 71 6f d7 3c 93 05 08 3d cc 3c 85 b8
       -0.027220367 0.026298257 0.03320844 -6.3532585e-05
000100 25 f2 c7 bc 12 79 a4 bc f2 10 db bc 0d e1 1e bd
       -0.024407456 -0.020077262 -0.026741479 -0.038788844
000110 e9 43 fc 3c 90 83 f4 bc dd 52 ee 3c a7 6c 0d 3d
       0.0307941 -0.02984789 0.029092247 0.034527447
000120 94 c1 f4 bc 35 21 58 3c 2c ff cb 3b 4d 8c 8c 3a
       -0.029877461 0.013191511 0.006225487 0.0010722965
000130 f7 4c f3 bc fe ea d3 bb d7 63 cf 3c df 36 03 bd
       -0.029699786 -0.0064672222 0.025316162 -0.03203475
000140 3d ea 0d 3d be 12 b3 bc 50 c9 9c bc ab 0a 4c bc
       0.034647215 -0.021859523 -0.019138962 -0.012453715
000150 30 dd f8 bc 6f b4 0d bd 41 5c 9e 3c 20 01 6b bc
       -0.030378908 -0.034595903 0.0193311 -0.01434353
000160 0b 76 38 bb 43 3d 1d 3d 91 c5 52 ba c4 30 14 3d
       -0.002814653 0.0383885 -0.0008040304 0.03617932
000170 64 82 02 bd 13 34 22 bd 59 4c b4 3c a7 32 25 3d
       -0.03186263 -0.039600443 0.022009062 0.04033151
000180 02 18 cb 3b dc 70 8d bb b8 af 1d 3c 3b af 6c bc
       0.0061979303 -0.0043164324 0.009624414 -0.014446075
000190 b8 fe 29 bd 3d ce 1f bd cb 84 1b 3d 2c 9c ff bc
       -0.041502684 -0.039015044 0.037968438 -0.031202398
0001a0 fc ee 07 bc 50 22 84 3c d2 07 ae bc 02 ea 1f 3d
       -0.008296724 0.016129643 -0.021243963 0.039041527
0001b0 8a 0e 00 39 ef c8 0f 3d 9b 59 b1 3c 39 c3 18 bd
       0.00012212447 0.035103735 0.021649173 -0.037295554
0001c0 f1 0a 4c bc 76 c5 68 3c b7 3d 80 bc 5c 26 81 3c
       -0.0124537805 0.014207235 -0.015654428 0.015765361
0001d0 16 0d 7b 3c 92 dd c1 3c f1 cd 43 bc 79 f0 70 bc
       0.015322944 0.023665223 -0.011950956 -0.014705771
0001e0 c1 af d3 3c 92 a1 cc bc cf 81 70 3c 7e ce e2 bb
       0.025840642 -0.024979386 0.014679386 -0.0069215884
0001f0 5c 3b 57 bb 40 96 1b 3c d4 86 e3 3c 75 dc 64 3b
       -0.0032841777 0.009496272 0.027774252 0.0034921442

bn2.weight f4 [128]
000000 fb b1 7f 3f 3c 72 7d 3f 21 b2 80 3f 33 f6 7c 3f
       0.9988095 0.9900243 1.0054361 0.9881317
000010 0b 62 80 3f 23 17 7f 3f e2 a4 81 3f dc c7 81 3f
       1.002992 0.9964468 1.0128443 1.0139117
000020 df e7 7e 3f ea 86 83 3f 81 9c 7c 3f d5 78 7f 3f
       0.9957256 1.0275548 0.98676306 0.9979375
000030 03 97 80 3f 36 0c 7f 3f 95 bf 7d 3f a9 7f 7c 3f
       1.0046085 0.9962801 0.99120456 0.98632294
000040 90 43 7d 3f 9b e6 7e 3f a7 bc 80 3f 31 aa 80 3f
       0.9893122 0.99570626 1.0057572 1.0051938
000050 2d a3 7e 3f 0d 4f 80 3f 58 31 81 3f 34 ae 7e 3f
       0.99467736 1.0024124 1.0093184 0.9948456
000060 49 45 81 3f 75 f3 80 3f 7a 25 7d 3f 1d 6d 7e 3f
       1.0099269 1.0074297 0.9888531 0.99385244
000070 55 36 7f 3f 26 2d 7d 3f 8b 15 80 3f ab 98 7f 3f
       0.9969228 0.98897016 1.0006574 0.9984233
000080 fc 5f 80 3f a7 43 7e 3f b6 87 81 3f f5 9a 7e 3f
       1.0029292 0.9932198 1.0119541 0.99455196
000090 c3 4f 81 3f 16 0b 80 3f d7 64 80 3f 5c 28 81 3f
       1.0102466 1.0003383 1.0030774 1.0090442
0000a0 2a ff 7d 3f 0a 34 7d 3f 4f 36 7f 3f df 31 7f 3f
       0.99217474 0.9890753 0.99692243 0.9968547
0000b0 8a f2 81 3f 43 a3 7d 3f 10 37 80 3f 09 a4 7d 3f
       1.0152142 0.9907724 1.0016804 0.9907842
0000c0 8d 25 82 3f dd 3e 80 3f fc 6c 7e 3f 34 ae 80 3f
       1.016771 1.0019184 0.99385047 1.0053163
0000d0 28 ba 80 3f 8e 94 7e 3f 6c 88 7f 3f cf 62 7d 3f
       1.005681 0.99445426 0.9981754 0.98978895
0000e0 62 ca 80 3f ac 73 7d 3f 82 a7 80 3f ef c7 80 3f
       1.0061762 0.99004626 1.0051119 1.0061015
0000f0 12 d4 80 3f 76 29 7e 3f 34 13 7b 3f 50 17 80 3f
       1.0064719 0.99282014 0.98076177 1.0007114
000100 39 7e 82 3f 43 2c 80 3f 4a f6 7d 3f 12 46 7e 3f
       1.019477 1.0013508 0.9920393 0.9932567
000110 30 be 7f 3f db a2 7d 3f 34 31 80 3f cf 8e 80 3f
       0.9989958 0.9907662 1.0015016 1.0043582
000120 43 ac 7f 3f 73 f6 7f 3f c8 89 80 3f ec 6c 7d 3f
       0.99872226 0.99985427 1.0042048 0.98994327
000130 5e 76 81 3f c4 25 80 3f 3d e1 81 3f f0 24 80 3f
       1.0114248 1.0011525 1.0146862 1.0011272
000140 bc 64 7e 3f ca b4 7e 3f 62 47 81 3f 0d 74 7f 3f
       0.9937246 0.9949461 1.0099909 0.99786454
000150 84 57 80 3f 84 d1 80 3f 23 a9 7c 3f 7b a0 81 3f
       1.0026708 1.0063939 0.9869558 1.01271
000160 94 87 80 3f 17 16 7e 3f a1 4b 81 3f f5 50 7e 3f
       1.0041375 0.99252456 1.0101205 0.9934228
000170 8b ff 7b 3f cb 77 80 3f f9 f6 80 3f 1c 15 7f 3f
       0.984368 1.0036558 1.007537 0.99641585
000180 a5 c2 82 3f 84 b9 7e 3f b5 03 80 3f 56 a6 7e 3f
       1.0215651 0.99501824 1.0001131 0.9947256
000190 df af 80 3f fc ef 7e 3f 68 d1 7d 3f f5 44 7b 3f
       1.0053672 0.9958494 0.99147654 0.98152095
0001a0 5c aa 7e 3f c2 fd 81 3f 00 e7 7e 3f 31 b3 7d 3f
       0.994787 1.0155566 0.9957123 0.9910155
0001b0 3d 4e 7e 3f 97 06 81 3f 3d 07 7e 3f 76 a7 82 3f
       0.9933813 1.0080136 0.99229795 1.0207355
0001c0 df b7 7e 3f 17 25 80 3f 04 34 7f 3f 83 66 7e 3f
       0.99499315 1.0011319 0.99688745 0.9937517
0001d0 d7 e4 80 3f 02 4d 80 3f 1b a4 7e 3f b5 f9 80 3f
       1.0069836 1.0023501 0.99469155 1.0076205
0001e0 63 22 80 3f e1 c5 82 3f 7a b8 80 3f dc c3 7f 3f
       1.0010494 1.0216638 1.0056298 0.9990823
0001f0 37 10 80 3f 9b 6c 7c 3f c0 35 82 3f b2 34 81 3f
       1.0004948 0.9860322 1.0172653 1.0094206

bn2.bias f4 [128]
000000 cb 5f c6 ba 45 8e 6f bc 54 6d 9e 3b cb ad 17 bc
       -0.001513475 -0.014621322 0.0048348103 -0.009257744
000010 ae 29 51 bb 19 b4 a4 bb c1 9e 1f 3c 21 f9 7e bc
       -0.0031915712 -0.005026352 0.00974244 -0.015562327
000020 a4 96 a7 bb 16 0c 07 3c ca 95 21 3b 12 1f 67 bb
       -0.0051143933 0.008242628 0.0024655932 -0.0035266322
000030 06 9e f5 3a 94 61 d6 bb c4 a3 ff bb d4 ed 62 bc
       0.0018739111 -0.006542394 -0.007801505 -0.013850648
000040 e9 80 64 bc 30 81 73 bc 05 0a 3e 3a 40 d0 b3 bb
       -0.01394675 -0.014862344 0.0007249418 -0.005487472
000050 f8 3b 7c bc 58 30 bf ba ce c4 f2 3b 91 06 47 bc
       -0.015395157 -0.0014586551 0.007408715 -0.012147562
000060 bc c4 a2 ba 94 65 7f bb d0 2a 68 bc 48 1f 06 bb
       -0.001241825 -0.0038970457 -0.014170364 -0.0020465422
000070 c9 a2 20 bb 55 86 4e bc 18 51 76 bc e0 4f 8b bc
       -0.002451109 -0.012605269 -0.015033983 -0.01700586
000080 51 f2 90 bb 53 0d 55 bc 98 4d ff bb de a1 25 3b
       -0.0044234176 -0.013003665 -0.0077912323 0.0025273482
000090 71 ae 62 3b 47 4a 54 bc b6 70 cc bb 04 7d 6e bb
       0.0034588838 -0.012957162 -0.006239022 -0.0036390433
0000a0 a4 fb 92 bc 2b 3d 9d bb ee ba 05 bc 0e 35 21 bc
       -0.017942257 -0.0047985516 -0.008162243 -0.009839309
0000b0 19 b0 b6 3a 6c 58 1d bc 76 fb 4c bc e3 16 34 b9
       0.0013937979 -0.009603601 -0.012511125 -0.00017174664
0000c0 bf fa de bb 2f 7c 1d bb bc dd 86 ba 0e 36 ba bb
       -0.0068047936 -0.0024030318 -0.0010289471 -0.0056827134
0000d0 cf cb c4 3b 34 83 7f 3b 36 77 17 bb 3a 3d 93 3b
       0.006005741 0.0038988115 -0.0023111827 0.0044933828
0000e0 96 f0 3f bb 48 fa ce bb 34 a1 83 3b 6c 8f 99 ba
       -0.0029287688 -0.006316457 0.0040170196 -0.0011715717
0000f0 05 95 eb bb 09 df bf 39 f3 4c 6d bc 42 f0 7d bc
       -0.0071893954 0.00036596533 -0.014483678 -0.015499176
000100 0e 5b f2 3b 70 fa 28 bc 45 d9 55 bc cf b8 9a bc
       0.0073961085 -0.010313615 -0.013052289 -0.018886952
000110 ae 63 18 bc 07 0a cf bb 53 b0 28 3b 13 b5 43 bc
       -0.009301109 -0.006318334 0.0025739863 -0.011945027
000120 30 b1 4e bb 14 d2 2a 3b 06 f3 b5 bc 0a f7 18 bc
       -0.0031538717 0.0026065158 -0.02221061 -0.009336242
000130 c0 fc 21 bc 23 cb 80 bc b1 8f bd bb 80 e8 35 bc
       -0.00988692 -0.015721863 -0.0057849516 -0.011102796
000140 39 5a 92 bc 4c 72 2b bc 1e b4 8f b9 2b 0e 8c bc
       -0.017865287 -0.010464262 -0.00027409283 -0.0170966
000150 dd 49 e6 bb 82 0a 4c 3b e9 07 05 bc 6e d2 44 bc
       -0.007027848 0.0031134193 -0.008119562 -0.012013061
000160 b5 e9 c5 bb 3c 50 13 3b 9d 8d a0 3b a5 df 11 bc
       -0.006039823 0.0022478243 0.004899694 -0.008903419
000170 1f 93 14 bc 04 98 f4 b8 50 62 f4 39 50 c0 6e bc
       -0.0090682795 -0.00011663142 0.00046612555 -0.014572218
000180 98 49 45 bb 1e cd 8b 39 1f 72 0e bc 4c b0 41 bc
       -0.003010368 0.0002666497 -0.008694201 -0.011821818
000190 6b 11 f3 b8 f0 e9 e2 bb 62 87 ef bb e9 97 26 bc
       -0.00011590387 -0.00692486 -0.00730984 -0.010168054
0001a0 3b b5 5b bc 13 48 1d bb c8 e6 1f bc 3d 9e 68 bc
       -0.013409908 -0.0023999258 -0.009759612 -0.014197883
0001b0 7c 69 a0 bc a0 ab 4c 3b 1b 43 24 bc 61 35 df 3a
       -0.019581549 0.0031230226 -0.010025765 0.0017029458
0001c0 a5 e5 be bc b9 7d a4 bb 8c e6 2c bc 85 b4 37 bc
       -0.023302862 -0.00501987 -0.0105530135 -0.011212473
0001d0 f2 8a b7 3b 81 dc a5 3b c6 78 51 bb 10 7d 06 bc
       0.0056012804 0.0050616865 -0.0031962856 -0.008208528
0001e0 e7 26 ca bb 15 fc 7f 3b 36 7f 0b bb 16 05 6a ba
       -0.0061691883 0.0039060165 -0.002128554 -0.00089271495
0001f0 43 c5 05 3a e2 40 0a bc cb 17 88 3b 13 70 05 3c
       0.00051029416 -0.008438321 0.004153227 0.008144396

bn2.running_mean f4 [128]
000000 0c dc 73 3d 88 cf 38 bc 31 d9 b4 be 19 1f a0 bd
       0.059536025 -0.011279948 -0.35321954 -0.078184314
000010 e6 9d b9 bc 17 6e e7 bd 3d ee 89 bd 8b 8b 00 bd
       -0.0226583 -0.11300295 -0.067348935 -0.03138308
000020 59 2b 28 bd 41 e9 b4 be 9e 49 08 be 9a 7d d2 be
       -0.041056965 -0.3533421 -0.13309333 -0.4111145
000030 2a 4a 86 bd 97 c0 04 3e d4 3b b0 3c 67 89 20 3d
       -0.065571144 0.12964092 0.021512903 0.039193537
000040 00 d1 c1 bd 01 e9 29 3e 2f de 3e be d0 cf da 3c
       -0.09463692 0.1659279 -0.18639444 0.02671042
000050 c6 6d ae 3d d0 1e 75 be df 0c 88 3c 55 f5 dd 3d
       0.08517031 -0.23937535 0.0166077 0.10837809
000060 52 a9 73 bd be 83 c9 be fc c2 fd 3d 12 4e 53 3e
       -0.05948765 -0.39358324 0.12390706 0.2063525
000070 73 a1 b6 bc 16 1e 7a 3e 9e e8 22 3d 59 52 8a be
       -0.022293782 0.2442554 0.039772622 -0.2701595
000080 a8 41 7b be 47 5c 09 3e 45 07 ad be 97 35 8f 3d
       -0.24536765 0.13414107 -0.3379461 0.06992643
000090 da 69 32 3e 77 2e 9f be 55 a0 9b be 7b 05 cc be
       0.17423192 -0.31090137 -0.3039576 -0.3984793
0000a0 b5 1e 8b be 11 ca fa 3d 20 17 63 be 42 5c a8 bd
       -0.27171865 0.12245572 -0.2217679 -0.08220722
0000b0 67 bb 78 bd 9d 65 12 be ab 3b 42 bd f9 1f 45 3e
       -0.060725596 -0.14296575 -0.047420185 0.19250478
0000c0 af 83 0f be 0d 4f 99 3a 10 40 10 3d 8c ea 13 be
       -0.14015077 0.0011696533 0.035217345 -0.14444941
0000d0 98 f8 50 be 39 47 d1 bd 87 a3 a3 bd a9 f4 2a 3e
       -0.20407331 -0.10218663 -0.07990175 0.16694893
0000e0 ec c2 74 be 97 a4 d6 bd ad dc 32 be 27 f1 e9 be
       -0.23902482 -0.10480612 -0.17466994 -0.45691797
0000f0 91 cc 1d 3e 9f d8 8f be 02 fe 9c 3d 22 7f 26 3c
       0.15410067 -0.28094956 0.07665636 0.010162147
000100 87 c4 bb be 71 e1 3f bd 14 0e 33 be 7d 59 a8 3d
       -0.36673376 -0.046845857 -0.17485839 0.082201935
000110 c2 50 2e be b8 0b a5 3e 35 a2 e1 3d 67 c7 45 be
       -0.17022994 0.32235503 0.11017267 -0.19314347
000120 65 b9 18 3d e0 7a be bc d8 6a 85 3d 3a c1 48 be
       0.03728618 -0.02325195 0.065145195 -0.1960496
000130 16 e1 1a be 48 9b 81 be 19 3e 3a 3e 26 69 b9 bd
       -0.15124926 -0.25313783 0.18187751 -0.090532586
000140 52 22 68 3d 1e 3c dd 3c 57 4d 47 bc 63 a9 40 3e
       0.056673355 0.027006205 -0.012164435 0.18814616
000150 96 11 22 bd 0a 13 61 be 81 27 9a 3d 21 fb 3e bd
       -0.039567553 -0.21979919 0.07527066 -0.046626214
000160 bb dc 80 be f7 9d d9 bc 52 44 05 be 82 c7 0c bc
       -0.25168404 -0.026564581 -0.13014343 -0.008592488
000170 5d b0 66 3e 20 42 80 be 6b 59 2f 3e 2f 39 15 be
       0.22528215 -0.2505045 0.17123954 -0.14572595
000180 fd 33 6f be c2 9c fa 3c ea 7b dc bd 4b 04 99 bd
       -0.23359676 0.030592326 -0.10765822 -0.07471522
000190 91 1a 88 bd 4a da 45 bc f2 9b 0a be c3 34 6d bd
       -0.06645692 -0.01207597 -0.13536051 -0.057911646
0001a0 5d 9d 55 be a1 c6 50 bd 15 1e 19 be b1 1e 3f 3d
       -0.2086081 -0.050970677 -0.14952882 0.04666013
0001b0 0d 29 8a bd 32 8c 98 be 76 6c b5 3b d3 1b d4 bd
       -0.06746111 -0.2979446 0.005536611 -0.103568695
0001c0 a7 fb 63 3c 5f 78 df 3d 2a 96 af bc 8c 9d 1d bd
       0.013914979 0.10911631 -0.021433908 -0.038480327
0001d0 1f aa 1e be 37 41 55 be 80 58 2c bd 27 c6 f5 be
       -0.15494584 -0.20825659 -0.042076588 -0.4800274
0001e0 2b be 46 be 72 30 d5 bd fc 10 61 be ce 37 72 be
       -0.19408481 -0.10409631 -0.21979135 -0.236541
0001f0 49 69 46 be 17 81 b3 3c a6 f1 09 be da bd d6 bd
       -0.193761 0.02191214 -0.13471088 -0.1048543

bn2.running_var f4 [128]
000000 1e 59 d8 3d 36 b6 99 3d 5a 40 1a 3e 0b 05 c1 3d
       0.10563873 0.07505457 0.1506361 0.0942479
000010 56 7e 52 3d 81 b9 9b 3d e4 e9 7e 3d b6 01 5a 3d
       0.051390015 0.076037414 0.062234774 0.053224288
000020 09 b8 5d 3d a0 f3 d8 3d 3d 22 b4 3d c1 b9 e1 3d
       0.054130588 0.10593343 0.08795593 0.11021758
000030 41 7d 6e 3d 0a a3 62 3d f7 2c d7 3d cc 9f c5 3d
       0.05822492 0.055331267 0.10506623 0.096496195
000040 89 43 8d 3d 1a 27 7d 3d ee ad 15 3e b2 8c a1 3d
       0.06897647 0.06180487 0.1461713 0.078881636
000050 52 c8 ad 3d 44 68 84 3d a5 bd 51 3d 2e 6c 9b 3d
       0.08485474 0.064651996 0.05120625 0.07588993
000060 e0 22 b9 3d c2 9e da 3d 00 fe 8c 3d 29 16 b0 3d
       0.09039855 0.10674812 0.06884384 0.08597977
000070 6e 8e e1 3d 6e 4c f4 3d b8 dc bc 3d f3 51 72 3d
       0.110134944 0.1192864 0.09221786 0.059160184
000080 c2 e4 72 3d f3 b6 7c 3d e3 d4 81 3d 87 1b f1 3d
       0.05930019 0.06169791 0.06339433 0.117728285
000090 1d d4 c4 3d 22 8f 61 3d 44 93 f8 3d 3e 5b e5 3d
       0.0961077 0.055068143 0.12137464 0.11199044
0000a0 db 9c c5 3d 76 35 26 3e 40 f5 55 3d 41 52 e6 3d
       0.096490584 0.16231331 0.05223584 0.112461574
0000b0 14 81 65 3d 1f 49 a7 3d fd 68 c0 3d 11 56 fc 3d
       0.0560313 0.081682436 0.09395025 0.12321103
0000c0 31 da 20 3d 30 0f 99 3d 56 f1 bd 3d de 7e 94 3d
       0.039270584 0.074736 0.09274547 0.072507605
0000d0 61 88 92 3d c1 be 30 3d 62 b0 df 3d 81 4c da 3d
       0.071549185 0.043150667 0.10922314 0.10659123
0000e0 22 68 79 3d 8d 92 5b 3d 74 69 45 3d d2 7b f5 3d
       0.060890324 0.05360656 0.04819627 0.119865075
0000f0 b0 e0 cb 3d ac 54 32 3e b7 83 e6 3d 30 19 be 3d
       0.09954965 0.17415112 0.11255591 0.09282148
000100 f0 be 89 3d 4d f0 8b 3d bc 17 8b 3d 6a 85 cf 3d
       0.067258716 0.06832943 0.06791636 0.101328686
000110 e0 68 a8 3d 71 d7 d6 3d 32 e1 bb 3d 8d a3 38 3d
       0.08223128 0.10490311 0.09173812 0.04507785
000120 e9 96 92 3d ff f7 6a 3d 8d 8e 04 3d 37 a9 c0 3d
       0.0715769 0.057365414 0.03236251 0.09407275
000130 b3 d7 8a 3d 4a 2c 41 3d 7a 0d 3a 3d 58 ef 01 3e
       0.067794226 0.047161378 0.04542301 0.12688959
000140 6b 93 c8 3d f6 98 a6 3d 34 09 a3 3d 41 08 c8 3d
       0.09793743 0.08134644 0.0796074 0.09767199
000150 41 44 81 3d ed 91 a8 3d 8f b5 a8 3d fb b3 47 3d
       0.063118465 0.08230958 0.082377546 0.048755627
000160 4b 27 9c 3d 7d 86 cf 3d cf fc ba 3d f4 ab 63 3d
       0.07624682 0.101330735 0.09130251 0.05558391
000170 c1 2d 08 3e ba 47 f7 3d dc a3 c5 3d 7c 9a 92 3d
       0.13298704 0.12074228 0.09650394 0.07158372
000180 43 2f 45 3d 79 c9 97 3d 23 6e ad 3d f1 8c cf 3d
       0.048140775 0.07411475 0.084682725 0.10134304
000190 6b 35 70 3d 4f 23 93 3d 52 2e a9 3d a0 cd c6 3d
       0.058644693 0.07184469 0.08260788 0.097071886
0001a0 98 a8 94 3d 7f 02 a6 3d f9 17 94 3d a8 36 b7 3d
       0.07258719 0.08105945 0.07231135 0.08945972
0001b0 9e 6e b4 3d 28 f0 75 3d 55 62 ad 3d 28 03 74 3d
       0.08810161 0.060043484 0.08466021 0.059573323
0001c0 e3 2c 8c 3d 90 c2 c0 3d a5 ef d0 3d 71 1d c7 3d
       0.06844499 0.0941211 0.102019586 0.097224124
0001d0 9a 5f 96 3d cb ea eb 3d a3 26 ef 3d a9 d0 ce 3d
       0.07342453 0.115193926 0.11677291 0.100983925
0001e0 a3 e4 96 3d 38 ce b0 3d cf 71 63 3d 87 5c e3 3d
       0.07367828 0.08633083 0.05552846 0.111016326
0001f0 e0 6d 5e 3d 1c 73 b5 3d 67 fb 55 3d e6 a1 a9 3d
       0.054304004 0.08859846 0.05224171 0.08282833

conv3.weight f4 [128, 128, 3, 3]
000000 68 70 da bb c5 1d ef 3c b2 98 12 3d 9d d4 55 bb
       -0.006666232 0.029189 0.035790153 -0.0032627948
000010 ef 4a a6 3c e7 77 b0 bc 6f d1 fd 3c 50 8d fc bb
       0.020299403 -0.021541549 0.030983655 -0.0077072755
000020 0b a4 f3 3c 40 0a 21 3a 64 ba 16 bc 07 ed 07 3d
       0.029741308 0.000614319 -0.009199712 0.03318503
000030 00 91 b4 3c 36 9c 32 3c 6b 69 66 bc eb 86 75 bb
       0.022041798 0.010901501 -0.01406322 -0.003746445
000040 b6 dd fd 3c 9b f2 ab 3c 2c 14 f6 3c 4d e0 01 3c
       0.03098951 0.020989707 0.030038916 0.007927013
000050 6a 2d a2 3c a1 75 ad bc 06 ef 69 3c 12 65 e6 bc
       0.019797046 -0.021174254 0.014278179 -0.028124366
000060 4f 1b 20 3c a0 6a 55 bc a6 fd 34 bc b2 3a 04 bd
       0.009772136 -0.01302591 -0.011046803 -0.03228254
000070 b8 1c c5 3b c6 63 6d ba 56 54 da 3c 8b 42 be bc
       0.0060153864 -0.00090557 0.026651543 -0.02322509
000080 77 1b 7b 3b 21 e4 20 ba 30 f8 f6 bb 53 d0 c3 3c
       0.003831593 -0.00061375095 -0.0075369105 0.023903048
000090 d6 00 44 bc 9c 78 1c 3c 16 df 95 3a e2 2c 55 3c
       -0.01196309 0.00955024 0.0011434283 0.013011189
0000a0 78 21 80 3c 48 db da 3c 73 1e c5 3c 66 2e 20 bb
       0.01564096 0.02671589 0.02406237 -0.0024441718
0000b0 bf 17 69 3c 07 12 a1 bb 5f 22 c8 bc df 9e f3 3b
       0.014226853 -0.004915479 -0.024430452 0.0074347104
0000c0 6d bc 10 bd 59 28 7b bc ae 93 2b 3a 38 cc 82 3c
       -0.035335947 -0.015329444 0.00065451383 0.01596652
0000d0 c5 ba 6b 3c d2 25 90 3b 8f e1 e8 bc ee f0 3f 3b
       0.014387791 0.00439904 -0.028427867 0.0029287892
0000e0 f9 97 89 bb c5 07 c4 3c 48 a8 7c bc 9f 26 6d bc
       -0.0041990248 0.023929486 -0.015420981 -0.01447454
0000f0 8d 78 78 bc da 72 47 bb 22 5f 8b 3c 8c 04 19 3a
       -0.01516546 -0.0030433447 0.017013136 0.00058371644
000100 c3 34 1a bc 48 4d cc 3c a7 3b b2 bc 24 53 53 3c
       -0.009411993 0.024939194 -0.02175696 0.01289824
000110 8e e5 72 3c 67 96 16 bd 7e ee e6 bb ea ae 7f 3b
       0.014825238 -0.03676453 -0.0070474735 0.003901417
000120 d5 93 5a 3b 9e 8f 97 bc a3 6d 2f bc 5a 56 cb bc
       0.0033352275 -0.0185011 -0.010707292 -0.02482145
000130 ab bc c4 bb b5 53 9a 3c 7d dd 92 3c db 98 dc bc
       -0.0060039363 0.018838743 0.01792788 -0.026928356
000140 a9 9f b5 3c 1d 98 66 bb ca 2e 9a 3a 00 9c 04 bd
       0.022170858 -0.0035185881 0.0011763212 -0.032375336
000150 b6 e3 37 3c 18 7e ae bc 99 41 80 3c 10 4c b7 3c
       0.011223724 -0.02130036 0.01565628 0.022375137
000160 e6 6c 23 3c 9e 2e 95 3c b5 29 c4 bc e9 bd fb bb
       0.009974694 0.018210705 -0.023945669 -0.007682551
000170 70 f0 2d bc 87 b4 79 3b 8a 8b 47 bc 94 61 bf bb
       -0.010616407 0.0038101987 -0.012179265 -0.0058404896
000180 53 5c a5 3b 8f 62 25 3c 66 90 d5 bb 9b 3e b3 bb
       0.0050464063 0.010094299 -0.006517458 -0.0054701096
000190 aa 24 45 3c bc 26 88 bc 72 0b 87 bc 09 de 8a bc
       0.012032667 -0.016620032 -0.01648495 -0.016951578
0001a0 dc e0 c3 bc 2e 45 c3 3c d8 47 0b bc 8a 51 62 3c
       -0.023910932 0.023836698 -0.008501016 0.013813386
0001b0 e0 a9 38 3c 7a 70 a2 3c 78 09 62 bc 2c fb f2 3c
       0.01127097 0.019829024 -0.013796203 0.029660784
0001c0 78 79 b1 3b dc 42 05 3d 44 37 7a 3c 73 46 9d 3b
       0.0054160915 0.032534465 0.015271965 0.004799658
0001d0 b6 ef 89 3b 4b b7 9a 3c 16 03 1e ba 03 6c 5f 3c
       0.004209484 0.018886229 -0.00060276815 0.013636592
0001e0 0e a4 58 3c ca 6d f6 3c f8 2e fc bb 00 f7 98 3b
       0.013222707 0.030081648 -0.007696029 0.0046681166
0001f0 89 f4 32 bb e0 7c a5 bb 2a 70 0b 3d a2 ef 11 bc
       -0.00273064 -0.0050502867 0.034042515 -0.008907231
000200 9a c4 d4 bc e8 b3 17 bd a1 65 f7 bc 24 9d 94 bc
       -0.025972653 -0.037036806 -0.030199828 -0.018141337
000210 19 62 32 bc 17 79 b3 bc b8 47 28 bc ea 08 c2 3c
       -0.010887646 -0.021908326 -0.010271005 0.023685891
000220 05 a5 d1 bb e3 ea 8a bc d2 3f 46 3c c6 89 cc 3c
       -0.0063978457 -0.016957706 0.012100177 0.02496804
000230 60 c0 6d 3c 97 45 51 3b 25 1c d4 3c c5 b0 ef bc
       0.014511198 0.0031932348 0.025892327 -0.029259095
000240 83 ee 32 ba 83 3c 7a 3c e5 1f 97 3c 04 5a c5 3c
       -0.0006825702 0.015273216 0.018447826 0.024090774
000250 d3 b1 cd 3c a5 c3 6f bc e0 8b b7 bc f7 40 c5 3c
       0.025109207 -0.014634048 -0.022405565 0.02407883
000260 dc 31 dd bc f4 c7 b3 bc 43 97 dc bb 71 27 d4 bc
       -0.027001314 -0.021945931 -0.006731899 -0.025897713
000270 de ef 44 3c 88 45 d8 3b f6 1f b2 3c a0 38 89 bc
       0.012020079 0.0066000856 0.021743756 -0.016750634
000280 b1 4c b7 bb 52 14 50 ba 45 8f 81 bc 99 e0 0d 3b
       -0.005593859 -0.0007937598 -0.015815387 0.0021648763
000290 1d 15 04 3c d0 fd d3 bc 24 e0 84 3c 68 aa 97 ba
       0.008061674 -0.025877863 0.01622016 -0.0011571171
0002a0 18 f9 4a b9 49 cb 10 bd fe ce 38 3b ce 27 f4 bc
       -0.00019357016 -0.035350118 0.0028199549 -0.029804137
0002b0 00 f3 a9 bc 4c 7a e6 bc c1 dc 45 3a 99 c8 83 bb
       -0.020745754 -0.028134488 0.00075478485 -0.004021716
0002c0 16 66 39 3b fd 01 e1 bc af 32 bd bc 78 7c 8e bb
       0.0028289608 -0.027466768 -0.023095457 -0.004348334
0002d0 2b 86 71 bc d7 5d b8 3c db 89 02 bc 55 54 13 bc
       -0.014741461 0.022505684 -0.007967438 -0.008992274
0002e0 05 00 7d bc 45 ad a3 bb 2c 74 0d bb 60 4d 02 bc
       -0.015441899 -0.0049950206 -0.0021584136 -0.007953018
0002f0 94 03 a6 3c 35 fb a3 bc 3d 2b b9 bc 0c 0c a1 3c
       0.020265378 -0.020017246 -0.022603625 0.019659065
000300 79 29 dc bc 1b 01 ec 3c 24 7e a8 ba cc 74 34 bb
       -0.026875244 0.02880912 -0.0012854976 -0.0027535437
000310 f3 aa b4 bc 24 64 31 3c 17 ec 22 bc 09 16 99 bb
       -0.022054171 0.010827098 -0.0099439835 -0.0046718162
000320 0d 52 91 bc d6 ac 10 3b f3 46 cb bb 31 23 79 3c
       -0.01773932 0.0022075674 -0.006203526 0.015206144
000330 68 3f ae 3c 73 a4 a5 bc ba 74 47 3c b6 74 1d 3d
       0.021270469 -0.020220017 0.012173826 0.038441382
000340 08 52 b2 3c c8 a4 ed bb 31 35 bc bc 3b 6a ed bb
       0.021767631 -0.0072523095 -0.022974582 -0.0072453297
000350 28 ff c6 3b 01 59 86 bb 8d 61 2b bc ba da 81 3c
       0.0060728975 -0.0040999656 -0.01046027 0.015851367
000360 60 22 f0 bc 2c 93 96 bc 82 ef a1 3c 42 f2 8c bc
       -0.029313266 -0.018380724 0.019767527 -0.017205361
000370 98 c7 ef 3b d1 e7 ce bc b7 97 b0 3c ec ec 67 bb
       0.0073174946 -0.025257023 0.021556718 -0.003538902
000380 1d 16 6b 3c 9b 9f 71 3c 2f 8c b6 3c ff 93 01 bc
       0.014348534 0.014747526 0.022283642 -0.00790882
000390 d9 d4 26 3c 8b 63 84 bc a0 69 48 3c 7c 4b c0 3a
       0.010182583 -0.016160747 0.012232214 0.0014670934
0003a0 0e a2 c4 bc 02 be ba bb b1 37 ff 3c 21 53 92 3c
       -0.024003055 -0.00569892 0.031154485 0.017861905
0003b0 6a e8 eb 3c 1d 0b 90 bc 8f 8a ac 3b 24 cf 3a bc
       0.028797347 -0.017583424 0.005265541 -0.011401925
0003c0 e4 28 58 ba eb 46 8f 3b 17 09 b5 3c fa f6 ce 3b
       -0.0008245839 0.0043724678 0.022099061 0.006316063
0003d0 3f 35 a7 bb 4e b3 cf bb a1 11 6d bc 82 cb 6a 3c
       -0.005102783 -0.0063385135 -0.014469535 0.014330747
0003e0 41 91 22 3c 19 e2 4e bc 12 e9 d9 bb 9b db 84 bc
       0.009922327 -0.012627148 -0.0066500986 -0.016217997
0003f0 a3 0b 63 3c 00 3d c4 3c 60 14 35 3c e8 36 aa bb
       0.013857755 0.023954868 0.011052221 -0.0051945336
