src/trained_models/model_corvette_photonix_max.pth (torch, 909805 bytes, 20 tensors)

conv1.weight f4 [64, 2, 3, 3]
00000000: fb46 2dbd e55b 64bd c4a4 b73d f487 f4bb
00000010: 52a2 e33d a541 54be 1838 e3bd 9ca7 34be
00000020: ecfc dd3d 1362 a3bc e654 043d ee4d 473e
00000030: 4f38 613c 48c2 0c3e 09c7 463e 222f 403d
00000040: d397 c33d 8f47 153e 53cb bc3c 8260 363e
00000050: 46c4 41be a99b 703d 4e8b 68bd 710f 5bbe
00000060: 4abc 46be a98e 2bbd 5fb1 c93d 9607 51be
00000070: e5ea 4bbe 3778 03be 961c c6bd ed2d 5e3e
00000080: 9111 5ebe 7887 2dbe 4dd3 b93d 953b cebd
00000090: 5d7b 4ebe 2938 203e 296b 29be d993 70be
000000a0: d10f 1a3e 32e1 6d3e 6ad4 5b3e 2bbc d7bd
000000b0: fa36 163e d1c0 b3bd f612 edbd acc9 1f3e
000000c0: b7a3 1cbe c7da 28be a681 37be e41e 5b3e
000000d0: b170 acbd 4004 003d 01b5 133e 4248 fb3d
000000e0: 3c38 55be 2c1d 243e 6aea 213c 8a66 1a3e
000000f0: da2d d9bd 0c9d 55be 5d45 4c3e 42b0 2c3d
00000100: 57b7 e3bd fcc5 16be 6f00 23be ea98 8cbc
00000110: 4450 1d3e 8cb0 0ebe ef72 313e a15c 54be
00000120: 49b1 0c3e 7053 783d d8e1 d3bd c386 623e
00000130: 0a7d 0b3e eec7 cf3c cffc 62be c3e8 0bbe
00000140: bc80 d13d 7202 623e d913 6f3e 2bcd cbbc
00000150: a0ab 1fbe 3aa5 353c 9789 193c 1925 94bd
00000160: 4c1f c6bd afd1 093c ec4e 4ebd 8724 33be
00000170: fae3 933d d35f 84bd e1be 193e b5a8 d0bd
00000180: 3b1f 34be acb7 0a3d 0701 4bbe 48ad 36be
00000190: f8ac 0f3e b6fc c6bd d4db 9cbd 29c4 6bbe
000001a0: 3041 21bd 7bdc 1e3e 1d22 e33d 006e 3f3e
000001b0: f27d bf3d 2c12 393e 8b30 593b 6597 5ebe
000001c0: 0642 21bd 2482 083d ac87 593e b61c a8bd
000001d0: af3d 1e3e 1c96 903d 3de2 773c 4181 70be
000001e0: ebb5 6f3e 4435 45be 65d9 673d 3a06 babd
000001f0: 8f96 e83d 6320 66be 00cd 40bd d53a a3bd
00000200: 4055 a93d 4d94 243e eba1 823d 656e 3a3e
00000210: 718d 363e 640b 4abe 5442 3fbe 8b72 db3d
00000220: 7861 0ebe baf0 bdbc 78a7 013e ecaf 273e
00000230: 371a 873d 1a8c b8bc cd0f 39be 1662 17be
00000240: 75bb 8b3d d431 15bc 6cd2 453d 9747 653e
00000250: 8f82 b3bd 4ed5 273d 9288 363d a172 05be
00000260: 7b5a 08be fea7 25bd a2cf 21be 8322 0c3e
00000270: 9c55 dabc 5342 643e f956 31be 2268 3e3e
00000280: 7ba5 673e 5d11 e33d 31e9 93bb aa9b dd3d
00000290: c48e 21bd ff47 debd 551f dcbd ccff 6abe
000002a0: 1a56 8e3d 15d4 62be fcde 26be 1cba 4ebe
000002b0: a3c9 e9bd 66c0 26be 1d14 593e 1deb 43bd
000002c0: bfb0 d7bd 8a0e 98bd d279 51be d784 243e
000002d0: 8714 003e d30b 26be abec c8bd 5aae 043d
000002e0: 6284 453e 0380 f43c 921f 42bd 0177 65be
000002f0: 4f5a 343e 3ae8 4a3e d767 6fbe 0a6c 51bd
00000300: f427 4e3e b2df 573e 060e 04be c7d9 25be
00000310: f755 243e 5de8 333e 7f6e 12be f742 9e3d
00000320: 57fd 1c3d 026e 50be b2b8 e3bd 0d33 68bd
00000330: 1992 20be 48ee d5bd 2051 2c3e 3665 1cbd
00000340: 291f 22be 1c19 abbd 6402 c4bd 19ba 64ba
00000350: 3103 cf3d 5aae c5bd d3b5 babc d204 55be
00000360: 2c66 c8bc ab22 e8bd b4e9 f93d 0531 513d
00000370: f5df bd3d 8e00 433e 2fe5 0cbd 0530 24be
00000380: 344e 3a3c 8584 4b3e 96a4 69be 5ebd ddbd
00000390: a7f4 a33d 8685 223e 0202 a23d 0d20 dcbc
000003a0: 417e 56be 5891 45be acf5 753d c247 16be
000003b0: 2cbc cfbd 8af1 13bd c7cb 8fbd b6b9 953d
000003c0: fd1b 013d 5a33 be3c 2af5 2fbd 9dc3 4b3e
000003d0: efb7 e4bd 1e8c 9dbd 5cc2 15bd 950c edbd
000003e0: 28a7 843d 1e27 07bd a5c7 d93d f6b6 173e
000003f0: 9c39 233d cd1f dabd 763e e83d 346c ba3c
-0.04230402 -0.0557517 0.089669734 -0.007462496 0.111149445 -0.20728166 -0.110946834 -0.17642063
0.10839257 -0.019944226 0.032307528 0.19463322 0.013746335 0.13745987 0.19411863 0.04691995
0.095504425 0.14578079 0.023046171 0.17810252 -0.18922529 0.0587422 -0.056773476 -0.21392609
-0.19407764 -0.0418841 0.09848284 -0.2041305 -0.19913824 -0.12838827 -0.09673421 0.21697207
-0.21686389 -0.16946208 0.090735056 -0.10069958 -0.20164247 0.15646423 -0.16544785 -0.234939
0.15045096 0.23230436 0.21467748 -0.10533937 0.1466941 -0.08777011 -0.11575882 0.15604275
-0.15296827 -0.16489707 -0.1792055 0.21398503 -0.08419932 0.031254053 0.14424516 0.122696415
-0.20822233 0.16026753 0.009882549 0.15078178 -0.106044486 -0.2086069 0.19948335 0.04216028
-0.11118954 -0.14723963 -0.15918134 -0.017162759 0.1536265 -0.13934535 0.17329 -0.2073846
0.13739504 0.060626447 -0.10345811 0.2212172 0.13621917 0.025363889 -0.22166751 -0.1366301
0.10229632 0.22071245 0.23347415 -0.024878105 -0.15592813 0.011086756 0.009371183 -0.07233638
-0.09673938 0.008411809 -0.050368235 -0.17494403 0.072212175 -0.064635895 0.15014221 -0.10188428
-0.17590038 0.03386657 -0.1982461 -0.17839539 0.14030826 -0.097161695 -0.076591164 -0.23024048
-0.03936881 0.15513794 0.11090491 0.18694305 0.09350194 0.18073338 0.0033140506 -0.2173744
-0.039369605 0.033327237 0.21243161 -0.08208601 0.15453218 0.07059881 0.015129623 -0.23486806
0.2340924 -0.192586 0.056603808 -0.09083219 0.11356842 -0.22473292 -0.047070503 -0.07970206
0.08268213 0.16072197 0.0637854 0.18206175 0.17827393 -0.19730908 -0.18677646 0.10715207
-0.13904369 -0.023186076 0.1266154 0.16375703 0.06596797 -0.022527743 -0.18072434 -0.1478351
0.06822864 -0.009106118 0.048296377 0.2239059 -0.087651365 0.040974908 0.044563837 -0.13032009
-0.13315766 -0.040443413 -0.15801862 0.1368504 -0.02665215 0.22290926 -0.17318334 0.18594411
0.2262172 0.11087296 -0.0045138826 0.10820706 -0.039442793 -0.10853576 -0.107481636 -0.22949141
0.06950016 -0.22151215 -0.16296 -0.20188183 -0.11415412 -0.16284332 0.21199079 -0.047831643
-0.105317585 -0.07424648 -0.20456627 0.160663 0.1250783 -0.16215448 -0.09810766 0.032392837
0.19288781 0.029846197 -0.04739339 -0.22408678 0.17612575 0.1981515 -0.23379456 -0.051128425
0.20132428 0.21081427 -0.12895975 -0.16196357 0.16048418 0.17569108 -0.14299963 0.07727616
0.03832754 -0.20354465 -0.11119212 -0.05668931 -0.15680732 -0.10445839 0.16827822 -0.03818246
-0.15832199 -0.083543986 -0.095707685 -0.00087252405 0.101080306 -0.096523955 -0.022791779 -0.2080262
-0.024462782 -0.113347374 0.122027785 0.05107214 0.09271232 0.1904318 -0.034398254 -0.16033943
0.011371184 0.19874771 -0.22816691 -0.108271345 0.08005648 0.15871248 0.07910539 -0.026870752
-0.209466 -0.19293725 0.060048744 -0.14675811 -0.10143313 -0.03611902 -0.07021289 0.07310812
0.031520832 0.023217846 -0.042958416 0.1989884 -0.11167895 -0.07692741 -0.03656231 -0.115746655
0.06477195 -0.03299629 0.10633782 0.14815888 0.039849862 -0.10650597 0.113400385 0.022756673

conv1.bias f4 [64]
00000000: 44b7 3d3e 14c6 61bd b3a2 9a3d a4e3 0ebe
00000010: e224 3fbe d72f acbd 1d5a d23d d235 953d
00000020: 2866 2d3e 4999 29be 55c2 433e 1feb b0bd
00000030: 52a0 35be b5b9 af3d c903 a6bd b5ca 0fbe
00000040: b439 42be 31bf 52bd 4233 41be 7bb5 1fbe
00000050: 9e20 053e b79a 46be 4bb7 a83d ca64 0a3e
00000060: 2f1c 63be c100 20be da94 223e abb9 3c3e
00000070: 0afd fe3c 7424 76bd 249e 6f3e f368 8abd
00000080: 2395 cc3b a726 25be 2917 00be 4b4b b2bd
00000090: 69ac 32be dfe5 5ebe cd6a 60be d688 73bd
000000a0: 0154 36bc 54f9 6b3d a2ee 203c 8bbf aa3c
000000b0: da94 07be ccf8 00be d5b2 92bc 21c5 923d
000000c0: 7b19 4f3e 75d3 62be 1d73 e93d c2b7 6ebe
000000d0: 3256 1abe dec3 68be 1ca9 fcbb 05b9 aabd
000000e0: 0603 03be 9517 023e 792d f53b 706b e5bd
000000f0: 884a be3d 30e2 2ebe c43b c9bd 7221 b9bd
0.18526942 -0.055120543 0.07550564 -0.13954026 -0.18666413 -0.08407562 0.10271094 0.07285656
0.16933501 -0.1656238 0.191171 -0.08638596 -0.17736939 0.08580343 -0.08106191 -0.1404217
-0.18967324 -0.051451866 -0.1886721 -0.15596573 0.13000724 -0.19394957 0.08238085 0.1351501
-0.2217872 -0.15625288 0.15877095 0.18430202 0.031126518 -0.06009336 0.2340017 -0.06758299
0.0062433644 -0.16128026 -0.12508835 -0.08705767 -0.17448582 -0.21767376 -0.21915741 -0.05945667
-0.0111284265 0.057610825 0.0098225195 0.020843288 -0.13240376 -0.12594908 -0.01790754 0.071665056
0.20224564 -0.22150977 0.11398909 -0.23312286 -0.15071943 -0.22730967 -0.007710589 -0.08336071
-0.12794122 0.12704308 0.0074822274 -0.11202133 0.092915595 -0.17078471 -0.098258525 -0.09039582

bn1.weight f4 [64]
00000000: e17c 7f3f 5e01 803f e6ce 7d3f 7937 803f
00000010: fc55 7e3f 40c4 803f 7601 7e3f 60cd 7e3f
00000020: 4c88 813f e155 823f 93d6 7e3f 4b7e 813f
00000030: d1b1 7f3f 811e 813f 1a01 803f 8dd6 803f
00000040: fb9b 7e3f 161a 803f a24f 803f 5b3d 803f
00000050: 9463 7f3f c055 7c3f f043 7f3f 89f4 7e3f
00000060: c4a2 803f c3d9 7c3f 5d34 7f3f 09ef 7f3f
00000070: 205f 803f 54f0 7f3f 4f6b 7e3f 898b 7e3f
00000080: e906 803f 8717 803f 5e04 813f 568b 7d3f
00000090: a717 803f da2d 803f 9ec0 823f 93d6 7d3f
000000a0: 8e76 7f3f 6d02 803f a1a6 803f de08 803f
000000b0: d875 7f3f 9df7 823f 4844 7f3f 0b75 7f3f
000000c0: 4d63 7e3f 2cf6 7f3f dd0e 7e3f 8910 7e3f
000000d0: b6bb 7f3f 517f 803f beeb 803f c95e 7d3f
000000e0: c29b 833f 14d2 7e3f dce3 7e3f 2c0c 7e3f
000000f0: a5e9 7e3f 6a48 803f eb1d 823f d2c3 7b3f
0.99799925 1.0000417 0.99143827 1.0016929 0.9934995 1.0059891 0.9922098 0.9953213
1.011972 1.0182458 0.99546164 1.0116667 0.998807 1.0087434 1.0000336 1.0065476
0.9945676 1.0007961 1.0024302 1.0018724 0.9976132 0.98568344 0.9971304 0.9959188
1.0049672 0.9876978 0.99689275 0.99974114 1.002903 0.99976087 0.9938249 0.99431664
1.0002109 1.000718 1.0079458 0.99040735 1.0007218 1.0013993 1.0215032 0.9915554
0.99790275 1.000074 1.0050851 1.0002706 0.9978919 1.0231816 0.99713564 0.9978797
0.9937027 0.99985003 0.9924143 0.9924398 0.998958 1.0038854 1.0071943 0.98972756
1.0281909 0.99539304 0.99566436 0.9923732 0.99575263 1.0022099 1.016538 0.98345673

bn1.bias f4 [64]
00000000: a3e2 4f3c 7745 9c3c ad58 343c 0eab 9b3c
00000010: 0646 553c 64b7 9e3c 5afb 423b 7984 3f3c
00000020: 5e70 8f3c c66c fc3c b9ea 7e3c d159 d63c
00000030: d3c9 653c b022 b83c f47b 30bb f8bb fe3c
00000040: b2e5 1a3c 7425 7c3c 27eb 6c3c b468 973c
00000050: b805 bd3b bf84 d4b9 2540 a03c 4667 a03a
00000060: a95e bf3c 6a07 9f3b 8ce3 3f3c a88f a63c
00000070: 1d6f 773c 11e4 0f3b 00bc 433c fad4 0c3c
00000080: 0f00 d43b 8f3f 8a3c b0da 043d a26f 58ba
00000090: 7e04 3b3c b739 4c3c 4da8 c63c 953d 583b
000000a0: bc6d c13b 9b7d 6b3c ba36 f83c cf34 a33c
000000b0: 2534 153c 7225 073d 5fec ea3b 62fc 52bb
000000c0: 6de7 6abb 20d2 ed3b 63a0 393b b9eb 103c
000000d0: a5d6 863c a38d 823c ce33 2d3c bec5 8d3b
000000e0: 5978 1c3d e300 9d3b 4cb9 183c c9f0 133c
000000f0: c11c 423c 8782 edbb 743a e83c 50a5 183b
0.012688312 0.019076092 0.01100747 0.019002464 0.013017183 0.019374557 0.0029751868 0.011689299
0.017509636 0.030813586 0.015558892 0.026165875 0.014025169 0.022477478 -0.002692935 0.03109549
0.009454178 0.015389789 0.014460362 0.018482544 0.005768504 -0.00040534695 0.019561836 0.0012237809
0.023360567 0.0048531787 0.011711966 0.020332173 0.015102175 0.0021956007 0.011946678 0.008595699
0.0064697335 0.01687601 0.03243512 -0.00082563807 0.011414645 0.012464932 0.024250174 0.003299569
0.005902974 0.014373208 0.030299533 0.019922642 0.0091066705 0.032994695 0.007169291 -0.003219389
-0.0035843507 0.007257715 0.0028324358 0.008845263 0.016459772 0.015936678 0.010571433 0.004326551
0.03820071 0.0047913655 0.009321522 0.009029576 0.011847676 -0.007248226 0.028348185 0.0023291893

bn1.running_mean f4 [64]
00000000: b51d 1f3e 2fb9 b9bd 234d d53d 6fbf d8bd
00000010: 8171 17be a91a 00be e921 fd3d 4672 c93d
00000020: 80ed 333e c90a 7fbe 164d 4d3e 06a2 17be
00000030: 1e0f 1fbe 56e2 723d fbd4 a3bd 83fc 3fbe
00000040: 6781 00be c47c 99bd 479d 6dbe 2bc8 4fbe
00000050: d433 b33d 88d2 2fbe defa dc3d fc8a 5d3e
00000060: 7b7d 86be 5839 cbbd 82d1 5a3e b215 183e
00000070: 9cec b03c b4e9 ab3b e22c 7d3e 3e1a 79bd
00000080: d288 ae3d 26c0 d4bd ccf6 35be 5c93 d3bd
00000090: 347c b7bd fab9 04be ce21 8dbe c181 2fbd
000000a0: 2a3f 063d 5151 db3d ebe3 87bd 5eb1 50bc
000000b0: b08e cebd 5251 5bbe 0ebd ebbb 2b69 193e
000000c0: 76da 3a3e 7b26 1bbe b323 133e 97a3 64be
000000d0: ee72 50be e540 80be dd77 58bd ca03 d4bd
000000e0: c3c1 6bbe 50fe 083e b5b9 9b3d 34e1 1ebe
000000f0: cf56 883d e14c 2fbe 4442 23be dc78 06bd
0.15538676 -0.09068524 0.10415103 -0.10583388 -0.14789392 -0.1251017 0.123599835 0.09836249
0.17571068 -0.24906458 0.20048937 -0.14807901 -0.1553311 0.059297882 -0.07999607 -0.1874867
-0.12549363 -0.074945 -0.23204528 -0.20291202 0.0875012 -0.17170155 0.107900366 0.2163505
-0.2626761 -0.09923047 0.21368983 0.14852026 0.0215972 0.0052463654 0.24724153 -0.060816042
0.0852219 -0.10388212 -0.17769927 -0.10330841 -0.08959237 -0.1296157 -0.27564853 -0.042848352
0.03277508 0.10708869 -0.06635269 -0.0127376 -0.10085809 -0.2141774 -0.007194168 0.14981525
0.18247399 -0.15151398 0.14369087 -0.2232803 -0.20356342 -0.2504951 -0.052848686 -0.10352285
-0.23023133 0.13378263 0.0760378 -0.15515596 0.066571824 -0.1711917 -0.15943247 -0.032830104

bn1.running_var f4 [64]
00000000: c507 453c b266 813c 48f1 ec3c e0c7 9f3c
00000010: 0d29 883c dec8 633c d2ad 6c3c 9e01 883c
00000020: b8be 303c 8769 943c 0609 873c 6d04 6c3c
00000030: 57ad 2a3c 50cc a23b cc0b 6a3c 4d0e 513c
00000040: 0bd0 573c 6e7c 213c b6dc 4e3c 9e0d 0e3c
00000050: 23f8 963c 8cad 763c b8bf 8f3c 24c1 923c
00000060: 3e66 523c 23e6 793c 5d53 873c fb8b 5d3c
00000070: 24b5 573c 0141 703c a340 343c 84c3 413c
00000080: a73a 843c 44ae 513c 10f2 563c 3310 213c
00000090: c77f 993c cef2 3e3c 096b d13b 183a cf3c
000000a0: d84c 4f3c 90bd 623c 08d6 e93c 4d29 a83c
000000b0: ac3d 163c db11 933c c6b6 9b3c 6073 803c
000000c0: 7aad 903c 7498 843c 8968 583c cc98 c33c
000000d0: c8be a23c c2b9 a13c f911 4b3c 4484 853c
000000e0: 6acf a73c c8e7 683c ebe0 943c 4a11 a93c
000000f0: 7939 453c 1eca 8f3c 1203 853c edce a03c
0.012025778 0.01579604 0.028923646 0.019504488 0.016621137 0.013902871 0.014445739 0.016602334
0.010787658 0.018116726 0.016483795 0.014405352 0.010417304 0.0049682036 0.014285039 0.012759757
0.01317216 0.0098563265 0.012625864 0.008670239 0.018428868 0.015056025 0.017547473 0.017914362
0.012841759 0.015252623 0.016519243 0.0135221435 0.013165746 0.014663936 0.011001739 0.0118264
0.016141249 0.012797896 0.013119236 0.009830522 0.018737687 0.011654569 0.0063909334 0.025296256
0.012652598 0.013839141 0.02854444 0.020527506 0.009169977 0.01795285 0.019008052 0.015680015
0.017660845 0.016185977 0.013208517 0.02387657 0.019866362 0.019741897 0.012394422 0.01629842
0.020484645 0.014215417 0.018173655 0.020638127 0.012037628 0.017552432 0.016236816 0.01962992

conv2.weight f4 [128, 64, 3, 3]
00000000: 6cfb c33c 898d 9cbc 831a d63b 9bd9 e3bc
00000010: 675b 153d c192 2bbd f6bd 2d3d 0411 8a3a
00000020: 040f 4d3c 37b7 3f3c 942e babc 8f43 123d
00000030: 6910 113b 2e86 493d 1248 a7bc 9094 ce3c
00000040: 15d5 51bc 0183 0f3d 87fa be3c 7734 103c
00000050: 9970 32bc b930 8a3c 7e19 133d 4168 14bd
00000060: 42c7 1cbd 9e1b 2abd 5392 acbc 0b66 1ebd
00000070: 76fb 923b 6847 9c38 4f6d 0e3b 3d8d 533c
00000080: 509e 913c 5a6c 07bd dd10 09bc f422 b33c
00000090: fb75 9d3c dc8a afbc bef1 d6bb ae9d 173d
000000a0: ffb9 b8bc adfa a2bb 6cb6 123d 5902 aa3c
000000b0: 5aba 833b 8672 383c 18f1 94bc c5a8 093d
000000c0: 75e8 df38 1ae8 b3bc 6857 5bbc 9a04 76bc
000000d0: f020 b83c 8795 443b e5d5 9abc c94a e4bc
000000e0: 0673 aabc 38d3 ddba f21a c4bc 8a87 c03c
000000f0: 4d9d 4e3b 3d2d a2bb a18c bfbc de63 c6ba
00000100: 2c7b a9bc 043c d93c 1b34 2fbd 9d0b 033d
00000110: 5f0e 15bd 9f11 b3bb 2919 28bd 3619 81bc
00000120: 7bb7 fdbb 9c04 9e3c 7a31 abbc b91c 803c
00000130: 4d9a fcbc 53c8 46bb 1cf9 e73c c1b1 9d3a
00000140: 82b7 f33c 1c35 29bc 32ad a73b 738b 6f3c
00000150: 7aab babc e47e dc3c 5f62 f5bc 7726 e83c
00000160: 3384 be3c 768e 483c adff 593c 6f22 35bc
00000170: 0827 093d 94d6 0cbd 5c24 f0bc 1367 863c
00000180: e458 a8bc b53a 00bd 181c e93c 34b3 38bc
00000190: 97a2 6fbc c29c a63c 9536 61bb 95ea 5c3c
000001a0: b19e 3abc bbcd 0e3d fb83 c5bc 4f1a e7bc
000001b0: 1088 033d 4254 a43b 37cc 44bb 117f ad3c
000001c0: 60dc 0e3b 0a09 63bc c419 37bc 8985 063d
000001d0: 77a5 01bd 409d e8bc 2945 10bb afcd a6bc
000001e0: aefd e73c 9794 053d 3f3e 51bc 388c 08bd
000001f0: 4b9d e13b 23bf 96bc 7d81 d5bc c533 223d
00000200: 6234 dfbb 0366 bcbc 2af0 0d3d 9d65 dbb9
00000210: 63cd b7bb 9c2e 84bc dd3d eebc cdf5 0f3d
00000220: 9baf 0d3c da0f 1d3d 8506 d4bc ede1 4339
00000230: 62d1 0ebd f1ed 7d3c 6308 a7bc a059 f6bc
00000240: 8f85 d3bb 276b 0f3d 80c0 d2bc b4ae c13a
00000250: 8e8b af3c e3d2 1cbd 4130 74bc 9c39 0c3d
00000260: 437d 1a3a dac7 d3bc 6adf 333c a44b 24bc
00000270: b33d 1c3d a5af e0bc d781 f03c 9645 2abc
00000280: 86c2 1fbc 7ca2 94bc 88ff 22bd 6913 04bd
00000290: 214f 30bd e275 933c 61e3 a03b c042 15bc
000002a0: 2bcc d4bc 5c7e 0ebc 79ec b0bc a8bd 8a39
000002b0: 3c3b 033d b4b3 97bc 7d6b 903b 32ca fc3c
000002c0: 7691 03bc 9ef8 4c3c c77a 533c 111c da39
000002d0: c8af 4bbc 3a6a 233c 965c 3fbd c60b fcbb
000002e0: e4df 1c3c c699 00bd a9bd a0bb 1ed0 03bd
000002f0: ca3f c73c 3b8d 0fbd 3f33 043d eb7f f63c
00000300: 97c2 1bbd 7403 41bc 7151 41bb 67ce a1bb
00000310: 4302 843c fd75 463c 139b 1bbd 92b2 34bc
00000320: a239 c73c 16eb ab3c 8350 b53c f782 95bc
00000330: 74ff 07bd 7791 b2bc 9407 09bd 80b2 0dbd
00000340: 994a 4d3c f2ea 18bd 3697 e1bc db67 a93c
00000350: d7fa ca3b dc02 edbc 1cec d33c 585f 20bd
00000360: a83b 59bc fd00 1bbd f604 243d 10ed 0d3d
00000370: 22ad d7bc 93d4 883b 7a3c 273d 9328 2d3d
00000380: 6560 70bc ad17 a7bc 3b25 1e3d f36f d53c
00000390: aa70 f8bc 1aa7 c2bb bf58 163d 6b68 dbbb
000003a0: 44db 20bd d119 1a3c 49d4 feba 18af 11ba
000003b0: 0b1b 973c 6ce3 db3c 93eb bebb 4ba0 27bd
000003c0: 29f6 f43c c003 0b3d 6eeb 05bd 3562 013d
000003d0: 34d4 8bbc 8b36 10bd 7893 74bc f05a 22bb
000003e0: e24a 78bb fdb2 063d 088c 663b 5cf8 0fbc
000003f0: d6db 403c 1759 14bd dd24 9a3b 42d1 a03c
0.023923598 -0.019110458 0.006533922 -0.027813723 0.03646412 -0.041888002 0.04241749 0.0010533636
0.012515787 0.011701397 -0.022727288 0.03570896 0.0022135025 0.04920023 -0.020420108 0.025217324
-0.01280715 0.035037044 0.02331282 0.008801571 -0.010891103 0.016868936 0.035912983 -0.036232237
-0.038275965 -0.041530244 -0.021065867 -0.038671535 0.004485543 7.45196e-05 0.0021732633 0.012912092
0.017775685 -0.033062316 -0.008365837 0.021867253 0.019221297 -0.021428518 -0.0065595796 0.03701561
-0.022549627 -0.0049737305 0.035818502 0.020753073 0.0040200176 0.011257773 -0.018181369 0.033608217
0.00010676767 -0.02196126 -0.0133875385 -0.015015746 0.022476643 0.0029996352 -0.018900821 -0.027867692
-0.0208068 -0.001692391 -0.02393863 0.02350213 0.0031526864 -0.0049492405 -0.023382487 -0.0015135964
-0.020688616 0.026517875 -0.0427743 0.031993497 -0.03639066 -0.005464747 -0.04103962 -0.015759092
-0.00774282 0.019289307 -0.020897616 0.015638696 -0.030835295 -0.0030331805 0.028317027 0.0012031124
0.02975059 -0.010327604 0.005117082 0.01462065 -0.022786845 0.026915975 -0.029954134 0.028338654
0.023256397 0.012240997 0.013305587 -0.011055573 0.03348449 -0.034384325 -0.029314213 0.016406571
-0.020550199 -0.031305987 0.028455779 -0.011273194 -0.014626167 0.02033842 -0.0034364809 0.013483663
-0.011390374 0.03486417 -0.024110785 -0.028210787 0.03211218 0.005014927 -0.0030028948 0.021178754
0.0021798834 -0.013857136 -0.011175577 0.032842193 -0.03165194 -0.028395295 -0.002201388 -0.02036175
0.028319206 0.03261241 -0.012771188 -0.033336848 0.006885206 -0.018401688 -0.026062721 0.039600153
-0.0068116644 -0.022997862 0.034652866 -0.00041846643 -0.005609201 -0.016135506 -0.029082233 0.035146523
0.008647825 0.038345195 -0.025882015 0.00018680813 -0.03486765 0.015498624 -0.020389741 -0.030072033
-0.0064551304 0.035014298 -0.025726557 0.0014776797 0.02142885 -0.038287055 -0.014904083 0.034234628
0.0005893299 -0.025852133 0.010978559 -0.0100278 0.03814478 -0.027427504 0.029358787 -0.010392567
-0.009750968 -0.018143885 -0.039794475 -0.032245073 -0.043044213 0.018000547 0.004909918 -0.009110153
-0.025976261 -0.008697119 -0.021597134 0.00026462716 0.032038912 -0.018518306 0.004407345 0.030858133
-0.008030286 0.012510447 0.01290769 0.0004160111 -0.012432046 0.009974057 -0.046719156 -0.007691833
0.009574864 -0.03139665 -0.0049054218 -0.032180898 0.02432241 -0.035046797 0.032275435 0.030090293
-0.038027372 -0.011780608 -0.0029498006 -0.004937935 0.01611436 0.012113092 -0.037989687 -0.011028903
0.024319474 0.020986121 0.022133118 -0.018250925 -0.033202603 -0.021797879 -0.033454493 -0.03459406
0.0125299925 -0.037333436 -0.027537923 0.020679405 0.006194453 -0.028932028 0.025869422 -0.039153427
-0.013258852 -0.03784274 0.040043794 0.03464991 -0.026327673 0.0041757314 0.04082916 0.042275023
-0.01467142 -0.020397032 0.038609724 0.026054358 -0.03032716 -0.00594033 0.03670573 -0.006695797
-0.039271608 0.009405569 -0.0019441928 -0.0005557402 0.018445512 0.026841842 -0.0058264225 -0.04092435
0.029902535 0.033939123 -0.032695226 0.0315878 -0.01706896 -0.035208266 -0.014927737 -0.0024773441
-0.003788643 0.03288554 0.003517868 -0.008787241 0.011771163 -0.036217775 0.0047041015 0.019631032

conv2.bias f4 [128]
00000000: edfe 4ebc b0fe 16bd 3c5a 183d a277 c1bb
00000010: 7371 94bc ecc4 f7bc 6879 dd3c 4802 01bd
00000020: c968 093d 1702 4c3c 350f 5f3a 7949 913c
00000030: f7e6 053d d1ca ac3b dbd7 b43c efdb ba3b
00000040: a0b2 51bc 03b8 233d bcbe 1f3d 6559 9a3b
00000050: d4c5 63ba 5f80 6d3c 478c b63c 923a b93c
00000060: eee2 703a 319b 1dbd 674a 1f3d 77e4 0bbd
00000070: 5fb2 9b3c 4877 b83a 8cf0 18bd 3a67 9fbc
00000080: 07f5 103d cf58 0dbd 2100 193d 6df5 6ebc
00000090: 3be0 d93c 27f1 933c 4061 d13c f950 123d
000000a0: 9c61 46bc 6c92 f33c 597d 8339 284b 21bd
000000b0: 79f1 cd3c 0394 b83c 4825 593c 3a30 233d
000000c0: fd36 b9bc 0630 2a3d ad99 ecbc e2a4 073c
000000d0: 3dba e9bc a123 03bd f670 df3c 3c71 093d
000000e0: d267 1f3d 654f a53c cd82 04bd bee0 9a3c
000000f0: 9431 29bc 1ab9 13bd 9eaf 37bc df2a dbb9
00000100: c313 a2bc 95dd 8cbc 20c4 e0bc 6991 2f3c
00000110: a366 29bd d307 22bd d161 6bbb c456 8d3c
00000120: ae8b c3bb 33bc b0bc 1f74 25bd fcad bf3c
00000130: 82a4 67bc b174 b53c d884 babc 027c 1e3d
00000140: c599 20bc b16f 363c a1aa e5bc b11a 11bc
00000150: ab15 953c 4b94 123d d859 1f3c 6c29 27bd
00000160: 1d5f f0bc 076b 2f3c 35c0 e63c 1cd7 dcbc
00000170: ede7 0a3d 0c4b 013d 60dc eb3c 5790 0c3a
00000180: 8cac b03c 6b00 b93c f492 81bc 8d91 243c
00000190: d897 ecba 30cf 673b 05c3 9f3b 40eb 31bc
000001a0: f49f 5abc 79bf 4e3c 47cc 003d 1927 a4bc
000001b0: 3345 df3c 0e5e 0a3d a80d b33c 050d 1bbd
000001c0: 2477 6cbc e246 00bc 651c 043d 446b 0a3c
000001d0: 0dc6 a3bc 3981 95bb 382a 123d e7bd f8bc
000001e0: ab7f 3a3c 5a32 0bbd 1714 eabc a81d 31bc
000001f0: 0ff3 1cbc f392 693c e377 8c3c 91dc eebc
-0.012634021 -0.036863983 0.03719543 -0.005904154 -0.018120503 -0.030245267 0.02703543 -0.031496316
0.033547197 0.01245167 0.0008509041 0.01773523 0.03269097 0.005273201 0.022075584 0.0057024877
-0.012798935 0.03997041 0.039000258 0.0047103637 -0.00086888415 0.014495938 0.022283686 0.022610936
0.00091890886 -0.03847808 0.038889315 -0.034153428 0.019005952 0.0014073635 -0.03733878 -0.019458402
0.035389926 -0.034508523 0.03735364 -0.014584881 0.02659618 0.018059326 0.025559068 0.035721753
-0.012108233 0.029732905 0.00025079658 -0.039378315 0.025139557 0.022531515 0.013253517 0.039840914
-0.022609228 0.041549705 -0.028881872 0.008279057 -0.028531188 -0.0320164 0.027275544 0.033555254
0.03891737 0.02017946 -0.032351304 0.018905994 -0.010326762 -0.0360652 -0.011211304 -0.00041802877
-0.019784814 -0.017195502 -0.02743727 0.010715821 -0.041357648 -0.039558243 -0.0035916457 0.017253287
-0.005967579 -0.021574115 -0.040393945 0.023398392 -0.014138343 0.02215037 -0.022768423 0.03869248
-0.0098022865 0.011135028 -0.028035464 -0.008856461 0.018198809 0.035785954 0.00972601 -0.040810987
-0.029342229 0.01070667 0.028167823 -0.02695804 0.033912588 0.03156571 0.028791606 0.00053620845
0.021566652 0.022583207 -0.015817143 0.010044468 -0.0018050624 0.0035371296 0.004875543 -0.010859311
-0.0133438 0.012618893 0.031444814 -0.020038174 0.027254676 0.033781104 0.021857098 -0.037854213
-0.014432702 -0.0078294 0.03225364 0.008448426 -0.019991899 -0.0045625237 0.035684794 -0.03036399
0.0113829775 -0.033983566 -0.028574033 -0.010810293 -0.009579434 0.014256227 0.01714701 -0.029157909

bn2.weight f4 [128]
00000000: 4541 7f3f c4ae 7e3f 9692 803f a530 7d3f
00000010: bf2a 813f 99b2 803f 16ab 7e3f ba30 7c3f
00000020: e7fe 823f cf27 7e3f 5ce3 7e3f b441 7e3f
00000030: cfec 7f3f ef38 7f3f 0130 813f 7519 823f
00000040: 15d9 7f3f 2dc9 7e3f ea4a 7d3f d314 823f
00000050: 885a 803f d07f 803f ae5d 7d3f c343 803f
00000060: 10a9 813f 7c3b 813f d260 7d3f de99 7a3f
00000070: b8db 7f3f 1e2e 7f3f a8c5 803f a7c7 803f
00000080: 526c 833f f2d0 813f 73ed 803f 4d2b 803f
00000090: de7c 803f 88e8 803f fe19 7c3f 247f 7f3f
000000a0: 362d 813f 8a6a 823f c69f 823f c73c 7c3f
000000b0: 06db 803f 3087 7f3f e986 7e3f effb 7d3f
000000c0: c487 803f c61c 7d3f 2ddf 7f3f daf9 813f
000000d0: ec3c 803f b124 7f3f ee83 823f 4234 803f
000000e0: 51f4 7b3f 40fc 7a3f d13a 833f 4310 803f
000000f0: c05e 823f 94ab 7d3f f1b4 7d3f 747c 7c3f
00000100: deed 833f a94a 823f 6353 7c3f 9db2 7f3f
00000110: 390d 7f3f e84f 7d3f c16e 7f3f fbda 823f
00000120: 5977 813f 5cc4 7d3f 3f8b 7c3f 89b0 7f3f
00000130: 287e 7e3f 1dd4 7d3f 0895 7b3f d96c 7b3f
00000140: 3489 7e3f 6832 823f 979a 7f3f 7c23 843f
00000150: fd51 7e3f ef40 803f 3685 813f 1e44 7b3f
00000160: a77b 7c3f 546a 7f3f dd9d 803f bc64 7d3f
00000170: 763c 7e3f 9571 833f 6991 833f 6093 7f3f
00000180: c913 7e3f 458c 7c3f 66e1 7b3f 3d1a 7f3f
00000190: 1554 803f 27ba 803f 6d8f 7e3f cd09 7f3f
000001a0: 3895 7e3f ea26 7d3f cd8a 7e3f 30e3 813f
000001b0: a34b 803f b129 813f f535 803f 062f 7d3f
000001c0: 55d8 7f3f db9f 7e3f 3a1f 7f3f 2924 803f
000001d0: 15ec 7c3f 6365 803f f89b 833f 6f1c 833f
000001e0: db70 7e3f f754 803f 0832 7f3f f328 813f
000001f0: bbe0 7f3f 2cf0 7f3f f087 7a3f d885 813f
0.9970897 0.9948542 1.0044734 0.9890235 1.009117 1.0054504 0.99479806 0.9851185
1.023404 0.99279493 0.9956567 0.99319005 0.99970716 0.9969625 1.0092775 1.0164019
0.99940616 0.9952572 0.98942435 1.0162605 1.0027628 1.0039005 0.9897107 1.0020679
1.0129719 1.0096278 0.9897586 0.9789103 0.9994464 0.99679744 1.006032 1.0060929
1.0267432 1.014189 1.0072464 1.0013214 1.0038106 1.0070963 0.9847716 0.99803376
1.0091922 1.0188763 1.0205009 0.9853024 1.0066841 0.99815655 0.99424607 0.99212545
1.0041432 0.9887203 0.99949914 1.0154374 1.0018592 0.9966536 1.0196512 1.0015948
0.9841967 0.9804115 1.0252324 1.0004963 1.0185165 0.9908993 0.9910422 0.986274
1.0306966 1.0179034 0.9856474 0.9988192 0.9962955 0.9895005 0.9977837 1.0223078
1.0114547 0.99127746 0.9864997 0.99878746 0.9941125 0.99151784 0.9827428 0.98212963
0.99428105 1.0171633 0.9984526 1.0323329 0.99343854 1.0019816 1.0118778 0.98150814
0.9862618 0.9977162 1.0048176 0.98981833 0.99311006 1.0269037 1.0278751 0.9983425
0.9924894 0.98651534 0.98390806 0.9964941 1.002566 1.0056809 0.994376 0.9962433
0.9944644 0.98887503 0.99430543 1.0147457 1.0023082 1.0090848 1.0016466 0.9889988
0.9993947 0.9946267 0.9965702 1.0011035 0.9879773 1.0030941 1.0281973 1.0243052
0.99390954 1.0025929 0.99685717 1.0090622 0.99952286 0.9997585 0.97863674 1.0118971

bn2.bias f4 [128]
00000000: b319 9fbb 4926 0a3c 2f84 643b bb60 8bbb
00000010: 3c4d 113c 46e0 04bc 29d6 acba d1ad c3bb
00000020: 5456 383c a76e 03bc e06a d93b 99f3 b2ba
00000030: 2821 f53a e70a eeba 34c4 f7ba d204 1b3c
00000040: b06b e7bb a66f 35bc a79b 51bb 74e1 b83b
00000050: 6617 8dbb 3d26 4d3b a2f5 4abc 802e 0ebb
00000060: 1b4f 9b3b 5f1e 05bb 3372 a4bb ed4f 4ebc
00000070: c0ed 67bb 2d9e 3b3b cc3a ae3b 8355 173a
00000080: f7fd 5c3c bc38 573c 0a4c adbb 75ad c438
00000090: f704 203c 6674 e5ba e5f3 77bc 2532 0a39
000000a0: 10b2 56ba 6ae7 203c ef84 573b 4b3c baba
000000b0: 4738 64bc 83e1 093c dec3 cdbb 88dc 1fbb
000000c0: bd3d 1fbb a0b3 12bc 1629 e7bb c702 ac3b
000000d0: 0cf2 19bc 29da 11bc 014b 56bb 53c2 5bbb
000000e0: 5244 efbb 0125 053a 94ca b83b 68ae d13b
000000f0: ec6e 413b d164 f6b9 b5b5 183c 864b f239
00000100: 9562 633b 0452 4e3c a336 f53a 9bb1 40bc
00000110: 77be 9abb 3912 0fbc 7a18 2e3c 7b5e ce3b
00000120: 1435 523b d12f 5cbc 6b04 2bbc 647c 4b3b
00000130: 66a0 0db9 cc51 a1bb 2ac3 e6bb bdb6 1dbc
00000140: 3cd8 2ebb 20e4 513c 7f53 43bc d814 beb9
00000150: 9960 ccba f7b3 c2bb b236 4eb9 9629 1cbc
00000160: d799 81bb ede6 09ba e7d5 6a3a e3c1 2cbc
00000170: c113 2bbc a0fb 9a3a 7c62 703c 202d 8cbc
00000180: c9c5 1d3b 2ac1 12bc 75e1 8039 3dc3 02b8
00000190: 7775 1dbc f3d8 9f3a 6d81 6dbc 9e41 9bbc
000001a0: 1cbd 0abc 3993 43bc 14e4 bcbb 4f81 1d3c
000001b0: d101 47bc bfe0 ff3a 214b 563b b575 24bc
000001c0: f24a 05bb dca8 f7ba 9c5a 2539 2265 153b
000001d0: 4558 12bc 5a9e 533a 1d6a b539 fa90 b9bb
000001e0: 4690 843a fb1e 08ba 0548 5fba 2976 feb9
000001f0: ba06 99bb 7952 debb 76b1 8bbc 76f3 083c
-0.0048553585 0.008431979 0.0034868827 -0.0042534745 0.008868512 -0.008110112 -0.0013186383 -0.0059716483
0.011251051 -0.008021987 0.006635055 -0.001365292 0.0018701898 -0.0018161208 -0.0018903078 0.0094615985
-0.007062398 -0.011073982 -0.0031983645 0.0056421105 -0.004305768 0.003130331 -0.012387665 -0.0021695197
0.0047396547 -0.0020312292 -0.0050184964 -0.012592298 -0.0035389513 0.0028628216 0.0053170677 0.0005772935
0.013488284 0.013136085 -0.0052886056 9.378317e-05 0.009766809 -0.0017506003 -0.015133833 0.00013179386
-0.00081899855 0.009820798 0.003288563 -0.0014208643 -0.013929433 0.008415583 -0.0062794527 -0.0024392921
-0.0024298273 -0.008953959 -0.0070544584 0.0052493545 -0.009396087 -0.008902111 -0.0032698514 -0.0033532574
-0.0073018456 0.00050790614 0.0056393836 0.0063989647 0.0029515577 -0.0004699589 0.009320666 0.00046214106
0.003469621 0.012592796 0.00187083 -0.011761094 -0.004722412 -0.008732372 0.010625953 0.006297884
0.0032075094 -0.013439135 -0.010438065 0.0031049484 -0.00013506561 -0.004923081 -0.0070423083 -0.009626088
-0.0026679179 0.012810737 -0.0119217625 -0.00036255154 -0.0015592753 -0.0059418636 -0.00019666067 -0.009531399
-0.0039551067 -0.0005260546 0.00089582655 -0.010544273 -0.010441721 0.0011824258 0.014671918 -0.017111361
0.0024074188 -0.008957187 0.0002458204 -3.1176245e-05 -0.009610525 0.0012195393 -0.01449619 -0.018952187
-0.008467939 -0.011936956 -0.0057644937 0.009613349 -0.012146429 0.0019521936 0.003269859 -0.010037829
-0.002033886 -0.0018894929 0.00015769381 0.0022795876 -0.008932178 0.00080726075 0.0003460207 -0.0056630345
0.0010113798 -0.0005192605 -0.00085175066 -0.0004853469 -0.0046699913 -0.006784734 -0.017052393 0.008358827

bn2.running_mean f4 [128]
00000000: 115a 553c e6db 6bbe bb08 a0be d69a fcbd
00000010: eaef cabe 511d bd3d 20c1 03bd 4a55 2d3e
00000020: 26b5 b7be fac7 4a3d 18b7 293e 8f3d e8b9
00000030: f9be 89bd 93ca 36bd ebd4 83be 057f e1be
00000040: f546 953c 7a0c 4fbe 04f4 063e 0c4d 04bf
00000050: c95c 71be ed71 26be 3139 ad3d 9cfe 97bd
00000060: ba65 aabe fb50 9dbe 796d 1cbd 869d 6cbd
00000070: d772 1b3d f1bc 533e ab07 a3be cd26 84bd
00000080: 8c37 bebe f2a4 8abe 97ec 69be 30c8 0bbe
00000090: 62c5 bd3e 4361 f2be ca5f 2b3e 2018 58be
000000a0: 4563 09bf 10be 8abe 1d23 c5be eb39 143e
000000b0: c3b7 ccbd 2dc9 bebd d082 683e 789d 393e
000000c0: 0cc7 993e 2308 a3bc 3458 d5bd 343f d0be
000000d0: d920 4f3e 70c2 d5bd a9af 8cbe a334 0fbe
000000e0: 098f 0b3d af6d 4a3d 07cc 03bf bf48 98be
000000f0: 6e6a dcbe d50a 9cbd 7445 0b3e 37ed 893e
00000100: 5788 fcbe a9c2 b9be f902 1b3b ac35 fa3d
00000110: 2ab7 d33c 910b 02be 56f6 df3d f118 a7be
00000120: 9eef 0bbf 9c8c d23a 7198 68be 7780 d83c
00000130: 1c2c 82be d8fb 2ebe a9f6 4ebe 8283 093d
00000140: abad cd3c 21e1 e2be e9fe 2dbe c70d 0abf
00000150: 87d1 1abe d172 d1bd 616e e6be ecb7 f03a
00000160: 0c71 853d 0fa5 5d3e e943 4fbd 90dc d13e
00000170: 1e04 923d 7b57 adbe 08aa a2be 24d1 41be
00000180: a0cf 343e 47f3 4f3b 84c7 3c3c 6f39 81bd
00000190: 590f 81bd 6513 00be 34f6 3dbd f52b 433d
000001a0: 7235 5dbd 1be8 593e cd67 9e3d 95cb 1fbe
000001b0: 180b 923d c9f9 bc3c 3b69 64be 2c87 63be
000001c0: 17c6 a1be 1df4 1d3e 3be8 23be a54f a3be
000001d0: 3f9b 7bbe a979 acbe ddfc e7be c9c8 b2be
000001e0: 2f89 383e a05b 9dbe 4ba5 4fbd d5d3 bfbe
000001f0: 0750 8a3d e28b 353e e853 a346 11e8 d3bd
0.013021962 -0.23033103 -0.3125666 -0.1233422 -0.39636165 0.09234107 -0.0321666 0.16927066
-0.35880393 0.04950712 0.16573751 -0.00044296353 -0.06725878 -0.044626784 -0.2574838 -0.4404222
0.018222312 -0.20219603 0.13179022 -0.51680064 -0.23570551 -0.16254397 0.08458174 -0.0742161
-0.33280736 -0.30725846 -0.03819034 -0.057767414 0.037951317 0.20677544 -0.31841788 -0.06452713
-0.37151754 -0.27078968 -0.22844158 -0.13650584 0.37064654 -0.4733983 0.1673576 -0.21102953
-0.536671 -0.2709813 -0.38503352 0.14475219 -0.09995987 -0.09315715 0.22706151 0.18126476
0.30034673 -0.01990134 -0.10417214 -0.4067322 0.20227374 -0.10437477 -0.27477768 -0.13984923
0.034071956 0.04942101 -0.51483196 -0.29743 -0.4304995 -0.076192535 0.13600713 0.26938793
-0.4932277 -0.36281326 0.0023652895 0.12217268 0.025844175 -0.12699725 0.10935657 -0.32636216
-0.546625 0.0016063633 -0.22714402 0.026428444 -0.25424278 -0.17088258 -0.20211281 0.03357268
0.025107225 -0.44312385 -0.16991772 -0.5392727 -0.15118991 -0.102269776 -0.45006087 0.001836536
0.065157026 0.21644996 -0.050601874 0.40988588 0.071296915 -0.33855805 -0.3177035 -0.18927437
0.17657328 0.0031730698 0.011522178 -0.06309783 -0.063017555 -0.12507398 -0.046377376 0.047649343
-0.054006048 0.21279947 0.07734642 -0.15605004 0.07131022 0.023068326 -0.22305767 -0.22219533
-0.31596443 0.15425153 -0.16006558 -0.318967 -0.2457094 -0.3368657 -0.45310107 -0.34918812
0.18021081 -0.30733967 -0.050694745 -0.37466303 0.06753545 0.17729142 20905.953 -0.103469975

bn2.running_var f4 [128]
00000000: b9b4 8e3d 95e7 153e 6234 103e 36a3 0b3e
00000010: 21d3 4e3e b746 a23d 60a4 9d3d 8a71 f43d
00000020: e6c2 b03d 2bef 8f3d 4e74 1b3e 10d2 483e
00000030: 7908 c53d 6fc2 ff3d 0044 8c3d 5ab6 9d3d
00000040: 6fb6 883d b655 a83d a9f9 d23d 7237 233e
00000050: 7925 843d 07f8 3e3e 789c 073e ff59 363e
00000060: 3157 283e 30e4 cf3d 6aac c03d 5f0a 8a3d
00000070: b792 313e 8290 0d3e 1d01 803d bc26 d43d
00000080: b3a9 073e edc2 cd3d b39c c63d 366b ef3d
00000090: 48b6 fe3d d0c8 cb3d d6f7 593d cdfa b73d
000000a0: ac8d d13d 38f9 083e dc78 a73d 63dd f83d
000000b0: 44eb 933d e1e9 363e f768 1a3e 001f 0f3e
000000c0: a379 c23d 1d1b f63d 03ee e33d 9b79 bb3d
000000d0: ce03 b43d ae29 db3d b14b 8f3d be21 ef3d
000000e0: a6f3 e23d 1949 0e3e 3942 c83d 2a06 1c3e
000000f0: 8474 8f3d 0b07 893d eac8 223e 449e d13d
00000100: a538 853d 5666 ad3d 3bb7 0c3e 3ba5 bd3d
00000110: c186 c63d e226 a83d a02b c03d 01b6 b13d
00000120: 900d 193e 9181 313e 82c7 063e e5ac eb3d
00000130: c035 543e c38a 1f3e f848 c53d b49f b03d
00000140: dc7c af3d 4ced 213e 0f98 fd3d 434e 433d
00000150: 0e45 293e 46ff 073e 50b2 fc3d 4d20 f73d
00000160: 6bb3 203e 5d01 cf3d 9883 c93d 9911 103e
00000170: d942 c23d 5fcd 4d3d 4879 e53d f91f af3d
00000180: 5d66 cd3d 0f6c b93d 637f 263e ac10 da3d
00000190: cba5 8a3d 3e32 8c3d c4b7 a83d f691 b13d
000001a0: 2089 973d ebc8 903d bd6e e83d aecd c43d
000001b0: 58b1 bd3d 2d6f ab3d 5400 a23d 49c9 073e
000001c0: ae0a 063e c17e a03d 988d 9e3d b222 ce3d
000001d0: 7964 fc3d 27f3 d53d dc10 823d 14be a83d
000001e0: e48a 173e 5fdc 293e e790 943d d11c 113e
000001f0: 1d0e ab3d 0652 033e 8d0c 594e 3e2c ed3d
0.06968064 0.14639123 0.14082482 0.13636479 0.20197727 0.07923644 0.07697368 0.11935718
0.08630924 0.070280395 0.15181085 0.19611382 0.09620757 0.12488257 0.068489075 0.077007964
0.066754214 0.08219473 0.10301525 0.1593912 0.0645246 0.18649302 0.13243282 0.17807768
0.16439511 0.10150945 0.094078854 0.067402594 0.17341124 0.13824657 0.06250212 0.103589505
0.13248329 0.10046945 0.09697857 0.11690371 0.12437111 0.09950411 0.05321487 0.08983383
0.102321 0.1337632 0.08177349 0.12151601 0.07222608 0.17862655 0.15079103 0.1397667
0.094958566 0.1201689 0.111293815 0.09154054 0.08789788 0.10701309 0.06996859 0.11676358
0.110816285 0.13895072 0.09778256 0.15236726 0.070046455 0.066907965 0.15896955 0.10235265
0.06504945 0.08466785 0.13741772 0.09260031 0.09693671 0.08210541 0.09383321 0.086772926
0.1494658 0.17334582 0.13162044 0.115075864 0.20723629 0.15580277 0.09633058 0.08624211
0.08568737 0.15813178 0.123825185 0.047682058 0.16530249 0.13280973 0.12338698 0.12066708
0.15693443 0.10107682 0.09839553 0.14069213 0.094854064 0.050244685 0.11204773 0.0855102
0.1002929 0.09053814 0.16259532 0.10647711 0.06769904 0.068455204 0.082381755 0.08670418
0.073992014 0.07069572 0.11349247 0.09609543 0.09262341 0.083708145 0.07910219 0.13260378
0.13090011 0.078366764 0.077418506 0.10065211 0.12323851 0.10446768 0.06350872 0.082393795
0.14799076 0.16587971 0.072542004 0.14171149 0.08352301 0.12824258 9.103696e+08 0.11580704

conv3.weight f4 [128, 128, 3, 3]
00000000: 060c 9f3c 99ce ca3c ffbc c33c bf4d d4bc
00000010: 9ee0 f93c ac1c e73b 1c58 a43c 53cc 893c
00000020: d45b cdbc 54a2 b93c f3bd 363c 0c17 00bc
00000030: 963a 173c e17c f6bc 32ee c03c 8c8c 8bbc
00000040: 515a b43a a603 81bc 429f 05bd 22a6 9abb
00000050: 45cc b4bc 1412 813c 06d9 83bc de8a 4dbb
00000060: 2018 7c3c 0080 bebb c00b 0ebc 8491 e2bb
00000070: d403 6cbc eb5b 7839 ebd7 9fbc dbda b8bb
00000080: 6d82 bfbc 0e0a 07bc 6384 893c dab6 02bd
00000090: 5d39 533c a7f7 adbc a62a 373c a337 b13c
000000a0: ad7d a93c 483b 8fbc 434f e83c 1308 29bc
000000b0: 4c98 c93c 9161 dcbc 1fcc 4a3c c6ac ac3c
000000c0: 44c8 ce3c 0a2f e9bc d658 a93c a104 bb3c
000000d0: b527 4d3b a816 82bc 8279 17bc 02cd b7ba
000000e0: 0938 993c 0019 e93c 07df 3bbc 6c9d c9b9
000000f0: 7a9e d6bc ef92 a5bc 9955 b03c 6e7b 4abc
00000100: c3e8 19bd 2670 8eba 2fb0 52bc 7036 b8bb
00000110: f1ba ab3c 26a1 cf3c 8e92 74bc 65d8 68bc
00000120: 3291 ccbb 0060 76bc 070b 97bc 8fa4 c33b
00000130: 29d7 d0bc f002 5339 38f1 c239 ebfc 47bc
00000140: a66f cf3c efa1 d2bc 9f54 92b9 13b1 fabc
00000150: a9a2 aebb 721f d93c 6c62 453c 5775 7cbb
00000160: 618c 4b3b 37cb cebc 69b5 ed3c b255 dbbc
00000170: a192 06bc e248 d83c 50f5 a7bb 12fd 8d3a
00000180: a496 cc3c 5f30 893a 44fc 5ebc 3a70 aebc
00000190: 977c 963c 16e8 4e3c 95c2 24bb 518c f23c
000001a0: 0629 f5bb 4b8f f93c ee6f 84bc a863 8f3c
000001b0: 1045 9c3c be5e f4bc eeff 96b8 5e49 e53b
000001c0: 5ebc 93bc 1891 23bc b4a2 c03c 16b7 133c
000001d0: 75ba 0d3d bef9 f1bc 971e a7bb e079 cbbc
000001e0: 9ba5 673c 9cc0 143c 79fc 99bc 6d17 00bc
000001f0: cd78 69bc fa9f 93bc be9f ed3c a453 bdbb
00000200: 65ca debc 7826 723c 437f c4bc 6265 35bb
00000210: 2dbc 95bc 09c6 39bc 2b1a 833b b865 98bb
00000220: ba9a 8d3c c3ed 133c 3f9d 00bd 038c 17bd
00000230: eabe 813c 59e1 973b 5e9d 99bc a3cb 3b3c
00000240: 18cd bd3c 2bb3 a73c e523 8dbb cab8 f13c
00000250: daac 573b 6b4c f63a c477 e33c 4508 9cbc
00000260: 2b4b adbc 3c71 adbc c7b9 94bc bdf9 133d
00000270: 5d16 ab3b f4d4 4abc bffd e33a b14a a63c
00000280: 4d62 b33c 824b 95bc fab2 1c3c 91d1 6c3c
00000290: 1b61 53bc 80b8 253b 86e9 d23c 60d4 bfbc
000002a0: 8706 e63c 95b9 debc 7a27 7fbc e690 8a3c
000002b0: 80b6 4fbc a65a 763b 3b06 a13c ad9e 05bd
000002c0: 8873 ae3b c0dc 2fbc 224b c5bc df18 b1bb
000002d0: 3033 3ebb b4f8 e53c b1b0 37bc 37ae d73c
000002e0: 160d d03b 6424 a7bc 9185 d13c 5c8e b7bc
000002f0: a0ab 893c 3fe8 83bc da8a 033d 42d9 2fbc
00000300: 39ef 9c3c 035c ea3b bf19 283c ce39 b2bc
00000310: be17 863c 12d2 523c 4759 07bd 4f70 da3a
00000320: 5bef 653a 127c f63b 7783 27bc 82b2 163b
00000330: a1b9 8e3c 5b4b b83c bec0 94bc 3324 6d3c
00000340: ecb5 823c d1f9 263c 7f5e fe3c f080 e7bc
00000350: 6b23 6ebc c9c7 1abc 8946 b1bc 6099 e6bb
00000360: b62e 0d3d b64e d93c a112 313c 7659 483c
00000370: a1ba 95bc bc27 d9bb a02e 17bc 87f7 c1b9
00000380: 0555 143c ace0 14bb 8ac4 3e3b e12c 0abc
00000390: 0cbf 403c 3020 73bc 1b98 8b3c 6e1e 0bbc
000003a0: 92c5 0f3d 696a 2c3c 9530 8ebc 9551 7dbb
000003b0: dab5 d53c 13e1 913c 8245 64bc 4ce8 6d3c
000003c0: 7dc5 6a3c 9745 c83c 46d4 47bb 5f87 54bc
000003d0: 0fd6 693c 2cc1 99bb b1d4 2dbc 17c3 50bc
000003e0: 13fb ba3b 6925 7fbc 2c79 953c ea04 453c
000003f0: 7e1e 193c dfc4 903c c95e ae3c 1c1c 4dbc
0.019414913 0.024756717 0.023893831 -0.025915978 0.030502614 0.0070529785 0.020061545 0.016821062
-0.025068201 0.022660412 0.011153686 -0.007817995 0.009230277 -0.030088844 0.02355108 -0.017034791
0.0013759827 -0.01574881 -0.032622583 -0.0047195116 -0.02207006 0.01575569 -0.016094696 -0.003136329
0.015386611 -0.0058135986 -0.008669794 -0.0069143195 -0.01440521 0.00023685365 -0.019512137 -0.005641324
-0.023377622 -0.008242143 0.01678676 -0.031912662 0.012892094 -0.021236254 0.011179602 0.021632975
0.02068981 -0.017484322 0.028358107 -0.010316866 0.024608754 -0.026901992 0.012377768 0.021078479
0.025241978 -0.028464813 0.020672243 0.022829356 0.0031304185 -0.015879944 -0.009245278 -0.0014022889
0.018703477 0.028454304 -0.011466748 -0.00038454996 -0.026198614 -0.020211665 0.021525191 -0.0123585295
-0.037575494 -0.0010867163 -0.012859388 -0.005621724 0.020963164 0.025345396 -0.0149275195 -0.014211749
-0.0062428946 -0.015037537 -0.018437875 0.0059705446 -0.025493221 0.00020123622 0.00037182285 -0.012206296
0.025321793 -0.025711982 -0.00027910338 -0.030602014 -0.005329449 0.026504252 0.012047391 -0.0038522088
0.0031059014 -0.025243385 0.029017167 -0.026774261 -0.00821367 0.02640194 -0.005125679 0.0010832867
0.024974175 0.0010466686 -0.0136099495 -0.021293748 0.018369956 0.012628576 -0.0025140394 0.029607924
-0.007481697 0.030463835 -0.016166653 0.017503574 0.0190759 -0.029830333 -7.200228e-05 0.0069972714
-0.018034156 -0.0099833235 0.023515083 0.009015819 0.034601647 -0.029538032 -0.005100082 -0.024838388
0.0141386045 0.009079125 -0.018797146 -0.007818085 -0.014249993 -0.018020619 0.029006835 -0.005777793
-0.027196119 0.0147796795 -0.023986464 -0.0027678837 -0.018278206 -0.011338719 0.004000922 -0.0046507977
0.017285693 0.009028855 -0.03139996 -0.03699876 0.015838105 0.004635018 -0.018751796 0.011462125
0.023169085 0.020471176 -0.0043072575 0.02950706 0.0032909424 0.0018791085 0.02776707 -0.019046912
-0.021154007 -0.021172158 -0.018154992 0.03612684 0.005221172 -0.012379874 0.0017394348 0.020299288
0.02189746 -0.018224481 0.009564156 0.014454261 -0.01290157 0.0025286973 0.025746118 -0.023416698
0.028079284 -0.027188102 -0.015573377 0.016914796 -0.012677789 0.0037590652 0.019656291 -0.03262203
0.005323831 -0.010733783 -0.024083678 -0.005404576 -0.002902221 0.028072692 -0.01121156 0.02632819
0.006349216 -0.020403095 0.025576385 -0.02240675 0.01680547 -0.016101955 0.03211484 -0.010732951
0.019157039 0.007152082 0.010260045 -0.021756079 0.016368743 0.0128674675 -0.033044126 0.0016665551
0.00087713235 0.0075221146 -0.010224215 0.0022994583 0.0174225 0.02249687 -0.018158313 0.014473963
0.015955888 0.010191397 0.031050919 -0.028259724 -0.0145348115 -0.009447047 -0.02164008 -0.0070373267
0.034468375 0.02652679 0.010807664 0.01222836 -0.018277468 -0.006627051 -0.009227425 -0.0003699625
0.009053473 -0.0022716923 0.0029108846 -0.0084335515 0.011764299 -0.014839217 0.017040303 -0.008491142
0.035100527 0.010523417 -0.01735715 -0.0038653363 0.02608769 0.017807519 -0.013932588 0.014520716
0.014329311 0.024447246 -0.0030491515 -0.012971728 0.014272227 -0.0046922173 -0.010609792 -0.012741826
0.0057062 -0.015572884 0.018246256 0.012025097 0.009345649 0.017672 0.021285431 -0.012518909

conv3.bias f4 [128]
00000000: 3111 e4bc 7c93 7dbc e140 e93c cc32 8abc
00000010: a810 f9bb 4c0c 533c 35c9 e53b 0c54 d8bc
00000020: a68a fd3b f620 8bbc fb2d 5b3c c72c ab3c
00000030: a2cd 62bc cccc b7bc 1c42 cc3c fdcf 36bb
00000040: 036b 5c3c a6a5 7fbc cdf0 98bc c2e2 2d3b
00000050: cdb7 57bc 7aa9 ae3c c9f7 a13c 8388 86bc
00000060: 29df 81bc aea6 643b 3d22 e73b e7ba ecbc
00000070: 5f54 813c f533 cc3c 0d44 09bc e426 b4bb
00000080: 9859 1cbc cb6e 423c 66fc 823c 64b7 e73c
00000090: 91be 843c bd97 4c3c 02dd ba3c cc27 00ba
000000a0: 3820 6fbc 247f 1c3c eef3 2c3c d10b 97bc
000000b0: a47a 55bc 1aaa 543c 29e2 d7bb 5a27 373c
000000c0: 0111 cc3c 488c 28bc 84a4 c63c e363 8a3c
000000d0: 3e6d ec3c 6518 f03c 80c9 7eba 0e72 5e3c
000000e0: 4334 d4bc 5bab 13bc 0fcf b7bb fed1 ca3c
000000f0: 4504 e23c 2eff a8bc 9ae9 083c 1c3e 833c
00000100: c5f6 0bbc f3ff 7a3c 9126 1fbb 0431 e03c
00000110: 4297 d4bc 07fb a9bc a24d cd3b 8323 723c
00000120: b8df 92bb 4593 8f3c f23f 093b 7cfb 6fbc
00000130: 1569 383c bbab b6bc 82b6 2e3c 3af4 29bc
00000140: e505 c2bc 4f14 b83c 1eae a43c 0d15 afbc
00000150: 7132 ccbc c9d6 8a3b 43c4 86bb a59b 4839
00000160: 50d3 dd3c 1a74 bdbc b956 bfbc 2300 8b3c
00000170: 0aef 8d3c d949 b83a e332 d33c 6009 623c
00000180: 042c 723c a0f3 293b 3d96 d13c e8b0 f5bb
00000190: 4ec6 2abc 3131 96bb 34a9 9d3b 291e ae3c
000001a0: c304 debc 9eb2 82bc b1bd 10ba 373b 95bc
000001b0: c3ce 0ebb d807 d63c bc11 0ebb 7413 8abc
000001c0: ec7c 94bc 24d8 193b f337 76bc fd07 873c
000001d0: e593 d33c e0e8 abbc fab2 883b 0d56 623c
000001e0: f6ec 533c f26f d5bb 0773 803c d730 6d3c
000001f0: f082 23bc 2723 24b9 a1fc e43a 7cd4 7e3c
-0.027840229 -0.015477058 0.02847332 -0.016869925 -0.0076008625 0.01288135 0.007012511 -0.026407264
0.0077374754 -0.01698349 0.013377662 0.020895375 -0.013842972 -0.022436522 0.024933867 -0.0027894967
0.013453248 -0.0156034585 -0.01866951 0.0026532863 -0.01316638 0.021321047 0.019771473 -0.016422516
-0.015853481 0.0034889388 0.007053642 -0.028897716 0.015787302 0.024927119 -0.008378041 -0.0054978
-0.009542845 0.011867235 0.015989494 0.02828569 0.01620415 0.012487349 0.022810463 -0.00048887427
-0.014595084 0.009551797 0.010556204 -0.018438252 -0.013029728 0.0129800085 -0.0065882397 0.011178816
0.024910452 -0.010287352 0.024248369 0.016893333 0.028860684 0.029308507 -0.0009719357 0.013576997
-0.025903827 -0.009013022 -0.0056094 0.024758335 0.027589926 -0.020629492 0.008356476 0.016020827
-0.008542721 0.015319812 -0.0024284462 0.027367122 -0.025951032 -0.020749582 0.006265358 0.0147789745
-0.0044822358 0.017526278 0.0020942655 -0.014647361 0.011255522 -0.022298684 0.01066363 -0.01037317
-0.023684451 0.022470621 0.020102557 -0.021372342 -0.024926396 0.00423703 -0.0041127517 0.00019131468
0.0270783 -0.02312665 -0.023356782 0.016967839 0.017325897 0.0014060094 0.0257811 0.0137961805
0.014781002 0.0025932565 0.025584335 -0.0074978955 -0.010423256 -0.004583501 0.0048114303 0.021254616
-0.02710188 -0.015954312 -0.000552143 -0.018216712 -0.002179072 0.026126787 -0.002167805 -0.01685498
-0.018125974 0.0023474777 -0.015027988 0.016483301 0.025827358 -0.020985067 0.0041717263 0.013814461
0.012934914 -0.006513589 0.01567985 0.014476976 -0.009979948 -0.00015653354 0.0017470309 0.01555359

bn3.weight f4 [128]
00000000: 542a 893f 4252 823f 8299 8a3f 5993 843f
00000010: dffd 7e3f 6265 853f 2fa9 863f d887 803f
00000020: 3246 883f 02a3 863f 5b6e 873f b51c 8b3f
00000030: 7403 8c3f 45ff 8a3f e48f 873f 47ce 863f
00000040: 31ad 8b3f 8ab0 853f e52e 893f be60 853f
00000050: 6135 8b3f b6a4 853f 6ce4 883f de8e 873f
00000060: 6071 853f 423e 893f 52c3 863f e33b 8b3f
00000070: c2bf 883f 6429 8a3f 99fd 8a3f d6aa 853f
00000080: 7e6e 8a3f 20aa 883f 0e12 853f 8221 893f
00000090: 80fa 883f a352 873f c55d 863f 910f 893f
000000a0: 4d21 8a3f 87b4 873f 3de0 823f c70e 8b3f
000000b0: 975c 893f 11e5 873f da80 853f 7eb8 863f
000000c0: c82a 8a3f d87a 883f 4176 873f cfc4 883f
000000d0: 50ba 873f ce03 873f 452a 823f 91f7 893f
000000e0: fd0c 843f 5963 893f abc2 853f 0b1f 873f
000000f0: 4741 803f 1f2b 883f 1809 8a3f 74c7 8a3f
00000100: 754a 843f c202 813f 948a 893f a697 873f
00000110: 8f65 823f 130c 863f 7d12 893f 9ab7 893f
00000120: bcec 8a3f d7ca 813f b07c 893f 0c6e 873f
00000130: f8a3 853f 1649 8a3f 6f14 8b3f 2caf 883f
00000140: f8b2 873f 5027 853f 6c77 893f b9dc 883f
00000150: fb65 843f 6a35 893f fece 823f cc4b 883f
00000160: ecd3 803f 4cd5 873f d426 873f 2fe0 873f
00000170: 2da7 883f ce26 833f 26a9 823f bd1d 883f
00000180: e3f7 883f edbd 883f 1753 883f 391c 8b3f
00000190: f93a 863f 2d5d 883f 9e1d 893f 0a4d 853f
000001a0: ce9a 843f 20de 893f bcaa 873f 4919 8b3f
000001b0: 2e83 8a3f a462 8b3f 2512 8b3f e329 863f
000001c0: 24b1 893f 8bda 873f ed24 863f 08cf 8b3f
000001d0: 3db8 873f 5a44 8a3f e963 843f 6459 8a3f
000001e0: bd8d 883f 75ee 793f 49ac 833f 095f 893f
000001f0: 718e 813f d055 853f 3a9c 8b3f 0ef2 883f
1.0716043 1.0181353 1.0828097 1.0357467 0.99606127 1.0421565 1.0520381 1.0041456
1.0646422 1.0518496 1.0580553 1.0868136 1.0938554 1.0859152 1.0590787 1.0531701
1.0912229 1.04445 1.0717436 1.0420148 1.0875665 1.0440891 1.0694709 1.0590475
1.0425224 1.0722125 1.0528357 1.0877651 1.068352 1.0793881 1.0858642 1.044276
1.081497 1.0676918 1.0396135 1.0713351 1.0701447 1.0572094 1.0497366 1.0707875
1.0791413 1.0601968 1.0224682 1.0863885 1.0731381 1.061678 1.0429947 1.0525053
1.0794306 1.0662489 1.0582963 1.0685061 1.0603733 1.0548036 1.016915 1.0778676
1.0316464 1.0733443 1.0450033 1.0556349 1.0019921 1.063816 1.0784025 1.0842118
1.0335222 1.0078967 1.0745416 1.0593154 1.0187243 1.0472435 1.0708767 1.0759156
1.0853496 1.0140027 1.0741177 1.0580459 1.0440664 1.0803554 1.0865611 1.0678458
1.0601492 1.0402622 1.073957 1.0692359 1.0343622 1.0719426 1.0219419 1.0648131
1.0064673 1.0611968 1.0558724 1.061529 1.0676018 1.0246217 1.020787 1.0634075
1.0700649 1.0682961 1.0650357 1.0867988 1.0486747 1.0653435 1.0712163 1.0414135
1.0359743 1.0770912 1.0598979 1.0867091 1.0821283 1.0889478 1.0864912 1.0481533
1.0757184 1.0613569 1.0480019 1.0922556 1.06031 1.0802109 1.034299 1.080853
1.0668255 0.9762948 1.0286952 1.0732127 1.0121595 1.0416813 1.0907052 1.0698869
