training/trained_models/standard/hyper/model_standard_hyper.pth (torch, 86122 bytes, 14 tensors)

conv1.weight f4 [32, 2, 3, 3]
000000 3d e7 0b bd f5 6c 09 be 1f 63 3a be 8a 79 a4 bd
       -0.034156073 -0.1342047 -0.18201874 -0.08030994
000010 9b f8 4b 3d 35 d7 1d bd 49 0d b8 bc 89 02 ad 3d
       0.049797636 -0.038535316 -0.022467272 0.08447749
000020 9b fd 03 3d 83 40 6e bd ab bc d2 bc cf 3f 05 bd
       0.03222428 -0.058166992 -0.02572473 -0.032531556
000030 e2 e2 2a bd 3a 44 c7 bd 84 af b2 bd 96 b1 90 39
       -0.04172028 -0.0972981 -0.08724883 0.00027598132
000040 8f 72 2f bd c2 8d 2a bd f2 60 ac bd e9 0d 72 bc
       -0.04283386 -0.041639097 -0.08416928 -0.014773824
000050 43 70 c4 bd 07 9e c1 3d 28 d9 f1 bd 22 28 da bd
       -0.09591725 0.094539694 -0.118089974 -0.10652186
000060 3a fd 13 3e 31 19 e8 bc 39 3c 12 be e5 3b 21 bd
       0.14452067 -0.028332325 -0.14280786 -0.03936376
000070 f9 66 e5 bb 38 89 70 3d 0f 5a 0e bd 7b 65 6c bd
       -0.0070008007 0.058724612 -0.034753855 -0.057713967
000080 7f ad 2b 3d cb 7e 70 bd a4 9c 9b 3d 62 c9 d2 bc
       0.041913506 -0.05871467 0.07598236 -0.025730792
000090 c7 ec bf 3d dd 47 05 3e 64 0d 3a 3d cf d5 b1 3d
       0.093713336 0.13015695 0.045422927 0.08683359
0000a0 56 91 af 3d 53 a9 0b 3e 07 32 07 be 8e f3 8f 3d
       0.085726425 0.13638811 -0.13202678 0.07028876
0000b0 38 ad 99 bd 8e 5a d9 3c 8c 4d 27 3d f2 80 c5 3d
       -0.07503742 0.026532438 0.04084544 0.09643735
0000c0 fe aa a7 3d 09 99 b0 3d 34 14 95 3d ea ed 48 bc
       0.08186911 0.08622939 0.07279244 -0.012263754
0000d0 a8 d7 97 3d aa 93 1d 3d ba 3a 92 3d 43 8e 17 be
       0.0741418 0.0384709 0.071401075 -0.14800362
0000e0 06 9b 37 3d c7 6e af 3d 31 f6 c6 3d bb 5a 65 3c
       0.044825576 0.08566051 0.09714926 0.013998683
0000f0 7d 61 28 be a0 d5 f0 bd dd 97 bd bd 20 57 28 bd
       -0.16443439 -0.11759496 -0.09257481 -0.041098714
000100 28 9f 4a bd 08 7a 4a 3d de 3c e7 3c b1 7a 2e 3c
       -0.04946819 0.049432784 0.028227266 0.010649369
000110 e3 3b 9d 3c 38 d7 2f bd 6f bd f0 bc c5 41 06 3d
       0.019193595 -0.042929858 -0.029387204 0.032777566
000120 74 db 36 bc 15 05 f5 bd 49 2e 93 3c 96 c8 c4 bd
       -0.01116072 -0.1196386 0.017966406 -0.09608571
000130 05 46 ee bd e4 cc ec bd 56 b3 a4 bc 31 be ea bd
       -0.11634449 -0.11562517 -0.020105045 -0.114620574
000140 79 31 42 bb 9c 54 98 3b 33 00 2b 3d ab 44 1e 3b
       -0.0029631539 0.004648758 0.041748237 0.0024149816
000150 b0 2a d3 bc 28 1f d6 bd b2 57 35 bd 90 e7 82 3a
       -0.02577719 -0.10455161 -0.044273086 0.0009987224
000160 ba 4f 5f bc a8 c2 87 bd 76 76 29 3d 39 4c 12 be
       -0.013629848 -0.066289246 0.04137274 -0.14286889
000170 39 72 e2 bd 08 47 0b be 5a ce 10 3c 6a c7 55 bd
       -0.110569425 -0.13601315 0.008838261 -0.05219213
000180 93 88 8c 3c cc 73 b3 bd 9f 52 d8 bd 14 cf 4e 3d
       0.017154967 -0.08762321 -0.10562634 0.050490454
000190 44 01 73 3c f3 fc 57 3d a3 ff 9c 3d 4b c0 0a 3e
       0.014831845 0.052731466 0.07665946 0.13549916
0001a0 b4 a7 2e 3c 0f 51 4b bd 94 ca 34 bd 2f 46 25 3b
       0.010660101 -0.04963785 -0.044138506 0.0025218835
0001b0 ff e7 c5 bd 57 5e 2d 3d 5f c7 8f bd 67 1f 7f 3d
       -0.0966339 0.042326298 -0.07020449 0.062285807
0001c0 b7 9d 02 be 80 59 de bc 05 db a5 bd 72 71 ca bc
       -0.12755476 -0.027142286 -0.08098415 -0.024712298
0001d0 9c 57 15 3e d3 10 06 3d c8 bd 8f 3c 4e 84 da 3d
       0.14584202 0.03273089 0.01754655 0.10669766
0001e0 d7 b8 83 bd 55 75 3d 3e ce e9 84 bd 10 3d 37 bd
       -0.0643174 0.1850179 -0.06489907 -0.044735968
0001f0 0b df 82 3d 0c 51 19 3c 10 4f 03 be 8f 54 86 3c
       0.06390198 0.009357702 -0.12823129 0.016397743
000200 8f 63 4b be 4b 0c ad 3d 9c 7c 9d 3d 26 a0 32 bd
       -0.19862197 0.0844961 0.07689783 -0.04360976
000210 5c fc c6 bd 2d 11 d7 bc 5c 18 c1 bd b1 ee 8b 3c
       -0.097161025 -0.026253307 -0.09428474 0.01708159
000220 59 94 84 3d 2f 75 1d 3d 31 57 47 bc 3a d5 ce bc
       0.064736076 0.038441833 -0.012166784 -0.025248159
000230 42 41 da bb 60 9d cf 3d cf 91 f9 bb 88 23 02 3e
       -0.0066606114 0.10137439 -0.0076162587 0.12708867
000240 68 ed 47 3e 73 90 01 bd fc 5c 33 3e 01 d4 7b bd
       0.19524157 -0.031631898 0.1751594 -0.06148148
000250 f8 ec ee 3c 1b 89 b9 bd 19 ff c7 3d fe 99 8b 3d
       0.02916573 -0.09059354 0.09765453 0.06816481
000260 9d 71 03 3e 62 62 95 3c f7 65 c8 bd 49 d3 d7 bc
       0.12836309 0.01823539 -0.09785073 -0.026345866
000270 07 38 a2 3b 81 e3 a6 3c 81 74 29 3c 37 81 ae 3d
       0.0049505266 0.020372154 0.010342718 0.085207395
000280 5a 4e c5 3d a2 ef d9 3d be 83 26 bd 1f 64 a4 3d
       0.09634085 0.106414095 -0.040652983 0.08026909
000290 5b 63 e5 bc 4d 07 0c 3e f4 7c 45 3e d6 01 ea 3d
       -0.028001478 0.1367466 0.19285947 0.114261314
0002a0 86 60 33 3d 3b f7 a8 3c 55 8a 86 3d 9c 68 7a bd
       0.043793224 0.020625701 0.065693535 -0.06113492
0002b0 b3 82 b1 3d e3 77 7e bc da 35 50 bd b0 04 62 bd
       0.08667507 -0.015531513 -0.050832607 -0.05518025
0002c0 50 11 90 bd bd 79 03 bd 51 2f 1a be bc 56 82 bc
       -0.07034552 -0.03209852 -0.15057112 -0.015910499
0002d0 b9 e9 0d be bb 10 76 3b be 34 a4 3d 39 dd 4b be
       -0.1385869 0.0037546593 0.08017872 -0.19908608
0002e0 31 95 0b 3e de c2 a2 3b 0a 97 ce bd 88 b2 84 3d
       0.13631131 0.0049670776 -0.10087402 0.06479365
0002f0 ec a1 17 bd 44 6e b6 3c 26 6a 9d bc db 47 aa bb
       -0.037019655 0.022269376 -0.019215655 -0.005196554
000300 c1 3f de 3d 89 9e 08 bd ab e2 c5 bc 83 a3 46 bd
       0.10852004 -0.033354316 -0.024155935 -0.04849578
000310 9e 78 b9 3d 34 92 e2 3d a4 75 08 be 45 70 8d 3c
       0.09056209 0.11063042 -0.13326126 0.017265448
000320 13 96 48 bd 41 1e ad bc 3b b5 bf 3d d9 82 82 bd
       -0.048971247 -0.02113259 0.09360739 -0.063726135
000330 32 ef 26 be 05 d6 3a 3d ef 4d 79 3d 08 4c df 3d
       -0.16302183 0.04561426 0.06086534 0.10903174
000340 89 18 dd 3d 25 0f 09 3e fe 29 e6 3c d4 44 e7 3c
       0.10795695 0.13384683 0.028096195 0.028231062
000350 70 09 37 3d 49 17 9c bc 74 32 57 bd dc 87 9c ba
       0.044686735 -0.019054072 -0.05253835 -0.0011942345
000360 d5 31 0b be d5 99 ec 3b d7 00 49 bd 51 db 81 3d
       -0.13593228 0.0072204866 -0.049073067 0.063406594
000370 5b f1 bc bd 4e ea 51 3d f1 8f 17 be 65 4b 36 3b
       -0.092257224 0.05124884 -0.14801003 0.0027815935
000380 13 87 c4 bd 3f 53 27 bd 45 40 14 bd c3 0b aa bd
       -0.09596076 -0.040850874 -0.036194105 -0.083030246
000390 66 90 b4 3a 8f 0b aa 3d 55 49 2c bc 34 a5 3d 3c
       0.0013775944 0.08302986 -0.010515531 0.011575032
0003a0 b1 2c 7e bd e6 77 53 bd b4 f5 3b b9 aa 58 c1 3d
       -0.06205434 -0.051628016 -0.00017925241 0.094407395
0003b0 9a 02 81 3d 2e 80 ff bd 62 85 7d 3d f4 f1 01 3e
       0.06299324 -0.1247562 0.061894782 0.12689954
0003c0 5d 80 de bc 1b 4e b6 3d f1 4e 32 3d 5b d9 9c 3d
       -0.027160818 0.08901616 0.043532316 0.07658645
0003d0 91 03 45 3d 34 7b 9d bd 2b b7 84 3d 1b 50 3b 3e
       0.048099104 -0.07689515 0.06480249 0.18292277
0003e0 bd 36 ea bd 3f ed 63 bc 4e 1e 9e 3a 41 ea 08 bd
       -0.11436222 -0.013911544 0.0012063475 -0.033426527
0003f0 9d b2 7b 3d 1c 57 df 3d 08 ad 34 be e5 3d 26 be
       0.061449636 0.10905287 -0.17644131 -0.16234548

conv1.bias f4 [32]
000000 a0 d7 1b b8 39 1c 8c 36 60 49 e3 36 97 a9 07 37
       -3.7155696e-05 4.1756107e-06 6.773669e-06 8.086113e-06
000010 c5 ff dd b7 1d 50 b3 b8 0a 4d 96 37 1e f1 b5 35
       -2.6464355e-05 -8.5503074e-05 1.7917268e-05 1.3555725e-06
000020 24 eb 4c 37 92 7d 1b b8 f0 6b 6b 36 00 ab ed b7
       1.22140955e-05 -3.7071826e-05 3.5080557e-06 -2.833223e-05
000030 1f 44 65 38 2e 6a 37 37 36 3c f7 b6 74 8c c1 35
       5.4661297e-05 1.0932372e-05 -7.368183e-06 1.4420498e-06
000040 f6 e9 cf 36 76 37 a5 b6 d9 a5 ce 35 b3 f4 c3 b7
       6.1963174e-06 -4.9238397e-06 1.5396464e-06 -2.3359758e-05
000050 7c 6b 19 b7 23 4e 93 b6 bc 11 e6 36 75 1e 0a 37
       -9.144536e-06 -4.3900377e-06 6.8565987e-06 8.232532e-06
000060 54 e1 d7 37 4c 0b eb 37 a2 d7 6b b5 d9 28 b0 b7
       2.5734924e-05 2.8019444e-05 -8.785811e-07 -2.0999856e-05
000070 88 af 23 37 73 14 db b4 d0 51 33 36 29 9a 14 b8
       9.756426e-06 -4.0806808e-07 2.67207e-06 -3.5429523e-05

conv2.weight f4 [64, 32, 3, 3]
000000 e3 8a 7b bb 8a 49 4b bc ee e8 9d 3b 35 e6 18 3c
       -0.0038382343 -0.01240767 0.004819027 0.009332229
000010 4e 49 fc 3c 20 26 74 bb 77 1c a9 bc 2a c0 c7 bc
       0.030796673 -0.003725417 -0.020643456 -0.024383623
000020 a1 3b 8e 3c 72 0a 88 bb c8 fa 58 3d d3 58 f0 bb
       0.017362418 -0.004151636 0.05297354 -0.0073348074
000030 0b 04 1e bd c5 4c ba bc 8f c8 25 bb 76 85 1b 3d
       -0.038578074 -0.022741685 -0.0025296544 0.037969075
000040 2e 18 40 3b 99 ba b2 3c 79 2f 19 bd b5 0b 30 bd
       0.0029311287 0.021817492 -0.03739879 -0.042979915
000050 50 6f 2d bd 30 12 7b 3c bc 88 42 3b 2f 8a 59 3b
       -0.042342484 0.01532416 0.002968355 0.0033193936
000060 6a 94 38 bc 3d 69 21 bd da a9 0a 3d ee 7c 8d 3d
       -0.011265853 -0.039407004 0.03385339 0.06908594
000070 76 80 3e bb 89 0a 9d bb 87 bf 78 ba 2c 81 38 3d
       -0.0029068268 -0.0047925157 -0.0009488989 0.045045063
000080 7f b7 50 3c 9a 24 15 3d 61 ef 0f bc 3a 69 96 bb
       0.012739061 0.03641186 -0.0087851 -0.0045901807
000090 99 43 52 bc 55 22 95 3c 7d e8 88 bc 04 4d 8f bc
       -0.012833499 0.018204847 -0.016712422 -0.017492779
0000a0 10 ce ec 3a d0 1e 8d bc 67 58 bc ba 63 bc 9c 3b
       0.0018066783 -0.017226607 -0.0014369608 0.0047831996
0000b0 9c 79 a5 ba 53 6b b9 3a 83 67 be bc 6d 6f d4 bc
       -0.0012624743 0.0014146365 -0.023242718 -0.025932038
0000c0 f9 96 07 bc c0 04 83 3c 1d 8a be 3c db 50 aa bc
       -0.008275741 0.015993476 0.023259217 -0.020790508
0000d0 48 51 32 3c 74 d7 f8 bb f1 90 ce bc 22 36 8f 3c
       0.010883637 -0.0075940434 -0.025215598 0.017481867
0000e0 8d 26 ca bb 5d 58 b0 bb eb 4d 04 3d df 40 9e bc
       -0.0061691464 -0.0053816275 0.03230087 -0.019318042
0000f0 bc cc e4 3b cf 9d 1d bb e2 32 47 3d 94 ee 26 bd
       0.006982414 -0.002405036 0.04863251 -0.04075487
000100 40 97 54 bd 6a 63 85 3a b4 e0 1c 3c 13 fe d8 bc
       -0.051902056 0.0010176722 0.009575058 -0.02648834
000110 a7 1e 6f bc 0e bf 8c 3c a8 b5 40 bd 59 c4 d4 bc
       -0.01459471 0.017180946 -0.04704824 -0.025972532
000120 bf 3a 2a 3d 1c b3 5c bd 1d 3b 00 3a b5 11 04 bd
       0.04155993 -0.05388175 0.0004891621 -0.03224345
000130 f7 9f 0e 3c 10 34 2f bd 0b ee 90 bb dc d3 60 bd
       0.008705131 -0.04277426 -0.004422908 -0.054889545
000140 19 43 88 bc bc e9 05 3d 62 50 a2 bc 2f bf 38 3c
       -0.016633557 0.03269361 -0.01981372 0.0112760505
000150 2b f3 a7 bc e2 fe a7 3d a3 6b 23 3c 79 64 14 bd
       -0.020501694 0.08202912 0.009974393 -0.03622863
000160 a9 05 af bb 43 13 d3 bc 80 03 61 bd c3 8d 9d 3c
       -0.005341251 -0.02576602 -0.05493498 0.019232636
000170 e0 d5 23 3d 5e 9b 85 3c 71 01 fb 3c 94 55 ae 3a
       0.03999889 0.016309436 0.030640336 0.0013300651
000180 0d f6 33 bd 32 1d 0e bd b6 52 16 bd e1 44 12 3c
       -0.043935824 -0.03469581 -0.036699973 0.008927555
000190 eb 8f db bc 5b 60 f2 3b 7e 29 ab 39 60 7c a6 3b
       -0.026802024 0.0073967404 0.00032646576 0.0050807446
0001a0 1d a2 09 3b 71 41 c2 bc dc db 06 3c 8c ee 46 bb
       0.0021001168 -0.023712846 0.0082311295 -0.0030354587
0001b0 b3 63 8d 3b 2f 40 10 bc 5f 92 00 3c 83 a3 58 ba
       0.0043148636 -0.008804365 0.007847398 -0.0008264111
0001c0 5a 3b d1 bc 82 a3 27 bd 6d 0f 39 bb 9f 94 5e 3c
       -0.025540996 -0.040927418 -0.0028237954 0.013585239
0001d0 67 7a 98 3c 10 63 86 3c 70 a1 19 bc f3 c5 c8 bc
       0.018613053 0.016404659 -0.009376869 -0.024508452
0001e0 91 25 3e bb 74 bd e0 3b a0 7d 29 bd ec ed 68 3d
       -0.002901409 0.006858522 -0.04137957 0.056867525
0001f0 35 8c b7 bc db 6d 78 bc c2 6c 4a 3b f4 4a a6 bc
       -0.022405723 -0.01516291 0.0030887579 -0.020299412
000200 74 ee ac bc b1 f7 c3 3c 58 7c 1b bc 85 f0 77 bd
       -0.021109797 0.02392182 -0.009490095 -0.06053211
000210 c6 ab 1f 3c 32 fe bc 3c 6c 3b 69 bc cd 29 0b 3b
       0.009745544 0.023070429 -0.014235359 0.0021234632
000220 48 26 00 3b 4f 28 b4 bc a1 f7 37 bd b5 4a 45 3b
       0.0019554067 -0.021991877 -0.04491389 0.0030104343
000230 de 3d 3e bd 56 97 41 3d d5 c2 ea bb 04 fd 3c 3d
       -0.04644572 0.047263466 -0.007164339 0.046139732
000240 e4 dd 0e 3c bb d9 91 3c b3 36 f0 3b 9b 6f 9c 3b
       0.008719895 0.017804017 0.0073307394 0.0047740466
000250 f4 93 26 3b de 8e 0a bd a0 c5 08 bb 6d 8f 3a 3c
       0.0025417777 -0.033827655 -0.0020869747 0.011386734
000260 78 5e 38 3d 04 bd 68 bb 4a f8 d0 3b a7 a4 c3 3c
       0.045011967 -0.0035513053 0.0063772546 0.023882223
000270 c6 7a 80 3c af 21 c9 3c 19 99 ce bc 2c 6f 60 3c
       0.015683543 0.024552194 -0.025219487 0.01369838
000280 2e 2c 21 3c 9f a1 0f 3d 0d 3c 4c 3c 16 03 fc 37
       0.009837193 0.035066243 0.012465489 3.0042178e-05
000290 b2 76 b2 3c 0f 70 11 bb 46 a5 90 bc b0 c8 f8 bc
       0.021785114 -0.0022192036 -0.017656934 -0.030369133
0002a0 98 33 3f 3c 42 da 8b b9 d4 ca 08 ba 76 1f b0 3c
       0.011670016 -0.0002667476 -0.0005218212 0.021499377
0002b0 ef 71 ab bc bb e1 39 3a 93 ab 34 bb c8 a9 8c bd
       -0.020928351 0.00070908264 -0.0027568087 -0.06868321
0002c0 61 91 b4 3b 72 9e 1b bc 9c eb 39 3d 75 0b 88 bc
       0.0055104946 -0.0094982255 0.04539071 -0.016607026
0002d0 54 43 5f bc d7 51 2d 3d b5 e2 27 bd 58 76 3a bd
       -0.013626892 0.042314377 -0.04098769 -0.045523018
0002e0 10 7f 01 bd bb d3 12 3c 18 b5 2e bc 0e c7 b6 bc
       -0.031615317 0.008961613 -0.010663293 -0.022311714
0002f0 98 da 05 bc 76 c3 e9 3b 24 4c 3b bd 56 2d d1 3c
       -0.008169793 0.0071338965 -0.04572691 0.025534313
000300 95 b0 75 bd 4e 41 79 3d b4 e3 36 3b 7e 8f 82 bb
       -0.059982855 0.060853295 0.0027906718 -0.0039843908
000310 98 91 14 3c be 78 4f 3b 70 82 df bb 9c e7 45 3c
       0.009067915 0.0031657661 -0.0068209693 0.012079146
000320 f5 e5 90 3d ef 8c 94 bc d9 0e 3e 3c 2e 01 05 bd
       0.07075111 -0.018133609 0.01160022 -0.03247183
000330 5b 95 0c bb 39 e6 8b 3c 15 25 2a bd 21 b6 94 3c
       -0.0021451327 0.017077552 -0.04153927 0.018153252
000340 3b 6f bf bc e2 70 d8 3c 9b e5 56 bc fa c7 08 3c
       -0.023368469 0.026421014 -0.013116266 0.008348459
000350 a6 73 09 bc b0 a0 4e bc 58 be 9c 3c e7 e4 3d bc
       -0.008389389 -0.012611553 0.019133732 -0.011590219
000360 96 82 f5 bb 5c 9f d0 3b b6 5d 98 3b 0c 46 dc bc
       -0.0074923737 0.0063666534 0.004649843 -0.02688887
000370 5e 6f 03 bd 88 03 ca bc 5f fe ab bc f4 0d 65 ba
       -0.03208863 -0.024659887 -0.020995317 -0.0008737736
000380 c0 36 82 bc c1 b0 40 bd 4d 86 9f ba 56 80 86 bb
       -0.015895247 -0.047043566 -0.0012170762 -0.0041046543
000390 97 5f db 3c 55 d2 a3 3c d5 45 9c 3b 3e cf bb 3c
       0.02677898 0.019997755 0.004769067 0.02292597
0003a0 72 e4 1f bd 8f 1c be 3c 59 77 53 bd ba 67 59 bd
       -0.03903622 0.023206977 -0.05162749 -0.053077437
0003b0 cb 7c f4 bb 37 f6 8d bc 59 bd 16 3c 73 44 1f bd
       -0.0074611655 -0.017329318 0.009200417 -0.038883638
0003c0 c0 a1 b1 3c f7 37 96 bd 00 40 1c 3c 74 88 19 3d
       0.021683574 -0.07334893 0.009536743 0.037483647
0003d0 6c d7 4b 3c 04 1d 94 3c bf 1a 13 3c 09 ca 8e 3c
       0.012441497 0.018080242 0.008978545 0.017430322
0003e0 26 67 cb bb 44 f8 90 3b da 31 62 bc 45 5a d1 3c
       -0.0062073646 0.004424127 -0.013805831 0.02555574
0003f0 a4 c4 48 3d 66 ee 6b bd 37 a7 fe 3b 85 12 e7 bc
       0.049015656 -0.0576004 0.0077713984 -0.028207073

conv2.bias f4 [64]
000000 6f 3e 83 37 ad a1 a9 b6 76 bd 56 b5 ab 5d ed 36
       1.564549e-05 -5.055414e-06 -7.9996914e-07 7.074055e-06
000010 57 a3 1d 37 64 06 1b b6 0c 75 d2 b6 7e 27 f1 36
       9.39596e-06 -2.310052e-06 -6.2721138e-06 7.186957e-06
000020 02 fc 02 b7 6a 2e e9 36 71 6e 94 b7 fc 73 a9 35
       -7.807279e-06 6.9493444e-06 -1.7694403e-05 1.2625237e-06
000030 22 1e 84 33 55 7e 28 b6 90 46 65 36 90 92 27 37
       6.15221e-08 -2.5107486e-06 3.4164732e-06 9.9881e-06
000040 eb 68 af 37 db a5 4b 36 30 42 03 36 02 68 53 b7
       2.0910482e-05 3.0345898e-06 1.9559047e-06 -1.2600796e-05
000050 b4 fd 30 b7 cf 9d 29 37 51 4a 80 36 17 e1 6d b7
       -1.0549487e-05 1.0109928e-05 3.823349e-06 -1.4178709e-05
000060 f6 3b 90 37 c8 92 fd b6 3f 74 9e b7 d7 69 5c 37
       1.719406e-05 -7.557075e-06 -1.8889199e-05 1.3137665e-05
000070 06 11 33 b5 1e 50 5f b7 9c 32 cf b6 c2 d7 66 b7
       -6.670747e-07 -1.33104895e-05 -6.1749724e-06 -1.3759303e-05
000080 dd c0 4e 37 ef d6 ab b6 74 ae 5b 37 d9 2b 7a 37
       1.2323461e-05 -5.1212187e-06 1.3094035e-05 1.491137e-05
000090 c7 ee 8e b7 2c 23 e1 36 33 c6 6c 36 87 34 88 36
       -1.7038908e-05 6.709617e-06 3.5282108e-06 4.059231e-06
0000a0 ce 78 0f 37 bb 50 85 b6 65 0f c1 b5 7f 46 96 36
       8.551591e-06 -3.973107e-06 -1.4384101e-06 4.478555e-06
0000b0 04 a9 b5 36 f5 72 8e b6 7c 6e bb b6 67 86 00 37
       5.4138964e-06 -4.2453125e-06 -5.5858964e-06 7.6606875e-06
0000c0 59 8f d0 36 9c 13 4e 37 54 9d 06 36 8c 23 c2 36
       6.215571e-06 1.22831225e-05 2.0059133e-06 5.7857887e-06
0000d0 19 22 01 37 8c 99 25 36 c3 54 87 36 24 92 00 37
       7.696938e-06 2.4676292e-06 4.033181e-06 7.663421e-06
0000e0 af be f3 36 d7 a1 82 36 2f 95 99 36 cd 96 c2 36
       7.264163e-06 3.8931425e-06 4.5771226e-06 5.799206e-06
0000f0 c9 db 72 b7 a0 8a 63 b7 48 7b f6 b6 26 26 36 b5
       -1.4475497e-05 -1.35625305e-05 -7.345723e-06 -6.7855797e-07

bn1.weight f4 [32]
000000 c4 a4 05 3f 06 d8 10 3f dc 10 05 3f 8f bb 13 3f
       0.5220454 0.56579626 0.5197885 0.57708067
000010 be 3d 20 3f cf e2 09 3f cb f7 01 3f 75 f3 0a 3f
       0.6259421 0.5386171 0.5076873 0.54277736
000020 fc e8 07 3f 83 ae 1d 3f 48 a8 f8 3e e3 eb 04 3f
       0.5308988 0.6159441 0.48565888 0.51922435
000030 85 a4 10 3f 90 ad 06 3f e6 c3 04 3f 38 f2 18 3f
       0.56501037 0.52608585 0.5186142 0.59744596
000040 0c df 0c 3f 88 dd fa 3e c9 c4 02 3f 12 4c 12 3f
       0.5502784 0.4899714 0.5108152 0.57147324
000050 be 9c 04 3f f5 fc 06 3f 28 1c f1 3e ed 8c 08 3f
       0.5180167 0.5272973 0.47091794 0.53340036
000060 cb e9 fa 3e 5c 9e e3 3e c9 64 0b 3f 8e 5b 13 3f
       0.49006495 0.44456756 0.5445066 0.57561576
000070 e6 94 e3 3e 2c e1 ec 3e 19 e4 f8 3e 43 63 29 3f
       0.44449538 0.46265543 0.48611525 0.66167086

bn1.bias f4 [32]
000000 a5 27 e8 3d bb 97 3f bb 2a 3f 32 be e6 d5 c9 bd
       0.113356866 -0.0029234726 -0.17406908 -0.09855251
000010 31 dc 30 3e 0c 9d e4 3d a1 62 cf 3c 91 84 7b 3d
       0.17271496 0.11162767 0.025315585 0.061405722
000020 c2 e8 ea bd ba b4 9f bd 4d e9 4c bd 16 b6 52 3d
       -0.11470176 -0.07798143 -0.05002718 0.051443182
000030 62 43 6f bd 9b b9 1f be 10 35 b5 bd 26 d5 26 3d
       -0.05841387 -0.15598147 -0.088480115 0.040730618
000040 5b 2d 09 be 05 76 b1 bd 3a ed 7f bd 08 bc 01 3d
       -0.13396208 -0.086650886 -0.062482096 0.03167346
000050 67 24 cb bd 16 52 cf bd d0 f0 84 bd 6f f9 3c bd
       -0.099190526 -0.101230785 -0.06491244 -0.046136316
000060 7f d3 96 3d 7c af ab bc 8c 89 0f be 06 35 8e 3d
       0.073645584 -0.0209577 -0.14017314 0.06943707
000070 16 cb b8 bd 9d 85 ae bd f9 bc 79 bc 4a 12 e7 3d
       -0.090231106 -0.085215785 -0.0152428085 0.11282785

bn1.running_mean f4 [32]
000000 f1 2f 03 bd 54 3b 25 bd 42 e6 7c 3d 6a 8c 54 bc
       -0.032028142 -0.040339783 0.06174303 -0.01297293
000010 ec c1 97 bd 9e 4a 6a bd 93 cb a8 bc 00 65 c6 bc
       -0.074100345 -0.057200067 -0.020604884 -0.024218082
000020 96 ef 25 3d 14 90 97 3d 47 13 18 bc 4a 4b 0e bc
       0.04051169 0.074005276 -0.00928194 -0.0086849425
000030 2e 5e 14 bd 3c 72 1e 3d 0c c9 5a 3b 72 38 67 bd
       -0.03622263 0.03868316 0.0033383993 -0.056450315
000040 2c 75 7b 3c 8d da b6 3c 24 08 91 3a b3 a0 1b bd
       0.01534776 0.02232101 0.0011065048 -0.03799505
000050 e1 56 77 3d d8 15 5c 3d f0 e4 29 3c ce 64 96 3c
       0.06038559 0.05373177 0.010369524 0.018358614
000060 fc 96 31 bd 4b ce 34 3b 38 d0 a8 3d 9a 53 06 bd
       -0.04335688 0.002758878 0.082428396 -0.032794572
000070 fb 38 11 3c 6e 8a ae 3c f8 b4 36 bb c5 6b ae bd
       0.008863683 0.021306243 -0.0027878862 -0.08516649

bn1.running_var f4 [32]
000000 fe c8 eb 3b 3e 42 17 3c 31 4c 1a 3c aa d9 0a 3c
       0.007195591 0.009232102 0.0094175795 0.008474747
000010 c4 dc fc 3b 41 bc f7 3b 33 9c db 3b d5 e9 f5 3b
       0.007716747 0.0075602834 0.00670197 0.0075046816
000020 67 f8 12 3c 12 51 2b 3c a4 74 31 3c 2f d6 c5 3b
       0.008970357 0.01045634 0.010831032 0.0060374956
000030 db ca c4 3b 51 5c e8 3b 60 e1 12 3c 50 00 15 3c
       0.0060056276 0.007091083 0.008964866 0.009094313
000040 97 6f 05 3c ab 0b ee 3b 22 43 12 3c ba 3d 25 3c
       0.008144281 0.0072645745 0.0089271385 0.010085518
000050 ff 8f 50 3c e1 09 51 3c 47 90 07 3c 6c 63 2d 3c
       0.012729644 0.012758703 0.0082741445 0.010582786
000060 03 86 c6 3b 85 8b d5 3b 80 07 25 3c ba 65 1d 3c
       0.006058456 0.006516876 0.010072589 0.009606773
000070 c9 19 a7 3b c9 59 f2 3b 88 3c 14 3c 15 c1 2d 3c
       0.0050995094 0.007395957 0.009047635 0.010605116

bn2.weight f4 [64]
000000 23 48 28 3f 94 50 2a 3f ad 03 33 3f 17 44 17 3f
       0.6573507 0.665292 0.69927484 0.5908827
000010 8a 2d 31 3f 9b 15 1b 3f 58 9f 2b 3f 79 ca 31 3f
       0.6921011 0.6057984 0.67040014 0.69449574
000020 ba 68 14 3f ca 06 2a 3f cf 8a 2f 3f 75 42 16 3f
       0.579723 0.6641661 0.6857118 0.58695155
000030 07 25 1d 3f 1d 27 26 3f 49 69 31 3f 3c 38 3b 3f
       0.61384624 0.6490343 0.6930128 0.7313268
000040 ea 05 3c 3f a6 81 22 3f 1f d6 1b 3f a3 21 3d 3f
       0.73446524 0.6347908 0.608736 0.7387945
000050 32 88 37 3f ee 79 2a 3f 34 66 0e 3f 31 ca 37 3f
       0.7169219 0.665923 0.556247 0.71792895
000060 3f b9 35 3f cf 27 37 3f ec 5e 2c 3f db 7b 24 3f
       0.7098579 0.7154512 0.6733234 0.6425149
000070 08 02 23 3f 28 d4 1d 3f 27 b9 4a 3f 0b 20 2b 3f
       0.63674974 0.6165185 0.7918877 0.6684577
000080 c4 7f 2f 3f 74 9e 29 3f f1 ee 1b 3f c3 e6 35 3f
       0.6855433 0.66257405 0.6091147 0.7105524
000090 6b 0b 24 3f a0 78 3f 3f e2 5d 3d 3f 90 6b 27 3f
       0.6407992 0.74793434 0.7397138 0.653985
0000a0 14 08 23 3f ca c9 2c 3f 76 3e 26 3f bf bc 22 3f
       0.636842 0.67495406 0.6493906 0.63569254
0000b0 fd 3f 20 3f 2f f7 2b 3f 60 74 11 3f 02 1c 3d 3f
       0.6259764 0.6717405 0.568182 0.7387086
0000c0 a8 b2 24 3f 8c b2 31 3f 41 bc 33 3f 55 2b 23 3f
       0.6433511 0.69413066 0.7020913 0.63737994
0000d0 3b 49 22 3f 6b b1 2c 3f f0 7f 23 3f 1d 7f 3c 3f
       0.6339299 0.6745822 0.6386709 0.7363146
0000e0 5f 81 1f 3f a5 78 37 3f 74 74 34 3f 53 2d 16 3f
       0.6230678 0.71668464 0.70490193 0.5866291
0000f0 70 b8 33 3f 23 3b 3c 3f 97 b7 35 3f 30 e1 19 3f
       0.70203304 0.73527735 0.7098326 0.60109234

bn2.bias f4 [64]
000000 cb 64 a9 bd cb bc 01 be 5f 84 4a 3c 7b 0b 4a be
       -0.08271178 -0.12669675 0.012360661 -0.19730942
000010 a3 cc 47 be 61 f0 0e 3e af 13 56 3c b3 fc 92 bc
       -0.19511656 0.13958885 0.013066216 -0.017942762
000020 02 43 64 bd 8e 84 5d bc 33 6f 53 3e 26 b7 85 bd
       -0.055727966 -0.013520373 0.20647888 -0.065290734
000030 15 b8 4c bd e7 df 0d be f3 cb 0b 3e d2 ab 98 bd
       -0.04998024 -0.13854943 0.13652019 -0.07454647
000040 1a 6f 05 bb fb 4d 1f bb 97 e5 b8 bd a1 9b 1a 3e
       -0.002036041 -0.0024307955 -0.09028166 0.1509843
000050 6d ed 80 3e cb c6 07 3e 40 14 d9 bd 15 90 16 3c
       0.25181141 0.13259427 -0.105995655 0.009189625
000060 33 b4 46 3c e9 98 ca 3d 8a cb b1 bd ad 1a 38 bd
       0.012127924 0.098924465 -0.086814 -0.044947315
000070 e2 ff 8b bd 21 a3 c2 bd 21 7b 1f 3e e9 9b b6 3d
       -0.06835915 -0.095037706 0.15574314 0.08916456
000080 77 9a 9f bd 23 b7 c5 3c 98 f9 99 bd 38 63 1e be
       -0.07793134 0.024135178 -0.07518309 -0.15467536
000090 81 5e 66 be 96 0d 4d 3e d6 01 2d bd 0f 83 84 bd
       -0.22496988 0.20024714 -0.04223808 -0.0647031
0000a0 a9 8b 0a be 97 41 99 bd c8 48 86 3e 14 25 68 3e
       -0.13529839 -0.074832134 0.26227403 0.22670394
0000b0 bc db e7 bc cf ab 1f bd d6 f9 f9 bd e3 21 8f 3d
       -0.02830302 -0.03898221 -0.122058555 0.06988885
0000c0 81 7b 0f be 0f 5d 1a bc 59 72 cf bb 63 ba d6 bd
       -0.14011957 -0.009421601 -0.00633077 -0.10484769
0000d0 ef 0d a8 bd d9 13 a3 3d 4a 5a 73 3d d5 fd ce 3d
       -0.082057826 0.0796277 0.05941228 0.10107008
0000e0 fa ff 86 bc 1a ad 2d 3d e3 48 13 3e 67 86 c7 bd
       -0.016479481 0.04240141 0.14383273 -0.09742432
0000f0 c0 ba 1c 3d a0 33 a9 bd 2a 6c 03 3e 80 b0 ee bd
       0.038264036 -0.082618 0.1283423 -0.116547585

bn2.running_mean f4 [64]
000000 b5 b0 de bd 4f 60 13 bc 02 db a9 bd eb c2 49 bd
       -0.10873548 -0.00899513 -0.082937256 -0.049258154
000010 8b 7c cf 3d 6a 11 2a 3d 06 27 75 bc a9 e8 24 3c
       0.101311766 0.041520514 -0.014962917 0.010065236
000020 08 b7 2b bd 3f e2 a8 bd 9a e7 d1 bc d6 33 6d bc
       -0.0419226 -0.08246278 -0.025623132 -0.014477691
000030 4f 67 eb bb 8b 99 c0 3d 05 96 f8 bc 7a 77 0c be
       -0.007183946 0.09404286 -0.030344972 -0.13717452
000040 55 92 fa bd 2c 01 94 3c c5 29 64 bc b7 de 89 bd
       -0.12234942 0.018066965 -0.013925974 -0.067319326
000050 82 92 f5 bd 3a 86 42 bd ee a7 9a 3d 78 8f 14 3a
       -0.11990835 -0.04749129 0.07551561 0.00056671305
000060 12 f4 d9 bd 60 ef 54 bd 01 74 95 3d 51 25 a4 ba
       -0.10642256 -0.0519861 0.072975166 -0.0012523328
000070 76 22 57 3c 2c 55 76 bd 25 a7 08 be 5e d8 14 be
       0.013130775 -0.06013982 -0.1334501 -0.14535663
000080 53 3d 79 3d c0 a8 6d bd d5 bc a7 bd 0a 6d 31 3d
       0.0608495 -0.05802226 -0.08190314 0.04331688
000090 8a e9 0c 3d 1e 2b b7 bd e9 39 b9 3d 72 7d c0 bd
       0.034402408 -0.08943771 0.090442486 -0.09398927
0000a0 1e 99 26 3d 02 7d 8f 3d 7e 70 3b bd 86 de 0b be
       0.040673368 0.07006265 -0.045761578 -0.13659105
0000b0 6c 3b cf b8 2b 95 e9 bc 9b b2 03 3d c3 64 d9 bd
       -9.881597e-05 -0.028513512 0.032152753 -0.10614922
0000c0 d9 02 8c 3d 7d 8c f5 bd 3e 14 43 bd 91 15 a1 3d
       0.06836481 -0.11989687 -0.047626726 0.078654416
0000d0 f2 93 be bc c9 08 ac bc 41 f8 a2 bd dc 53 8f bd
       -0.023263905 -0.021000283 -0.07957507 -0.06998417
0000e0 76 a0 1f 3d 51 42 93 bd 37 50 05 be 44 6e 1b bc
       0.038971387 -0.07190383 -0.13018881 -0.009486739
0000f0 0c 12 66 bc 95 f0 49 bd 8b 22 7e bd e7 1c d8 bc
       -0.014042389 -0.049301703 -0.06204466 -0.02638097

bn2.running_var f4 [64]
000000 1a 8b 2d 3c 05 91 27 3c 9c 9c 20 3c 8d 3e bd 3b
       0.010592246 0.010227446 0.009802964 0.005775279
000010 fe c4 84 3c 87 1f 27 3c 4e c5 1a 3c f8 bf 51 3c
       0.016207214 0.010200388 0.009446455 0.012802117
000020 94 35 f1 3b f6 58 1b 3c 0e 7e 53 3c e3 cf 39 3c
       0.0073611233 0.009481659 0.012908472 0.011341068
000030 d6 d1 e6 3b 69 37 e7 3b b7 f6 37 3c a9 ba 5d 3c
       0.0070440574 0.007056166 0.011228255 0.013533273
000040 6b 6e 03 3c 19 c9 9a 3c 87 7b 11 3c ee 21 21 3c
       0.008021931 0.018894719 0.008879549 0.00983475
000050 45 3d 94 3c 88 50 4e 3c 58 94 23 3c b7 c4 3d 3c
       0.018095622 0.012592442 0.009984098 0.011582545
000060 ee 11 10 3c 1d aa 12 3c 10 7e 91 3c b7 51 1d 3c
       0.008793337 0.008951691 0.017760307 0.009602002
000070 88 9d 3e 3c 40 bf 06 3c d4 27 4c 3c 99 bc 32 3c
       0.011634238 0.0082243085 0.012460668 0.010909223
000080 db bc 76 3c 79 52 56 3c 75 33 00 3c 1e 15 cb 3b
       0.015059675 0.013081186 0.007824768 0.0061975857
000090 8e 89 40 3c 3e f0 72 3c d1 ba 79 3c ff fc 12 3c
       0.011751546 0.014827786 0.015242294 0.008971452
0000a0 0c 11 bd 3c a4 a1 56 3c 72 00 56 3c 50 c6 7a 3c
       0.023079418 0.013100062 0.01306163 0.01530607
0000b0 e7 2e 09 3c 33 1c 7b 3c f2 de 4a 3c f5 51 17 3c
       0.008372999 0.015326547 0.012382256 0.009235849
0000c0 43 42 0e 3c e5 47 82 3c 5b 56 10 3c 2e 01 03 3c
       0.00868279 0.015903423 0.008809651 0.007995887
0000d0 07 e7 1d 3c 5c 8b b1 3c 7f e3 6e 3c 79 4d 1b 3c
       0.009637601 0.021672897 0.0145806065 0.00947892
0000e0 cd ae 08 3c 5f 9c 64 3c 60 0a 6d 3c 33 da 0f 3c
       0.008342457 0.013953297 0.014467806 0.00878005
0000f0 c6 25 05 3c 1c 6c 14 3c 48 a4 0b 3c 19 4a f8 3b
       0.008126682 0.009058978 0.008523054 0.0075771925

output_conv.weight f4 [10, 64, 1, 1]
000000 10 c9 85 bc 85 58 03 bf 13 a6 44 3e 38 3c ad bd
       -0.016331226 -0.51306945 0.19203977 -0.084587514
000010 bc 25 3e be 17 78 3b 3e 65 fe 02 3e 93 68 b1 3d
       -0.18569082 0.1830753 0.12792356 0.08662524
000020 eb 9a ba 3d 56 99 51 3e c7 55 1d 3e 43 22 89 be
       0.091115795 0.2046865 0.15364753 -0.26783952
000030 a2 6f 89 bd 21 ed 03 3e 19 9f 45 3e 1a 59 d5 3d
       -0.067107454 0.12883426 0.19298972 0.104173854
000040 5f 3e 9c 3d 75 21 e9 bd 66 5a 4c be 1d d2 a0 3d
       0.07629084 -0.113833345 -0.1995636 0.07852576
000050 07 b0 29 3e 75 d5 21 3e c9 d4 9a be f3 c8 1f bf
       0.16571055 0.15804084 -0.30240467 -0.62416
000060 74 94 2b 3e fb 5b b2 3d 38 12 06 bf c3 f7 41 be
       0.16755849 0.0870895 -0.5237155 -0.1894217
000070 c3 ca 17 3e 53 d1 fb 3d 8e 91 de 3d 86 6c 11 3e
       0.14823441 0.12295785 0.10867606 0.14201555
000080 e4 60 0a bf 1b e2 28 3e c9 cd 40 3e 1a 80 9d 3d
       -0.54054093 0.16492502 0.18828501 0.07690449
000090 0e 2f 34 3e ac d8 31 3e 5b d1 04 3e e9 cd d5 3d
       0.17596075 0.1736781 0.12970488 0.10439665
0000a0 4e af b6 bd 80 31 08 bf e1 e6 1c 3e 7d e9 05 3e
       -0.089201555 -0.5320053 0.15322448 0.1307735
0000b0 d5 ef 16 3e 38 d9 95 bc 90 59 d3 be 92 b2 3e 3e
       0.14739926 -0.018292055 -0.41279268 0.18622807
0000c0 cb 94 66 be 06 d1 00 3d 01 a8 cb 3d 23 60 36 3e
       -0.22517698 0.03144934 0.099441536 0.17810111
0000d0 5b 50 02 3e 09 e7 49 3c f5 57 ab 3d 30 58 68 3d
       0.12725966 0.0123231495 0.08366386 0.056724727
0000e0 d7 fa df 3d b7 98 de 3d 46 8b a9 3d 9b 89 45 be
       0.10936516 0.10868972 0.082785174 -0.19290774
0000f0 a3 73 37 3d ea 9e 42 3e a6 ad 06 3e e4 f3 c6 bd
       0.044788014 0.19005933 0.13152179 -0.09714487
000100 02 08 71 be d1 4a 6c 3d 70 ce b2 3d c3 e2 c9 be
       -0.23538211 0.057688538 0.08730781 -0.39430818
000110 c9 19 05 be ab 7c f5 3d 8d e5 7e 3d 1f bb 04 3c
       -0.12998118 0.11986669 0.062230635 0.008101254
000120 bb 0c d5 3d 6e 01 f8 3d cf ff cb 3d df a3 de bc
       0.10402819 0.12109648 0.09960901 -0.02717775
000130 ea a2 c3 3d d3 c1 c9 3d 0f cd e7 3d 4b 06 23 3e
       0.09552558 0.09851422 0.11318409 0.1592037
000140 21 b0 ab bb de 39 0f 3e 33 98 02 3d 29 34 02 3e
       -0.005239502 0.13986918 0.03188343 0.1271521
000150 ea 30 0c 3e 4a 23 be 3d 0a 7f 83 3d dd ac e0 3c
       0.13690534 0.092840746 0.06420715 0.027426178
000160 a0 91 a3 3d 4d 52 b7 3c 15 ca 9a bc 37 2d 34 be
       0.0798676 0.022378111 -0.018895188 -0.17595373
000170 d6 0d 78 3c 52 5a 74 bd b9 77 99 3d 13 55 e6 3d
       0.0151400175 -0.05965645 0.074935384 0.11246695
000180 60 d5 29 be 5c 3f 5a be 6b cc 5e be 6e fc f1 3c
       -0.16585302 -0.21313232 -0.21757667 0.029539313
000190 0b e8 2a bc 3b 55 27 3e a7 54 f2 3d 9b 46 9a be
       -0.0104313 0.16341107 0.118325524 -0.30131993
0001a0 87 bd 69 3c ee 5b 85 3d 28 c9 ef 3d 99 12 cc 3c
       0.014266378 0.06511675 0.117082894 0.024911212
0001b0 a4 f6 93 3d 14 b7 8e be e2 75 a7 3d 9a 86 bb 3d
       0.07224777 -0.27874053 0.08176781 0.091565326
0001c0 2d 7e 41 3d bb 3e 66 be bb 45 aa 3d e2 d5 30 3e
       0.04723947 -0.22484867 0.08314081 0.1726909
0001d0 d4 28 1a bd 44 d3 94 be 8f ed 04 be d5 25 d6 3d
       -0.037636593 -0.29067433 -0.12981246 0.10456435
0001e0 5e b2 98 3d 0f 7c 0a bf 8d d7 f5 3d 8f da 6a be
       0.07455896 -0.5409555 0.12004004 -0.22934936
0001f0 3b db 65 3d b9 25 00 3e a5 9f 11 3e 2a 16 ab 3d
       0.056117278 0.1251439 0.14221056 0.08353837
000200 c0 02 a1 be 16 28 33 3d 0f 55 06 3e 9c f9 db bd
       -0.3144741 0.0437394 0.13118385 -0.107409686
000210 b2 09 0d 3c fc 62 36 3e 92 68 17 3e 72 10 bd bd
       0.008608269 0.17811197 0.14785984 -0.09231652
000220 fd e4 8b bc ae cf 09 3e 5c f1 0c 3e 12 a7 c1 3c
       -0.017076964 0.1345813 0.13763946 0.023639236
000230 37 4c 42 3d 7d 57 b2 3d 4b eb e6 3d cb 8a d3 3d
       0.047435965 0.08708093 0.11275347 0.10329207
000240 4c ea a2 bb 21 fd ab bd 5d 55 c7 3d fd 32 ec 3d
       -0.004971778 -0.0839789 0.09733079 0.11533163
000250 bc 31 e0 3d 92 25 d3 3d 23 03 0a 3c 84 43 82 bc
       0.10946986 0.103099 0.008423599 -0.015901335
000260 b6 40 11 3e 27 3b ac 3d 67 2b 9c bd b9 c2 29 be
       0.14184842 0.0840972 -0.07625466 -0.16578187
000270 2e 7e 39 be 72 41 e0 bd 37 1d 4c 3d af 7f a6 3c
       -0.1811454 -0.10949983 0.04983255 0.020324556
000280 d9 6f 62 bd 94 07 1c be bc 85 d0 bd c6 ba e2 3d
       -0.055282447 -0.15237266 -0.10181758 0.110707805
000290 82 e0 80 be db fd 33 3e 9b ae f7 3a 3d a8 32 3c
       -0.25171286 0.17577307 0.0018896641 0.010904369
0002a0 55 9b 54 bd 29 45 00 bc ba 9e 07 3e 19 9d b8 3c
       -0.05190595 -0.007828989 0.13244143 0.022535847
0002b0 4d 69 88 3d f2 05 a3 be af 4e 69 3d 52 f3 b5 3d
       0.066607095 -0.31840473 0.056959804 0.088843
0002c0 b2 7b 1b 3e ce 50 87 be d0 a1 41 3d 15 32 d8 3d
       0.15183905 -0.26428837 0.047273457 0.105564274
0002d0 47 cd bd bd 42 46 40 be ce 91 a9 be aa b4 8f 3d
       -0.09267669 -0.18776801 -0.33119053 0.07016881
0002e0 ab b7 3b 3e c7 8d 37 be b0 e6 ae 3d 13 d9 b4 bd
       0.18331783 -0.17925178 0.08540094 -0.08830466
0002f0 58 99 a4 3d a8 93 0d 3e 1b b7 e2 3d 3f 3e 0d 3e
       0.080370605 0.13825858 0.11070081 0.13793276
000300 e2 d3 a8 3c 30 f0 5d bd ef 7b 2e 3e e7 46 af bc
       0.020608846 -0.05418414 0.17039464 -0.021396114
000310 32 8b c0 be 46 a2 e8 3d 91 e2 54 3d 47 2c a3 3c
       -0.37606198 0.11359076 0.051973883 0.019918574
000320 7a 2b 05 be ba e2 03 3e e5 81 07 3e fb 99 8d 3d
       -0.13004866 0.12879458 0.13233145 0.06914135
000330 32 ca bf 3d 00 a0 c2 3b 01 53 00 3e 94 4a ed ba
       0.093647376 0.0059394836 0.12531663 -0.0018103891
000340 6c 7b 27 3c e2 60 7f be 7c 5c d7 3c a0 43 e0 3d
       0.010222297 -0.24939302 0.026289217 0.109503984
000350 fa eb 0e 3e 89 e7 a0 3d 08 53 2c 3c 54 ee 80 bc
       0.13957205 0.07856662 0.010517843 -0.015738644
000360 a9 22 e3 3d 83 7a 06 3e 8b 52 14 3e f7 fb 4a 3e
       0.11090595 0.13132672 0.14484613 0.1982268
000370 0d 56 fe bd 5c f4 50 3d 99 42 6b 3d dd b5 9f 3c
       -0.12418757 0.05101429 0.05743656 0.019495899
000380 0a 29 17 be 38 87 b4 be 32 7d aa bd 22 c8 02 3e
       -0.14761749 -0.35259414 -0.0832466 0.12771657
000390 c7 0d 42 be 07 34 41 3e 71 60 35 bc eb d3 90 3c
       -0.18950568 0.18867503 -0.011070357 0.017679175
0003a0 e5 6f 8b be 61 a9 38 3e fb ad e7 3d 29 52 8f 3d
       -0.27233806 0.18033363 0.11312481 0.06998093
0003b0 c4 7c cf 3b 38 02 62 be a1 fe 0f 3d f6 69 7c 3d
       0.006332012 -0.22071159 0.035154942 0.06162449
0003c0 8d 39 ee bc e2 be bb bd c2 9f 5b 3d bd 47 b2 3d
       -0.029080177 -0.091672674 0.053619154 0.08705089
0003d0 8c 8f 42 be c0 8b cc be b6 c4 a0 be d5 d9 2b 3d
       -0.19000071 -0.3995037 -0.3140008 0.041955788
0003e0 ea 22 0e 3d ea 37 0d be 8f 63 06 3e ab de 71 be
       0.034701265 -0.13790861 0.13123916 -0.23620097
0003f0 8c 69 32 bd e0 d9 02 3e 7e 63 15 3e a5 5f 24 3e
       -0.04355769 0.12778425 0.14588735 0.1605211

output_conv.bias f4 [10]
000000 74 44 ea 3e bb c5 14 be 6b 69 2e be 10 b0 e4 bd
       0.4575535 -0.14528553 -0.17032401 -0.11166394
000010 ee 8a 28 3c f5 62 10 be 5f 18 65 bd b8 50 eb bd
       0.01028703 -0.14100249 -0.055931445 -0.11490005
000020 75 b2 70 bd 2c a3 e2 3d
       -0.05876394 0.11066279
