training/trained_models/model_standard_rocket.pth (torch, 84350 bytes, 14 tensors)

conv1.weight f4 [32, 2, 3, 3]
0.0685881 -0.097906075 -0.21702094 0.11570007 0.31188482 0.09308421 -0.14877918 -0.20645806
-0.09250709 -0.13305295 -0.01000346 -0.15685654 0.035646312 -0.18435884 -0.03637584 -0.15589246
0.05123758 -0.114202365 0.16035055 -0.21228275 0.12402155 -0.20258996 0.1928111 0.03680731
0.03189655 0.031649098 0.07125758 0.103821635 0.042294595 0.0338379 0.080774166 0.1789829
0.017217409 0.12751368 0.027136227 0.04127385 -0.0009771299 0.22429805 -0.0047464953 -0.29914972
-0.006557107 -0.17178293 0.013372042 0.24551018 -0.0017455425 -0.11617102 -0.002867135 -0.02974661
-0.003043649 0.06523148 0.053986073 -0.025591057 -0.09005045 -0.011703918 0.027255215 -0.15403856
0.16379057 0.07173029 -0.16582549 -0.26353353 0.064471714 -0.2716173 0.10870556 -0.08421791
-0.09671485 -0.017995408 0.009852308 -0.087381266 -0.1137533 -0.06973543 -0.039039757 -0.12007533
0.045160733 -0.02141418 -0.19357423 0.16262703 0.05510601 -0.3103262 -0.16109246 -0.3020813
0.041128375 0.11146986 0.19535697 -0.06777273 0.009108096 0.103868924 -0.035988294 -0.028751263
0.0575951 0.09937004 -0.23090513 0.09855208 -0.094317265 -0.0045720725 0.085671194 0.23473148
-0.22793908 -0.08085968 0.13289247 -0.034171592 0.119595535 -0.043884654 0.018597554 -0.008464182
-0.25111413 -0.12961651 0.01740992 0.031468216 -0.08453438 0.19601652 -0.069199614 0.18449742
0.29620785 0.11397633 -0.1435947 -0.08383672 -0.13551766 0.07989263 -0.05661867 -0.16144677
-0.21583931 0.039824333 0.031357754 0.18561321 0.02983172 0.0018312183 0.13175176 -0.13124065
-0.08084102 0.14929205 0.15148057 -0.08480091 0.16394337 0.17736275 0.073368385 -0.036774915
0.05404288 -0.16436648 -0.1736136 -0.21028851 0.100230075 0.0045112735 0.055869162 -0.07552102
-0.30426326 0.0845931 0.050936192 0.1313632 -0.2607152 -0.097276494 -0.11675479 0.07836783
0.20661815 0.062136725 -0.024791406 0.076538466 -0.033493564 0.05856377 -0.054768946 0.056488093
-0.03966086 -0.014002502 -0.0653501 -0.07161353 0.052693326 0.18708728 0.19972543 -0.062854014
-0.31037772 0.21371391 0.2021159 -0.10448585 -0.07099804 -0.049869273 0.112202466 -0.28915238
0.19791551 0.012582821 -0.038144104 0.080440275 -0.21069452 -0.06853658 -0.18938924 0.08484796
-0.124514416 0.020851245 0.1530255 -0.095447294 -0.21791081 -0.042539377 0.061340336 0.087067045
-0.0043629566 0.12674202 -0.023942193 0.11303783 -0.10450455 -0.0033719523 0.10134227 -0.30394778
-0.023964422 0.09851076 -0.16103376 -0.14395648 -0.21531565 0.07132609 -0.07071288 0.054981053
0.0011595841 0.063542046 0.08617059 -0.1566951 0.19306935 -0.09923355 0.07597317 0.10476488
-0.19688652 0.19605981 0.1369995 0.080385745 0.106088854 -0.13447063 -0.12830046 -0.13627382
-0.031520896 0.088843845 -0.0014484051 0.071896695 0.006457481 -0.1069255 0.05323459 0.10301912
0.11486438 0.020239687 -0.038790245 0.20705512 0.2290408 0.09799086 0.09657474 -0.03090624
0.04704917 0.21898553 0.18862171 -0.07709232 0.09421054 0.1412606 -0.06609127 -0.12902367
0.092234306 -0.13999163 0.116602845 -0.3441241 0.053916752 -0.27090725 0.017614022 -0.2718685
00000000: eb77 8c3d fb82 c8bd bd3a 5ebe 29f4 ec3d
00000010: 5eaf 9f3e efa2 be3d 9259 18be be69 53be
00000020: 5b74 bdbd 083f 08be 8de5 23bc 009f 20be
00000030: de01 123d 90c8 3cbe d5fe 14bd 46a2 1fbe
00000040: 7fde 513d eee2 e9bd ef32 243e a660 59be
00000050: 03ff fd3d be73 4fbe 4670 453e 43c3 163d
00000060: f5a5 023d 7ca2 013d 7eef 913d 70a0 d43d
00000070: 193d 2d3d 9c99 0a3d ed6c a53d 4b47 373e
00000080: 860b 8d3c f292 023e cb4c de3c c50e 293d
00000090: 0a13 80ba 63ae 653e 7d88 9bbb 272a 99be
000000a0: 00dd d6bb dde7 2fbe 6916 5b3c 0567 7b3e
000000b0: b0ca e4ba 12eb edbd 8be6 3bbb 2aaf f3bc
000000c0: f577 47bb 1598 853d 8020 5d3d 56a4 d1bc
000000d0: 5f6c b8bd cac1 3fbc 5446 df3c 49bc 1dbe
000000e0: b7b8 273e 55e7 923d 28ce 29be deed 86be
000000f0: bf09 843d 6c11 8bbe 05a1 de3d 717a acbd
00000100: 6f12 c6bd 1b6b 93bc 936b 213c f3f4 b2bd
00000110: 7df7 e8bd 73d1 8ebd 27e8 1fbd 0eea f5bd
00000120: 76fa 383d ca6c afbc 5338 46be b387 263e
00000130: d7b6 613d 13e3 9ebe 6cf5 24be 66aa 9abe
00000140: 3a76 283d 4f4a e43d a80b 483e 6ecc 8abd
00000150: 203a 153c 3bb9 d43d 7668 13bd c587 ebbc
00000160: d7e8 6b3d 8582 cb3d 6572 6cbe acd5 c93d
00000170: 6929 c1bd 53d1 95bb 6174 af3d 735d 703e
00000180: dd68 69be c399 a5bd f714 083e 83f7 0bbd
00000190: 81ee f43d 65c0 33bd e659 983c 5aad 0abc
000001a0: 0892 80be 31ba 04be 409f 8e3c d1e4 003d
000001b0: 5c20 adbd 8eb8 483e 87b8 8dbd e4ec 3c3e
000001c0: 8ea8 973e 6c6c e93d 7d0a 13be 96b2 abbd
000001d0: 24c5 0abe bf9e a33d fae8 67bd 4d52 25be
000001e0: fb04 5dbe d71e 233d fd70 003d 6411 3e3e
000001f0: a761 f43c 7d05 f03a efe9 063e f363 06be
00000200: fa8f a5bd 04e0 183e b91d 1b3e 19ac adbd
00000210: c5e0 273e 959e 353e 2a42 963d 4ba1 16bd
00000220: 115c 5d3d b04f 28be c3c7 31be df55 57be
00000230: 6d45 cd3d 4ed3 933b 10d7 643d c4aa 9abd
00000240: 65c8 9bbe 263f ad3d 78a2 503d 1384 063e
00000250: 767c 85be e638 c7bd 231d efbd 507f a03d
00000260: b593 533e 1483 7e3d 5917 cbbc 33c0 9c3d
00000270: 8c30 09bd 90e0 6f3d 6755 60bd 0f60 673d
00000280: 6d73 22bd c06a 65bc 46d6 85bd 1daa 92bd
00000290: f5d4 573d cf93 3f3e d384 4c3e 9bb9 80bd
000002a0: d4e9 9ebe d2d7 5a3e 78f7 4e3e adfc d5bd
000002b0: 6c67 91bd b943 4cbd 68ca e53d c80b 94be
000002c0: 5daa 4a3e 2d28 4e3c fe3c 1cbd dfbd a43d
000002d0: 4ec0 57be e85c 8cbd 41ef 41be c4c4 ad3d
000002e0: 6a01 ffbd 3bd0 aa3c b7b2 1c3e df79 c3bd
000002f0: 0324 5fbe c53d 2ebd 0140 7b3d 3550 b23d
00000300: 22f7 8ebb a9c8 013e 6b22 c4bc 6180 e73d
00000310: 7b06 d6bd f9fb 5cbb 898c cf3d 0b9f 9bbe
00000320: 0951 c4bc 02c0 c93d 09e6 24be 5469 13be
00000330: b57b 5cbe 6a13 923d ead1 90bd d033 613d
00000340: 30fd 973a 5522 823d 357a b03d ae74 20be
00000350: f9b3 453e f63a cbbd d297 9b3d f88e d63d
00000360: 9f9c 49be e7c3 483e 9949 0c3e 48a1 a43d
00000370: 1d45 d93d abb2 09be 3261 03be 5d8b 0bbe
00000380: 0e1c 01bd c3f3 b53d 69d8 bdba 933e 933d
00000390: 4799 d33b c2fb dabd 830c 5a3d b0fb d23d
000003a0: 043e eb3d b3cd a53c 85e2 1ebd 4206 543e
000003b0: ac89 6a3e 6faf c83d fac8 c53d 152f fdbc
000003c0: a1b6 403d be3d 603e 0d26 413e 94e2 9dbd
000003d0: 75f1 c03d 9ea6 103e dc5a 87bd c81e 04be
000003e0: 57e5 bc3d f759 0fbe 79cd ee3d 0931 b0be
000003f0: d0d7 5c3d 5bb4 8abe 484b 903c 5932 8bbe

conv1.bias f4 [32]
-0.03219614 -0.16481939 -0.037851337 -0.0007646863 -0.034540065 0.082050286 0.022968728 0.008148254
0.1131945 0.08143519 -0.049903665 -0.17324308 0.025909219 0.038751435 0.21008311 -0.09789136
0.2111242 0.116330355 -0.0037773661 -0.20902652 -0.0661455 0.23359674 -0.08579172 0.046486214
-0.2424012 0.21924338 0.12820049 0.124178566 0.20980653 0.20066017 -0.1346985 -0.0935901
00000000: 1ae0 03bd 6ac6 28be 010a 1bbd 3b75 48ba
00000010: e279 0dbd fb09 a83d ea28 bc3c 4180 053c
00000020: 85d2 e73d 7ec7 a63d c967 4cbd a266 31be
00000030: 923f d43c d3b9 1e3d 0720 573e 447b c8bd
00000040: f130 583e 9c3e ee3d b08d 77bb 0c0b 56be
00000050: 4b77 87bd fc33 6f3e 92b3 afbd 5468 3e3d
00000060: 0538 78be 5681 603e fd46 033e 5551 fe3d
00000070: 86d7 563e dc79 4d3e 67ee 09be 2bac bfbd

conv2.weight f4 [64, 32, 3, 3]
0.018633982 -0.038254213 0.0017606466 0.041012146 -0.011219671 -0.01811632 0.0037350925 -0.104152255
0.05403397 0.0454776 0.073164 -0.0013941985 0.017661948 0.08949996 0.036542386 0.006100568
-0.017207261 -0.052731782 0.013103703 -0.03179569 0.0017946995 0.040335238 -0.01966575 0.050784234
-0.033521406 0.015978228 0.009306653 -0.0051270486 0.021577317 0.061030246 0.07730499 0.060096048
6.99017e-05 0.019406246 -0.020618431 0.060544807 0.06254195 0.0151045825 0.0469593 0.034268927
0.0830829 0.017873414 0.042797457 0.042285953 -0.021011647 -0.022294529 0.003027287 0.0075251465
0.021793773 0.0031462752 -0.060485475 -0.047054306 0.087831855 0.012207986 -0.031471875 -0.09286772
0.018320305 -0.026855012 0.029250177 0.017728548 -0.00029867023 0.035363413 -0.05675856 -0.0083850585
-0.04345775 -0.0113955 0.01980557 0.053098284 -0.0025561948 -0.06813518 -0.01213895 -0.02749909
-0.034854986 -0.011423608 0.12281027 -0.004736785 -0.01336542 0.009392521 0.020906344 -0.029860234
0.06987856 0.033502832 -0.028932024 0.060204595 -0.008664616 0.0012799182 -0.016947296 0.043015152
0.053883575 0.003428159 -0.018456783 -0.020212693 -0.028116815 0.01229797 -0.031416267 -0.043026697
0.06677434 0.02010542 0.04082418 -0.037635323 0.007300308 0.048979823 -0.021907782 -0.02278854
-0.018198641 0.0408814 -0.022570733 0.021914082 0.015545471 0.051249996 -0.015993513 0.032009497
-0.006367205 0.02558914 -0.017303484 0.00989612 0.02942245 -0.012745309 0.0052653267 0.0001665162
-0.055150222 -0.022494951 -0.04086998 -0.01055539 0.008496876 -0.021551434 0.025562117 -0.04148794
0.10249422 -0.014096625 -0.10598253 -0.015180913 0.043012913 -0.055510066 0.001989178 0.16715543
0.010402161 0.14401627 -0.07721013 0.011189255 0.042696923 0.12272538 0.036170855 0.06595374
0.01819149 -0.014821006 -0.01801099 -0.09685148 0.03789179 -0.058809444 0.01822949 -0.061073825
0.047353428 -0.003606342 -0.029597698 -0.09846956 0.0379527 -0.0030684592 0.039482813 -0.019545332
0.07688874 -0.07457613 0.08432817 0.0047349962 0.13354804 -0.044357706 -0.029453358 0.044283926
0.0350631 0.04693724 0.053174272 -0.018264616 -0.007331876 0.028980423 0.069748506 -0.032362986
-0.002596247 -0.0047373385 0.06375541 -0.031473465 0.057564154 -0.003248703 0.047399715 -0.041145593
0.011955584 -0.027918775 0.02866263 -0.025707806 0.05960229 0.041987896 -0.01716101 -0.048786484
0.055995174 0.013400476 0.022348773 0.052447274 -0.008740138 0.008935181 0.032967966 0.01183783
-0.029704273 -0.006929072 0.052613568 -0.043005887 0.0039499355 0.10393409 0.02521966 0.024355825
0.009019381 0.04078333 0.039973654 -0.0029050831 0.021973202 0.013427297 -0.026884206 -0.041549075
0.04332841 -0.00065529393 0.07947285 -0.09540261 0.011975673 0.07527046 -0.019363226 0.001374416
0.007972052 0.015971133 -0.0043371688 -0.0135162175 -0.04810184 0.0024808098 -0.0067380737 -0.0642316
0.06869529 0.09381682 0.06407164 0.031163802 -0.0014721341 0.014754472 0.021781834 -0.07238554
0.09375728 -0.023463273 0.04421309 0.037829604 -0.06628301 0.082434945 -0.011988818 -0.111634746
-0.008447554 0.14108506 -0.00945382 0.035633333 -0.053333856 -0.043692954 -0.011973644 0.06873775
00000000: 4ba6 983c 73b0 1cbd 7fc5 e63a 5afc 273d
00000010: b6d2 37bc ad68 94bc 74c8 743b c74d d5bd
00000020: b952 5d3d b846 3a3d 02d7 953d 8abd b6ba
00000030: caaf 903c c14b b73d 78ad 153d 46e7 c73b
00000040: 3ef6 8cbc 48fd 57bd eab0 563c 333c 02bd
00000050: 1f3c eb3a 9036 253d 111a a1bc 2103 503d
00000060: be4d 09bd c6e4 823c ef7a 183c cd00 a8bb
00000070: eac2 b03c dafa 793d 1452 9e3d 4627 763d
00000080: 3098 9238 d9f9 9e3c fce7 a8bc d5fd 773d
00000090: fe15 803d 3679 773c 6558 403d 935d 0c3d
000000a0: 5e27 aa3d 446b 923c 634c 2f3d 0934 2d3d
000000b0: 9e20 acbc 04a3 b6bc 7365 463b 8195 f63b
000000c0: db88 b23c bd31 4e3b 9ebf 77bd 04bc 40bd
000000d0: 30e1 b33d 0104 483c a7e8 00bd 6e31 bebd
000000e0: 7714 963c 0bff dbbc 119e ef3c 763b 913c
000000f0: d796 9cb9 3ad9 103d aa7b 68bd 7c61 09bc
00000100: c100 32bd 31b4 3abc 4a3f a23c 967d 593d
00000110: d585 27bb 758a 8bbd 72e2 46bc c645 e1bc
00000120: 1ac4 0ebd 162a 3bbc f383 fb3d 0837 9bbb
00000130: a2fa 5abc 17e3 193c c843 ab3c 739d f4bc
00000140: 7e1c 8f3d 443a 093d da02 edbc 1899 763d
00000150: 09f6 0dbc eec2 a73a 0ed5 8abc a830 303d
00000160: 06b5 5c3d f7aa 603b ae32 97bc 1795 a5bc
00000170: 3c55 e6bc 6d7d 493c 58ae 00bd c33c 30bd
00000180: fcc0 883d 1fb4 a43c 4137 273d 7f27 1abd
00000190: 6c37 ef3b 119f 483d f377 b3bc 08af babc
000001a0: 5115 95bc 4173 273d 42e6 b8bc 2985 b33c
000001b0: 6eb2 7e3c 84eb 513d d404 83bc 641c 033d
000001c0: fda3 d0bb 51a0 d13c 09c0 8dbc 5623 223c
000001d0: 5a07 f13c b3d1 50bc c388 ac3b da9a 2e39
000001e0: 33e5 61bd 5547 b8bc 4867 27bd 84f0 2cbc
000001f0: 7b36 0b3c a28c b0bc a567 d13c 42ef 29bd
00000200: 7de8 d13d 88f5 66bc 5e0d d9bd 5db9 78bc
00000210: 4f2e 303d 865e 63bd de5c 023b cb2a 2b3e
00000220: d36d 2a3c 0079 133e 5820 9ebd 2353 373c
00000230: f8e2 2e3d 7257 fb3d e427 143d c112 873d
00000240: 5206 953c ced3 72bc c98b 93bc 125a c6bd
00000250: 6c34 1b3d 2ce2 70bd 0356 953c 8c28 7abd
00000260: abf5 413d 6158 6cbb df76 f2bc 69aa c9bd
00000270: 4a74 1b3d 3418 49bb bbb8 213d 881d a0bc
00000280: d877 9d3d 5fbb 98bd 3fb4 ac3d 0728 9b3b
00000290: d1c0 083e 6db0 35bd 2b48 f1bc 1063 353d
000002a0: 539e 0f3d 4341 403d 44cd 593d ad9f 95bc
000002b0: 3c40 f0bb 5a68 ed3c 4ed8 8e3d 0d8f 04bd
000002c0: cc25 2abb ad3b 9bbb 3292 823d 52ea 00bd
000002d0: 64c8 6b3d 31e8 54bb 3426 423d 4888 28bd
000002e0: 5be1 433c eab5 e4bc e4cd ea3c 2d99 d2bc
000002f0: 8821 743d 80fb 2b3d 3f95 8cbc 56d4 47bd
00000300: 325b 653d ac8d 5b3c c614 b73c f4d2 563d
00000310: cc32 0fbc de64 123c 6b09 073d 75f3 413c
00000320: 6056 f3bc 450d e3bb 5381 573d f126 30bd
00000330: 766e 813b 65db d43d 7699 ce3c de85 c73c
00000340: 07c6 133c 6c0c 273d 6abb 233d 3563 3ebb
00000350: 2501 b43c 2afe 5b3c 443c dcbc 5d2f 2abd
00000360: 2179 313d 08c8 2bba a9c2 a23d 7262 c3bd
00000370: 9d35 443c 6627 9a3d a19f 9ebc c025 b43a
00000380: 369d 023c e5d5 823c cf1e 8ebb 2073 5dbc
00000390: 6f06 45bd 1595 223b 0fcb dcbb db8b 83bd
000003a0: 1eb0 8c3d 0823 c03d fe37 833d 3b4b ff3c
000003b0: a0f4 c0ba bebc 713c d16f b23c df3e 94bd
000003c0: d103 c03d 0d36 c0bc c918 353d 37f3 1a3d
000003d0: 63bf 87bd a7d3 a83d bf6c 44bc c2a0 e4bd
000003e0: 9c67 0abc 9a78 103e 32e4 1abc 42f4 113d
000003f0: 9a74 5abd 62f7 32bd 1a2d 44bc 61c6 8c3d

conv2.bias f4 [64]
0.0140534 -0.0053773466 0.00867338 0.015463029 -0.009453484 -0.04305167 -0.049913846 -0.012264516
0.018619101 0.01872804 0.00446038 0.044687685 0.005204985 -0.031120397 -0.04029529 -0.048866846
-0.038420033 0.057911664 0.007580121 -0.024067286 0.045368522 0.007911286 0.01260566 -0.030377826
0.023001803 0.040376954 0.022064488 0.015954882 -0.050890267 -0.04252459 0.054753236 -0.015104936
-0.015425836 0.039345276 -0.04904848 -0.015144922 -0.0067346455 0.03383691 -0.032420337 0.025985252
-0.016517913 0.014019696 -0.05721011 -0.012388929 -0.050886035 -0.02618447 -0.055658974 0.02233292
0.006034687 0.045909837 0.053614613 -0.05400536 -0.0211322 0.0030365689 0.002109149 0.044045623
0.008100244 -0.00394688 0.043605134 0.047397323 0.00011420908 -0.03421232 -0.008202689 0.0024714873
00000000: 3b40 663c 7434 b0bb cb1a 0e3c a558 7d3c
00000010: c9e2 1abc f356 30bd 7672 4cbd 1cf1 48bc
00000020: 1687 983c 8c6b 993c 6128 923b 6f0a 373d
00000030: 948e aa3b 34f0 febc ad0c 25bd 9a28 48bd
00000040: 535e 1dbd c834 6d3d aa62 f83b c228 c5bc
00000050: 58d4 393d 579e 013c f887 4e3c ebda f8bc
00000060: 476e bc3c 4e62 253d 96c0 b43c d0b3 823c
00000070: 5072 50bd 442e 2ebd ee44 603d b27a 77bc
00000080: a5bc 7cbc 8328 213d 0fe7 48bd 6822 78bc
00000090: 4dae dcbb 9298 0a3d 30cb 04bd 06df d43c
000000a0: 9350 87bc deb2 653c 2655 6abd effa 4abc
000000b0: e06d 50bd d080 d6bc aafa 63bd 87f3 b63c
000000c0: a0be c53b f40b 3c3d ff9a 5b3d b934 5dbd
000000d0: 6f1d adbc 2c01 473b a639 0a3b 2f69 343d
000000e0: e3b6 043c d454 81bb 4c9b 323d b223 423d
000000f0: 8883 ef38 3822 0cbd 9264 06bc adf8 213b

bn1.weight f4 [32]
0.9958642 1.0451027 0.9709014 1.004146 1.0171643 0.9460351 0.98215693 0.8697047
0.95982105 0.91957074 0.9947912 1.0216463 0.9538885 0.83428264 1.2391715 1.1503932
0.9894698 0.86363536 1.0587318 0.96588045 0.9326252 0.949861 0.9281135 1.0028238
1.0849568 0.97063476 1.0340639 1.1404742 0.89315253 0.9301534 1.012198 1.0168974
00000000: f5f0 7e3f edc5 853f ff8c 783f db87 803f
00000010: 7132 823f 5b2f 723f a36e 7b3f f8a4 5e3f
00000020: d5b6 753f fd68 6b3f a3aa 7e3f 4ec5 823f
00000030: 0932 743f 8c93 553f 2c9d 9e3f 1640 933f
00000040: e54d 7d3f 3517 5d3f 8684 873f f143 773f
00000050: 86c0 6e3f 172a 733f d998 6d3f 885c 803f
00000060: dddf 8a3f 857b 783f 355c 843f 0ffb 913f
00000070: a5a5 643f 891e 6e3f b48f 813f b229 823f

bn1.bias f4 [32]
0.0149510065 -0.09796299 -0.059191238 0.07124552 0.09599066 0.0041943807 -0.059562165 -0.08826817
0.008346956 -0.09657049 0.029811086 0.10272022 -0.11467511 -0.007974109 -0.008657377 0.15299003
-0.045882467 -0.11994375 0.07155318 -0.11944744 0.052897453 -0.13215852 -0.0014812411 -0.044403985
0.14097907 0.053473197 0.17476459 0.21855661 -0.058114436 -0.010669531 -0.020290742 0.11644611
00000000: 11f5 743c d2a0 c8bd 8372 72bd 2ce9 913d
00000010: c096 c43d 0471 893b 75f7 73bd f1c5 b4bd
00000020: acc1 083c c0c6 c5bd 6136 f43c fb5e d23d
00000030: c9da eabd d6a5 02bc acd7 0dbc 6ba9 1c3e
00000040: 41ef 3bbd 12a5 f5bd 798a 923d dca0 f4bd
00000050: 00ab 583d 9054 07be 3426 c2ba f4e0 35bd
00000060: d15c 103e b606 5b3d 7df5 323e 4ecd 5f3e
00000070: 6709 6ebd 42cf 2ebc c538 a6bc 4c7b ee3d

bn1.running_mean f4 [32]
-0.024251413 -0.13604066 -0.04634419 -0.07409536 -0.0980657 0.08957698 0.087276965 0.0685013
0.07800846 0.1344602 -0.11196035 -0.2477359 0.026812136 0.14422667 0.11441303 -0.19065525
0.24673842 0.23010449 -0.07560064 -0.2209681 -0.10908058 0.23668066 -0.06542475 0.07249365
-0.29335058 0.17835636 0.021218948 -0.054029685 0.23837174 0.25732264 -0.15192679 -0.14378266
00000000: e6aa c6bc 3e4e 0bbe 68d3 3dbd 4fbf 97bd
00000010: abd6 c8bd 2374 b73d 44be b23d 694a 8c3d
00000020: e6c2 9f3d efaf 093e 784b e5bd 7bae 7dbe
00000030: 20a5 db3c 28b0 133e 6151 ea3d 213b 43be
00000040: ffa8 7c3e 83a0 6b3e 82d4 9abd 7645 62be
00000050: a465 dfbd 6a5c 723e 69fd 85bd 8d77 943d
00000060: 0c32 96be 0da3 363e 5cd3 ad3c 3b4e 5dbd
00000070: b917 743e cbbf 833e b292 1bbe c33b 13be

bn1.running_var f4 [32]
0.029139943 0.01849942 0.023626318 0.02453215 0.029243184 0.019564118 0.027135724 0.018316945
0.025149874 0.02695987 0.016607227 0.021538205 0.016200384 0.020410992 0.032364327 0.03375547
0.01725121 0.018491967 0.02575037 0.024538174 0.02441303 0.017454501 0.02103892 0.019865243
0.018102322 0.020717679 0.027062567 0.03622589 0.02203955 0.01482721 0.022172567 0.028051341
00000000: e4b6 ee3c 188c 973c fb8b c13c a6f7 c83c
00000010: 678f ef3c ee44 a03c bd4b de3c 6b0d 963c
00000020: 1c07 ce3c f2da dc3c e10b 883c e470 b03c
00000030: abb6 843c f434 a73c 7590 043d 2d43 0a3d
00000040: 6952 8d3c 777c 973c 71f2 d23c 4804 c93c
00000050: d6fd c73c befc 8e3c d059 ac3c 6fbc a23c
00000060: 524b 943c 1fb8 a93c 51b2 dd3c 9961 143d
00000070: 498c b43c d4ed 723c 3ea3 b53c edcb e53c

bn2.weight f4 [64]
1.225332 1.0238254 1.2002646 1.4013917 1.0124472 1.2083105 0.9685915 0.98309195
1.2681711 1.0123603 1.2804831 0.9618058 1.2867451 1.2409213 1.0155466 1.3727634
1.0789639 1.3207736 0.9981436 1.2033243 1.1011904 0.9290844 1.044472 0.9929804
1.0019321 1.2369757 1.0621389 1.3624561 1.1436242 0.9997591 1.0368093 1.3330878
0.9925195 1.1202399 1.2470452 1.4129229 1.2385592 1.2198412 1.1170282 1.1596456
1.3818142 1.2650946 1.0444809 1.2655565 1.0522984 1.173863 1.0065494 1.1957868
1.4787633 1.3197123 1.2142206 1.2026074 1.2080227 0.922544 1.2403454 1.1943305
1.348921 1.1450135 1.2070158 1.3028883 1.3930193 1.3630329 1.2391068 1.4031091
00000000: aed7 9c3f b60c 833f 45a2 993f ce60 b33f
00000010: df97 813f eba9 9a3f 9df5 773f eaab 7b3f
00000020: 6e53 a23f 0695 813f dfe6 a33f e838 763f
00000030: 10b4 a43f 82d6 9e3f 6efd 813f b6b6 af3f
00000040: 7d1b 8a3f 1c0f a93f 5786 7f3f 8806 9a3f
00000050: cff3 8c3f 7ad8 6d3f 42b1 853f f733 7e3f
00000060: 503f 803f 3855 9e3f 2bf4 873f f664 ae3f
00000070: 4762 923f 36f0 7f3f 2bb6 843f 9fa2 aa3f
00000080: c215 7e3f 0564 8f3f 2d9f 9f3f a8da b43f
00000090: 1c89 9e3f c223 9c3f c8fa 8e3f 446f 943f
000000a0: 4adf b03f 9fee a13f 8db1 853f c1fd a13f
000000b0: b7b1 863f 2541 963f 9cd6 803f 8b0f 993f
000000c0: 1e48 bd3f 55ec a83f 956b 9b3f 0aef 993f
000000d0: 7da0 9a3f d82b 6c3f a3c3 9e3f d2df 983f
000000e0: 71a9 ac3f cd8f 923f 7e7f 9a3f 0bc5 a63f
000000f0: 754e b23f dd77 ae3f 0d9b 9e3f 1499 b33f

bn2.bias f4 [64]
-0.111919895 -0.23720796 -0.18673183 -0.0033271313 -0.28484225 -0.03145432 -0.3169013 -0.2661366
0.010560195 -0.22079553 -0.0028359608 -0.29757467 -0.077219896 -0.11531421 -0.26354474 -0.13095288
-0.10373466 -0.027138086 -0.2688667 -0.01463391 -0.105213776 -0.20216173 -0.074012205 -0.20681271
-0.33124453 -0.09125168 -0.15069164 0.048652735 -0.037407666 -0.22477078 -0.24900891 -0.08767747
-0.2288272 -0.16199441 -0.17149039 0.0539104 -0.06751197 -0.07669349 -0.06694142 0.036591284
0.01161709 -0.019088155 -0.039955646 0.02524259 -0.18896836 -0.15702868 -0.16353154 -0.12076281
-0.16412714 -0.039192233 -0.06742119 -0.13617976 -0.016186502 -0.31032193 -0.049627755 -0.020803992
-0.234806 -0.101212606 -0.036796596 -0.05784086 -0.18259318 -0.020402322 -0.09092602 -0.13037162
00000000: 4236 e5bd a5e6 72be a136 3fbe 000c 5abb
00000010: d8d6 91be 3fd6 00bd e340 a2be 0e43 88be
00000020: ab04 2d3c 3918 62be 87db 39bb b55b 98be
00000030: 7725 9ebd db29 ecbd 56ef 86be 8318 06be
00000040: d672 d4bd b150 debc e5a8 89be 11c3 6fbc
00000050: 527a d7bd 7c03 4fbe b693 97bd b6c6 53be
00000060: e298 a9be 29e2 babd e94e 1abe 1748 473d
00000070: c838 19bd 502a 66be 31fc 7ebe 3f90 b3bd
00000080: ad51 6abe dde1 25be 2d9b 2fbe 27d1 5c3d
00000090: b743 8abd 7a11 9dbd 9518 89bd bee0 153d
000000a0: 9b55 3e3c c35e 9cbc 88a8 23bd 8cc9 ce3c
000000b0: ec80 41be 20cc 20be d074 27be 7e52 f7bd
000000c0: f210 28be 0988 20bd 1f14 8abd b572 0bbe
000000d0: 8e99 84bc 84e2 9ebe 7946 4bbd 226d aabc
000000e0: fc70 70be 8e48 cfbd 07b8 16bd 8aea 6cbd
000000f0: b5f9 3abe c522 a7bc 6c37 babd 2380 05be

bn2.running_mean f4 [64]
0.5012826 -0.49597424 -0.049754318 0.19146399 0.02055743 0.098278046 -0.13170896 0.03630364
0.5947062 0.07734832 0.086286366 -0.36334932 0.17263226 -0.7709011 -0.23059735 -0.6942778
-0.2726039 0.5987928 -0.20389487 0.021571029 0.80505466 0.0058364295 0.04812267 -0.20088848
-0.23723127 0.12486684 0.66716844 0.42693087 0.60713 -0.4802356 0.16625999 0.41407052
-0.29119092 0.21225761 -0.48071292 0.28195006 0.32393712 0.21324232 0.27149045 0.036610216
0.3108558 0.37482113 -0.54867804 0.34113613 -0.028467182 -0.019858457 -0.24869998 -0.4368794
-0.706699 0.102620155 0.1542438 -0.5885022 0.23422109 -0.2513756 -0.4857616 0.08035631
-0.92870957 -0.26964244 0.0063407584 0.5959781 -0.67930484 0.41483766 0.7822186 -0.61487925
00000000: 0e54 003f 56f0 fdbe 2fcb 4bbd 230f 443e
00000010: 0e68 a83c 0046 c93d b7de 06be 20b3 143d
00000020: aa3e 183f cc68 9e3d e8b6 b03d ec08 babe
00000030: 83c6 303e c659 45bf b621 6cbe 31bc 31bf
00000040: bd92 8bbe 7c4a 193f d1c9 50be bab5 b03c
00000050: 1018 4e3f 853f bf3b 471c 453d b6b5 4dbe
00000060: c1ec 72be 30ba ff3d 8dcb 2a3f af96 da3e
00000070: df6c 1b3f 71e1 f5be 0f40 2a3e 0d01 d43e
00000080: fa16 95be 0f5a 593e 0120 f6be c25b 903e
00000090: 16db a53e 325c 5a3e cc00 8b3e 98f4 153d
000000a0: 7e28 9f3e 8ee8 bf3e 2a76 0cbf 65a9 ae3e
000000b0: 0234 e9bc 34ae a2bc 35ab 7ebe a8ae dfbe
000000c0: 3aea 34bf 842a d23d 16f2 1d3e 15a8 16bf
000000d0: a7d7 6f3e 4db4 80be bfb5 f8be d991 a43d
000000e0: e9bf 6dbf 930e 8abe 23c6 cf3b 0592 183f
000000f0: ece6 2dbf 9a65 d43e 7a3f 483f ba68 1dbf

bn2.running_var f4 [64]
0.18841386 0.2005808 0.13373448 0.1899231 0.10086277 0.117206804 0.12896636 0.13124618
0.18521287 0.1770659 0.15098226 0.15589066 0.18028647 0.21897687 0.23031963 0.14910528
0.15319817 0.27165172 0.17663705 0.15076885 0.24321982 0.20111908 0.10039958 0.17188177
0.13395515 0.120922446 0.17204455 0.2923213 0.19630834 0.1822924 0.14725842 0.18034454
0.19971325 0.12840971 0.15295848 0.19113979 0.21740429 0.14139633 0.12459889 0.23853882
0.1332642 0.15675919 0.23149732 0.23046629 0.12508205 0.12542334 0.20392999 0.18293694
0.15900695 0.1470192 0.1704168 0.14018683 0.22259955 0.17199524 0.17551824 0.088668376
0.18571031 0.10022936 0.1391323 0.2191772 0.14002526 0.2556531 0.22155124 0.14698336
00000000: 90ef 403e 0e65 4d3e b1f1 083e 337b 423e
00000010: 2491 ce3d 1f0a f03d c20f 043e 6665 063e
00000020: 71a8 3d3e c350 353e 189b 1a3e cda1 1f3e
00000030: 049d 383e 793b 603e e9d8 6b3e 0eaf 183e
00000040: fbdf 1c3e ef15 8b3e 58e0 343e 2663 1a3e
00000050: 9e0e 793e 29f2 4d3e 4c9e cd3d c601 303e
00000060: 8a2b 093e 30a6 f73d 722c 303e 23ab 953e
00000070: 0e05 493e dcaa 3a3e e9ca 163e 3dac 383e
00000080: a181 4c3e d67d 033e 26a1 1c3e 26ba 433e
00000090: 3b9f 5e3e 33ca 103e b42d ff3d 8543 743e
000000a0: 6976 083e 7b85 203e a20d 6d3e 5bff 6b3e
000000b0: 8215 003e fa6e 003e 06d3 503e d253 3b3e
000000c0: b8d2 223e 338c 163e be81 2e3e 238d 0f3e
000000d0: 23f1 633e 851f 303e 0ebb 333e c497 b53d
000000e0: d82a 3e3e 0d45 cd3d b378 0e3e fd6f 603e
000000f0: c862 0f3e f7e4 823e 54de 623e ce82 163e

output_conv.weight f4 [3, 64, 1, 1]
0.15972431 -0.16158251 0.13486935 0.22470516 -0.20468889 0.1920636 -0.1425425 -0.14092547
0.16082522 -0.039217353 0.14035594 -0.15662923 0.1480826 0.14188184 -0.15951058 0.11228744
0.085486025 0.12475773 -0.081009425 0.15956053 0.06616168 -0.003441505 0.14856341 -0.15549776
0.033491697 0.21727897 0.07562055 0.22875617 0.11773154 -0.079641685 -0.02579988 0.17393266
-0.11051908 0.19580199 0.015020026 0.19087344 0.061775718 0.17322657 0.17464669 0.046354797
0.2712776 0.1652428 0.11434511 0.16544074 -0.20579955 0.06650346 -0.1117255 0.12919949
0.20658621 0.19750816 0.04949936 0.09353663 0.14178678 -0.114051536 0.075323485 0.13763767
0.20474002 0.1130413 0.20242308 0.097386636 0.13285094 0.12725382 0.04354481 0.09591833
0.21757779 0.0022777095 -0.18887313 -0.22250712 -0.013660694 -0.27675653 0.015857419 0.040046245
-0.38773036 0.11824617 -0.29405662 -0.023119142 -0.3596766 0.12263134 -0.0054271864 0.112440616
0.12406588 -0.38053706 0.055537954 -0.26033422 0.1213419 0.06593927 -0.12316288 -0.0071313553
0.036076218 -0.15664029 0.16620223 -0.14222501 0.17744495 0.08802556 0.120012514 0.2104322
0.0381552 0.07904855 0.032026183 -0.33039176 -0.31717163 -0.3469802 0.12323522 -0.33815765
-0.34874037 -0.31738344 0.099277705 -0.32590437 -0.05065586 -0.25181177 0.033372704 0.12533292
0.19603479 -0.2803609 0.089295484 0.086502336 -0.30401507 0.08172033 0.0533733 -0.20128648
0.20605421 0.1414804 0.12032742 0.13077495 0.1529495 -0.44240925 0.13021229 0.08753629
-0.26536813 0.015281254 0.19360946 0.239151 -0.01852687 0.062618524 0.048596445 0.009838989
0.10629087 0.1353117 0.12074024 0.0076895854 0.17225303 -0.32770678 -0.025069632 -0.43219647
-0.19045934 0.14167325 0.07810223 0.17523211 -0.23960373 -0.07561811 -0.13006544 0.013842536
0.16819556 0.21779369 -0.07891137 0.22890346 -0.16237156 0.0966872 0.13939302 -0.20254643
0.06388142 -0.23984787 -0.370496 0.1740039 0.10167892 -0.12128228 -0.10051779 0.10119278
0.17724964 0.18625036 -0.14483279 0.16796373 -0.06114063 0.123476475 0.046382405 -0.21986122
-0.38870835 0.19494304 -0.2722184 -0.26716256 0.15285575 0.0885097 -0.331214 -0.016068796
-0.37208465 -0.18556681 -0.09425991 -0.31184366 -0.43946174 0.04392262 -0.24648775 -0.4646129
00000000: c58e 233e e375 25be 311b 0a3e 1c19 663e
00000010: f799 51be 52ac 443e a9f6 11be c44e 10be
00000020: 5eaf 243e 60a2 20bd 78b9 0f3e 6a63 20be
00000030: f7a2 173e 7949 113e be56 23be f5f6 e53d
00000040: 4c13 af3d fb80 ff3d 45e8 a5bd d663 233e
00000050: c67f 873d df8a 61bb 0221 183e ce3a 1fbe
00000060: 972e 093d 617e 5e3e f2de 9a3d 0f3f 6a3e
00000070: 3c1d f13d 2e1b a3bd 455a d3bc 671b 323e
00000080: d457 e2bd 5180 483e 8e16 763c 5474 433e
00000090: 8908 7d3d 4e62 313e 95d6 323e 87de 3d3d
000000a0: e6e4 8a3e 6935 293e c52d ea3d 4c69 293e
000000b0: 1ebd 52be f732 883d 57d0 e4bd df4c 043e
000000c0: 568b 533e 943f 4a3e d7bf 4a3d 2290 bf3d
000000d0: 8e30 113e da93 e9bd 3343 9a3d e4f0 0c3e
000000e0: 5ea7 513e 3282 e73d ff47 4f3e a572 c73d
000000f0: 140a 083e d34e 023e 0b5c 323d d470 c43d
00000100: b6cc 5e3e a045 153b f567 41be e8d8 63be
00000110: 1ad1 5fbc 08b3 8dbe 6be7 813c 8807 243d
00000120: 9884 c6be 0c2b f23d 978e 96be 5b64 bdbc
00000130: 8827 b8be 2426 fb3d 8ad6 b1bb 4447 e63d
00000140: 4116 fe3d c1d5 c2be c47b 633d 874a 85be
00000150: 1a82 f83d 2b0b 873d d23c fcbd 25ae e9bb
00000160: a8c4 133d 5066 20be eb30 2a3e 6fa3 11be
00000170: 21b4 353e bf46 b43d 1fc9 f53d 8a7b 573e
00000180: a148 1c3d 35e4 a13d e32d 033d 1c29 a9be
00000190: 5264 a2be 64a7 b1be bf62 fc3d 0023 adbe
000001a0: 198e b2be 1580 a2be 1c52 cb3d f0dc a6be
000001b0: 857c 4fbd 79ed 80be d1b1 083d 4657 003e
000001c0: 58bd 483e 778b 8fbe 8de0 b63d 2328 b13d
000001d0: dda7 9bbe fd5c a73d f69d 5a3d 0b1e 4ebe
000001e0: e0ff 523e 3de0 103e 396e f63d dee9 053e
000001f0: cb9e 1c3e 7783 e2be 5f56 053e 3a46 b33d
00000200: 55de 87be 3a5e 7a3c 8f41 463e 00e4 743e
00000210: aac5 97bc 243e 803d 110d 473d b633 213c
00000220: 07af d93d 268f 0a3e a946 f73d ebf8 fb3b
00000230: 1963 303e 2fc9 a7be d45e cdbc db48 ddbe
00000240: c607 43be cb12 113e 10f4 9f3d 0c70 333e
00000250: ae5a 75be abdd 9abd e02f 05be cecb 623c
00000260: 753b 2c3e 4f05 5f3e 499c a1bd ab65 6a3e
00000270: bb44 26be f003 c63d 0bbd 0e3e 5568 4fbe
00000280: 43d4 823d ae9a 75be a7b1 bdbe 142e 323e
00000290: 0a3d d03d d862 f8bd 45dc cdbd 293e cf3d
000002a0: ee80 353e 6ab8 3e3e 0c4f 14be affe 2b3e
000002b0: 996e 7abd 3ce1 fc3d 7afb 3d3d 4d23 61be
000002c0: c804 c7be 269f 473e 3660 8bbe 88c9 88be
000002d0: 3886 1c3e 9344 b53d e294 a9be b5a2 83bc
000002e0: e181 bebe 3a05 3ebe 570b c1bd f9a9 9fbe
000002f0: 2101 e1be 35e8 333d 4967 7cbe bee1 edbe

output_conv.bias f4 [3]
-0.26060688 0.120838754 0.009203406
00000000: 446e 85be 4f7a f73d e2c9 163c
