training/trained_models/model_standard_phase.pth (torch, 83946 bytes, 14 tensors)

conv1.weight f4 [32, 1, 3, 3]
000000 d5 94 19 be 36 49 27 3e d1 45 e6 bb 64 3f a0 3e
       -0.14998181 0.16336522 -0.0070273657 0.31298363
000010 92 2e d3 3d f6 b2 60 3e f0 7c e2 3d a6 78 38 3e
       0.10311617 0.21943268 0.11058986 0.18014774
000020 fe 90 cf bd aa 77 a7 3d 51 bd 8c be 91 f6 12 3e
       -0.10135077 0.08177121 -0.27488187 0.1435187
000030 36 58 5a be ef 60 19 be 54 6e 9f bc 60 dc 6f be
       -0.21322712 -0.14978383 -0.019461788 -0.2342391
000040 5b 45 3c 3e 62 10 46 be da 41 e7 bc c8 33 33 3e
       0.18385832 -0.19342187 -0.028229643 0.17500222
000050 45 b9 ed 3b 94 46 9c be 9f a9 6f be da bb f3 3d
       0.007254752 -0.30522597 -0.23404549 0.11901064
000060 98 6d 82 3e 14 78 20 3e 0c 2e 54 be ac bf bc 3d
       0.25474238 0.15670806 -0.2072069 0.09216246
000070 a2 b0 c4 bd e4 53 6d be e1 3a ca bd eb 6e 10 3e
       -0.096040025 -0.23176533 -0.098745115 0.14104812
000080 0f 6b 31 be e0 15 a8 bd 8e 0c 1a be 0e 97 71 be
       -0.17325996 -0.08207297 -0.15043852 -0.23592779
000090 b0 d2 8e 3e a2 23 ab 3d 6f 46 f7 3d de 66 67 be
       0.27895117 0.08356406 0.12073981 -0.22597834
0000a0 af 15 03 3d 52 7e 57 be 9b 0d ce bd 50 e1 95 3e
       0.0320031 -0.21044281 -0.10061189 0.29273462
0000b0 16 99 10 be 3e d1 48 be 32 78 c0 bd 51 ff 93 be
       -0.14120898 -0.1961107 -0.093979254 -0.28905728
0000c0 93 b6 99 3d 04 90 7d 3e 96 d8 80 be 29 94 b4 bd
       0.075055264 0.24761969 -0.25165242 -0.08817322
0000d0 dc 5d 90 3e c3 e9 7a 3e 20 80 e0 3d 1c f2 27 be
       0.2819661 0.24503236 0.10961938 -0.16400951
0000e0 3a 2d 6a 3d 46 38 0e be 32 6a 90 3d cd 5b 94 3d
       0.057172038 -0.13888654 0.07051505 0.07244072
0000f0 e3 9c 91 3e 78 d6 52 be 13 b8 e6 3c 94 66 f2 3c
       0.28440008 -0.20589626 0.028163945 0.029589929
000100 af 24 b1 3d b4 4d 6f 3e 1f 71 86 bd 98 4b 69 be
       0.08649575 0.23369485 -0.06564545 -0.22782743
000110 62 2d 3c 3d bd 37 8a be f7 47 89 3b 6c 21 52 3e
       0.045941718 -0.2699565 0.004189487 0.20520562
000120 b1 37 d1 bd 06 5d 4e be 16 09 33 3e d6 62 81 be
       -0.102157004 -0.20152673 0.17483935 -0.25270718
000130 49 f9 e1 bd 8d 10 9d 3e 81 05 59 be 5b 7f 99 bc
       -0.110338755 0.3067669 -0.21193506 -0.018737486
000140 33 be 19 be 92 2a f1 3d 3a 61 05 be 98 ce bd bd
       -0.15013961 0.11775698 -0.1302537 -0.0926792
000150 98 35 fe 3c 93 04 7b 3e 0b dc 6f be f4 68 85 3e
       0.031031415 0.24513464 -0.23423783 0.26056635
000160 a5 e3 84 3c 95 0f 35 3d 46 ed 9b 3e 49 fa 5e 3e
       0.01622183 0.044204313 0.30454463 0.21775164
000170 cc b6 2c 3e 12 62 83 3e 3b 8b a2 3e 24 97 92 3e
       0.16866606 0.2566076 0.3174685 0.28630936
000180 8d b3 94 be 70 a6 ce bc 9f 39 7a 3d 8d e9 d4 bd
       -0.29043236 -0.025225848 0.061090108 -0.10396109
000190 be d9 f4 bd c5 44 67 3d ab 51 8d bd e4 cd e4 bd
       -0.119555935 0.056462068 -0.069003426 -0.11172083
0001a0 ed b0 24 3e 25 64 ab bd 30 c4 0b be bf 12 28 be
       0.16083117 -0.083687104 -0.13649058 -0.16413401
0001b0 a8 7e 04 3e ea 13 6b 3d 04 45 87 be 42 90 25 be
       0.1293894 0.05739204 -0.26419842 -0.16168311
0001c0 17 21 70 3e f9 8b 7a 3d 56 12 a6 be 82 00 8b 3e
       0.23450123 0.061168645 -0.32435864 0.27148825
0001d0 6c b3 76 3e 5d a2 ac be 28 4a 42 be 15 f2 2e be
       0.24091882 -0.33717623 -0.18973601 -0.17084534
0001e0 1d 58 78 bd 60 52 a5 bd dc 2d 82 3e 4e 91 08 be
       -0.060630906 -0.080723524 0.25425613 -0.1333668
0001f0 ca 0f ba bd 7d dd 6f bd df 8e 49 3d 72 1c 49 3e
       -0.09085043 -0.058560837 0.049208518 0.19639757
000200 c9 3c 72 bc 3e 66 86 3e 01 7d a6 be 00 1c b8 3d
       -0.014785 0.2624988 -0.32517245 0.089897156
000210 4f d5 86 3e 6a 24 63 3d a8 6a 7b be 2c 96 04 be
       0.26334617 0.05545465 -0.24552405 -0.12947911
000220 34 cc 12 3e 2f 55 35 3e c3 b0 2c 3e b4 6e 65 be
       0.1433571 0.17708276 0.16864304 -0.22405511
000230 46 11 0c 3e e0 ef 7d 3e 1a 97 24 be 2c 21 92 3e
       0.13678464 0.24798536 -0.16073266 0.28540933
000240 32 ba 8b 3e 8f 5b 81 be fc f9 70 3d 2b c1 a2 be
       0.27290493 -0.25265166 0.058832154 -0.31788
000250 31 41 fb bd 30 2b 93 bd 73 19 e9 3d 74 5f 86 be
       -0.12268294 -0.07185972 0.11381807 -0.262447
000260 82 28 0d 3d 5f 4b 8e 3e 28 98 a8 be 7c 43 8a 39
       0.03446246 0.2779188 -0.32928586 0.0002637169
000270 6d 50 96 be b0 73 61 3e bd 13 f3 bd f8 61 b5 bd
       -0.29358235 0.22016788 -0.11868999 -0.08856577
000280 e5 8b 59 bc 75 93 31 3d ff 82 71 bd 1f 4b 2e 3e
       -0.013277982 0.043353517 -0.05896282 0.17020844
000290 2a 38 86 3e c0 42 50 bc 0d 6d b4 3d 86 4a 60 bd
       0.26214725 -0.012711227 0.08809862 -0.05475857
0002a0 d4 d6 6c 3c c3 f3 16 bc 99 56 ab be 6d c0 87 be
       0.014455516 -0.009213391 -0.33464506 -0.26513997
0002b0 1a 54 85 3e 21 52 90 3e 0e 13 42 bd 65 24 cc 3d
       0.26040727 0.2818766 -0.047381453 0.09967879
0002c0 f0 ff da bd a8 b3 92 be e1 28 65 bc 67 be 9a 3d
       -0.106933475 -0.28652692 -0.013986797 0.075558476
0002d0 ec 0f e6 bb 28 44 f9 3d 21 63 3a 3e a5 5f e2 3d
       -0.007020941 0.12171203 0.18201877 0.11053399
0002e0 fa e4 8b be e0 61 6d 3d 57 27 28 be 8a 3e b0 be
       -0.27323133 0.05795467 -0.16421257 -0.34422714
0002f0 5c 45 f0 3d 7d db 77 3e bf 83 2d 3e e8 4d 1e 3e
       0.11731979 0.24204822 0.16944788 0.15459406
000300 57 c4 66 3e 33 05 45 be 9b 54 29 3e 28 ae a9 be
       0.22535835 -0.19240265 0.1653618 -0.33140683
000310 de 9a 8e 3d f8 e9 eb bd 0e 21 1c 3e 74 65 89 3e
       0.06963132 -0.115192354 0.15246984 0.26835215
000320 19 d9 d8 bd ae 93 21 be eb d6 b9 bd db 95 5a bc
       -0.10588283 -0.15778992 -0.090741955 -0.013341392
000330 68 2b 93 be 91 21 6e 3b 97 50 0f 3e 34 68 61 bc
       -0.28744054 0.0036335925 0.13995586 -0.013757754
000340 a7 cc 59 3e 63 1e 06 be 46 5f 6c 3e ac 0c 83 be
       0.21269475 -0.13097529 0.23083219 -0.25595605
000350 69 a6 16 be 03 12 4f 3e 56 c7 88 be 26 03 3a 3e
       -0.14711918 0.20221715 -0.2671458 0.18165264
000360 8b f3 9e bd 17 f0 98 bc 42 0a 77 be 4b 39 9f be
       -0.07761296 -0.018669171 -0.24125007 -0.310984
000370 9a 3b 03 be c1 1f 4a 3e 2d 45 18 be 60 51 bc bc
       -0.12815705 0.19738676 -0.14870138 -0.022988021
000380 57 1f 23 be b2 30 71 3e ec de d9 3b 81 89 3a be
       -0.15929924 0.23553732 0.006648889 -0.18216516
000390 24 d8 18 3e 12 56 38 be 5a 13 76 3e 4c 8e 91 be
       0.14926201 -0.18001583 0.2403082 -0.28428876
0003a0 07 51 92 be 13 60 a2 3c 20 ec 12 3e 41 ac 63 3e
       -0.28577444 0.019821202 0.14347887 0.22233678
0003b0 dd 78 49 3e b4 00 6d 3e d9 c8 b4 3c d6 52 65 3e
       0.19675012 0.231448 0.022068428 0.2239488
0003c0 e9 23 41 3b f8 f8 1c 3e 87 16 95 3e 1c 9f 8a 3e
       0.0029470867 0.15329349 0.2911875 0.27074516
0003d0 13 cb 26 bd 4e 86 74 be 4d 00 21 3e e8 26 92 bd
       -0.04072101 -0.23879358 0.15722771 -0.07136327
0003e0 e1 f3 93 3c 0a 99 87 3e b7 08 55 bd 17 8c 86 be
       0.018060626 0.26483947 -0.052010264 -0.26278755
0003f0 d4 23 d4 3b 55 bc b0 3d 7c d0 63 3e ac 0c 5d bd
       0.0064739976 0.086296715 0.22247499 -0.053967163

conv1.bias f4 [32]
000000 34 58 f0 34 e7 f0 dc 3d 04 33 dc bd bb 8e 10 36
       4.476766e-07 0.10788136 -0.10751918 2.1540752e-06
000010 ff 6e 0f 3d f5 c3 e9 bd 97 7d 82 b6 37 a6 06 b7
       0.035017963 -0.11414329 -3.8889225e-06 -8.025722e-06
000020 ec f9 06 be 83 5e ee bd 86 21 f6 35 92 35 a9 b6
       -0.13181275 -0.116391204 1.8338185e-06 -5.042829e-06
000030 2a eb 42 3c 50 3b 1e be 5e a5 bb bd b9 35 3e 3c
       0.011896888 -0.15452313 -0.09162401 0.011609488
000040 bd 75 fa 35 bf 5a 5f 3c bb a9 27 b5 b9 9f 3c 3d
       1.8660718e-06 0.013632475 -6.245934e-07 0.04605076
000050 93 d6 38 bc fb 6f 0b bd d3 13 51 37 21 c2 ae 35
       -0.011281627 -0.03404234 1.2461986e-05 1.3020509e-06
000060 f6 8f 83 36 c6 ea cf 37 1a 84 79 3d 2d 06 df 35
       3.9208635e-06 2.4785648e-05 0.060916997 1.6616592e-06
000070 6e 47 10 3b 26 91 7a 36 f7 c1 27 be 5b 63 f6 b5
       0.0022015232 3.733739e-06 -0.16382585 -1.8357345e-06

conv2.weight f4 [64, 32, 3, 3]
000000 dd f5 07 bc c1 86 84 bc cd 80 b9 bc 26 51 16 3d
       -0.0082983645 -0.016177537 -0.022644425 0.036698483
000010 c6 ac e7 3b 23 cc 45 bb 22 11 5a bb 7b fb 0f bd
       0.0070701567 -0.003018149 -0.0033274372 -0.03515194
000020 c1 73 f3 3c b7 95 09 3d 20 a2 68 3d 38 01 69 3c
       0.029718282 0.033590045 0.05679524 0.014221482
000030 b9 4e 94 3c 3b 62 ae bd 8c 3e 0e bd 7c ec 2d bc
       0.018103944 -0.0851483 -0.034727618 -0.010615464
000040 cb 97 3b 3c 59 6b 2e 3d b5 55 59 bc f6 83 ef 38
       0.0114497645 0.042582843 -0.013265063 0.00011420988
000050 b8 25 36 3b 22 73 4d 3d 5c 0f ed bc 8e 3a 0e 3d
       0.0027793478 0.050158627 -0.028937988 0.03472381
000060 1b 56 57 bd 70 e2 a2 3d db 56 f3 bc ee d2 6c bb
       -0.05257235 0.07953346 -0.029704502 -0.0036136466
000070 26 e8 8e 3c 24 01 37 bd 8f da 49 bd 3c 02 ad 3d
       0.017444681 -0.044678822 -0.0492807 0.08447692
000080 c2 30 99 3c a3 f0 3f bd 3d 44 5b bc 2b 96 dd 3b
       0.018700007 -0.04686035 -0.0133829685 0.006762286
000090 1b 9f 35 bd cf a9 ef b9 3a b9 d2 bc b6 0c 40 3c
       -0.044341188 -0.0004571215 -0.025723089 0.0117217805
0000a0 77 05 76 3a d6 cf 42 bd 78 6a d8 bc 58 67 76 3c
       0.00093849696 -0.04756149 -0.026417956 0.0150392875
0000b0 d5 20 e4 bc ed 1e 76 bb d7 76 96 3d 70 75 b6 3c
       -0.027847687 -0.0037555054 0.07346886 0.022272795
0000c0 ce ef 63 bd cc ce 10 bb d1 cb 68 3d d9 c9 ac 3c
       -0.055648617 -0.0022095917 0.056835 0.021092342
0000d0 17 c2 87 bd 59 da 48 bd b3 9f ac ba e4 54 e7 3b
       -0.066288166 -0.049036358 -0.0013170153 0.0070596803
0000e0 a8 c0 85 3c 2e f9 75 3c 9d 58 42 bc 5d 05 83 bb
       0.016327217 0.015013022 -0.011861947 -0.003998442
0000f0 2a 4b 38 bd a9 a9 50 bd fa f3 13 bd 83 a5 fa 3c
       -0.044993557 -0.05094305 -0.036121346 0.0305965
000100 76 7f 22 bc e6 2b 1c bd ec 1a 00 3d 72 49 75 3b
       -0.009918084 -0.038127802 0.031275675 0.003742781
000110 7c a3 ea 3c af c7 5d bc 01 4b 2d 3d 4d 52 8a 3d
       0.028642409 -0.013536378 0.042307857 0.06753979
000120 2d 6c 5c 3b 7b 32 cc 3c ac fc cf 3b 7c 71 bb bb
       0.0033633814 0.024926415 0.0063472595 -0.0057203155
000130 9d d4 51 bd fd e4 a9 3c bb a1 ae 3b 3d f7 87 3b
       -0.051228154 0.020739073 0.0053293384 0.004149346
000140 a3 65 01 bc 3a 4a a6 bd d5 21 f9 3c 00 e1 19 bd
       -0.007897767 -0.08119626 0.03041164 -0.037568092
000150 af ff 0a 3d 2d b3 83 3c b7 39 21 bc e0 bf 2c 3d
       0.033935245 0.016076649 -0.00984042 0.042175174
000160 e0 c0 32 bd 4a 9b 20 3d 26 24 ac 3b c5 d7 87 3c
       -0.04364097 0.039210595 0.0052533327 0.01658238
000170 af fb a4 3c b7 c1 df 3a cd af b7 3c eb 4b f2 3c
       0.020139543 0.0017071281 0.022422696 0.029577216
000180 be 3f 32 bd b1 15 50 bd e5 e6 ea bc e3 27 ed bb
       -0.04351782 -0.050801937 -0.028674552 -0.007237421
000190 2f 02 e4 3c ca f7 0f bd 89 f0 03 bd 2c 56 23 bd
       0.027833072 -0.03514842 -0.032211814 -0.0398771
0001a0 22 35 ab bc e5 85 1c 3d 7e 0e 96 bd 39 31 1a bd
       -0.02089936 0.03821363 -0.07326983 -0.0376446
0001b0 0e 70 32 3d f0 b9 05 3d 19 65 bf 3c 3b 0e 86 bd
       0.043563895 0.032648027 0.023363637 -0.06545683
0001c0 ba ad 14 bd ba 9f 94 3c a8 f0 07 3d d9 21 34 3c
       -0.03629849 0.01814257 0.033188492 0.010994398
0001d0 62 ea 0f bc a5 8f f6 3c 81 6b 89 3c 21 9f e1 bc
       -0.008783909 0.030097792 0.016774895 -0.027541699
0001e0 57 05 93 bc 59 77 af bc a0 f8 29 bd 2a 9c 03 bc
       -0.017946882 -0.021419214 -0.041496873 -0.008032838
0001f0 c2 88 6e bd 24 58 8a 3c 9a 9f 9a 3c d6 53 20 3c
       -0.05823589 0.016887732 0.018874932 0.009785613
000200 96 f8 54 bc 3d 88 a4 bc 0f 38 47 bd d6 54 28 3d
       -0.012998721 -0.020084495 -0.048637446 0.04109653
000210 ec 89 e2 ba ab 5c 92 3d cc ec b6 3b 5f 0f 70 bc
       -0.0017283536 0.07146581 0.0055824276 -0.014652102
000220 44 82 e2 3c 7b 98 0b 3d 6f 5e a5 bc 58 2b 31 3c
       0.027650006 0.034080964 -0.020186631 0.010813557
000230 3d d9 f3 3c 8c a7 96 3c cc 91 fb 3c 19 61 22 bc
       0.029766673 0.01839044 0.03070917 -0.009910845
000240 4f e7 5b bc 75 84 70 bd a0 f2 88 3c 5d 3c fd 3b
       -0.0134218475 -0.05872007 0.016717255 0.007728143
000250 95 d7 a6 bd 79 bc a4 3c 4d 48 65 3c b3 e3 5b 3a
       -0.08146588 0.020109402 0.013994289 0.0008388117
000260 e8 d9 18 bd 23 fe b6 bd 54 e8 97 bd 90 c7 72 bd
       -0.037317187 -0.089351915 -0.0741736 -0.05927235
000270 ff a9 fe bc 9f 4c 56 3d ce 19 9f 3b 31 1c 3f bc
       -0.03108692 0.052319165 0.004855371 -0.011664436
000280 07 b7 9a 3c 41 cf dc bb f3 93 33 3d 55 73 52 bc
       0.018886102 -0.006738574 0.043842267 -0.01284488
000290 16 24 41 3d f8 ea 62 bd 73 f7 0f 3a 8f b4 b7 bc
       0.047153555 -0.055399865 0.000549189 -0.022424964
0002a0 d3 a8 f4 3c 46 2a 2e 3d 94 93 17 bd 95 09 51 bd
       0.029865658 0.042520784 -0.037005976 -0.05103453
0002b0 9f 40 84 bd dd 23 9d 3c 12 46 94 3c 7a ae 8d bc
       -0.06457638 0.01918214 0.018099818 -0.017295111
0002c0 81 ba 88 bc 8c 50 00 3d c9 ea f3 3c ac 4c 59 bb
       -0.016690494 0.031326815 0.02977504 -0.0033157272
0002d0 35 31 de bc 60 06 0e bd 3c 18 09 bd db 9e 43 3d
       -0.027123073 -0.03467405 -0.033470377 0.04775892
0002e0 af a1 30 ba d3 02 88 3c 86 20 4d 3c 4c 82 e9 3c
       -0.000673796 0.01660291 0.012519961 0.028504513
0002f0 64 fd d3 bc 4a 36 a0 ba 57 d0 ca 3c ad 37 5a 3c
       -0.025877662 -0.0012223211 0.024757547 0.013318938
000300 aa f9 38 3d ae d6 92 bc 4b 95 9c 3c 2c a0 2d bd
       0.045159973 -0.017924633 0.019114157 -0.04238908
000310 f9 72 0f 3c fc 3b 57 bc a5 48 2e 3d 41 94 05 bd
       0.008755439 -0.01313686 0.042549748 -0.03261209
000320 4d 53 f0 ba 2e 65 b4 bc de 10 aa bc e6 37 76 bd
       -0.0018335372 -0.022020902 -0.020759996 -0.060111903
000330 51 fd 0a bd 90 5e a5 3d 49 29 90 3b 9a 26 d5 bb
       -0.033932988 0.08074677 0.004399453 -0.006504846
000340 d7 19 53 3c d2 12 a3 bc a7 8d bc 3b 7b 6a f0 bc
       0.012884579 -0.019906435 0.005754191 -0.029347649
000350 4e a6 d8 3c 23 24 45 bd 34 d6 79 bc 31 3e 37 3d
       0.026446488 -0.048130166 -0.015248824 0.044737045
000360 28 37 5a bd d6 e6 58 bd 99 25 6c bd aa 61 83 3d
       -0.053275257 -0.052954517 -0.057653043 0.06415112
000370 9f 31 9b bd 3a 67 92 3c 32 42 1f 3d 2d 1b 04 bd
       -0.07577824 0.017871488 0.03888149 -0.03225248
000380 27 25 00 bd 5b 17 48 bd 6b 54 f9 bc b3 85 1b bb
       -0.03128543 -0.0488504 -0.030435761 -0.0023730814
000390 0c c1 2f 3c 65 b6 51 bd 79 96 36 bd 3f a2 8b bd
       0.010727178 -0.051199336 -0.044577096 -0.06818055
0003a0 f3 07 3d 3d 4e 67 39 3c b6 b0 1f bd c7 b7 54 3b
       0.04615016 0.011316134 -0.038986884 0.0032458173
0003b0 b7 00 b7 3b 27 11 c0 3c b8 df 08 3d 42 ae 0f bd
       0.005584802 0.023445679 0.03341648 -0.035078295
0003c0 0b 53 96 3b b8 93 b4 bc 80 78 ac bc 2d e6 a4 bb
       0.004587536 -0.022043094 -0.021053553 -0.005032322
0003d0 fe 8d 84 3c f7 59 11 bd 52 f1 8d bc a1 46 be 3a
       0.016180988 -0.035486188 -0.017326985 0.0014516899
0003e0 07 37 f1 3c db 1b 22 3d dd f7 db bc 84 a6 bc bc
       0.029445184 0.039577346 -0.026851589 -0.02302862
0003f0 27 42 2e 3b 10 6b 31 bd 79 10 a4 bc 8a ee 2a bd
       0.0026589723 -0.043314993 -0.020027386 -0.041731395

conv2.bias f4 [64]
000000 17 ef 48 34 eb d6 a0 b6 cf 2b 9a b5 96 69 06 b7
       1.8713432e-07 -4.7933913e-06 -1.1486644e-06 -8.011606e-06
000010 2b 41 c6 b5 24 43 94 b4 cf f3 07 36 d2 1a 3e b6
       -1.4771116e-06 -2.7616e-07 2.0258483e-06 -2.8327818e-06
000020 9c e3 24 35 bb 79 da 32 96 a0 98 34 6d ba c7 34
       6.1425976e-07 2.5433897e-08 2.8429048e-07 3.720228e-07
000030 14 24 9c 35 5c 8d ae 34 4f b2 1a 36 fd 39 49 33
       1.1633406e-06 3.2512878e-07 2.3051578e-06 4.68517e-08
000040 dc 9c 70 35 22 30 e9 36 3e 64 12 b6 20 96 34 36
       8.963523e-07 6.9495445e-06 -2.1814044e-06 2.6909474e-06
000050 ef 97 94 b6 c8 96 24 35 f8 70 6b b4 09 11 19 36
       -4.428431e-06 6.1314176e-07 -2.1927178e-07 2.2808692e-06
000060 f6 1e 00 35 19 3b d1 34 8b a4 e7 b6 30 16 e0 b6
       4.772877e-07 3.8972283e-07 -6.903492e-06 -6.678303e-06
000070 fb 22 d8 b6 a7 2c f0 35 8b 0a 1d 35 7b db ea 35
       -6.441374e-06 1.7894389e-06 5.85024e-07 1.7498236e-06
000080 6e d7 03 b6 bc 77 94 b5 c7 94 c7 35 38 34 0a 35
       -1.9645918e-06 -1.1061707e-06 1.4869955e-06 5.1484994e-07
000090 5a 4b 7c 36 a1 c1 1f b6 8f ad 30 b6 de 64 2d 34
       3.7594787e-06 -2.3805553e-06 -2.6327068e-06 1.6148576e-07
0000a0 3e 98 a9 36 a7 48 a5 b5 dd 78 dc b5 2b 24 33 b4
       5.054316e-06 -1.2314603e-06 -1.6426453e-06 -1.6683832e-07
0000b0 f4 06 85 34 50 28 7e 36 54 05 f0 35 14 8f 8a 35
       2.477824e-07 3.7872414e-06 1.7882944e-06 1.0323442e-06
0000c0 e9 51 1f b5 4b d2 80 35 db 67 72 b3 d0 e2 f5 b5
       -5.935131e-07 9.597946e-07 -5.643947e-08 -1.8319934e-06
0000d0 be b7 3b 36 51 35 29 b5 3f 83 6b 36 4c ac 33 b6
       2.7972123e-06 -6.303499e-07 3.5094124e-06 -2.6773369e-06
0000e0 92 18 da 35 1c c9 32 35 87 d2 3a b5 60 aa 54 35
       1.6249417e-06 6.660282e-07 -6.9596757e-07 7.922408e-07
0000f0 fc 69 c1 36 89 3b d6 35 75 57 7b 35 08 1b 2b b4
       5.7641864e-06 1.596157e-06 9.3632053e-07 -1.593545e-07

bn1.weight f4 [32]
000000 ff 0c 7b 3f 1a 0f 6d 3f a3 87 70 3f 6c 5b 83 3f
       0.98066705 0.9260117 0.93956965 1.0262275
000010 8b 06 6a 3f 20 fb 72 3f 48 34 6a 3f 66 4a 6a 3f
       0.91416234 0.94914436 0.91486025 0.91519773
000020 aa 21 69 3f 90 13 71 3f 61 38 6c 3f 2a 6a 70 3f
       0.9106699 0.94170475 0.9227353 0.93911994
000030 bc 7c 72 3f 91 a0 79 3f 3c 52 71 3f 9d 35 69 3f
       0.9472158 0.9751063 0.94266105 0.9109743
000040 d9 88 6a 3f e0 e4 6a 3f 3a ba 68 3f aa 1b 6e 3f
       0.9161506 0.91755486 0.9090916 0.9301096
000050 41 ef 71 3f 53 83 66 3f c9 4c 6e 3f 63 9c 6c 3f
       0.945057 0.90044135 0.93085915 0.9242613
000060 0b bd 7f 3f b9 cb 70 3f 86 9b 69 3f 92 d2 69 3f
       0.9989783 0.94060856 0.91252935 0.9133693
000070 0a 95 70 3f 29 cf 6f 3f 87 1e 7a 3f 8f 9e 75 3f
       0.93977416 0.93675476 0.9770283 0.95945066

bn1.bias f4 [32]
000000 f7 67 a7 bc c0 fe 2d 3c 95 c7 42 bc 45 77 67 3d
       -0.020435316 0.010619819 -0.011888404 0.05651023
000010 47 b7 11 bc 0a 39 86 bc 77 ee 5c bd 21 5c aa bc
       -0.008893794 -0.01638462 -0.053938355 -0.020795884
000020 c1 cb d3 b9 ab 0c 13 bd 85 4b 30 bd 38 6c 70 3d
       -0.00040396865 -0.035900753 -0.04304077 0.058696955
000030 8f 31 b9 bd fc 28 8e 3b dc 30 0b bd 54 b3 59 bd
       -0.09042656 0.004338382 -0.033982143 -0.053149536
000040 63 5b dd 3c 5b ba c3 3c 80 cd c8 3c d9 92 8e 3c
       0.027021116 0.023892572 0.024512053 0.017404007
000050 a5 a5 4d 3d ad 0f 27 bd c9 a8 c3 bc b4 b6 da 3a
       0.0502068 -0.040786434 -0.023884194 0.001668653
000060 fe 83 94 3d fd 61 ab ba 1e a5 a2 bd 6e bf 80 bd
       0.07251738 -0.0013075467 -0.0794165 -0.06286512
000070 55 85 ca 3c 6b 43 d8 bc 01 8d b0 3c 13 fc 8f 3c
       0.02472178 -0.026399335 0.02155161 0.017576253

bn1.running_mean f4 [32]
000000 fa 1c ea 3d 8a 44 ef 3c 2e 96 0e be 33 da 9d bd
       0.11431308 0.029207487 -0.13924477 -0.07707634
000010 f3 a5 3c 3d 21 de e4 bd 1b 76 d9 3a 79 ff 82 bc
       0.0460567 -0.1117518 0.0016590984 -0.01599096
000020 4d 20 50 be f9 cb ba bd 5e 3d 2f 3e db 57 7e bd
       -0.20324822 -0.09120936 0.17113253 -0.062095504
000030 7b 9f 74 3d bf 9d 7b be b4 5a 97 bd 34 23 80 3d
       0.059722405 -0.24571894 -0.07390347 0.062567145
000040 53 98 b4 bd 40 20 94 bc e6 27 90 3c e3 2d 72 3d
       -0.08818116 -0.018081784 0.01759715 0.059125792
000050 fe f4 5b bd e4 24 9a 3b 86 08 7b bc 40 a7 93 bc
       -0.05370044 0.0047041047 -0.015321856 -0.018024087
000060 8b 77 c6 bd b3 94 ea bc 65 2e 68 3e 78 c0 cb 3b
       -0.0969077 -0.028635358 0.22673948 0.0062180124
000070 44 23 9e bd 1a ac 2d bd a1 f2 55 be cf 8b eb bd
       -0.0772157 -0.042400457 -0.20893337 -0.11501276

bn1.running_var f4 [32]
000000 49 c2 eb 3c 03 b6 ed 3c 1a 65 00 3d ad 7f b2 3c
       0.028779166 0.029017454 0.031346418 0.021789396
000010 7f fc f7 3c e1 17 2b 3d 24 6c 83 3c f8 23 bb 3c
       0.030271767 0.04177082 0.016042776 0.0228443
000020 1b 56 04 3d fe 55 c1 3c 1d 0c 6c 3d 64 b0 47 3c
       0.03230868 0.023600575 0.05762874 0.012188051
000030 c2 77 14 3d 1d 99 e5 3c 6e 15 1b 3d 19 72 04 3d
       0.036247022 0.028027112 0.037862234 0.032335375
000040 8a ea 07 3d 5d 0a 0d 3d 58 5b 9d 3c ca 7d ea 3c
       0.03318266 0.03443371 0.019208595 0.028624434
000050 9d 83 07 3d d5 1b 14 3d 3b da b5 3c 73 d0 13 3d
       0.0330845 0.036159355 0.022198787 0.036087465
000060 99 d3 da 3c db fa 0f 3d 60 09 0a 3d f2 2e cf 3c
       0.026712226 0.035151344 0.033700347 0.02529094
000070 fb aa d6 3c 97 af 53 3d 69 ab 96 3c fa 4e c5 3c
       0.026204577 0.051681127 0.018392282 0.02408551

bn2.weight f4 [64]
000000 f1 7a 7d 3f 7e 67 8d 3f 2c e7 8d 3f ea 95 8b 3f
       0.9901572 1.1047208 1.1086173 1.0905125
000010 22 31 8e 3f f6 76 88 3f 6d 49 94 3f 97 38 85 3f
       1.1108744 1.0661304 1.1584908 1.0407895
000020 50 fb 89 3f 54 95 91 3f 61 0b 92 3f 16 a4 8c 3f
       1.077982 1.1373696 1.1409723 1.0987575
000030 2f 5b 83 3f fc 1a 7c 3f 87 33 91 3f 19 e5 78 3f
       1.0262202 0.98478675 1.134385 0.97224575
000040 29 03 81 3f e0 bc 93 3f a4 4b 8e 3f 57 e3 8b 3f
       1.0079089 1.1542015 1.1116834 1.0928754
000050 bf 93 82 3f 85 9b 8f 3f 87 bd 83 3f 97 d7 90 3f
       1.0201339 1.1219336 1.0292214 1.1315793
000060 39 b2 85 3f c4 a5 7e 3f b7 50 8c 3f de 98 8b 3f
       1.0445014 0.9947169 1.0962132 1.0906026
000070 e8 7e 91 3f ab 47 8d 3f b5 93 7c 3f e7 c6 8e 3f
       1.1366854 1.1037496 0.98662883 1.115445
000080 23 45 85 3f 64 48 90 3f 12 02 8f 3f 24 eb 8c 3f
       1.0411724 1.1272092 1.1172507 1.1009259
000090 e2 e3 7d 3f 68 9f 8c 3f 77 2b 93 3f ad b8 7a 3f
       0.99175847 1.0986147 1.149764 0.9793804
0000a0 c0 e7 8f 3f 09 8e 8c 3f 33 1a 93 3f 1c 71 7e 3f
       1.12426 1.0980846 1.149237 0.9939134
0000b0 20 69 8f 3f 19 b0 8d 3f 64 cd 7f 3f b8 ca 89 3f
       1.1203957 1.1069366 0.99922776 1.076499
0000c0 3f 5f 79 3f e9 d8 91 3f 50 03 82 3f cb 19 8c 3f
       0.9741096 1.1394321 1.0157261 1.0945371
0000d0 15 c4 81 3f 39 7c 91 3f 40 9a 8b 3f 04 a5 8a 3f
       1.0137964 1.1366035 1.0906448 1.0831609
0000e0 b8 dd 8c 3f ed e0 80 3f a6 59 95 3f 22 01 85 3f
       1.1005163 1.0068642 1.1667984 1.0390971
0000f0 e9 be 8b 3f df 95 8d 3f 9c 65 8d 3f 97 69 7c 3f
       1.0917636 1.1061362 1.1046634 0.9859862

bn2.bias f4 [64]
000000 24 80 6e bc b6 02 d4 3d 31 de e5 3d 2e 02 b0 3d
       -0.014556918 0.103520796 0.1122402 0.08594166
000010 a2 61 d9 3d f9 40 6e 3d 8b 97 0c 3e e0 df 78 3b
       0.10614325 0.05816743 0.13729684 0.0037975237
000020 3f d7 19 bb 14 b4 f5 3d 54 9b 11 3e 5e 14 b8 3d
       -0.0023474244 0.11997238 0.14219409 0.0898826
000030 a4 7f b5 bc b7 ad b5 bc ea 72 e4 3d 0b ee a4 bc
       -0.02215559 -0.02217756 0.111547306 -0.020133039
000040 6b 65 08 bd 22 07 06 3e 06 a8 c8 3d 7c 73 ac 3d
       -0.033299845 0.13088658 0.09797673 0.084204644
000050 8a fb a8 3c df 69 86 3d 9a 78 19 bd 85 c0 ce 3d
       0.020627756 0.06563162 -0.03746853 0.10095314
000060 d8 e6 4c 3c 48 a4 04 bd c1 03 df 3d 94 1a 81 3c
       0.012506209 -0.032383233 0.10889388 0.015759744
000070 f0 da ef 3d c1 08 ae 3d ee 5b c4 bc e6 53 ce 3d
       0.11711681 0.084977634 -0.023969617 0.10074596
000080 e3 66 6f 3c 07 ac d9 3d f0 35 dc 3d f4 5a bd 3d
       0.014611932 0.10628515 0.10752475 0.092458636
000090 7a 4c cf bc 02 71 ff 3d 32 27 02 3e 86 aa 7f bc
       -0.025305022 0.124727264 0.12710264 -0.015604621
0000a0 f2 ff f0 3d 72 1c cf 3d fc 1b 16 3e 06 00 20 bd
       0.11767568 0.101128474 0.14659113 -0.039062522
0000b0 1d 5f 05 3e 4d 61 cd 3d 03 1b 07 bc 71 0c 75 3d
       0.13024564 0.10028324 -0.008246186 0.05982632
0000c0 5c 16 78 bc a9 55 b8 3d 23 5a a5 bc 38 c1 c2 3d
       -0.01514205 0.090007134 -0.020184582 0.0950951
0000d0 6d a4 65 bc 70 f7 02 3e 04 1a ae 3d ba a8 e0 3c
       -0.014016253 0.12789702 0.08501056 0.027424205
0000e0 0a 24 c1 3d b3 ce bb bc 6b d1 fa 3d b4 fe 4a bd
       0.09430702 -0.02292571 0.122469746 -0.04955931
0000f0 00 05 b3 3d e9 d4 d2 3d 67 ab b1 3d 0a fa ce bc
       0.08741188 0.10294516 0.086752705 -0.025265712

bn2.running_mean f4 [64]
000000 b9 43 97 be 1d 64 05 bd 74 74 dd bd c7 6d d3 bd
       -0.29543856 -0.03256618 -0.10813227 -0.10323673
000010 6b ea 9c be 96 00 13 3d 96 18 b2 bc 3f 65 d5 3d
       -0.30647597 0.03588923 -0.02174024 0.10419702
000020 5c d7 fc 3d ac 1b 23 be 37 84 39 be 28 58 7d bc
       0.12345764 -0.15928525 -0.18116842 -0.015462913
000030 2b 3f a3 bd f5 bf 1b 3e e7 0b 42 3e 91 d6 92 bd
       -0.07971033 0.15209945 0.18949853 -0.071698315
000040 dd 8e c0 3b 5c f4 ae bd 21 bb a9 be 59 35 d4 bd
       0.0058764056 -0.085427016 -0.3315058 -0.10361738
000050 f0 62 c6 bd 1b ce b1 3c 13 9d 93 bd ba b0 44 be
       -0.096868396 0.021704724 -0.07207694 -0.19208041
000060 a6 ec 18 bd 34 39 a5 bd 5b bb 04 3d c9 67 15 be
       -0.03733506 -0.08067551 0.03240524 -0.14590372
000070 b3 29 a4 3d e9 47 13 be 77 2d ae 3d 90 28 11 3e
       0.08015766 -0.143829 0.085047655 0.1417563
000080 67 93 a1 bd fb 80 4f bc b2 d5 10 be 8c 1f 8e 3d
       -0.07889443 -0.012665029 -0.14144018 0.06939611
000090 e2 5e b2 3d e2 b3 3d be d0 9d c6 bd 5b d0 30 3c
       0.08709504 -0.18525651 -0.09698069 0.010791863
0000a0 8f 5d ab 3e 9e 40 ac 3d 7f 21 af 3d fd aa 55 bb
       0.33469817 0.08410762 0.08551311 -0.0032603138
0000b0 bc 76 98 3e ac 14 81 bd 61 60 2e be bb 59 88 3e
       0.29778087 -0.06302771 -0.17028953 0.2663096
0000c0 10 95 a5 3d 70 d5 cb bc 15 2e 64 3d 9a ab c4 be
       0.08085072 -0.024882048 0.05570801 -0.38412172
0000d0 77 98 6c 3d e4 38 d1 bd 27 63 b9 bd 45 0e 80 3d
       0.05776259 -0.10215929 -0.09052115 0.06252722
0000e0 a9 a5 1d be ac 23 fd 3d 0f 7b 2b be 82 f6 95 3d
       -0.15395226 0.123603195 -0.16746162 0.07322408
0000f0 2e f6 3c be ef 19 96 bd 00 13 9c 3d a1 05 22 3d
       -0.18453285 -0.07329165 0.076208115 0.03955615

bn2.running_var f4 [64]
000000 fa be 21 3e db b6 a5 3d e9 8a 8b 3d 05 a0 7e 3d
       0.15795508 0.080915175 0.068136044 0.062164325
000010 21 ec 79 3d dd 0d ba 3d 73 d9 22 3d 0e 0c fe 3c
       0.061016206 0.090846755 0.039758157 0.031011607
000020 3a 1e 09 3d 6c e5 39 3d 4b 7b 64 3d b1 8d 97 3d
       0.033476092 0.04538481 0.055781644 0.07400072
000030 1f 2c 9a 3d 55 01 9e 3d 12 d5 80 3d 5c 3b 74 3e
       0.07527947 0.07715098 0.0629064 0.23850769
000040 cf 70 59 3d a3 be d7 3c 7b 3a 2c 3d 38 70 50 3d
       0.0530861 0.02633602 0.04204796 0.05088827
000050 63 c8 84 3e 08 8e b4 3c b5 6f 7c 3d 61 55 c9 3c
       0.25934133 0.022040382 0.06162997 0.024576845
000060 c0 79 2e 3e 4d 82 ce 3c ab 1f b3 3d ff f6 7c 3e
       0.17038631 0.025208617 0.087462746 0.24703597
000070 90 7b 23 3d ee ab 39 3d ff 71 43 3d 5a cd 85 3d
       0.03991276 0.04532998 0.047716137 0.06533308
000080 f6 c2 f9 3c af 39 04 3d 0e 74 20 3d bd b5 39 3d
       0.030488472 0.032281574 0.03917318 0.045339335
000090 03 ae ec 3c 5f ba da 3d 00 83 06 3d 64 86 7e 3e
       0.028891569 0.10680079 0.032839775 0.24855953
0000a0 59 93 59 3d f3 89 9f 3d ad e1 59 3d 7a 44 f8 3c
       0.053119037 0.077899836 0.053193737 0.03030609
0000b0 89 c4 e2 3d f0 94 71 3d b0 6c 09 3e 92 9e 3c 3d
       0.11072642 0.05897993 0.13420367 0.046049662
0000c0 d1 b9 0d 3d e7 44 24 3d b6 1a 37 3d 81 b1 ec 3d
       0.034601036 0.040104773 0.044703208 0.11557294
0000d0 00 e9 c4 3d 98 72 1f 3d 55 3e 9b 3d 44 e7 13 3d
       0.09614754 0.038927644 0.07580248 0.036109224
0000e0 4b 1b c1 3d 23 55 21 3d 74 a0 17 3d c5 b1 35 3d
       0.09429034 0.039387833 0.037018254 0.044358987
0000f0 ad 9f bd 3d ca 47 a9 3d 95 9f d8 3d a7 bf 84 3d
       0.09258971 0.08265646 0.10577313 0.06481867

output_conv.weight f4 [6, 64, 1, 1]
000000 51 d8 97 bd 33 b2 39 3e 33 c9 13 3e 53 68 36 3e
       -0.07414306 0.18134384 0.1443222 0.17813234
000010 83 d7 0e 3e 97 fb 1b 3d 05 ee c4 3d 6e 59 30 bd
       0.13949399 0.03808173 0.09615711 -0.043054037
000020 d7 f6 ea bc df b8 e7 3d 61 11 8c 3d 85 73 1e 3e
       -0.028682156 0.11314558 0.06839252 0.15473755
000030 c0 22 de bc f9 fb cb bd 91 52 db 3d c1 a3 88 bd
       -0.02711618 -0.09960169 0.10709108 -0.066718586
000040 f8 8f 75 bd 19 17 9e 3c 72 1c 36 3e d2 a0 43 3e
       -0.059951752 0.019298123 0.17784289 0.19104317
000050 30 77 fe bc 42 6a ba 3c a7 24 06 be 11 66 f2 ba
       -0.031062692 0.022755746 -0.1309992 -0.0018493553
000060 dc 21 10 be 61 22 88 bd 6a 00 2b 3e 51 6a 34 be
       -0.14075416 -0.06647182 0.16699377 -0.17618681
000070 99 82 83 3d b1 fc 3a 3e 2c ff 3c bd 07 7c 17 3e
       0.06421394 0.18260457 -0.04614179 0.14793406
000080 f5 66 2a bd 6d df 9c 3d 45 a9 09 3e ea fb 4d 3e
       -0.041602094 0.076598026 0.13443477 0.20115629
000090 16 bb f7 bd b2 ec 0a 3e 58 7d 5c 3d 92 89 c2 bd
       -0.12096231 0.13566855 0.053830475 -0.09498896
0000a0 51 78 9c 3d 38 b1 fa 3d d5 29 38 3e 55 c3 b4 bd
       0.07640136 0.12240833 0.17984708 -0.08826319
0000b0 33 a0 fc 3d d1 bf 70 3d b0 47 ac bd c7 a5 33 3d
       0.12335243 0.05877668 -0.08412111 0.04385927
0000c0 0b b3 fb bd cb 29 f3 bc 49 bb ca bd 87 86 34 3e
       -0.12290009 -0.029683014 -0.09899003 0.17629443
0000d0 d5 21 ba bd f0 c7 b4 3d d6 86 20 3e dd 55 98 3d
       -0.09088484 0.088271976 0.15676436 0.07438252
0000e0 69 87 22 3e d9 b9 09 be b6 d7 0e 3d 14 ac 55 3c
       0.15871967 -0.13449802 0.034873687 0.013041515
0000f0 40 30 36 3e c9 e5 06 3e 23 8b 55 3e 2b 34 c8 bd
       0.17791843 0.13173594 0.20853858 -0.09775575
000100 03 d9 48 bd ba 97 be bd 86 2a 84 3d 4b 82 f3 bd
       -0.049035084 -0.09306283 0.06453423 -0.11890086
000110 4d a1 c6 bc 20 3f 57 be dd 64 1e 3e a6 3e 35 3e
       -0.024246836 -0.21020174 0.15468164 0.1769968
000120 60 05 3d be 9b eb 46 be 49 ec d9 3d 50 cb f9 bc
       -0.18459082 -0.19425814 0.10640771 -0.030492455
000130 da 95 80 bd 87 13 fa 3d ec 39 6a be 48 f4 89 bd
       -0.06278582 0.12210756 -0.22873658 -0.06736046
000140 a3 9e 75 3d ca a8 01 3d ba 7e f5 3d 66 ea 2f be
       0.05996574 0.03165511 0.11987062 -0.1717926
000150 50 f2 28 be d3 74 d9 bd d6 f8 83 3d dc 40 0d be
       -0.16498685 -0.106179856 0.06443946 -0.13794273
000160 04 26 39 be b2 52 4d 3e a9 01 66 3d 2d e9 59 bd
       -0.18080908 0.20051077 0.056153927 -0.05320089
000170 cb 34 25 be bb e3 4a be cf d7 75 bc 36 ac 66 bd
       -0.1613342 -0.19813435 -0.015005066 -0.056316577
000180 ab 95 32 be 5e 1c 25 be f4 b6 80 bd 8a a0 fc bd
       -0.17439906 -0.16124102 -0.062848955 -0.12335308
000190 71 33 9f bd be 1d f1 3c ca b8 a6 3d d7 44 d6 bc
       -0.077734835 0.029433127 0.081407145 -0.026155872
0001a0 cb b4 31 3e da ab 40 be 67 81 56 be c9 32 cd 3d
       0.17354123 -0.18815556 -0.209478 0.10019452
0001b0 cb e1 11 3e 30 c6 21 3e 50 4f 5d bd 3e 81 39 3e
       0.1424629 0.15798259 -0.054030716 0.18115708
0001c0 18 1c a6 bd a5 e9 73 bd 3b 9e 59 be a1 5f 99 3d
       -0.08110827 -0.059548993 -0.21251766 0.07488943
0001d0 40 c2 68 bd d1 33 69 be f4 36 71 be ec 64 8e bd
       -0.056825876 -0.22773673 -0.23556119 -0.06952843
0001e0 9b 8e 30 be 74 e6 c8 bc 1a 7e 19 3e 46 0c 0f bd
       -0.172419 -0.024523951 0.1498951 -0.034923814
0001f0 72 bc 4e be f1 b9 bf 3d 69 d8 fa bd 55 2d 02 be
       -0.20189074 0.093616374 -0.12248308 -0.12712605
000200 6b 8d 2c 3e 63 9f 0e be ba b2 fe bb 0a 4b d4 bd
       0.16850822 -0.13927989 -0.0077727707 -0.10365875
000210 18 e7 63 be ef d9 36 3e 1f 5e 26 3d 8e f8 43 be
       -0.22256124 0.17856573 0.040617105 -0.19137785
000220 8e ca 46 be 71 ec 48 be 65 96 10 be c5 c3 d5 bd
       -0.19413206 -0.19621445 -0.14119871 -0.10437731
000230 6b fe aa 3d 94 b0 c6 3b 31 94 52 be 7a 7d bf 3d
       0.083493076 0.00606353 -0.20564343 0.09350105
000240 9d 51 2e be 24 c2 87 3d 74 1b 27 be 53 b7 41 be
       -0.1702332 0.06628826 -0.16319066 -0.18917589
000250 88 e7 0f 3e c9 60 f8 bd c2 ae 26 3e b7 2c 73 be
       0.14053166 -0.12127835 0.16277602 -0.23747526
000260 46 1d 16 3d 08 14 31 bc 24 b1 10 be b3 cf 0a 3e
       0.03664901 -0.0108079985 -0.14130074 0.13555793
000270 d4 ca c8 bd 28 2b a5 bc 9a fa 07 3d 5a da 50 be
       -0.098043114 -0.02016218 0.033197977 -0.20395795
000280 5d 8f e5 bc bd b3 07 be 1a af a6 3d d7 0c 28 3e
       -0.028022463 -0.13252158 0.08138867 0.16411148
000290 1e 4c 06 3e 5e 9d 45 be 8c 80 33 be c0 ac dc 3d
       0.13114974 -0.19298312 -0.17529505 0.10775137
0002a0 d3 44 40 be d3 14 b8 3c e0 1f f6 3d 2d 9c da bc
       -0.18776254 0.022470867 0.120177984 -0.026685799
0002b0 71 02 6b be 4e f9 f5 3d 26 7c f1 3d 8c e5 85 be
       -0.2295015 0.12010442 0.117912576 -0.26151693
0002c0 84 43 db bc 69 6f 5b be e5 32 99 bd 9f 69 54 be
       -0.026765592 -0.21429218 -0.074804105 -0.20743416
0002d0 56 ae 38 3d e0 25 44 be 78 fd 15 be 11 73 45 3e
       0.045088135 -0.19155073 -0.14647472 0.19282176
0002e0 7e 6e 43 bd ec 9b a9 bd 6c 7c 4a 3d a2 9e 64 3e
       -0.047712795 -0.08281693 0.049435064 0.22326139
0002f0 1c 1e 1c be d4 33 aa bd 62 3e 8b 3d bd 37 48 bc
       -0.15245861 -0.08310667 0.06799008 -0.01222032
000300 b5 f0 ac 3d 05 95 59 3c c2 49 13 be b8 6e cd 3c
       0.08444349 0.013280158 -0.14383605 0.025077209
000310 25 d5 94 3b b8 9b 08 3e 7d cc bd bd d8 6c cd bd
       0.0045420104 0.13340652 -0.09267519 -0.10030526
000320 10 15 18 3e 9c 3a de 3b 54 36 b2 bd 0a cd 34 be
       0.14851785 0.006781889 -0.087017685 -0.17656341
000330 61 c3 03 3e 27 a6 3f 3d 6b db 25 be a0 fe 4d 3c
       0.128675 0.046789315 -0.16196983 0.012572914
000340 d2 10 a8 3d 5d 57 48 be a3 1c c2 3c 12 c2 2a bc
       0.08206333 -0.19564576 0.023695296 -0.0104222465
000350 c4 98 e1 3d f7 ad 65 3c bb 4d b5 3d fa 5d 00 3e
       0.11015466 0.014018527 0.088527165 0.12535849
000360 1c f3 4e 3d 74 18 f2 bd aa 26 10 3d d6 72 2c 3e
       0.050524816 -0.1182107 0.035193123 0.16840681
000370 64 17 4e be b7 37 f5 3c 48 d7 3d be 19 bf 5a be
       -0.2012611 0.029933793 -0.18539155 -0.2136196
000380 33 e6 0d be e1 8a 32 be df 71 6f be 2d 36 a7 3d
       -0.13857345 -0.1743579 -0.23383282 0.0816463
000390 a1 d6 96 bd 46 13 6c bd 5f a7 4b be 11 e8 7c 3d
       -0.07365156 -0.057635568 -0.19888066 0.061744753
0003a0 ec eb 30 bd c6 65 26 be ca e1 8d bc 65 ca 35 3e
       -0.043193743 -0.16249761 -0.017319579 0.17752989
0003b0 ca af bb bd 4f 5e 05 be 61 c0 1b 3e 9d 0d 5d 3d
       -0.091643885 -0.13024257 0.15210105 0.05396806
0003c0 e3 23 74 bd de 2b 9f bd f7 86 66 3d 21 07 2a bd
       -0.059604537 -0.07772039 0.056281056 -0.041510705
0003d0 43 03 03 3e d3 19 d1 bb 32 48 7b 3d 7f e8 d2 bd
       0.12794213 -0.0063812523 0.061348148 -0.10298251
0003e0 d5 34 09 be 13 f6 13 3d 4d 5a 84 be 70 d4 89 3c
       -0.1339906 0.036123347 -0.25850144 0.01682493
0003f0 90 8d 49 be bd 92 50 be 7c 41 a8 bd bf 8e da 3d
       -0.19682908 -0.20368476 -0.08215615 0.10671758

output_conv.bias f4 [6]
000000 81 d6 cd 3c 80 42 c3 bd b6 83 54 be 59 60 05 be
       0.025126697 -0.09534168 -0.20753369 -0.13025035
000010 8c 33 9d bc aa 67 78 bc
       -0.019189619 -0.015161434
