training/trained_models/model_standard_pulse.pth (torch, 85610 bytes, 14 tensors)

conv1.weight f4 [32, 2, 3, 3]
0	0xbe3984bf	-0.18117045
1	0xbe4ce218	-0.20008123
2	0x3d291789	0.04128221
3	0xbe03e3b5	-0.12879832
4	0xbe0124e3	-0.12611727
5	0xbdfb65ab	-0.12275251
6	0x3dadf954	0.08494821
7	0xbe23d7df	-0.16000317
8	0x3e1b4070	0.151613
9	0x3d3e3dcd	0.046445657
10	0xbd94edaa	-0.07271893
11	0x3dc14b8b	0.09438237
12	0x3cbfb4bc	0.02340161
13	0x3e88ebc8	0.26742387
14	0xbe3353c7	-0.17512427
15	0xbcc12813	-0.02357868
16	0x3e215b39	0.15757455
17	0x3d11bb20	0.035578847
18	0x3df58aa5	0.11989335
19	0xbc85478d	-0.01626947
20	0x3a8ab5ea	0.0010582779
21	0xbe4ac3fb	-0.19801323
22	0xbe447312	-0.19184521
23	0x3cf4195b	0.029797247
24	0xbe1fae38	-0.15593803
25	0x3de2de7e	0.11077593
26	0x3d602254	0.054720238
27	0x3de100f6	0.109865114
28	0x3d06df0a	0.03292755
29	0x3de31455	0.110878624
30	0xbcea39fa	-0.028592099
31	0xbe22f175	-0.15912421
32	0x3e36d6b9	0.17855348
33	0x3dd3b684	0.103375465
34	0xbd3b9320	-0.045794606
35	0x3e116188	0.14197361
36	0x3bae05ec	0.0053107645
37	0x3c56d923	0.013113293
38	0x3deae5c1	0.11469603
39	0x3e335260	0.17511892
40	0x3e20ef7f	0.1571636
41	0xbe7803a8	-0.24220145
42	0xbc3972e1	-0.011318893
43	0xbb0ea0d9	-0.0021763353
44	0xbe21b2ca	-0.15790859
45	0x3db82113	0.089906834
46	0xbddfb691	-0.10923494
47	0x3ddd64c0	0.10810232
48	0xbe4d1cb8	-0.20030487
49	0xbe7fa27d	-0.24964328
50	0x3d8b3d36	0.067987844
51	0x3d9d7549	0.07688386
52	0xbcbaecdf	-0.022818027
53	0x3d1818c7	0.037133005
54	0x3c8c11e7	0.01709838
55	0xbd26f0d5	-0.04075702
56	0xbe0cb990	-0.13742661
57	0x3cb7604a	0.022384781
58	0xbe41aab3	-0.18912773
59	0x3e3bd3b1	0.18342473
60	0x3d359ac5	0.044337053
61	0xbd5d17ac	-0.053977653
62	0xbe865129	-0.26233795
63	0xbdce704d	-0.100800134
64	0xbd90ac74	-0.07064143
65	0xbd001433	-0.031269263
66	0x3dcccdf3	0.10000219
67	0xbdda5041	-0.106598385
68	0xbd9ff738	-0.07810825
69	0xbd91be12	-0.07116331
70	0x3cbc7b2e	0.023007955
71	0xbe0d23c3	-0.13783173
72	0x3e3ecc81	0.186327
73	0x3e415525	0.18880136
74	0x39c30528	0.0003719714
75	0x3bdeece7	0.0068031433
76	0x3dcabe38	0.098995626
77	0xbe133d95	-0.1437896
78	0xbe2dd8a8	-0.16977179
79	0xbd372c52	-0.04472
80	0xbdaf225b	-0.08551475
81	0x3d5e1f67	0.054229166
82	0xbc91c23c	-0.017792813
83	0xbb65e48a	-0.0035078847
84	0x3db3e0c5	0.08783106
85	0xbce77fdc	-0.02825921
86	0xbd906a8c	-0.07051572
87	0x3d000012	0.031250067
88	0x3d0e5fd9	0.034759376
89	0xbc413c7c	-0.011794206
90	0xbe1b13ac	-0.15144223
91	0x3c7e23e5	0.015511488
92	0xbc416333	-0.011803436
93	0xbdf5f3cd	-0.12009392
94	0x3e40b38d	0.18818493
95	0xbe273b49	-0.16331209
96	0xbeab9f45	-0.3351995
97	0x3d52515a	0.051347114
98	0x3e137861	0.1440139
99	0xbd9187c4	-0.07105973
100	0x3d414ce7	0.04719248
101	0xbe719765	-0.23592909
102	0x3cfe0010	0.03100589
103	0xbd596d81	-0.053082947
104	0x3dc3528e	0.095372304
105	0xbcaf216f	-0.021378247
106	0xbc5ce5ea	-0.01348255
107	0xbe60ade9	-0.21941341
108	0x3e62694c	0.2211048
109	0x3e37d8a9	0.17953743
110	0x3e12c6e3	0.14333682
111	0x3d207dea	0.03918258
112	0x3e946128	0.28980374
113	0x3e00bf82	0.12573054
114	0x3dbf0d4d	0.09328709
115	0xbe30e392	-0.17274311
116	0x3de81790	0.11332619
117	0x3e056ed8	0.13030565
118	0xbc731fe1	-0.0148391435
119	0x3e16daa6	0.14731845
120	0x3bfc05eb	0.007691135
121	0xbe9e942c	-0.3097242
122	0xbd783486	-0.060596965
123	0x3d1f3886	0.038872264
124	0xbc7abd99	-0.015303993
125	0x3d99749d	0.07492945
126	0xbe11520e	-0.14191458
127	0xbe3a2d0f	-0.18181251
128	0xbe61d506	-0.22053918
129	0x3e1af916	0.15134081
130	0xbdfdf0b1	-0.12399424
131	0xbe159f5e	-0.14611575
132	0xbd238160	-0.039918303
133	0x3dcb0303	0.09912684
134	0x3e09b6af	0.13448595
135	0xbccb5922	-0.024822775
136	0xbd510d7b	-0.051038247
137	0xbc2f005d	-0.010681239
138	0xbe2cd5ae	-0.16878387
139	0xbd92d873	-0.07170191
140	0xbac8a975	-0.0015309291
141	0xbdb1eb18	-0.08687419
142	0xbc854400	-0.016267776
143	0xbdbca320	-0.09210801
144	0xbe370a5e	-0.17875049
145	0x3dc962f5	0.09833328
146	0xbe9dee81	-0.30846027
147	0xbd896376	-0.06708424
148	0x3e3f4b96	0.18681177
149	0x3d16f479	0.03685424
150	0x3e1fa7eb	0.155914
151	0x3de55ae4	0.11198977
152	0x3e6c925b	0.23102705
153	0x3e4f7a43	0.20261483
154	0x3df2546a	0.11832507
155	0x3e1c11cd	0.15241165
156	0xbb406f82	-0.0029363339
157	0xbdf125f3	-0.11774816
158	0xbd089639	-0.03334639
159	0x3e755ddb	0.23961584
160	0x3e035442	0.1282511
161	0x3a0c4497	0.0005350797
162	0xbd9eecef	-0.07760035
163	0x3e3324d1	0.17494513
164	0x3d2dc9c7	0.042428758
165	0x3e47064d	0.19435997
166	0x3e862314	0.26198637
167	0x3e7534ae	0.23945877
168	0x3e53b1ce	0.20673296
169	0x3e4674f5	0.19380553
170	0x3e8d1370	0.27553892
171	0xbc289739	-0.010289961
172	0xbd8a68c1	-0.067582615
173	0xbd7ef60f	-0.06224638
174	0xbcdf8dc0	-0.027289271
175	0x3dd29335	0.10281984
176	0xbd8ebf62	-0.06970097
177	0xbdb023d7	-0.08600586
178	0xbe37911e	-0.17926452
179	0x3dade851	0.084915765
180	0x3ddbcfe6	0.10733013
181	0x3d7f8dcc	0.062391087
182	0x3d254f49	0.040358815
183	0x3e332447	0.17494307
184	0xbd54e96c	-0.05198042
185	0xbe420829	-0.18948425
186	0x3e4532b5	0.19257624
187	0x3cbbb7fe	0.022914883
188	0xbe46d6f2	-0.19417933
189	0xbddf8056	-0.1091315
190	0x3d310aba	0.04322312
191	0xbbbea910	-0.0058184937
192	0x3dc77703	0.097394966
193	0xbe1c38aa	-0.1525599
194	0x3b50f9b5	0.0031887118
195	0xbdea57c7	-0.114425234
196	0xbbfa7dd2	-0.0076443935
197	0x3d7bd939	0.061486457
198	0x3e19df5c	0.15026611
199	0xbe83095f	-0.25593087
200	0x3e15a7be	0.1461477
201	0x39ff6c83	0.00048718238
202	0xbe01e3c4	-0.12684542
203	0x3dd08a47	0.10182624
204	0xbe2ed9a1	-0.17075206
205	0x3e023faa	0.12719598
206	0xbe7a9c9b	-0.24473803
207	0xbda418f1	-0.0801257
208	0x3e366a95	0.17814095
209	0x3e4e4197	0.20142208
210	0x3d6a4833	0.05719776
211	0x3e3b5c1a	0.18296853
212	0x3e5e1d2a	0.21690813
213	0xbd82c650	-0.06385481
214	0x3d4afaa4	0.049555436
215	0x3b0c73d9	0.0021431355
216	0xbe50b691	-0.20382144
217	0x3e20194c	0.1563465
218	0xbe940261	-0.28908065
219	0xbc63ee59	-0.013911807
220	0xbe5db434	-0.21650773
221	0x3e145a43	0.14487557
222	0xbe19152d	-0.14949484
223	0x3e3f0a97	0.18656383
224	0x3df56cb8	0.11983627
225	0xbd4277aa	-0.0474774
226	0x3dfac89f	0.12245297
227	0xbe5468e4	-0.20743138
228	0xbe100446	-0.1406413
229	0x3df4244a	0.11920984
230	0xbe658f50	-0.2241795
231	0x3e4d70ca	0.20062557
232	0x3dae9a26	0.08525495
233	0x3dad3b98	0.08458632
234	0xbd0e46e0	-0.03473556
235	0x3e209f02	0.15685657
236	0xbe951450	-0.2911706
237	0xbc951ff4	-0.018203713
238	0xbe286bd3	-0.16447382
239	0xbdae0e27	-0.08498793
240	0xbe80518e	-0.2506222
241	0xbe0e1b60	-0.1387763
242	0xbdaae57f	-0.08344554
243	0x3e9f7785	0.31145874
244	0x3bb82084	0.0056191105
245	0xbda267f6	-0.07929985
246	0xbb2e6c9f	-0.0026615036
247	0x3de8137c	0.11331841
248	0xbbbfc901	-0.005852819
249	0x3cbc7127	0.023003174
250	0x3d756ff3	0.059921216
251	0xbe032fcc	-0.12811202
252	0x3d8f4597	0.06995695
253	0x3d49d7ea	0.049278177
254	0x3d8300de	0.0639665
255	0x3e0f2468	0.13978732

conv1.bias f4 [32]
0	0x3e0b3ce9	0.13597454
1	0x3c887055	0.016655127
2	0x3e43cf98	0.1912216
3	0x3e658344	0.22413355
4	0x3d972558	0.0738017
5	0x3e281e4d	0.16417809
6	0x3e3c8d66	0.18413314
7	0x3e4604f6	0.1933783
8	0x3cc5d1f5	0.024147967
9	0x3dfa9d1b	0.12236997
10	0x3dcc0adc	0.09963009
11	0xbe361dcb	-0.17784803
12	0xbe127b4f	-0.14304851
13	0x3d51333a	0.051074244
14	0xbe2b71fb	-0.16742699
15	0x3e44771d	0.19186063
16	0xbe7b7647	-0.24556838
17	0xbd98b02e	-0.074554786
18	0x3b78edb8	0.0037983488
19	0x3e0e0a28	0.13871062
20	0xbe1bdf6e	-0.1522195
21	0x3e12b08e	0.14325163
22	0xbd1596be	-0.036520712
23	0x3d5c07f7	0.053718533
24	0x3e55c2bc	0.20875067
25	0x3da0a7ae	0.07844482
26	0x3e1ebaf0	0.15500998
27	0xbd43b06f	-0.047775682
28	0xbe65e8c8	-0.2245208
29	0xbdd062dd	-0.10175107
30	0xbdaff486	-0.08591561
31	0x3e31409a	0.173098

conv2.weight f4 [64, 32, 3, 3]
0	0x3bb366b0	0.005474888
1	0xb9851018	-0.00025379728
2	0xbbd44523	-0.0064779683
3	0x3d0d09c8	0.034433156
4	0xba37ac74	-0.00070065935
5	0x3d6467cc	0.05576305
6	0xbbf9895d	-0.007615252
7	0xbaa6afb9	-0.0012717164
8	0xbd5cf01a	-0.053939916
9	0xbcc6009d	-0.024170214
10	0x3a7692d0	0.0009406032
11	0xba527a2e	-0.00080290704
12	0xbca8dfe4	-0.020614572
13	0xbc933ebc	-0.01797425
14	0xbc9c1424	-0.019052573
15	0x3c1d36e1	0.009595604
16	0x3d9e0750	0.077162385
17	0x3caa1eae	0.020766582
18	0xbe2a000b	-0.16601579
19	0x3ba6bb37	0.0050882357
20	0x3d84e52e	0.06489025
21	0xbc0d3cfe	-0.008620499
22	0x3ca32e33	0.01991949
23	0xbc89ec6c	-0.016836368
24	0xbd1a2144	-0.03762938
25	0xbcf4b2bf	-0.029870389
26	0x3cb9388b	0.02260997
27	0x3c9c4679	0.019076573
28	0x3d4fac2f	0.050701316
29	0x3c9a4f57	0.01883666
30	0xbcab0247	-0.02087511
31	0xbd1a1a9b	-0.03762303
32	0x3d9c3e98	0.07629126
33	0xbca24ce4	-0.019812055
34	0x3d3f96e5	0.046774764
35	0x3a984b13	0.0011619054
36	0x3d00f83a	0.031486727
37	0x3c50fb24	0.012755189
38	0x3bc0f1e6	0.0058882115
39	0xbdc4ad1a	-0.09603329
40	0xbcf7fc94	-0.030271806
41	0xbbc67639	-0.0060565737
42	0xbc8441a8	-0.016144589
43	0x3b9a31cd	0.0047056437
44	0xbc90ce2b	-0.017676434
45	0x3d848d65	0.06472281
46	0xbcae3a80	-0.02126813
47	0xbde9dfc3	-0.11419632
48	0x3db91cfd	0.09038732
49	0x3c4a2109	0.012336978
50	0x3c8caf33	0.017173385
51	0x3ca8cbd5	0.020605007
52	0x3d0fc012	0.035095282
53	0x3b0a03bb	0.0021059352
54	0xbcf4886a	-0.029850204
55	0xbe0b7ec6	-0.13622579
56	0xbd3ba5c7	-0.045812394
57	0xbd28b3c2	-0.041187055
58	0x3dc4aeb7	0.09603637
59	0xbc58be57	-0.013228974
60	0xbd217186	-0.039414905
61	0x3b1ff089	0.0024404845
62	0xbb4097a9	-0.0029387271
63	0xbd987bd3	-0.074454926
64	0xbd3d1cce	-0.04617005
65	0x3d21d98a	0.039514102
66	0x3d6dd82f	0.058067497
67	0xbc6fd61d	-0.014638451
68	0xbcebe4ef	-0.028795687
69	0x3d820d07	0.06350141
70	0x3d1ef3db	0.038806777
71	0x3c8166a1	0.015796008
72	0x3d77ddcb	0.060514253
73	0xbc46285c	-0.012094583
74	0x3bf0c3ea	0.0073475735
75	0xbc3834c9	-0.011243054
76	0x3db3cd80	0.087794304
77	0x3c280fdb	0.0102576865
78	0xbdaaa4ca	-0.08332212
79	0xbd262d1a	-0.040570356
80	0xbd1b7776	-0.037955724
81	0xbca2957c	-0.01984667
82	0x3a659266	0.0008757472
83	0xbdbad247	-0.091221385
84	0x3bed2025	0.007236498
85	0x3c000019	0.007812523
86	0xbcc9f0f9	-0.024651038
87	0xbe00a6b2	-0.12563589
88	0xbd4b22e4	-0.04959382
89	0xbe360399	-0.1777481
90	0xbbd078f9	-0.0063620773
91	0xbd85df1d	-0.06536696
92	0x3bd74f9c	0.0065707695
93	0xbd7bcc8e	-0.061474375
94	0xbd2dcfa6	-0.042434357
95	0x3c211710	0.009832159
96	0x3be611f8	0.007021185
97	0x3d1a4459	0.037662838
98	0xbac4cd2e	-0.0015014762
99	0x3c9543d3	0.018220818
100	0x3d15e390	0.036593974
101	0x3d6ef84b	0.05834226
102	0x3c0ceb1b	0.008600975
103	0x3ce71f4c	0.028213166
104	0x3c6f53b7	0.0146073615
105	0x3c8b30df	0.016991077
106	0x3d1304ab	0.035893124
107	0x3c2879db	0.010282959
108	0x3d670b94	0.056407526
109	0x3cc74408	0.024324432
110	0x3d116569	0.035497103
111	0x3da7f8a7	0.082017235
112	0xbbdc65dd	-0.0067260102
113	0xbd12b509	-0.03581718
114	0x3d64c3e0	0.055850863
115	0x3c997bc3	0.018735772
116	0x3c84573b	0.016154876
117	0xbd0b6256	-0.034029327
118	0xbd387f5f	-0.045043346
119	0x3dc8bcc3	0.098016284
120	0x3d821756	0.06352107
121	0xbcf43a62	-0.029812995
122	0xbcd2d1a0	-0.025734723
123	0xbd726712	-0.059180327
124	0xbb8fa27c	-0.0043833833
125	0x3c37010d	0.011169684
126	0xbd3a4310	-0.045474112
127	0xbcc8d383	-0.02451492
128	0xbcf9e595	-0.030504981
129	0xbd33dcd9	-0.04391179
130	0xbdfdb1ec	-0.123874515
131	0xbda5f711	-0.08103765
132	0x3cc5f263	0.02416343
133	0xbcdfc0ec	-0.027313672
134	0x3d138ed9	0.036024902
135	0xbca977d1	-0.020687016
136	0x3ca39557	0.019968672
137	0x3d57467a	0.052557446
138	0xbd6961e7	-0.056978133
139	0x3d411564	0.04713954
140	0xbc476b5a	-0.012171591
141	0xbd0d0f43	-0.034438383
142	0xbd579794	-0.05263479
143	0x3d3c7ff5	0.046020467
144	0x3cdca779	0.026935326
145	0xbcf3a69d	-0.029742533
146	0x3d9c138a	0.07620914
147	0x3d97bb74	0.07408801
148	0xbd4a3dc5	-0.049375314
149	0x3d4dce72	0.05024571
150	0x3d2e214f	0.042512234
151	0xbdd760e9	-0.10516531
152	0x3c846450	0.016161114
153	0xbd31a061	-0.04336584
154	0x3b19ee03	0.0023487813
155	0x3cc62eb1	0.024192186
156	0xbcdf87f5	-0.027286509
157	0xbd4fc226	-0.050722264
158	0x3dca2570	0.09870422
159	0x3d6b16bc	0.057394728
160	0xbd14e264	-0.036348715
161	0xbd46c33a	-0.048526026
162	0x3a157604	0.00057014846
163	0xbcf2ea56	-0.029652756
164	0xbd5196dd	-0.051169265
165	0xbd924650	-0.07142317
166	0xbc4d2162	-0.012520166
167	0xbcb9e63a	-0.022692788
168	0xbd5a1634	-0.05324383
169	0xbd8a3021	-0.06747461
170	0xbda9607e	-0.082703575
171	0x3d12e169	0.0358595
172	0xbc555a06	-0.013021952
173	0xbcc88bef	-0.024480788
174	0x3d6f7e02	0.05846978
175	0xbb3e3d73	-0.0029028326
176	0x3c21883f	0.009859144
177	0x3d8e804d	0.06958065
178	0x3d9c9f2c	0.07647547
179	0xbddee6db	-0.10883876
180	0xbc7e2ef3	-0.015514123
181	0xbd63768f	-0.05553299
182	0xbc4e7eae	-0.012603445
183	0x3dbcafe0	0.09213233
184	0xbcca947f	-0.024729012
185	0x3d82f79d	0.06394885
186	0xbd23b75c	-0.039969787
187	0xbd05090d	-0.032479335
188	0x3d186e98	0.037214845
189	0xbc37c4ac	-0.011216324
190	0xbd54725e	-0.05186688
191	0x3cbfc97f	0.02341151
192	0x3d36b61a	0.04460726
193	0xbad8bab0	-0.0016535129
194	0x3c99f519	0.01879363
195	0xbcea20b5	-0.028580049
196	0xbd948d35	-0.072534956
197	0x3d168034	0.036743358
198	0xbc77edaf	-0.015132352
199	0x3d8eb8fa	0.06968875
200	0x3d228367	0.039676096
201	0x3d243401	0.040088657
202	0x3d941074	0.07229701
203	0xbcbe840a	-0.02325632
204	0xbd03cd59	-0.032178257
205	0xbbf2ede5	-0.007413613
206	0x3b50e10c	0.003187242
207	0xbd317d51	-0.0433324
208	0x3d0aadb4	0.033857062
209	0xbd5fbfbc	-0.05462621
210	0x3db64ee9	0.0890177
211	0xbdcbb89a	-0.09947319
212	0x3d10af46	0.035323404
213	0xbd4f5053	-0.050613713
214	0x3c18cb07	0.009325749
215	0x3d9d83cc	0.07691154
216	0x3ce69314	0.028146304
217	0x3c0f9b38	0.008765034
218	0xbd34e424	-0.044162884
219	0x3d7b72a3	0.061388623
220	0x3c57733d	0.013150034
221	0xbcd920ff	-0.026504992
222	0xbc605066	-0.0136910435
223	0x3b998d35	0.0046860226
224	0x3c51fccb	0.012816618
225	0x3d46fc9c	0.04858075
226	0xbdc4b20c	-0.09604272
227	0xbda70f97	-0.081572704
228	0x3d1197f6	0.035545312
229	0x3d110c06	0.035411857
230	0x3d2614c9	0.040547166
231	0xbb2aac2c	-0.0026042564
232	0xbde3c678	-0.11121839
233	0xbd8191fd	-0.06326673
234	0xbd1e10f4	-0.038590387
235	0x3d3be93a	0.04587672
236	0x3d800f6a	0.0625294
237	0x3c8984f9	0.01678704
238	0xbd15ff98	-0.036620706
239	0xbb47a51a	-0.0030463398
240	0x3c99c45f	0.018770395
241	0xbd118ecf	-0.035536584
242	0xbcbe9a4c	-0.023266934
243	0x3d3a20dc	0.045441493
244	0xbd812952	-0.06306709
245	0xbcbd72d6	-0.023126047
246	0xbd2a58c2	-0.041588552
247	0xbc9a67f6	-0.0188484
248	0xbc816b90	-0.01579836
249	0x3ab2ea6f	0.0013650189
250	0x3cf21634	0.029551603
251	0x3d911c4b	0.070854746
252	0x3d234f2f	0.039870437
253	0x3d718b53	0.05897076
254	0xbd33f1da	-0.04393182
255	0x3d99d896	0.075120136

conv2.bias f4 [64]
0	0x3c7e5c67	0.01552496
1	0xbcbb6840	-0.022876859
2	0xbcbe335c	-0.02321785
3	0xbc8b6b03	-0.0170188
4	0x3d32cf31	0.043654624
5	0xbd1e7aa2	-0.03869117
6	0x3caa25d5	0.020769993
7	0xbc2f9e18	-0.010718845
8	0x3925a356	0.00015796474
9	0x3d4def87	0.05027726
10	0x3d6693d2	0.056293316
11	0xbd0c78a5	-0.034294743
12	0x3d3ca0ba	0.04605172
13	0xbd013a47	-0.03154972
14	0x3d64e250	0.05587989
15	0x3d32225e	0.043489806
16	0xbcfc1f72	-0.030776713
17	0x3c533249	0.012890407
18	0xbc40f052	-0.011776047
19	0xbd2a60eb	-0.041596334
20	0x3d556f82	0.052108295
21	0xbc612aec	-0.0137431435
22	0xbcf44309	-0.029817121
23	0xbd12acb9	-0.035809252
24	0x3d423db7	0.047422137
25	0x3d21f94b	0.039544385
26	0xbbdc0f5e	-0.006715699
27	0x3d5c59fb	0.05379675
28	0x3d5d83e3	0.054080855
29	0x3d2250c6	0.039627813
30	0xbc65fc68	-0.014037229
31	0x3d7b00d1	0.061280075
32	0x3d2c5c1c	0.04208003
33	0xbd261593	-0.04054792
34	0x3ce13c0b	0.027494451
35	0x3c812dd8	0.01576893
36	0xbd090664	-0.03345336
37	0xbd47b7c3	-0.048759233
38	0x3d53ccb5	0.051708896
39	0x3ced99f7	0.02900408
40	0x3d46ce3a	0.048536517
41	0x3cc5fc95	0.024168292
42	0x3cdde29c	0.027085595
43	0xbcd1b010	-0.025596648
44	0xbbd4fd43	-0.0064999177
45	0xbb545a4a	-0.003240245
46	0x3c830175	0.015991906
47	0xbca77db7	-0.020445688
48	0x3b4e51e2	0.0031481911
49	0x3c8090f5	0.01569412
50	0xbd0b9fb9	-0.03408787
51	0xbd108d4d	-0.035291005
52	0x3c886e79	0.01665424
53	0x3d505606	0.05086329
54	0xbb8d7199	-0.0043165204
55	0xbd2b060c	-0.041753814
56	0x3c5069e0	0.012720555
57	0xbd40d992	-0.04708249
58	0x3c4321a1	0.011909873
59	0x3cd800f4	0.026367642
60	0xbcef8564	-0.02923841
61	0x3d0e939a	0.034808733
62	0x3d319088	0.043350726
63	0xbcea75d2	-0.028620634

bn1.weight f4 [32]
0	0x3f809d1c	1.0047946
1	0x3f72ff9c	0.9492128
2	0x3f7ba76c	0.9830234
3	0x3f84250d	1.0323807
4	0x3f709dac	0.9399059
5	0x3f82c136	1.0215213
6	0x3f81aeb6	1.0131443
7	0x3f851277	1.039626
8	0x3f731d9d	0.9496706
9	0x3f86cad1	1.0530645
10	0x3f6fcbf9	0.9367061
11	0x3f72634e	0.94682777
12	0x3f7d0a6e	0.9884404
13	0x3f7aa0c7	0.97901577
14	0x3f748829	0.95520264
15	0x3f709567	0.9397797
16	0x3f8350da	1.0259049
17	0x3f8213e6	1.0162323
18	0x3f755e0a	0.9584662
19	0x3f680cfc	0.9064481
20	0x3f8c238c	1.0948348
21	0x3f732fd1	0.9499484
22	0x3f7ca13b	0.9868352
23	0x3f7dab23	0.9908926
24	0x3f747b08	0.9550023
25	0x3f984260	1.1895256
26	0x3f78bb51	0.9716082
27	0x3f808f9d	1.0043827
28	0x3f66683a	0.9000279
29	0x3f802e78	1.0014181
30	0x3f84ac2a	1.036504
31	0x3f76d438	0.9641757

bn1.bias f4 [32]
0	0x3e60b4a6	0.21943912
1	0xbdac3c29	-0.08409912
2	0x3d7f94c0	0.06239772
3	0x3d7a98e7	0.061180975
4	0xbd236ea2	-0.03990043
5	0xbdb4df92	-0.08831705
6	0xbde1497f	-0.110003464
7	0x3c9fefa3	0.019523447
8	0xbcc00408	-0.023439422
9	0xbe3c5059	-0.18390025
10	0x3d14dc61	0.036342982
11	0xbe0263b5	-0.12733348
12	0xbd986418	-0.07440966
13	0x3de775c0	0.11301756
14	0xbe372441	-0.17884924
15	0xbd57d33e	-0.05269169
16	0x3dc80e7c	0.09768388
17	0x3e368db4	0.17827493
18	0xbd1f92ae	-0.038958244
19	0xbd53a548	-0.051671296
20	0x3e1f390d	0.15549107
21	0xbd490ab7	-0.049082484
22	0xbcf213b4	-0.02955041
23	0x3d655087	0.055985
24	0x399a48ad	0.00029427317
25	0x3e0af923	0.135716
26	0xbdb3767a	-0.08762832
27	0xbe4a6d16	-0.19768175
28	0x3bc134de	0.005896195
29	0x3e22436f	0.15846036
30	0x3e23c55b	0.15993254
31	0xbe44b4ce	-0.19209597

bn1.running_mean f4 [32]
0	0x3d5cb3ad	0.05388229
1	0xbcb9af77	-0.022666676
2	0x3e50877c	0.20364183
3	0x3e348a61	0.17630912
4	0x3dac1371	0.08402146
5	0x3e0ab3e9	0.13545193
6	0x3e99e0b2	0.3005424
7	0x3e0ce665	0.13759764
8	0x3d8f7a0a	0.07005699
9	0x3e984781	0.29742053
10	0x3de12653	0.10993638
11	0xbe50ec8f	-0.2040274
12	0xbe2dc49a	-0.16969529
13	0xbd244e93	-0.040113997
14	0xbe09fea2	-0.13476041
15	0x3e861b64	0.26192772
16	0xbea26f0c	-0.31725347
17	0xbe0f9f93	-0.14025716
18	0x3db387b8	0.08766121
19	0x3e0b7d93	0.13622122
20	0xbe9df02d	-0.30847302
21	0x3dd6c2f3	0.10486402
22	0xbd3d56c3	-0.04622532
23	0xbccdfac6	-0.025143992
24	0x3e76149a	0.24031296
25	0xbcb4a4cc	-0.022051238
26	0x3e05765e	0.13033435
27	0xbd23157f	-0.039815422
28	0xbe55e228	-0.20887053
29	0xbe42a5b9	-0.1900853
30	0xbe449575	-0.19197638
31	0x3e8fd6b7	0.28093502

bn1.running_var f4 [32]
0	0x3c9a7eda	0.018859316
1	0x3c6c2764	0.014413688
2	0x3c927aa3	0.017880743
3	0x3c82c684	0.0159638
4	0x3c6845cb	0.014176796
5	0x3cb50f47	0.022102011
6	0x3cf9d1a8	0.03049548
7	0x3ca65cca	0.020307917
8	0x3cd3d3d7	0.025857849
9	0x3d27a0d9	0.04092488
10	0x3c856f86	0.01628853
11	0x3cae3caa	0.021269161
12	0x3ce03339	0.027368175
13	0x3cb78872	0.02240393
14	0x3c1ce3b4	0.009575773
15	0x3cc240fd	0.02371263
16	0x3c83350a	0.016016502
17	0x3c9d41bd	0.019196386
18	0x3c94dfbd	0.018173093
19	0x3ca4eeb1	0.020133348
20	0x3cee2371	0.029069634
21	0x3c92b233	0.017907238
22	0x3cb6b298	0.022301957
23	0x3ce01064	0.027351566
24	0x3c91267f	0.017718552
25	0x3ca40c0e	0.02002528
26	0x3cab2572	0.020891879
27	0x3d07c3ae	0.0331456
28	0x3ce2206c	0.02760335
29	0x3ce4d30f	0.027932672
30	0x3cfe3847	0.031032695
31	0x3c9aefeb	0.01891323

bn2.weight f4 [64]
0	0x3f903bad	1.1268212
1	0x3fa38bea	1.2777073
2	0x3fa6c693	1.302935
3	0x3f9db9a2	1.2322276
4	0x3f8a0f64	1.0785947
5	0x3f78a40c	0.97125316
6	0x3f9c5288	1.2212687
7	0x3f89764d	1.0739228
8	0x3fafed12	1.3744223
9	0x3f9ad591	1.2096425
10	0x3f9eb4b5	1.2398897
11	0x3f9438b3	1.1579803
12	0x3f82c25a	1.0215561
13	0x3f99648c	1.198381
14	0x3fa30a28	1.2737474
15	0x3f96183e	1.1726148
16	0x3f778fa2	0.9670354
17	0x3fb4915b	1.4106859
18	0x3f8b2958	1.0871992
19	0x3f951d33	1.1649536
20	0x3f982fcf	1.188959
21	0x3f9b93a8	1.2154436
22	0x3f9771b2	1.1831572
23	0x3fa82180	1.3135223
24	0x3f7fcc47	0.9992108
25	0x3fa43f0d	1.2831742
26	0x3f8f9a4b	1.1218961
27	0x3f974ecf	1.1820925
28	0x3f9e3f02	1.2362978
29	0x3facbc2e	1.3494928
30	0x3fa09cf9	1.2547904
31	0x3f874299	1.0567199
32	0x3f9b3c11	1.2127706
33	0x3fa68804	1.3010259
34	0x3f8d5434	1.1041322
35	0x3fabf877	1.34352
36	0x3f9e3165	1.2358824
37	0x3f960671	1.1720716
38	0x3f9b2514	1.212069
39	0x3fa0231a	1.2510712
40	0x3f96fdb3	1.1796173
41	0x3f9d661f	1.229679
42	0x3f988dfe	1.1918333
43	0x3f9850db	1.1899675
44	0x3f9c26e8	1.2199373
45	0x3fb892fd	1.4419857
46	0x3f9dfed3	1.2343391
47	0x3fb08867	1.3791627
48	0x3f98b268	1.1929445
49	0x3f8f8e69	1.1215335
50	0x3f87ac97	1.0599545
51	0x3f9b85c7	1.2150201
52	0x3f866463	1.0499386
53	0x3faad258	1.3345442
54	0x3f8f4311	1.1192342
55	0x3fb66d8f	1.4252185
56	0x3f930d94	1.1488519
57	0x3f95f07c	1.1714015
58	0x3f9ca3dd	1.2237507
59	0x3f95cdce	1.1703432
60	0x3f992af1	1.196623
61	0x3fa18424	1.2618451
62	0x3f99aa92	1.2005179
63	0x3fa0ca96	1.2561824

bn2.bias f4 [64]
0	0xbec38c6f	-0.3819308
1	0xbe5c954c	-0.21541327
2	0xbea8818c	-0.32911336
3	0xbe995bd0	-0.2995286
4	0xbe54cdc8	-0.20781624
5	0xbf29975f	-0.662466
6	0xbe4fac9c	-0.20280689
7	0xbdce0bea	-0.10060866
8	0xbcde0439	-0.027101623
9	0xbe3d5fc3	-0.18493561
10	0xbed6f2ad	-0.41982022
11	0xbec7e0f0	-0.390388
12	0xbf0aa011	-0.5415049
13	0xbda0daf3	-0.07854261
14	0xbee981b5	-0.4560677
15	0xbe90c18c	-0.28272665
16	0xbf0cefc9	-0.55053383
17	0xbd693726	-0.05693736
18	0xbe90e325	-0.28298298
19	0xbe5fab79	-0.21842755
20	0xbec6bd6b	-0.3881639
21	0xbe628fbc	-0.22125143
22	0xbe2cd32b	-0.16877429
23	0xbe5d86a4	-0.21633393
24	0xbf245b59	-0.64201885
25	0xbe9ad29e	-0.30238813
26	0xbe3877e2	-0.18014482
27	0xbd1c0703	-0.038092624
28	0xbce15394	-0.027505673
29	0xbdb4ca05	-0.08827595
30	0xbdf19ac1	-0.11797095
31	0xbea51e85	-0.32249847
32	0xbd8f4021	-0.069946535
33	0xbe7b2456	-0.2452558
34	0xbe51c3fb	-0.20484917
35	0xbd5a2915	-0.053261835
36	0xbe7d1ab4	-0.24717218
37	0xbe105e61	-0.14098503
38	0xbdc9c180	-0.0985136
39	0xbd7a2777	-0.061072793
40	0xbe91e82c	-0.28497446
41	0xbe0ea812	-0.13931301
42	0xbe49a600	-0.1969223
43	0xbeb76bbe	-0.35824388
44	0xbe76832d	-0.24073477
45	0xbdb56903	-0.0885792
46	0xbea9a2b1	-0.33131936
47	0xbe867eab	-0.26268515
48	0xbe1b0503	-0.1513863
49	0xbebb36fa	-0.3656538
50	0xbe3320b1	-0.1749294
51	0xbe5f07a6	-0.21780261
52	0xbeb534cb	-0.3539184
53	0x3df96959	0.121782966
54	0xbeaa028f	-0.33205077
55	0xbe2c3ea6	-0.16820773
56	0xbe60c67e	-0.21950719
57	0xbe6297ea	-0.22128263
58	0xbec2adda	-0.38023263
59	0xbeae26ee	-0.34014076
60	0xbe93b61d	-0.2884988
61	0xbdda49e9	-0.106586285
62	0xbe5af07e	-0.21380803
63	0xbe0e4f92	-0.13897541

bn2.running_mean f4 [64]
0	0xbe0885f0	-0.13332343
1	0xbe6a6eeb	-0.22893874
2	0x3e853db5	0.2602364
3	0xbe4f758e	-0.20259687
4	0xbe990440	-0.29886055
5	0x3d3b490e	0.045723967
6	0xbe6e3a54	-0.23264438
7	0xbe26ab90	-0.16276383
8	0xbf0841f1	-0.5322562
9	0xbe61fa3e	-0.22068116
10	0x3e5a59ec	0.21323365
11	0xbddf02f1	-0.10889233
12	0xbe38d2df	-0.18049191
13	0xbea909fb	-0.33015427
14	0xbd93b557	-0.07212322
15	0x3e8bc85e	0.27301306
16	0xbc7386dc	-0.014863696
17	0xbf0cfd89	-0.55074364
18	0x3dd3b724	0.10337666
19	0xbeaef3cc	-0.34170377
20	0x3e0ddae3	0.1385303
21	0xbe8c2714	-0.27373564
22	0xbef0528e	-0.46937984
23	0xbf395c66	-0.72406614
24	0xbd6861b1	-0.05673379
25	0xbeb2e007	-0.34936544
26	0xbcfa8f5d	-0.030585939
27	0xbdb73613	-0.08945861
28	0x3e268882	0.16263011
29	0x3d615bb2	0.055019088
30	0xbea692c4	-0.32533848
31	0x3ea6f567	0.32609102
32	0xbf1eb232	-0.61990654
33	0xbf36cfa3	-0.7141058
34	0xbe66f4fe	-0.22554395
35	0xbe8257f3	-0.25457725
36	0xbe724b72	-0.23661593
37	0xbca73945	-0.02041305
38	0xbe0698a3	-0.13144164
39	0xbd9d958d	-0.0769454
40	0xbeb36afd	-0.35042563
41	0xbeaa601f	-0.3327646
42	0xbe5c8082	-0.21533397
43	0xbed5011d	-0.41602412
44	0x3e6645bf	0.22487544
45	0xbf1dd036	-0.6164583
46	0x3d04bb0a	0.032404937
47	0xbf0212e9	-0.50810105
48	0xbeb224d4	-0.34793723
49	0x3d2461ac	0.04013221
50	0xbe2b3a6f	-0.1672151
51	0xbeb1bbf0	-0.34713697
52	0xbcaf3861	-0.021389188
53	0xbe410557	-0.18849693
54	0xbe0102bb	-0.12598698
55	0xbef136d2	-0.47112137
56	0xbeaf3a4b	-0.34224162
57	0x3deff59f	0.117167704
58	0xbdbcbc6f	-0.09215628
59	0x3e7d35a3	0.24727492
60	0xbede7a5f	-0.43452737
61	0xbe99bfe9	-0.30029228
62	0x3dd7b05f	0.10531687
63	0x3e4afb33	0.19822387

bn2.running_var f4 [64]
0	0x3e787c3c	0.24266142
1	0x3e16468e	0.14675352
2	0x3e673471	0.22578599
3	0x3e6d92cf	0.23200534
4	0x3e05cc72	0.13066271
5	0x3db8802a	0.0900882
6	0x3e026d52	0.12737015
7	0x3e9b0ae7	0.30281755
8	0x3e153f82	0.14575008
9	0x3e4d4af2	0.2004812
10	0x3e18ffb4	0.14941293
11	0x3da0e399	0.07855911
12	0x3daadb24	0.08342579
13	0x3e50dc82	0.20396617
14	0x3da6984b	0.08134516
15	0x3dadc79e	0.084853396
16	0x3d98e30e	0.07465182
17	0x3e2ef474	0.17085439
18	0x3e03419f	0.12818001
19	0x3de66b72	0.11250962
20	0x3dbda48d	0.09259901
21	0x3dd2267f	0.10261249
22	0x3e0452d9	0.12922229
23	0x3df26b7e	0.11836909
24	0x3d9826ef	0.07429301
25	0x3e048b04	0.12943655
26	0x3e6bce2c	0.23027867
27	0x3e1baea2	0.15203336
28	0x3e2f17f8	0.17098987
29	0x3e474897	0.19461285
30	0x3e20ba70	0.1569612
31	0x3e007a13	0.12546568
32	0x3e28ac7b	0.16472046
33	0x3de66d59	0.11251325
34	0x3e3941f8	0.18091571
35	0x3e236c03	0.15959172
36	0x3db8872d	0.09010158
37	0x3e2c830f	0.1684687
38	0x3e36f132	0.17865446
39	0x3e267ef6	0.16259369
40	0x3e262c1f	0.16227768
41	0x3df0c160	0.11755633
42	0x3e47daf5	0.19517119
43	0x3dd0a6bf	0.10188054
44	0x3e0746e0	0.1321063
45	0x3e22f6f6	0.1591452
46	0x3e3f2502	0.18666461
47	0x3e503396	0.20332178
48	0x3e1675d7	0.1469339
49	0x3e19c71b	0.15017359
50	0x3e202e36	0.15642628
51	0x3dce422b	0.10071214
52	0x3dace998	0.08442992
53	0x3e4b419c	0.19849247
54	0x3dd43eff	0.10363578
55	0x3dea95ac	0.11454329
56	0x3e431cde	0.1905398
57	0x3e5fbe35	0.21849902
58	0x3ddc4bb2	0.10756625
59	0x3e00a552	0.12563065
60	0x3dd738c3	0.10508873
61	0x3df66952	0.12031807
62	0x3e438af5	0.19095977
63	0x3e011678	0.12606227

output_conv.weight f4 [8, 64, 1, 1]
0	0x3d1f3720	0.03887093
1	0x3ddf9dbe	0.10918759
2	0xbed58181	-0.41700366
3	0x3daa3753	0.083113335
4	0xbdd8614f	-0.10565435
5	0xbe646f7f	-0.22308157
6	0x3db52ea5	0.08846787
7	0xbe608225	-0.21924646
8	0x3db683e7	0.08911877
9	0x3db27ecb	0.0871559
10	0x3e09f459	0.13472117
11	0x3e59ce04	0.21269995
12	0x3c9e3d8a	0.019316453
13	0xbd3b4fdb	-0.045730453
14	0xbd165b05	-0.036707897
15	0x3de088b5	0.10963575
16	0xbe229b85	-0.15879638
17	0x3dbe610b	0.09295853
18	0x3ba5c46b	0.0050588152
19	0xbcdcac7e	-0.02693772
20	0xbd564243	-0.052309286
21	0x3de9a5e1	0.11408592
22	0x3e066641	0.13124944
23	0x3d8ca65a	0.068676665
24	0xbd702804	-0.058631912
25	0x3d36dfda	0.044647075
26	0xbf0c37a0	-0.54772377
27	0x3dc83355	0.09775416
28	0x3c5d73fc	0.013516422
29	0x3dbd1a66	0.09233551
30	0x3e450303	0.1923943
31	0xbd2aa66a	-0.04166261
32	0x3df7c28b	0.12097653
33	0x3e3e1170	0.1856134
34	0x3e2b59c3	0.1673346
35	0x3d0e57ce	0.034751706
36	0x3e09c8da	0.13455525
37	0xbc2eba59	-0.010664546
38	0x3d735f55	0.059417088
39	0x3dbd886e	0.092545375
40	0xbc6ed165	-0.014576291
41	0x3dc28ff9	0.09500117
42	0xbd6114f2	-0.054951616
43	0x3df13573	0.11777773
44	0x3dc19076	0.09451382
45	0x3e05bef6	0.13061127
46	0xbdd73be9	-0.10509474
47	0x3e03cf73	0.12872104
48	0x3d73ad1e	0.05949127
49	0x3e192935	0.14957125
50	0xbd96b876	-0.07359402
51	0x3d1b733a	0.037951685
52	0x3d4d90c0	0.050186872
53	0x3ddeadfe	0.1087303
54	0x3da12ced	0.07869897
55	0x3df929a2	0.12166144
56	0x3d20868a	0.039190806
57	0xbec0bca0	-0.3764391
58	0x3e21ed00	0.15813065
59	0xbc7edcce	-0.015555574
60	0x3d810578	0.06299871
61	0x3da01e6e	0.07818304
62	0xbf0ec011	-0.5576182
63	0x3c2c0da3	0.010501298
64	0xbe9edd55	-0.31028238
65	0xbeb1238c	-0.34597433
66	0x3cb9b09a	0.022667218
67	0x3d0cae38	0.034345835
68	0x3d56f10c	0.052475974
69	0x3e085ff7	0.13317858
70	0x3db33ae0	0.08751464
71	0x3d394ef9	0.04524133
72	0x3cf5d50c	0.030008815
73	0x3c8451da	0.016152311
74	0xbec44e98	-0.38341212
75	0xbe3995e3	-0.18123583
76	0xbe95f3bf	-0.29287526
77	0x3d9dc5a3	0.07703712
78	0x3dc0a531	0.09406508
79	0x3e304430	0.17213511
80	0x3e1a562d	0.15071936
81	0x3d8d1858	0.06889409
82	0x3d892368	0.06696206
83	0x3d50863f	0.050909277
84	0x3e0a750c	0.13521212
85	0xbde518b3	-0.111863516
86	0x3d49d81a	0.049278356
87	0x3d947b04	0.07250026
88	0x3e0c70a0	0.13714838
89	0x3db2eb2e	0.08736263
90	0xbc25da87	-0.010122902
91	0xbe206c0b	-0.15666215
92	0x3d7e4b53	0.062083554
93	0x3df7ab7d	0.12093256
94	0xbd976a9e	-0.073933825
95	0x3de75037	0.11294597
96	0x3d2adeda	0.041716434
97	0x3e35b7c5	0.17745884
98	0xbe17fa8d	-0.14841671
99	0x3d98bf93	0.07458415
100	0x3d4b4d72	0.049634404
101	0x3d65e9e3	0.056131255
102	0x3da11c23	0.07866695
103	0x3db29154	0.087191254
104	0x3d8867a4	0.06660393
105	0xbc5cbff4	-0.0134735
106	0x3d111e87	0.035429504
107	0x3d716574	0.058934644
108	0x3dc07c20	0.09398675
109	0x3d1fa55d	0.038976062
110	0xbeab931e	-0.3351068
111	0x3ce91df5	0.028456667
112	0x3ddb2f8c	0.10702428
113	0xbe8061bf	-0.25074574
114	0x3ce02ce2	0.027365152
115	0x3c4bfa78	0.012449853
116	0x3d425c6a	0.047451414
117	0x3dd64e97	0.104642086
118	0x3e1a5118	0.15069997
119	0x3e0d6893	0.13809423
120	0x3da4224c	0.08014354
121	0xbc1a46b6	-0.009416273
122	0xbee04755	-0.43804422
123	0xbeee5b3e	-0.46553987
124	0x3db98d0d	0.090601064
125	0xbde78773	-0.11305132
126	0xbdbc992d	-0.092089035
127	0x3d5cf9f7	0.053949323
128	0xbe573328	-0.21015608
129	0x3d1cad6a	0.038251318
130	0xbb90f045	-0.0044231736
131	0x3e137668	0.14400637
132	0x3ca5f8ff	0.020260332
133	0x3d7466f5	0.0596685
134	0xbe50e556	-0.20399985
135	0xbceb5525	-0.028727124
136	0x3d55e8e0	0.05222404
137	0xbd2d8a99	-0.042368505
138	0x3c6dba40	0.0145097375
139	0x3d90a8dc	0.07063457
140	0x3c0336e3	0.0080086915
141	0xbe06ac76	-0.13151726
142	0xbee2af40	-0.4427433
143	0x3d8e7236	0.06955378
144	0x3d35555c	0.04427086
145	0x3d700e30	0.05860728
146	0xbc08f08b	-0.008358131
147	0xbebcbabf	-0.36861226
148	0x3dbdc9dd	0.09267018
149	0x3df6cfe7	0.12051373
150	0x3e2ae4fc	0.16688913
151	0x3dc208ee	0.094743595
152	0xbe7739ea	-0.24143186
153	0x3da231c5	0.07919649
154	0xbd4f5a25	-0.050623078
155	0x3da6824c	0.08130321
156	0x3d877e0e	0.0661584
157	0x3df05043	0.11734059
158	0x3e3b3e9e	0.18285605
159	0x3d0e5fe1	0.034759406
160	0x3d98ed30	0.07467115
161	0x3d912307	0.07086759
162	0xbddce9fe	-0.10786818
163	0x3d40c17e	0.04705953
164	0x3e349c35	0.17637713
165	0x3d774fca	0.060378827
166	0x3dd36030	0.10321081
167	0x3d085969	0.033288393
168	0x3d841b20	0.06450486
169	0x3dea4837	0.11439555
170	0xbe9e73d8	-0.30947757
171	0x3c1939fd	0.009352204
172	0x3989a033	0.00026250034
173	0x3d914dc3	0.0709491
174	0x3e259a08	0.1617204
175	0xbca94dfd	-0.02066707
176	0x3d489ec0	0.04897952
177	0xbda15fd8	-0.07879609
178	0xbe81da25	-0.25361744
179	0xbea158bc	-0.3151301
180	0xbbd7cf6f	-0.0065860073
181	0x3da32aed	0.07967172
182	0xbd940056	-0.072266266
183	0x3de44ae6	0.11147098
184	0xbd55673c	-0.052100405
185	0x3d64f176	0.055894338
186	0x3e08bb06	0.13352594
187	0x3c7fe0c6	0.015617555
188	0xbeb84d8b	-0.3599666
189	0x3daa8a07	0.08327108
190	0xbdcf43fb	-0.10120388
191	0x3b0bf484	0.002135546
192	0x3d66141d	0.056171525
193	0x3d9c0cd0	0.07619631
194	0xbee3c8a1	-0.44489005
195	0x3dd20c21	0.1025622
196	0xbd13c3da	-0.03607545
197	0xbea55863	-0.32293996
198	0xbd518565	-0.051152606
199	0xbe04eb16	-0.12980303
200	0x3dd9e022	0.10638453
201	0x3d9647f8	0.07337946
202	0xbe6d11dd	-0.23151346
203	0x3e799916	0.24374804
204	0xbbf6f87a	-0.007536945
205	0xbe2db3f9	-0.16963185
206	0x3db55df6	0.08855812
207	0xbed27f51	-0.4111276
208	0xbe4ac7dc	-0.19802803
209	0x3df64510	0.120248914
210	0xbebac7f6	-0.36480683
211	0xbc8c69e6	-0.01714034
212	0xbf0be51e	-0.5464648
213	0x3d793d65	0.060849566
214	0x3e002f41	0.12518026
215	0x3e113641	0.14180852
216	0x3e21c16e	0.15796444
217	0x3e1c3855	0.15255864
218	0xbbf4d4df	-0.0074716653
219	0x3daa57d9	0.08317537
220	0x3cd18b76	0.025579195
221	0x3dd0b7c3	0.101913
222	0x3e50a611	0.2037585
223	0xbe14dad7	-0.14536606
224	0x3db000b7	0.08593886
225	0x3e23a64b	0.15981404
226	0xbea5e249	-0.32399204
227	0x3d3d2139	0.04617426
228	0x3c09d204	0.008411888
229	0xbcca4ade	-0.024693903
230	0x3db1c3a8	0.086798966
231	0x3df2047a	0.1181726
232	0xbdda7d8f	-0.1066848
233	0x3de60dcb	0.112330996
234	0xbdd2e38b	-0.102973066
235	0x3d18cc29	0.037304077
236	0xbecb4340	-0.39699745
237	0x3e10da06	0.1414567
238	0xbe4508e0	-0.19241667
239	0x3e19b4fd	0.15010448
240	0x3e084bab	0.13310115
241	0x3dd2c8e2	0.102922216
242	0xbe1fcc47	-0.1560527
243	0xbe1370a1	-0.14398433
244	0xbea96e36	-0.33091897
245	0x3e025920	0.12729311
246	0xbe01f63e	-0.1269159
247	0x3e23d6f0	0.15999961
248	0xbe44f325	-0.19233377
249	0xbe64bae8	-0.22336924
250	0x3dfc461d	0.123180605
251	0xbc75d28d	-0.0150038125
252	0xbcc64a42	-0.02420533
253	0x3d97537d	0.07388971
254	0xbc9a173f	-0.018809913
255	0xbd41fb1a	-0.04735861

output_conv.bias f4 [8]
0	0xbe633014	-0.22186309
1	0x3db28564	0.087168485
2	0x3de0358e	0.10947715
3	0x3d83228c	0.06403074
4	0x3dc247b8	0.094863355
5	0x3d61f65c	0.055166587
6	0x3c60ca99	0.013720178
7	0x3e3bee74	0.18352681
