training/trained_models/model_standard_pulse.pth (torch, 85610 bytes, 14 tensors)

conv1.weight f4 [32, 2, 3, 3]
0	0xbe7dbea1	-0.2477975
1	0xbdc81e8e	-0.09771453
2	0x3bcbcda5	0.006219583
3	0x3d6f6f60	0.058455825
4	0x3e4e1019	0.20123328
5	0xbdd17b3d	-0.10228584
6	0xbcc5ad88	-0.024130598
7	0x3de2d509	0.110757895
8	0x3e14d8f7	0.1453589
9	0x3d9ec526	0.07752447
10	0x3b0e6b44	0.0021731416
11	0x3c979ffa	0.0185089
12	0x3c8fee16	0.017569583
13	0x3dc86d84	0.097865134
14	0x3d3ad919	0.045617197
15	0x3dab0767	0.08351021
16	0xbd21de5c	-0.0395187
17	0xbcd2520c	-0.025673889
18	0xbd6be3bc	-0.05759023
19	0xbe96f816	-0.2948615
20	0xbdf2e8b5	-0.118607916
21	0xbe840b48	-0.25789857
22	0xbe5d258a	-0.21596351
23	0xbe3caa37	-0.18424307
24	0xbe0fede5	-0.14055593
25	0x3d435790	0.047690928
26	0xbe6974ed	-0.2279851
27	0x3d499b89	0.049220596
28	0xbc9f61cd	-0.019455815
29	0xbd57cdde	-0.052686565
30	0x3d8ee038	0.0697636
31	0xbe5bb454	-0.21455508
32	0x3e63cd5e	0.2224631
33	0x3d805202	0.06265642
34	0x3cc92c81	0.024557354
35	0xbdb7f5e4	-0.08982447
36	0xbde31f90	-0.110900044
37	0x3cb4c357	0.022065802
38	0x3e1f1e2c	0.15538853
39	0xbe8806e2	-0.2656775
40	0x3d8ed984	0.069750816
41	0xbe1d890e	-0.15384313
42	0xbe61c6c5	-0.22048481
43	0x3d10bafa	0.035334565
44	0x3df415fa	0.11918254
45	0x3ced34e7	0.02895589
46	0xbd3534e4	-0.044239894
47	0xbd952271	-0.0728196
48	0xbde75b3e	-0.112967
49	0x3c9962fb	0.018723955
50	0xbba3eec7	-0.0050028297
51	0xbd077049	-0.033066068
52	0xbd50a64c	-0.050939843
53	0xbc574f17	-0.013141415
54	0xbe4f065f	-0.20217274
55	0xbe7eff7c	-0.24902147
56	0xbe48c6a5	-0.19607027
57	0x3b8caa50	0.004292764
58	0xbe8d3c43	-0.2758504
59	0xbce7b059	-0.028282331
60	0xbddb65e9	-0.10712797
61	0x3d4cc8c1	0.04999614
62	0xbc8c6b8a	-0.017141122
63	0xbdfa4085	-0.122193374
64	0xbdd8d4f5	-0.10587493
65	0x3c2268bc	0.009912666
66	0xbd363689	-0.044485603
67	0xbd8c4e55	-0.06850878
68	0xbda81c9d	-0.082085826
69	0x3e677962	0.22604898
70	0xbc6b97ba	-0.014379436
71	0x3dfec7e0	0.12440467
72	0xbe0fc570	-0.1404016
73	0xbd9c4765	-0.07630805
74	0xbda1f6ca	-0.079083994
75	0xbe0ace0b	-0.13555162
76	0x3dac2102	0.08404733
77	0xbc565eb9	-0.013084107
78	0xbded9cf0	-0.11602199
79	0xbdba2a29	-0.09090073
80	0xbe281487	-0.1641408
81	0x3d7dcdda	0.061963893
82	0x3c8e4c98	0.017370507
83	0xbe31487f	-0.17312811
84	0xbdb6306c	-0.088959545
85	0x3d3eacc4	0.04655148
86	0xbce88337	-0.02838288
87	0xbcc887b9	-0.02447878
88	0xbb03e4f3	-0.0020125478
89	0xbe0d5dc6	-0.13805303
90	0xbe028244	-0.12745005
91	0xbcc251e0	-0.023720682
92	0xbe27c28c	-0.16382807
93	0x3af30f36	0.0018543962
94	0x3e020a5e	0.12699267
95	0xbd11f6e1	-0.035635833
96	0xbe80301d	-0.25036708
97	0x3e030ef9	0.1279868
98	0xbe6bb1ef	-0.23017095
99	0x3cad180c	0.02112963
100	0x3d52fc60	0.051510215
101	0x3e942f4b	0.28942332
102	0xbc9d03f0	-0.019166917
103	0xbdedd64a	-0.11613138
104	0x3e0370a3	0.12835936
105	0xbdcb2ce4	-0.099206716
106	0x3e1915b4	0.14949685
107	0x3e0e9d64	0.13927227
108	0x3e254963	0.16141276
109	0xbe0cafa1	-0.13738872
110	0x3e53f071	0.2069719
111	0xbd4d2b75	-0.050090272
112	0x3e9eee4b	0.31041178
113	0x3e2070b3	0.15667991
114	0x3e3fd853	0.18734865
115	0x3d60568d	0.05477004
116	0x3d5cfa7e	0.053949825
117	0x3df9e783	0.122023605
118	0xbe65672e	-0.22402641
119	0xbe54a810	-0.20767236
120	0xbe0afed9	-0.13573779
121	0x3e4e692c	0.20157307
122	0x3c1a5777	0.009420267
123	0xbd9cddab	-0.07659467
124	0x3e1145a5	0.14186724
125	0x3dfede3e	0.12444733
126	0xbdee2e93	-0.11629977
127	0xba1c8e2d	-0.00059721136
128	0xbcc66e98	-0.024222657
129	0x3d3b732e	0.04576414
130	0x3ce87aa4	0.028378792
131	0x3e573b00	0.210186
132	0x3d50f93d	0.051018942
133	0x3e09977e	0.13436696
134	0xbc305c55	-0.010764201
135	0xbdd9e9b2	-0.10640277
136	0x3db7cdb4	0.08974782
137	0x3d022f65	0.03178348
138	0x3e6affb2	0.22949103
139	0xbdd59340	-0.10428476
140	0x3db1266d	0.08649907
141	0xbcb7cad8	-0.02243559
142	0xbd0e6f4e	-0.034774117
143	0xbcd4ba34	-0.025967695
144	0x3de7ab69	0.11311991
145	0xbe6548f5	-0.22391112
146	0x3e0a7160	0.13519812
147	0xbe5e8365	-0.2172981
148	0x3c97292e	0.018452253
149	0xbdac20b8	-0.08404678
150	0xbe3214fe	-0.1739082
151	0xbe88890e	-0.26667064
152	0x3e385cd2	0.18004158
153	0x3e17d63f	0.14827822
154	0x3dcaa524	0.09894779
155	0x3cb106eb	0.021609744
156	0x3d4c7b3e	0.04992222
157	0x3cde87c1	0.027164342
158	0x3d92136e	0.07132612
159	0xbe116eec	-0.1420247
160	0xbd28c01b	-0.04119883
161	0x3cd51810	0.02601245
162	0x3e2ce416	0.16883883
163	0x3e060eee	0.13091633
164	0x3ddad686	0.10685448
165	0x3e01b7ae	0.12667724
166	0xbc66f1a9	-0.014095702
167	0x3dcfea2f	0.10152089
168	0x3e02846c	0.12745827
169	0x3dd52dd1	0.104091294
170	0x3e3dbd74	0.18529302
171	0x3afc7e05	0.0019263631
172	0x3e30e661	0.17275383
173	0xba94dd70	-0.0011357497
174	0x3e0be09c	0.136599
175	0x3e1492e7	0.14509164
176	0xbd88bd27	-0.06676703
177	0xbc4fdbf6	-0.01268672
178	0xbdadffff	-0.08496093
179	0xbd2b64ab	-0.04184405
180	0x3ded33b8	0.1158213
181	0x3e153b61	0.14573433
182	0xbe4d0d91	-0.20024706
183	0x3e3223cc	0.17396468
184	0x3da272f6	0.07932083
185	0x3d050793	0.032477926
186	0xbe82db3a	-0.25557882
187	0x3d219d58	0.039456695
188	0xbe3d944d	-0.18513604
189	0xbce1e889	-0.027576702
190	0xbc343099	-0.010997915
191	0xbc8d12b3	-0.01722083
192	0xbc61ad8c	-0.013774287
193	0x3d0dc126	0.03460803
194	0xb99b236e	-0.000295903
195	0xbc902bf4	-0.017599083
196	0x3d75b1d0	0.05998403
197	0x3d8a1292	0.06741823
198	0x3e314a70	0.17313552
199	0xbe6933ef	-0.22773717
200	0x3dab8ba5	0.083762445
201	0x3e420417	0.18946873
202	0x3d1a8d87	0.037732627
203	0xbc97e8d7	-0.018543644
204	0x3e6f2392	0.23353413
205	0xbe70207f	-0.23449896
206	0x3dbfd201	0.09366227
207	0x3b80ef4f	0.003934778
208	0xbd8aaa43	-0.06770756
209	0x3e2d7d24	0.16942269
210	0x3e134bf5	0.14384444
211	0x3dd86ddb	0.10567828
212	0xbdc5e0f9	-0.09662051
213	0x3d836623	0.064159654
214	0xbd71a352	-0.058993645
215	0xbcabd060	-0.020973384
216	0x3e50dce2	0.2039676
217	0xbe9e9e6b	-0.30980238
218	0x3d886d50	0.06661475
219	0x3ca89c36	0.0205823
220	0x3d413a53	0.047174763
221	0x3cea61e1	0.028611125
222	0x3c443f48	0.011977978
223	0x3d11e183	0.035615455
224	0xbcdb07fe	-0.02673721
225	0xbe4392b3	-0.1909893
226	0x3c011a0a	0.007879743
227	0xbcc5097e	-0.024052378
228	0xbca66421	-0.020311417
229	0x3e3d257f	0.18471335
230	0xbe045400	-0.12922668
231	0x3e4ff178	0.20306957
232	0x3e0cf101	0.1376381
233	0x3e14b6a1	0.14522792
234	0xbe83313d	-0.25623503
235	0x3b327404	0.0027229795
236	0x3d0ce7f7	0.034400906
237	0x3de22620	0.11042428
238	0xbe14d64b	-0.14534871
239	0xbe6f22f5	-0.23353179
240	0xbe7ac60c	-0.24489611
241	0xbe13ea38	-0.14444816
242	0xbe438997	-0.19095455
243	0x3da5ebb6	0.08101599
244	0x3d8b43dc	0.068000525
245	0xbbd67eb8	-0.006545868
246	0xbdc4ebca	-0.09615286
247	0xbd8c38cc	-0.06846771
248	0x3e083685	0.13302048
249	0xbd0794c0	-0.033100843
250	0xbd97cab8	-0.074117124
251	0x3df7cdd8	0.120998085
252	0x3e448a3a	0.19193354
253	0x3dc52540	0.096262455
254	0xbdca2650	-0.09870589
255	0xbcfa7eb6	-0.030577999

conv1.bias f4 [32]
0	0x3e00684e	0.12539789
1	0x3e17db81	0.14829828
2	0xbe1d7ed8	-0.15380418
3	0x3e334e51	0.17510344
4	0xbe1cc9d1	-0.15311362
5	0xbe5a6004	-0.2132569
6	0x3e1ca6c6	0.15297994
7	0x3ddb8a47	0.10719734
8	0x3d9bb43c	0.07602736
9	0x3c22dfed	0.009941083
10	0x3e25b0a4	0.16180664
11	0xbddaa60f	-0.106762044
12	0x3dbe5a78	0.09294599
13	0x3e55e864	0.20889431
14	0xbd14f856	-0.036369644
15	0xbe6b55c8	-0.22981942
16	0xbd1f93ee	-0.038959436
17	0x3de8b743	0.113630794
18	0xbe2feaa1	-0.17179348
19	0xbdd37d23	-0.10326602
20	0x3df3719e	0.11886905
21	0x3c980db8	0.01856123
22	0x3df548f9	0.11976809
23	0x3ce2dc00	0.027692795
24	0x3e349999	0.17636718
25	0x3db4873f	0.08814859
26	0xbe21e18a	-0.15808693
27	0x3d662265	0.056185145
28	0x3d521825	0.051292557
29	0xbe6124fa	-0.21986762
30	0xbda5da28	-0.08098251
31	0x3c23fef0	0.010009512

conv2.weight f4 [64, 32, 3, 3]
0	0x3d13773d	0.036002386
1	0x3c424b88	0.011858828
2	0x3d0d0c4a	0.034435548
3	0x3d1019f0	0.035180986
4	0x3d444ed8	0.047926754
5	0xbc36bc3a	-0.011153275
6	0xbcde645c	-0.027147464
7	0xbd9b7a95	-0.0759174
8	0xbd4b8358	-0.049685806
9	0xbc85d737	-0.016337974
10	0xbc58f232	-0.013241338
11	0x3c1fa072	0.009742843
12	0x3d9f9d3f	0.07793664
13	0x3d4fd1b0	0.050737083
14	0x3d2b675b	0.041846614
15	0xbbb7b94b	-0.0056068054
16	0xbdf5ab20	-0.1199553
17	0xbd5cbe69	-0.053892527
18	0x3d2204e0	0.03955543
19	0x3d218b89	0.03943971
20	0xbd608199	-0.054811094
21	0xbd92e271	-0.071720965
22	0x3ba8290f	0.0051318477
23	0xbdd4304b	-0.10360774
24	0x3d9b4c37	0.07582896
25	0x3b9c133f	0.0047630365
26	0xbd1f3f70	-0.038878858
27	0x3d509345	0.050921697
28	0x3d396c2c	0.045269176
29	0x3d465e83	0.048429977
30	0xbd5419d3	-0.05178244
31	0x3d00689f	0.031349774
32	0xbd32bae0	-0.04363525
33	0xbc956ab8	-0.018239364
34	0xbc9aaf36	-0.018882375
35	0xbd007c9a	-0.03136883
36	0xbcbee491	-0.023302348
37	0x3bf69b2b	0.0075258217
38	0x3cff5b33	0.031171417
39	0x3cadf475	0.02123473
40	0x3d269ca8	0.040676743
41	0xbce68614	-0.028140105
42	0x3d58d7b6	0.052940093
43	0x3c776f9d	0.015102294
44	0x3d5e99c1	0.05434585
45	0xbc779c34	-0.015112925
46	0x3c2936ab	0.010327975
47	0xbd40bead	-0.047056843
48	0xbbb5a424	-0.0055432487
49	0x3d900164	0.07031515
50	0xbc248bf6	-0.010043135
51	0x3ca2822a	0.019837458
52	0x3d16b115	0.036789972
53	0xbacaf275	-0.0015483635
54	0x3c28742d	0.010281605
55	0x3d889a49	0.066700526
56	0xbc7f6275	-0.015587439
57	0x3c45d3fa	0.012074465
58	0xbd7096e2	-0.058737643
59	0xbd119c6d	-0.03554957
60	0xbd7f20be	-0.062287085
61	0xbc34e549	-0.011040994
62	0xbce0b5b7	-0.027430398
63	0x3cc72e13	0.024313962
64	0xbd27bd39	-0.04095194
65	0xbca5606f	-0.020187585
66	0x3d81c9d1	0.063373215
67	0xbd4502d2	-0.048098393
68	0x3dc3ac9e	0.095544085
69	0x3d130a27	0.035898354
70	0xbd15e8a8	-0.03659883
71	0x3d235405	0.03987505
72	0x3d124b72	0.03571648
73	0xbd6825fb	-0.056676846
74	0xbce4cdb7	-0.027930124
75	0x3b12e7ef	0.0022416075
76	0x3caa318d	0.02077558
77	0x3b5ac27a	0.0033380077
78	0x3c327835	0.010892917
79	0xbd35e016	-0.044403158
80	0x3bed3a83	0.007239641
81	0xbd17ba5c	-0.03704296
82	0xbd531252	-0.051531143
83	0xbca5c8e9	-0.020237403
84	0x3c2634e2	0.010144444
85	0x3d6d49f4	0.057931855
86	0x3d098ac7	0.033579614
87	0xbd3ffb76	-0.04687067
88	0xbcfbf8e4	-0.030758329
89	0xbd83cb09	-0.0643521
90	0x3d98b670	0.07456672
91	0xbc96d361	-0.01841134
92	0xbcda66b3	-0.026660299
93	0xbc752040	-0.014961302
94	0x3d5d5546	0.0540364
95	0xbc9fdf9b	-0.019515803
96	0xbd367644	-0.04454638
97	0xbd0d68c4	-0.03452374
98	0x3d2e9eaf	0.0426318
99	0xbc9f398d	-0.019436622
100	0x3c827c31	0.01592836
101	0x3cdeebcc	0.027212046
102	0xbd511439	-0.051044676
103	0x3b79c97a	0.0038114474
104	0x3d25ab19	0.040446375
105	0xbd16ed47	-0.03684738
106	0x3c62595e	0.013815252
107	0xbc3a7396	-0.011380097
108	0xbd916aea	-0.0710047
109	0xbd11134a	-0.035418786
110	0xbbabc475	-0.0052419254
111	0xbd1eb0c1	-0.038742784
112	0x3c13559c	0.008992579
113	0xbc3d2298	-0.011543892
114	0x3ccdc988	0.025120512
115	0xbd169c14	-0.03676994
116	0x3cea145d	0.028574163
117	0x3c82b351	0.015954645
118	0x3ce795e3	0.028269714
119	0xbc08d6d5	-0.008352001
120	0x3cac488c	0.021030687
121	0x3cb29681	0.021800281
122	0x3d1ae53c	0.03781627
123	0xbbde795a	-0.0067893686
124	0x3d1c148f	0.038105544
125	0xbcc45728	-0.02396734
126	0xbd0be491	-0.034153525
127	0x3cab8fb5	0.020942548
128	0xbceaaccd	-0.028646851
129	0x3c386126	0.011253631
130	0xbd87f569	-0.06638605
131	0x3d2adc41	0.041713957
132	0x3ca6eacd	0.020375634
133	0xbb46bf6e	-0.0030326503
134	0x3cb733a8	0.022363499
135	0x3d07dab3	0.033167552
136	0x3a960823	0.0011446517
137	0x3d291b8a	0.04128603
138	0x3b9094b2	0.004412257
139	0x3d36f463	0.04466666
140	0x3d61a4f3	0.05508895
141	0xbd705a3f	-0.058679815
142	0xbc186d13	-0.009303349
143	0xbae33dce	-0.0017337145
144	0x3d26ec1c	0.040752515
145	0xbc4f8498	-0.01266589
146	0xbce84bd7	-0.028356476
147	0x3ca399b0	0.019970745
148	0xbca383b9	-0.019960271
149	0x3c8b087a	0.016971815
150	0xbd4669c2	-0.048440702
151	0xbd817531	-0.063211806
152	0x3d35e7dc	0.04441057
153	0xbd23135e	-0.039813392
154	0xbd940eba	-0.07229371
155	0xbc95a556	-0.018267315
156	0xbc8ac5e0	-0.016940057
157	0x3dff3d26	0.12462835
158	0xbceada67	-0.028668595
159	0x3cbdedf4	0.023184754
160	0xbc654bda	-0.013995135
161	0x3db6c1c5	0.08923677
162	0xbc0a94ec	-0.008458357
163	0x3c5aca31	0.01335387
164	0xbcfc667a	-0.030810583
165	0xbd513751	-0.051078144
166	0xb9a497ce	-0.0003139362
167	0x3bab064d	0.005219257
168	0x3a220c7d	0.00061816705
169	0xbb2be1af	-0.0026227047
170	0x3cb55175	0.022133568
171	0xbb823f5c	-0.003974838
172	0xbca2ebfe	-0.01988792
173	0x3cffdf25	0.031234333
174	0x3c1a572c	0.009420197
175	0x3deb2100	0.114809036
176	0xbbe44c58	-0.0069671087
177	0xbc79e9ff	-0.015253543
178	0xbca90f7c	-0.020637266
179	0x3b5d2d8a	0.0033749067
180	0x3c1e2c9e	0.009654192
181	0x3cd39527	0.025827957
182	0xbcb3072c	-0.021854006
183	0xbd891114	-0.066927105
184	0x3c177b54	0.009245712
185	0x3d2c4f46	0.04206779
186	0xbd938c80	-0.072045326
187	0xbc0f2d2f	-0.0087388
188	0xbb864e19	-0.0040986654
189	0x3cdb9971	0.026806565
190	0xbd14234d	-0.036166478
191	0x3d8ee1ea	0.069766834
192	0x3d0c1593	0.034200262
193	0x3bdb20db	0.0066872663
194	0xbc9f9fcf	-0.019485382
195	0xbd9a69ac	-0.075396866
196	0x3dab44dd	0.08362744
197	0xbdd424d3	-0.10358586
198	0x3d2e2863	0.042518985
199	0x3bb64e25	0.005563515
200	0xbc55a80d	-0.013040555
201	0x3d6455f3	0.05574603
202	0x3d303bd1	0.043025795
203	0xbce73448	-0.028223172
204	0xbc8a7e37	-0.016905887
205	0x3c4314f5	0.011906852
206	0xbc6aa552	-0.014321642
207	0xbd5a5d5c	-0.05331169
208	0xbcd204a4	-0.025636978
209	0xbdee12f7	-0.11624711
210	0xbcc87338	-0.024469003
211	0xbd0f8a0f	-0.035043772
212	0xbc8ef0e4	-0.01744885
213	0x3bdf23fd	0.00680971
214	0x3ca9ff35	0.020751575
215	0x3c22f434	0.009945918
216	0xbd569880	-0.05239153
217	0xbb183240	-0.002322331
218	0xbcd73bdd	-0.026273662
219	0x3d00e60d	0.031469394
220	0xbcb96e49	-0.022635596
221	0xbb2f125a	-0.002671382
222	0xbce76faa	-0.028251488
223	0x3cc75c09	0.024335878
224	0x3bba08af	0.0056773047
225	0x3a007986	0.0004900921
226	0x3c5864bd	0.013207612
227	0xbd79a49f	-0.06094801
228	0xbd5ce03e	-0.05392479
229	0x3ba5e1d5	0.0050623217
230	0xbd70e8ed	-0.058815885
231	0xbce105f6	-0.027468663
232	0x3d2ca91a	0.042153455
233	0x3d3ad4c7	0.045613077
234	0xbdf716ba	-0.120648816
235	0x3dbce9fb	0.09224316
236	0xbcb7428a	-0.022370595
237	0x3d13cc9c	0.036083803
238	0xbcbe0c7d	-0.023199314
239	0xbc663ee8	-0.014053084
240	0x3c6885f8	0.014192097
241	0x3d4a3238	0.0493643
242	0xbd8197c0	-0.06327772
243	0xbb384de8	-0.0028122608
244	0xbd317dde	-0.043332927
245	0xbda854d6	-0.08219306
246	0x3d3dad0b	0.046307605
247	0x3da4e701	0.08051873
248	0x3c4de32a	0.012566367
249	0x3c27843c	0.010224398
250	0x3c777f85	0.015106087
251	0xbbd04411	-0.0063557704
252	0xbcadc0ef	-0.021210162
253	0xbc374395	-0.011185546
254	0x393c26ef	0.00017943581
255	0xbc4091c7	-0.011753506

conv2.bias f4 [64]
0	0xbd378504	-0.044804588
1	0xbcd63036	-0.026146036
2	0x3d661dcd	0.056180764
3	0x3d017b2d	0.03161161
4	0x3cc3acac	0.023886047
5	0x3cfb265a	0.030657936
6	0x3b404538	0.0029338133
7	0x3baf9ed4	0.00535951
8	0x3d7c4a4d	0.061594296
9	0xbd39dedd	-0.045378555
10	0xbd281f1f	-0.041045304
11	0x3d51ebf7	0.051250424
12	0x3ca691f4	0.020333268
13	0x3d502a77	0.050821748
14	0xbd64ae49	-0.055830274
15	0xbcab37d7	-0.02090065
16	0x3ce7803f	0.028259395
17	0xbd5e2eaf	-0.05424374
18	0x3c2ce0aa	0.010551611
19	0x3d497ef1	0.049193326
20	0xbd21d123	-0.03950609
21	0xbd2eb4c9	-0.04265288
22	0x3d16b025	0.03678908
23	0xbc066726	-0.008203303
24	0xbd28e70e	-0.041235976
25	0x3d273575	0.040822465
26	0x3d0f22b4	0.034945205
27	0x3d0d077e	0.034430973
28	0x3cb3a9d4	0.021931566
29	0x3d0013d3	0.031268906
30	0x3b199fca	0.002344119
31	0xbc1a113f	-0.009403526
32	0xbd31ab9e	-0.043376558
33	0xbcdd8068	-0.027038768
34	0x3c8d09f7	0.017216666
35	0xbd3ac1e3	-0.04559506
36	0xbba6dd71	-0.005092316
37	0x3d2a1f4c	0.041533753
38	0xbd20058e	-0.039067797
39	0xbd65256a	-0.055943884
40	0x3ce024b3	0.02736125
41	0xbd11537d	-0.03548001
42	0xbd288170	-0.041139066
43	0x3d36eb18	0.044657797
44	0xbb4bafdb	-0.003108016
45	0xbb794e4e	-0.0038041058
46	0xbcdde064	-0.027084537
47	0x3d4ef122	0.05052293
48	0xbd15bf06	-0.036559127
49	0xbc5a9cd0	-0.013343051
50	0xbd04abd3	-0.032390427
51	0xbd3bfa94	-0.045893267
52	0x3b11ebfc	0.0022265902
53	0x3d53062f	0.05151957
54	0xb965959d	-0.00021894877
55	0x3cbfb992	0.023403917
56	0xbc7a3fca	-0.015273998
57	0xbd2a48dd	-0.041573394
58	0xbcd61c79	-0.026136624
59	0xbd2ee858	-0.04270205
60	0x3d11f509	0.035634074
61	0x3d2852d0	0.0410946
62	0xbd443d11	-0.0479098
63	0xbc977c80	-0.018491983

bn1.weight f4 [32]
0	0x3f7d63eb	0.9898059
1	0x3f8a504d	1.0805756
2	0x3f80f368	1.0074282
3	0x3f85dabf	1.0457381
4	0x3f878923	1.0588726
5	0x3f8131d4	1.0093331
6	0x3f6be4c1	0.92145926
7	0x3f64e35c	0.8940942
8	0x3f84a36a	1.036237
9	0x3f83cd92	1.029711
10	0x3f822e2f	1.0170344
11	0x3f66a2ca	0.90092146
12	0x3f6660c2	0.8999139
13	0x3f8c20e5	1.0947539
14	0x3f830892	1.023699
15	0x3f7f5a47	0.9974713
16	0x3f6af20e	0.91775596
17	0x3f88c452	1.0684912
18	0x3f6cafe2	0.92455876
19	0x3f6e3fc4	0.9306605
20	0x3f731bb1	0.9496413
21	0x3f6e3c48	0.9306073
22	0x3f67ac76	0.9049753
23	0x3f81ad0c	1.0130935
24	0x3f8d8270	1.1055431
25	0x3f8c3122	1.0952494
26	0x3f88ff56	1.0702922
27	0x3f7ec65a	0.9952141
28	0x3f89115d	1.0708424
29	0x3f77564e	0.96616066
30	0x3f8170cc	1.0112548
31	0x3f73487e	0.9503249

bn1.bias f4 [32]
0	0x3d4dbedf	0.050230857
1	0x3e131ebe	0.14367196
2	0x3cad50fe	0.021156784
3	0x3deae58c	0.11469564
4	0x3dcaa934	0.09895554
5	0x3d010538	0.031499118
6	0xbdfa8fc3	-0.122344516
7	0xbe090cc8	-0.13383782
8	0x3cf0a911	0.029377492
9	0xbdcc8a26	-0.09987287
10	0x3a1f46ac	0.00060758996
11	0xbd990046	-0.07470755
12	0xbcd7ba2e	-0.026333895
13	0x3e10defe	0.14147565
14	0x3d800562	0.06251027
15	0x3d338d5b	0.04383598
16	0xbdeec315	-0.11658303
17	0x3ddc8566	0.10767631
18	0x3d02ea05	0.03196146
19	0xbcca5010	-0.02469638
20	0xbd249ca5	-0.04018845
21	0x3ac71095	0.0015187437
22	0xbddbc3a6	-0.10730676
23	0xbd3cc925	-0.046090264
24	0x3e35e727	0.17763959
25	0x3d8bd1c9	0.06827123
26	0xbcd528b0	-0.026020378
27	0x3d9c3813	0.07627883
28	0x3d6634df	0.056202766
29	0xbc3ab7da	-0.011396373
30	0x3dd8d8b4	0.10588208
31	0xbdb89e29	-0.09014542

bn1.running_mean f4 [32]
0	0x3e153e47	0.14574538
1	0xbc36720c	-0.011135589
2	0xbe4758ac	-0.1946742
3	0x3d782ee0	0.06059158
4	0xbe5f0b43	-0.2178164
5	0xbe7a4cdc	-0.24443382
6	0x3e83a9bd	0.25715438
7	0x3e195227	0.14972745
8	0x3c46d61b	0.012136008
9	0x3de3f381	0.11130429
10	0x3e380a3a	0.17972651
11	0xbda2c8de	-0.079484686
12	0x3dcf0d2f	0.101099364
13	0x3dd3dc9f	0.103448145
14	0xbd5ef0b0	-0.054428756
15	0xbe91726e	-0.28407615
16	0x3caffd9b	0.021483233
17	0xbbc96047	-0.0061455104
18	0xbe513307	-0.20429622
19	0xbde5477c	-0.11195275
20	0x3dd05cf6	0.10173981
21	0x3d4fdc8d	0.050747443
22	0x3e1ff535	0.15620883
23	0x3e1697d5	0.14706357
24	0x3d911463	0.070839666
25	0x3cab78cc	0.020931624
26	0xbe226e4b	-0.15862386
27	0x3d6da063	0.058014285
28	0x3bd67cf3	0.006545657
29	0xbe5443ca	-0.20728984
30	0xbe409ac7	-0.18809043
31	0x3c98a50d	0.01863339

bn1.running_var f4 [32]
0	0x3c827c76	0.015928488
1	0x3d13073e	0.03589558
2	0x3c99a0ff	0.018753527
3	0x3cd8f487	0.026483787
4	0x3c298862	0.010347458
5	0x3c8a48f1	0.016880484
6	0x3ce7a3ae	0.02827629
7	0x3c1503dd	0.009095159
8	0x3ccb7499	0.024835872
9	0x3c700dd9	0.014651739
10	0x3c8e45fc	0.017367356
11	0x3cb3189a	0.021862317
12	0x3c683752	0.014173346
13	0x3cd36201	0.025803568
14	0x3c7ec10e	0.0155489575
15	0x3cb888af	0.022526113
16	0x3c862ed3	0.01637975
17	0x3d0d4936	0.034493648
18	0x3cb89e72	0.02253649
19	0x3ce9238e	0.028459337
20	0x3caaa848	0.020832196
21	0x3cd035bd	0.02541625
22	0x3c75cdec	0.015002709
23	0x3ca6dd71	0.020369263
24	0x3cd4bb3e	0.02596819
25	0x3cb485f7	0.022036536
26	0x3c97a8a6	0.018513035
27	0x3c7cb56d	0.015424115
28	0x3c89ca22	0.016820017
29	0x3cb53e8c	0.022124551
30	0x3cc1e696	0.023669522
31	0x3c96bec9	0.01840152

bn2.weight f4 [64]
0	0x3f8b0de9	1.086362
1	0x3f944e07	1.1586312
2	0x3f9b6f2f	1.2143306
3	0x3f8ef46f	1.1168345
4	0x3f94070d	1.1564652
5	0x3f91351a	1.134433
6	0x3f9d6273	1.2295669
7	0x3f77f756	0.9686178
8	0x3f888401	1.0665284
9	0x3f928d0e	1.1449296
10	0x3f94ea35	1.1633974
11	0x3f8d7133	1.1050171
12	0x3f824427	1.0177048
13	0x3f981551	1.1881505
14	0x3fb6bfae	1.4277246
15	0x3fa3c2bf	1.2793807
16	0x3f96dcd1	1.1786138
17	0x3f8f3a47	1.118966
18	0x3f8f5141	1.1196672
19	0x3fab0523	1.3360943
20	0x3f82e3c7	1.0225762
21	0x3fa14341	1.2598649
22	0x3fa1a663	1.2628902
23	0x3f972d73	1.1810745
24	0x3f8fe963	1.1243099
25	0x3f85e31a	1.0459931
26	0x3f8d1b3d	1.1023937
27	0x3f899e07	1.0751351
28	0x3fa6b49e	1.302387
29	0x3f98c7c7	1.1935967
30	0x3fab1cb3	1.3368133
31	0x3f9fe5e9	1.2492038
32	0x3fa22fc2	1.2670825
33	0x3f98d734	1.1940675
34	0x3f86699a	1.0500977
35	0x3f9e2ccd	1.2357422
36	0x3fb83886	1.439225
37	0x3f9c7c4e	1.2225435
38	0x3f8dcaa8	1.1077471
39	0x3f9943f4	1.1973863
40	0x3f952e0e	1.165468
41	0x3f914604	1.1349492
42	0x3fa9dc79	1.3270408
43	0x3f8f3977	1.1189412
44	0x3f9bbd9b	1.2167238
45	0x3f91461a	1.1349518
46	0x3f89b51f	1.0758399
47	0x3fac7890	1.3474293
48	0x3f94ee7d	1.1635281
49	0x3f8b8558	1.0900068
50	0x3f87bc0b	1.0604261
51	0x3f954edf	1.1664695
52	0x3f94c0fe	1.1621397
53	0x3f9a5306	1.2056587
54	0x3f967f21	1.1757547
55	0x3fa4d3d2	1.2877142
56	0x3f9205dd	1.1408039
57	0x3fb3fb60	1.4061089
58	0x3f98324d	1.189035
59	0x3f912068	1.1338015
60	0x3f9678ff	1.1755675
61	0x3f9526c6	1.1652458
62	0x3f9cf19a	1.2261231
63	0x3f98be84	1.1933141

bn2.bias f4 [64]
0	0xbe9e0133	-0.3086029
1	0xbdfc092e	-0.123064384
2	0xbe723256	-0.23652014
3	0xbe6e51d1	-0.23273398
4	0xbe668e9a	-0.22515336
5	0xbedb09f6	-0.42781037
6	0x3d474247	0.04864719
7	0xbeb86d4f	-0.36020896
8	0xbe9ba452	-0.30398804
9	0xbe3ea9e1	-0.18619491
10	0x3ae0149f	0.0017095989
11	0xbe37b53e	-0.17940232
12	0xbeca3d1c	-0.39499748
13	0xbe3f8325	-0.18702371
14	0xbdbd05f1	-0.09229649
15	0xbd03a7bd	-0.03214239
16	0xbd2663d3	-0.040622544
17	0xbe835104	-0.25647748
18	0xbe0c80c7	-0.13721
19	0x3d8d530d	0.06900606
20	0xbe2bb8d6	-0.16769728
21	0xbda54723	-0.08070209
22	0xbb8103ee	-0.003937236
23	0xbbf57e37	-0.0074918526
24	0xbd371d22	-0.044705518
25	0xbe32a777	-0.17446695
26	0xbe144569	-0.14479603
27	0xbe6db45a	-0.2321333
28	0xbe5f4a8f	-0.21805786
29	0xbddfb072	-0.10922326
30	0x3dabca83	0.083882354
31	0xbdac0dc6	-0.084010646
32	0x3d54cead	0.051954914
33	0xbea9e8ac	-0.33185327
34	0xbe365dbd	-0.17809196
35	0xbd8b33a7	-0.06796961
36	0xbcbe267a	-0.023211706
37	0xbe2a7c2d	-0.16648932
38	0xbe1edd84	-0.15514189
39	0xbe1bf432	-0.15229872
40	0xbb41ed8a	-0.0029591047
41	0xbe293a2f	-0.16526102
42	0x3d3c15a8	0.04591909
43	0xbe7bda18	-0.24594915
44	0xbd3fc7d6	-0.046821438
45	0xbeb01fa9	-0.34399155
46	0xbe594d38	-0.21220863
47	0xbe3ef050	-0.1864636
48	0xbe325216	-0.17414126
49	0xbeb1f976	-0.34760636
50	0xbe444621	-0.19167377
51	0xbe9b3303	-0.30312356
52	0xbdd7bb3f	-0.10533761
53	0xbdbc56c6	-0.09196238
54	0xbd97506f	-0.07388388
55	0x3d785603	0.060628902
56	0xbea0b084	-0.3138467
57	0xbc8e6ace	-0.017384913
58	0xbe76e068	-0.24109042
59	0xbe859770	-0.260921
60	0xbe94268c	-0.2893566
61	0xbd3f2033	-0.046661567
62	0xbddf668a	-0.1090823
63	0xbe831263	-0.25599965

bn2.running_mean f4 [64]
0	0xbcb10b57	-0.021611853
1	0x3e415cd4	0.18883067
2	0xbe31462f	-0.17311929
3	0x3e2a4252	0.16626862
4	0xbd651c1d	-0.055935014
5	0xbdefd643	-0.11710789
6	0xbee62168	-0.44947362
7	0xbc6e12f4	-0.014530886
8	0xbea485c9	-0.3213332
9	0xbd792281	-0.06082392
10	0xbd8eaad8	-0.069661796
11	0x3d937a00	0.07201004
12	0xbddae4bc	-0.10688159
13	0xbed73284	-0.42030728
14	0xbf2dbbcc	-0.6786468
15	0xbe146fcf	-0.14495777
16	0xbe0e65e7	-0.1390606
17	0xbe3215f3	-0.17391185
18	0xbe8d3780	-0.27581406
19	0xbe9e372f	-0.30901477
20	0xbec622c0	-0.38698387
21	0xbeb01adc	-0.34395492
22	0xbeaabe5e	-0.33348364
23	0xbe6fd398	-0.2342056
24	0xbeca44ca	-0.39505607
25	0x3d86d1c2	0.06582977
26	0xbe7e35e2	-0.24825242
27	0xbdfee08f	-0.12445175
28	0x3e8a6fd6	0.2703845
29	0xbeca5626	-0.3951885
30	0xbf23f2a6	-0.6404213
31	0xbe35ab43	-0.17741112
32	0xbf1d5148	-0.6145215
33	0x3e16bd0c	0.14720553
34	0xbea00151	-0.31251004
35	0xbee196f2	-0.44060475
36	0xbf060b87	-0.5236134
37	0xbd81a298	-0.063298404
38	0x3e876f89	0.26452282
39	0xbee0f7ec	-0.4393915
40	0xbf27bf12	-0.65525925
41	0xbe80b34c	-0.25136793
42	0xbf0b67f0	-0.5445547
43	0xbec5f282	-0.3866158
44	0xbe298162	-0.16553262
45	0x3df644e8	0.120248616
46	0xbe7001bb	-0.2343816
47	0xbf76a7af	-0.96349615
48	0xbe6be90e	-0.23038122
49	0x3e0b8ddf	0.13628338
50	0x3e1fc0fe	0.15600964
51	0xbeedc5cd	-0.46439973
52	0xbc1e3f53	-0.009658652
53	0xbe0bf529	-0.1366774
54	0x3e85eecb	0.26158747
55	0xbc151c1d	-0.009100941
56	0xbe2d8067	-0.16943513
57	0xbf613f5f	-0.8798732
58	0x3db60825	0.08888272
59	0xbe8343c1	-0.2563763
60	0xbea71e15	-0.32640138
61	0xbdec01ef	-0.11523806
62	0x3d360db3	0.04444666
63	0xbe962a94	-0.2932936

bn2.running_var f4 [64]
0	0x3d8cbb59	0.06871671
1	0x3e49f0ad	0.19720717
2	0x3dd051f1	0.10171879
3	0x3dae7467	0.08518296
4	0x3e1edc2f	0.15513681
5	0x3de4fa81	0.11180592
6	0x3e095765	0.13412245
7	0x3da6fdcf	0.08153879
8	0x3df991bb	0.12185999
9	0x3dd03619	0.10166568
10	0x3e093b80	0.13401604
11	0x3e05b747	0.13058196
12	0x3dcab037	0.098968916
13	0x3de1f342	0.11032726
14	0x3dc4b935	0.09605638
15	0x3def7500	0.11692238
16	0x3dd66a31	0.10469473
17	0x3dabf551	0.083964
18	0x3dc535e1	0.09629417
19	0x3e564088	0.20923054
20	0x3df2d826	0.11857633
21	0x3e129632	0.14315107
22	0x3e754b9f	0.23954628
23	0x3dfb5666	0.122723386
24	0x3dcc3a20	0.09972024
25	0x3e2bb1ce	0.16767046
26	0x3dbb4a1d	0.09144995
27	0x3ddd2f28	0.1080001
28	0x3e23a22f	0.15979837
29	0x3e075c80	0.1321888
30	0x3e327091	0.17425753
31	0x3e079170	0.13239074
32	0x3e863155	0.26209512
33	0x3e1426a1	0.14467861
34	0x3de9b469	0.11411364
35	0x3df96eab	0.12179311
36	0x3dcaff34	0.099119574
37	0x3dee4118	0.116335094
38	0x3e605544	0.21907526
39	0x3dd76129	0.10516579
40	0x3e0bc868	0.13650668
41	0x3e1f5436	0.15559468
42	0x3e27cead	0.16387434
43	0x3dcc3b69	0.09972269
44	0x3e3fe51f	0.18739747
45	0x3d8da82a	0.069168404
46	0x3d9c9345	0.07645277
47	0x3e2ecb29	0.17069687
48	0x3dbbd12c	0.09170756
49	0x3dbf4824	0.093399316
50	0x3e0dc770	0.1384561
51	0x3d7d3eed	0.06182759
52	0x3e18e916	0.14932665
53	0x3dcfe7fc	0.101516694
54	0x3e3e5f82	0.18591121
55	0x3dcf5bf6	0.10124962
56	0x3e0d872a	0.13821092
57	0x3e238fb5	0.15972789
58	0x3e122ed8	0.14275682
59	0x3ded04f8	0.11573213
60	0x3e01b37d	0.12666126
61	0x3e435348	0.19074738
62	0x3e19a3fa	0.15003958
63	0x3da57abb	0.080800496

output_conv.weight f4 [8, 64, 1, 1]
0	0x3ddc66e7	0.107618146
1	0x3ce7a6bc	0.028277747
2	0x3d8eb0bf	0.069673054
3	0x3d7aed14	0.06126125
4	0x3da8376c	0.08213696
5	0xbd0d7da0	-0.034543633
6	0x3da58e3c	0.0808377
7	0xbd85cbf0	-0.065330386
8	0x3e2ff4da	0.17183247
9	0x3ca5df39	0.020248042
10	0xbcea5973	-0.028607106
11	0x3dde5999	0.10856933
12	0x3d2dec59	0.042461727
13	0x3dda497a	0.10658546
14	0x3e438020	0.19091845
15	0x3dfc2560	0.12311816
16	0x3c414c35	0.011797954
17	0x3d88ec2a	0.0668567
18	0x3d812ee4	0.06307772
19	0x3dd49abf	0.10381078
20	0xbe203c66	-0.1564804
21	0x3d75fbf2	0.060054727
22	0xbc8d0495	-0.017214099
23	0x3dbee6f8	0.093213975
24	0xbdc5e85a	-0.09663458
25	0x3d005e77	0.03134009
26	0x3d47d258	0.048784584
27	0x3dceeccb	0.101037584
28	0xbf0ba5b2	-0.54549706
29	0x3dcb438c	0.09924993
30	0x3da364da	0.0797822
31	0x3dab3157	0.0835902
32	0x3d749f14	0.05972202
33	0x3d780148	0.060548097
34	0xbbc5615f	-0.0060235704
35	0x3b4923c0	0.0030691475
36	0x3dbedc4a	0.093193606
37	0x3d4bd9a1	0.049768094
38	0xbea17d99	-0.31541136
39	0x3dd0e9cc	0.10200843
40	0x3e099ec9	0.13439478
41	0x3d94c0fd	0.07263372
42	0x3e0108e1	0.12601043
43	0x3e479a27	0.19492398
44	0x3cfe5437	0.031046016
45	0xbdb45b2b	-0.088064514
46	0xbb41be07	-0.0029562728
47	0x3deac97a	0.1146421
48	0x3e0133db	0.12617438
49	0x3ddefe8c	0.10888395
50	0xbede8de6	-0.43467635
51	0x3c3da3be	0.011574684
52	0x3d3d431c	0.04620658
53	0x3daea2fb	0.0852718
54	0xbe8fb5be	-0.28068346
55	0x3d9a6e03	0.07540514
56	0xbdbf8ab7	-0.0935263
57	0x3e001cc3	0.12510972
58	0x3e3c2244	0.18372446
59	0xbd96dfae	-0.07366882
60	0x3e1d8b07	0.15385066
61	0xbe1267d6	-0.14297423
62	0x3cde5ccc	0.027143858
63	0x3d17ea37	0.0370886
64	0xbe5f42fb	-0.21802895
65	0xbaba0f23	-0.0014195185
66	0x3c90246e	0.017595496
67	0x3d77043b	0.06030677
68	0x3a15dd05	0.00057168334
69	0x3e06ebc2	0.13175872
70	0x3d8926e6	0.066968724
71	0xbdaf3748	-0.08555466
72	0x3ce40744	0.027835496
73	0x3d7ca7e4	0.06168355
74	0x3c475ee8	0.0121686235
75	0x3df372b0	0.11887109
76	0x3e11b7a9	0.14230217
77	0xbe76c542	-0.24098685
78	0x3dfcf82e	0.12352024
79	0xbcc07bcb	-0.02349653
80	0x3d9b938c	0.07596502
81	0xbdf80982	-0.121111885
82	0x3e10a399	0.14124908
83	0x3cbdb43f	0.023157237
84	0x3da7c162	0.08191182
85	0x3dd6c0ea	0.10486014
86	0x3d050987	0.03247979
87	0xbdc8bb3a	-0.09801336
88	0x3ccb4e08	0.024817482
89	0xbe916118	-0.2839439
90	0x3d9fef2c	0.0780929
91	0x3e2aebb1	0.16691472
92	0x3d5772c4	0.052599683
93	0xbe634207	-0.22193156
94	0xbce9a5ce	-0.028521445
95	0x3dd6c657	0.10487049
96	0x3d3e8e45	0.046522398
97	0xbeac0cb9	-0.33603457
98	0x3dd16ad0	0.10225451
99	0x3ce69970	0.028149337
100	0x3dcfd395	0.10147778
101	0x3e1a92e7	0.15095101
102	0xbde66373	-0.11249437
103	0x3d0b6f7c	0.034041867
104	0xbda22adb	-0.0791833
105	0x3cba6830	0.022754759
106	0x3e05521d	0.13019605
107	0x3cb46c1f	0.022024212
108	0x3d94e1e8	0.07269651
109	0x3e072c77	0.13200556
110	0x3c708e84	0.014682416
111	0x3dc3f832	0.09568824
112	0xbeaf1786	-0.34197634
113	0x3d608f5b	0.054824214
114	0xbde3b40d	-0.11118326
115	0x3e25fe4d	0.1621029
116	0x3d522bf3	0.051311444
117	0x3e03d193	0.12872915
118	0x3d3332a1	0.043749455
119	0xbd1566a8	-0.036474854
120	0xbeae3aee	-0.34029335
121	0x3d8ec6b7	0.069714956
122	0xbe81a490	-0.25320864
123	0x3cfa185b	0.030529192
124	0xbea736bc	-0.32658947
125	0x3d18fa90	0.03734833
126	0x3dc99576	0.098429605
127	0x3d8f8ec7	0.070096545
128	0x3debd3f8	0.11515039
129	0x3c6bad26	0.0143845435
130	0xbe904d51	-0.28183988
131	0x3d0ea6d5	0.034827072
132	0xbe9e2a9a	-0.30891877
133	0x3d0a2687	0.03372815
134	0x3e143185	0.14472015
135	0x3d9913d7	0.07474487
136	0xbdb0af70	-0.08627212
137	0xbe3b6243	-0.18299203
138	0x3cf529ff	0.029927252
139	0x3cfab5b6	0.030604225
140	0xbe20a24c	-0.15686911
141	0x3e070576	0.13185677
142	0x3de50844	0.11183217
143	0x3d953e7d	0.07287309
144	0x3dc6ec1f	0.09713005
145	0x3dfbc829	0.12294037
146	0x3df2370a	0.11826904
147	0x3d16059a	0.036626436
148	0xbe224d58	-0.15849817
149	0x3d41cd7f	0.047315117
150	0x3d13242b	0.035923164
151	0x3df6ff06	0.120603606
152	0xbde889fa	-0.11354442
153	0xbd0028ef	-0.031289037
154	0xbd49d8d9	-0.049279068
155	0xbda9b385	-0.08286194
156	0x3d2cffd7	0.042236175
157	0x3da10832	0.07862891
158	0x3dc4ad78	0.09603399
159	0x3de38480	0.11109257
160	0x3daf3c82	0.08556463
161	0xbd36aae2	-0.04459656
162	0x3d45ab8d	0.048259307
163	0xbe14846f	-0.14503644
164	0x3d5d0e81	0.05396891
165	0x3dabd21b	0.08389684
166	0xbce1b0bd	-0.027550096
167	0x3c2ea04e	0.010658337
168	0x3d8ff759	0.070296
169	0xbdf39a21	-0.11894632
170	0x3e0cf4d4	0.1376527
171	0xbcecda8a	-0.028912801
172	0x3dbeccef	0.09316432
173	0x3da50631	0.080578215
174	0xbe187a7a	-0.14890471
175	0x3d7f4447	0.062320974
176	0x3dfa2fbf	0.12216138
177	0xbe63b790	-0.22237992
178	0xbcde8d8b	-0.027167102
179	0x3cf28103	0.029602533
180	0x3de6ea8a	0.112752035
181	0x3e0f25b4	0.13979226
182	0x3bdd8816	0.0067606075
183	0x3d4799fd	0.04873084
184	0x3e1360a4	0.14392334
185	0x3e05200e	0.13000509
186	0xbceb936a	-0.028756816
187	0xbe818169	-0.25294045
188	0x3d930936	0.07179491
189	0xbe287358	-0.1645025
190	0x3c7db356	0.015484652
191	0xbeafb582	-0.34318167
192	0xbdfdbe23	-0.12389781
193	0x3ce7e4e2	0.028307382
194	0xbe226d0e	-0.15861914
195	0xbe10a092	-0.14123753
196	0x3d8212cc	0.063512415
197	0x3e1d3a03	0.15354161
198	0x3e16de62	0.1473327
199	0xbe7c4ed5	-0.24639447
200	0x3e5e0de8	0.21684992
201	0xbe803cea	-0.25046474
202	0x3d207e8a	0.039183177
203	0xbe57f12e	-0.21088096
204	0x3c9c636a	0.019090373
205	0x3d97d926	0.07414465
206	0x3e472690	0.19448304
207	0x3d98f886	0.07469277
208	0x3d52271c	0.05130683
209	0x3e4135d6	0.18868193
210	0xbd484bed	-0.048900533
211	0x3d83905a	0.06424017
212	0xbe7ec4de	-0.24879786
213	0x3df8549e	0.121255144
214	0x3ca548ab	0.020176252
215	0x3dffb13e	0.12484978
216	0xbca2e2ba	-0.019883502
217	0xbc853894	-0.01626233
218	0x3d851811	0.06498731
219	0xbea9e8ef	-0.33185527
220	0xbd9f67b2	-0.0778345
221	0x3dd0662a	0.10175736
222	0x3d9533f4	0.072853
223	0x3df0eba4	0.11763695
224	0x3dad6b7b	0.08467766
225	0x3c1b2222	0.009468587
226	0xbd5aebc2	-0.053447492
227	0xbe30d532	-0.17268828
228	0x3da7f62d	0.08201251
229	0x3e02cd35	0.12773593
230	0xbe9639d4	-0.29340994
231	0x3ddfccaa	0.109277084
232	0x3dd8cfcf	0.10586511
233	0xbe86d0fd	-0.2633132
234	0x3e11dd3e	0.14244553
235	0x3dfdc12f	0.123903625
236	0x3d817cdd	0.06322644
237	0xbedebb1f	-0.43502137
238	0xbdaf14b4	-0.08548871
239	0x3e1e5519	0.1546215
240	0x3dc6fb33	0.09715881
241	0xbc47aa64	-0.01218662
242	0x3c436199	0.011925125
243	0x3e308efc	0.17242044
244	0x3dc18cda	0.094506934
245	0x3d13e987	0.03611138
246	0xbe854fa3	-0.2603732
247	0x3d1e23cf	0.03860837
248	0xbe0636dc	-0.13106865
249	0x3e256b32	0.16154173
250	0xbe7a9737	-0.24471746
251	0x3e209314	0.15681106
252	0x3e188410	0.14894128
253	0xbd76b166	-0.060227774
254	0xbec20cf8	-0.3790052
255	0x3cd1c4c6	0.025606524

output_conv.bias f4 [8]
0	0xbe79d3fe	-0.24397275
1	0x3e2c1de4	0.16808277
2	0x3afa714c	0.0019107251
3	0xbe1e1764	-0.1543861
4	0x3c26b46e	0.010174854
5	0xbdb24183	-0.087039016
6	0x3d33e092	0.04391534
7	0x3e72d67b	0.2371463
