training/trained_models/model_standard_infra.pth (torch, 85098 bytes, 14 tensors)

conv1.weight f4 [32, 2, 3, 3]
000000 c4 85 4b 3d 53 fe 9b 3d ec d4 1c be e6 ac 38 be
       0.049688116 0.07616868 -0.15315598 -0.18034706
000010 09 60 4c be 69 fc 32 be 6e c1 60 be 88 bc 3f be
       -0.1995851 -0.174791 -0.21948788 -0.18724263
000020 ca 43 74 3e 75 67 d6 3d c1 be 8f bd 2a 8a 52 3d
       0.23853984 0.104689516 -0.07018805 0.051401295
000030 6f 04 e0 bd ab 20 c9 bb 52 1b 43 3d 5b b0 e0 bb
       -0.10938346 -0.0061379275 0.047633477 -0.0068569607
000040 a2 be 99 be 73 ed 54 bd 5a 7e b2 3d 8b a3 00 bc
       -0.30028254 -0.05198426 0.08715506 -0.007851492
000050 b6 7c 70 3e a8 bd 55 be 7e e0 83 3d 4a ef 3c 3e
       0.23485073 -0.2087313 0.06439303 0.18450657
000060 17 92 cd 3d c4 f7 2d 3e 5a aa 7c 3e dd 2e 2b 3c
       0.1003763 0.16989046 0.24674359 0.010448185
000070 30 e7 80 bd 5e c8 47 bb f9 dc 2f 3d 25 97 04 bd
       -0.062940955 -0.0030484418 0.042935345 -0.032370705
000080 fc 32 c1 bd 21 ae 90 bc cd 26 77 bd 25 20 12 3d
       -0.094335526 -0.017661156 -0.060339738 0.035675187
000090 b5 1f b1 3d f1 cc dd bd cb ca 5d be fc ea 1e be
       0.08648626 -0.10830105 -0.2165939 -0.15519327
0000a0 d1 fb 70 be 4d 67 69 3e e8 7c ef 3d 90 48 36 be
       -0.2353356 0.22793312 0.11693746 -0.17801118
0000b0 87 bc be bd 65 06 a1 bc 31 4d df 3d 7e b9 ff bb
       -0.093133025 -0.01965637 0.10903395 -0.007804095
0000c0 d1 0f c5 3d 54 bd 95 3b b8 ab 91 3c b3 ed 84 3d
       0.09622157 0.004569689 0.017782077 0.0649065
0000d0 77 64 91 3d b8 50 12 3d 68 54 5d be 5f b1 55 3e
       0.0709924 0.03572151 -0.2161423 0.20868443
0000e0 02 0a 5b 3e 13 73 83 bd a4 87 c2 bd e9 d8 df bd
       0.21390536 -0.06418433 -0.09498528 -0.10930044
0000f0 f5 f8 d8 3d 12 b0 25 bd 7a ad 9b be f0 58 36 be
       0.1059436 -0.040451117 -0.3040579 -0.17807364
000100 cd dc b0 bb d6 bd 1f bd 89 af 2c be 6f 31 f9 bc
       -0.0053974153 -0.0389994 -0.16863836 -0.03041908
000110 9b b4 b6 bc aa 92 3e 3d cf 9e 94 bc 8b 1c ae 3c
       -0.022302916 0.04652659 -0.018142132 0.021253845
000120 95 f5 27 be d7 2a 77 be 8e be 05 be 6e 09 66 be
       -0.16402276 -0.24137436 -0.13060972 -0.22464535
000130 b3 2d 6d be a3 b7 ef bd 19 ef 5e bc e4 70 6c be
       -0.23161964 -0.11704948 -0.01360681 -0.2308994
000140 b9 79 3b be 08 92 a0 bc f9 a4 c3 bd a2 04 0c 3a
       -0.18308152 -0.019600883 -0.095529504 0.00053412665
000150 01 5f 25 bc 47 0c 0f 3e aa 80 ac 3c 73 03 cb bc
       -0.0100934515 0.13969527 0.021057446 -0.024781918
000160 92 21 90 3c 2e 9a 9e bd c0 5e 05 be 55 c9 c5 bd
       0.017594133 -0.07744251 -0.13024426 -0.09657542
000170 10 3b dd bd 44 d3 93 bd 40 67 b6 3d cd ef a0 bd
       -0.10802281 -0.0721803 0.08906412 -0.07858238
000180 ce b3 14 be b0 30 a6 bd ae 5a 2b be ff 32 53 3d
       -0.14521715 -0.08114755 -0.1673381 0.051562306
000190 e2 33 ac 3d 3c 04 2a bd a3 7e 73 bd 83 ab 5f bd
       0.08408333 -0.041507944 -0.059446942 -0.054606926
0001a0 95 04 04 bd 7d e4 84 bc 7e fd 38 3c 30 0d 2a bd
       -0.032230932 -0.016222233 0.011290906 -0.041516483
0001b0 84 b4 8a be 20 53 17 be 44 93 14 be 34 e6 5d 3e
       -0.27090847 -0.14777803 -0.14509302 0.21669847
0001c0 2c 3e b4 3d 05 7c f9 bd 9d a9 3e be 66 7c 43 be
       0.08800921 -0.12181858 -0.1861939 -0.19090423
0001d0 91 ad e8 bc 52 ec 19 bd 3f 8d 0e 3d b4 8f d4 3c
       -0.028403075 -0.03757889 0.03480267 0.02594743
0001e0 5e 69 00 bd 09 fb 85 3d 7f a5 67 3c b4 f9 3a 3c
       -0.031350486 0.06542022 0.014138578 0.011412073
0001f0 e8 d5 79 3d 9e 94 17 bd 75 23 46 be 38 23 d5 bc
       0.060995013 -0.037006967 -0.19349463 -0.02601777
000200 58 37 88 3b c6 24 b3 bc 0b 1a 20 3e 21 82 b5 be
       0.004156988 -0.02186812 0.15634935 -0.35450843
000210 c8 45 b0 be bb b4 1b 3e 1d c2 3d 3e e0 7f ed bc
       -0.3442824 0.15205662 0.1853108 -0.02899164
000220 4c 8b 8e bc 97 4b 7f 3c 56 12 42 bc de 97 ac bc
       -0.017400406 0.015581987 -0.011845192 -0.02106851
000230 d5 72 b1 bc 98 33 2d bc 00 fc 50 3c 1f b3 57 bc
       -0.021661201 -0.010571383 0.012755394 -0.013165264
000240 48 72 2a be af bb 82 bc 1a 40 45 3e 3a 67 ad 3d
       -0.16645157 -0.015958635 0.19262734 0.084669545
000250 bf 8e 81 3e 14 3a 47 3e 67 c0 1a be 66 b8 c8 3d
       0.2530422 0.19455749 -0.15112458 0.09800796
000260 21 19 89 3d 1a bc 02 3b 2f 41 56 3c cd 10 cd bc
       0.06694246 0.0019948543 0.013077064 -0.025032425
000270 76 29 11 3e bd ba 31 bd 13 41 9b bd 52 55 dd 3c
       0.14175972 -0.043390978 -0.07580771 0.027018223
000280 a6 d4 85 3d 1b c5 a0 3d 5d 0c 2b be 5d 51 71 bd
       0.065347 0.07850095 -0.16703935 -0.058915485
000290 96 46 08 be bb 87 70 3b 7d b9 e0 bd 82 7f 2c be
       -0.13308176 0.0036701995 -0.10972879 -0.16845515
0002a0 2d 16 46 3e 15 26 12 be 63 9a 24 3e b7 75 e9 bb
       0.19344397 -0.1427234 0.16074519 -0.0071246284
0002b0 91 12 f4 3b cc eb 92 bd 99 85 9c 3d d5 33 71 bd
       0.0074485024 -0.07173881 0.07642669 -0.05888732
0002c0 e4 3d b3 bd 92 9b 28 3d 95 9f 97 bc 75 22 b7 bd
       -0.08752039 0.04116399 -0.018508712 -0.08942119
0002d0 a3 94 36 3e 7c 0a d7 3d 67 9a 3c be 29 3d dc 3d
       0.17830138 0.105000466 -0.18418275 0.10753853
0002e0 83 5a 95 bd ce da c1 3d f8 6f a7 bd e6 82 3d be
       -0.07292654 0.09465562 -0.08175653 -0.18506965
0002f0 6b 88 40 3e 03 92 ce 3b 62 6a b4 bd 06 7e 1d bd
       0.1880204 0.006304027 -0.088093534 -0.038450263
000300 58 f4 26 bd e1 81 1f bd 0c 42 82 bd 97 f2 fa 3c
       -0.040760368 -0.03894222 -0.06360254 0.030633254
000310 3e bc 07 bc 56 27 bd 3b 07 a5 75 3d e7 00 05 3e
       -0.0082846265 0.0057725115 0.059971835 0.12988625
000320 c3 2c da 3d 29 58 5c 3e f5 9d da 3d 35 a0 5e 3e
       0.10653069 0.21518005 0.10674659 0.21740802
000330 b3 86 9b bd df fd 94 be 77 9c 24 be c7 6c 8e bd
       -0.07594051 -0.29099938 -0.16075312 -0.069543414
000340 af 9c 28 3d 5a 35 42 3d 73 d7 e1 bd 71 63 1b be
       0.04116505 0.04741416 -0.11027422 -0.15174653
000350 61 39 76 3d 80 c1 3e bd 22 d6 01 3d 9d 28 62 3c
       0.060113315 -0.046571255 0.031698354 0.013803628
000360 80 79 f7 3d 23 76 20 be 1c fc d8 3d c0 5f fa 3d
       0.12083721 -0.15670066 0.10594961 0.12225294
000370 81 48 3a bc 03 1c 81 be c2 a5 6c 3d 13 ea 05 be
       -0.011369825 -0.25216684 0.057775266 -0.13077573
000380 e8 7c 17 3e a0 d9 33 bd f6 2b 19 be 08 0a 82 3c
       0.14793742 -0.043908715 -0.14958176 0.015873924
000390 8c ef b7 bd 74 b5 45 bd 6b 5c ad 3b e1 92 7d bd
       -0.08981237 -0.04826875 0.005290558 -0.061907653
0003a0 99 1c 8e bd 06 f5 11 bc f2 c5 c0 3d c5 83 11 be
       -0.06939048 -0.008908516 0.09412755 -0.14210422
0003b0 9e 71 3a 3e 9b 55 ca 3d fb 7e 1c bd 60 fb a4 bd
       0.18207404 0.09879609 -0.038207036 -0.080557585
0003c0 d8 45 22 3e 61 be 36 3e 80 65 09 3e af 1c 01 3d
       0.15846956 0.17846061 0.13417625 0.031521495
0003d0 7c 69 8c 3b 18 2a 79 ba ee 1c da bd 05 d4 f1 3d
       0.0042850357 -0.00095048686 -0.10650049 0.11808018
0003e0 bd 14 e6 bd d1 b1 95 3d 41 b5 b1 3d b8 e3 9d bb
       -0.11234424 0.073093064 0.086771496 -0.004818406
0003f0 d6 92 f6 bd 46 0a e9 3c 70 16 42 be 72 26 25 be
       -0.120397255 0.028447282 -0.18953872 -0.16127947

conv1.bias f4 [32]
000000 9a c6 ef b8 87 b6 9e 38 83 bb 54 b9 73 6b d5 36
       -0.000114334005 7.5680255e-05 -0.00020287749 6.3604034e-06
000010 f2 d8 47 b9 13 92 56 38 b8 5a 8f 39 9f 77 89 39
       -0.00019058937 5.1157618e-05 0.00027342676 0.000262198
000020 53 4d 33 b8 f5 87 f2 37 a1 6c 9d b8 ab e1 99 b7
       -4.274894e-05 2.8911958e-05 -7.506577e-05 -1.8344106e-05
000030 a4 b3 88 38 22 5c 58 38 04 d5 8b b8 d6 0f ba 37
       6.518446e-05 5.158422e-05 -6.667714e-05 2.2180302e-05
000040 28 ba 3b b9 79 6d e2 39 6a d8 74 38 02 08 fb b4
       -0.00017903058 0.00043187643 5.8375685e-05 -4.675822e-07
000050 7e 2a bf 38 2f a8 2b b9 74 82 90 b9 6b 16 38 b9
       9.1155045e-05 -0.00016370484 -0.00027563015 -0.00017555959
000060 97 b8 a4 37 b7 12 95 b8 97 cf fd b8 82 a7 68 b9
       1.963628e-05 -7.1083596e-05 -0.00012102647 -0.00022187646
000070 ef d7 e4 37 f5 e2 c5 b8 c2 35 02 39 59 fb ae 39
       2.728027e-05 -9.435966e-05 0.00012417792 0.00033375135

conv2.weight f4 [64, 32, 3, 3]
000000 9e b5 87 bc 21 aa 68 bd df fd 90 bc 5b 32 95 3b
       -0.016566094 -0.056802873 -0.01769918 0.004553122
000010 df b0 d3 bc 06 d8 a3 3c e7 9a d3 3b 7e d2 4d 3c
       -0.025841175 0.020000469 0.006457675 0.012562392
000020 76 0d 86 3d fb 36 cd 3b 52 19 ea 3b aa 3f 6c 3d
       0.06545536 0.0062626577 0.0071441317 0.057677902
000030 8b 6c dc 3c 5f d4 6a 3d 56 a4 22 bd 61 5e a6 3c
       0.026907226 0.05733144 -0.039707504 0.020308675
000040 96 7d 93 bd 4e f6 9a 3d 5a 53 e8 3c d5 7f b5 bd
       -0.07201688 0.0756651 0.028360058 -0.08862273
000050 1a 8d a1 bc 43 6a 95 3c 1d 6e bb bd e0 7b b2 bd
       -0.019720603 0.018239146 -0.09151862 -0.087150335
000060 b5 52 3f bd f0 e9 7c bc 67 aa 00 bd 72 ed 95 3d
       -0.046709735 -0.015436634 -0.03141251 0.0732068
000070 9f ab d6 3c 17 de 45 3d c5 74 e1 bd 4f a4 c3 bc
       0.026204882 0.048307505 -0.110086 -0.02388206
000080 05 b6 50 3d 52 6a 04 bd 9c b1 d5 bc 44 36 4f bd
       0.050954837 -0.032327957 -0.026085667 -0.05058886
000090 ec c4 28 bd 52 48 82 bb c5 61 ae 3d 9f 73 02 3d
       -0.041203424 -0.0039759064 0.08514742 0.031848546
0000a0 76 f5 c7 3b fd d9 69 bc 9f 7b f0 3d 52 7f 41 bd
       0.0061022593 -0.014273164 0.11742329 -0.047240563
0000b0 1f 1e 37 3c 82 11 9c 3a c2 c6 7d 3d b5 18 5c bd
       0.011176615 0.0011907073 0.06195713 -0.0537345
0000c0 d3 45 ad 3c 9a 60 48 3c 5d 9c c7 bd 64 b7 81 3d
       0.021151459 0.012230063 -0.09746621 0.06333807
0000d0 0c 20 47 bc 04 23 ef bc 40 27 88 bd 97 37 b8 bc
       -0.012153637 -0.029191501 -0.06648111 -0.022487445
0000e0 d3 61 b6 bc 8c e0 43 bd e1 b1 00 3d a2 37 b4 3c
       -0.022263443 -0.047821566 0.03141964 0.021999184
0000f0 24 7e f1 bd 5b d3 ac bc 9f 73 82 3c 49 55 19 bd
       -0.117916375 -0.021096876 0.015924273 -0.03743485
000100 fd 30 25 ba 33 97 a3 3d 26 64 7f 3c b4 87 b0 bd
       -0.00063015503 0.07987823 0.015587842 -0.08619633
000110 f3 b3 f2 3c b4 5d a6 3b db c6 9b bc 30 e8 7b 3d
       0.029626822 0.0050770883 -0.01901572 0.061500728
000120 50 90 21 3c 62 b0 f4 bc ea d5 23 bc 72 31 f0 bc
       0.009861067 -0.029869262 -0.009999732 -0.029320452
000130 ab f2 18 bd 59 81 00 3d 11 47 70 3c 90 88 b1 3d
       -0.0373408 0.031373356 0.014665381 0.08668625
000140 18 d5 c4 3b b6 b1 d8 3c fe 5c 1a 3c ba f1 0b bd
       0.006006848 0.026451927 0.009421585 -0.034166075
000150 89 5c e6 bb 67 88 03 be 05 5f 66 3d 3d 14 00 3d
       -0.007030074 -0.12845002 0.05624296 0.0312693
000160 1c d6 b9 bd d9 37 85 3c 6d d6 c4 3c b1 6d b8 3b
       -0.09074041 0.016261982 0.024028027 0.0056283106
000170 ff 71 89 3c ca 2e bc 3d 57 6f d9 bc 07 24 b0 bc
       0.01677799 0.09188612 -0.026542349 -0.021501554
000180 cf 96 e1 bc 84 38 ee 3c 6f 97 c5 3c 61 51 76 3d
       -0.027537731 0.029079683 0.02412006 0.060136203
000190 19 e7 dc 3c d5 f1 dd 3d db 19 50 3d fd 7a 07 3c
       0.026965665 0.108371414 0.050805908 0.008269069
0001a0 c4 8a a7 3c c5 fa 9c 3c b6 b2 f0 3c 93 c0 88 bb
       0.02045191 0.019162545 0.029382091 -0.0041733473
0001b0 e2 81 78 bb 5d 70 27 3c 2d dd 04 bd df b7 dd bd
       -0.0037919213 0.010219661 -0.032437492 -0.10826086
0001c0 96 d6 87 3d 27 47 0b 3d 4a 7f 77 3d f6 72 cf bc
       0.06632726 0.034003403 0.060424127 -0.025323372
0001d0 96 00 05 bd 7b 75 0e 3c d5 15 e5 3c 45 83 50 3d
       -0.032471262 0.008695002 0.027964512 0.05090644
0001e0 3e dd df bd 92 df e9 3d ba 59 4b bc 8a e0 80 3d
       -0.109308705 0.11419596 -0.012411529 0.062928274
0001f0 c4 62 1b bd 23 29 43 3d 0e 43 82 bd 57 ca 55 3c
       -0.037935987 0.047646653 -0.06360446 0.01304873
000200 e8 4a 89 3d ac 53 2a bd c1 a1 b2 bd 7d 4d 1c bd
       0.0670374 -0.041583702 -0.08722258 -0.038159836
000210 40 12 82 bd 4a 1b 0c bc 7c e5 ab ba c6 15 05 be
       -0.06351137 -0.008551428 -0.0013114656 -0.12996587
000220 ab eb 33 be d6 77 77 bd b4 41 b5 bd f2 64 23 bd
       -0.17570369 -0.06041702 -0.088504225 -0.03989119
000230 96 01 4c bd 4e ae 13 3d a2 c2 7a 3c 45 40 19 be
       -0.0498062 0.0360549 0.015305193 -0.14965923
000240 50 c1 cd 3c 85 53 d5 bd e6 96 66 bc c7 9e 1e bd
       0.025116593 -0.10416321 -0.014074063 -0.03872564
000250 9a 0e 11 ba a3 12 18 bd bb 68 9e bd 5d 0a 89 3c
       -0.0005533487 -0.03712715 -0.077348195 0.016728574
000260 23 11 fb ba 62 15 b0 bc 9d a3 94 bd 05 cf 77 bc
       -0.0019154887 -0.021494571 -0.07257769 -0.015125041
000270 00 f1 84 bd f1 fa 07 3d 0b b2 b9 bc 27 92 e2 3c
       -0.064912796 0.0331983 -0.022667905 0.027657581
000280 39 05 74 3d f0 22 11 bd 3c 88 1e bd 2f 0f 5b 3b
       0.059575293 -0.03543371 -0.038704142 0.0033425798
000290 49 9f 19 bd 3b 5b b8 3d 8f 02 4e bc 2a b1 96 bc
       -0.03750542 0.09001776 -0.012573852 -0.018395025
0002a0 00 9c 0c 3e d6 27 96 bd ac 00 81 3d 0b 28 86 3d
       0.13731384 -0.07331817 0.06298956 0.06550606
0002b0 81 5d ad bd e8 09 76 bc c5 9c 7c bd fa e1 b1 3d
       -0.084651 -0.01501701 -0.061672945 0.0868568
0002c0 3d b9 a0 bd 73 ee d7 bd a4 03 56 bd b8 3c de bd
       -0.078478314 -0.105435275 -0.052249566 -0.10851425
0002d0 67 63 cc bd c4 a5 c2 3c d7 e1 0c 3c e7 99 df bb
       -0.09979897 0.023760684 0.008598766 -0.0068237665
0002e0 b1 5a 1f bd 6c b6 34 bd 9b 03 c8 3c b7 83 b4 bc
       -0.03890485 -0.044119284 0.024415782 -0.022035463
0002f0 64 99 56 3a cb e0 1a 3d ff c7 68 ba e1 f7 6e 3c
       0.0008186309 0.037812036 -0.00088798994 0.014585466
000300 5f 98 9b 3d ae e4 76 bd 06 e8 fb bd 85 33 af 3d
       0.07597422 -0.06027668 -0.12300114 0.085547484
000310 01 38 89 bd 6c 1b 8d 3b 17 0a 8c 3d 70 36 b2 bd
       -0.06700135 0.0043062475 0.06837862 -0.087017894
000320 b9 3d 1e 3d 12 22 c7 bd 3a a1 9f 3d a8 0e 1b bd
       0.038633082 -0.09723295 0.077944234 -0.037855774
000330 83 bc a9 bc c0 3c 03 3d df 4a 54 3d eb 64 fb 3b
       -0.020719772 0.032040358 0.051829215 0.0076719425
000340 f6 38 e7 bc b0 dd 5d 3d f8 9c c5 bb e9 59 9b bd
       -0.028225403 0.054166496 -0.006030675 -0.075855084
000350 5e 12 8b bb da 6c f6 bc 0d e3 e3 3c 55 60 cd 3c
       -0.004244133 -0.030081201 0.027818227 0.025070349
000360 f4 8a 5b bd a7 ab b4 3d bc f7 df bc 12 a0 88 bd
       -0.053599313 0.088218026 -0.027339809 -0.06671156
000370 bf 07 18 3d 9a 07 34 bd 49 0a 71 bd 21 19 0f bd
       0.037116762 -0.043952562 -0.0588477 -0.034936074
000380 65 3d 8b bc 03 20 03 3d f2 de 0a 3d 2b c6 20 3d
       -0.016997049 0.03201295 0.033904023 0.039251488
000390 25 c0 14 3d 57 db 86 3c 6a 12 97 bc ab 5c 05 3e
       0.036316056 0.016462011 -0.018441398 0.13023631
0003a0 40 b7 0c 3d 9d 77 95 3d 26 c3 97 3d d8 73 78 bd
       0.03435445 0.07298205 0.074102685 -0.060657352
0003b0 7e 16 6b 3c 5b 53 45 3d a0 a2 d6 3c 00 1d 19 3d
       0.014348624 0.048175197 0.026200593 0.037381172
0003c0 40 c8 d4 3c 49 d9 59 bc e8 69 6a 3c f8 7c c3 3d
       0.025974393 -0.013296434 0.014307477 0.0954532
0003d0 85 0d d5 3d 3c fd 14 be 73 87 59 bd d2 70 c6 bc
       0.10402969 -0.14549726 -0.05310769 -0.024223719
0003e0 a9 94 18 3d 6b 2e 29 bd c3 16 08 bd 42 81 53 3d
       0.03725115 -0.041304033 -0.033224832 0.05163694
0003f0 03 a5 bd 3b a9 d1 1c 3d fe a6 b0 3d 52 16 d4 bb
       0.005787493 0.038285885 0.08625601 -0.0064723874

conv2.bias f4 [64]
000000 93 7a f1 37 1f ab aa b7 4f 1a 9d 38 e6 01 29 b7
       2.8786517e-05 -2.0345264e-05 7.491244e-05 -1.0073627e-05
000010 19 b4 39 37 dd c7 39 b8 62 f8 e6 b7 07 f0 91 37
       1.10687915e-05 -4.4293574e-05 -2.7533799e-05 1.7397118e-05
000020 02 d5 c7 b6 15 94 a9 b8 35 3e 6f b7 a8 fd 55 36
       -5.9554595e-06 -8.0861304e-05 -1.4259994e-05 3.188712e-06
000030 62 d5 85 37 a5 fc 7e b6 2c d9 a6 36 dc 6d 77 b8
       1.59542e-05 -3.7996008e-06 4.9724677e-06 -5.8991704e-05
000040 2f 48 31 b8 db 90 f0 b7 e0 14 df b6 93 12 34 b8
       -4.2267315e-05 -2.8677683e-05 -6.648348e-06 -4.2932643e-05
000050 66 95 39 b8 13 53 4c 37 b6 76 be 37 39 90 b2 b6
       -4.4246575e-05 1.217869e-05 2.2705044e-05 -5.321603e-06
000060 be 21 97 37 84 ab 3d 37 2d a8 53 38 ba fa be 37
       1.8016315e-05 1.1305212e-05 5.0462946e-05 2.2766519e-05
000070 28 9c 46 36 bf f6 08 b7 24 0b 3d 38 b0 a2 bd 37
       2.9595194e-06 -8.163682e-06 4.5071487e-05 2.2606313e-05
000080 f2 8b 33 36 49 4b 44 38 a2 36 fc 37 c8 8b 37 37
       2.6754537e-06 4.6800156e-05 3.0066181e-05 1.0940195e-05
000090 db d7 1a 38 0c da 72 37 f4 f6 a0 37 da 4d 1f 38
       3.6917492e-05 1.4475092e-05 1.9188483e-05 3.798106e-05
0000a0 ea a9 54 b8 03 c8 5e b7 c4 6f d4 36 d5 46 1d 38
       -5.0702984e-05 -1.32788e-05 6.3311036e-06 3.7497684e-05
0000b0 c1 14 aa 38 21 ec e6 36 ff 74 bd b6 dc 9a b2 37
       8.1100974e-05 6.882023e-06 -5.646259e-06 2.1291366e-05
0000c0 8e 29 53 38 96 2d f3 35 c2 3f 9b 37 d6 32 e6 36
       5.034502e-05 1.8118178e-06 1.850713e-05 6.8604522e-06
0000d0 41 4a 71 b7 20 00 24 38 32 91 14 37 e3 a1 62 37
       -1.4382008e-05 3.9100763e-05 8.855293e-06 1.3508342e-05
0000e0 35 90 9c 36 59 04 95 37 c5 e6 ed 37 eb 25 3f 38
       4.66595e-06 1.7764209e-05 2.8360062e-05 4.5573262e-05
0000f0 bc 81 79 38 80 16 3f 37 4c 8b a3 37 b6 6f fe b7
       5.948705e-05 1.1389726e-05 1.949598e-05 -3.0331179e-05

bn1.weight f4 [32]
000000 62 ae 6f 3f 62 d6 79 3f bb 12 82 3f 91 c5 65 3f
       0.9362546 0.9759275 1.0161966 0.8975459
000010 c3 9a 85 3f dc 6f 82 3f 30 ec 82 3f 2c d4 85 3f
       1.0437855 1.0190387 1.0228329 1.0455375
000020 14 c8 6e 3f a8 6d 7b 3f 34 96 67 3f e6 04 7e 3f
       0.93274045 0.982142 0.90463567 0.99226224
000030 4f 06 6e 3f 0c 9b 52 3f f6 04 7c 3f ce c9 84 3f
       0.92978376 0.8226783 0.9844507 1.0374086
000040 80 e5 6e 3f eb f4 86 3f f8 26 8b 3f 92 6e 6c 3f
       0.9331894 1.0543493 1.0871267 0.92356217
000050 2d 3b 76 3f 78 59 8f 3f bd 2d 85 3f f6 71 72 3f
       0.96184045 1.1199179 1.0404583 0.9470514
000060 aa d2 7a 3f 2a a4 63 3f 48 d5 7b 3f a9 49 7f 3f
       0.979777 0.8892237 0.98372316 0.9972177
000070 d5 df 70 3f 92 30 89 3f 92 0d 80 3f ce 1a 81 3f
       0.9409154 1.0717947 1.0004141 1.0086305

bn1.bias f4 [32]
000000 d7 ef 46 3d 68 ce 21 be 34 85 52 bd d6 ea 3c 3d
       0.048568573 -0.15801394 -0.051396564 0.046122395
000010 58 85 2e 3e 34 41 04 3e db 72 41 bd 42 77 38 bc
       0.17043054 0.12915498 -0.047228675 -0.011258902
000020 3d 37 f9 bd 6d 7e d8 3d c1 2c ed bd c3 2b 69 bd
       -0.12168739 0.10570989 -0.11580802 -0.0569265
000030 71 84 ec bc b6 36 fe bc ed 54 39 be 56 8d a1 be
       -0.028871747 -0.031031948 -0.18098803 -0.31553143
000040 f0 9d 97 be 50 82 0a 3e a3 8c 69 bd 56 c0 64 3c
       -0.29612684 0.13526273 -0.057018887 0.013961872
000050 41 62 b9 bd 1a 83 31 be 3f 7b 27 be 0c b4 55 bd
       -0.090519436 -0.17335168 -0.16355608 -0.05217366
000060 f7 cb 3e bd ae 26 59 be ac 59 0b be ca 84 64 bd
       -0.046581235 -0.21206161 -0.13608426 -0.0557907
000070 8b d8 2b be b0 5f a5 bd 4f 8f 80 3d 77 6a a3 3d
       -0.16781823 -0.080748916 0.06277334 0.07979291

bn1.running_mean f4 [32]
000000 46 d4 cd bd 86 c8 a3 3d 19 28 8b bd 17 10 1f bd
       -0.100502536 0.07997231 -0.067947574 -0.038833704
000010 92 95 32 be 80 dd 90 bd ae 01 7f bd 31 b8 16 bd
       -0.17439869 -0.07073498 -0.06225746 -0.036796752
000020 3b c7 a9 3d e6 03 6e bd e7 c4 23 3c 95 9d 3b 3d
       0.08289953 -0.058109187 0.009995676 0.04580458
000030 8c 0b 92 bc f2 08 46 3d e4 22 a2 3c 07 bc 90 3c
       -0.017827772 0.048348375 0.019792028 0.017667783
000040 a9 10 97 3d f3 a9 f7 bc cf 99 ca 3c 39 0b 65 3d
       0.073762245 -0.030232405 0.024731545 0.055918906
000050 a6 e6 76 bc 9a b3 70 3c 30 ea 00 bd 8c be 29 bd
       -0.015069639 0.014691258 -0.03147334 -0.041441485
000060 be b7 b0 bd 34 57 bb 3d 09 94 0e bd 38 be 1d 3d
       -0.08628796 0.09147492 -0.034809146 0.038511485
000070 29 64 ca 3d 8f 80 4d bd 41 6f b2 bd 6a 81 63 bd
       0.09882385 -0.05017143 -0.08712626 -0.05554334

bn1.running_var f4 [32]
000000 ba 3c e1 3c 54 92 c2 3c ef 48 d2 3c cc 43 bc 3c
       0.027494777 0.023751415 0.025669543 0.022981547
000010 e4 c3 0c 3d 5c 32 31 3c 81 84 c4 3c 9b 32 06 3d
       0.034366503 0.010815229 0.023988964 0.032763105
000020 5f 92 b8 3c fa 20 80 3c 1e 1a 77 3c 51 6f e3 3c
       0.022530733 0.015640724 0.01508191 0.02776304
000030 09 93 85 3c ca a7 6b 3c 1e 4c 9a 3c c3 25 c6 3c
       0.016305463 0.014383266 0.018835124 0.024187928
000040 e9 0b 91 3c c3 c5 9a 3c b3 ad db 3c a2 10 de 3c
       0.017705875 0.018893128 0.026816225 0.02710754
000050 c3 08 c0 3c ed bb cb 3c e3 d8 9b 3c b3 06 06 3d
       0.023441678 0.024869883 0.019024318 0.032721233
000060 2d f0 de 3c 1e 8c 5b 3c 1c 30 8e 3c e4 ce a9 3c
       0.027214134 0.013400106 0.017356925 0.020728536
000070 e7 98 91 3c 09 ae 16 3d 8b 6d 91 3c 41 72 ec 3c
       0.017773105 0.036787067 0.01775243 0.028863074

bn2.weight f4 [64]
000000 32 79 9e 3f 2b 8b a2 3f 54 ca b7 3f 83 90 a0 3f
       1.2380736 1.2698721 1.4358621 1.2544101
000010 90 c1 91 3f 2f 4e 9e 3f 74 1c 8d 3f 7d 7a a7 3f
       1.1387196 1.236761 1.1024308 1.3084255
000020 f8 e8 98 3f 60 5c ac 3f 40 57 91 3f 0b a9 97 3f
       1.1946096 1.3465691 1.1354752 1.1848463
000030 0e ec 9d 3f 7c 49 b0 3f 25 92 9d 3f cd e0 a4 3f
       1.2337663 1.3772426 1.2310225 1.2881104
000040 b7 b2 ad 3f 55 50 9c 3f d4 0a a3 3f f2 eb ab 3f
       1.3570164 1.2212015 1.273768 1.343138
000050 7a d4 a9 3f 6c 21 99 3f b6 e5 be 3f f5 9b 8c 3f
       1.3267968 1.1963325 1.4913852 1.0985094
000060 bf ba 9d 3f bd 31 a5 3f dc 3f a1 3f 71 2e a9 3f
       1.2322615 1.2905804 1.2597613 1.3217298
000070 ee 8e b3 3f aa 24 ab 3f f1 95 ae 3f cd db 9f 3f
       1.4027994 1.3370564 1.3639508 1.2488953
000080 49 ae 8c 3f 72 83 ad 3f 43 9f aa 3f 96 88 a8 3f
       1.0990688 1.3555739 1.3329853 1.3166683
000090 ee a7 ab 3f 14 52 a6 3f 4b fa a6 3f 6a dd a6 3f
       1.3410623 1.2993798 1.3045133 1.303632
0000a0 33 ba ae 3f 45 9b cc 3f 5d a3 93 3f 76 28 a7 3f
       1.3650573 1.5984885 1.153423 1.3059223
0000b0 25 dd a5 3f eb e8 a8 3f eb aa ba 3f 63 1c a7 3f
       1.2958113 1.3196081 1.458341 1.3055538
0000c0 ad 2f a1 3f dd b1 9d 3f ef 37 b2 3f c6 83 87 3f
       1.2592674 1.2319905 1.392332 1.0587089
0000d0 e9 47 8c 3f bd f7 d0 3f 83 4b a0 3f bd 5e a0 3f
       1.0959445 1.6325604 1.2523044 1.2528912
0000e0 e9 4f ae 3f 6e a5 c1 3f e9 fa b5 3f a2 28 aa 3f
       1.3618137 1.512861 1.4217197 1.329365
0000f0 65 ce a0 3f 03 09 9a 3f b1 65 af 3f 82 51 a2 3f
       1.2562987 1.2034 1.3702909 1.2681124

bn2.bias f4 [64]
000000 17 db 6d bf 0f cb 0f bf 0d 94 95 be 2b 00 7a be
       -0.9291243 -0.5616922 -0.29214516 -0.24414127
000010 9a 4c f2 be 32 c8 19 bf 88 65 10 bf 94 a8 24 bf
       -0.47324067 -0.600711 -0.56404924 -0.6431973
000020 7b 64 09 bf d8 89 06 be 68 0a 1b bf 3d 07 d8 be
       -0.53668946 -0.1313852 -0.60562754 -0.42193022
000030 fd c1 0e bf 21 27 a0 be 53 57 d8 be cb 3b 2a bf
       -0.5576475 -0.31279853 -0.42254123 -0.66497487
000040 23 25 8f be 62 69 e6 be 50 b6 bf be 87 f0 e7 be
       -0.2795802 -0.45002276 -0.3744378 -0.45300695
000050 3c df 38 bf e6 d1 b3 be 0f 3b 11 bf 02 57 00 bf
       -0.7221563 -0.35121077 -0.5673074 -0.50132763
000060 67 09 fa be fc bd 9b be 9b 09 b6 be 61 e8 07 bf
       -0.48835298 -0.30418384 -0.35554203 -0.5308896
000070 15 af 8a be 91 f9 11 bf 65 69 b4 be 04 2f 21 bf
       -0.27086702 -0.57021433 -0.3523666 -0.62962365
000080 ee e3 25 bf 1c 96 f2 be 2a 05 da be 10 86 fc be
       -0.6480092 -0.4738015 -0.42582065 -0.49321032
000090 3e 00 a5 be 55 2a c8 be 0f 3f 9d be d1 a7 2f be
       -0.32226747 -0.39094797 -0.30712172 -0.1715386
0000a0 cd 0e d2 be ff 0a c7 bc 66 96 57 be 5b ea 71 be
       -0.41026917 -0.024297236 -0.21053466 -0.23624556
0000b0 ae f8 af be fc 08 1d bf 47 fc e0 be f7 e5 27 be
       -0.34369415 -0.61341834 -0.43942472 -0.16396318
0000c0 d1 19 f4 be 30 36 de be 04 6e b6 be af 62 27 bf
       -0.47675946 -0.43400717 -0.3563081 -0.65384954
0000d0 e0 76 f4 be 42 af d2 bd 05 99 d7 be 73 40 2c bf
       -0.47746944 -0.10287334 -0.42108932 -0.6728584
0000e0 68 c1 ae be 94 4b 41 be 21 9a df be e0 ab b4 be
       -0.34131932 -0.18876487 -0.4367228 -0.3528738
0000f0 91 b2 e4 be e4 c9 23 bf 44 42 1e bf 76 7f bb be
       -0.44667485 -0.63979936 -0.61819863 -0.36620682

bn2.running_mean f4 [64]
000000 ad 35 82 be 8e d9 55 be 45 12 20 be 2d 5b ba be
       -0.25431576 -0.20883772 -0.1563197 -0.36397687
000010 e4 79 07 be a7 91 59 3d a9 d0 fc bd 66 32 fa 3d
       -0.13230091 0.05311742 -0.12344486 0.12216644
000020 4e e2 a4 be 3e f9 8a be 67 ef 8d 3d 9b 7b ae bb
       -0.32203907 -0.27143282 0.06930428 -0.0053247935
000030 28 9f 44 be 96 0c e4 be 56 10 5c bd 73 7a 40 bc
       -0.19201338 -0.44540852 -0.053726517 -0.011747944
000040 b3 ca ca be 46 df 4f be 8d 71 9a be c9 8b 59 3d
       -0.39607772 -0.20300016 -0.30164757 0.053111825
000050 c1 33 35 bc df 50 42 be b1 ec 21 be 73 35 f2 3d
       -0.011059702 -0.18976162 -0.15812947 0.11826601
000060 45 1d 33 bd 3e 83 3c bc cf 35 94 3d 8c 71 17 3e
       -0.043729085 -0.0115059 0.07236826 0.14789408
000070 34 d4 af be 2f 09 8b bd c9 bd 04 be 67 ad 03 be
       -0.34341586 -0.06788861 -0.12963022 -0.12859116
000080 8d 31 13 be 5e 14 f0 bc c1 aa d0 bc 97 8d 36 be
       -0.14374371 -0.029306587 -0.025472047 -0.1782745
000090 01 37 a1 be 16 7e a3 bb 6e 62 51 3e 21 e3 49 be
       -0.31487277 -0.004989396 0.20447704 -0.19715549
0000a0 d3 55 80 3b b2 d8 93 be 43 c5 c2 be 83 e0 51 be
       0.003916481 -0.28876263 -0.38041124 -0.204958
0000b0 c2 d3 4e be 9a 59 a6 bc f8 6f 9b be 9f 46 8a bd
       -0.20197967 -0.020306397 -0.30358863 -0.06751751
0000c0 1a 7e 88 bd 54 84 08 3d be 36 1b be c6 26 9a be
       -0.06664677 0.033329323 -0.15157601 -0.30107707
0000d0 fc 21 68 3d 9e cb 17 bf 0b 11 c5 bd 7e dd 12 bd
       0.056673035 -0.5929507 -0.09622391 -0.035855763
0000e0 e5 ec 05 be 66 95 40 be 0d 36 87 bd 26 c1 ea bd
       -0.1307865 -0.18806991 -0.06602106 -0.114626214
0000f0 71 90 de 3d a7 3f 2f be e7 b7 c7 3d 1f 21 6c be
       0.10867394 -0.17114125 0.097518735 -0.2305951

bn2.running_var f4 [64]
000000 02 9e 56 3d 84 c3 7a 3d 90 71 93 3d 29 9c 23 3e
       0.05239678 0.061221614 0.07199395 0.15977539
000010 bb bf 38 3e 37 2e 61 3d 85 42 6c 3d 8b d7 a1 3d
       0.1804189 0.054975715 0.057680625 0.0790244
000020 7e f2 6f 3d 68 b6 db 3d 74 e2 c6 3d fd a3 ee 3d
       0.058580868 0.107281506 0.09711161 0.11652372
000030 96 0f fa 3d aa 54 99 3d c0 30 7d 3d 4d b9 73 3d
       0.12210004 0.074868515 0.06181407 0.05950289
000040 25 67 83 3d fe 24 80 3d 2f 8b a1 3d 2f 65 6a 3d
       0.06416158 0.06257056 0.07887875 0.057225402
000050 35 ba aa 3d a0 4a 15 3e 76 19 74 3d 3a 18 8d 3d
       0.083362974 0.14579248 0.059594594 0.068893865
000060 ea 75 32 3d 5f fc 97 3d 2c 4c a3 3d 3a 66 b0 3d
       0.043569483 0.07421183 0.07973513 0.08613248
000070 4c 8c 93 3d 5d dc 80 3d 8f bb 85 3d 00 e3 58 3d
       0.07204494 0.06292031 0.065299146 0.05295086
000080 fd 8d 96 3d be ac 73 3d 49 93 43 3d 4b 24 8e 3d
       0.07351301 0.05949091 0.047747884 0.06940516
000090 ed fa 8c 3d 41 84 a0 3d cb aa ed 3d da e5 aa 3d
       0.06883798 0.078377254 0.11604842 0.08344622
0000a0 da 5c 99 3d 5b 0a d9 3d 2c 53 2c 3e b1 a5 8e 3d
       0.07488413 0.10597678 0.16828603 0.06965197
0000b0 13 85 7c 3d 87 9d 83 3d 69 06 9d 3d 3f 55 d7 3d
       0.061650347 0.0642653 0.07667238 0.10514306
0000c0 f2 b8 6d 3d 1a 76 9e 3d 92 97 be 3d 7f ee 95 3d
       0.058037706 0.0773737 0.093062535 0.0732088
0000d0 56 13 d2 3d cd c0 20 3e 96 7a 94 3d 8d 82 90 3d
       0.10257594 0.15698548 0.07249944 0.070561506
0000e0 4c f9 d2 3d 33 d4 a8 3d d2 e8 a0 3d 66 41 70 3d
       0.10301456 0.08243599 0.07856907 0.05865612
0000f0 c3 d5 95 3d 5b c3 25 3e d5 3f 7a 3d 62 a9 98 3d
       0.073161624 0.16187803 0.06109603 0.07454182

output_conv.weight f4 [6, 64, 1, 1]
000000 ba 97 32 be bf 90 1a 3e 54 40 82 3e 82 2a dc be
       -0.17440692 0.15094279 0.25439703 -0.4300118
000010 62 16 b7 be 21 89 0d 3e ec ac b6 be ad e0 8b bd
       -0.35759264 0.13821842 -0.35678804 -0.06829963
000020 48 af 61 3e 7e 32 3c 3e b3 e5 b7 be 4e 31 b2 be
       0.2203952 0.18378636 -0.35917434 -0.34803241
000030 95 32 2d be 66 5e d5 3d ea c1 80 3e aa 68 77 3e
       -0.16913827 0.10418396 0.25147945 0.2416102
000040 a5 57 6b 3e ed da dd 3d 4e 12 48 3e 78 c2 3b 3e
       0.22982652 0.108327724 0.19538233 0.18335903
000050 e6 15 2a be fe ec e9 be cf bc f4 3d 0c 0a 5d be
       -0.16609916 -0.45688623 0.11950075 -0.21585864
000060 f4 40 71 3e 59 5d 37 3e 04 88 66 3e 4b 4a 57 3e
       0.23559934 0.17906703 0.22512823 0.21024434
000070 a5 b7 19 3e 1e 05 90 3e fa bd 0a 3e 15 9e 58 3e
       0.15011461 0.28128904 0.13549033 0.21154054
000080 b0 a5 3a bf ea 5f 89 3d ac c9 93 3e c6 0f 19 3e
       -0.7290907 0.06707747 0.288648 0.14947423
000090 38 48 6c 3e 8f f9 0e 3e 3d c7 c0 bc 1f af 92 3d
       0.23074424 0.13962387 -0.023532504 0.07162308
0000a0 a4 35 2e 3e 30 fb 27 3e 5e f2 06 bf c9 dc de 3d
       0.1701265 0.16404414 -0.5271357 0.10881955
0000b0 3b 4e ca 3d 27 2f 1c be 42 87 11 3e e6 c2 09 3e
       0.098782025 -0.15252362 0.14211753 0.13453254
0000c0 f2 c0 4c 3d bd 94 27 bd 1c 74 3e 3e a1 8d 35 bf
       0.049988694 -0.040913332 0.1859898 -0.70919234
0000d0 ff 5c 99 be 79 50 3f 3e f9 c9 87 3d 29 1e cd bc
       -0.29953763 0.18683042 0.0663032 -0.025038796
0000e0 ef bd 4f be fa 3e 5a 3e 33 90 1a bc 3d 11 52 3e
       -0.20287298 0.21313086 -0.009433794 0.20514388
0000f0 0c d2 f3 bc a0 39 13 be 40 4c 2e 3e 7a 34 4d 3d
       -0.029763244 -0.14377451 0.17021275 0.050098874
000100 db 26 3c bf dd e3 4f 3e 69 3d e3 be 28 35 d1 3d
       -0.7349679 0.20301767 -0.4438279 0.10215217
000110 93 79 4e 3e e8 87 8c be a3 62 be be 44 f6 c3 3d
       0.20163564 -0.27447438 -0.3718463 0.09568456
000120 a6 3c d0 be 1d 8c 13 3d 67 04 de be c6 ca f7 3d
       -0.4067127 0.036022294 -0.43362734 0.12099223
000130 f1 29 5a 3e 71 78 40 be 38 94 d5 be c1 ed 9c 3e
       0.21305062 -0.18795945 -0.41714644 0.30650142
000140 7a 46 11 3e 73 bb 1b 3e 25 69 26 be 0f ec 3a 3e
       0.14187041 0.15208225 -0.16251047 0.18254112
000150 a6 51 21 3e 96 d6 03 3e 9a 9c d1 3c 41 f6 05 bf
       0.15753803 0.12874827 0.025587369 -0.5232888
000160 c3 91 27 be f4 da 1b 3e 29 b4 19 be 7a 75 37 3e
       -0.16364197 0.15220243 -0.15010132 0.17915908
000170 f8 df 44 bf 76 fa 87 3e 61 44 a2 3d a3 d1 6e 3e
       -0.7690425 0.26558274 0.079231985 0.23322158
000180 64 80 48 be 2f be aa 3d 77 c0 b8 3e 7e b4 1d 3e
       -0.19580227 0.08337056 0.3608434 0.15400884
000190 ab c7 8a be df 9f 2a 3e e4 f3 03 3e 2e a1 d7 be
       -0.2710546 0.16662548 0.12886006 -0.42115158
0001a0 6b 5e 41 3e 39 49 39 bf c8 d7 fe 3d 03 e3 8a bd
       0.18883674 -0.72377354 0.12443501 -0.0678158
0001b0 7d 12 11 bd 85 e4 f3 3c e8 8b 65 bd 95 15 1e bc
       -0.035418022 0.029772053 -0.056041628 -0.0096487
0001c0 4f 21 1c 3e 12 a6 cb bd bf 1a 46 3e b3 07 ac be
       0.15247081 -0.09943785 0.1934614 -0.33599624
0001d0 15 da 88 be f4 91 65 bf 16 a4 d0 3c f7 c1 31 3e
       -0.26728883 -0.8967583 0.025468867 0.17359148
0001e0 99 18 96 3d 5f b0 19 bf 8b b6 d3 3d f9 10 b4 3d
       0.073289104 -0.60034746 0.10337552 0.087923
0001f0 9b fc eb 3d f5 b3 38 3e 71 b0 25 3e c1 75 39 bf
       0.1152279 0.18037398 0.16180588 -0.72445303
000200 8c 3f f5 be 42 b9 19 bf bf 22 7f 3e 38 de a8 be
       -0.47900045 -0.60048306 0.24915598 -0.3298204
000210 69 69 91 bc 8a cb 20 bf 53 5a de 3c 26 51 1d 3e
       -0.017750459 -0.62810576 0.02714268 0.15362987
000220 3a 18 85 be 8b 96 19 3e 93 dd 96 3d 5d 29 e0 be
       -0.25995046 0.14998834 0.07366481 -0.43781558
000230 65 c5 22 3e c1 b3 20 3e 7e cc ad be cb 86 24 bf
       0.15895613 0.1569357 -0.33945078 -0.6426818
000240 ac f8 49 3e 15 e6 2d 3e df 54 6f 3e 3a 75 0e bf
       0.19723767 0.169823 0.2337222 -0.55647624
000250 f5 93 cc 3d f5 aa 68 3d 56 57 21 3e 03 96 f9 3c
       0.09989158 0.056803662 0.15755972 0.030467039
000260 22 bd a1 be 6c 6c 4f 3e c8 53 b1 be d1 4b c7 be
       -0.3158961 0.20256203 -0.34634233 -0.3892503
000270 f7 89 c2 3d 0c 8e ca be c3 aa 4b 3e 45 be 26 bf
       0.09498971 -0.39561498 0.19889359 -0.6513408
000280 3f c8 b9 bc ce 3e 1e 3e 14 2f e5 be 05 f8 7b 3e
       -0.022678493 0.15453646 -0.4476248 0.2460633
000290 47 b2 8d 3e 62 95 4e 3e 35 11 16 bf 3b 7a 06 3e
       0.27675077 0.20174173 -0.58620006 0.13132565
0002a0 ff 42 45 3e 90 1b 0b 3e 27 68 7a be 72 1b 4b 3e
       0.19263838 0.13584733 -0.24453793 0.19834688
0002b0 86 c4 3c 3e cc db 59 bf 16 9d 06 bd 6f bb 3a 3e
       0.18434343 -0.8510101 -0.032864653 0.18235563
0002c0 c4 a6 8b 3e bd 6a 06 3e 03 32 49 3e 6a 30 74 3d
       0.2727567 0.13126655 0.19647984 0.059616484
0002d0 e0 d8 88 3d 3b 0a 25 3e ea b3 3e 3e 87 ed a5 3d
       0.066819906 0.16117184 0.1862332 0.08101945
0002e0 22 8e 15 bf af 38 60 3e ab 18 38 bf 82 4d f6 be
       -0.5842 0.21896623 -0.7191264 -0.4810601
0002f0 92 72 43 bf 3c 55 3c 3d 5d 1b 36 3e b2 33 b1 3d
       -0.76346695 0.045979723 0.17783876 0.08652438
000300 a7 90 1d be b0 fb 24 3e 50 50 21 3e fd 3b b6 3d
       -0.15387212 0.16111636 0.15753293 0.088981606
000310 1f 5b 42 3e 4d 77 1d 3e e3 7e ee 3d 76 f6 45 bf
       0.18980072 0.15377541 0.116452955 -0.77329195
000320 cf ac d3 be 0f d2 66 3e 39 e8 f3 3d b8 88 f3 3d
       -0.4134278 0.22541068 0.11909527 0.118913114
000330 06 03 37 3e e9 07 1c 3d f8 09 13 3e cd 98 58 be
       0.17872247 0.03809348 0.14359272 -0.21152039
000340 19 7d 15 3e 66 dc 12 bf 9a 5c a0 bd 6d e1 c3 be
       0.14598502 -0.5736755 -0.07830162 -0.38257924
000350 80 81 0a 3e 3b 06 ea 3d cc d4 09 3e 8c 1b c5 3d
       0.13525963 0.114269696 0.13460082 0.09624395
000360 7f 15 01 3e 11 00 cd be 62 97 64 3e b8 9c 39 3e
       0.12605856 -0.40039113 0.22323373 0.1812619
000370 4a e4 4b be 84 b4 c1 be 42 98 45 bd 67 06 f8 be
       -0.19911304 -0.37833035 -0.048240907 -0.48442385
000380 d4 fa b9 3d fa 27 24 bf 0c f8 03 be b0 b5 18 bf
       0.09081045 -0.641235 -0.12887591 -0.59652233
000390 b9 d5 7f 3e 1b a8 a4 bc 16 b6 dc 3d bb e3 ab be
       0.24983872 -0.02009969 0.10776918 -0.33572182
0003a0 76 12 a8 be 11 f7 d7 3d ae 87 d5 3d dc 9e e2 3d
       -0.32826585 0.10545171 0.104262695 0.11065456
0003b0 34 cd 19 3e d8 21 91 3d ee 30 ea 3e 8b 6d b3 be
       0.15019685 0.07086533 0.45740455 -0.35044512
0003c0 f1 6a 91 be b5 ca 10 bf d7 f8 ab be 51 76 fa 3d
       -0.28401902 -0.56559306 -0.33588287 0.12229598
0003d0 f7 9a 12 3e 96 c8 e5 bc 5a 7b 10 bd 7f 33 37 3e
       0.14316927 -0.028049748 -0.035273887 0.17890738
0003e0 1b a4 97 3d 87 a6 2a 3e 13 3e 15 3e ec e1 a7 be
       0.074043475 0.16665088 0.1457446 -0.32789552
0003f0 2e 2b 5d 3d d3 8f 27 3e 39 06 03 3e 70 65 ee 3d
       0.053996257 0.16363458 0.12795343 0.116404414

output_conv.bias f4 [6]
000000 ed 8c e4 3c a8 3f f2 bd 4a 7f 8d 3e da a3 24 be
       0.02789923 -0.11828548 0.27636176 -0.1607813
000010 73 f5 f0 3d b9 7b 79 3e
       0.11765566 0.24363603
