training/trained_models/model_standard_pulse.pth (torch, 85866 bytes, 14 tensors)

conv1.weight f4 [32, 2, 3, 3]
00000000: 86a9 0f3e e219 b03d e5ed fd3d 1ce1 373c
00000010: a5f8 acbd 7b1a 403c 5d98 4abe d861 983d
00000020: a833 1cbe 8e74 133e 4bea 2d3e 888d 1a3d
00000030: 143d 083d 5abe 363e 25de bdbc c777 a73b
00000040: 3595 30bb 8f60 83bd 0634 2dbe 6854 0f3e
00000050: 8819 66bc 05f1 173e e16e 283e 8dbd 2a3c
00000060: 3ffb 0abe c48b 2e3d 660a 3ebd b596 3d3d
00000070: 890b 97bd 5290 be3d 5075 d2bc 54de 3fbd
00000080: ffed 7fbd d6ec adbd 43ed 69bd 91e2 84bd
00000090: dc52 fa3d 8758 dd3d ed6e 063e 7bfb 003e
000000a0: 72ce 803d d171 5a3d 6530 2e3d 3466 0a3e
000000b0: ca46 023e 705b 7abd eb68 76bd bff6 5cbd
000000c0: 476d 1abc 2a66 5fbb c177 823d 236d d3bd
000000d0: 9147 6ebd 25ca babd 1eff 4dba 8e2f 243d
000000e0: 10d0 44be 5de5 b8bd 72b9 12bd e69c b43d
000000f0: 1808 d23d 052b de3d 2240 413c 1ea1 943d
00000100: 1972 40bd a93f c73c 7e84 56bd 02ba c23d
00000110: a9c3 0ebd f4d0 8cbc ef38 603d ba3c 143e
00000120: 2f6f d53d 14d4 8bbd 5bf6 483d cac7 243e
00000130: d09a a33c 10a6 3ebe 9563 bb3c bca0 933d
00000140: dbff 1d3d 19fa b2bc 4ff2 aabd 57f6 a1bd
00000150: 911d debd d446 b9bd 0e3b a1bc 79d0 573d
00000160: 82d2 b83d b8a0 813c d3a4 02be d57e be3d
00000170: b3eb 08be ebb8 18ba 3fc8 09be 5861 213d
00000180: 3c6f 323d 6dba 6e3c 9ae6 a43d 58d4 133d
00000190: f665 d63d 4d7d 15bd 1a0b 693e ed31 acbc
000001a0: 8f49 b43d c29f a73d eeb9 ce3d dea4 9b3d
000001b0: 7315 d93d a800 923d 9ff0 08be be31 8c3d
000001c0: 0063 7a3a 29e8 9fbd cf62 e0bd cff9 883d
000001d0: 3577 e8bd 80f8 27bc 2cd7 77bc 27a8 4cbd
000001e0: 27e6 1b3e 813a 3c3d 53a3 dc3d 5912 5f3c
000001f0: d1a7 5fbc d832 2c3c 56b4 213b fea3 20bd
00000200: a83a 03be 937d 89bc 50be 563b b269 abba
00000210: 215f afbd 4ab8 bfbd 5315 92bd 9aea d63d
00000220: 200a 0c3e 75de c4bd 557b ef3c b18f e8bc
00000230: 6b33 88bd 2cf3 5abd 0fd2 adbc 2cb7 82bd
00000240: 88d2 f9bd cf0f 00be dbb2 0bbe 2489 c73c
00000250: 171d 223e e343 033e 9589 9f3d 177e 173e
00000260: c3d6 103e 84f3 d23c 1194 ecbc 24dd 54bd
00000270: c81d d5bc 2c95 03bc c5b2 f83c 2313 02be
00000280: 082f 17bd 0f01 a3bd 99ba d1bd d21f a7bc
00000290: 916f 063d ea0c 353d 3468 34be acde 9a3c
000002a0: bf55 06be 0a55 b3bd e9fe 26bc e6f4 403d
000002b0: 9690 3bbd aac1 dcbd e15b b23d f77d 80bb
000002c0: 61c5 64bc 8579 143d c2d8 8e3c 43ca 65bd
000002d0: e602 7c3d 5fc1 c63c 5efe 9fbd 916d 963c
000002e0: d48a febd e514 9fbd e129 89bd 5365 06be
000002f0: 4e15 e5bd 7df9 cfbd 9ba6 6bbb 1b1c 433d
00000300: f3c1 41bc 0133 453d ac75 453e 7bc3 983d
00000310: dc0a 983d 91e5 3cbc 3225 313d 6448 4b3c
00000320: cc0d d53c b2ea 37be d1d4 2fbe df4a 923b
00000330: dce8 6a3d bc81 00be 1f35 bdbd f709 4abd
00000340: 3b05 d33d c461 193d e8a1 443d 16c3 d4bd
00000350: 94a2 91bd 0a50 94bc 63a0 353d 467b 4d3a
00000360: 1617 c8bc 5f54 9dbc 7557 953d b6d7 2f3c
00000370: 15cf abbd 7b34 afbd 863b e53d 96f8 26bd
00000380: d631 e93d f002 f13c 5c42 af3c fba2 113e
00000390: 5d7d 5cbd 370e ccbd 98b4 093e ef4e 6b3d
000003a0: 4131 f4bd 13ec 163e 952b 0fbe 2ef4 fe3d
000003b0: 7834 153e c851 e139 6964 29bd 6521 72bd
000003c0: 7242 11be b023 f73d 9081 0cbe 542b 95bd
000003d0: b5e1 a13c 22e7 ad3d bff3 103d bfb7 18bd
000003e0: 2ae7 eb3c 4392 883c 5626 d33d f975 683d
000003f0: 76ff b43d 31e6 483d a22f 2a3d 93ff 54be
0.14029512 0.08598687 0.123988904 0.011223104 -0.08445863 0.011725063 -0.19784684 0.07440537
-0.1525408 0.14399931 0.16983907 0.03773263 0.033261374 0.17846051 -0.023177216 0.005110714
-0.0026944403 -0.064149015 -0.16914377 0.13997042 -0.014044173 0.14838035 0.16448547 0.010421169
-0.13572405 0.04261376 -0.046396635 0.046286304 -0.07375247 0.09304871 -0.025690705 -0.046842888
-0.06248283 -0.084924385 -0.057111036 -0.064885266 0.122228354 0.10807901 0.13128252 0.12595932
0.06289376 0.0533312 0.04252662 0.1351555 0.12722316 -0.061122358 -0.06015865 -0.053946253
-0.009425468 -0.0034087994 0.063704975 -0.103235506 -0.05817372 -0.09120587 -0.0007858145 0.040084414
-0.19219995 -0.090281226 -0.035821386 0.088189885 0.1025545 0.10848049 0.011795076 0.07257293
-0.046983812 0.024322348 -0.05237245 0.095081344 -0.034854565 -0.01718948 0.054741796 0.1447629
0.10421597 -0.0682756 0.049063068 0.16091838 0.019971281 -0.18618035 0.022874633 0.07208392
0.03857408 -0.021847771 -0.08346998 -0.07908314 -0.10845483 -0.090467125 -0.01968148 0.05268905
0.09024526 0.015823707 -0.12758188 0.09301535 -0.13371162 -0.0005825895 -0.13455294 0.039399475
0.043563113 0.014570815 0.08051796 0.03609118 0.10468666 -0.03649645 0.22758141 -0.0210199
0.08803093 0.08184768 0.10094057 0.07599805 0.10599794 0.071290314 -0.1337304 0.06845425
0.00095514953 -0.07807953 -0.10956346 0.06688272 -0.11350862 -0.010252118 -0.015126985 -0.04996505
0.15224515 0.04595423 0.10773339 0.013615214 -0.01365085 0.010510169 0.002467414 -0.039218895
-0.12815344 -0.016783511 0.0032767244 -0.0013077764 -0.08563066 -0.09361322 -0.071329735 0.104939654
0.13675737 -0.09612743 0.029233614 -0.02838883 -0.06650432 -0.053454563 -0.021218328 -0.063825935
-0.12198359 -0.1250603 -0.13642447 0.024357386 0.1583141 0.12818865 0.077899136 0.14794193
0.14144425 0.025750883 -0.028879197 -0.05196871 -0.026015177 -0.008031171 0.030358681 -0.12702613
-0.036910087 -0.07959186 -0.10240669 -0.020400915 0.03282124 0.04420177 -0.17617875 0.018905006
-0.13118647 -0.08756454 -0.010192611 0.047108553 -0.045792185 -0.10779126 0.08708931 -0.003921266
-0.013963074 0.036248703 0.017437343 -0.056101095 0.0615262 0.024262128 -0.078121886 0.018362792
-0.12428823 -0.07767657 -0.06697441 -0.1312459 -0.11185704 -0.10155008 -0.003595746 0.047634225
-0.011826026 0.048144344 0.1928317 0.0745916 0.07423946 -0.011529342 0.043248363 0.012407396
0.026007555 -0.17960623 -0.17171027 0.0044644917 0.05735098 -0.1254949 -0.09238648 -0.04932591
0.10303732 0.037446752 0.04800597 -0.10388772 -0.071110874 -0.018104572 0.04434241 0.00078384986
-0.02442507 -0.01920527 0.07292072 0.010732582 -0.08389107 -0.08554932 0.11192994 -0.040764414
0.113864586 0.029420346 0.021393947 0.14222328 -0.053830493 -0.09963649 0.13447797 0.057448324
-0.11923457 0.14738493 -0.13981469 0.12448917 0.14570796 0.00042976276 -0.041355524 -0.05911388
-0.14185503 0.12067354 -0.13721299 -0.07283655 0.019760946 0.08491351 0.035388704 -0.03728461
0.028796751 0.016671306 0.103100464 0.056753132 0.08837788 0.049047653 0.041549332 -0.20800619

conv1.bias f4 [32]
00000000: f585 5736 a227 5537 3e37 cdb4 f5de 8537
00000010: b9b9 fc37 4829 0ab7 f3b2 8337 1b4a 5bb8
00000020: 9f41 c4b6 4283 9a35 7cb9 a0b7 3434 d9b7
00000030: f43c a9b6 3a82 c5b7 91b4 7137 d71b 9037
00000040: f74e 68b8 c7ed 46b7 4346 2437 2056 cf36
00000050: 58e4 b1b5 df4d 1738 0b6f 8038 3261 0035
00000060: 0f32 7fb6 98aa c4b7 8ed9 8337 7c33 9f36
00000070: c9c7 7fb7 9285 5db7 9482 3037 edad 62b6
3.211547e-06 1.2705017e-05 -3.822442e-07 1.5958658e-05 3.0127225e-05 -8.2350525e-06 1.5699747e-05 -5.2282685e-05
-5.8488945e-06 1.1512095e-06 -1.915986e-05 -2.5892725e-05 -5.0436884e-06 -2.3544872e-05 1.4406761e-05 1.7179102e-05
-5.5386652e-05 -1.18570815e-05 9.791521e-06 6.179107e-06 -1.3253984e-06 3.607373e-05 6.124199e-05 4.7825154e-07
-3.80271e-06 -2.344446e-05 1.5717724e-05 4.744563e-06 -1.52457005e-05 -1.3203726e-05 1.052082e-05 -3.3777862e-06

conv2.weight f4 [64, 32, 3, 3]
00000000: 3ee1 59bc d3fc 8e3c a18a 47bc 006d 173c
00000010: 5515 1dbc 720a 97bc 2ca9 bd3c 3450 503b
00000020: 77b2 693c e946 86bb 04be c03c 5469 1ebd
00000030: 58fd 8abc 5950 6a3d 2cf0 b6bb 62f0 963b
00000040: 222e 41bc b5c7 aabc e41a f5bc 6ae6 d4bc
00000050: f8ec 8cbd 4f3c 83bb 5a7b 9b3c 01d6 783b
00000060: 8d9f fdbc 8467 13bd f0a5 8fbd 78b7 923c
00000070: 408a 0f3c 1230 b43c 7095 e0bb fe01 3c3d
00000080: 20cc 7cbd e1f5 13bd 3493 413c c534 4dbb
00000090: c2cc a6bc 1f5f b13c 4806 293d 4c80 6bbc
000000a0: 9c51 03bd fefe 8ebd bf9f b53c 7ebb 86bb
000000b0: 3898 9c3c 84d8 e23c f512 a13c 2da2 8cbc
000000c0: 0d3e 42bb 6490 05bd 1330 313d 1def e4bc
000000d0: d985 7f3c 2a4d 2ebd 5306 083d e7cf 893c
000000e0: 52d2 7bbc 50d0 80bd d378 81bb 4a1b 9c3c
000000f0: 2899 0fbd 83e7 69bc 0918 be3c cd2a b7bb
00000100: 731b 0ebc 4488 aebc edb3 643d 9597 d2bb
00000110: 7e82 8b3d 6ed7 b1bc fa79 393c 7b02 143c
00000120: a196 8b3c f350 fb3c ab5a a4bc 5a9e 8cbc
00000130: a99d b53c 4004 b6bc 641e a8bc 426a 2ebd
00000140: 3010 203d 8ce9 d7bc cf4e 483c 30a0 19bd
00000150: 7584 643d 5c19 87bc 9ce7 d03b b468 023d
00000160: 1248 0dbc 1822 3ebc f921 2a3c 4404 a9bc
00000170: 941b f4ba 0603 2b3d 36fb 6cbc df83 a3bc
00000180: b0ea 08bd 7a40 813b 2fe5 a53c 4f50 57bc
00000190: dbf3 2ebc c8e5 5c3b 1abf 2cbc 6a8c f8bb
000001a0: 7256 8a3d 2477 733c 62c8 43bc db01 1ebd
000001b0: 07c2 263c 4698 e3bc 45eb 1d3c 65a9 003d
000001c0: 20b1 55bc 893f 0abd 206e df3c 8ad5 ce3c
000001d0: 93a4 1b3d 26c6 25bd a742 573c b0c6 1dbd
000001e0: e676 cb3c 5db1 79bc 4311 983c 613b 383d
000001f0: 94c9 583d 7350 553a 1caf 77bc 3d36 8fba
00000200: ad72 ddbc edab 0fbc af82 e73c 8cac 723b
00000210: 2249 03bb 0070 81bc 0d2b d2bc bc9f debc
00000220: 340a 83bb f210 9dbc d404 69bb 4807 7cbc
00000230: 27ff 4f3d 3a95 aabc bfa2 5ebc dccb 403c
00000240: 3338 d83b 2b6f 97bb 83d7 b73c 46f7 003a
00000250: 9091 703d 0ece 8ebc e97a cf3c 8a4c e53b
00000260: 8809 053d c758 ec3c 179c b1bc df10 d43c
00000270: 8afd af3c 605a cfbc 13e9 693b fbb5 613d
00000280: 1e63 443d 73c3 083a f97e 993c 1d97 14bd
00000290: da15 493d 71c6 eabc ad8b 53bc 730a 853c
000002a0: 4f9f 02bd dc57 edbc d4fe 8abd 2b3d 29bb
000002b0: 19c1 37bd a46c 4b3d de74 1f3d bcf6 313d
000002c0: 5411 e83c 5a6e 0fbb 8fe1 1abc 52e0 403d
000002d0: 0a3f 4d3d 503c 213b 2e5a f33b 780d c83c
000002e0: e465 073d f04e 0abd a007 553c 852c 333c
000002f0: 6250 21bd 2be3 dc3c 9fd4 de3c 9c52 70bc
00000300: 5a18 8fbd 739e b33b 8406 b1bc 4314 8ebb
00000310: 17af e83c 87bf 4cbc de7d 91bb 7e84 1f3d
00000320: 8b70 613b 359f 1a3d 4ccd c6bb 90ec 23bc
00000330: c542 823c c261 6cb9 6e58 18bd 8953 03bd
00000340: d5d3 1d3c f085 383d d914 d4bc 3ace 8fba
00000350: 445e a9bc d243 4c3d a8d1 5dbc 2484 063d
00000360: fbd8 8bbb a208 43bd 90de 003d e14a 913c
00000370: e2a1 953a 069d 923d 73a4 4e3b fcb1 d83c
00000380: 7191 c73b d495 47bc c34a cfbc d49f 073d
00000390: 46df 1e3d 3f00 6ebc db9e 553d 4f54 bf3c
000003a0: 9581 06bd e75b 0b3d be3a 3b3c e1c6 2cbb
000003b0: 24e2 30bb 9bd1 abbc f981 34bc 6be5 1c3d
000003c0: 83b5 1f3b 341f 3d3d ff61 b4bc 088b 21bb
000003d0: ba91 a63c 291e b0bc 17a7 4f3d ba16 91bc
000003e0: c5cc c3bb 289f 5ebd a5cc 1bbd 7d48 0fbd
000003f0: 24a1 8cbc a9cf a3bc 02ec 86bc f087 f9bc
-0.013298331 0.01745454 -0.012179048 0.009242296 -0.0095876055 -0.018437598 0.023151956 0.0031786086
0.014263741 -0.0040978086 0.023528107 -0.038674667 -0.016966507 0.05720553 -0.00558283 0.0046062926
-0.011790784 -0.02084718 -0.029920049 -0.025988776 -0.06881136 -0.004004992 0.018979717 0.0037969353
-0.030959869 -0.035987392 -0.07014072 0.01790975 0.008760989 0.021995578 -0.006853752 0.045900337
-0.061718106 -0.03612316 0.011814881 -0.003131197 -0.020361308 0.021651803 0.041265756 -0.01437385
-0.03206025 -0.0698223 0.0221709 -0.0041117063 0.019115552 0.027691133 0.01966236 -0.017167175
-0.0029639036 -0.032608405 0.043258738 -0.02794605 0.015595877 -0.042554058 0.033209156 0.016822768
-0.0153699685 -0.062897325 -0.003951171 0.019055981 -0.03505817 -0.014276388 0.02320482 -0.005589819
-0.008673537 -0.02130521 0.055835653 -0.0064267614 0.06811999 -0.02170917 0.011320585 0.0090337945
0.017039599 0.030678248 -0.020062765 -0.017165352 0.022169905 -0.022218823 -0.020522304 -0.042581804
0.039077938 -0.026356481 0.012225821 -0.037506282 0.055790383 -0.016491584 0.0063752662 0.031838134
-0.00862314 -0.011604808 0.010384076 -0.020631917 -0.0018623942 0.04175093 -0.01446419 -0.019960342
-0.03342694 0.003944454 0.020250885 -0.013141706 -0.010678257 0.0033706296 -0.010543609 -0.007585098
0.067547694 0.014859948 -0.01194963 -0.03857599 0.010178096 -0.02778257 0.009638612 0.031411547
-0.013042718 -0.033751998 0.027274191 0.025248308 0.037998747 -0.040472172 0.01313845 -0.03851956
0.024836969 -0.015240041 0.018562919 0.044978503 0.052926615 0.0008137293 -0.015117433 -0.0010926198
-0.02703222 -0.008769018 0.028260557 0.0037029115 -0.0020032604 -0.015800476 -0.025655294 -0.027175777
-0.003999019 -0.01917312 -0.0035555856 -0.015382595 0.05078044 -0.02082311 -0.013588606 0.011767354
0.0065984963 -0.0046214066 0.022441631 0.0004919659 0.05873257 -0.017432239 0.025327163 0.0069976496
0.032479793 0.028850926 -0.021680875 0.025886951 0.021483202 -0.025311649 0.0035691902 0.05510519
0.047946088 0.00052171125 0.018737303 -0.036276925 0.049093105 -0.028659077 -0.012911719 0.016240334
-0.03189021 -0.028972559 -0.06786886 -0.0025823812 -0.044861887 0.049664155 0.038929813 0.043448195
0.028328575 -0.0021885843 -0.009453191 0.04708893 0.050108947 0.00246026 0.0074265217 0.024420485
0.033056155 -0.033766687 0.013002306 0.010935907 -0.0393833 0.02696379 0.027200995 -0.014668133
-0.069870666 0.005481535 -0.021609552 -0.0043359115 0.028403802 -0.012496836 -0.0044400534 0.038944714
0.0034399356 0.037749488 -0.0060669538 -0.010005131 0.015900979 -0.00022543131 -0.037193708 -0.032062087
0.009633024 0.045049608 -0.025888847 -0.0010971494 -0.020674832 0.049869366 -0.0135387555 0.032840863
-0.0042678094 -0.047615655 0.031462252 0.0177359 0.0011416043 0.07158856 0.0031531125 0.026452057
0.006090336 -0.012181718 -0.025304204 0.03311141 0.03878715 -0.014526426 0.05215345 0.023355631
-0.032838423 0.03402319 0.011427579 -0.0026363658 -0.002699026 -0.020973971 -0.011017316 0.038304728
0.0024369664 0.046172336 -0.022019384 -0.002464952 0.02033316 -0.021498756 0.05069646 -0.017711032
-0.005975338 -0.054351002 -0.03803696 -0.03498124 -0.017166682 -0.019996481 -0.01646996 -0.030460328

conv2.bias f4 [64]
00000000: c52e 2537 a5cf 2db7 a841 6b37 e303 16b6
00000010: 51c7 af34 25cc 6437 719c b2b6 c98d 91b6
00000020: 58aa c2b6 6818 c7b6 c679 b036 896f cc35
00000030: 30c1 4537 11d6 0b37 e705 3837 d48c 5337
00000040: aacf cd36 0013 97b5 f1f4 8b37 176f ce35
00000050: 442a f1b7 9e35 a737 5457 2eb6 9568 7036
00000060: 92f6 2637 acde 02b6 94a8 e736 c86b bfb6
00000070: 4ee9 8737 5824 95b5 c25d acb5 147f f835
00000080: b8d6 b737 9dc8 a135 32e1 c635 ab4c 9c36
00000090: 19ed 1735 2996 84b6 bce4 11b5 ef5c 54b5
000000a0: 8a22 0d37 e476 e435 5937 0ab7 1f6f 5637
000000b0: 06bd 6eb6 0960 e3b7 703a 0536 6c65 3db6
000000c0: 1fd3 5837 8200 d7b6 676e 3734 6800 9fb7
000000d0: 3eb2 6936 c61f 5fb7 3f48 8cb7 bf78 8936
000000e0: 525d aab5 47c7 3437 1719 44b7 f1cb 2234
000000f0: f6ca ff36 6c80 6fb5 3905 8836 5c37 30b7
9.845656e-06 -1.035995e-05 1.4022378e-05 -2.2354004e-06 3.2741312e-07 1.363739e-05 -5.3230256e-06 -4.3378427e-06
-5.801481e-06 -5.9335034e-06 5.259385e-06 1.5231645e-06 1.1787095e-05 8.334887e-06 1.0968629e-05 1.2609369e-05
6.1336514e-06 -1.1255906e-06 1.6684151e-05 1.5380527e-06 -2.874912e-05 1.9932919e-05 -2.5978852e-06 3.5823662e-06
9.95178e-06 -1.9501122e-06 6.9039615e-06 -5.704791e-06 1.6201895e-05 -1.1111943e-06 -1.2842286e-06 1.8514424e-06
2.1915286e-05 1.2053821e-06 1.481769e-06 4.6580876e-06 5.6596906e-07 -3.9513875e-06 -5.434956e-07 -7.911139e-07
8.412297e-06 1.7021925e-06 -8.238328e-06 1.2781266e-05 -3.557479e-06 -2.7105229e-05 1.985256e-06 -2.822223e-06
1.2923759e-05 -6.4075584e-06 1.7083367e-07 -1.8954466e-05 3.4823456e-06 -1.3299234e-05 -1.6722943e-05 4.096975e-06
-1.2693147e-06 1.0775234e-05 -1.1688352e-05 1.5161619e-07 7.62322e-06 -8.9221317e-07 4.053724e-06 -1.0503307e-05

bn1.weight f4 [32]
00000000: 4cf2 0e3f ce04 003f 0ca1 1b3f 6623 ef3e
00000010: 428e 143f 69f8 0c3f a83c ef3e 39ec 0d3f
00000020: c8f5 103f 5d8f 053f c813 173f b1f8 103f
00000030: 3c0b ed3e 05f2 f13e dc15 0e3f 7e34 f63e
00000040: f6b7 f93e cfce 073f 0d0f 093f 71cf 0a3f
00000050: 1de6 f63e c2bf 0b3f e41f 0d3f 835b 073f
00000060: 1871 153f 7ebf 1a3f 90db 033f 5d09 043f
00000070: cf3d 093f 94ea 103f 86e4 2a3f ede7 053f
0.55838466 0.5000733 0.60792613 0.46706694 0.5802957 0.55066544 0.46725965 0.5543857
0.5662503 0.5217188 0.5901456 0.5662947 0.46297634 0.4725496 0.55502105 0.48086923
0.48773164 0.5304994 0.5353859 0.5422278 0.48222438 0.54589474 0.55126786 0.5287401
0.5837569 0.60448444 0.515069 0.5157679 0.5360994 0.5660794 0.6675495 0.52307016

bn1.bias f4 [32]
00000000: 2bb4 cdbc 04bd af3d 39bc 90be e3ce 36bb
00000010: aba6 80bd 712b 83bd 3dac 67bc 9301 393e
00000020: 9d4e 913c 8d2b 343e b272 963d ddf1 593e
00000030: 4494 42bd a03f f53c 49e2 dabd 5789 a5bd
00000040: 6289 c1bb e948 d8bd 5b13 37be 4378 28bd
00000050: 578a 4f3b c8d4 0ebe 9942 453d 39aa e5bd
00000060: 5283 b33d 9dc2 023e 23c0 adbd 8936 f93d
00000070: d4c8 44be 7b86 14be b7f1 0c3e c17d 7abd
-0.025110325 0.08580974 -0.28268602 -0.002789431 -0.062817894 -0.0640477 -0.014140186 0.18067007
0.017737681 0.17594738 0.07346095 0.2128367 -0.04750468 0.029937565 -0.10687692 -0.08082836
-0.00590627 -0.105607815 -0.17878477 -0.041130316 0.003166815 -0.13948357 0.048159216 -0.11214108
0.08765282 0.12769552 -0.08483913 0.12168605 -0.19217235 -0.14504425 0.13764082 -0.061155085

bn1.running_mean f4 [32]
00000000: 5b01 a53b d092 0e3d fef2 be3d 7c99 b13b
00000010: a498 873c 5c65 49bc 0c02 5ebb a853 24bd
00000020: ee96 2c3d 3e8b 52bd ea01 58bd 7cc4 7abd
00000030: 25ae d2bb 1d38 03bc 4714 b13c 0f3f d43c
00000040: f0f3 a1bc f27c 973c e74d 773d 52fd c93c
00000050: d393 88bb 1b16 d93c fdf3 0abd 6bb8 433c
00000060: 8134 86bd a03f 68bd 5c06 61bc de4e cabc
00000070: 946b 9a3d cc57 b23d a1bf adbd e46c e0bb
0.005035562 0.03480798 0.09323691 0.005419908 0.016552277 -0.012292232 -0.0033875732 -0.040118843
0.042136125 -0.051402323 -0.0527362 -0.06122254 -0.006429451 -0.008008984 0.021616114 0.025908975
-0.019769639 0.018492196 0.060377028 0.024656925 -0.0041680126 0.026499799 -0.03392409 0.011945824
-0.06552983 -0.056701303 -0.013734426 -0.02469581 0.0754005 0.08708152 -0.08483816 -0.0068489183

bn1.running_var f4 [32]
00000000: 2724 363c b144 4a3c 9174 2f3c f9e5 f03b
00000010: 1dab 183c 62ef f53b fb62 d53b 5b7b 7e3b
00000020: b4e1 7e3c c31a 003c 9b5d 013c de48 343c
00000030: ff6f a03b f87b 1b3c 1646 0f3c 3977 c43b
00000040: 7e0d b33b aff1 313c 5bac e33b 6242 513c
00000050: f5c3 143c b0c5 113c c1fc dd3b 2a22 be3b
00000060: b58c 393c 8fdb 3b3c fb88 1d3c 9eda 9b3b
00000070: 1c3e 073c cccb 633c 7c1d 303c 9f8d f13b
0.011117018 0.012345479 0.010708944 0.0073516336 0.00931814 0.0075053433 0.0065120435 0.003883085
0.0155567415 0.0078188805 0.007895852 0.011003701 0.0048961635 0.009490006 0.008744737 0.0059956578
0.005464255 0.0108608445 0.0069480366 0.012772175 0.009079923 0.00889723 0.0067745154 0.0058024125
0.011325051 0.011465921 0.009615178 0.004756286 0.008254554 0.013903569 0.010749217 0.007371619

bn2.weight f4 [64]
00000000: 2e16 283f 4300 453f af87 283f 463e 183f
00000010: 5625 463f 9305 213f 7c03 2c3f dec6 1e3f
00000020: 479a 253f c8da 1b3f b219 253f e557 343f
00000030: 3fe6 1f3f 9346 323f 34cc 3b3f e19c 3a3f
00000040: 8c97 243f 3e5a 1f3f 0400 3c3f c3ff 193f
00000050: 2640 353f 852e 543f b2eb 2c3f 0ca9 3f3f
00000060: f20b 3c3f 0991 0a3f f53f fa3e c0d3 1f3f
00000070: af0a 3e3f 741f 423f 0933 173f 83d8 343f
00000080: 5965 163f 2ff6 303f 62c1 513f 2064 153f
00000090: f6e7 073f 1d8d 223f 3a98 1c3f f7aa 2a3f
000000a0: 6096 203f 5df6 263f ecac 2b3f eb89 2e3f
000000b0: 4675 283f 829c 3a3f c528 1b3f ea13 193f
000000c0: a541 1f3f 8aaf 1f3f 5d90 3b3f e573 273f
000000d0: 2499 523f 703d 403f 31b3 303f e6e6 143f
000000e0: 307b 283f 17a1 233f 2951 123f e905 303f
000000f0: bf01 2a3f 137f 243f 8873 243f f7a0 ff3e
0.65658844 0.76953524 0.65832037 0.5947002 0.7740072 0.6289913 0.67192817 0.620222
0.64688534 0.6088071 0.6449233 0.70446616 0.624607 0.6963894 0.73358464 0.7289563
0.6429374 0.62247074 0.73437524 0.60155886 0.7080101 0.82883483 0.6754714 0.7486732
0.7345573 0.54127556 0.4887692 0.6243248 0.7423505 0.75829244 0.5906225 0.7064287
0.58748394 0.69125646 0.81935704 0.58355904 0.5308832 0.6349657 0.6116978 0.6666712
0.62729454 0.6521967 0.6706073 0.68179196 0.65803945 0.7289506 0.60609084 0.5979601
0.6220954 0.62377226 0.73267156 0.65411216 0.82264924 0.75093746 0.69023424 0.58164823
0.6581297 0.6391768 0.5715509 0.6875902 0.66408914 0.642564 0.64238787 0.49927494

bn2.bias f4 [64]
00000000: 22c4 05be 7269 97ba 840c 63bc cfd1 c33c
00000010: 88db 11be b7af edbc 8677 5f3d 2f8c a4bd
00000020: a894 623e 855b 45be 8576 5ebd ff66 08bd
00000030: 8c63 693c 94f2 b6bd 9121 d7bd d9d5 8f3d
00000040: bf09 0bbd e568 7e3d 8f21 6a3c 134f 60ba
00000050: 42c2 e3bd bd34 5dbd 5fdd b7bd a616 bcbd
00000060: a3fd bfbd 0873 0bbe 5e09 113d da20 3b3e
00000070: a98e 0dbe d757 cd3d 1875 4abd 75d6 13be
00000080: 8ca0 a3bc 86f3 3f3e c623 ca3d 325c 8dbd
00000090: a9ad 0fbe 3853 253c 29a7 cfbd 95b0 1a3e
000000a0: 658d 46bd a12c 37be c028 05be 2d5e d8bd
000000b0: 3c7b a83e 3451 0dbe 13d1 c4bd f82c 5e3d
000000c0: 4d44 71bd 95ea 553e b198 d3bd 6769 503d
000000d0: 4719 403e 98eb 1bbe 5d9a d7bc 5f57 d03d
000000e0: 60a3 e9bb 581f f3bc d426 293c 29f0 013d
000000f0: c442 84bd 2d67 10bc 4f29 94bd b06f 9b3d
-0.130631 -0.0011551811 -0.013857964 0.023903755 -0.14243901 -0.029014451 0.054557346 -0.080345504
0.2212702 -0.19273193 -0.054312248 -0.03330135 0.014244925 -0.08932987 -0.10504449 0.0702321
-0.03394484 0.062111754 0.014290228 -0.0008556705 -0.11121036 -0.054005373 -0.0897777 -0.09184007
-0.09374549 -0.136181 0.035409324 0.1827425 -0.13823952 0.1002652 -0.049428076 -0.14437278
-0.019974016 0.1874524 0.098701045 -0.069023505 -0.1403109 0.010090642 -0.10139305 0.15106423
-0.048474688 -0.17888118 -0.13003826 -0.105648376 0.3290652 -0.13800508 -0.0961019 0.054242104
-0.058903027 0.20890267 -0.10331858 0.05088177 0.18759643 -0.1522659 -0.026318723 0.10172915
-0.0071300715 -0.029678032 0.010324199 0.031723175 -0.06458047 -0.0088136615 -0.072344415 0.07589662

bn2.running_mean f4 [64]
00000000: fb3b a13d 68ea 02be c3d6 633d 4c5a 43bc
00000010: 05a6 f5bd f76a 34be d61e adbd 3d15 d33d
00000020: 5589 c43d ccbb da3d 051d 153d 72aa 03be
00000030: 182d c6bc 214b e5bb e4b2 35bb 167b 86bd
00000040: 50c8 a4bc c355 e3bd 54d8 23bd 7f09 cfbc
00000050: 3833 4dbc 20cc 66be 125a 64bd 2da7 503d
00000060: ad18 e7bd a3a1 08bc d8db cebd 6489 1ebd
00000070: 0ae1 0339 7ac7 38be d557 cabc fb2b 243e
00000080: 079a c4bb dfe1 61be 5345 4bbe b312 273d
00000090: 9950 f73d 34c3 08bd bcf9 6f3d 4432 b9bd
000000a0: 938b aa3d 9e54 ee3d 1bf6 333d 6952 1e3d
000000b0: dfb5 3d3d 1c50 ffbd fdff 48bd c3e2 b8bb
000000c0: e715 10bd ddba 92bd c79a f43d 0239 ebbd
000000d0: 5ec4 87be 78c2 953d 4559 29bd 1fa4 4f3d
000000e0: dce9 413c 0f1b 633d 0a9f a2bd 8953 34bd
000000f0: 4f93 053d 298c 45bd 631d 123d 84d5 a03c
0.078727685 -0.12784731 0.055624735 -0.011923384 -0.11994556 -0.17618929 -0.08453147 0.10306785
0.095965065 0.10680351 0.03640463 -0.12857988 -0.024191424 -0.0069974815 -0.0027725035 -0.065664455
-0.020115048 -0.11100342 -0.04000123 -0.025273083 -0.0125244185 -0.22538805 -0.05574996 0.05094068
-0.112840034 -0.008339318 -0.101005256 -0.038705245 0.00012576967 -0.18044844 -0.024700085 0.16032402
-0.005999807 -0.22058819 -0.19850664 0.040789317 0.1207592 -0.033389285 0.058587775 -0.090427905
0.08327403 0.11637233 0.043935876 0.03865281 0.046316024 -0.124664515 -0.049072254 -0.0056422665
-0.035177138 -0.071645476 0.11943584 -0.11485483 -0.26517004 0.073124826 -0.0413449 0.050693627
0.011835542 0.055445727 -0.079404905 -0.044024978 0.032611188 -0.04822937 0.035672557 0.019633062

bn2.running_var f4 [64]
00000000: 90a1 893c 9430 293c f41f 823c 4c9e 823c
00000010: a761 493c 6b04 383c 667e 1f3c b519 1b3c
00000020: 9b4d 293c b367 793c faae 843c 7277 1c3c
00000030: 850f 8a3c 4064 5f3c 0409 773c ec20 2e3c
00000040: b847 1a3c 7775 003c c041 513c 68dc 183c
00000050: 62c9 6d3c 8e78 193c 14e5 5b3c f5ad 8f3c
00000060: ef39 103c 0757 f33b 21a5 1f3c 8afb 6f3c
00000070: 6923 8f3c 7bd3 843c 0e71 423c a41a 553c
00000080: e0ec 273c 8643 883c d7c3 923c 3697 893c
00000090: 30da b23b f8c7 023c d235 533c a5a5 1a3c
000000a0: 0200 013c 6bb8 433c 60c6 513c 04bd 393c
000000b0: 0202 683c caf0 193c c63e 833c 9a3a 2d3c
000000c0: 2b06 303c 9853 5c3c 45b1 413c b288 533c
000000d0: 7721 813c 595e a83c 1c4a 4a3c a881 213c
000000e0: 39e6 203c aee8 193c 6f3c 203c 15a1 4e3c
000000f0: 51b9 663c dbae 153c 9bb2 f73b 96ef 173c
0.016800672 0.010326523 0.015884377 0.015944622 0.012291349 0.011231522 0.009734726 0.009466578
0.010333444 0.015222478 0.016196717 0.009549962 0.016853103 0.013634741 0.015077833 0.010627966
0.009416513 0.007840506 0.012772024 0.009329893 0.014513345 0.009367121 0.013421316 0.017539004
0.008802875 0.007426146 0.00974396 0.014647374 0.01747294 0.016214123 0.011867775 0.01300684
0.0102493465 0.01663376 0.01791565 0.016795736 0.005458139 0.007982247 0.01289125 0.009438907
0.007873537 0.011945824 0.012803644 0.011336569 0.014160635 0.0093957875 0.016021144 0.010573054
0.010743658 0.013447665 0.0118220495 0.012911009 0.015763028 0.020552801 0.012346771 0.009857573
0.009820514 0.009393854 0.0097800335 0.012611647 0.014082269 0.009135927 0.007559133 0.00927343

output_conv.weight f4 [9, 64, 1, 1]
00000000: 5342 5c3e c211 243e 5642 08bf 0827 b2be
00000010: 96eb 8c3d 9e9e 453e cc61 113e ba64 473e
00000020: ebd4 843d 3534 923d bc65 e63d d12a 123e
00000030: a9b1 bf3c 003e 7d3d f94c 02bf ffb2 2a3d
00000040: 07c7 263e ab92 3a3e d459 b43d 860d 213e
00000050: 2f3d fabe 1a25 a73d 3557 03bf b5e9 26bf
00000060: a87a 4d3e 0e2f 4b3e b17d 2e3e 9f25 e53d
00000070: 2219 fe3d 4a31 3c3e 41b7 473e 14cb 1bbe
00000080: 7981 233e d2dd c23d 7e40 1e3e 834d 363e
00000090: ef52 cbbc affd e3bc 95ec 233e 2cec 823d
000000a0: d0bf 433c c8bb 033e ae79 a93d 9ac1 d9bd
000000b0: 3995 903d 38ec 5cbe 1d3a 0d3e 31a0 fa3d
000000c0: 8352 3ebe 9dde c93d 9743 703d bc04 3f3e
000000d0: fcfb 163e ddfa 22bf 5a59 c13d 010b 0b3e
000000e0: 11d0 e23d 5b61 663c 3db8 593e 0134 e63d
000000f0: 7bfc 253e 1772 c2bd 90b6 753c 3eb8 593e
00000100: 57ae 86be 4b51 093e e5cf fa3a 9ce5 64be
00000110: 9ac8 bebe 4bf2 1e3d 297c 083c 33be 66bb
00000120: ce26 983d 7f22 4ebe dbda babe a514 abbc
00000130: 995d dabe 2628 f33d 6a4c 073d b010 533d
00000140: 5b8c c5bd 1189 1d3e 896f 60bd 2752 3f3e
00000150: 9ab5 143e 22e4 153e 0844 c63d d789 973d
00000160: 1760 a7bd 7db2 88be 8c2d 363e dc11 963d
00000170: 9998 cc3d deb0 b63d 7501 7ebe a705 87bd
00000180: cd18 423e 6e4e 153e e62c ff3d 787b a73b
00000190: b5eb f73c f344 b2be d2b3 5a3e 2495 f53d
000001a0: 4e4c 073e a7f1 6dbe d4f1 273e 51cb 9fbe
000001b0: 7977 d33c 4668 4e3e 0cbb 553e d0ad 043e
000001c0: b99a cbbe e346 c03d 2306 553e b703 b5bc
000001d0: 65bf ba3d 2b9f 9c3d f7f7 b3be 0397 863d
000001e0: 7a37 0b3e f96b 423d 7158 de3d 230d 39be
000001f0: 243a edbe 3aac 983d 81c7 7d3d 3094 e73d
00000200: 09c6 64bd 0f58 573e 5b80 a03b 056d c6bd
00000210: 5211 c6be 34fc 053e e984 213e 34fe 26bd
00000220: 4c61 2b3d e06a 7e3d 340a 00be c76d 2c3e
00000230: b1a3 e0bd 103a 03bc 0a8b d7bd c18d a0be
00000240: bb96 ae3b d894 0f3e c104 cebe 1532 afbd
00000250: dc1a 763d 0de1 3b3e 88a1 18bc 9c5a af3d
00000260: d7a7 513e e7d4 78bd 64e5 023d f4ed fdbc
00000270: 470d 063e fe63 e33d e807 48be 1ce6 893e
00000280: 2cfc 06be 8848 493d 1a3e 113e 753f 8fbd
00000290: 82f0 4d3e 6602 7bbd 2b26 58be d9ec 033e
000002a0: 9a11 113e 606a 34be d8cc 98bb 5398 873d
000002b0: 0a04 5c3d 6426 1bbe 6d57 3abe 7a32 813d
000002c0: 222f 44be 32ae 063e d8d9 f93d 3db7 113e
000002d0: f718 da3d 8004 0e3e ea72 bcbe 9327 f4bb
000002e0: f885 22be d18f 0b3e 9dd3 f83c 9499 cabe
000002f0: 6769 93bd ca80 dfbe e200 ec3d 2b3f 433e
00000300: a832 aebe 4410 aabe 9f50 b13d 9288 d33c
00000310: e482 183e d7c1 85be 4549 b9be dd1e 153e
00000320: 9fd6 f43d 427f d8be 1f42 68be 0e48 dcbe
00000330: 706c 863b 54a8 c03d de19 023e 23d7 c93d
00000340: 069c 9abd 7ab9 24be 9df7 303e d607 c83d
00000350: 5528 de3d bc8e e0bd f30e f53d 3828 8d3d
00000360: cb22 c9be d17f 47bd 7522 13be fc6a 9f3d
00000370: 966c 99be 0f20 3c3d fec1 2ebe b99a f3be
00000380: 95d9 083e 7d53 e13a 2d79 913d 3033 adbe
00000390: 1f17 14be f588 e03d e900 d13d 77c7 123e
000003a0: 94c5 513e bf99 553e c788 8d3d 2922 a5bd
000003b0: 79e4 713d a28d 313e e557 89be ed15 1e3e
000003c0: 9da5 f03d 07d5 113e 61dd d93d 2973 06be
000003d0: def6 b73d ac60 883d 16e4 f03c 70fb 213e
000003e0: 054e 273e a0d5 433d 2943 bf3c e0d6 143e
000003f0: d30e 883c dd42 2b3d e9db 8dbd 96ad 65bd
0.21509676 0.16022399 -0.5322622 -0.34795403 0.06880872 0.19298789 0.14197463 0.19472018
0.064859234 0.07138864 0.11249873 0.14274146 0.023400145 0.061826706 -0.508987 0.04167461
0.1628686 0.18220012 0.08806196 0.15727815 -0.48874804 0.081613734 -0.5130494 -0.6520036
0.20066321 0.19842169 0.17040135 0.11188816 0.124071375 0.18378177 0.195035 -0.15214187
0.15967359 0.09514965 0.1545429 0.17803006 -0.02481982 -0.027830927 0.16008218 0.063927025
0.011947587 0.12864602 0.08275162 -0.1063263 0.07059712 -0.21574485 0.137917 0.12237585
-0.18586163 0.09856913 0.05865821 0.1865415 0.14744562 -0.63664037 0.094408706 0.13578416
0.11074842 0.014061297 0.21261688 0.11240388 0.16209595 -0.09494417 0.01499714 0.21261689
-0.26304886 0.13409917 0.0019135444 -0.22353214 -0.37262422 0.038805287 0.008330383 -0.0035208582
0.074292764 -0.20130347 -0.36495098 -0.020883868 -0.42649534 0.11872892 0.03303186 0.051529586
-0.09645911 0.15384318 -0.05479387 0.18683682 0.145224 0.14637807 0.09680945 0.07399338
-0.081726246 -0.26698676 0.17790812 0.07327625 0.09990043 0.089204535 -0.24805243 -0.06592875
0.18954773 0.145807 0.124597356 0.005111154 0.030263761 -0.3481823 0.21357659 0.11991337
0.13212702 -0.23236714 0.16400844 -0.31209806 0.025813805 0.20156965 0.20872134 0.12956929
-0.39766482 0.093885206 0.20803122 -0.022096498 0.09118537 0.076475464 -0.3515012 0.06571772
0.13595381 0.047466252 0.108567126 -0.18071418 -0.4633342 0.074547246 0.06195784 0.113075614
-0.055852924 0.21029685 0.0048981137 -0.096887626 -0.3868509 0.13084489 0.15773357 -0.04076977
0.041840836 0.062113643 -0.12503892 0.16838752 -0.10968722 -0.008009449 -0.105245665 -0.3135815
0.005328027 0.14021623 -0.40238002 -0.08554474 0.06008421 0.18347569 -0.009315856 0.08562204
0.20474182 -0.060749914 0.031957045 -0.030997254 0.13091002 0.11103056 -0.19534266 0.26933372
-0.13182133 0.049141437 0.14183846 -0.06994525 0.20111278 -0.061281584 -0.2110831 0.12883319
0.1416687 -0.17618704 -0.004663091 0.066208504 0.05371479 -0.15151364 -0.18197413 0.06308456
-0.19158605 0.13152388 0.121997535 0.14230056 0.10649293 0.13868904 -0.36806422 -0.0074510067
-0.15871418 0.1362908 0.030374343 -0.39570296 -0.07197838 -0.43652946 0.11523606 0.19067065
-0.34023023 -0.33215535 0.086579554 0.025821958 0.14893681 -0.2612445 -0.36188713 0.14562555
0.11954998 -0.4228459 -0.22681473 -0.43023723 0.004102282 0.09407106 0.1270518 0.09855487
-0.0754929 -0.16086379 0.17281957 0.097671196 0.108475365 -0.109647244 0.11965742 0.06892437
-0.39284357 -0.04870588 -0.14368613 0.077840775 -0.29965657 0.04592901 -0.1706619 -0.47578982
0.13364251 0.0017191019 0.071031906 -0.33828115 -0.14461945 0.109636225 0.10205252 0.14333902
0.20485526 0.2085943 0.06910854 -0.08063156 0.05905578 0.17339185 -0.2682487 0.15438052
0.11750338 0.1424142 0.10637928 -0.13129868 0.08982633 0.06659064 0.029405635 0.15818572
0.16338356 0.04781115 0.023347454 0.14535093 0.016608631 0.041811813 -0.0692671 -0.056073748

output_conv.bias f4 [9]
00000000: dbaa 133f b881 32be ab6f afbd 12a8 b0bc
00000010: f8e8 e9bd 3dd6 2e3d 936f c4be 675b 81be
00000020: 9699 a9bd
0.5768258 -0.17432296 -0.08566221 -0.021564517 -0.114213884 0.042684782 -0.38366374 -0.25265047
-0.08281247
