training/trained_models/model_standard_infra.pth (torch, 85098 bytes, 14 tensors)

conv1.weight f4 [32, 2, 3, 3]
0	0xbdd112a2	-0.10208632
1	0xbd8d2ffd	-0.06893919
2	0xbe17a618	-0.14809453
3	0xbeb9bd46	-0.36277217
4	0x3e28cbe6	0.16484031
5	0x3e540c30	0.20707774
6	0x3de97804	0.11399844
7	0x3df44207	0.11926656
8	0x3e100467	0.1406418
9	0xbce93407	-0.028467191
10	0x3e13a1af	0.14417146
11	0x3d3591f2	0.044328637
12	0x3d06d91f	0.032921907
13	0xb9cb20b1	-0.00038743534
14	0x39d5d528	0.0004078534
15	0x3d33bc85	0.043880958
16	0xbce35c86	-0.02775408
17	0x3d241790	0.040061533
18	0x3cb06e03	0.021536833
19	0xbe07bef7	-0.13256441
20	0x3e31a28d	0.17347164
21	0x3e211745	0.15731533
22	0xbe4019cd	-0.18759842
23	0xbe34e04b	-0.17663686
24	0xbd2ea08f	-0.04263359
25	0xbd216d7b	-0.03941105
26	0x3e1dfe34	0.15429002
27	0xbcfff20a	-0.031243343
28	0x3cc6ea27	0.024281574
29	0xbd6598ee	-0.05605405
30	0x3ca2440f	0.019807843
31	0x3e3798dc	0.17929405
32	0xbc6c4c15	-0.014422436
33	0xbd89ea9e	-0.06734203
34	0x3d336aad	0.043802906
35	0xbc032471	-0.008004294
36	0xbcab221f	-0.020890294
37	0xbe56c064	-0.20971829
38	0x3e16495a	0.14676419
39	0x3da462df	0.08026671
40	0x3dbf9732	0.0935501
41	0xbc0bbea6	-0.008529341
42	0x3e525487	0.20540057
43	0x3de5eb32	0.112265006
44	0x3e8d06ab	0.2754415
45	0xbb2e748f	-0.0026619767
46	0x3e2ee317	0.17078815
47	0x3c53f5a3	0.012936982
48	0x3b837e6b	0.004012873
49	0x3e3351cf	0.17511676
50	0x3b40d330	0.0029422753
51	0xbc865238	-0.016396627
52	0x3b9e0f79	0.004823622
53	0xbb11b479	-0.0022232814
54	0x3d983bd5	0.07433287
55	0x3dea557c	0.11442086
56	0x3d62f6a7	0.055411007
57	0x3d84ca6d	0.06483922
58	0x3dad8e4c	0.084744066
59	0xbdd007da	-0.101577476
60	0x3e1a476d	0.1506631
61	0xbd5799e1	-0.052636985
62	0x3e1ba3e1	0.15199234
63	0x3c6542aa	0.013992945
64	0xbc83e1fb	-0.016098967
65	0x3be764cf	0.007061578
66	0xbd8cbe6c	-0.068722576
67	0x3e198c60	0.14994955
68	0xbd47ddbe	-0.048795454
69	0x3cba12ec	0.0227141
70	0xbc885137	-0.016640289
71	0x3bbe1066	0.0058002947
72	0xbeb22932	-0.34797055
73	0xbe641f50	-0.2227757
74	0x3e0d03e9	0.13771023
75	0x3e2b2a61	0.16715385
76	0xbe6db9ff	-0.23215483
77	0x3e18b0ad	0.14911146
78	0xbded6220	-0.115909815
79	0xbe6f7948	-0.23386109
80	0xbd8da0b8	-0.0691542
81	0x3d8f0601	0.06983567
82	0xbe2ac09f	-0.16675042
83	0xbd1df751	-0.038565937
84	0xbd6c8a00	-0.057748795
85	0x3e2041f7	0.15650164
86	0x3d5021fb	0.050813656
87	0xbc17be0d	-0.00926162
88	0x3d187b82	0.03722716
89	0x3d73d4a1	0.05952895
90	0x3bb9b0b5	0.005666817
91	0xbe3a86bd	-0.18215461
92	0xbe9e3513	-0.30899867
93	0xbe2dd23f	-0.16974734
94	0xbe2879b2	-0.16452673
95	0x3e658ba1	0.22416545
96	0x3dbaf752	0.09129204
97	0xbe026cfb	-0.12736885
98	0xbd8b6785	-0.06806854
99	0x3cf29cb1	0.029615732
100	0x3d1312f5	0.03590675
101	0xbd0b716c	-0.034043714
102	0xbca6067a	-0.02026676
103	0xbdcf45c9	-0.10120732
104	0xbd502a2f	-0.05082148
105	0x3d6fc2ad	0.058535267
106	0x3e00d944	0.1258288
107	0x3dbe0628	0.09278518
108	0x3d98c9bf	0.07460355
109	0x3c4cf9b3	0.012510705
110	0x3dbfca56	0.093647644
111	0xbdceff81	-0.10107327
112	0xbeb845fa	-0.35990888
113	0xbdb3d329	-0.0878051
114	0x3e569f0b	0.20959108
115	0x3e10b77f	0.14132498
116	0x3d57c943	0.052682173
117	0xbd03a1db	-0.03213678
118	0x3db171c8	0.0866428
119	0xbd1eb59a	-0.038747407
120	0xbcd2b134	-0.025719263
121	0x3dea7bdb	0.11449405
122	0x3d4a48cc	0.04938583
123	0xbd54b8a3	-0.051933896
124	0x3d02b13d	0.03190731
125	0xbdff37b5	-0.12461797
126	0x3da6733e	0.081274495
127	0x3de9dae5	0.11418704
128	0x3d0ca202	0.03433419
129	0x3d1304b8	0.035893172
130	0x3e0f6667	0.14003907
131	0x3e2e3429	0.17012085
132	0x3ddb9962	0.10722615
133	0x3e18ea36	0.14933094
134	0xbea1a994	-0.3157469
135	0x3c78a14f	0.015175178
136	0xbd08fe7e	-0.033445828
137	0xbb82854b	-0.003983175
138	0xbca85f56	-0.020553272
139	0xbe207e94	-0.15673286
140	0xbb50c8a3	-0.003185787
141	0x3c0ffab3	0.008787799
142	0xbc927c58	-0.017881557
143	0x3ca37cda	0.019956995
144	0x3e3f9daf	0.18712495
145	0x3d008f6f	0.03138679
146	0xbe955f89	-0.2917445
147	0x3d009b99	0.03139839
148	0x3e574071	0.21020676
149	0x3e1ab191	0.15106799
150	0xbea81556	-0.32828778
151	0x3d92c5ca	0.071666315
152	0xbdae3549	-0.08506257
153	0x3ca985b7	0.020693643
154	0xbc200c18	-0.009768508
155	0x3d0375c9	0.03209475
156	0x3d03d265	0.03218307
157	0xbcb3f301	-0.02196646
158	0x3b11f387	0.0022270398
159	0x3d41b1d8	0.047288746
160	0x3ca7f909	0.020504491
161	0x3d72345e	0.059131972
162	0xbe3a324f	-0.18183254
163	0xbd278136	-0.04089471
164	0x3d90e429	0.07074768
165	0xbe9422fe	-0.28932947
166	0xbe47694c	-0.19473761
167	0x3ddec932	0.10878219
168	0xbe95ded6	-0.29271573
169	0xbe6f6a3d	-0.2338037
170	0xbcb6ef05	-0.02233077
171	0xbd51d5e1	-0.05122936
172	0x3d89f00a	0.06735237
173	0x3db9b437	0.090675764
174	0xbbe87e0d	-0.0070951045
175	0xbc54d430	-0.012990043
176	0xbaf123b9	-0.0018397487
177	0x3d391c53	0.045193028
178	0x3ce1164c	0.027476452
179	0xbd8ba0b8	-0.06817764
180	0x3e141d24	0.14464241
181	0x3e04a5aa	0.12953821
182	0x3c916bf1	0.017751666
183	0xbd9b0b33	-0.075704955
184	0x3dbe06e0	0.09278655
185	0xbd991c1f	-0.07476067
186	0xbc6d32d6	-0.014477452
187	0xbe8c1944	-0.27363026
188	0xbaeda5f1	-0.001813112
189	0x3da6ee7a	0.081509545
190	0xbd2e8875	-0.042610604
191	0x3ddb9b69	0.107230015
192	0x3c6bdda8	0.014396109
193	0xbd0ce6b5	-0.034399707
194	0x3d97c674	0.07410899
195	0x3e1f52d0	0.15558934
196	0xbc94b935	-0.01815472
197	0x3df7ecc9	0.1210571
198	0xbe1f7f3b	-0.15575878
199	0x3c5ec82f	0.013597532
200	0x3e2a5cbf	0.16636942
201	0x3d3570b7	0.044296946
202	0x3dbddcb7	0.09270614
203	0xbea57a75	-0.3231999
204	0xbe2c0515	-0.16798814
205	0x3d9570b9	0.07296891
206	0x3e173c3f	0.14769076
207	0x3d6a26a8	0.05716577
208	0xbd091934	-0.0334713
209	0x3c372715	0.0111787515
210	0x3c5fa120	0.013649255
211	0xbd23320e	-0.039842658
212	0xbe0927c4	-0.13394076
213	0x3d5bc3e5	0.053653616
214	0xbc9df960	-0.01928395
215	0x3baf9e4a	0.0053594457
216	0xbe4e3152	-0.20136002
217	0x3d0fc143	0.035096418
218	0xbc7f7b06	-0.015593296
219	0x3e1b1f47	0.1514865
220	0x3e3eca27	0.18631802
221	0xbdc747ee	-0.097305164
222	0xbe4ef435	-0.20210345
223	0xbe5167ff	-0.20449828
224	0x3c3f93e6	0.011692977
225	0xbafcab23	-0.0019277077
226	0x3b98f46d	0.0046678097
227	0x3c7b78db	0.015348638
228	0xbcab81fd	-0.020936007
229	0xbc98cafa	-0.018651474
230	0xbb1e2145	-0.0024128717
231	0x3dae51ec	0.08511719
232	0x3b7eb176	0.00388631
233	0xb959ac1c	-0.00020758848
234	0xbe38986d	-0.18026896
235	0x3e0a1337	0.13483892
236	0xbc885380	-0.016641378
237	0x3d58dc17	0.05294427
238	0xbe95c18f	-0.29249236
239	0x3e14e516	0.14540514
240	0xbe866916	-0.2625205
241	0x3e10e60e	0.14150259
242	0x3d7e2821	0.06204999
243	0x3d884bca	0.066550806
244	0x3d76b2dc	0.060229167
245	0x3d9cb517	0.07651728
246	0x3d9d2222	0.07672526
247	0x3da58dc9	0.08083684
248	0x3e08f1e7	0.13373528
249	0xbd07c168	-0.03314343
250	0x3a60ab47	0.0008570444
251	0x3daeffac	0.08544859
252	0x3e4d6881	0.20059396
253	0xbdb1756f	-0.08664977
254	0x3e116948	0.14200318
255	0xbd4a29b6	-0.049356185

conv1.bias f4 [32]
0	0x3cb5cba6	0.022191834
1	0x3e1dfb7b	0.15427963
2	0xbd41c4bc	-0.04730676
3	0xbc181cbe	-0.009284196
4	0x3d52d4d3	0.051472496
5	0xbe27f8a2	-0.1640344
6	0x3e3d8cf6	0.18510804
7	0x3ded7373	0.11594286
8	0x3d8795e9	0.0662039
9	0x3e3009da	0.17191258
10	0x3e231059	0.15924205
11	0xbe2ed5dc	-0.17073768
12	0xbdddb75c	-0.10825989
13	0x3c938348	0.018006936
14	0xbd76e704	-0.060278907
15	0x3d649797	0.05580863
16	0xbe3696b2	-0.17830923
17	0xbe1a6a78	-0.15079677
18	0xbdff2c59	-0.124596305
19	0x3d78c548	0.060735017
20	0xbc1634a3	-0.009167823
21	0x3d786522	0.060643323
22	0xbd8f897f	-0.07008647
23	0xbd350e42	-0.04420305
24	0x3e3d9c62	0.18516687
25	0xbe886490	-0.26639223
26	0xbe1d8887	-0.15384112
27	0x3e08e7db	0.13369696
28	0xbd09a9a9	-0.033609066
29	0xbe0d99b0	-0.13828158
30	0x3d3ea9fd	0.046548832
31	0xbe03771b	-0.12838404

conv2.weight f4 [64, 32, 3, 3]
0	0x3bf6f97e	0.007537066
1	0xbd3f8082	-0.046753414
2	0xbcf7d73e	-0.030254003
3	0x3ca8429d	0.020539576
4	0xbc37f3da	-0.011227572
5	0x3d75a0ed	0.059967924
6	0xbd38b564	-0.045094863
7	0xbd9dea17	-0.07710665
8	0x3dadf73e	0.08494423
9	0x3d2ac974	0.041696027
10	0x3d1e368c	0.03862624
11	0xbd7add6e	-0.061246328
12	0xbd2264ee	-0.039647035
13	0xbdc37f05	-0.095457114
14	0xbda2c165	-0.07947043
15	0x3d474c53	0.048656773
16	0x3b5369af	0.0032259037
17	0x3d36178b	0.044456046
18	0xbbb3d176	-0.005487616
19	0xbd03f985	-0.032220382
20	0x3cb6583c	0.02225887
21	0x3d806a94	0.06270328
22	0x3cf7b6f1	0.0302386
23	0x3d105315	0.035235483
24	0xbdbe73a8	-0.092994034
25	0xbd8f3d7b	-0.06994148
26	0xbdaa2423	-0.08307674
27	0xbe1efd6e	-0.15526363
28	0x3c61416d	0.013748509
29	0x3cfddf44	0.03099025
30	0x3d7d6d6a	0.061871924
31	0xbd60d048	-0.054886132
32	0x3d43e58b	0.04782633
33	0xbd017b0c	-0.031611487
34	0xbdc812ef	-0.09769236
35	0x3be39ac2	0.006945939
36	0x3d8ca1d7	0.06866806
37	0x3d0096e3	0.031393897
38	0x3d1a38a9	0.03765169
39	0x3d6ba0d9	0.057526443
40	0xbd7d9f88	-0.06191972
41	0x3d040129	0.03222767
42	0x3d931515	0.071817555
43	0xbdc2c72d	-0.09510646
44	0x3d620804	0.055183426
45	0x3d3bec3e	0.045879595
46	0x3dbe6934	0.0929741
47	0x3d0878bc	0.033318266
48	0x3d51c4ac	0.05121295
49	0x3ba92081	0.0051613455
50	0x3c7d0d8b	0.015445123
51	0xbdac1e03	-0.08404162
52	0x3cacc311	0.021089109
53	0xbd47ed3a	-0.04881022
54	0x3d9ed6e4	0.07755831
55	0x3cd583a9	0.026063757
56	0x3c9a1f2d	0.018813694
57	0xbd862336	-0.06549685
58	0x3cd9de26	0.026595186
59	0xbd3a8418	-0.04553613
60	0x3dd211fb	0.10257336
61	0x3d90d696	0.07072179
62	0x3bc0f834	0.005888963
63	0x3c4a9edf	0.012366979
64	0x3da33b89	0.0797034
65	0x3d0a3440	0.033741236
66	0xbd4b57a8	-0.049644142
67	0x3c386035	0.011253406
68	0xbd1e353c	-0.038624987
69	0x3c2f754a	0.010709116
70	0x3cec2628	0.028826788
71	0x3cb3e09f	0.021957694
72	0x3d07b03b	0.03312705
73	0xbd5eb940	-0.054375887
74	0x3e010267	0.12598573
75	0xbca552d7	-0.020181103
76	0xbd4b05e3	-0.04956616
77	0xbb674b3c	-0.0035292646
78	0xbc96c75d	-0.01840561
79	0x3c925e4c	0.01786723
80	0x3d8993fd	0.0671768
81	0xbd29ed7e	-0.041486256
82	0xbcf214e5	-0.029550979
83	0x3d2035b2	0.039113708
84	0xbc95b0a5	-0.018272707
85	0xbcfcf9df	-0.030880867
86	0xbbfb0f77	-0.0076617557
87	0xbd49eec1	-0.04929996
88	0xbc755650	-0.014974192
89	0x3d7d8bd1	0.061900917
90	0xbd5b441f	-0.053531762
91	0x3bd73988	0.0065681376
92	0xbd1b450d	-0.03790765
93	0x3d2dc4bc	0.04242395
94	0xbd048b3a	-0.03235934
95	0xbd3e25a4	-0.046422616
96	0xbbbc70a7	-0.005750734
97	0x3d12f79a	0.035880663
98	0xbbb41c57	-0.0054965424
99	0x3cc8629d	0.024461085
100	0x3d14c35c	0.03631912
101	0x3d7c03a7	0.06152692
102	0x3d1cbbcf	0.038265046
103	0xbcb1e365	-0.021714875
104	0xbe0a2efe	-0.13494489
105	0x3c1ee020	0.00969699
106	0xbcd090af	-0.025459616
107	0x3dc72b06	0.09725003
108	0x3cfe3733	0.03103218
109	0x3c2c014c	0.010498356
110	0xbd415d9e	-0.04720842
111	0xbd1d86eb	-0.038458746
112	0xbca9cb53	-0.020726835
113	0x3cb77ddb	0.02239888
114	0x3db29f40	0.08721781
115	0x3d05adae	0.032636337
116	0x3c63c9fb	0.013903136
117	0x3c159430	0.009129569
118	0xbc7cc67e	-0.015428184
119	0x3c94ea0f	0.018178014
120	0xbd3c1c45	-0.045925397
121	0x3cbe1051	0.02320114
122	0x3d87d60e	0.066326246
123	0xbdb2352c	-0.08701548
124	0xbccbb8dc	-0.024868421
125	0x3ced6c8d	0.028982425
126	0xbc8de076	-0.017318945
127	0x3d0be213	0.034151148
128	0x3dff8231	0.12476004
129	0x3c5cc61a	0.0134749655
130	0x3d3bf3ec	0.04588692
131	0xbd0bc7e1	-0.034126166
132	0x3cd1617f	0.025559185
133	0xbcdadf3c	-0.026717775
134	0xbddef296	-0.10886113
135	0xbd1f0dc4	-0.038831487
136	0xbd2ce44e	-0.042209916
137	0xbd58082a	-0.05274216
138	0xbde3cd83	-0.111231826
139	0x3c9ec54d	0.01938119
140	0x3c9c4aa4	0.01907856
141	0xbd0e8ce7	-0.034802344
142	0xbdd0d0b6	-0.101960585
143	0x3d171d3c	0.036893114
144	0x3d9acb39	0.07558293
145	0x3badfe9b	0.0053098924
146	0xbd47561e	-0.048666112
147	0x3d2a30d8	0.041550487
148	0x3d93bc02	0.07213594
149	0xbd0d38a0	-0.03447783
150	0x3e1570cd	0.14593811
151	0xbd8e16ee	-0.06937967
152	0x3b8b44c8	0.0042501427
153	0x3c0556a3	0.008138332
154	0xbcc094b3	-0.023508405
155	0xbcdc64cd	-0.026903534
156	0xbc64c00a	-0.013961801
157	0xbd12a65e	-0.03580319
158	0x3c451534	0.012028981
159	0x3d9061ed	0.07049928
160	0xbaf1d6ec	-0.0018450893
161	0x3c607407	0.013699538
162	0x3c34bdb6	0.011031559
163	0x3cc67b10	0.024228603
164	0xbd96a70f	-0.07356083
165	0xbd12cfc2	-0.035842665
166	0xbba4c374	-0.0050281826
167	0x3db3e473	0.087838076
168	0xbd97638c	-0.07392034
169	0xbd33c1aa	-0.043885864
170	0xbd6edec0	-0.0583179
171	0xbc2bafdf	-0.010478943
172	0x3cbd9469	0.023142057
173	0xbd4a88b6	-0.049446784
174	0x3d8edbe7	0.06975537
175	0xbd8699be	-0.06572293
176	0x3d565508	0.052327186
177	0xbccd56f6	-0.02506588
178	0xbdf2c3e3	-0.11853769
179	0x3df791ee	0.12088381
180	0xbb2a89fb	-0.0026022184
181	0x3d7c6f6f	0.06162971
182	0x3d6d070f	0.05786806
183	0x3c53236e	0.012886865
184	0x3c42cb26	0.011889255
185	0x3b08bc18	0.0020864066
186	0x3bb83e3e	0.005622654
187	0x3cf28bae	0.02960762
188	0x3d80310c	0.06259355
189	0x3cb0e900	0.021595478
190	0xbcd69cde	-0.026197847
191	0x3bb2d883	0.005457939
192	0x3c4967fd	0.012292859
193	0xbd15886c	-0.036507055
194	0x3d233832	0.039848514
195	0xbc8b38c2	-0.016994838
196	0xbce50d7d	-0.027960533
197	0xbd8c65d0	-0.06855357
198	0x3c4226c5	0.011850064
199	0x3deb2af9	0.11482806
200	0x3a816248	0.0009871209
201	0x3d1fe5a4	0.03903736
202	0x3c990f23	0.018683976
203	0xbd0a51aa	-0.033769287
204	0x3cd47ca5	0.025938341
205	0xbddcc5fb	-0.10779949
206	0x3bca3a39	0.0061714915
207	0x3aa23ba8	0.0012377398
208	0x3d20377f	0.039115425
209	0x3cb45c56	0.022016685
210	0xbd51f1b7	-0.051255908
211	0x3d05f751	0.032706562
212	0x3c1cd3d6	0.00957199
213	0x3d473e36	0.048643313
214	0xbd875ad1	-0.06609119
215	0x3db7f555	0.0898234
216	0x3d25d1fa	0.040483452
217	0x3d64c4f3	0.055851888
218	0x3be5c754	0.007012287
219	0xbd25cc30	-0.04047793
220	0xbd2f2670	-0.042761266
221	0x3d052fc2	0.03251625
222	0x3d08b065	0.033371348
223	0x3cde96a9	0.02717145
224	0x3d900c5f	0.070336096
225	0xba827deb	-0.0009955739
226	0x3d3f7d98	0.046750635
227	0xbc2e8ca9	-0.010653653
228	0x3d8ec005	0.069702186
229	0xbd8b65e9	-0.06806547
230	0xbd896807	-0.06709295
231	0xbd0bdbd5	-0.034145195
232	0xbd0ccd31	-0.034375373
233	0xbcd3403f	-0.02578747
234	0xbd68607f	-0.05673265
235	0xbd886997	-0.06660765
236	0x3c1022ae	0.008797331
237	0x39ebcb9a	0.00044974388
238	0xbc979806	-0.018505108
239	0xbd0cdd50	-0.034390748
240	0xbaa238df	-0.0012376568
241	0xbd2d29ca	-0.04227618
242	0x3dc9840a	0.098396376
243	0xbd4e9d17	-0.05044278
244	0xbd3bf7ac	-0.045890495
245	0xbcfdd030	-0.03098306
246	0x3dd61e0b	0.10454949
247	0xbc27191a	-0.010198856
248	0x3d8826a7	0.06647997
249	0x3ddc3784	0.10752776
250	0x3c6cf8cc	0.014463615
251	0xbcf2cfec	-0.02964016
252	0xbcf7e343	-0.030259734
253	0x3d164261	0.036684398
254	0xbd0f89f1	-0.03504366
255	0x3d05329b	0.032518964

conv2.bias f4 [64]
0	0x3d8c72db	0.068578444
1	0x3cd52414	0.02601818
2	0x3d4df87a	0.050285794
3	0x3d2add01	0.041714672
4	0xbc6cde61	-0.014457316
5	0x3d9e2b90	0.07723153
6	0xba9ff89d	-0.001220483
7	0x3bd2f6f5	0.006438131
8	0xbce09eb0	-0.027419418
9	0xbc20b341	-0.009808362
10	0x3ca129d9	0.019673275
11	0x3d8b155c	0.06791183
12	0x3cb66594	0.022265233
13	0xbc441fb1	-0.011970446
14	0xbce338cc	-0.027737044
15	0x3d9a8a8b	0.07545956
16	0xbd376b99	-0.044780347
17	0xbd0a36b9	-0.033743594
18	0xbc110875	-0.008852114
19	0x3d20254c	0.03909807
20	0xbaf7b585	-0.0018898702
21	0x3d07761f	0.033071633
22	0x3d4b9a25	0.04970755
23	0x3b7299c9	0.0037017933
24	0xbcb1abd1	-0.021688374
25	0x3c1299ae	0.008947773
26	0x3d85548f	0.06510269
27	0xbd0bde43	-0.034147512
28	0xbd095315	-0.0335265
29	0x3c8de1c5	0.01731957
30	0x3d52ac9a	0.051434137
31	0x3d9da44a	0.07697351
32	0xbd4f9393	-0.050677847
33	0xbd559128	-0.052140385
34	0x3d407736	0.04698869
35	0x3c95ecae	0.018301334
36	0x3d389259	0.045061443
37	0x3c1482df	0.009064405
38	0x3d9144c9	0.07093198
39	0xbd4a482f	-0.049385246
40	0x3d3914ac	0.04518573
41	0x3d2bb3e8	0.04191962
42	0xbbfdfd32	-0.0077511305
43	0x3d86496d	0.065569736
44	0xbd4e22e4	-0.050326243
45	0x3bfaba78	0.0076516233
46	0x3d544e96	0.051832758
47	0x3cb67ec3	0.022277242
48	0x3dc2cf39	0.09512181
49	0x3c91a7df	0.017780242
50	0xbc9954d4	-0.018717207
51	0x3bb75907	0.0055953297
52	0xbd4bdb5e	-0.04976975
53	0xbcd9797d	-0.026547188
54	0xbb743495	-0.0037262787
55	0x3d603dcb	0.05474643
56	0x3d839a45	0.06425909
57	0x3c2530c5	0.010082428
58	0x3d3fc143	0.046815168
59	0x3b65e9f9	0.0035082086
60	0x3cb5230f	0.022111444
61	0x3cb2267f	0.021746872
62	0xbc5f87c7	-0.013643212
63	0xbcb0df5f	-0.021590887

bn1.weight f4 [32]
0	0x3f82471f	1.0177954
1	0x3f79ee20	0.97628975
2	0x3f6b7e85	0.9198993
3	0x3f69d4ed	0.91340524
4	0x3f79e0e6	0.9760879
5	0x3f7ac34e	0.9795426
6	0x3f80b3e3	1.0054897
7	0x3f7d209d	0.9887789
8	0x3f8841e3	1.0645107
9	0x3f87be39	1.0604926
10	0x3f729251	0.9475451
11	0x3f834e9d	1.0258366
12	0x3f79f833	0.97644347
13	0x3f796518	0.9741988
14	0x3f7a8470	0.97858334
15	0x3f743b4a	0.9540297
16	0x3f804aa1	1.0022775
17	0x3f770f1e	0.9650744
18	0x3f81c207	1.0137337
19	0x3f89ee2d	1.077581
20	0x3f6f8262	0.93558323
21	0x3f7bcfd6	0.9836401
22	0x3f6f15d4	0.9339268
23	0x3f866263	1.0498775
24	0x3f7b126b	0.9807498
25	0x3f8ceeae	1.1010339
26	0x3f756fc8	0.9587369
27	0x3f7dd30a	0.99150145
28	0x3f7f4bc5	0.9972499
29	0x3f819fd5	1.0126902
30	0x3f781bc2	0.96917355
31	0x3f838830	1.0275936

bn1.bias f4 [32]
0	0xbe48a83a	-0.19595423
1	0xbd8e622a	-0.06952317
2	0xbe6dab9a	-0.23209992
3	0xbe163244	-0.14667612
4	0xbd1182fc	-0.035525307
5	0x3d84804d	0.06469784
6	0xbd1a8a8b	-0.03772978
7	0xbe1cef71	-0.15325715
8	0xbd88996c	-0.06669888
9	0x3e16da77	0.14731775
10	0xbd403863	-0.046928775
11	0xbe33ea93	-0.17569952
12	0x3c5e3e95	0.013564725
13	0xbdf49969	-0.11943323
14	0xbd4f4c66	-0.05060997
15	0xbe47e3fb	-0.19520561
16	0xbd027386	-0.031848453
17	0xbe382df3	-0.17986278
18	0x3dd16e9e	0.10226177
19	0xbca02d7a	-0.019552935
20	0xbe23fd1c	-0.16014522
21	0xbcd8c8fa	-0.02646302
22	0xbe50807e	-0.20361516
23	0xbd6b67fb	-0.05747221
24	0xbcf31c7b	-0.029676666
25	0xbca78733	-0.02045021
26	0x3d794fcd	0.06086712
27	0xbda835b2	-0.082133666
28	0x3e36e96a	0.17862478
29	0xbdd6a770	-0.10481155
30	0xbe4a3bf5	-0.19749434
31	0x3dce61ab	0.100772224

bn1.running_mean f4 [32]
0	0x3d17df18	0.037077993
1	0x3e04b924	0.1296125
2	0x3c945568	0.018107131
3	0x3d2b2f55	0.041793186
4	0xbcd5658b	-0.026049396
5	0xbe745a3d	-0.23862548
6	0x3e1e8d0e	0.15483496
7	0x3e39d905	0.18149193
8	0x3dc049db	0.09389087
9	0x3d62435f	0.05524003
10	0x3e1f704c	0.15570182
11	0xbe3abbe1	-0.18235733
12	0xbdf78e61	-0.120877035
13	0xbb4cab8a	-0.0031230175
14	0xbda409d7	-0.08009689
15	0x3e0419b6	0.12900433
16	0xbe52d2ee	-0.20588276
17	0xbe3d44e0	-0.18483305
18	0xbe49ef6b	-0.19720237
19	0xbd651353	-0.055926632
20	0xbcc08bb6	-0.02350412
21	0x3db0ea8c	0.08638486
22	0xbd242971	-0.040078584
23	0xbdb7a97e	-0.08967875
24	0x3e0d7e5e	0.13817737
25	0xbebf8dc4	-0.37412846
26	0xbe4f4d70	-0.20244384
27	0x3db3a79d	0.08772204
28	0xbe047d11	-0.12938334
29	0xbdeef2f4	-0.116674334
30	0x3e093cb9	0.1340207
31	0xbe740d4c	-0.23833197

bn1.running_var f4 [32]
0	0x3cf52eda	0.029929567
1	0x3c88497e	0.016636606
2	0x3c9e7c60	0.019346416
3	0x3c0b5d35	0.008506109
4	0x3d102f84	0.035201564
5	0x3ccc8270	0.024964541
6	0x3cd8f770	0.026485175
7	0x3c92db15	0.017926732
8	0x3cce133c	0.025155656
9	0x3d07858d	0.03308635
10	0x3c5ae1d4	0.013359506
11	0x3ca00f37	0.019538505
12	0x3c95056c	0.018191062
13	0x3cd65fa5	0.026168654
14	0x3cb5e614	0.022204436
15	0x3c8f183a	0.017467607
16	0x3ce32ce2	0.027731363
17	0x3cf73952	0.0301787
18	0x3cc02736	0.023456197
19	0x3cee34de	0.029077943
20	0x3cd091cd	0.025460148
21	0x3c2ddf57	0.01061233
22	0x3cc1768a	0.023616094
23	0x3cb0cff8	0.021583542
24	0x3c7a7499	0.015286588
25	0x3cdcd839	0.026958572
26	0x3cac02cf	0.020997433
27	0x3cbee469	0.023302274
28	0x3cd94bc4	0.026525386
29	0x3c745181	0.01491201
30	0x3c9a0d86	0.018805277
31	0x3cbecbf6	0.023290616

bn2.weight f4 [64]
0	0x3fa75208	1.3071909
1	0x3fb325dc	1.3995929
2	0x3fbdb502	1.4820864
3	0x3fa70570	1.3048534
4	0x3f98c6f1	1.1935712
5	0x3facdc0a	1.350465
6	0x3fa4146c	1.2818732
7	0x3fae05fd	1.3595577
8	0x3fa54109	1.2910472
9	0x3fc3508e	1.5258958
10	0x3fb277f6	1.3942859
11	0x3fae3471	1.3609754
12	0x3faa4fc3	1.3305591
13	0x3fc12d3b	1.5091928
14	0x3f9d8e4c	1.230905
15	0x3fa5bc0c	1.2948012
16	0x3fabded4	1.3427377
17	0x3faae074	1.3349748
18	0x3f89fa6d	1.0779549
19	0x3fb7607b	1.4326319
20	0x3fb15350	1.385355
21	0x3f899ad1	1.0750371
22	0x3fb3a5d3	1.403498
23	0x3fa48719	1.2853729
24	0x3f98bc26	1.1932418
25	0x3fafd7d7	1.3737744
26	0x3fa0a2be	1.2549665
27	0x3fa4cca5	1.2874953
28	0x3f9a9b5b	1.2078661
29	0x3fc3f698	1.530963
30	0x3f945236	1.1587589
31	0x3fadcec9	1.3578731
32	0x3f952e36	1.1654727
33	0x3fb333b1	1.400015
34	0x3fba8970	1.4573193
35	0x3fa9508c	1.3227706
36	0x3fa28c0d	1.269899
37	0x3fb0f51f	1.3824805
38	0x3fae7117	1.3628262
39	0x3f9ad885	1.2097327
40	0x3fa068dc	1.2532
41	0x3fa2843e	1.2696607
42	0x3fa8d051	1.3188573
43	0x3f950f87	1.1645364
44	0x3fac1387	1.3443459
45	0x3fbd2fb5	1.4780184
46	0x3f90bd3e	1.1307752
47	0x3fafd9b8	1.3738317
48	0x3f9c4297	1.2207822
49	0x3fab56c9	1.338586
50	0x3fbe684f	1.4875582
51	0x3f9d5de1	1.2294275
52	0x3f97ddfd	1.186462
53	0x3fac985f	1.3484
54	0x3f98ad43	1.1927875
55	0x3f9eb9bc	1.2400432
56	0x3fb7582d	1.4323784
57	0x3fa3a553	1.2784828
58	0x3fb667f7	1.4250478
59	0x3f92678b	1.1437849
60	0x3fb0d7a1	1.3815805
61	0x3faabab4	1.3338227
62	0x3f9e6c41	1.2376786
63	0x3f96c304	1.1778264

bn2.bias f4 [64]
0	0xbe05e938	-0.13077247
1	0xbed34388	-0.4126246
2	0xbdae9915	-0.08525292
3	0xbe9cdda6	-0.30637854
4	0xbf0f11ef	-0.5588674
5	0xbee70f55	-0.45128885
6	0xbedb3d00	-0.42819977
7	0xbefffcb8	-0.49997497
8	0xbeb1a6b4	-0.34697497
9	0xbe9ac245	-0.3022634
10	0xbedb5774	-0.4284016
11	0xbf14fed9	-0.58201367
12	0xbe72c280	-0.23707008
13	0xbdc41213	-0.0957376
14	0xbe3dd8ca	-0.1853973
15	0xbecba6f0	-0.397758
16	0xbe00866c	-0.12551278
17	0xbdd54472	-0.104134455
18	0xbf2452e9	-0.6418901
19	0xbeb3a2f6	-0.35085267
20	0xbe864687	-0.26225683
21	0xbf04a29b	-0.51810616
22	0xbe856d2f	-0.26059863
23	0xbebbdf07	-0.36693594
24	0xbefbca7a	-0.49177915
25	0xbab7ecd4	-0.0014032372
26	0xbecac226	-0.39601249
27	0xbe39e45b	-0.18153517
28	0xbf076ea4	-0.529032
29	0xbe860ee8	-0.26183248
30	0xbf030e65	-0.5119384
31	0xbf0b4ae2	-0.5441114
32	0xbe916cd3	-0.2840334
33	0xbe291552	-0.1651204
34	0xbe7ae8e3	-0.24502902
35	0xbeb9d08b	-0.36291918
36	0x3d988b24	0.07448414
37	0xbee668db	-0.45001873
38	0xbeb646ff	-0.3560104
39	0xbef962e5	-0.48708263
40	0xbe9c902e	-0.3057875
41	0xbed4efdc	-0.41589248
42	0xbe7e18c3	-0.24814133
43	0xbed2b8c7	-0.411566
44	0xbea0dd03	-0.3141862
45	0xbcfa84d9	-0.030580925
46	0xbf2093f7	-0.62725776
47	0xbd39e471	-0.045383874
48	0xbf12deb6	-0.5737108
49	0xbde5a72f	-0.11213528
50	0xbef1435c	-0.47121704
51	0xbeebc98d	-0.4605221
52	0xbeb4254e	-0.3518471
53	0xbead0b11	-0.33797505
54	0xbe0091f0	-0.1255567
55	0xbef01b9b	-0.4689606
56	0xbe9f46be	-0.3110866
57	0xbd11903d	-0.035537947
58	0xbe362de0	-0.17790937
59	0xbf02e20b	-0.51126164
60	0xbf144553	-0.5791828
61	0xbec1d316	-0.37856358
62	0xbe15ddf1	-0.14635445
63	0xbefe05c7	-0.49613783

bn2.running_mean f4 [64]
0	0x3da6e295	0.08148686
1	0xbe174be3	-0.14775042
2	0x3d16a0cc	0.03677444
3	0x3d93cd5f	0.07216906
4	0x3d3a0147	0.045411374
5	0x3e17b7c5	0.14816196
6	0xbdd2bc58	-0.1028983
7	0xbe060afa	-0.13090125
8	0xbde8da87	-0.11369806
9	0xbe338885	-0.17532547
10	0xbb7e3800	-0.0038790703
11	0x3e30d088	0.17267048
12	0xbe919148	-0.28431153
13	0xbea48f45	-0.32140556
14	0xbe5868c2	-0.21133712
15	0x3d99af95	0.07504193
16	0xbdd64796	-0.10462873
17	0xbe536958	-0.20645654
18	0x3d6b39f0	0.0574283
19	0x3d2d7bd4	0.04235442
20	0xbe3d3cf4	-0.18480283
21	0x3dd9622b	0.10614427
22	0xbe6c80e8	-0.23096049
23	0xbdde0f71	-0.10842789
24	0xbe02ca94	-0.1277259
25	0xbedebd85	-0.43503967
26	0xbde0e613	-0.10981383
27	0xbea8be8a	-0.3295787
28	0xbe262d21	-0.16228153
29	0xbe3c5c85	-0.18394668
30	0x3aa65698	0.0012690602
31	0x3cdeb33e	0.027185079
32	0xbe247654	-0.16060764
33	0xbec3eb24	-0.38265336
34	0xbe59ca0b	-0.2126848
35	0x3d9c832a	0.07642205
36	0x3df287b9	0.11842293
37	0xbd07131c	-0.03297721
38	0x3dde24c7	0.108468585
39	0xbd998cc5	-0.07497553
40	0x3d864cbd	0.065576054
41	0x3edfa819	0.43682936
42	0xbe8b6a48	-0.27229524
43	0x3e5cd744	0.21566492
44	0xbe77dc5f	-0.24205159
45	0xbeb49b12	-0.3527456
46	0x3d999860	0.07499766
47	0xbeb49244	-0.35267842
48	0xba1b770d	-0.0005930521
49	0xbe4db043	-0.2008677
50	0xbeefa5eb	-0.46806273
51	0x3e9387ed	0.2881464
52	0x3aedc537	0.001814044
53	0xbdad80c3	-0.08471825
54	0xbe468ce1	-0.19389679
55	0x3e5a4d48	0.21318543
56	0x3c7dea02	0.015497686
57	0xbd9f252c	-0.07770762
58	0xbe5907a3	-0.2119432
59	0x3e10d6a4	0.14144379
60	0x3cbae990	0.02281645
61	0xbdb4dff2	-0.08831777
62	0x3e85fc94	0.26169264
63	0xbcc51241	-0.024056556

bn2.running_var f4 [64]
0	0x3dcabe31	0.098995574
1	0x3dbdbb51	0.092642434
2	0x3dad72e6	0.08469181
3	0x3db16abf	0.08662938
4	0x3d9346a4	0.07191208
5	0x3d8085be	0.06275509
6	0x3d4c2af0	0.049845636
7	0x3d96e5c8	0.07368046
8	0x3da448f4	0.08021727
9	0x3dacf4dd	0.084451415
10	0x3d7c524a	0.061601914
11	0x3d8e0462	0.0693443
12	0x3d83d792	0.06437601
13	0x3db96553	0.09052529
14	0x3dddf4e7	0.10837727
15	0x3d634099	0.055481527
16	0x3e24446b	0.16041724
17	0x3de0c27a	0.109745935
18	0x3db8dd19	0.09026546
19	0x3dccc132	0.099977866
20	0x3d8591b0	0.06521928
21	0x3dad43f8	0.0846023
22	0x3dae0d14	0.08498588
23	0x3dace20f	0.08441555
24	0x3e3d06b2	0.18459585
25	0x3dd6cd6e	0.10488401
26	0x3d69b394	0.057056025
27	0x3d9a64e7	0.07538777
28	0x3d8f2c92	0.06990923
29	0x3daa94d0	0.08329165
30	0x3da0a7be	0.07844494
31	0x3e0e0791	0.13870074
32	0x3e591f83	0.21203427
33	0x3d91494d	0.07094059
34	0x3d74ae43	0.0597365
35	0x3d976a1a	0.07393284
36	0x3e14a40a	0.14515701
37	0x3d3168b8	0.04331276
38	0x3d49af31	0.04923934
39	0x3e2fd8dd	0.1717257
40	0x3de78730	0.11305082
41	0x3d9f7a89	0.077870436
42	0x3de20850	0.11036742
43	0x3d83c7ce	0.06434594
44	0x3db50854	0.08839479
45	0x3df96a89	0.12178523
46	0x3d4a7d34	0.04943581
47	0x3df225d1	0.11823619
48	0x3d8b8499	0.068124
49	0x3d57f441	0.052723173
50	0x3da2dce0	0.07952285
51	0x3db9e071	0.09076012
52	0x3d9992c1	0.07498694
53	0x3d908442	0.07056476
54	0x3e6c324b	0.2306606
55	0x3db465f8	0.088085115
56	0x3d72331f	0.059130784
57	0x3dd256e6	0.10270481
58	0x3d8af9c0	0.06785917
59	0x3d5c1481	0.05373049
60	0x3d7622f1	0.060091916
61	0x3d9dce3e	0.07705353
62	0x3e37646f	0.17909406
63	0x3d4dcd16	0.050244413

output_conv.weight f4 [6, 64, 1, 1]
0	0x3d2e812b	0.042603653
1	0x3e357175	0.17719062
2	0x3e456466	0.1927658
3	0x3e6d7771	0.23190095
4	0xbd513d0f	-0.05108362
5	0x3e68989c	0.22714466
6	0x3e02c0bc	0.12768835
7	0x3dd2dca6	0.102959916
8	0x3cb4d967	0.022076322
9	0x3dae8ba1	0.08522726
10	0x3e68de3f	0.2274103
11	0x3e8f714a	0.2801612
12	0x3db44b31	0.08803404
13	0x3da85dbc	0.082210034
14	0xbf19ec0c	-0.60125804
15	0xbcf3173c	-0.029674165
16	0xbef9b3b2	-0.4876991
17	0x3e0bcb8c	0.13651866
18	0xbeaaedde	-0.33384603
19	0x3e47ec3b	0.19523709
20	0x3e35315e	0.17694613
21	0xbe4b67cc	-0.19863814
22	0x3e414ed8	0.18877733
23	0xbd8c9bfb	-0.068656884
24	0xbe7ab7e3	-0.2448421
25	0x3d995820	0.07487512
26	0xbd36bd22	-0.044613965
27	0x3e4e0374	0.20118505
28	0x3d9042e2	0.07044007
29	0xbba51d5f	-0.0050389017
30	0xbe053780	-0.13009453
31	0xbd0ce774	-0.03440042
32	0xbe9f2081	-0.31079486
33	0x3e1a0d0e	0.15044042
34	0x3daf69ca	0.085650995
35	0x3d9f0779	0.07765097
36	0x3e1035a9	0.1408297
37	0x3e029dd7	0.12755524
38	0x3e6990e7	0.22809182
39	0xbe8a7fd7	-0.2705066
40	0x3c30b7b5	0.010785987
41	0x3e12b808	0.14328015
42	0x3e775865	0.24154814
43	0xbe5a55a9	-0.2132174
44	0x3e5bce16	0.21465334
45	0x3e16041f	0.1465001
46	0x3df635a2	0.120219484
47	0x3e4d2500	0.20033646
48	0x3daef278	0.08542341
49	0x3e0a3d9a	0.13500062
50	0xbd9abd9e	-0.07555698
51	0x3ccd7653	0.025080835
52	0xbda6260f	-0.08112728
53	0x3c92a8c0	0.017902732
54	0xbeea3cd2	-0.45749527
55	0x3e209e9c	0.15685505
56	0x3e4197a4	0.18905503
57	0x3e4cf6e0	0.2001605
58	0x3de19831	0.11015356
59	0x3d8d9dde	0.069148764
60	0x3e16da5f	0.1473174
61	0x3e504abe	0.20341012
62	0xbea4731e	-0.32119077
63	0xbef429d0	-0.4768815
64	0xbd19092c	-0.037362263
65	0x3e560128	0.20898879
66	0x3e40f65e	0.18843982
67	0xbe128bf8	-0.14311206
68	0x3e859ecd	0.26097718
69	0x3e82488f	0.25445983
70	0x3e17d284	0.14826399
71	0x3e382efd	0.17986675
72	0xbe680d28	-0.22661269
73	0x3deea6d7	0.11652916
74	0xbeaa63d4	-0.33279288
75	0x3ead262d	0.33818188
76	0xbe20310f	-0.15643714
77	0xbf231d5f	-0.6371669
78	0x3d5e8a2b	0.054330986
79	0x3d930b4a	0.071798876
80	0x3d7114ce	0.05885773
81	0xbe462ab9	-0.19352235
82	0xbeac2baa	-0.33627063
83	0x3e62cc44	0.22148234
84	0xbf077e5d	-0.5292719
85	0x3e48091b	0.19534723
86	0xbf11661b	-0.56796426
87	0x3d2eb67b	0.042654496
88	0x3e123b4e	0.14280435
89	0xbf21d98e	-0.6322259
90	0xbed6695f	-0.41877267
91	0x3dae9aa5	0.0852559
92	0xbda3ed21	-0.08004213
93	0x3c462c76	0.012095561
94	0xbeb92660	-0.3616209
95	0x3df571fd	0.11984632
96	0x3e2fe19b	0.17175905
97	0xbf25ee58	-0.6481681
98	0xbe2acf8b	-0.16680734
99	0x3dd7a55d	0.105295874
100	0x3c3025af	0.010751172
101	0x3e008850	0.12551999
102	0x3e521ff7	0.20520006
103	0x3de7c1c9	0.113162585
104	0x3e0010db	0.1250643
105	0xbd0f8838	-0.035042018
106	0x3e90959f	0.28239152
107	0xbec8f59e	-0.3924989
108	0xbd5e6378	-0.05429408
109	0x3c15bab0	0.009138748
110	0x3d0d1bdd	0.0344504
111	0xbee2f9c1	-0.44331172
112	0xbe58e90e	-0.21182653
113	0xbebc42f7	-0.3676984
114	0xbd9d8a42	-0.07692386
115	0x3d488ab9	0.04896042
116	0xbe859ee4	-0.26097786
117	0x3d89cc1e	0.067283854
118	0x3e12daee	0.14341328
119	0x3dd8ae4e	0.10580121
120	0x3e016460	0.12635946
121	0xbd73bba1	-0.05950511
122	0xbeeeb178	-0.46619773
123	0xbe8b9e74	-0.27269328
124	0x3e2c1154	0.16803485
125	0x3e6784f5	0.22609313
126	0x3dc592a3	0.09647109
127	0xbe852afd	-0.2600936
128	0x3dee0fa1	0.11624075
129	0x3e5691ee	0.20954105
130	0x3e2c44d4	0.16823131
131	0xbe9b50c7	-0.30335066
132	0x3e29dd98	0.16588438
133	0xbe8d9f0f	-0.27660415
134	0xbf0b61d6	-0.5444616
135	0xbf46753d	-0.7752264
136	0x3e37f181	0.1796322
137	0x3e3677d4	0.17819148
138	0x3e836f09	0.2567065
139	0xbf271c01	-0.65277106
140	0x3e02d284	0.12775618
141	0x3cb8513a	0.02249967
142	0xbd966d2f	-0.07345044
143	0xbf0bc4f9	-0.5459743
144	0xbcb78ce2	-0.022406045
145	0x3e49a8a8	0.19693244
146	0x3e310724	0.1728788
147	0x3e81d694	0.25359023
148	0x3e6101d6	0.21973357
149	0x3d5c4190	0.053773463
150	0x3e477ab7	0.19480406
151	0x3dbb5713	0.091474675
152	0x3cf3ee17	0.029776616
153	0x3d916b90	0.07100594
154	0x3db18405	0.08667759
155	0x3e666206	0.2249833
156	0x3e2dc149	0.16968264
157	0xbf1f7d5d	-0.62300664
158	0x3e0bc8b0	0.13650775
159	0x3daa9379	0.083289094
160	0xbe06df28	-0.13171065
161	0x3e1dc228	0.15406096
162	0x3d872930	0.06599653
163	0x3e34e766	0.17666396
164	0x3e2691c7	0.16266547
165	0x3e416046	0.18884382
166	0xbd62d05e	-0.055374496
167	0xbe136dbf	-0.14397334
168	0xbf1eafdd	-0.61987096
169	0xbed2c6a9	-0.4116719
170	0x3e6e0d1e	0.23247191
171	0x3d8bf9fe	0.068347916
172	0xbea2e72f	-0.31817004
173	0x3d67363e	0.056448214
174	0xbea605d5	-0.32426324
175	0x3e549140	0.20758533
176	0x3e5722de	0.21009395
177	0x3d6476bb	0.055777293
178	0xbf3c612e	-0.73585784
179	0xbf19f34c	-0.60136867
180	0x3d89fa83	0.067372344
181	0xbf1210dc	-0.57056975
182	0xbe0b5a9b	-0.13608782
183	0xbe4904b9	-0.19630708
184	0x3e420291	0.18946292
185	0x3e0aa6d2	0.135402
186	0x3e2d74b6	0.16939053
187	0xbee3e827	-0.44513056
188	0xbe94f805	-0.29095474
189	0x3d109897	0.03530177
190	0xbe952b40	-0.2913456
191	0xbc59ca3a	-0.0132928435
192	0xbf0b1124	-0.5432303
193	0xbe24700f	-0.16058372
194	0xbe32ee33	-0.17473678
195	0x3e6ca196	0.23108515
196	0x3e587bd1	0.21140982
197	0xbec68e50	-0.3878045
198	0x3dcc4113	0.099733494
199	0x3dc676e2	0.09690644
200	0xbea920ee	-0.33032936
201	0x3e230f5b	0.15923826
202	0x3e449186	0.19196138
203	0xbd719e1c	-0.058988675
204	0x3dd0791f	0.10179352
205	0xbd9d6539	-0.07685322
206	0x3d56cd3d	0.052441824
207	0x3d9fea2a	0.07808335
208	0x3d58607f	0.0528264
209	0xbe45d340	-0.19318867
210	0x3dee5f4a	0.11639269
211	0xbebfccd5	-0.37460962
212	0x3e078c6f	0.13237165
213	0xbed5ef9a	-0.41784364
214	0x3e01e9b7	0.12686811
215	0xbf2dbd9b	-0.6786744
216	0x3df32c7f	0.11873721
217	0xbc367c42	-0.011138024
218	0x3dd2f95e	0.10301469
219	0x3e4ec7e1	0.20193435
220	0x3df8d168	0.12149316
221	0x3d3977e3	0.04528035
222	0xbe7c47bf	-0.24636744
223	0x3de52eb9	0.11190552
224	0x3e221b96	0.15830836
225	0x3c4eba1f	0.012617617
226	0xbcfe1032	-0.031013582
227	0xbf16d435	-0.5891755
228	0xbf02c004	-0.5107424
229	0x3da13668	0.07871705
230	0x3e06f7ff	0.1318054
231	0x3dcf3994	0.10118404
232	0x3e071c05	0.13194282
233	0x3e43b682	0.1911259
234	0x3dc46821	0.095901735
235	0x3db30592	0.08741297
236	0x3ecdbd94	0.401837
237	0x3e442d9d	0.19158025
238	0xbebce23b	-0.3689135
239	0xbdcc88c7	-0.09987026
240	0x3e23f05d	0.1600966
241	0xbeaa4daa	-0.33262378
242	0x3d883e22	0.06652476
243	0x3e135ff5	0.14392073
244	0x3e1c37a8	0.15255606
245	0x3db82bb7	0.08992713
246	0x3dff65a4	0.12470558
247	0x3e229b4a	0.1587955
248	0x3dc14145	0.09436277
249	0x3db76ad0	0.0895592
250	0xbe16d210	-0.1472857
251	0x3e219a22	0.15781453
252	0xbf2b4cf6	-0.6691431
253	0xbe78ffcc	-0.24316329
254	0x3dc66735	0.09687654
255	0x3d9b48e9	0.07582266

output_conv.bias f4 [6]
0	0xbd7fe80e	-0.062477164
1	0xbdb7d6f4	-0.08976546
2	0x3df5b887	0.119980864
3	0xbe88097e	-0.26569742
4	0x3de1c1b3	0.11023273
5	0x3a3bc63b	0.00071630225
