training/trained_models/model_standard_rocket.pth (torch, 84350 bytes, 14 tensors)

conv1.weight f4 [32, 2, 3, 3]
00000000: ff4d df3d 96e3 0d3e ef87 a6be cc6c 303e
00000010: 72c8 31be b5eb 3b3e 8108 c4bd 0168 3b3c
00000020: 7ade dcbd ea57 543d a1b8 383c a9f1 233c
00000030: 8cd9 39bd 3d12 c23c 3714 cdbd 4cc5 263e
00000040: 2834 553d bcf0 7d3d 45f2 52be 8e90 17be
00000050: a59b ad3d d77c 223d 8db3 84be 6c8a 973d
00000060: 8e41 773d cf5e 613e 5fc3 4e3e 352e 273d
00000070: 3a53 5dbd 92fe 97bd 7a4d c5bc 2232 27bd
00000080: ba74 abbd e471 1cbd 9841 31bd 8f3b 583d
00000090: c810 d3bd 1b63 213d 6201 51be 2886 e9bc
000000a0: 6084 8abe 9165 1e3e 5ac5 29be d84d da3d
000000b0: b46a 03be ad92 3abd c2c6 6e3d 96e4 3cbc
000000c0: 0e68 7cbb e654 333d 6c7b b33d 74fb 8fbb
000000d0: 326d 283d c9b1 913d f9dc 76be 3976 abbd
000000e0: f428 98be 84ef 8cbc 27d2 bebd a890 943c
000000f0: c208 253e 0253 22bd e697 763e 34eb 01bd
00000100: e6fe 59bd b159 8e3d 678f 32be 8073 0cbd
00000110: b712 05bc 3c45 8fbd b270 f13d a1e8 c3bd
00000120: aece 253e d28a f3bd 1a9d 253e eb83 83be
00000130: 43d8 26bd 493a 80bd b3e1 673e 4535 45bd
00000140: b1c0 9f3d ad91 b93a 96e4 39bb 1fea 8a3d
00000150: 65b5 1a3e 1fca 0abe 01c2 26be 6ef2 2dbd
00000160: aed0 6dbe 3b9a 17bd 881b a13d 707e 313e
00000170: 7f89 ddbd cf95 1fbe 3fc3 17bb c4b4 16be
00000180: f714 91bd 0dd4 253e e8df 00bd f6d4 173d
00000190: 9b49 02bd ec29 be3d d0aa 183e 7291 483c
000001a0: 429c 27be 1d70 053d be79 8bbe 8bbd b5bc
000001b0: c147 8e3d 5227 233e 9fd4 04be 6ab9 c9bd
000001c0: 1465 0a3e 2dc8 063e 033e 203e 4c93 85be
000001d0: fff7 4d3e c5bb 0fbe 07af c3bd 3b43 9dbd
000001e0: 17b8 adba ee02 d83c 72c5 a83c 2f0c 54be
000001f0: e0c3 36bd c6f0 a0bc c261 82be 2868 013e
00000200: cc0a 58be 8372 67bd 6235 4ebe c2b5 223d
00000210: 8632 c73d 3bf4 fdbd e892 62bd 24ff 173d
00000220: 15be b3bd f736 093d 583a 3b3b 7406 1b3d
00000230: 5de3 aabc 824e ccbd 7f92 87bd 084c caba
00000240: 47e3 b8bd 32f4 15be 6f93 62bd bc02 583e
00000250: 6ae2 693e dfb2 f63d f544 6b3e c3bf 683e
00000260: d8ae c2bd 30f4 843d 64c4 a23c bdb3 203e
00000270: fbeb 633c e7fc 0cbe e50f 20be a0fb 87bd
00000280: d42a ec3b c3b5 503d c406 3e3e ba75 55be
00000290: 28aa 1e3e a897 693e b275 34bd 9f57 99bd
000002a0: def6 adbc e115 7abe 041d 5bbe d2b5 49be
000002b0: e77e 283e b87b 873b 1777 39be 1def f93c
000002c0: e08e 153d 4089 503d def3 8abd 15a0 b13d
000002d0: 2250 80be cc39 48be b8b3 0d3e 6d73 fd3d
000002e0: 3ce0 44bd 045f 573e 913f 043e 20d1 3d3e
000002f0: 1a1d 2dbd ac9d 4ebd 40bb 163e f036 bebd
00000300: 1706 b13d c137 053d 93bc 8a3d 4c4e d63d
00000310: 76db ed3d 91b4 e73c e98a f33d e784 083e
00000320: d55f 4bbd c330 653e fde2 103d a68b 8ebe
00000330: 2f2b 9fbd 9151 1fbe ffeb 6ebd 4c25 42bd
00000340: 0a6e fbbb bc6e debc 4a9a 1abe e75c c2bc
00000350: ec82 40bc e83a 2bbb cf38 873d 8421 24bc
00000360: 7e8d e6bd de01 a33c 2107 a53c 0cbf 35be
00000370: 04ff 573e 8c84 90be 7b5c 29be 6408 2a3d
00000380: c405 45be 2499 7b3c c653 ad3d 4b97 4cbe
00000390: 56bd 673c 1bc7 6dbd e0fe 35be 7bbb 9fbd
000003a0: c0ac d0bd 2bb7 17be 8218 16be 169e dabd
000003b0: 4005 1c3e 2ec9 12be 378b 47be a539 6dbd
000003c0: 0bb9 d7bd 1a50 ddbd 6d3d 1ebd 1297 8c3c
000003d0: 4a12 98bd d531 febc 56c8 f5bd a037 3bbe
000003e0: 0dd8 853d 1dd2 babb c037 9fbc f971 61bd
000003f0: 8617 263e ce65 083e c811 d23d 003c c33d
0.109035484 0.13856348 -0.32525584 0.17229003 -0.1736162 0.18351634 -0.095719345 0.011438371
-0.107846215 0.051841654 0.011274488 0.010006347 -0.045373484 0.023690337 -0.10013621 0.162862
0.052051693 0.06199716 -0.20600231 -0.14801237 0.084769525 0.039669838 -0.25918236 0.07399449
0.060365252 0.22008823 0.20191716 0.04081555 -0.05403445 -0.07421602 -0.024084795 -0.040819295
-0.08371873 -0.038194552 -0.043275446 0.052791175 -0.10305935 0.039401155 -0.20410684 -0.028506353
-0.2705412 0.15468432 -0.1657919 0.10659379 -0.12833673 -0.045550037 0.05829502 -0.0115291085
-0.003851417 0.043782137 0.08763775 -0.004393989 0.04111976 0.07113988 -0.24107732 -0.083721586
-0.29718745 -0.017204054 -0.09317427 0.018135384 0.16116622 -0.039629944 0.24081382 -0.031718448
-0.053221606 0.06950701 -0.17437516 -0.034289837 -0.008122138 -0.06995627 0.11789073 -0.09565855
0.16192123 -0.11891712 0.1617321 -0.25686583 -0.040733587 -0.06261117 0.22644691 -0.048146505
0.07800425 0.0014157795 -0.0028365008 0.06782936 0.15108259 -0.13553666 -0.16284944 -0.042467527
-0.23224136 -0.03701232 0.07866579 0.17333388 -0.10817241 -0.15584491 -0.0023157147 -0.14717394
-0.07084077 0.16194172 -0.031463534 0.03706833 -0.031808477 0.0928534 0.1490891 0.012241708
-0.16368201 0.032577623 -0.2724132 -0.022185108 0.0694728 0.15932968 -0.12971734 -0.09849818
0.1351512 0.13162299 0.15648656 -0.2608894 0.20114134 -0.14036472 -0.09554868 -0.07678839
-0.0013253716 0.026368584 0.020601962 -0.20707773 -0.044620395 -0.01964606 -0.25465208 0.12637389
-0.21097869 -0.05650569 -0.20137551 0.03972412 0.097264335 -0.12400099 -0.055315882 0.037108555
-0.0877649 0.033499684 0.002856871 0.03784795 -0.020860368 -0.09975912 -0.06619739 -0.0015434036
-0.09027725 -0.14643934 -0.055316385 0.21094793 0.22840276 0.12045836 0.22975524 0.22729401
-0.09506005 0.064918876 0.019869037 0.15693565 0.013911243 -0.1376835 -0.15631063 -0.066397905
0.007207254 0.05095459 0.18557268 -0.2084569 0.15494597 0.22811759 -0.044057555 -0.074874155
-0.02123588 -0.24422409 -0.21397787 -0.19698265 0.1645466 0.0041346215 -0.18111835 0.030509526
0.03651321 0.05091214 -0.06784795 0.08673111 -0.25061136 -0.19553298 0.13838089 0.12375531
-0.04806541 0.2103234 0.12914874 0.18536806 -0.04226408 -0.050443336 0.14719868 -0.09287822
0.0864374 0.032523874 0.06774249 0.10464153 0.116141245 0.028284343 0.118917294 0.13331948
-0.04965194 0.22381882 0.035372723 -0.27840918 -0.077719085 -0.15558459 -0.058330532 -0.04739885
-0.00767303 -0.027152412 -0.15097919 -0.02372594 -0.011749964 -0.002612764 0.06602632 -0.010017756
-0.11257456 0.019898351 0.020145 -0.1774866 0.21093374 -0.28226125 -0.16539185 0.04151191
-0.1924048 0.015356336 0.08463244 -0.19979589 0.014144262 -0.05805121 -0.17773008 -0.07799431
-0.101891994 -0.14815967 -0.14657786 -0.10674684 0.15236378 -0.14334556 -0.194867 -0.057916302
-0.10533341 -0.10806294 -0.0386328 0.01716188 -0.07425363 -0.031029621 -0.12001102 -0.18282938
0.06535349 -0.005701317 -0.019435763 -0.055040333 0.16219911 0.13320085 0.10257298 0.095329285

conv1.bias f4 [32]
00000000: 1f81 20b9 545c 7eb9 6bec 6eb6 8d0a 03b9
00000010: 5161 ed36 d93b cdb6 34a5 65b9 e014 143a
00000020: 8168 fab7 ade9 0137 2b90 9839 5632 81b8
00000030: 0459 8eb9 9c8b f1b8 624e 4239 4d3b 60b8
00000040: d38f f738 55d1 10b9 b97e 0339 4516 d738
00000050: 4148 1339 4a3b 43b9 dfac 22b9 d094 ebb7
00000060: b8c1 bcb6 bacc 06b9 963d f237 1441 e0b8
00000070: 9de8 6ab9 315f 92b9 ac27 15b9 5550 7938
-0.0001530689 -0.00024257723 -3.5602377e-06 -0.00012497064 7.0744795e-06 -6.1164433e-06 -0.00021900685 0.00056488626
-2.9850986e-05 7.743406e-06 0.00029099113 -6.160575e-05 -0.00027150672 -0.0001151778 0.00018530482 -5.346099e-05
0.00011804667 -0.00013810892 0.00012540341 0.00010256147 0.00014045929 -0.00018618736 -0.00015513923 -2.808348e-05
-5.6253884e-06 -0.00012855502 2.8877326e-05 -0.00010693274 -0.00022402634 -0.00027918213 -0.00014224526 5.944104e-05

conv2.weight f4 [64, 32, 3, 3]
00000000: c23d 5b3c a0f1 df3d d2df 503d 7a52 3dbc
00000010: 1ca8 10bd 04b2 b13b aa08 debc baa8 18bd
00000020: 2693 823d af70 043d c371 d6bc 0602 4cbd
00000030: bf84 aabc e1aa 5dbd 6ef0 debc 09ff 11bc
00000040: f616 07bd 5326 1ebe e434 be3d d161 46bc
00000050: 385c 033d a507 453a 7983 4cbd 1920 403d
00000060: 7749 6f3d 6692 803c 8c39 093e f884 743d
00000070: 3049 9ebd a1d4 793c 04e5 0ebd 5806 64bb
00000080: 1ef3 54bd 2dab 803b e151 aebd 3bc7 31bd
00000090: 9b48 743c 1f11 08ba dd04 d23c e0ee 16bc
000000a0: 3f24 17bd bbf5 5ebd 2048 883d 0ca4 ef3c
000000b0: aea0 4d3c acee 933c 9ff6 d6bc d2c1 0f3d
000000c0: 89c0 323d e907 393d a6cb 6bbd 2a69 8f3b
000000d0: 5d20 073d 514a b2bc 1a4a 91bd f647 f2bd
000000e0: 7b28 56bd 3ad4 aa3d 5c6a a03d 9127 2cbd
000000f0: 0d3d 573d f8b2 413b 0103 263d 3b51 c53c
00000100: 9f3b 2c3d 6361 ee39 a954 f73b 8813 b63c
00000110: b7a2 353c 7721 68bd ea57 b8bc 7feb 30bd
00000120: bddb febd dead 6e3a 3a8f 133d f2a6 21bb
00000130: 92e8 963c e677 813c b598 dabc a20a edbd
00000140: 9e43 e7bc 34c4 8dbd f18b 153c 7d30 6bbd
00000150: 070b 36bd bd33 b13d 2fd3 173c 4ec9 56bd
00000160: 0f30 8dbc dd2e 543d 28bf 183d 89cf b3bd
00000170: 720b 57bd 956b 36bd 9209 af3b a0c3 2ebd
00000180: 6e94 48bc bbf1 163d 2105 73bc 5cd0 dbbd
00000190: db6d cfbd a758 6ebd ccaa 02bd 8f7f f4bb
000001a0: d490 e33b 29da 3fbc aef4 d9bb 4328 74bd
000001b0: 3710 56bd 604d 5c3d abce b1bd 45e9 c8bd
000001c0: 59f9 283b 3d06 f43c 1961 b93c d3c7 bdbc
000001d0: 4f5f 41bd 8635 23bd 1a03 83bc 80df a2bd
000001e0: f78d 2abd c54b 073d c714 d1bc 599a e8b9
000001f0: 1cce 90bd ef5d ffbb aa23 42bd de73 fa3c
00000200: a632 833c 1d8f 81bd ec49 ddbb 464d fc3b
00000210: 0788 aebd 451e 0c3d 8080 f4bc 1907 11bc
00000220: c15b cbbc 1c81 843d 699d 0f3d 53d3 2abc
00000230: 66b1 e7bb 8e2b 9b3c 267b e2bc ce59 1abd
00000240: 63af 3ebd a2ee 88bd 1b75 01bd c366 a4bd
00000250: ea4b 34ba db53 073d dcdc f5bb 735b 103d
00000260: 2ced e43c 5ccf 4bbd 8910 bc3c a753 27bd
00000270: d016 ef3b e02a 85bc a44e bdbd 0043 0bbe
00000280: d39c bbbb 801a f8bc e910 61bc c15a ae3b
00000290: ded4 93bd ae8c bd3b c23d b3bc 2560 d0bc
000002a0: 5552 aa3c 3daf a03d 469b 3cbd 3fe9 893d
000002b0: e188 353d c8ac a5bd 988c a3bc 2150 623d
000002c0: a971 89bc 4750 b4bd 7d39 aabb a09c a2bd
000002d0: faec 3c3c cdf0 1c3b 5d96 83bd 50c3 e4bc
000002e0: 6b08 42bd a684 5f3d 3faf fa3b 0812 72bb
000002f0: 665c 01bb 80f1 51bc d2c3 23bb 9870 c13c
00000300: 53b8 b83c dfa1 1b3d 648e f8bb 0a5f d4bc
00000310: b3d9 893c b941 bebd c9d7 d5bc e6de 00bd
00000320: bf90 e13b e96e 5d3c 230e a9bb a7cd 9c3d
00000330: 3d91 c03c 93aa 953d 4be2 313d bb55 18bd
00000340: 3175 ce3c c569 96bd 4f5b 373c 2b47 37bd
00000350: de8a 143d f8a8 06bb 9cfd fbbc 0fe3 21bc
00000360: 07f2 4fbd 51b7 233c 8f70 ab3d 3b37 14bc
00000370: 9a13 95bd 602d 643d 0912 51bc eae4 d33b
00000380: 50df 143d bf05 c93b 7c37 c13d c0e0 dabc
00000390: 12af 583d bf2e b83b 1144 ffbc f4fe 423d
000003a0: a4b4 e43b e815 76bd 6861 88bc 3dc0 28bd
000003b0: 8aeb 04bd 95ff 04bd 56e1 70bd 04e0 d8bc
000003c0: 65bd dbbc 081e 85bd 28c6 713d 5820 b43d
000003d0: fcbb b4bc 713c 303d 5406 d4bb 473f 6dbd
000003e0: ed6b ad3c 23f9 3b3d 7155 203d 9435 843c
000003f0: 1f34 c1bc fc03 273d 8aa4 b1bc 24c4 b8bc
0.013381423 0.10934758 0.0509947 -0.0115553085 -0.03531657 0.0054228324 -0.02710374 -0.037270285
0.063757226 0.032334026 -0.026177293 -0.049806617 -0.020815251 -0.05411804 -0.027214255 -0.008910903
-0.03298088 -0.15444307 0.09287432 -0.012108282 0.03207037 0.0007516093 -0.04993007 0.04690561
0.05841967 0.015694808 0.13400859 0.05969712 -0.07728803 0.015248449 -0.034886375 -0.003479382
-0.051989667 0.0039266557 -0.08511711 -0.04340289 0.014909889 -0.00051905395 0.025637085 -0.009212226
-0.0368998 -0.054433566 0.06654382 0.029253028 0.012550516 0.018058144 -0.026240645 0.03509695
0.043640647 0.04517356 -0.05756726 0.00437655 0.03298985 -0.021763952 -0.07094212 -0.11830132
-0.0522847 0.0834126 0.078327864 -0.04202992 0.052548457 0.0029556137 0.04053021 0.024086585
0.042049047 0.00045467456 0.007547934 0.02222611 0.0110861575 -0.05667254 -0.022502858 -0.043193337
-0.124442555 0.0009104888 0.036025263 -0.0024666158 0.018421445 0.015804242 -0.026684145 -0.11574294
-0.028230485 -0.069221884 0.009127603 -0.05741929 -0.04444411 0.086524464 0.009266659 -0.052438073
-0.01723483 0.051802505 0.037291676 -0.087798186 -0.05250115 -0.044536192 0.005341717 -0.04266703
-0.01224242 0.036851626 -0.014832766 -0.10733101 -0.10128375 -0.058190014 -0.031901166 -0.007461495
0.006944755 -0.011709728 -0.0066514825 -0.05960871 -0.052261557 0.053784728 -0.08681997 -0.09810118
0.0025783388 0.02978813 0.022629308 -0.023166573 -0.047210034 -0.039845966 -0.01599269 -0.079527855
-0.041639294 0.033031244 -0.025522603 -0.00044365486 -0.07070562 -0.00779318 -0.047397293 0.030572828
0.016015362 -0.06326125 -0.006753197 0.0076996414 -0.08522039 0.034208555 -0.02984643 -0.00885179
-0.024824025 0.06469938 0.035062227 -0.01042636 -0.007070708 0.018941667 -0.027646612 -0.0376833
-0.04655398 -0.066861406 -0.03160582 -0.08027413 -0.0006877767 0.033038955 -0.007503135 0.035243463
0.027945124 -0.0497583 0.022957103 -0.04085126 0.0072964206 -0.016255796 -0.09243515 -0.13599777
-0.005725482 -0.030286074 -0.013736942 0.0053208773 -0.072183356 0.0057845926 -0.021880034 -0.02543647
0.020791212 0.07845924 -0.046046518 0.06733941 0.04431999 -0.08089596 -0.019964501 0.055252198
-0.01677783 -0.08804374 -0.0051948414 -0.0794003 0.011531109 0.002394724 -0.06425164 -0.027925164
-0.04737131 0.054569863 0.0076502855 -0.0036937017 -0.0019738912 -0.012813926 -0.0024988544 0.02361326
0.02254883 0.03799617 -0.0075853337 -0.025924224 0.01682744 -0.09289879 -0.026103871 -0.031462573
0.00688371 0.013515213 -0.005159156 0.076564126 0.023506755 0.07307925 0.0434287 -0.037191134
0.025202366 -0.07344393 0.011191203 -0.044745605 0.036265247 -0.002054749 -0.030760579 -0.009880795
-0.050767925 0.0099924365 0.08371078 -0.009046371 -0.07279129 0.055707335 -0.012760648 0.0064664977
0.03634578 0.006134718 0.09434411 -0.026718497 0.052901335 0.005620807 -0.031160386 0.047606423
0.006979542 -0.060079485 -0.01664801 -0.041198958 -0.03245119 -0.032470305 -0.058808647 -0.026474006
-0.026823709 -0.06499869 0.059026867 0.087952316 -0.022062294 0.04302639 -0.006470481 -0.057921674
0.021169627 0.045891892 0.039143983 0.01613883 -0.023584424 0.040775284 -0.021684904 -0.022554465

conv2.bias f4 [64]
00000000: d834 aa36 997b f037 5844 9c37 bbc7 1f36
00000010: 9ffa 6d38 5753 6838 2a42 91b8 b9c6 1337
00000020: 6191 11b8 29ef 31b8 0a01 1bb6 0426 9838
00000030: b367 a4b6 0680 8e38 1df5 fc37 f219 ce35
00000040: 763b 1638 02fa bf37 4bcd dd37 0703 f037
00000050: 90da 17b8 3763 6b38 3e1d bfb8 fd34 6b38
00000060: f942 f6b6 a058 ad37 0ded 4737 83d4 a737
00000070: fdd6 8db5 3a2b a9b7 5b0b 2936 add2 b437
00000080: eb31 1638 9c20 2eb8 20f5 cbb6 797b 13b8
00000090: 7e41 04b7 a120 be36 6d8d 1c37 b27c 91b6
000000a0: 8593 9b38 4b28 d737 2372 9fb8 ca04 43b6
000000b0: f4de 8736 3ee4 6cb6 ad6e d2b8 f07e 1538
000000c0: 2f43 8738 d856 bbb7 3b79 17b8 76c1 3f37
000000d0: f2d5 af37 b571 7838 5228 6e38 2e01 86b6
000000e0: 4dd8 d8b7 e6f5 a437 aecf 28b8 a56b a1b7
000000f0: e5fd c737 1407 0137 ce33 06b7 5f87 9835
5.0725466e-06 2.8667784e-05 1.8628474e-05 2.3809105e-06 5.6738612e-05 5.5390727e-05 -6.926463e-05 8.8081515e-06
-3.470609e-05 -4.2422824e-05 -2.3097405e-06 7.255006e-05 -4.899653e-06 6.794934e-05 3.015488e-05 1.5355747e-06
3.5818164e-05 2.2885393e-05 2.644085e-05 2.861164e-05 -3.6204758e-05 5.6120767e-05 -9.1130365e-05 5.6077715e-05
-7.339168e-06 2.0664476e-05 1.1916517e-05 2.000691e-05 -1.0567888e-06 -2.0166499e-05 2.5189572e-06 2.1555776e-05
3.5809277e-05 -4.1515203e-05 -6.0784078e-06 -3.5162524e-05 -7.883062e-06 5.6662398e-06 9.331253e-06 -4.335853e-06
7.4184536e-05 2.564876e-05 -7.6029704e-05 -2.9060052e-06 4.0492687e-06 -3.5299595e-06 -0.00010034195 3.5642588e-05
6.4498156e-05 -2.2332577e-05 -3.611411e-05 1.1429531e-05 2.0961252e-05 5.9233706e-05 5.6781173e-05 -3.9936485e-06
-2.584993e-05 1.9664829e-05 -4.0247738e-05 -1.9242822e-05 2.3840877e-05 7.690647e-06 -7.999084e-06 1.1364281e-06

bn1.weight f4 [32]
00000000: 4e8a 7b3f 39b2 6b3f e158 923f 454f 833f
00000010: afb2 663f b49b 673f 152f 7b3f 1a89 903f
00000020: 488b 753f 9e3a 6e3f ad44 6c3f 74a9 823f
00000030: b0a4 783f f768 8b3f d372 7d3f dbc2 843f
00000040: 7b5b 723f 9093 763f 97f7 6f3f 545f 783f
00000050: 97b8 863f 6085 723f f0d6 843f a8a8 863f
00000060: ef65 883f 7bbf 823f 248a 723f f03d 843f
00000070: b420 6a3f e473 5b3f 3099 8e3f 41bf 6a3f
0.9825791 0.9206882 1.1433374 1.0258566 0.901164 0.9047196 0.98118716 1.129184
0.9591565 0.9305819 0.9229229 1.0207963 0.97126293 1.0891408 0.9900333 1.0371965
0.9467084 0.9631891 0.9373717 0.9702046 1.0525082 0.94734764 1.0378094 1.052022
1.0656108 1.0214685 0.94742036 1.0331402 0.9145615 0.8572371 1.1140499 0.9169808

bn1.bias f4 [32]
00000000: b86a 83bd 5663 843d 3b37 a53d c57d 833c
00000010: 1da5 bebd 447f 5cbb d498 0e3d a943 853d
00000020: 486e 91bc 34fe 99bc 5612 b2bc 5087 413d
00000030: 2736 19bd cfe7 1e3e dc61 0bbe cf0b 893d
00000040: 4ed8 10bd 12e1 c6bd 2229 b6bd 84f9 b7bd
00000050: 5b22 093e 8763 f83d 2ce8 0f3e 8d0d 283e
00000060: 40f2 1d3e bb7b 9cbd 4d45 3e3c 1ddd d3bd
00000070: 780e 6cbd 1a1c 1bbe 3d3d e63d c8b6 debd
-0.06416839 0.06464259 0.08067175 0.016051183 -0.093088366 -0.0033645192 0.034813717 0.06507046
-0.017752782 -0.018797971 -0.021737259 0.047248185 -0.03740516 0.15518115 -0.13611549 0.066917054
-0.035362534 -0.097108975 -0.08894564 -0.08983138 0.13392012 0.12128358 0.1405341 0.16411419
0.15424442 -0.07640787 0.011613202 -0.103449084 -0.057630986 -0.15147439 0.11242149 -0.108747065

bn1.running_mean f4 [32]
00000000: f5e7 c7ba 1948 49bc 2107 7fbd fafa 31bd
00000010: f81e 92bc ceb5 68bc 3e1e 193d 6f9d 96bd
00000020: 34b9 b63d d054 00bd 3373 143d 9679 3cbc
00000030: 67ec 73bd f91d cebd 05a0 ce3d 02f3 debd
00000040: 6d43 b2bc 8cec 883d 7457 133d b722 b53c
00000050: c41a 87bd 2f69 a7bd dacf b9bd 7ddf 13be
00000060: 190e aabd 54b3 17bd 2fca e7bc da79 8a3d
00000070: c97b 103d 5edc 533d dbc5 6fbd d4ac d43b
-0.0015251624 -0.012285256 -0.062262658 -0.04345224 -0.017837033 -0.014203502 0.037382357 -0.07354247
0.089220434 -0.031330884 0.036242675 -0.011503598 -0.059551623 -0.100643106 0.10089115 -0.10886194
-0.021760667 0.06685743 0.035972074 0.02211128 -0.06596902 -0.08174359 -0.09072848 -0.14440723
-0.0830347 -0.037036255 -0.02829465 0.067615226 0.0352743 0.05172383 -0.0585383 0.0064903293

bn1.running_var f4 [32]
00000000: 6de1 c23c dc92 da3c 8108 b33c 5a91 b73c
00000010: 9489 9b3c baea 603c 88ed ab3c 8a80 993c
00000020: 8779 f23c c276 dd3c 1e55 be3c 2fe0 b53c
00000030: f5fb d33c 9976 823c 2852 963c 9f39 d93c
00000040: 8f03 9f3c b29f fe3c 3f98 aa3c ecbc 943c
00000050: 3724 e63c b07e 0f3d 655f c33c 2199 ed3c
00000060: d472 a93c c95b a53c 1b55 cc3c 6c14 cb3c
00000070: bbb1 cf3c fdbd 203c 49c1 863c e17a a73c
0.023789132 0.026681356 0.02185464 0.022408176 0.0189865 0.013727838 0.020987287 0.01873805
0.029598964 0.027034167 0.023233946 0.022201626 0.025876978 0.015925692 0.018349722 0.026516734
0.019410877 0.031082008 0.02082455 0.018156491 0.02809344 0.035032928 0.023849199 0.029003682
0.020684637 0.020185368 0.024942925 0.024790011 0.025353303 0.009810922 0.016449587 0.020444335

bn2.weight f4 [64]
00000000: 006c 803f dd00 923f faed 983f 3809 7b3f
00000010: 664a 973f e319 9a3f a9ce ac3f 0fd6 773f
00000020: c1b1 a53f d6c6 9b3f bea0 6a3f c4b4 a03f
00000030: 42d8 8f3f edb8 943f 3373 a33f a850 a53f
00000040: ee7d 823f 1c96 b03f 1999 8d3f f7ea 913f
00000050: 7dd9 833f 24fe 923f 4351 943f 866d 8d3f
00000060: a28f a53f 752f 6a3f 064a 723f aee8 703f
00000070: 076d 993f 2141 963f bb0b 923f 4efe 7c3f
00000080: 4317 7b3f b59f b13f a42a 733f ac9f ad3f
00000090: cee6 6a3f 7825 903f 389c 983f 99c9 6c3f
000000a0: 6779 8f3f 3a39 803f bd69 963f 4cee bf3f
000000b0: 84ca af3f c421 713f 7eb7 ab3f 089a 8e3f
000000c0: 3f4f b73f 0492 773f ea55 9b3f ad45 7d3f
000000d0: f919 9c3f 35be 9f3f 73d5 b73f 5d0a 8e3f
000000e0: fd99 993f 29c3 9d3f c5e6 a03f 1767 953f
000000f0: 9def a33f bdc1 843f b363 9e3f 2d35 7c3f
1.0032959 1.1406513 1.1947625 0.9806094 1.181958 1.203915 1.3500568 0.96811
1.2944871 1.2170055 0.91651523 1.2555165 1.1237872 1.1618935 1.2769531 1.2915239
1.0194681 1.379581 1.1062347 1.139983 1.0300747 1.1483808 1.1587299 1.1049049
1.2934458 0.91478664 0.946442 0.9410504 1.1986398 1.1738626 1.140983 0.9882554
0.9808237 1.3876864 0.9498694 1.3564353 0.9175843 1.1261435 1.1922674 0.92495114
1.1208924 1.0017464 1.1751019 1.4994597 1.3733678 0.9419215 1.3415372 1.1140757
1.4321059 0.9670718 1.2135594 0.9893444 1.2195426 1.2479922 1.4362015 1.1096913
1.2000118 1.2325183 1.2570425 1.1672086 1.2807499 1.0371624 1.2374176 0.9851864

bn2.bias f4 [64]
00000000: d20c 73be 8d67 31be 7a0a 31bd 2f05 5fbe
00000010: ad41 30be d6d7 953d 3ede 20be 10fd 98be
00000020: 1282 89bd 54c7 a33d 3a4e 87be d8ce 34bd
00000030: 7e92 f7bd c527 22bd 0f43 c13c 8410 88bc
00000040: cf0b 2ebe d2ee 1fbe 639d 05bd 1226 97bd
00000050: ded3 3ebe 11b5 09be b852 ccbd 2f5c 72bd
00000060: 31fa 8d3d c536 95be 1968 7ebe 1564 97be
00000070: 1bc7 143d c44a e1bd 3a09 00bd 14fa 5ebe
00000080: 3bf5 84be ebb4 56be d4a2 84be d0e0 e23c
00000090: 588a 82be e41d 2dbe 895d 7c3d 136e a2be
000000a0: 16c2 8bbd e51b 92be 9569 9fbd 8fa1 09bb
000000b0: 60fa 27be a3b3 77be c49e 27bd 8e16 ccbc
000000c0: 843b b7bb 8ac6 a4be 07e2 e4bd ad2e 44be
000000d0: a5fd 4abe e9e6 e2bd d144 2bbe 38a9 06be
000000e0: 3f90 05be ecf2 c2bd 8fbd 94bd 664b d2bd
000000f0: 4bf5 22be a9ac cbbd 5b29 36bd f755 56be
-0.2373536 -0.17324658 -0.04322288 -0.21779321 -0.17212553 0.07316558 -0.15709779 -0.2988057
-0.06714262 0.07997003 -0.2642687 -0.044142574 -0.12088488 -0.03958871 0.023591546 -0.016609438
-0.16996692 -0.15618446 -0.0326208 -0.07380308 -0.18635508 -0.13447978 -0.09976715 -0.059169944
0.06932486 -0.29143348 -0.24844398 -0.29568544 0.036322694 -0.110005885 -0.0312588 -0.21775085
-0.25968346 -0.20967452 -0.25905478 0.02769509 -0.25496173 -0.16905934 0.06161264 -0.31724605
-0.06824128 -0.28536907 -0.0778381 -0.0021000837 -0.16404104 -0.2418962 -0.040922895 -0.024913099
-0.0055918116 -0.32182723 -0.11175924 -0.1915843 -0.1982332 -0.11079199 -0.1672547 -0.1315049
-0.13043307 -0.0951899 -0.07262718 -0.10268287 -0.15913884 -0.09945042 -0.044473033 -0.2093123

bn2.running_mean f4 [64]
00000000: 605e c8be 4796 07bf db09 d03e 8c19 cf3e
00000010: a409 813e d3ef 5c3e 327e 35bf be3a 48be
00000020: 626a 0d3e 5d3e 003f 4e6f b43e a8e9 cd3e
00000030: b768 223f 59e5 603e 9e9a b93e fdb8 bb3e
00000040: fe5a dfbc 7daf 42bf f10a e33c 0803 283c
00000050: a8e0 b1be f90f 14bf 32a6 393c d26e 673e
00000060: 38b3 9d3e 48b3 83bd b89a f73b ac36 46bd
00000070: e604 ed3e 653a c33e 4ece 9fbe f10d 88be
00000080: 973b 8dbb 802d 10bf 1680 a7be a76a e83d
00000090: e934 103d b98f f6bd f2db c43e 5a1a 3dbe
000000a0: c34e d5bd f237 41be 59a1 703d 7914 9d3e
000000b0: 8648 22bf 88a7 e7bd d024 4b3e 78ec 2f3e
000000c0: a886 3f3e 474c bbbe cfb7 db3e c0c3 52be
000000d0: 75c1 54bf bca0 0fbf 7e64 61bf 8980 f3bd
000000e0: 84c2 123f 9141 b43e 5cf0 963d 5557 a63e
000000f0: d619 73bf b1d3 193e 5d08 023f f0af 21be
-0.39134502 -0.5296368 0.4063252 0.40449178 0.25202668 0.2157586 -0.70895684 -0.19553658
0.13810113 0.5009516 0.3524117 0.40217328 0.6344103 0.21962489 0.36250776 0.36664572
-0.027265068 -0.76049024 0.027715178 0.010254629 -0.34741712 -0.5783687 0.011331128 0.22600868
0.30800796 -0.064306796 0.0075562857 -0.048391983 0.462928 0.3813049 -0.31212085 -0.26573136
-0.004310082 -0.5631943 -0.3271491 0.11348467 0.03520671 -0.12039132 0.38449055 -0.18467084
-0.10415413 -0.18868998 0.058747623 0.30679682 -0.6339191 -0.11311251 0.19838262 0.1718005
0.18703711 -0.36581632 0.42913672 -0.20582485 -0.8310769 -0.56104636 -0.88043964 -0.118897505
0.5732806 0.35206273 0.07370064 0.32488504 -0.949613 0.1502216 0.5079401 -0.15789771

bn2.running_var f4 [64]
00000000: b058 383e b8f5 b13d df0f 5b3e 5b13 d53d
00000010: 762e 1d3e 598e 0b3e b461 053e 910a c03d
00000020: 607d e63d 70e7 523e 40b6 d33d 80c7 313e
00000030: 50b0 743e 3575 1e3e 470f 3f3e 4945 1b3e
00000040: 1377 423e 01ba 4a3e 5eba 293e fd14 053e
00000050: 409b ef3d f377 083e f26c c43d 3ca8 763e
00000060: 6229 1f3e 0d25 e83d deb9 d73d 1044 1d3e
00000070: f749 2d3e c528 943e 753b b13d fa2c f43d
00000080: c4ee 983d 8a3e db3d 6c59 3b3e 6195 2f3e
00000090: dfe2 d33d 725b 063e 03c5 5c3e 5f89 0f3e
000000a0: 4240 fb3d 6eac dd3d 55d6 073e b9ca 113e
000000b0: f14b 2b3e ebc4 353e 1845 3a3e 4811 0e3e
000000c0: 0f30 013e b22c d03d 806f 543e cf0f 233e
000000d0: 17a9 523e 0d9a b43d 076e 543e 5cc8 cc3d
000000e0: 44a2 513e 92b4 593e 55fe 143e cf9c 033e
000000f0: da35 433e d0ae de3d 17df 493e 06cf af3d
0.18002582 0.08689445 0.21392773 0.104040824 0.15349755 0.1362852 0.13025552 0.093770154
0.11254382 0.20596099 0.10337496 0.1736126 0.23895383 0.15474398 0.18658172 0.15163149
0.18990736 0.19797517 0.16575 0.12996288 0.116995335 0.13327007 0.09591092 0.24087614
0.1554313 0.11335192 0.10533498 0.15357995 0.16922747 0.28937355 0.08653919 0.11922641
0.07467416 0.10705288 0.1829583 0.17146827 0.103460066 0.13120821 0.21559529 0.14017247
0.122681156 0.10823904 0.13265355 0.14237489 0.16728188 0.177509 0.1819042 0.1387378
0.12615989 0.10164775 0.20745659 0.15923999 0.20572315 0.08818445 0.20745097 0.09999153
0.20472056 0.21260288 0.14550145 0.12852786 0.19063511 0.108731866 0.19714008 0.085844085

output_conv.weight f4 [3, 64, 1, 1]
00000000: e0fb a2bd d3b0 193d 2265 f73d e372 14bc
00000010: 423c 063e d5fe 1e3e a473 303e 5a30 45be
00000020: 57e0 073d d327 4d3e f4db 26bd 9ae9 4c3e
00000030: 1fcf 143e 34d3 1d3e 1fb6 123d 577d 003e
00000040: 9c56 a8bd 04d9 2a3e 4f57 473e 0866 173e
00000050: fadd ad3d d856 d63d 8340 873e 2fa5 583d
00000060: fec4 b53d 3d79 10be 8fa6 eebd b789 f5bd
00000070: 4c8b 103e ec4c 933d af83 4f3d 79a5 f6bd
00000080: 5260 02be 0f5c 053e 5533 dabd bc73 6f3e
00000090: 9558 f1bd 103c b83c 3061 5e3e 47c8 e1bd
000000a0: 1771 f43d 27a0 cfbd 0344 ab3d 8209 433e
000000b0: ece4 743d 32e2 eabd df98 f93d 76bd 2f3e
000000c0: 740b 5d3e 4352 12be ce55 c53d e5fd dfbc
000000d0: 7a96 bf3d e382 233e ec50 473e 129e 953d
000000e0: c419 e83d 0943 ee3d e914 d03d ca0f 193e
000000f0: 5e29 3e3e ee2b 2d3e 5e06 473e bb13 6dbd
00000100: 432b bf3d 0e26 863d 873a 193e 4ace 0d3e
00000110: 4e95 3f3e 3060 a6be 8d94 253e f2fb 3cbd
00000120: 34a9 d5be ba9b 86be 9804 b83d 1788 9dbe
00000130: 127a 3d3e ba30 82be 09cb c7be 653a b7be
00000140: 5d2f 763d 5f42 2e3e ead1 32be c981 cfbd
00000150: 047d f53d 242a ef3d fca3 67bd 48e4 b43d
00000160: d181 9abe 79d5 863d 40a4 603d aa7e 893d
00000170: 895e 6fbe e3be aabe be2e 2a3d 63b9 3f3d
00000180: b776 723d 3db4 0f3e 0250 c63d 232e b5be
00000190: 0bb0 963d 7715 91be f52c 81be fee3 043c
000001a0: 4c27 973c 5246 a93d 8da1 d43d 2fef a6be
000001b0: 86ea 7d3d ef4f a63d 3691 9abe e4b0 6bbe
000001c0: a532 e5be cc6c 51bd 4108 173e 36cb 033e
000001d0: 78cf b43d a7b1 313e 0ca9 393e c6ee cf3d
000001e0: f107 463e 35f3 aabe 71b7 bfbe a88c 0b3e
000001f0: f80e 353e a845 2cbe b811 abbe 9f71 2ebe
00000200: 3fc0 e43d 5266 b8be 966d 88be c777 eabd
00000210: 0a1f a0be 4569 193d aea0 dfbe a4e5 b6bc
00000220: b2c1 a03d 0f8a 293e f6c1 fbbc 5903 633e
00000230: 5ab6 69be f6f9 2c3e 4cf5 073a ac17 143e
00000240: e801 803d d80e afbe 1f8a 163b 322b fdbd
00000250: 2fdd 3abe 3508 aebe d986 95bd 9378 78be
00000260: c7f3 a53d 62cc 6e3d de2d 483d c6ce 503d
00000270: d19e 213e 45b3 f53d c073 8abe 14ef 5f3d
00000280: caac 793d d122 e1be 3afc ce3d 3b9a 353e
00000290: 7d81 4e3d 9273 d13d 9be7 9b3d 0ac1 a33d
000002a0: 7da6 47be 4c22 ac3d 6a23 91be 1e3d 3e3e
000002b0: 3330 efbe 9a58 a83d 63ed 1b3e 9eea 3fbd
000002c0: c9e0 1a3e 8c30 323d 245d a3be ecb7 003e
000002d0: 8789 d3be ce13 80be 9d2f b8be 5946 81be
000002e0: f425 a7be 3380 1f3e c221 313e 2671 aabe
000002f0: a46c afbe c77f fcbd 1d49 663e 06df f53c
-0.079581976 0.03752215 0.120798364 -0.009060594 0.13108924 0.15526898 0.17231613 -0.19256726
0.03317293 0.20034723 -0.040737107 0.20010987 0.14532135 0.15412599 0.035818215 0.12547813
-0.082196444 0.16684347 0.194669 0.14785016 0.08489604 0.10465783 0.26416406 0.052891906
0.08875464 -0.14108749 -0.11652862 -0.11989158 0.14115638 0.07192406 0.050662693 -0.1204328
-0.12732056 0.13023399 -0.10654322 0.23383993 -0.11784474 0.022489578 0.21716762 -0.11024528
0.11935633 -0.101379685 0.083625816 0.19046596 0.05978863 -0.114689246 0.12187361 0.17162117
0.215864 -0.14289193 0.096355066 -0.027342746 0.09354873 0.15967898 0.19464463 0.0730554
0.113330394 0.1163388 0.10160238 0.1494743 0.18570468 0.16911289 0.19436023 -0.057880145
0.093344234 0.06550227 0.14963733 0.13848224 0.18709299 -0.3249526 0.16169949 -0.04613871
-0.41730654 -0.26290685 0.08985251 -0.3076789 0.18503597 -0.254278 -0.3902209 -0.3578674
0.060103763 0.17017506 -0.17462888 -0.101321764 0.119867355 0.116779596 -0.056552872 0.08832604
-0.30177167 0.065836854 0.05484414 0.067136124 -0.23375906 -0.3334876 0.041548483 0.046807658
0.059195247 0.14033599 0.09683229 -0.35386762 0.07357796 -0.2833669 -0.25229612 0.008110998
0.018451355 0.08265366 0.10382376 -0.32604358 0.061991237 0.08120715 -0.30188912 -0.23016697
-0.447652 -0.051129147 0.14749242 0.12870488 0.08828634 0.17352925 0.18130893 0.10152964
0.19338967 -0.33388677 -0.37444642 0.13627875 0.17681491 -0.16823447 -0.33411956 -0.1703553
0.111694805 -0.36015564 -0.26646107 -0.11448627 -0.3127368 0.03745391 -0.43677276 -0.022326298
0.078494444 0.16556571 -0.030732136 0.22169246 -0.22823468 0.16892228 0.00051863934 0.14462155
0.062503636 -0.34191012 0.002297051 -0.123617545 -0.18248437 -0.33990636 -0.07301111 -0.24264745
0.081031375 0.058300383 0.048871867 0.050978445 0.1578324 0.119970836 -0.27041435 0.054671362
0.0609558 -0.43971875 0.10106702 0.17734616 0.05041646 0.102271214 0.076125346 0.07995804
-0.19497104 0.08404979 -0.2834733 0.18578002 -0.4671646 0.082200244 0.15227275 -0.046854608
0.15124811 0.04350333 -0.31906998 0.1257016 -0.41315863 -0.2501511 -0.35973826 -0.25248984
-0.32646143 0.15576248 0.17298034 -0.3328945 -0.34262574 -0.12329059 0.22488828 0.030013572

output_conv.bias f4 [3]
00000000: baf1 78be 2c29 fe3d 0069 c63d
-0.24310961 0.12410197 0.09687996
