training/trained_models/model_living_scream.pth (torch, 84822 bytes, 14 tensors)

conv1.weight f4 [32, 2, 3, 3]
-0.25833285 -0.010379125 -0.26240093 0.06822236 -0.24429311 -0.00012627846 0.17290445 0.15668759
0.21942475 0.10023207 0.07809194 0.037606455 -0.092508495 -0.108919464 0.042288605 0.08139816
-0.09105371 0.067020066 0.10032207 0.14118013 0.19244377 0.14444077 0.20015585 -0.23784438
-0.016120141 0.13884681 0.038008068 0.0029803053 -0.09754707 0.047596943 0.07742745 0.009503131
0.0059362394 0.119206 -0.032874037 0.052271508 0.09002659 -0.21886632 0.026093645 -0.3002354
-0.0021516006 0.07522291 -0.011484597 -0.17315426 -0.24666916 0.15114358 -0.1541004 0.05268322
-0.0030517057 -0.2223167 0.116713166 0.12416573 -0.028939553 0.12231576 0.014600944 0.058528535
0.22193493 0.28078455 0.071224004 0.18042213 0.017875524 -0.25244197 0.04056671 0.03611679
0.05948231 -0.03237277 0.023845946 0.011189734 -0.0080167325 0.06300797 0.06872178 -0.010613246
0.08033706 0.097821034 0.20086554 -0.20982078 0.24706943 0.100068085 0.20077583 0.03518099
0.13247134 0.0127440505 0.08118392 0.04552694 0.033541806 -0.014745321 -0.017442323 -0.041560978
0.07958497 -0.09093169 -0.11815996 0.1401891 0.110571414 -0.16314231 -0.061393116 -0.04634661
0.23808296 -0.16423908 -0.13566902 -0.011026947 -0.022526994 0.06007329 0.008534021 -0.16152892
-0.05837772 0.033319816 -0.0079946425 0.021213971 0.0567272 -0.19028208 -0.041725542 0.07617191
-0.1977097 0.16185036 0.13388467 -0.29380375 -0.11147248 0.07681233 0.06403244 0.099668294
0.108269975 0.16694424 0.040743764 -0.10650241 -0.07528716 0.02947062 0.21841905 -0.040677436
-0.15887684 -0.15482046 0.20599543 -0.15431413 0.034469485 0.21403949 -0.11086575 -0.020110134
-0.21134579 -0.18405838 0.018288126 -0.1208427 0.024954747 0.06743144 -0.0025613285 0.022478377
-0.19131444 0.11299091 -0.09527836 0.0006306159 0.2199019 0.06791093 -0.14263736 -0.0877519
-0.06816865 0.14223647 0.01627847 0.022597685 0.03878674 -0.0134983035 0.03855536 0.07240383
-0.0029556805 0.07031934 0.032752875 -0.15444766 -0.3367 -0.08852745 -0.1836482 -0.11520804
0.17901145 -0.07332291 0.21405299 0.09398344 0.0022471545 0.02973091 0.068309665 -0.13461603
-0.16937749 0.080783926 0.031063538 0.15593453 -0.04668697 -0.12939319 -0.098225765 -0.22630322
0.064057454 0.1919411 -0.040718388 0.15141273 0.2917326 0.06210361 0.03673024 -0.045272883
0.010919837 0.042002104 0.07328206 0.020425411 0.033788282 0.009705941 -0.08077627 0.13874425
-0.006088781 0.03128487 -0.26391804 0.11067924 0.09697316 0.16914593 -0.12641627 -0.026570708
-0.10676139 0.025664495 0.15034024 0.017467126 -0.0734705 0.08243153 -0.1471712 -0.0105377985
-0.06541408 0.13871996 -0.06522205 -0.012396273 0.14174742 0.15859358 -0.008246565 0.14849935
0.20582376 0.019871285 -0.06328325 -0.077676184 -0.050790913 0.05482094 -0.108668245 -0.018327145
0.07202109 -0.08782803 0.13459887 0.13173929 0.0505145 0.27111349 -0.023474425 -0.09027539
0.0879511 0.11127918 0.11907117 0.033511516 -0.073368095 -0.18145336 -0.0017821353 0.066949286
0.24433072 -0.18034858 -0.098178975 -0.02629531 0.022253698 -0.20392336 0.15379079 0.18704161
00000000: 3444 84be 350d 2abc 6a59 86be 2ab8 8b3d
00000010: f927 7abe 9e69 04b9 dd0d 313e b672 203e
00000020: e2b0 603e 7946 cd3d abee 9f3d 3a09 1a3d
00000030: 1875 bdbd 2b11 dfbd d136 2d3d 14b4 a63d
00000040: 5e7a babd d141 893d a875 cd3d 8691 103e
00000050: fb0f 453e 48e8 133e a8f5 4c3e 7a8d 73be
00000060: 630e 84bc dc2d 0e3e 59ae 1b3d 3a51 433b
00000070: c2c6 c7bd 03f5 423d 4892 9e3d 05b3 1b3c
00000080: c984 c23b 4622 f43d eda6 06bd a61a 563d
00000090: dc5f b83d 7e1e 60be 57c2 d53c 74b8 99be
000000a0: de01 0dbb 780e 9a3d e429 3cbc 5a4f 31be
000000b0: d796 7cbe 62c5 1a3e 7fcc 1dbe 5cca 573d
000000c0: 20ff 47bb fda6 63be 5007 ef3d 9a4a fe3d
000000d0: a412 edbc af80 fa3d cc38 6f3c 9ebb 6f3d
000000e0: e942 633e fec2 8f3e e4dd 913d 94c0 383e
000000f0: b16f 923c 1340 81be 4729 263d 33ef 133d
00000100: b9a3 733d 4f99 04bd 9358 c33c 2555 373c
00000110: 9d58 03bc 530a 813d 01be 8c3d 2ee3 2dbc
00000120: c287 a43d 6556 c83d b2af 4d3e 42db 56be
00000130: c5ff 7c3e 7ff0 cc3d 2e98 4d3e f119 103d
00000140: 91a6 073e 6ccc 503c c143 a63d 757a 3a3d
00000150: 2263 093d 5c96 71bc 34e3 8ebc d83b 2abd
00000160: 72fd a23d 653a babd d9fd f1bd bb8d 0f3e
00000170: 4473 e23d c70e 27be 5977 7bbd f1d5 3dbd
00000180: 05cc 733e 4a2e 28be d2ec 0abe 5eaa 34bc
00000190: 888a b8bc 690f 763d 47d2 0b3c d667 25be
000001a0: 7a1d 6fbd 5c7a 083d f6fb 02bc ecc8 ad3c
000001b0: c85a 683d 4ed9 42be 67e8 2abd 0500 9c3d
000001c0: 6974 4abe 1abc 253e 1019 093e 726d 96be
000001d0: af4b e4bd c84f 9d3d 7123 833d e41e cc3d
000001e0: a6bc dd3d 6ef3 2a3e efe2 263d ef1d dabd
000001f0: 2830 9abd 5f6c f13c 3ea9 5f3e 629d 26bd
00000200: 9cb0 22be 4189 1ebe 77f0 523e 8604 1ebe
00000210: e02f 0d3d 2b2d 5b3e 950d e3bd 02be a4bc
00000220: 086b 58be cd79 3cbe fbd0 953c 617c f7bd
00000230: e66d cc3c 7f19 8a3d f6db 27bb 9324 b83c
00000240: efe7 43be c767 e73d 4d21 c3bd eb4f 253a
00000250: f72d 613e e314 8b3d 870f 12be 45b7 b3bd
00000260: 019c 8bbd 70a6 113e 6d5a 853c c81e b93c
00000270: d8de 1e3d fd27 5dbc 3aec 1d3d 7648 943d
00000280: 17b4 41bb 9603 903d e127 063d 8727 1ebe
00000290: f163 acbe e14d b5bd 460e 3cbe 31f2 ebbd
000002a0: c74e 373e 522a 96bd b530 5b3e 647a c03d
000002b0: ff44 133b 3d8e f33c f0e5 8b3d c9d8 09be
000002c0: 4b71 2dbe 0b72 a53d f678 fe3c 4dad 1f3e
000002d0: d63a 3fbd a67f 04be 972a c9bd 08bc 67be
000002e0: 8e30 833d 358c 443e 53c8 26bd f00b 1b3e
000002f0: fa5d 953e 5b60 7e3d 7372 163d 0f70 39bd
00000300: 1ee9 323c 660a 2c3d e814 963d 3153 a73c
00000310: 9565 0a3d ab05 1f3c 076e a5bd f912 0e3e
00000320: 6684 c7bb 9024 003d 4420 87be ccab e23d
00000330: dd99 c63d 9734 2d3e 4473 01be d0aa d9bc
00000340: b7a5 dabd 593e d23c cbf2 193e 3817 8f3c
00000350: b477 96bd ddd1 a83d 0cb4 16be bba6 2cbc
00000360: d1f7 85bd 9b0c 0e3e 2393 85bd bd19 4bbc
00000370: 3c26 113e 5b66 223e 9a1c 07bc 3710 183e
00000380: 77c3 523e 1bc9 a23c a69a 81bd b114 9fbd
00000390: 220a 50bd ec8b 603d 758d debd cf22 96bc
000003a0: cb7f 933d 2fdf b3bd 49d4 093e aae6 063e
000003b0: 4be8 4e3d 63cf 8a3e 704d c0bc 4ee2 b8bd
000003c0: b51f b43d 57e6 e33d 96db f33d 5f43 093d
000003d0: 0342 96bd e9ce 39be 8a96 e9ba b51c 893d
000003e0: d531 7a3e 4cad 38be 0f12 c9bd 4369 d7bc
000003f0: 634d b63c 49d1 50be 557b 1d3e d687 3f3e

conv1.bias f4 [32]
4.6525787e-05 7.93468e-05 -0.0005083436 -9.2551934e-05 8.651609e-05 -0.00014339517 4.3909484e-05 0.00047573852
-0.00034595947 -3.1570275e-05 0.0004575541 -4.6229456e-05 0.00013628312 -0.00010206013 -0.0004271592 1.6467116e-05
-0.00017339872 0.00015366849 8.45941e-06 0.00025942983 0.00019429576 0.00025670955 -0.00020845213 -0.00020143126
8.433942e-05 -4.3281572e-05 0.0002201528 -0.00014846731 -0.00022848153 7.4201176e-05 5.8395835e-05 1.5850139e-05
00000000: af24 4338 fd66 a638 5d42 05ba 7118 c2b8
00000010: f96f b538 595c 16b9 732b 3838 8b6c f939
00000020: e561 b5b9 536a 04b8 dfe3 ef39 80e6 41b8
00000030: 39e7 0e39 1d09 d6b8 56f4 dfb9 dd22 8a37
00000040: 5dd2 35b9 1222 2139 e4ec 0d37 1504 8839
00000050: dfbb 4b39 f996 8639 f193 5ab9 4b37 53b9
00000060: 62df b038 3c89 35b8 d1d8 6639 e4ad 1bb9
00000070: 8b94 6fb9 749c 9b38 0dee 7438 eaf5 8437

conv2.weight f4 [64, 32, 3, 3]
0.026888024 0.05767488 0.005234658 0.024550708 -0.06293589 -0.04008181 0.026246918 -0.012321502
0.049481813 0.022159636 0.004803248 0.07144883 -0.027294526 0.018928256 -0.00052352 0.021261495
-0.003725715 -0.020627534 0.03241962 0.0959257 0.049912572 -0.00022410446 -0.058613855 -0.044315714
0.003251564 -0.012993714 0.069116935 -0.039790515 0.047902364 0.017998585 -0.0067263884 -0.033635158
0.017593611 -0.009913953 -0.015118929 0.08148192 -0.034256995 -0.017969714 0.05404627 -0.0048019183
0.017250774 0.10282516 -0.009849777 -0.036978897 0.08665994 0.000457121 0.03395035 -0.045164276
-0.0020419897 -0.027310126 0.049000714 0.04537229 0.004252322 -0.06074636 -0.030042568 -0.06415735
-0.008343805 -0.041974455 0.08945106 0.011802987 -0.055310715 0.034129456 -0.048499715 0.0087865405
0.004320485 0.008869577 -0.055105627 0.045104496 -0.029021002 0.10966647 -0.0806596 0.012232019
0.005159223 -0.019144492 -0.07158238 -0.08346048 0.0023970418 -0.0257228 -0.039337683 0.0032452887
0.0020821171 0.0056200675 0.0011902513 -0.013102505 -0.034106888 -0.031614255 -0.00339179 0.06392475
0.010054595 0.045490824 -0.034704242 -0.010359986 -0.076134585 0.040571257 0.00827638 0.07678081
-0.049115 0.068516046 -0.04982153 -0.034747083 0.049201492 0.004962232 -0.051941466 -0.035481736
-0.019132469 -0.11378551 -0.008375672 -0.0854331 0.007520271 0.0336067 0.01368182 0.06083675
0.0036369236 -0.029003289 0.01442785 0.03860104 -0.015993493 0.02054821 -0.043691218 -0.00686756
0.120179184 0.02377026 -0.024212256 -0.04095089 -0.042128384 -0.00410965 0.04908668 -0.09042934
0.029948093 0.01945911 0.00845046 -0.05765067 -0.016739873 -0.05063293 0.032690544 -0.019520938
0.05877779 -0.038659066 -0.010166461 -0.08727568 0.05864384 0.05204659 0.011614581 -0.009830784
-0.05043218 -0.018847054 -0.031796753 0.0017126988 -0.024215447 -0.017618865 -0.013265536 0.008950704
-0.005428964 -0.021962622 -0.01557877 0.02187179 0.03802774 -0.059810895 -0.12184898 0.050868575
-0.036655255 0.10126113 0.015887959 -0.02774178 0.030230157 -0.046013344 0.0167572 -0.030167477
0.055550925 -0.026697936 0.007878884 0.08392699 -0.06571008 -0.032011982 0.029104678 0.052255426
0.06699773 0.0022392808 0.08085689 0.013145128 0.051159304 0.08277026 0.040699672 -0.035896108
0.0029487414 -0.029615026 -0.016721686 0.08946509 -0.03089368 0.005241828 0.04241618 0.05843637
-0.012194199 0.0034907616 0.016117854 -0.025745755 -0.020761635 -0.015903102 0.019805308 0.075498335
0.017412614 -0.07469413 0.0026145875 -0.03411996 -0.0036647054 0.039870147 -0.030199708 -0.034848515
-0.013085468 0.069671534 -0.012310827 -0.043950744 -0.01283593 0.01213203 0.024302352 -0.015483705
-0.024500048 -0.061978243 -0.042378064 0.045454472 0.010027663 -0.030656524 0.10957632 -0.029731775
-0.011925206 0.030432036 0.024596984 -0.016763411 -0.00568853 0.030842256 -0.0012214632 -0.0015242425
-0.11460056 -0.017278142 -0.08816853 0.05777436 -0.008188535 0.042689405 0.015155314 -0.05545963
0.04655189 0.01190287 -0.02630661 -0.006343078 0.013161532 -0.026919337 -0.030465022 -0.07875186
0.025633259 -0.0014838072 0.10406121 -0.039149955 0.09839945 0.02532704 -0.021071702 -0.028279869
00000000: 4644 dc3c 7f3c 6c3d 7e87 ab3b 911e c93c
00000010: 88e4 80bd d32c 24bd c703 d73c 20e0 49bc
00000020: 71ad 4a3d 2088 b53c 9164 9d3b c453 923d
00000030: c598 dfbc 6e0f 9b3c d53c 09ba 962c ae3c
00000040: 202b 74bb 13fb a8bc 6fca 043d b274 c43d
00000050: 2071 4c3d 95fd 6ab9 1515 70bd 6584 35bd
00000060: 3118 553b 96e3 54bc 2e8d 8d3d 61fb 22bd
00000070: 4535 443d c571 933c 0969 dcbb 05c5 09bd
00000080: 7a20 903c 226e 22bc 62b5 77bc fedf a63d
00000090: 1051 0cbd 3935 93bc 9f5f 5d3d 6959 9dbb
000000a0: 7f51 8d3c ff95 d23d f660 21bc 2f77 17bd
000000b0: c47a b13d bea9 ef39 860f 0b3d 2dfe 38bd
000000c0: e7d2 05bb 7cb9 dfbc f9b4 483d 4bd8 393d
000000d0: 1057 8b3b 2dd1 78bd d51b f6bc ee64 83bd
000000e0: 74b4 08bc 68ed 2bbd 1e32 b73d 5161 413c
000000f0: 7d8d 62bd 54cb 0b3d a3a7 46bd 6cf5 0f3c
00000100: db92 8d3b b451 113c 70b6 61bd 7ebf 383d
00000110: 74bd edbc d098 e03d dc30 a5bd ce68 483c
00000120: b30e a93b e9d4 9cbc c899 92bd 54ed aabd
00000130: b017 1d3b 9fb8 d2bc 8d20 21bd e9ae 543b
00000140: 2174 083b 8b28 b83b 3502 9c3a e4ab 56bc
00000150: aab3 0bbd f37d 01bd cb48 5ebb fbea 823d
00000160: 07bc 243c 9654 3a3d 0926 0ebd eebc 29bc
00000170: 73ec 9bbd 0c2e 263d a799 073c 423f 9d3d
00000180: cf2c 49bd 2452 8c3d a911 4cbd f552 0ebd
00000190: 8187 493d 389a a23b 93c0 54bd 4c55 11bd
000001a0: b2bb 9cbc 6108 e9bd 1d3a 09bc 8df7 aebd
000001b0: 9b6c f63b 2ea7 093d b629 603c f52f 793d
000001c0: 7459 6e3b 4e98 edbc ca62 6c3c 201c 1e3d
000001d0: c904 83bc b854 a83c 90f5 32bd 4509 e1bb
000001e0: 8120 f63d d9b9 c23c c858 c6bc 1fbc 27bd
000001f0: d08e 2cbd 3eaa 86bb 1d0f 493d 0533 b9bd
00000200: b455 f53c b668 9f3c cc73 0a3c 1c23 6cbd
00000210: 0f22 89bc 7a64 4fbd 85e6 053d 60ea 9fbc
00000220: fbc0 703d f858 1ebd 3a91 26bc 97bd b2bd
00000230: 8634 703d ce2e 553d 154b 3e3c 4c11 21bc
00000240: f991 4ebd 2365 9abc 503d 02bd a37c e03a
00000250: 795f c6bc 7055 90bc b157 59bc f9a5 123c
00000260: 73e5 b1bb f5ea b3bc 193e 7fbc 782c b33c
00000270: fac2 1b3d 45fc 74bd f58b f9bd 915b 503d
00000280: d223 16bd ff61 cf3d 7727 823c bb42 e3bc
00000290: 3ca5 f73c 7d78 3cbd 6546 893c c921 f7bc
000002a0: 5e89 633d a1b5 dabc 6f16 013c eae1 ab3d
000002b0: 0293 86bd ff1e 03bd ef6c ee3c c909 563d
000002c0: 1b36 893d e6c0 123b 4c98 a53d aa5e 573c
000002d0: 6b8c 513d 7483 a93d b3b4 263d cc07 13bd
000002e0: ac3f 413b 369b f2bc ebfb 88bc 7939 b73d
000002f0: be14 fdbc a4c3 ab3b 97bc 2d3d fa5a 6f3d
00000300: 2dca 47bc 43c5 643b 9709 843c c3e8 d2bc
00000310: 4e14 aabc 3947 82bc be3e a23c df9e 9a3d
00000320: e6a4 8e3c 3cf9 98bd 8059 2b3b 5fc1 0bbd
00000330: 8e2b 70bb e14e 233d 6165 f7bc 51bd 0ebd
00000340: 6e64 56bc f3af 8e3d 5ab3 49bc b205 34bd
00000350: cb4d 52bc 6cc5 463c ba15 c73c 5eaf 7dbc
00000360: 53b4 c8bc e6dc 7dbd 9f94 2dbd 782e 3a3d
00000370: 114b 243c 6423 fbbc 8d69 e03d 0d90 f3bc
00000380: f061 43bc 9b4c f93c 9d7f c93c 6c53 89bc
00000390: d966 babb e6a8 fc3c 8119 a0ba 17c9 c7ba
000003a0: b3b3 eabd e48a 8dbc b491 b4bd cfa4 6c3d
000003b0: 3529 06bc 16db 2e3d fe4d 783c a329 63bd
000003c0: 32ad 3e3d 4104 433c f680 d7bc 98d9 cfbb
000003d0: 77a3 573c f185 dcbc c891 f9bc a848 a1bd
000003e0: d7fc d13c 4f7c c2ba 0b1e d53d b45b 20bd
000003f0: a785 c93d a77a cf3c 909e acbc 2fab e7bc

conv2.bias f4 [64]
-6.0109564e-06 9.546308e-06 -2.4979088e-05 -3.63007e-05 -3.1567837e-05 5.5807897e-05 3.2484608e-05 -3.4010714e-05
5.820275e-05 2.18654e-05 1.3589398e-05 -1.4681887e-05 -1.9817515e-05 5.4909706e-05 1.3047283e-05 2.3337565e-05
3.4771187e-05 -7.802695e-05 4.5340053e-06 -0.00010433038 7.8344165e-05 4.066172e-06 1.2828852e-05 2.8943407e-05
-8.539794e-05 -4.5685993e-05 -4.9639348e-05 2.6293994e-05 -3.6633544e-06 -3.6813224e-05 2.1779473e-05 6.2830106e-05
4.3864562e-05 -3.4585508e-05 0.00018545205 6.634837e-05 -1.7311702e-05 -1.9490231e-05 6.671107e-05 -5.671139e-05
-4.1071227e-05 1.3640863e-05 0.00011671863 -4.6650064e-05 3.1910033e-05 2.9450397e-05 -3.194876e-05 -9.211417e-06
-3.9898652e-05 -6.663634e-05 4.6076875e-05 -1.923061e-05 -6.3515918e-06 -9.0908376e-05 8.047876e-05 -5.3474716e-05
5.418778e-05 -6.602716e-06 -1.7816446e-05 -3.2586704e-05 3.206742e-05 -5.9500735e-06 2.0623702e-06 3.9705617e-05
00000000: b9b1 c9b6 1529 2037 2f8a d1b7 9441 18b8
00000010: b567 04b8 4613 6a38 1540 0838 baa6 0eb8
00000020: ba1e 7438 976b b737 05fe 6337 3952 76b7
00000030: ca3d a6b7 d94e 6638 a7e5 5a37 0ac5 c337
00000040: 47d7 1138 66a2 a3b8 cf22 9836 f2cb dab8
00000050: b44c a438 2770 8836 803b 5737 7ecb f237
00000060: ac17 b3b8 f69e 3fb8 d833 50b8 ec91 dc37
00000070: f3d7 75b6 e667 1ab8 10b3 b637 a8c3 8338
00000080: 37fb 3738 e80f 11b8 e875 4239 8324 8b38
00000090: 9938 91b7 f47e a3b7 3ce7 8b38 64dd 6db8
000000a0: e543 2cb8 0fdb 6437 d6c6 f438 20aa 43b8
000000b0: 23d7 0538 3f0c f737 b800 06b8 bc8a 1ab7
000000c0: da58 27b8 1dbf 8bb8 ab42 4138 6c51 a1b7
000000d0: c21f d5b6 10a6 beb8 b5c6 a838 0a4a 60b8
000000e0: b047 6338 e68c ddb6 8774 95b7 b5ad 08b8
000000f0: 2180 0638 bea6 c7b6 4067 0a36 9589 2638

bn1.weight f4 [32]
1.0264238 1.0257075 1.0076426 1.0140933 1.0085275 0.9377097 0.97097665 0.9683909
1.0364462 0.9989258 1.058265 0.99078864 0.9130139 0.91316414 0.99666494 1.0703324
0.9681564 0.9873767 1.0372678 0.9828129 0.9731449 1.0380726 1.0420321 0.98104537
0.9398092 0.9269822 1.0080191 0.9520813 1.0369252 0.9452288 1.0113517 0.9510826
00000000: db61 833f 624a 833f 6ffa 803f cfcd 813f
00000010: 6e17 813f be0d 703f ed91 783f 77e8 773f
00000020: 45aa 843f 9ab9 7f3f 3a75 873f 53a4 7d3f
00000030: 47bb 693f 20c5 693f 6f25 7f3f a700 893f
00000040: 19d9 773f b8c4 7c3f 31c5 843f a099 7b3f
00000050: 0620 793f 90df 843f 4f61 853f ca25 7b3f
00000060: 5697 703f b54e 6d3f c506 813f 9abb 733f
00000070: f7b9 843f 84fa 713f f973 813f 267a 733f

bn1.bias f4 [32]
0.019087162 -0.19642253 0.10698795 -0.1836127 -0.07884191 -0.066375576 -0.037806462 -0.08298599
0.0016826547 0.07026809 -0.04933616 -0.04529407 -0.109874316 -0.1633264 -0.03932185 0.024598537
0.06468064 -0.031994674 -0.03829381 0.06158394 -0.14185138 -0.05155701 0.14562549 0.039540734
-0.04079233 -0.064538576 -0.00025132627 -0.10004063 -0.10154387 -0.011288041 -0.023575524 -0.11967777
00000000: ae5c 9c3c fd22 49be 801c db3d f804 3cbe
00000010: de77 a1bd ebef 87bd f3da 1abd 8ff4 a9bd
00000020: 868c dc3a b7e8 8f3d b714 4abd 4686 39bd
00000030: c905 e1bd 093f 27be f30f 21bd df82 c93c
00000040: 4977 843d d90c 03bd f8d9 1cbd 713f 7c3d
00000050: 7d41 11be 712d 53bd d91e 153e 77f5 213d
00000060: dc15 27bd cd2c 84bd 71c4 83b9 1ae2 ccbd
00000070: 3cf6 cfbd 7af1 38bc 7521 c1bc 9e19 f5bd

bn1.running_mean f4 [32]
-0.026201712 0.0841101 -0.08901328 0.07574977 0.098074816 -0.033861443 -0.053863045 0.01310809
0.008059059 -0.07577174 0.020503845 -0.0018139426 0.08153158 0.081688456 0.05354326 0.031364195
0.018043006 -0.022522867 0.023212254 -0.032757632 0.050224103 0.00044552892 -0.15572263 -0.05406484
0.01655742 -0.0008927738 -0.05768454 0.015195477 0.02683438 -0.010688414 -0.0637649 -0.033891775
00000000: f9a4 d6bc eb41 ac3d 984c b6bd b222 9b3d
00000010: 73db c83d 4cb2 0abd 7f9f 5cbd 50c3 563c
00000020: 250a 043c 372e 9bbd aef7 a73c d0c1 edba
00000030: 07fa a63d 474c a73d 2d50 5b3d be77 003d
00000040: edce 933c e081 b8bc a027 be3c de2c 06bd
00000050: cab7 4d3d e195 e939 c175 1fbe 1873 5dbd
00000060: 6da3 873c 0909 6aba a046 6cbd 73f6 783c
00000070: c6d3 db3c 751e 2fbc 2c97 82bd 1ad2 0abd

bn1.running_var f4 [32]
0.030953776 0.022947049 0.02484902 0.02532924 0.02508841 0.015829578 0.025378134 0.024102714
0.015206895 0.026893375 0.024620173 0.01888309 0.014839357 0.01739667 0.033625152 0.028336743
0.02331895 0.017823545 0.03753426 0.008335427 0.010253072 0.021902328 0.031003824 0.015623861
0.01789224 0.026155287 0.022694089 0.017440638 0.02688112 0.015431687 0.02319292 0.016905727
00000000: c692 fd3c 73fb bb3c 2c90 cb3c 447f cf3c
00000010: 3686 cd3c 08ad 813c cee5 cf3c 0e73 c53c
00000020: 5726 793c 7f4f dc3c 3fb0 c93c b6b0 9a3c
00000030: c620 733c 7683 8e3c 87ba 093d 7522 e83c
00000040: 6207 bf3c af02 923c 86bd 193d 5191 083c
00000050: 80fc 273c 836c b33c bbfb fd3c 39fb 7f3c
00000060: bf92 923c 9d43 d63c f4e8 b93c abdf 8e3c
00000070: cb35 dc3c 30d5 7c3c 14ff bd3c e17d 8a3c

bn2.weight f4 [64]
1.3685503 1.1500119 1.2211727 1.2757158 1.2966743 1.0950848 1.1711259 1.3611829
1.360925 1.257612 1.3776295 1.3461212 1.0513524 1.3659868 1.1682547 1.2339394
1.24427 1.4081129 1.0214828 1.2410629 1.0924664 1.2202799 1.2174505 1.2777233
1.2812631 1.3348395 1.2737913 1.0881988 1.224467 1.1701276 1.2447994 1.2612928
1.246407 1.3139831 1.1692687 1.240676 1.0979694 1.3050585 1.1167006 1.1723084
1.0701963 1.1678166 1.2628084 1.3803483 1.221663 1.4084779 1.2372203 1.1022483
1.2252712 1.3376555 1.2572608 1.2233388 1.1541445 1.2192883 1.3344067 1.0871439
1.2438678 1.3111507 1.1845055 1.1465032 1.3127236 1.2542018 1.2887812 1.2482147
00000000: a82c af3f 9733 933f 634f 9c3f a84a a33f
00000010: 6cf9 a53f bd2b 8c3f 74e7 953f 3e3b ae3f
00000020: ca32 ae3f 6ef9 a03f 2a56 b03f b34d ac3f
00000030: b792 863f a8d8 ae3f 5f89 953f baf1 9d3f
00000040: 3d44 9f3f 0b3d b43f f3bf 823f 26db 9e3f
00000050: f0d5 8b3f 2232 9c3f 6bd5 9b3f 708c a33f
00000060: 6e00 a43f 05dc aa3f 980b a33f 194a 8b3f
00000070: 56bb 9c3f bec6 953f 9655 9f3f 0b72 a13f
00000080: 448a 9f3f 9930 a83f 99aa 953f 79ce 9e3f
00000090: 438a 8c3f 280c a73f 0cf0 8e3f 340e 963f
000000a0: 31fc 883f 047b 953f b5a3 a13f 41af b03f
000000b0: 745f 9c3f 0149 b43f 3c5d 9e3f 7916 8d3f
000000c0: b0d5 9c3f 4c38 ab3f eced a03f 5e96 9c3f
000000d0: 02bb 933f a411 9c3f d7cd aa3f 8827 8b3f
000000e0: 0f37 9f3f c9d3 a73f e09d 973f 9ec0 923f
000000f0: 5407 a83f af89 a03f c8f6 a43f 80c5 9f3f

bn2.bias f4 [64]
-0.28297484 -0.1298968 -0.14710726 -0.09932963 -0.2147598 -0.38662115 -0.39922148 -0.32500637
-0.26774323 -0.21269545 -0.05042313 -0.35064578 -0.33987656 -0.09630243 -0.41219592 -0.053194873
-0.07139574 -0.2134949 -0.42683655 -0.11919312 -0.39042222 -0.089759186 -0.21312043 -0.045215063
-0.2861508 0.019154504 -0.33608806 -0.32073936 -0.15203187 -0.25620982 -0.18808441 -0.099175
-0.122747734 -0.20193185 -0.26383892 -0.38308838 -0.42901403 -0.07997602 -0.36904266 -0.25795695
-0.20091097 -0.16459914 -0.13198261 -0.056068845 -0.12182106 -0.032041878 -0.04292629 -0.35410985
-0.11480255 -0.2164584 -0.060451176 -0.08130516 -0.24121034 -0.14573444 -0.05804388 -0.42819086
-0.08459779 -0.034634184 -0.20045435 -0.23496626 -0.016397763 -0.025049837 -0.15534395 -0.032799352
00000000: 14e2 90be ab03 05be 49a3 16be 556d cbbd
00000010: fee9 5bbe 35f3 c5be c266 ccbe 3c67 a6be
00000020: a415 89be d6cc 59be 7c88 4ebd d887 b3be
00000030: 4d04 aebe 353a c5bd 580b d3be dee2 59bd
00000040: ee37 92bd 689e 5abe 528a dabe 861b f4bd
00000050: 6ce5 c7be aad3 b7bd 3e3c 5abe 6e33 39bd
00000060: 5c82 92be e8e9 9c3c bc13 acbe f337 a4be
00000070: 3eae 1bbe ef2d 83be 3399 40be 431c cbbd
00000080: 2a63 fbbd 39c7 4ebe e515 87be 2924 c4be
00000090: baa7 dbbe 78ca a3bd 29f3 bcbe ef12 84be
000000a0: 9bbb 4dbe ad8c 28be 7326 07be 72a8 65bd
000000b0: 527d f9bd 583e 03bd 7ad3 2fbd e34d b5be
000000c0: 991d ebbd 45a7 5dbe a79b 77bd 5283 a6bd
000000d0: d8ff 76be 693b 15be 6bbf 6dbd d53b dbbe
000000e0: 9b41 adbd 93dc 0dbd e843 4dbe ff9a 70be
000000f0: 9a54 86bc 5135 cdbc 7c12 1fbe 9d58 06bd

bn2.running_mean f4 [64]
-0.026563384 -0.0054983855 -0.17051569 -0.057191547 -0.3445799 0.1738977 -0.041386787 -0.0838717
-0.15206607 -0.1845088 -0.20697837 -0.06649729 -0.06412645 -0.13705055 0.111411534 -0.2394853
-0.08642841 -0.1550091 -0.10538556 -0.15749885 0.011372024 -0.16510324 -0.05657468 0.0651484
-0.06457186 -0.024945134 -0.048911233 -0.13685706 -0.15828504 0.013856934 0.046980634 -0.06252641
0.086515605 -0.044496313 -0.027921751 0.082989804 -0.0037717777 0.15568227 -0.025529964 -0.0056899134
-0.11706964 0.10730741 -0.11644711 -0.19295907 0.19207309 0.21408273 -0.0012228157 0.09281748
0.03603421 0.08290363 0.09150247 -0.11760254 -0.075749926 -0.1112428 -0.11346842 0.022680275
-0.11566615 -0.036619604 -0.22647771 0.20047133 0.046536617 -0.074549116 -0.006230477 -0.08493299
00000000: 749b d9bc cd2b b4bb aa9b 2ebe af41 6abd
00000010: c76c b0be 3d12 323e 3185 29bd edc4 abbd
00000020: 35b7 1bbe e0ef 3cbe 23f2 53be bb2f 88bd
00000030: ba54 83bd fb56 0cbe bb2b e43d a23b 75be
00000040: 6101 b1bd b5ba 1ebe 62d4 d7bd 6147 21be
00000050: ba51 3a3c d310 29be daba 67bd 866c 853d
00000060: 403e 84bd bd59 ccbc 2557 48bd 4224 0cbe
00000070: 7915 22be 3208 633c c46e 403d d90d 80bd
00000080: 182f b13d c441 36bd 28bc e4bc 8ff6 a93d
00000090: ee2f 77bb 2c6b 1f3e 3724 d1bc 7472 babb
000000a0: 35c2 efbd fdc3 db3d d37b eebd 1097 45be
000000b0: cfae 443e 8138 5b3e e346 a0ba 1717 be3d
000000c0: 9c98 133d 61c9 a93d a665 bb3d 9ad9 f0bd
000000d0: c722 9bbd 44d3 e3bd 2262 e8bd fccb b93c
000000e0: 60e2 ecbd 70fe 15bd c6e9 67be 5b48 4d3e
000000f0: 2e9d 3e3d 35ad 98bd 0729 ccbb 59f1 adbd

bn2.running_var f4 [64]
0.047110066 0.18416907 0.057993278 0.04850609 0.061969884 0.07054521 0.04768326 0.054139484
0.05335906 0.06252527 0.057571422 0.043518048 0.044976346 0.11458031 0.057999153 0.0765315
0.13818161 0.04314577 0.04668269 0.045940615 0.04760968 0.064698145 0.056640286 0.0748382
0.03602272 0.06743537 0.05709856 0.13546868 0.064143814 0.11772069 0.14228897 0.079743765
0.035552848 0.061236016 0.034101743 0.070437096 0.06627867 0.064999536 0.052033596 0.09399
0.1781391 0.055733763 0.063494265 0.07288809 0.069710374 0.12879315 0.09241394 0.0615576
0.06479609 0.07718852 0.08975472 0.09745297 0.061160523 0.046858713 0.0741038 0.056217175
0.05465853 0.04881648 0.060744263 0.15750359 0.06371632 0.087818116 0.05185581 0.09670579
00000000: 7cf6 403d d196 3c3e 5c8a 6d3d 52ae 463d
00000010: 22d4 7d3d 027a 903d 864f 433d 5dc1 5d3d
00000020: 088f 5a3d 400d 803d 03d0 6b3d fb3f 323d
00000030: 1e39 383d 15a9 ea3d 8590 6d3d 8cbc 9c3d
00000040: 7b7f 0d3e 9eb9 303d 5936 3f3d 3a2c 3c3d
00000050: 5e02 433d 7680 843d a5ff 673d c544 993d
00000060: 8f8c 133d 8e1b 8a3d 2ee0 693d 4db8 0a3e
00000070: d55d 833d 8c17 f13d 33b4 113e b350 a33d
00000080: dd9f 113d 9ed2 7a3d 45ae 0b3d 5341 903d
00000090: 1dbd 873d 7a1e 853d 2e21 553d d47d c03d
000000a0: 196a 363e 1649 643d 4809 823d 5a46 953d
000000b0: 50c4 8e3d 5ae2 033e 8543 bd3d d223 7c3d
000000c0: d0b3 843d 0415 9e3d 53d1 b73d 6c95 c73d
000000d0: 7583 7a3d ecee 3f3d bcc3 973d fb43 663d
000000e0: 9fe1 5f3d caf3 473d face 783d 9f48 213e
000000f0: b47d 823d fcd9 b33d c266 543d af0d c63d

output_conv.weight f4 [5, 64, 1, 1]
0.19010247 -0.2548048 0.061836686 0.16604556 0.23447609 -0.30652702 -0.09615835 0.08822358
0.22508578 0.13197608 -0.004762623 0.13220692 -0.29351455 0.10546743 -0.026271764 0.13211726
0.14168198 0.18328951 0.019964734 0.1793581 -0.116436765 0.16650206 0.1086752 0.12917288
0.22857012 0.14180677 0.10979241 -0.31419057 0.12350406 -0.09209336 -0.1466547 0.19512361
0.05443588 0.16763428 0.11358688 0.08050579 -0.03377702 -0.04918501 -0.12378522 -0.0634769
-0.25313458 0.008995534 0.08521041 0.16344368 0.04078641 0.03886597 0.18781047 -0.41402727
0.17047183 0.16533922 0.11742205 0.14601377 0.059114706 0.102580756 0.05684901 -0.2428298
0.13478735 0.041110568 -0.07240967 -0.41442925 0.067966126 0.12964657 0.13176794 0.13214898
-0.3478216 -0.1245697 0.14626104 -0.081211716 0.22556525 0.10497043 0.09241541 0.16528039
0.21235901 -0.13496016 0.027643671 0.11686296 -0.0092891585 -0.42124003 0.15768485 -0.046669047
0.18566719 0.16843647 -0.17850192 0.23687051 0.14155751 0.21570767 -0.48127988 0.19597906
-0.3425805 0.20127456 -0.42061788 -0.28741473 0.09178257 -0.34104988 -0.3283348 -0.33545974
0.13110434 -0.36797 -0.17923342 0.2173527 -0.398656 0.048111852 0.10704481 -0.30040726
-0.12998432 0.06416658 0.032360733 -0.5214444 0.12191494 0.027552944 0.17231342 0.058128178
0.082211 -0.29967162 0.12606008 -0.2987575 0.18533967 0.12844981 -0.45090756 0.09722602
0.11241086 0.06949259 -0.3423046 -0.08359058 0.11636769 -0.026095316 0.13838947 0.18602234
0.24224575 0.12189827 -0.079772465 -0.24736446 -0.12628348 0.13450493 0.1904735 0.14716974
0.060662717 -0.06330176 -0.45948625 0.18853067 0.019269537 0.03981522 0.17146166 0.07856726
-0.2450955 0.03140205 0.10613126 -0.10288933 -0.25259694 -0.3503321 0.057138447 0.10114049
0.28493392 -0.0056356527 0.08433702 0.11149113 -0.30773693 0.10117694 0.019905753 0.13250975
-0.4116388 0.11881461 -0.26021358 0.15038368 0.14444953 -0.36368656 0.1982122 0.15040176
0.124273315 -0.33883122 0.20860857 0.009844655 -0.3712716 -0.05616967 0.22402762 0.07352271
-0.40036616 0.103703275 -0.032688025 -0.23377226 -0.0035170256 -0.3302002 0.097862594 0.14988294
-0.31688455 0.059016433 0.06678726 0.08298148 -0.3203267 0.22621031 -0.26307636 -0.024676533
-0.31127247 0.09476563 -0.43045914 0.11806288 0.24334157 0.08657414 -0.3940567 0.13584499
0.25872806 -0.42487094 0.05246346 0.17496794 0.112742126 -0.37641895 -0.40305397 -0.38471508
-0.12021859 -0.3440017 -0.19910322 0.13928105 0.023142211 0.063086785 0.14063463 -0.25897238
-0.24435124 -0.3043389 -0.23322599 0.054579094 0.16077691 0.08374263 0.022415796 0.23747657
0.06885916 -0.25310814 0.11468088 0.09071103 0.09088058 -0.0055999625 -0.23986998 0.13337827
0.08892788 0.09901626 -0.35051167 0.11973811 0.07129377 0.16866815 -0.27917466 0.10039789
0.17791666 -0.44378492 0.18010053 -0.10012059 -0.4030993 0.1136394 0.14265028 0.092690006
0.15163602 -0.4474171 0.09553445 0.04600596 0.09384248 0.059564076 0.1773738 -0.39831653
00000000: 39aa 423e c675 82be 7748 7d3d d907 2a3e
00000010: 801a 703e 1cf1 9cbe abee c4bd 90ae b43d
00000020: e37c 663e bd24 073e c70f 9cbb 4061 073e
00000030: 8a47 96be 4fff d73d e237 d7bc bf49 073e
00000040: 1515 113e 3fb0 3b3e 158d a33c a6a9 373e
00000050: 6676 eebd 847f 2a3e 1a91 de3d e545 043e
00000060: 490e 6a3e cb35 113e d8da e03d 96dd a0be
00000070: b2ef fc3d 729b bcbd a62c 16be 7cce 473e
00000080: 28f8 5e3d 52a8 2b3e 3da0 e83d 38e0 a43d
00000090: c659 0abd 3976 49bd 1b83 fdbd 2d00 82bd
000000a0: db9a 81be 0162 133c cc82 ae3d c85d 273e
000000b0: a70f 273d ec31 1f3d 6351 403e 62fb d3be
000000c0: 2b90 2e3e af4e 293e f97a f03d a284 153e
000000d0: 4322 723d dc15 d23d 82da 683d 60a8 78be
000000e0: b205 0a3e 8e63 283d 854b 94bd 1230 d4be
000000f0: d331 8b3d 12c2 043e 2dee 063e 1052 073e
00000100: ac15 b2be 661e ffbd 74c5 153e 5452 a6bd
00000110: 94fa 663e bdfa d63d 4a44 bd3d 433f 293e
00000120: a474 593e ff32 0abe fb74 e23c d955 ef3d
00000130: 8e31 18bc c6ac d7be 2378 213e 0b28 3fbd
00000140: 8a1f 3e3e 9c7a 2c3e 35c9 36be 2f8e 723e
00000150: 74f4 103e 79e2 5c3e 516a f6be bcae 483e
00000160: b666 afbe eb1a 4e3e 3a5b d7be 0628 93be
00000170: 80f8 bb3d 179e aebe 801b a8be 61c1 abbe
00000180: 3740 063e 9066 bcbe f788 37be b591 5e3e
00000190: a41c ccbe ef10 453d 4f3a db3d fbce 99be
000001a0: 9c1a 05be c569 833d b08c 043d 617d 05bf
000001b0: 8aae f93d b6b6 e13c ee72 303e d017 6e3d
000001c0: 3e5e a83d 8f6e 99be e515 013e bef6 98be
000001d0: afc9 3d3e 5988 033e 5bdd e6be 701e c73d
000001e0: aa37 e63d 2252 8e3d 8c42 afbe 8a31 abbd
000001f0: 2f52 ee3d d8c5 d5bc f8b5 0d3e a47c 3e3e
00000200: 450f 783e cda5 f93d bf5f a3bd 1c4d 7dbe
00000210: 7550 01be a9bb 093e 7c0b 433e aab3 163e
00000220: 7879 783d 5aa4 81bd c841 ebbe 2f0e 413e
00000230: 26db 9d3c 4915 233d a593 2f3e dfe7 a03d
00000240: 51fa 7abe 709f 003d 595b d93d a4b7 d2bd
00000250: 6354 81be bb5e b3be 010a 6a3d bf22 cf3d
00000260: dce2 913e 48ab b8bb e3b8 ac3d 7655 e43d
00000270: b28f 9dbe db35 cf3d 6411 a33c a3b0 073e
00000280: 52c2 d2be 1355 f33d b73a 85be 2efe 193e
00000290: 94ea 133e 2035 babe 24f8 4a3e eb02 1a3e
000002a0: 0283 fe3d 497b adbe 7c9d 553e 7a4b 213c
000002b0: 5017 bebe 2b12 66bd 7f67 653e 1393 963d
000002c0: cbfc ccbe 6262 d43d e1e3 05bd ff61 6fbe
000002d0: e67d 66bb 0010 a9be 2f6c c83d ea7a 193e
000002e0: b13e a2be 37bb 713d c2c7 883d 32f2 a93d
000002f0: dc01 a4be ada3 673e f2b1 86be 7126 cabc
00000300: 1b5f 9fbe 7c14 c23d 2465 dcbe f4ca f13d
00000310: 882e 793e c84d b13d cdc1 c9be f31a 0b3e
00000320: 0178 843e af88 d9be ede3 563d cc2a 333e
00000330: 58e5 e63d fcb9 c0be 175d cebe 60f9 c4be
00000340: 2a35 f6bd fe20 b0be b7e1 4bbe b19f 0e3e
00000350: bc94 bd3c a533 813d 8602 103e 0798 84be
00000360: 3637 7abe 4fd2 9bbe cbd2 6ebe 548e 5f3d
00000370: b4a2 243e 4281 ab3d 55a1 b73c 0f2d 733e
00000380: 0806 8d3d 6497 81be cfdd ea3d b4c6 b93d
00000390: 991f ba3d e47f b7bb 7aa0 75be 5094 083e
000003a0: d21f b63d 09c9 ca3d 4476 b3be 4139 f53d
000003b0: 7802 923d 58b7 2c3e fbef 8ebe 699d cd3d
000003c0: c92f 363e c737 e3be 466c 383e 060c cdbd
000003d0: 0863 cebe c6bb e83d ea12 123e 42d4 bd3d
000003e0: 7946 1b3e db13 e5be 91a7 c33d bf70 3c3d
000003f0: 7c30 c03d 76f9 733d 7aa1 353e 25f0 cbbe

output_conv.bias f4 [5]
0.02654539 0.2314965 -0.021486208 -0.055464912 0.0028236262
00000000: b875 d93c 6b0d 6d3e d803 b0bc 2d2f 63bd
00000010: 960c 393b
