training/trained_models/model_standard_launch.pth (torch, 85374 bytes, 14 tensors)

conv1.weight f4 [32, 2, 3, 3]
000000 51 66 f3 3d 4b 6c 0e 3e 90 71 10 bd ba 16 53 3e
       0.1188475 0.13908498 -0.03526455 0.20614138
000010 e8 33 56 3e 4e 4e 2b 3e 40 85 a4 bd 1b f0 c6 3d
       0.20918238 0.1672909 -0.08033228 0.09713765
000020 a6 82 80 bd fe 14 e9 bc 01 bb d8 3c 66 11 1d 3d
       -0.06274919 -0.028452393 0.026456358 0.03834667
000030 dd 25 08 be a6 30 43 be 71 61 c2 3d e5 fb 13 3d
       -0.13295694 -0.19061527 0.09491242 0.036128897
000040 29 14 3d bd 9a b5 08 bd fd ec 74 be ff 9d 37 bd
       -0.046161804 -0.033376314 -0.23918529 -0.04482841
000050 34 2a 18 3d bb 5a 04 3e 38 2b 22 be 91 68 4f 3d
       0.037149623 0.12925236 -0.15836799 0.05063683
000060 7c 70 71 3e 70 c7 9f bd b7 f8 79 3e 68 94 a4 3c
       0.23578066 -0.078017116 0.24411283 0.020090297
000070 c1 dc 9c 3d 20 29 ab 3d c5 b0 bf bd f8 c6 8a bd
       0.07659293 0.08357453 -0.09359888 -0.067762315
000080 01 5d a3 3d ca e1 56 3c bb 2c bb bd 87 53 21 bd
       0.079767235 0.013115356 -0.09139391 -0.0393863
000090 23 e4 5a be 3b f4 45 be 12 d1 11 3d ec 63 03 bc
       -0.2137609 -0.19331448 0.035599776 -0.008019429
0000a0 d2 a8 fc 3d d0 6c 9f 3d a2 a1 83 be d7 62 76 be
       0.123368874 0.07784426 -0.25709254 -0.24061142
0000b0 9f 87 66 be 87 92 01 bd 78 5d d3 3c 04 84 07 3c
       -0.22512673 -0.03163388 0.025801405 0.008271221
0000c0 84 da 01 3c 1d 80 30 bd 59 eb 59 3b 81 b8 82 3d
       0.007925633 -0.04309093 0.003325185 0.063828476
0000d0 55 c6 42 3c 05 8a e8 39 89 9a 14 3e 8b e4 55 bb
       0.011888106 0.0004435332 0.14512075 -0.0032637443
0000e0 cd 2b 31 be 8d eb d7 bc 3b d8 90 3d cf 71 72 3d
       -0.17301865 -0.026357437 0.07072493 0.059190568
0000f0 e3 4b 80 be 46 ff 3b ba 31 5d 2e 3e 1e 93 2d 3b
       -0.25057897 -0.00071715226 0.17027737 0.0026485394
000100 da 5d 45 bd 8a 2d 40 3c 28 89 67 bb 5e ae b3 bc
       -0.048185207 0.011729607 -0.0035329554 -0.02193373
000110 cd 39 3f bd 06 8c 4d 3b 85 ae 6f bb d1 18 47 be
       -0.046685982 0.0031363978 -0.0036572528 -0.1944306
000120 3e 67 ca 3a 15 4f 79 3d cd 94 c1 3c 94 47 7a 3e
       0.0015442146 0.060866434 0.023630524 0.24441367
000130 e9 b1 ee 3d e6 e9 5a be 7f 7f 5a be 39 43 0b 3e
       0.116550274 -0.21378288 -0.21337698 0.13599862
000140 e7 51 82 be 81 41 32 3d cb 44 ab bd d0 c9 b4 bc
       -0.25453112 0.0435195 -0.083627306 -0.022068888
000150 68 b9 ea bd 5d 87 03 3e 99 b1 aa 3d 39 76 d3 3d
       -0.11461145 0.12844606 0.08334655 0.103252836
000160 34 01 dc 3c 98 16 01 3e 57 5c e5 3d 69 20 b4 bd
       0.026856042 0.12606275 0.11199253 -0.08795244
000170 5b d2 71 bc d6 50 b3 bd 3d c1 4d 3e 1d 27 aa bd
       -0.014759625 -0.087556526 0.20093246 -0.083082415
000180 f3 51 26 3e e1 73 d3 bd 70 0d c8 3c 52 ba ce bc
       0.16242199 -0.103248365 0.02442047 -0.025235329
000190 fe aa b3 3d 65 a2 d9 3c 06 b7 c6 bc 77 5e d4 3d
       0.087728485 0.026566694 -0.024257194 0.1036958
0001a0 ec 5d d3 bb eb 88 8c bb fc 8c 11 3d 1e f7 e7 3c
       -0.0064504053 -0.004288783 0.035534844 0.028316077
0001b0 10 7b 2a 3d dd a6 2e 3e 31 af 8d be 59 72 9b be
       0.041621268 0.17055841 -0.27672723 -0.30360678
0001c0 25 4c 2b 3e c2 31 db 3d 2a f9 78 3d 50 2e 2b be
       0.16728266 0.1070285 0.060784496 -0.16716886
0001d0 20 4c 0e bd fb 77 7a bb fd f7 6d 3d ad e5 9e bd
       -0.034740567 -0.0038218487 0.05809783 -0.07758651
0001e0 8a 44 77 3d 71 9e 41 3d ad 17 38 bd 64 bc 32 3e
       0.0603681 0.047270242 -0.044944454 0.17454678
0001f0 4a 95 b8 3d 45 a2 40 bd 4c 71 f5 bd 0c 07 18 be
       0.0901285 -0.047029752 -0.119845 -0.14846438
000200 93 0f 5d be d8 10 25 be 8f f6 2f be 6c d6 fa bd
       -0.21587972 -0.16119707 -0.17183898 -0.12247929
000210 de 40 b0 3b 54 1d 19 be 76 98 9e bb 16 63 d7 3c
       0.0053788265 -0.14952594 -0.004839952 0.026292365
000220 43 50 06 bd cb 12 41 bc 91 a4 12 3d 87 00 1b 3d
       -0.032791387 -0.011784266 0.035801474 0.0378423
000230 8b c5 7b 3c 02 52 6c 3c f5 5e 93 3d ca 27 58 bc
       0.015366922 0.014423849 0.07195846 -0.01319308
000240 9c 69 46 3e 92 1d 82 be 39 f6 bb bd 1b 37 bd bd
       0.19376224 -0.25413185 -0.091778226 -0.09239026
000250 bc c4 b0 be f8 b3 2a 3e 83 2c b7 3c 49 cf 55 bb
       -0.34525096 0.16670215 0.022360092 -0.0032624772
000260 64 8a a1 be 39 9a 30 3c 66 5a 2b be cb 50 fe bc
       -0.31550896 0.010778957 -0.16733703 -0.031044384
000270 6e ed e6 bd 1e de 4d 3d 69 cb bb bd d8 92 89 bc
       -0.11275755 0.050260656 -0.09169657 -0.016793653
000280 04 49 c8 bd ed e3 c4 bd ce b2 d4 3d 13 f8 77 be
       -0.097795516 -0.09613786 0.10385667 -0.24215727
000290 d8 c2 2e 3e b4 b6 58 3e 78 b1 55 3d 88 d9 85 3d
       0.17066514 0.21163446 0.0521712 0.065356314
0002a0 08 ed 48 be 8d 28 3f 3d 3b 12 a8 3d 3b 53 c3 bd
       -0.1962167 0.04666953 0.08206602 -0.09537359
0002b0 bc 30 42 bc e9 e7 83 3d 80 b4 bf 3c ac 30 81 bd
       -0.0118524395 0.06440718 0.023401499 -0.063081115
0002c0 06 ba 7c 3d eb 7b ed bd 74 65 d8 3d 17 6e 7e 3d
       0.061700843 -0.11595901 0.10566226 0.06211671
0002d0 44 dd 0e 3e 79 6c 16 3e 46 ea c3 be 30 ec 13 3c
       0.13951594 0.14689817 -0.38264674 0.009028479
0002e0 4c ff 1e 3e 9e 6f 1f be 9d a0 10 be eb 6b 1d 3e
       0.15527076 -0.15569922 -0.14123769 0.15373199
0002f0 be 69 2c be 43 01 10 bd 32 b5 4a bc f6 19 64 bc
       -0.16837212 -0.035157453 -0.012372302 -0.013922205
000300 6f 9a c1 bd e6 1b cb bd d0 ac 06 3d a5 fc a0 3d
       -0.09453284 -0.099174306 0.03287965 0.07860688
000310 66 ac ed 3c 03 da 21 3e b5 cc 39 3e 62 35 11 3d
       0.02901287 0.15805821 0.18144496 0.0354513
000320 ee 24 36 3e d8 75 2e 3e 99 c7 24 be 7e 20 77 be
       0.17787525 0.17037141 -0.16091765 -0.24133489
000330 6d 74 86 bb d3 99 80 3c 82 bc 80 3d e7 7f d6 bd
       -0.0041032345 0.01569835 0.06285955 -0.10473614
000340 95 77 bd bc a8 16 10 bd 01 b5 3d 3c 0e 7e 29 bd
       -0.02312831 -0.035177857 0.011578799 -0.04137998
000350 24 17 86 bd 75 56 df bc 02 1e 19 bc 89 9b a6 3d
       -0.065473825 -0.027262906 -0.009345533 0.08135135
000360 67 53 c4 bc 3f 83 49 be 75 84 24 3e 9f 1d f1 3c
       -0.02396555 -0.19678973 0.16066153 0.02943307
000370 dc 2e fc bd 5e f4 65 3e bb 48 3d be e3 11 33 bd
       -0.12313625 0.224565 -0.18484776 -0.04371823
000380 67 76 e0 bd 6f 23 0c 3d d1 9e 1e 3e 23 ee b9 3d
       -0.109600835 0.03421348 0.15490271 0.09078624
000390 21 3a 4d 3c 13 cc 6a bd 2e 48 2b bc e4 e4 b1 bd
       0.012526066 -0.057323527 -0.010454221 -0.086862355
0003a0 1f 09 99 3d d0 2e df 3d e1 bc 2c 3e c8 51 50 3e
       0.07472443 0.10897601 0.16868927 0.20343697
0003b0 3f f0 d5 3d ec 39 44 3d e8 c8 19 be b8 02 2c 3d
       0.10446214 0.0479068 -0.15018046 0.04199478
0003c0 10 6f 29 3e b1 fe 0a 3e 90 16 80 be d1 ed 00 bd
       0.16546273 0.1357372 -0.25017214 -0.0314768
0003d0 d4 00 10 bd 21 3e a4 3c 14 65 77 bd 35 12 80 bd
       -0.03515704 0.020049157 -0.06039913 -0.06253473
0003e0 f7 de 64 3c cc 49 27 bd e5 15 de 3c 18 a7 77 3a
       0.013969175 -0.040841863 0.02711005 0.0009447201
0003f0 5d 1d 45 3e d4 ab 3f 3e 37 00 5d be 92 01 3f 3e
       0.19249482 0.18717891 -0.21582113 0.18652943

conv1.bias f4 [32]
000000 01 b6 1b be 2d 6c 32 3d 0c 27 71 3d 8a 54 37 3e
       -0.15206148 0.043560196 0.05887513 0.17903343
000010 45 4b 21 3e 9a 8d 97 3d 3e fc af bd 09 cf 8a be
       0.1575137 0.07400055 -0.08593033 -0.2711108
000020 1d d4 bd 3d f3 7a 7c bd 40 b6 06 bd 4a af 47 3e
       0.09268973 -0.06164069 -0.03288865 0.19500461
000030 59 44 09 3e 6b 0a b3 bc f6 51 23 be 9d fd 0e 3e
       0.13404979 -0.021855554 -0.15949234 0.13963933
000040 ed d2 cc 3d 16 fb 98 bd 23 6e c7 3d 47 10 1c be
       0.100011684 -0.07469766 0.09737804 -0.15240584
000050 be e0 f3 3d 76 8b b3 bd 64 3b 6e be 53 6d fd bc
       0.119081005 -0.087668344 -0.23264843 -0.030935919
000060 26 5e 2a 3e f3 97 6f 3d 48 89 ca bd 9c 19 45 be
       0.16637477 0.05849452 -0.098894656 -0.1924805
000070 b5 36 52 3e c6 8f 3c bc 2a af 30 3e eb 82 0f be
       0.20528682 -0.011508888 0.1725432 -0.14014785

conv2.weight f4 [64, 32, 3, 3]
000000 83 71 a8 bd 6c 8b 99 3c c6 22 2c 3d ce 9c 36 bc
       -0.08224776 0.01874324 0.04202535 -0.011145784
000010 fd c3 bd bc d3 26 70 bc b6 ab a3 bd c5 cc a5 bb
       -0.023164744 -0.014657694 -0.07991736 -0.005059811
000020 9d 76 e1 3c c6 d7 f5 3b 8d b0 ed 3c 64 76 1f 3c
       0.02752238 0.007502529 0.02901485 0.009732816
000030 6a 15 52 bd 58 96 82 bd 78 5e 18 bc 25 50 15 bc
       -0.051289953 -0.06376332 -0.009299867 -0.009113346
000040 5a c4 16 3d 3f 79 ba 3d 09 6d 79 3a 4f 89 42 bd
       0.03680835 0.09105157 0.00095148437 -0.04749423
000050 f8 f9 85 bd 86 08 8b 3d a2 ae d6 3a 65 cb 41 3d
       -0.065418184 0.06788735 0.0016378949 0.047313113
000060 90 11 23 bd 17 d0 b8 3d 45 84 d7 3a c5 91 ea 3d
       -0.03981167 0.09024065 0.0016442618 0.114535846
000070 80 2a 73 bc 36 40 dc 3c 00 7d 6d bb 3c bd 39 3c
       -0.014841676 0.026886087 -0.0036237836 0.011336621
000080 f8 03 95 bd ba 8b 00 3e aa f4 66 3c 08 c0 71 bd
       -0.072761476 0.12553301 0.014096418 -0.059021026
000090 85 0a d5 bc e4 3f 41 bc 4c 6f 9d bd c5 a6 30 3c
       -0.026005993 -0.011795018 -0.07687244 0.010781948
0000a0 26 1a 22 bc 73 e9 e5 bc 8e 2f 08 bd 55 c7 86 3c
       -0.00989393 -0.028065419 -0.033248477 0.01645247
0000b0 29 38 42 bd 69 00 85 bc 5e d4 c1 3d ea 45 b7 bc
       -0.04741684 -0.016235547 0.09464334 -0.022372205
0000c0 6f cc 88 3d 66 17 e1 bb 3e 65 30 bd 85 e9 96 bc
       0.066796176 -0.0068692444 -0.043065302 -0.018421898
0000d0 15 a4 aa 3c 1f ba e9 3c 34 69 6f bd 67 4d 99 bd
       0.020830194 0.028531132 -0.05844994 -0.074854665
0000e0 30 fd 8b 3d 00 9d 47 bd b8 5d be 3c 0c 5d e5 b9
       0.06835401 -0.04873371 0.023238048 -0.0004374761
0000f0 34 4d 35 3d ae 6b b8 3c 57 a9 95 b9 f7 15 3d bd
       0.04426308 0.022512283 -0.00028545663 -0.046163525
000100 ea dd dd 3d ff 4c dc bc fa 20 fc bc 1b 01 d1 3c
       0.108333424 -0.026892183 -0.030777443 0.025513222
000110 d0 e6 0a 3c 01 c0 e7 bd 9f 35 93 bb 05 a5 a2 bd
       0.008477882 -0.11315919 -0.004492476 -0.07941631
000120 e5 c8 a8 3c 1b 72 67 3d c9 95 88 bc 64 e0 7e bd
       0.020603606 0.056505304 -0.016672986 -0.062225714
000130 f9 d2 06 3c 9a 93 1a ba 89 bc 88 3d 4a 60 eb 39
       0.008229011 -0.0005896628 0.06676585 0.00044894434
000140 05 b7 6a bc 08 3e 52 3c 66 99 18 3d 49 8a ae 3c
       -0.014325862 0.012832172 0.037255667 0.021306174
000150 a7 43 d2 bc 5b 67 15 bb a3 57 36 3d 1f ca d8 3d
       -0.025667025 -0.00227972 0.04451717 0.105854265
000160 17 d7 a4 3b 70 27 9b bd a4 7c 45 bc f9 87 ae 3c
       0.0050305235 -0.075758815 -0.012053642 0.021305071
000170 cd 82 87 3d cf ab 57 bd 82 91 44 3c 6d 06 da bb
       0.06616745 -0.052654084 0.011997582 -0.006653598
000180 9c 4c 31 bd ce 5c 1b bd c3 25 87 3d f9 32 ce bd
       -0.04328595 -0.037930302 0.06598999 -0.10068316
000190 06 a0 95 3d c9 04 3a 3d d5 ef 2e bc e3 c9 fa 3c
       0.07305913 0.04541472 -0.010677298 0.030613845
0001a0 26 eb f4 3b 04 66 01 bd fc f7 59 3d d5 a7 b1 3c
       0.007474321 -0.03159143 0.053215012 0.021686474
0001b0 60 1b cb bc e8 49 8b 3d bc c6 9b bd 96 f7 16 bc
       -0.024793327 0.06801206 -0.07606265 -0.0092143025
0001c0 13 8d 6b 3d 0d 3a b3 bd 1a aa e0 bc bf 0f 80 bd
       0.057507586 -0.08751307 -0.02742486 -0.06253003
0001d0 6d ba 71 bc a6 4d b6 3d a5 98 0d 3c 54 7f c0 b9
       -0.01475392 0.08901529 0.00864235 -0.0003671596
0001e0 f2 92 d0 3d a0 ec 64 bd 47 20 fe bb 11 f3 6a 3d
       0.101842776 -0.055889726 -0.0077553126 0.057360712
0001f0 24 11 10 3c ff 26 86 3c 52 09 82 bd e1 d2 bd 3c
       0.008793149 0.016376017 -0.06349434 0.023171844
000200 9a 43 de bd 55 fb 19 bd 05 c7 0f bd ae bd 2c 3c
       -0.10852738 -0.037593205 -0.03510191 0.01054327
000210 a4 d3 7e 3d c8 fb ae bb 80 c6 2a bc 4b 8b 01 3c
       0.062213555 -0.0053400733 -0.010423303 0.007906745
000220 dc 0d 3a bc 0e 49 2c bd 50 e3 be bd 0a 2a 10 3d
       -0.011355843 -0.042061858 -0.093207 0.03519634
000230 76 55 82 bd fc b8 4a 3d c6 8e af 3c 95 d3 61 3d
       -0.06363957 0.04949282 0.021430384 0.05513342
000240 b2 d1 20 bd d3 ea c2 bd f3 c8 aa 3d 7d a9 2f 3d
       -0.03926248 -0.095174454 0.08339109 0.042886246
000250 31 35 d9 bc 84 e6 be bc b0 5b 60 bd fd 09 3f bb
       -0.026514621 -0.023303278 -0.05477494 -0.002915024
000260 de a9 df bc 3a 3d c8 bc 62 92 1f bd f6 bc ab bb
       -0.027302679 -0.024443258 -0.03895796 -0.0052410318
000270 66 1e 17 3d 4f d7 be bc 70 f7 6d 3d 25 6e bf bd
       0.036894225 -0.023296027 0.058097303 -0.0934718
000280 f7 67 9b bd 87 ad 60 bd 05 af 23 3d ff cd 5e 3c
       -0.07588189 -0.05485299 0.039961834 0.013598918
000290 60 c5 a4 bd 6f 81 c7 bc 61 a5 11 bd 83 87 73 bd
       -0.08045459 -0.024353711 -0.03555811 -0.059455406
0002a0 a4 ed 36 b9 06 03 9e bc 70 4d 9e 3d a4 52 03 3d
       -0.000174454 -0.019288551 0.07729614 0.032061234
0002b0 43 a0 28 3d 5d ef 3b bd ab 9f 64 bd c7 03 af bd
       0.041168462 -0.04588257 -0.055816334 -0.08545642
0002c0 99 48 a8 3b a8 54 b0 bd 44 c3 d5 3b 21 aa 1e 3c
       0.0051356074 -0.08609897 0.0065235216 0.009684117
0002d0 e8 f2 d9 3c 9a c2 74 3b 3f 99 a7 3d dd 99 ae bc
       0.026605085 0.0037347437 0.08183526 -0.021313602
0002e0 5a 74 76 3d 70 52 9e bd 8c 10 47 3d fc ea eb bc
       0.060169555 -0.077305675 0.048599765 -0.028798573
0002f0 35 b7 aa 3b 97 4d 5c bd 5c c5 e4 bc 64 35 93 bc
       0.0052098283 -0.053784933 -0.02792614 -0.017969795
000300 38 e3 94 3d d2 78 02 3d bf 18 c5 bc 8d 94 bc 3c
       0.07269901 0.031853504 -0.024059651 0.023020053
000310 e8 93 80 3d 0e 1b 44 bd 8e fa 0c bc 04 21 30 bd
       0.06278211 -0.047877364 -0.008604659 -0.043000236
000320 4f c0 47 3c 93 31 20 bd b3 30 f7 bc a6 22 39 3c
       0.012191846 -0.039109778 -0.030174589 0.011299765
000330 44 ed 65 3d ca 37 85 bd 99 b0 72 3d 6e 98 52 3c
       0.056134477 -0.065047815 0.059250448 0.012853725
000340 16 66 1c bd cf 9a 72 3d b8 af 3d be 5f 22 9a ba
       -0.038183294 0.05922967 -0.18524063 -0.0011759511
000350 03 5a 02 3b be 74 04 3d a1 a7 df 3c 90 0f b6 bb
       0.0019890077 0.032337897 0.027301611 -0.0055560544
000360 b8 1e 1a bd ab 7d 86 3b 0d 9e a0 bc 7e 77 bb bc
       -0.037626952 0.0041043363 -0.019606614 -0.022884127
000370 6a 86 a5 ba 17 7a e0 3d 13 ff a0 bc 29 4c 4a 3d
       -0.001262856 0.10960787 -0.019652879 0.04938904
000380 c9 e9 86 bc d4 94 c9 bd 62 d8 92 bd 48 bd f1 bd
       -0.0164689 -0.0984284 -0.07170178 -0.11803681
000390 b8 97 ca 3d 20 58 fc 3d fc 26 a8 3c 6e cc 87 bd
       0.09892219 0.12321496 0.020526402 -0.06630789
0003a0 82 18 a9 ba 2e f9 1a bd f3 ab 07 bc 4c 2b a6 3b
       -0.0012900981 -0.037835293 -0.008280742 0.0050710794
0003b0 a5 5f b9 3c a0 b6 ec bc a4 4d f7 3b 34 a9 ee bd
       0.022628615 -0.028895676 0.0075470973 -0.11653367
0003c0 fc e4 f6 bc fb b7 15 bc 61 d3 7a bd e8 51 73 bd
       -0.030138485 -0.009138103 -0.061236743 -0.059404284
0003d0 c4 a0 54 3d 05 a3 0b bc e0 cf 25 3d 7e 78 fb bc
       0.05191113 -0.008522754 0.04048145 -0.030697104
0003e0 0e 45 0a bd db 2a c4 bd d0 b9 c1 bd e0 ad fb 3d
       -0.033757262 -0.095784865 -0.09459269 0.122890234
0003f0 c5 92 96 3b a7 af 19 3d e7 26 ca 3c 5e ff 09 bd
       0.004595133 0.03752103 0.024676753 -0.033690803

conv2.bias f4 [64]
000000 1c b7 3a bd f5 13 96 3d ce 72 1e bd b0 77 be 3d
       -0.045584783 0.07328025 -0.038683705 0.09300172
000010 10 b7 42 bc df b8 ae 3d 44 ef e9 bc b1 1a d0 bb
       -0.011884466 0.08531355 -0.028556474 -0.006350838
000020 e7 34 3b bd f0 ce a6 3d be 38 6a 3d 6f 89 91 bc
       -0.04570475 0.08144939 0.05718302 -0.017765729
000030 86 4e 66 3d 08 cb 22 bd 8d 30 51 bc bd 8a e4 bc
       0.05622723 -0.039744407 -0.012767923 -0.027898187
000040 dd 91 73 3c 07 f7 09 bd cd 01 ff bc 99 8b ae 3d
       0.0148663195 -0.03368285 -0.031128788 0.0852272
000050 3b a2 84 3d b5 3f 70 3c ed cc 34 3d 86 53 f2 3c
       0.064762555 0.014663626 0.044140745 0.029580843
000060 11 9f 56 3c 8e 85 fc bc cf 48 8e 3d f4 94 14 bd
       0.013099448 -0.030825403 0.06947481 -0.036274865
000070 2f 77 a9 3d 70 61 9a 3b 47 af 84 3d 00 ed 3f 3d
       0.082746856 0.0047113225 0.06478744 0.04685688
000080 30 39 5c 3d 8a 99 01 bd ed b5 03 bb a9 2b 36 bb
       0.053765476 -0.031640567 -0.002009745 -0.002779702
000090 40 d1 fa 3c bc 07 9b bc 9a f4 d8 bc c3 a1 d8 3c
       0.030617356 -0.018924586 -0.026483823 0.026444321
0000a0 ae 65 27 bd 46 08 bd bc 1b 72 b9 39 ba 38 44 3d
       -0.040868454 -0.023075234 0.00035370965 0.04790566
0000b0 2a ae 8a 3d 69 56 8b 3d df bc 89 bc f5 85 80 3d
       0.067715004 0.06803591 -0.016813694 0.0627555
0000c0 ac b2 62 3d 66 d0 c9 3c 9e a9 c2 3c 9e 59 67 3c
       0.055346176 0.024635505 0.02376252 0.0141204875
0000d0 0e e5 9b 3c e3 b0 55 3d 86 47 ac 3c 84 c9 50 3d
       0.01903012 0.052170645 0.021030199 0.05097343
0000e0 27 5b 27 bc d0 bd 8a 3d 30 f3 68 bd 75 24 cd 3d
       -0.0102146035 0.06774485 -0.056872547 0.10016719
0000f0 d7 77 f3 3c bb eb 28 bd 3b bf 15 bd 62 52 29 3d
       0.02972023 -0.041240435 -0.036559325 0.041338332

bn1.weight f4 [32]
000000 d7 37 75 3f d9 6a 64 3f 22 07 90 3f ba 57 72 3f
       0.9578833 0.89225537 1.1252177 0.9466511
000010 03 01 72 3f 69 a5 6d 3f 7b 33 84 3f 56 af 88 3f
       0.94532794 0.9283052 1.032821 1.0678508
000020 f2 ff 81 3f 2b b9 77 3f 43 c0 81 3f 5c 06 7f 3f
       1.0156233 0.9676692 1.0136799 0.9961908
000030 57 75 72 3f 6a 01 75 3f 03 58 7b 3f 8a 00 69 3f
       0.94710296 0.9570528 0.9818117 0.9101645
000040 e7 a4 6f 3f 68 08 63 3f 75 c3 79 3f a3 32 6f 3f
       0.93610996 0.886847 0.9756387 0.9343664
000050 aa 9f 82 3f 83 ce 6d 3f d0 8e 87 3f 01 9d 80 3f
       1.0204976 0.92893237 1.0590458 1.0047914
000060 f0 cc 83 3f 5f 67 89 3f ea 4e 7a 3f 83 6c 87 3f
       1.0296917 1.0734671 0.97776663 1.057999
000070 04 f2 7d 3f b7 57 74 3f 77 fe 85 3f 20 7c 81 3f
       0.9919741 0.9544634 1.0468282 1.0116005

bn1.bias f4 [32]
000000 74 da 54 be 35 9b ae ba f9 09 3f 3d 39 6f 17 3d
       -0.20786458 -0.0013321402 0.04664037 0.036971305
000010 97 3a f9 bd 5a 1b c4 bd eb c4 b1 bd 7a 6f 36 3e
       -0.12169378 -0.095755294 -0.08680137 0.17815962
000020 d4 41 06 3e a4 87 71 be e3 cf da bb a9 c4 d8 bd
       0.13111049 -0.23586899 -0.006677614 -0.10584385
000030 67 c8 2e bc da b2 c8 bd 44 6d 02 be 5d 46 16 be
       -0.010667897 -0.09799738 -0.12736994 -0.14675279
000040 b0 74 01 bd 98 37 c8 bd 4f 83 1d be 2e c6 34 be
       -0.031605422 -0.09776229 -0.15382122 -0.17653725
000050 d3 c1 54 bd 75 5a 26 be 05 ac 67 3d 14 1c 73 bd
       -0.051942658 -0.16245444 0.056560535 -0.05935295
000060 e0 63 38 be 5d cc 90 3d da a7 e8 bd 50 62 df bd
       -0.1800685 0.07070229 -0.1136014 -0.109074235
000070 af f6 c1 3c 66 cc 7f bd 25 65 30 bd 1f 30 08 3e
       0.023677198 -0.06245079 -0.04306521 0.13299607

bn1.running_mean f4 [32]
000000 e9 fe 53 bd fc f4 47 3d de 0f 80 bc 26 ef 3b 3e
       -0.051756773 0.04881762 -0.015632566 0.18352947
000010 2a 0f 2b 3e be 55 b8 3d 75 22 c8 bd 77 6c ca be
       0.16705003 0.09000729 -0.09772197 -0.39535877
000020 6d c2 81 bb 46 88 da bc b3 3f 1f bd 29 28 4b 3e
       -0.003959945 -0.026676308 -0.038879108 0.19839539
000030 be 20 db 3d 7f 49 86 3c 2e 67 3a be 75 b6 37 3e
       0.106996045 0.016392468 -0.18203422 0.17940696
000040 a4 09 31 3e 8a 86 fe 3a 1e b2 cc 3d a7 ee b5 bd
       0.17288834 0.0019418758 0.09994911 -0.0888341
000050 fe 50 d0 3d dd 8b 72 bd 2f 1e a6 be e5 c7 e8 bc
       0.10171698 -0.059215415 -0.32444903 -0.02841563
000060 2c 35 87 3e 0c 4d 08 bd f3 64 a5 bd e5 bf 32 be
       0.26407754 -0.033276603 -0.08075895 -0.17456014
000070 46 cd 37 3e 7c 75 68 bb 8c f1 3b 3e 50 e1 71 be
       0.179494 -0.0035470417 0.18353862 -0.23621106

bn1.running_var f4 [32]
000000 8e ac a1 3c 50 4e a3 3c e1 f8 d5 3c 96 1b 40 3c
       0.0197356 0.019934803 0.026119651 0.011725327
000010 29 7b c7 3c ad 97 3c 3c bf c0 da 3c 1a 3f 9d 3c
       0.02435072 0.011510772 0.026703237 0.019195128
000020 6c e0 1a 3d d3 d5 90 3c 43 c0 dd 3c ca c5 98 3c
       0.03781168 0.017680084 0.027069217 0.018649
000030 f3 ab 8f 3c 31 21 a3 3c bf c8 cd 3c 5f ef ab 3c
       0.017538046 0.019913288 0.025120137 0.020988164
000040 61 2b 9d 3c 40 e4 7a 3c 0c 83 a5 3c 5e 48 df 3c
       0.019185724 0.015313208 0.02020409 0.027256187
000050 c5 99 99 3c a4 d0 bb 3c f0 b7 16 3d fa 0f a1 3c
       0.01875008 0.022926636 0.03679651 0.019660939
000060 8b e7 c2 3c c9 0c ad 3c b6 e3 4b 3c cc a0 98 3c
       0.023792049 0.02112426 0.012444427 0.018631361
000070 fd 86 b0 3c 9b 12 98 3c 0e 42 e8 3c 21 de a1 3c
       0.021548742 0.01856356 0.02835181 0.01975924

bn2.weight f4 [64]
000000 6c 1c a8 3f 2c ff ab 3f 9a d8 ba 3f 3e 3c aa 3f
       1.3133674 1.3437247 1.4597352 1.3299634
000010 12 07 c1 3f fc c8 94 3f 7e 5a b9 3f f1 b8 b7 3f
       1.5080283 1.1623836 1.4480741 1.4353315
000020 f3 38 ad 3f ba b2 b3 3f 2c e4 a2 3f bb 69 9e 3f
       1.3533005 1.4038918 1.2725883 1.2376016
000030 bb 8a a3 3f ef f1 9c 3f a1 40 a6 3f fe 81 bf 3f
       1.2776712 1.2261332 1.2988473 1.4961545
000040 39 04 aa 3f ec 43 b4 3f c5 92 c9 3f f3 78 ae 3f
       1.3282539 1.4083228 1.5747916 1.3630661
000050 aa c0 a4 3f d3 a9 b5 3f 87 3b b5 3f 36 05 b2 3f
       1.2871296 1.4192451 1.4158791 1.390784
000060 3d 2b b4 3f 6a 8c ac 3f 6a 44 c6 3f e2 3a b6 3f
       1.4075695 1.3480351 1.5489628 1.423672
000070 70 0b 96 3f 94 cf b3 3f 72 10 a3 3f e9 8b ae 3f
       1.172224 1.4047723 1.2739394 1.3636447
000080 7c c1 a9 3f 41 1f 9f 3f de f6 b4 3f ff 5e ca 3f
       1.3262172 1.2431413 1.4137838 1.581024
000090 d9 73 a7 3f c9 cc 95 3f 12 1f c6 3f 7f 21 a7 3f
       1.3082229 1.170312 1.5478232 1.3057097
0000a0 eb 2b ad 3f 4c 98 db 3f 04 78 b4 3f b3 cd b1 3f
       1.3529028 1.7155852 1.4099126 1.38909
0000b0 13 4d b0 3f 93 78 a5 3f 28 26 b0 3f f5 33 b1 3f
       1.3773521 1.2927421 1.3761644 1.3843981
0000c0 6c c5 ae 3f 80 43 a0 3f 14 1c a3 3f be c0 a5 3f
       1.3653998 1.2520599 1.2742944 1.2949445
0000d0 ae 04 fc 3f 97 55 9e 3f a5 0f a4 3f 55 7c b1 3f
       1.9688928 1.236987 1.2817274 1.3866068
0000e0 6c e8 b1 3f 6a ee a7 3f bb 5a b2 3f 41 20 b4 3f
       1.3899055 1.3119633 1.3933939 1.4072343
0000f0 97 f3 bb 3f 73 32 c0 3f c0 2e c2 3f 8a d8 a8 3f
       1.4683713 1.5015396 1.5170517 1.3191082

bn2.bias f4 [64]
000000 43 58 03 bf 6e 56 16 bf 04 9f 68 be 80 8e f4 be
       -0.5130655 -0.5872563 -0.2271691 -0.4776497
000010 e0 0a 0d be 45 cc 2c bf 17 8f df bd 1b a3 07 be
       -0.1377368 -0.6749919 -0.10915964 -0.13245814
000020 9d e6 0e bf 5f 45 e1 be ac 69 16 bf de 20 29 bf
       -0.5582064 -0.43998238 -0.5875499 -0.66065776
000030 d4 8c 13 bf d4 8c 09 bf f8 ad 1d bf b1 44 aa bd
       -0.5763676 -0.5373051 -0.6159358 -0.08313883
000040 75 0b 1b bf 66 4f e5 be 4f 60 ac be 21 4d d9 be
       -0.6056436 -0.4478714 -0.33667228 -0.42441657
000050 7b fd dc be 14 9e c6 be 9b d1 cb be 21 27 93 be
       -0.4316214 -0.3879248 -0.39808354 -0.2874079
000060 11 35 5f bd da d7 a6 be ce fe b0 be 92 f4 0f bf
       -0.054493967 -0.32586557 -0.345694 -0.5623256
000070 50 2c 4c bf 0b f9 02 bf a4 30 c4 be 39 ed bd be
       -0.79755116 -0.5116126 -0.3831836 -0.3709505
000080 35 99 1b bf ce 1f f4 be db 6a ba be 60 98 82 3c
       -0.6078065 -0.47680515 -0.3640965 0.015941799
000090 3a 5e c2 be 3f 3b 1a bf 3c e5 ff bd 72 e3 03 bf
       -0.37962514 -0.6024665 -0.12494895 -0.5151893
0000a0 69 39 c2 be d1 24 76 be 3d f0 9d be fe d1 b6 be
       -0.37934425 -0.24037482 -0.3084735 -0.35707086
0000b0 e6 b2 f3 be db 54 3e bf 0b 19 c0 be b7 72 bc be
       -0.47597426 -0.7434823 -0.37519106 -0.3680627
0000c0 59 c5 16 bf fb 46 23 bf 76 c4 10 bf 83 08 a3 be
       -0.5889488 -0.6378018 -0.56549776 -0.3184243
0000d0 5c 9a 2d be 0f 8a 2f bf 8f 40 31 bf a8 14 f3 be
       -0.16953415 -0.68570036 -0.69239134 -0.47476697
0000e0 9d 43 98 be 40 9a e1 be 95 4d de be 86 ae 12 bf
       -0.29739085 -0.44062996 -0.43418565 -0.5729755
0000f0 fb c6 fb bd a0 d5 88 be c4 b4 92 be cb 04 30 bf
       -0.12293812 -0.26725483 -0.28653538 -0.68757313

bn2.running_mean f4 [64]
000000 55 e6 81 be a5 ff e0 3d 77 53 40 3d 55 09 99 3d
       -0.25371042 0.1098626 0.0469546 0.07472483
000010 6f c8 bc bd 6a 81 e7 3c ab 59 d7 be 33 c2 6c bc
       -0.09217917 0.028259952 -0.420606 -0.014450598
000020 9a f3 9e bd 83 a0 83 be 9a 3a e3 3d c9 21 1c 3e
       -0.07761307 -0.25708398 0.11095162 0.15247263
000030 5b b0 05 3d 7e 6b c4 3d cd 06 0c be cf 02 5a be
       0.03263889 0.09590815 -0.1367447 -0.21290134
000040 15 96 56 be 6f 1d 48 be 7d e1 a7 be 18 05 77 3e
       -0.20955689 -0.19542478 -0.3278922 0.24123037
000050 a5 60 03 3e 0f 69 9b bd a4 e2 2f bd 1b 0c 32 bd
       0.12829836 -0.07588398 -0.04294075 -0.043468576
000060 6b de 9b bd 83 4a 6f be 55 a4 b9 3d ed ba 94 be
       -0.07610782 -0.23368268 0.09064547 -0.29048863
000070 79 60 9d 3d 7d b3 83 be 98 1a 4a 3e a3 2c 47 bd
       0.07684416 -0.25722876 0.19736707 -0.048626553
000080 ef d4 58 bd c3 8a 65 bd a1 ec 81 be cc e6 f6 be
       -0.052937444 -0.056040537 -0.25375846 -0.4822296
000090 f5 82 bf be 06 6b b4 3d 97 91 94 be 97 26 de 3c
       -0.374046 0.088094756 -0.29017326 0.02711801
0000a0 b0 98 d3 be 1b ab f8 be 0a 49 95 3c b8 fc 00 be
       -0.4132743 -0.48568043 0.018223304 -0.12596405
0000b0 6b 11 a9 bd 42 e7 0d 3c 20 76 30 bd 58 a2 31 be
       -0.08255275 0.008661093 -0.043081403 -0.17347085
0000c0 1b 74 80 3e dc 32 93 bd 12 2c 96 3d 14 56 9c bd
       0.2508858 -0.07187435 0.073326245 -0.076336056
0000d0 16 ec 28 bf fb 0f f0 3d 5a c7 b6 3d 6a 38 a1 3d
       -0.6598524 0.11721798 0.08924742 0.07872088
0000e0 02 87 fd bd d0 e8 d3 bd 17 07 9b be a1 e0 8c 3e
       -0.12379266 -0.1034714 -0.30278847 0.27515128
0000f0 16 37 bd bc e2 ed 1e be 63 9e de be 23 18 af bd
       -0.023097556 -0.15520433 -0.43480214 -0.085495256

bn2.running_var f4 [64]
000000 8c e2 79 3d c0 34 8d 3d db 3c ae 3d 49 24 93 3d
       0.061007068 0.06894827 0.08507701 0.07184655
000010 80 1b bb 3d 79 27 58 3d 9a e9 f0 3d 76 45 dc 3d
       0.091361046 0.05277202 0.11763306 0.10755436
000020 0f 24 82 3d c0 26 de 3d 96 84 a0 3d 45 65 98 3d
       0.06354534 0.10847235 0.07837789 0.07441191
000030 f1 24 e0 3d c5 e6 b8 3d b0 6a 67 3d 34 48 f9 3d
       0.10944546 0.09028391 0.05649823 0.12171975
000040 9a b3 d7 3d 6a a6 71 3d c5 2b 98 3d 7a 9a a8 3d
       0.10532303 0.058996595 0.074302234 0.08232589
000050 68 4c e4 3d d9 34 43 3d ae 4f 84 3d 10 27 cb 3d
       0.11147386 0.04765782 0.0646051 0.0991956
000060 82 50 f6 3d 18 86 be 3d ba 3d 84 3d 6d 97 d4 3d
       0.120270744 0.0930292 0.06457086 0.10380445
000070 ac a0 7b 3d 69 4f a6 3d f6 87 02 3e 68 e5 95 3d
       0.061432526 0.08120615 0.12747177 0.073191464
000080 53 f1 c1 3d 1a 2b de 3d 43 4a 8a 3d 27 8c ee 3d
       0.09469857 0.10848065 0.067524455 0.11647826
000090 58 dd f4 3d 16 47 16 3e 28 c1 d9 3d 23 7c 44 3e
       0.119562805 0.14675555 0.10632545 0.1918798
0000a0 68 c6 ab 3d 67 5d d9 3d 55 62 bc 3d 95 70 e1 3d
       0.08387452 0.10613518 0.09198443 0.110078014
0000b0 70 78 8d 3d 71 3b 87 3d 52 de 86 3d be 56 9e 3d
       0.06907737 0.066031344 0.06585373 0.077313885
0000c0 54 4b d5 3d 49 4e a7 3d af 01 91 3d f7 19 02 3e
       0.10414758 0.081692286 0.07080399 0.12705217
0000d0 e9 14 a4 3d ae 67 53 3d 98 3e 83 3d 93 8e 46 3d
       0.08011801 0.05161255 0.06408423 0.048475813
0000e0 09 07 79 3d 7f 33 87 3d 94 03 8e 3d c6 a5 7a 3d
       0.060797725 0.06601619 0.06934276 0.06119325
0000f0 f1 40 c0 3d 2e 59 80 3d 05 fe b9 3d 17 da 66 3d
       0.093873866 0.0626701 0.090816535 0.05636033

output_conv.weight f4 [7, 64, 1, 1]
000000 53 00 87 3e 52 45 ea 3d 6a d8 cd 3d 00 b2 3e 3e
       0.26367435 0.11439003 0.10051043 0.18622589
000010 cd e1 10 3e ec fd ff be cb fd 33 3e 21 0b 13 3e
       0.14148636 -0.49998415 0.17577283 0.14359714
000020 4e 14 69 3e 69 f4 a8 3e c8 d8 8e bd 00 19 47 bc
       0.22761652 0.3299897 -0.069749415 -0.012151957
000030 31 53 ac be 68 35 ee be fc 0c d4 3d cb 1b 4c 3e
       -0.3365722 -0.4652512 0.10354039 0.19932477
000040 28 a7 12 bf 95 d9 43 be c2 7c 70 3d c4 78 37 3e
       -0.5728631 -0.1912597 0.05871273 0.17917162
000050 7f 53 9f be 42 f3 3d 3e c1 62 4f 3d 55 44 9b 3e
       -0.3111839 0.18549827 0.05063129 0.3032557
000060 6a 8d ac 3d 51 92 9e 3e 47 56 3e 3e fc 1a 7f 3e
       0.0842541 0.30971006 0.185876 0.24912637
000070 c4 40 0f be 7d f4 23 3e 37 a7 da bd 8b 86 4e 3e
       -0.1398955 0.16011234 -0.10676425 0.20168512
000080 b4 7d 43 bd bf 39 63 bf 21 ab 7e 3e c8 d0 01 3e
       -0.0477273 -0.8875999 0.24869968 0.126773
000090 40 51 ba 3d bc 3d ea be 45 6c 87 3d f9 1e f0 bd
       0.090975285 -0.45750225 0.06612448 -0.117246576
0000a0 05 c8 b5 3c 61 66 25 3e 19 57 7e bd 97 f4 7e 3d
       0.022190103 0.16152336 -0.06209478 0.062244978
0000b0 7d 1f 6a bd ee 77 cd 3d a7 28 82 3e 20 47 27 3c
       -0.057158936 0.100326404 0.2542164 0.010209829
0000c0 47 e9 05 3e 92 0b cc be 7d 41 0d 3e c9 d8 54 be
       0.1307727 -0.39852577 0.13794513 -0.20785822
0000d0 d6 26 1f 3e 49 30 32 bf 10 5c 65 3e 41 a6 1d 3e
       0.15542158 -0.6960493 0.223984 0.15395452
0000e0 ef 87 35 3e 80 54 89 3e a9 0f 76 3e cf 8a 04 3e
       0.17727636 0.2682228 0.24029411 0.12943576
0000f0 65 2a 07 3e 24 fc 08 3e 03 39 5b 3e 61 ca 03 3e
       0.13199766 0.13377434 0.21408467 0.1287017
000100 94 7e a2 3e 4d c6 e2 bb 0d d9 fc be 52 0f 82 3c
       0.31737196 -0.006920612 -0.49384347 0.015876446
000110 6f a8 28 3e bf 19 47 3e 54 a7 a7 3d ca a0 fe 3d
       0.16470502 0.19443415 0.08186212 0.12433012
000120 f1 25 49 3e 66 65 0c be f6 0c 85 be 8d 6a 9c be
       0.1964338 -0.13710555 -0.2598645 -0.30550042
000130 87 f3 13 3e b8 2f c9 3c e0 73 1b be 9a 1e 45 3e
       0.14448367 0.024558887 -0.15180922 0.19249955
000140 5b 71 7e be 8e df fa 3d 30 bd fc 3d e3 3a 1b bf
       -0.24847929 0.12249671 0.12340772 -0.6063673
000150 73 4f ac bc 78 d7 0e 3e 03 1c 28 3e 3c 95 d4 be
       -0.021033978 0.13949382 0.16416936 -0.41520107
000160 86 53 d1 3d d4 45 97 bd 74 5a e4 be 6c 15 8e 3e
       0.10221009 -0.073863655 -0.4460026 0.2775072
000170 36 8f 73 be bb 8a eb 3d 3d 6f 72 bd a8 53 89 3d
       -0.237851 0.1150107 -0.059188116 0.06705409
000180 b1 ea 02 bf ad 9b 97 3c 73 41 0e bf 31 1c 06 3e
       -0.5113936 0.01850685 -0.5556862 0.13096692
000190 e4 83 1f 3e 0a 19 3b be e0 e4 0d 3e 6a 82 32 bf
       0.15577656 -0.1827127 0.1385684 -0.69730246
0001a0 92 1b 8e 3c 1d df 03 3e bd c8 43 3d dc 37 2c 3e
       0.01734713 0.1287808 0.04779886 0.16818184
0001b0 f0 8f 01 3e 92 d1 30 3e 53 d3 36 3e 22 ee ea 3d
       0.12652564 0.17267445 0.17854051 0.114712015
0001c0 f3 a9 2a be 14 48 eb 3d 9e df 30 bf 94 4f 42 bd
       -0.16666393 0.11488357 -0.6909121 -0.047439173
0001d0 a6 6f 0c 3e 39 7c a8 3d 82 72 24 bf 47 c7 f0 3d
       0.13714465 0.082268186 -0.64237225 0.11756759
0001e0 30 ef 1b 3e cd 9a e1 be 42 08 70 3e 01 8c 4c bf
       0.15227962 -0.44063416 0.2344065 -0.7990113
0001f0 2e 0c 39 3e f8 6f e2 3d 52 e9 4e 3e 9e 5a 59 3e
       0.18071052 0.110565126 0.20206192 0.21225974
000200 00 d2 ab be 18 35 50 bf a4 60 95 be 6b 51 83 3e
       -0.33558655 -0.81331015 -0.29175293 0.25648054
000210 23 d0 3b 3e eb 7d 0a be 62 43 59 3e 3c 8d 30 3e
       0.18341117 -0.13524596 0.21217111 0.17241377
000220 9f e5 bf bd e6 2b 80 3e 12 15 57 3e ab 58 61 3e
       -0.093699686 0.25033492 0.21004131 0.2200648
000230 b9 b4 1e 3d 41 85 14 3e cf d9 88 3e b7 d8 32 3e
       0.03874657 0.14503957 0.26728675 0.17465483
000240 6c 86 00 3e aa bc 00 3e d6 ef 22 bc a8 e1 3d 3e
       0.12551278 0.1257197 -0.009944877 0.18543112
000250 8d bc 9f 3c e6 90 18 bf 40 62 05 3e a7 f3 93 be
       0.019499088 -0.595961 0.1302576 -0.2889683
000260 c4 ad 12 3e 22 f1 08 3e 6f 05 09 bf 7a 7d 64 3e
       0.14324099 0.13373235 -0.53523916 0.2231349
000270 e0 b5 93 3e 5a 43 08 bf db 2e e5 be fe cc f6 3d
       0.28849697 -0.5322777 -0.4476231 0.12050818
000280 b3 b0 db 3d ef a7 b4 be 80 4d 53 3e da e2 14 3e
       0.10727062 -0.35284373 0.20635033 0.14539662
000290 1c cd 8e be 9f bf 0f 3e 09 99 10 3e 5e f5 08 3e
       -0.2789086 0.14037941 0.14120878 0.1337485
0002a0 96 a6 36 bf 39 18 05 be 5c 9b 16 bf 6a cf ab be
       -0.7134794 -0.12997521 -0.5883081 -0.33556682
0002b0 60 d5 18 3d 70 54 3c bf 00 e8 7d 3e 16 4d 0f 3d
       0.037312865 -0.7356634 0.24795532 0.034985624
0002c0 d6 d7 78 3e f1 17 d6 bd c1 0b 03 3e 4e b8 e7 be
       0.24301085 -0.10453785 0.12797453 -0.452578
0002d0 1f cb 16 3e 26 c1 93 3c a1 5a ef 3d cf 50 15 bf
       0.14725922 0.018036436 0.11687208 -0.5832643
0002e0 db b5 b6 bd 3a c8 3e 3e d3 c3 1b bf 46 d7 67 3e
       -0.08921405 0.18631068 -0.6084568 0.22640714
0002f0 d1 8f 41 3e d1 57 d4 3d 75 b8 36 3e 40 8c 79 3e
       0.18902518 0.10368312 0.17843802 0.24369907
000300 d8 ff 91 be 36 f4 9b 3d e3 08 a8 3d 70 dc 05 bf
       -0.28515506 0.07614939 0.0820482 -0.52289486
000310 c0 5d 1b 3e 5a 50 6d 3e 03 76 37 ba 69 01 a5 3d
       0.15172482 0.23175183 -0.0006998481 0.080569096
000320 ec 16 8e 3e 5f e9 77 be 1f b0 19 bf b4 73 14 3e
       0.27751863 -0.24210118 -0.60034364 0.14497262
000330 ff 75 f4 3d 4b 8c 58 be 1a 44 27 bf ca a1 4d 3e
       0.119365685 -0.21147268 -0.6533829 0.20081249
000340 47 d7 a8 be f2 52 01 3e a9 36 05 3e c9 23 2b 3c
       -0.32976744 0.12629297 0.13009132 0.010445544
000350 bb 5e 89 3d 73 19 30 3e 2f fa 39 3e 8d 01 02 3d
       0.067075215 0.17197208 0.18161844 0.03173976
000360 df 7b de 3d 8c 03 d4 be 1e e1 58 be 1b 92 ff be
       0.1086347 -0.41408956 -0.21179625 -0.49916157
000370 6d 9b 28 3e 29 6d cc 3d 10 c8 74 be 7e 32 a9 be
       0.1646554 0.09981758 -0.23904443 -0.33046335
000380 de c0 15 bf ed 56 13 3d 41 20 84 be 12 61 09 3e
       -0.58497417 0.03597157 -0.25805858 0.13415936
000390 00 52 ef 3d 8b 5a e4 be a7 62 14 3e a2 d1 82 bb
       0.11685562 -0.4460033 0.14490758 -0.0039922753
0003a0 8a 82 89 bd 4d d8 a3 3d 51 aa a2 3d 58 93 88 be
       -0.067143515 0.080002405 0.079426415 -0.26674914
0003b0 64 62 fc 3d 27 2a 5f 3e df 1d a5 be f9 97 42 3e
       0.12323454 0.21793424 -0.32249352 0.19003285
0003c0 2d 91 58 3e c8 32 e9 3d be f0 b4 be 3b 0b 97 3d
       0.2114913 0.11386639 -0.35339922 0.07375189
0003d0 1d 7f dc 3d ce 78 dd 3d 5e d9 6d 3e db e9 23 3e
       0.107664324 0.10814057 0.2322745 0.16007178
0003e0 95 79 15 3e e1 20 c2 be f5 80 f5 bd 97 f4 0e 3e
       0.14597161 -0.3791571 -0.11987487 0.13960491
0003f0 42 f0 2c 3e 04 4e 5d 3d 92 7b 28 be 9f 9c f7 be
       0.16888526 0.05402948 -0.16453388 -0.4836168

output_conv.bias f4 [7]
000000 54 b5 af be 33 cb 5e 3d 7b f5 88 3e 8b 50 14 3e
       -0.3431803 0.054393005 0.26749787 0.1448385
000010 43 16 25 3d 8e 5d b6 bd 82 df 40 3d
       0.040304434 -0.08904563 0.047088154
