training/trained_models/model_standard-mt_geology.pth (torch, 906103 bytes, 20 tensors)

conv1.weight f4 [64, 2, 3, 3]
00000000: 905a 47be b7d7 bf3d 4f69 62be e007 6cbe
00000010: 3d75 fa3b a35c bc3d 8258 6fbe 2199 933d
00000020: d279 f9bc a0fd 243e b2dd 05bd 4869 1abe
00000030: 6a40 01be eb21 cc3d 0da7 c93d f0fd 0ebe
00000040: 0d17 c0bd b88d 8c3d f7bb 8f3d 6d9d 4ebd
00000050: 892b 20bd 6df3 67be 27c7 38be f331 cfbd
00000060: 562d 08bc cb1d 57bd a89d a63c 1412 51be
00000070: c2fe 0cbe a850 443e 4817 b73b 6291 98bd
00000080: c458 053e 6317 c63d c506 043e 3357 6fbe
00000090: 64f1 643d 819e 133e e02a 13be eb96 0bbe
000000a0: f8d8 833b c553 e3bd 66c9 19be 7df7 6c3d
000000b0: 2b42 19bc f7f5 06be a0f9 023e ac1c 1bbe
000000c0: 5589 9cbd 2488 703e 8f98 93bd c832 2ebe
000000d0: 41f4 b9bc 36f6 063d 881a 16be 9bae 9f3d
000000e0: 7362 f6bd 8131 173d ef8c 70be c15b 3bbe
000000f0: ed18 023d 9032 6a3e a509 6abe bfb1 c2bd
00000100: 8548 d6bd 0d7e 3dbe 20c5 e83d 901c 11bd
00000110: 0193 493e 5e93 21be 66e7 263c 421f 503e
00000120: 92e2 5d3e 50d4 10be 5c49 0bbe e175 e03d
00000130: 6eb2 17be eef1 a63d 5eaa f1bd e4d2 173e
00000140: b71c 553b 6dae 0ebc 7a8c fa3d 4c9e 1abe
00000150: 2065 01be d98a e8bb 627d e7bc cc2e 213e
00000160: 213b d0bc 2791 dabd aa53 c7bd 1c55 01be
00000170: b672 303e 4124 65bd 882e c93d 270c 2fbe
00000180: feb5 24bd 2cfc 223e 4c9e c8bb 28b9 03bd
00000190: 67b1 7e3d bdf3 663e 490b 933d d6de 7f3c
000001a0: bfd4 ddbc 9c8d 28be 4f90 bbbd 8d0d 183d
000001b0: 7035 dc3d c77e ff3d d7fa 5fbe 48c8 0b3d
000001c0: 6470 52be cade 0f3e 0287 47be bd42 92bd
000001d0: f6f1 be3a b804 0dbd 9c1f 6ebe e630 b83d
000001e0: 500d 9dbd c92c 43be 7c8c 123e ac09 38bd
000001f0: 131d 60be 0e92 9c3d 786d e53b a45b 12be
00000200: 2899 88bd 8c3b c73d dd01 02bd 82dd 19be
00000210: ed9f 71bd f239 41be edd2 1e3e 7571 29be
00000220: 3bb9 413d cd36 923d 188d c1bb f422 89bd
00000230: 0592 1abd 2577 913d 78d7 d4bc 38f2 6e3d
00000240: f682 5fbe 7014 34be 7f35 fc3c 6948 9a3c
00000250: c3df b83d 8c9a be3d e02e 5fbe ec62 48be
00000260: f412 32be a10a 0f3e 9c5e 3b3e 186a 57be
00000270: f945 293e 65d4 073e e6ef 42be d3ce 13be
00000280: d314 f7bd eb57 b53c 6aab 84bd b35e 7c3b
00000290: 3444 9bbd 98bb c73d 5be4 17be 59f8 c8bd
000002a0: f31a 3d3e 96ee 60be 6257 eb3d 794c a03c
000002b0: 8517 693e 5474 19be 4453 0d3e 2310 3e3d
000002c0: c11b c2bc 12f8 31bc 7419 893d e996 af3d
000002d0: d77e 59be f9c4 9a3c d700 bd3c ff0a e2bd
000002e0: 19d9 adbd 905d 033e 874f 2b3e 424e 60be
000002f0: c7f4 d23d fb5b a53d 8fce b23b 498a 2f3e
00000300: 5664 c23d 4164 aa3d f820 12be 0b5c fa3d
00000310: fe76 493e bd52 26be 7913 743d a19a c0bd
00000320: 152d 3d3b 9479 f6bd b911 203d eb0a 07be
00000330: 933f d7bd 6d60 31be 8ec6 09be 07a0 163e
00000340: a65d df3d 91fc 9f3a d382 363e ad0b 47be
00000350: de31 543e 7486 fbbd ef8e f13d 49b8 b3bd
00000360: 16a8 593e 3e10 34be a3b3 823d c8e5 6e3e
00000370: fec7 91bd 7d84 1a3e b8dc 743c f9f2 80bd
00000380: 9811 c7bd 81bb 393e 0024 6fbe 1eda 6fbe
00000390: 99bc 7dbd 7bae 28bd b301 673c 965d 103d
000003a0: 5e54 5f3e 4c21 f63d 8771 e43c 9867 8ebd
000003b0: a773 babc 25f3 c53d ce5e 6d3e 7c12 db3d
000003c0: 9cc2 ebbb 1989 2abe 114e 313e db10 b63d
000003d0: 2051 0a3e b1d9 30ba 162a 563d 1b61 1ebe
000003e0: 0b68 3a3e dc53 69be 217a 5e3e 58a2 cc3d
000003f0: a6a1 36bd a6ef a13d 96f0 703e 9a63 a43d
-0.1946814 0.09367316 -0.22110485 -0.23049879 0.0076433704 0.091973566 -0.23373607 0.072069414
-0.030453596 0.16112375 -0.03268213 -0.15079224 -0.12622228 0.09967407 0.098463155 -0.13964057
-0.093793966 0.06862968 0.07018273 -0.0504431 -0.03910402 -0.22651453 -0.1804472 -0.10116949
-0.00831159 -0.052518647 0.020338848 -0.20417053 -0.13769057 0.19171393 0.005587492 -0.074496046
0.13022143 0.096724294 0.12893207 -0.23373108 0.05589427 0.14415933 -0.14371824 -0.1363179
0.0040236674 -0.11099962 -0.15018234 0.05785321 -0.009354155 -0.13179766 0.12790537 -0.15147656
-0.076433815 0.23489434 -0.072068326 -0.17011559 -0.022699477 0.03294965 -0.14658558 0.07796975
-0.120304964 0.036912445 -0.23491262 -0.1829672 0.031762052 0.2287085 -0.22855242 -0.095065586
-0.10463051 -0.18505116 0.113657236 -0.03542763 0.19684984 -0.15778872 0.010187006 0.20324424
0.21668461 -0.14143491 -0.13602203 0.109599836 -0.1481416 0.08151613 -0.11800073 0.14826542
0.0032518336 -0.008708579 0.12233825 -0.15099448 -0.12636232 -0.00709663 -0.02825803 0.15740508
-0.02541882 -0.10672217 -0.097327545 -0.12630123 0.17231259 -0.055942778 0.09823328 -0.1709448
-0.040212624 0.15916508 -0.006122386 -0.032159 0.062180903 0.22553916 0.07179887 0.015617093
-0.027078984 -0.1646027 -0.09158384 0.037122298 0.1075238 0.12475353 -0.21873032 0.03412655
-0.20550686 0.14049831 -0.19485095 -0.071416356 0.001456796 -0.03442833 -0.23254246 0.08993702
-0.07668555 -0.19060053 0.14311403 -0.0449311 -0.21886091 0.07645045 0.007001575 -0.1429277
-0.06669837 0.097281545 -0.03174006 -0.15025905 -0.058990408 -0.1886976 0.1551015 -0.16547187
0.04729579 0.07139359 -0.0059067123 -0.0669612 -0.03773691 0.07102803 -0.02598165 0.058336467
-0.21827301 -0.17585921 0.030787228 0.018833356 0.09027054 0.09306821 -0.21795225 -0.19568986
-0.17390043 0.13968898 0.1829781 -0.21036565 0.16530599 0.13264616 -0.19036826 -0.14434366
-0.12064519 0.02213665 -0.06478007 0.0038508594 -0.07581368 0.097525775 -0.14833204 -0.098129936
0.18467312 -0.21966013 0.11491276 0.019567715 0.22762878 -0.14985782 0.13801295 0.046402108
-0.023694875 -0.010862367 0.06694308 0.08573706 -0.21239792 0.018892752 0.02307169 -0.110372536
-0.08488674 0.1282866 0.16729556 -0.21904853 0.10300594 0.080741845 0.0054567526 0.17142595
0.09491794 0.08319903 -0.14270389 0.12224587 0.19674298 -0.162425 0.059588883 -0.09404493
0.0028865982 -0.12034908 0.0390794 -0.13187759 -0.10510173 -0.1732194 -0.13454649 0.14709483
0.10906534 0.0012206008 0.17823343 -0.19438048 0.20722148 -0.12281504 0.117948405 -0.08775384
0.21255526 -0.17584321 0.06381919 0.23329842 -0.071182236 0.15089603 0.014945202 -0.06296343
-0.097201526 0.18137933 -0.23353577 -0.23423049 -0.06194744 -0.041182023 0.014099526 0.0352455
0.21809527 0.120180696 0.027886165 -0.06953353 -0.022760225 0.09665517 0.23180696 0.10696885
-0.00719483 -0.16653861 0.17314936 0.08889934 0.13507509 -0.0006746306 0.05228623 -0.1546673
0.18203752 -0.22785896 0.21726276 0.09991902 -0.044587754 0.079070374 0.23529276 0.0802681

conv1.bias f4 [64]
00000000: 44a5 4d3e ebef a13d 8222 79bd 758f 64bd
00000010: be5f 6bbe 433b 573e ecf1 6bbe 311f d43d
00000020: 86f3 c73d 1fc1 18be 361a 483e 6ab1 ddbd
00000030: cc9f b3bd 3416 4fbc ca5b 6b3c 5979 143e
00000040: 623b dbbd 4cdd 9bbd 4d02 423e 4299 3dbc
00000050: f8d5 0d3e 0edd 37bd dc33 3a3e 30f6 013e
00000060: 5398 e23a 3130 2a3e 2c62 25be 4ea3 103e
00000070: 92f4 1c3e 2237 a0bd 1c79 34be 4769 183e
00000080: 60a4 60be 5d13 1c3e 0b25 d6bd bf2c 72bd
00000090: 1bb5 1ebe f8e4 d43d 42ba 693b 7446 bdbd
000000a0: f33b c33d 2adb 2ebe a4ac debd c6d0 683e
000000b0: 0589 273e 88aa 80bd cba8 663e 034e 4c3d
000000c0: a81c 943d bab2 543e 8c40 aebd 0429 b4bd
000000d0: 8b2d 3abe 28b4 883d 58fd 09be b14f b33c
000000e0: 800a 8e3c 923d 193e 119e 263e f596 06be
000000f0: 760a abbd 1247 bebd 0b45 a73c 8e58 4ebc
0.20082575 0.07907089 -0.060823925 -0.055800874 -0.22985741 0.210187 -0.23041505 0.10357512
0.09763245 -0.1491742 0.19541249 -0.10824855 -0.08770713 -0.012639571 0.014365146 0.14499415
-0.10704686 -0.076105684 0.1894619 -0.011572184 0.13851154 -0.04488855 0.18183845 0.1269157
0.0017287828 0.16619946 -0.16150731 0.14124796 0.15327671 -0.07823016 -0.17624325 0.1488391
-0.21937704 0.15241762 -0.10456284 -0.059124704 -0.15498774 0.10395235 0.0035663997 -0.092419535
0.09532919 -0.17075792 -0.10872772 0.22735891 0.16360863 -0.06282526 0.22525327 0.049879085
0.07232028 0.20771304 -0.08508405 -0.087968856 -0.18181436 0.06674987 -0.13475549 0.021888586
0.017338991 0.14964893 0.16271235 -0.13143523 -0.08351605 -0.09290899 0.020418664 -0.012594355

bn1.weight f4 [64]
00000000: 2d10 803f 9f7a 7f3f 5a3c 7f3f e468 803f
00000010: 9611 803f 1ed5 7f3f a24f 803f a881 7f3f
00000020: e8f5 7f3f 1951 803f 6d3a 803f 3199 7f3f
00000030: 4d41 803f 7834 803f 629c 7f3f 091e 803f
00000040: d089 7f3f bc0d 803f fb2f 803f 4135 803f
00000050: b50b 803f 5b05 803f 3221 803f 20df 7f3f
00000060: e602 803f c53b 7f3f 8227 7f3f c524 803f
00000070: 79dd 7f3f 6736 7f3f 86cb 7f3f 3134 7f3f
00000080: 4c86 7f3f 6f52 803f 9133 803f d303 803f
00000090: 0600 803f 690a 803f 54ee 7f3f 6efb 7f3f
000000a0: 0338 803f 924c 803f f942 803f 4397 7f3f
000000b0: fcd3 7e3f 4bba 7f3f 4a5c 7f3f f21c 803f
000000c0: 2cd4 7f3f eff6 7f3f 4bfd 7e3f 08cf 7f3f
000000d0: 3c08 803f 5278 7f3f 1f16 803f bc0f 803f
000000e0: 8177 803f f926 803f e31c 803f 4550 803f
000000f0: 404e 803f d421 803f d1dd 7f3f 712f 803f
1.0004936 0.9979648 0.99701464 1.003201 1.0005367 0.99934566 1.0024302 0.99807215
0.999846 1.0024749 1.001783 0.99843127 1.0019928 1.0016012 0.99847996 1.0009166
0.9981966 1.0004191 1.0014642 1.0016252 1.0003573 1.0001634 1.001013 0.99949837
1.0000885 0.99700576 0.9966966 1.0011221 0.99947315 0.99692386 0.9991993 0.9968901
0.99814296 1.0025157 1.0015737 1.0001167 1.0000007 1.0003177 0.99973035 0.99993026
1.0017093 1.0023367 1.0020438 0.9984018 0.9954221 0.99893636 0.99750197 1.0008833
0.99933124 0.99986166 0.99605244 0.9992528 1.0002513 0.9979297 1.0006751 1.0004802
1.003647 1.0011894 1.0008816 1.0024496 1.002388 1.0010324 0.9994784 1.0014478

bn1.bias f4 [64]
00000000: 7d26 5b3a bdb9 05bb 289e df39 eee0 243a
00000010: e72a b8b9 33cc 8dba 1ede e939 b9e2 d83a
00000020: 6b3b b03a 91f7 523a c3b9 623a bb19 e839
00000030: 1a09 e33a 5290 173a 17bf a1ba e7d9 a13a
00000040: f148 2cba 1608 89b9 d1c9 383a 7bcc f13a
00000050: 5470 3eb9 3877 caba d791 7e3b dd4c 063b
00000060: f024 b23a 063e 3abb 3dc7 41b9 56ca daba
00000070: f387 183b 7ca3 60bb 56d6 d8ba 71f1 f2ba
00000080: b6e5 5dbb 2965 e03a 6056 c13a c905 e13a
00000090: ebfb d1ba 2e3a e5ba e771 b7ba f0ba c33a
000000a0: 6f82 653a 6124 e0ba c870 763a f0b5 baba
000000b0: 5b99 78bb 1bd9 b7ba 0279 14bb a6f2 d03a
000000c0: 3e4b c03a e1ec 1fbb 722a 4abb b950 c4b8
000000d0: 6ac6 52ba a807 78ba 26b5 88ba 7948 4c3b
000000e0: 5783 823b dfe3 813a c663 083b 3ca6 0639
000000f0: 445b ea39 321e 9c3a 9514 4bba bcfb a4b9
0.0008359922 -0.0020404898 0.0004265171 0.00062896207 -0.0003512718 -0.0010818302 0.00044606713 0.0016547061
0.0013445442 0.00080477545 0.00086488965 0.0004426966 0.0017321438 0.0005781698 -0.0012340274 0.0012348265
-0.00065721484 -0.000261367 0.0007049116 0.0018447781 -0.00018161657 -0.0015446907 0.0038844252 0.0020492591
0.001359133 -0.0028418317 -0.00018480136 -0.0016692381 0.0023274391 -0.0034277132 -0.0016543369 -0.001853509
-0.0033858842 0.0017119992 0.0014750473 0.0017167862 -0.0016020512 -0.0017488652 -0.0013995738 0.0014933031
0.0008755093 -0.0017100686 0.0009400961 -0.0014244895 -0.0037933204 -0.0014026494 -0.0022655134 0.0015941455
0.0014670861 -0.0024402665 -0.0030848053 -9.361044e-05 -0.000804043 -0.000946159 -0.0010429963 0.0031171127
0.003982942 0.000990983 0.0020811423 0.00012841163 0.00044699956 0.0011910854 -0.00077469024 -0.00031468074

bn1.running_mean f4 [64]
00000000: b6cb fc3d 525a fbbd 4370 d3bd f2c2 4abe
00000010: d16c 85be 5df5 5b3e 8d22 a3be 3194 1dbc
00000020: 0144 c13a 5cc7 86be 2d8a ea3d 8a46 7dbe
00000030: d781 7dbd b988 fb3d 1c5e 2e3e 5e29 2f3e
00000040: dcc2 d3bd 8ce5 39be 2f9e 343d fc30 783b
00000050: 09e0 8d3e bc96 8bbc daf1 423e 4386 0f3e
00000060: 03ea 813d 26db 98bd 20fb 1d3c 6485 323e
00000070: f9b5 543e fdd8 1bbc 3cc9 5bbe 760c a3bd
00000080: e501 6ebe d723 873d daa2 813c c164 b5bd
00000090: b3df 5bbe 7c41 883e c7f7 58bd e5cf 5cbd
000000a0: dac2 1a3d 86b6 79be 0f1d e7bd 7174 f13d
000000b0: a2ce ab3a 1967 0c3e 2238 e73e 1f28 d5bc
000000c0: 5b00 6f3e 23f7 fd3d df8b 0c3e 3d0d dfba
000000d0: 10d9 ffbd 999c 57bd cdbc 1bbe 1af5 513a
000000e0: 9e18 b93d 484d d03d 1c26 d73e fbb4 59be
000000f0: 5c1b 3dbe ae76 3bbe 6ee8 143d 8c71 173d
0.12343542 -0.122730866 -0.103241466 -0.19800928 -0.26059583 0.21480317 -0.31862298 -0.009617851
0.0014744998 -0.26323974 0.11452136 -0.2473394 -0.061891403 0.12281937 0.17028087 0.17105624
-0.10339901 -0.18153971 0.044096168 0.0037870994 0.27709988 -0.01703965 0.19037572 0.1401606
0.06343462 -0.07463674 0.009642392 0.17433697 0.20772542 -0.009512183 -0.21463484 -0.07961361
-0.2324291 0.06598633 0.015824724 -0.08857108 -0.21472053 0.2661246 -0.052970674 -0.0539092
0.03778348 -0.24386033 -0.11284839 0.117897876 0.0013107846 0.13711204 0.45160013 -0.026020108
0.2333998 0.12400653 0.13725232 -0.0017017495 -0.12492573 -0.052639578 -0.1520874 0.000800924
0.090378985 0.1017099 0.42021263 -0.21260445 -0.18467468 -0.18306991 0.036354475 0.03697352

bn1.running_var f4 [64]
00000000: eb57 f23c 7988 ce3c ac6d 303c 441d 2d3d
00000010: 1a6b b43c 8ae3 733c baef e63c 4e9e 8d3c
00000020: 4b91 bb3c 976d a43c 7a24 c73c cfe3 993c
00000030: cf74 843c d3e6 b43c 05b3 1a3d 6b63 613c
00000040: 96f8 2e3d f614 243d 4645 013d b8d8 ef3c
00000050: 471e aa3d 30ac 823c 9cec a13c 7b58 2e3c
00000060: a188 393d 306f 2b3d 70b9 0f3d 347f cd3c
00000070: 5631 223d e005 1c3c ebc9 d33c 6f18 3a3d
00000080: f245 a93c 5038 063d 2b85 9f3c fa76 1e3d
00000090: aca6 403c 3a21 3e3d 1b39 4a3d 6e9a 0f3d
000000a0: b871 b63c 51ad d13c c013 093d 7071 923c
000000b0: 3320 2f3d 30c4 e33c 5db6 503d 515d 373d
000000c0: cc10 4c3d 613d c83c b2da 023d 1683 503c
000000d0: b317 bc3c 53f8 773c ae4c 973c 7282 dc3c
000000e0: 9b9f 633c b3d1 823c b4d6 513d d26e 923c
000000f0: cafe b63c e83f af3c 7925 2f3d c980 fc3c
0.029582938 0.02521156 0.010768335 0.042264238 0.022023726 0.0148857925 0.028190482 0.0172874
0.02289643 0.020071788 0.024309386 0.018785385 0.01616898 0.022082722 0.037768383 0.013756613
0.04271754 0.040059052 0.031560205 0.029278144 0.08306556 0.015951246 0.019766144 0.010641213
0.045296315 0.041854084 0.035088956 0.02508507 0.03959783 0.009522885 0.025853118 0.045433458
0.020663235 0.032768548 0.01947268 0.038687684 0.011758488 0.046418406 0.049370866 0.035059385
0.022271022 0.025595339 0.0334661 0.017876357 0.042755317 0.02780351 0.050955165 0.044766728
0.049820706 0.02444333 0.031946845 0.012726566 0.02296052 0.015134889 0.01846918 0.02691767
0.013893033 0.015969133 0.051230147 0.017875109 0.02233829 0.021392778 0.042760346 0.030823128

conv2.weight f4 [128, 64, 3, 3]
00000000: 7b41 dfbc d426 1b3d 7186 29bd e0e5 d7bc
00000010: 69ce a93c b12c 51bb 3d65 ea3b 7d34 d13c
00000020: 86cb 0f3d f412 923c 74f7 6aba 2b6e 05bd
00000030: 55ef 4cb9 087f e2bc 660f 09bd 683b a7bb
00000040: e020 c13a c674 023d a35a e0bc e711 49bc
00000050: c9cd 7a3c 9923 f6bc 91e7 f33b dd73 0d3d
00000060: 4600 c9bb 214c 75bc 3a6e 21bd 7a59 af3c
00000070: c37d 99bc b2a4 0fbc c5a1 6e3c 805b 33bc
00000080: d61b e9bc b39d d93c fb8e 00bc e087 923c
00000090: 1ce1 c43c 72a7 393c 840b 0a3c 31d5 923c
000000a0: dd21 25bd 6960 683c 9ed3 1fbd b03d c53c
000000b0: f31b 283d 5cf8 22bd 23f4 eebc 0368 f3bc
000000c0: 3cbb 8a3c de20 e33c 6a59 1d3d b61d a63c
000000d0: f0af da3c 4132 96bb f35a 11bd b736 2abc
000000e0: bebb 943c b380 8f3c 6e85 9d3b 1556 cfbc
000000f0: 2222 1dbd dd3f eb3c 3c04 ec3c e542 f4bb
00000100: 2ab2 a1bc 9475 aa3b 809b e8bc 469d ba3b
00000110: 2ea0 d2bc c430 f9bb 25b1 d13b 77da 923c
00000120: 1a83 4cbc 52bc fabc 6c36 a4bc cb1f 273b
00000130: ba2b 0ebd 6038 033d f708 18bd c41d 2e3b
00000140: 83e2 27bd fe1e 6cbc 8866 a33c 04ac aebc
00000150: 5188 cdbc ac03 b0bc fd89 50bc f7a3 03bc
00000160: df23 1a3d 5f90 c9bc dd4f 23bd 03d7 23bd
00000170: c290 023d afb1 7aba 3cb9 8f3b 8bcf 0cbd
00000180: 8911 85bc fe04 073d 6ecb d9bc 4cb4 813c
00000190: 2818 24bd 8db7 9ebc 444a 8abc 2e0e bd3c
000001a0: 768a 2abd 621d 4d3b 6968 873c c666 56bc
000001b0: 5d3d bf3c 3bd9 943c 3b52 013d 3428 ecbc
000001c0: a229 c3bb 543a 28bd 2b86 99bc 84dc a6bc
000001d0: c6c8 1e3c 3d74 9a3b 32b7 01bd 8411 253d
000001e0: fecf 23bc 8cb2 773c 17c8 e4bb b52e ff3b
000001f0: 3a8f a7bc 06f1 ea3c 4ab7 e93c a772 02bd
00000200: c74d 003d d879 b8bc aba8 d43c 09a1 ae3c
00000210: 135a 5ebc 23e6 c1bc ce7f 0d3d 43a0 d3bb
00000220: 60e8 02bd e633 ef3c 1e9a 293d 29d3 453c
00000230: 3eb4 fb3c c7bc 85bc bda8 9b3c 2b2b 153d
00000240: 8498 7abb 1594 603c aafd 713c 9a66 c1bc
00000250: 4bd5 b43b 3fc7 bdbb b956 e6bb 26a8 55bc
00000260: 4888 9e3b 0270 123d fd05 7b3c acd5 cf3b
00000270: 0ad3 f8bc 0639 e13c ca08 43bb 03e8 283d
00000280: a469 a0bc d1b1 8fbc ce9e 51bb 59f9 22bd
00000290: 7261 fc3c 3aef d7bc 04f7 223d f76a da3c
000002a0: 2e47 64bc 9fb5 72bc 88e1 a5bc 0ca3 bb3b
000002b0: bcb4 18bd e318 77bc 12da e8bc 5e76 da3c
000002c0: bb59 0cbd 8b1a 213d 986d b1bc 38f7 b7bc
000002d0: 6efd 5239 4a5e e63c c589 15bd 5482 083c
000002e0: 8e3f 1cbd 2bce e83c c986 123c bb39 083c
000002f0: ec90 de3c 5a65 113d 6d3d 233d 732c 083b
00000300: 6bfc 21bd 5f73 1b3d 0f86 dcbb 1f9d ffbc
00000310: 2672 d2b9 ddfe 18bc bb9a 253c 36d8 0c3d
00000320: aa66 323c 0362 afba 778d f23c 9085 cfbc
00000330: 5f66 123c 47c3 1e3b 75af 4bbc 7881 67bc
00000340: cec1 113c 180e eb3c 834b 913c ee73 18bd
00000350: 0cb7 01bd 6ba6 f2bc 311b ebb9 56cb 01bd
00000360: 3a5c cd3c 84f6 2a3d 4c96 2ebc 2df6 e6bc
00000370: 0792 09bd b68b a7bc d85e 6c3c 2a84 33bc
00000380: 4786 94bc 0c1e 14bd 21fe bfba 97f9 77bc
00000390: da4f 80bb d607 27bd 666d c8bc f966 e1bc
000003a0: f9b8 25bd 2de2 8cbb 81ad ba3c fddc 9bbc
000003b0: e46a fdbb 7e6b 373c 00e6 9cbc e47a 05bc
000003c0: 018e c13c f529 2e3d 44a8 ccbb e302 763c
000003d0: f601 84bc 6a85 fabc 91ba 02bd 70b4 063d
000003e0: be3a bc3c 6693 ad3a a3b2 33bc 14e5 1dbd
000003f0: 5de0 b8bc a7e4 8d3c 4661 be3c 738f be3c
-0.027252903 0.037878826 -0.04138798 -0.02635473 0.020728307 -0.0031917507 0.007153182 0.025537724
0.035106204 0.017831303 -0.0008963265 -0.032575767 -0.00019544114 -0.027648464 -0.03346195 -0.0051035173
0.0014734529 0.031849645 -0.027386969 -0.012272335 0.015307852 -0.030046271 0.0074433764 0.034534324
-0.006134066 -0.014971764 -0.03941176 0.02140497 -0.018736726 -0.008767294 0.014564936 -0.010947108
-0.028455656 0.026564455 -0.007846589 0.017887056 0.024033122 0.011331426 0.008425597 0.017923923
-0.040315498 0.014183142 -0.039020173 0.024077266 0.04104228 -0.039787635 -0.029169148 -0.029712683
0.016934983 0.027725633 0.03841535 0.02027784 0.026695222 -0.0045836275 -0.035487127 -0.010389022
0.018155929 0.017517423 0.004807166 -0.025309602 -0.03836263 0.028716976 0.028810613 -0.0074542635
-0.019738276 0.0052020047 -0.02839446 0.005695018 -0.025711145 -0.0076046903 0.006399291 0.017926438
-0.012482429 -0.030607376 -0.020045482 0.0025501128 -0.03470967 0.032036185 -0.037117925 0.0026568035
-0.040987503 -0.014411686 0.019946352 -0.021322258 -0.025089415 -0.021486126 -0.0127282115 -0.008034698
0.037631866 -0.024604974 -0.039871085 -0.039999973 0.031876333 -0.000956322 0.0043860953 -0.034377616
-0.016243713 0.032963745 -0.02658626 0.015833043 -0.0400621 -0.019374633 -0.016881116 0.02307805
-0.041635953 0.003129803 0.016529279 -0.013086027 0.02334469 0.01816999 0.03157256 -0.028827764
-0.0059558908 -0.04107125 -0.018740734 -0.020368822 0.009691423 0.0047135637 -0.03166885 0.040299907
-0.00999832 0.0151182525 -0.0069818604 0.0077875503 -0.020454038 0.028679382 0.028529782 -0.031847622
0.031324174 -0.022519037 0.025959333 0.021317022 -0.01357128 -0.023669308 0.034545712 -0.0064583137
-0.03195989 0.029199552 0.041406743 0.01207427 0.030725595 -0.016325368 0.01900136 0.03641812
-0.003823788 0.0137071805 0.014769951 -0.023608495 0.0055185906 -0.0057915743 -0.007029381 -0.013040578
0.0048380233 0.03575135 0.015321252 0.0063426103 -0.030374069 0.027493011 -0.0029759877 0.04123689
-0.019581623 -0.017540844 -0.0031985524 -0.039788578 0.030808184 -0.02635919 0.039786354 0.026662333
-0.013932986 -0.01481381 -0.020249143 0.005726224 -0.037281737 -0.015081617 -0.028424297 0.02666777
-0.03426526 0.039331954 -0.021658704 -0.02245675 0.0002012157 0.028121132 -0.03650834 0.008331854
-0.038146548 0.028418621 0.008943268 0.008314545 0.027168714 0.035497047 0.039853502 0.0020778447
-0.039547365 0.037951823 -0.006729848 -0.03120285 -0.00040139369 -0.009338108 0.010107691 0.034385882
0.010888735 -0.001338065 0.029608471 -0.025332242 0.00893554 0.002422528 -0.012431969 -0.014129989
0.008896304 0.028693244 0.017736202 -0.037219934 -0.031668708 -0.02962037 -0.00044842952 -0.031688057
0.025068391 0.041739002 -0.010655951 -0.028193558 -0.03358653 -0.020452362 0.014426909 -0.010956803
-0.018130435 -0.036161467 -0.001464788 -0.01513519 -0.003915769 -0.040778957 -0.024466228 -0.027514922
-0.040459607 -0.004299423 0.022787811 -0.019026274 -0.0077336896 0.011195062 -0.019152641 -0.008146975
0.023627283 0.042520482 -0.0062456448 0.015015337 -0.016114216 -0.030581195 -0.031916205 0.032886922
0.02297723 0.0013242781 -0.010967883 -0.038548544 -0.022567922 0.017320944 0.023239743 0.023261761

conv2.bias f4 [128]
00000000: 4084 d63c 926a 28bd 120b 233c 3131 223b
00000010: 9f8c 13bd 237e 30bc ea08 803c 5094 4bbc
00000020: 21e9 14bd 4b08 8f3c ae3a 203c d582 a6bc
00000030: c0f1 2aba b60b a73c 6807 f8bb 9378 1ebd
00000040: bb8d ec3c 3d3b 293d 6705 f43c 70f4 3cbc
00000050: a047 5d3c d3ae 0b3d 84f0 113c 3015 143d
00000060: 7ad2 1a3d 162a ccbb 0988 d13b fa19 473c
00000070: 4225 f5bb 61e6 4ebc 3c0c d83c ab8b 8fbc
00000080: 3674 bf3c d597 a73c 04b1 f13c cf93 aabc
00000090: 89ba be3c a325 9ebc c89b 783b 3c17 82bc
000000a0: 2e19 e3bc fe18 c53c 71a7 19bd 5faf 903c
000000b0: 597e 933c 5f9a 09bd a161 823c b78c 073d
000000c0: 886c ba3c 4021 393b a0ed 493c 28f6 1d3d
000000d0: d7aa 443b 0072 a4bb 0ec2 94bc 60cc b63c
000000e0: 76af d6bc 14e5 f9bc 0d4b 1b3c ff47 3b3c
000000f0: ffc9 1c3d 7d71 65b6 aa4d 8cbc 0a99 c73c
00000100: 0a81 a33c 2736 043d d7fb e8bc 1e12 033d
00000110: 4093 d3bc d630 82bc c5cf 3ebb 3a70 a13b
00000120: a5f1 c83c b34a 0ebc 4e16 573c 929d 5b3c
00000130: 1808 e7bc c765 ffbb d2e2 05bc 4d25 ca3c
00000140: 105b 2abd d177 98bc f313 dbbc 042c 293d
00000150: 5c67 9dbc 8704 9abc 3b64 d0bc e035 0a3d
00000160: f524 fb3c b3f8 9ebc 68f5 c1bb 6a60 793c
00000170: 7a21 533c 64e3 a7bc d445 653b 85e6 113d
00000180: 1c84 71bc 9065 b03c fbff d63c be28 82bb
00000190: 29b5 d1bc b609 053d 58bf 973c 0e07 52bc
000001a0: 7830 bb3b 8a8f d13c 118b e93c 8a67 0bbd
000001b0: 09ad 7b3c fbc1 ee3c 8b57 e93c c61b f6bb
000001c0: 1208 c23c fce7 1e3d 7eec dabc 6f71 093d
000001d0: 88b4 1c3d 7bbe 03bc a8c5 103d df03 3b3c
000001e0: 1403 70bc c4ac febc 1081 eabb 7a06 88bb
000001f0: 87a7 1fbd bc1e f03b 2b5e 3f3c 6b72 58bc
0.026186109 -0.04111726 0.00995137 0.0024748559 -0.03602278 -0.010772261 0.01562925 -0.012425497
-0.03635514 0.01746001 0.009779615 -0.020326057 -0.0006521009 0.020391326 -0.0075692423 -0.038689207
0.028876176 0.04131626 0.029787732 -0.011532888 0.013505846 0.034102272 0.008907441 0.03615302
0.037798382 -0.006230603 0.0063943905 0.012152189 -0.007481248 -0.012628169 0.026373021 -0.017522654
0.023370843 0.020458141 0.029503353 -0.020822434 0.023282306 -0.019305056 0.003793465 -0.01588022
-0.027721968 0.024059769 -0.0375132 0.017661748 0.018004583 -0.033594485 0.015915694 0.03309318
0.02275683 0.0028248578 0.012324721 0.03856483 0.0030009055 -0.0050184727 -0.018158939 0.02231425
-0.026206713 -0.03050474 0.009478343 0.011430739 0.038278576 -3.4189718e-06 -0.017126877 0.024364967
0.019958992 0.032278206 -0.0284404 0.0319997 -0.02582705 -0.015892427 -0.002911554 0.0049267085
0.024529288 -0.008684802 0.013127876 0.013404267 -0.028202102 -0.007794115 -0.008171754 0.02467599
-0.04159075 -0.01861182 -0.026742911 0.041301742 -0.019214325 -0.018800987 -0.025438419 0.033742785
0.03065727 -0.019405698 -0.0059191473 0.015220741 0.012886399 -0.02049417 0.0034984248 0.03562023
-0.01474097 0.021532804 0.026245108 -0.003972142 -0.02559908 0.032479964 0.018523857 -0.012819065
0.005712565 0.02558114 0.028508695 -0.03403429 0.015361079 0.029145231 0.028484127 -0.007510635
0.023685489 0.038795456 -0.026724096 0.033555444 0.038258106 -0.00804102 0.03534475 0.011414497
-0.014649171 -0.03108824 -0.0071564987 -0.0041511627 -0.038978126 0.0073278826 0.011680166 -0.013210873

bn2.weight f4 [128]
00000000: 406f 803f 96bc 7f3f 4b9d 7f3f 7b31 7f3f
00000010: 611b 803f 3000 803f 6925 803f 4d0b 803f
00000020: e3b4 7f3f fa00 803f acd3 7f3f c182 7f3f
00000030: 3dd3 7f3f 23bb 7f3f e135 803f a02e 803f
00000040: fc19 803f 285d 803f 08b5 7f3f 0496 7f3f
00000050: 0f04 803f 3601 7f3f ae13 803f 120d 803f
00000060: 1afc 7f3f 31cc 7f3f 0535 803f 9d1d 803f
00000070: 6c3a 803f 6919 803f dac2 7f3f b496 7f3f
00000080: 727b 7f3f 97c3 7f3f c8fc 7f3f d372 7f3f
00000090: 4c54 803f ea42 7f3f e9f9 7f3f 6a9f 7f3f
000000a0: 1e30 803f 1f4d 7f3f 032f 803f 6f60 803f
000000b0: a8ae 7f3f d9b6 7f3f cb28 803f 1a0d 803f
000000c0: 01dc 7f3f ee10 803f c230 803f 12df 7f3f
000000d0: 862c 803f f2ca 7f3f 6e61 7f3f 0ef2 7f3f
000000e0: 999c 7f3f d588 7f3f c4a5 7f3f 3e2f 803f
000000f0: 6f33 803f 3a6d 7f3f 4272 803f 9aa3 803f
00000100: 6bca 7f3f c879 7f3f 81f2 7f3f 4c74 7f3f
00000110: 5325 803f 1c5c 7f3f 4d71 7f3f e656 7f3f
00000120: af5c 803f eaf8 7f3f 4e29 803f 38dc 7f3f
00000130: 0a27 803f 7431 7f3f e755 7f3f 6406 803f
00000140: 5265 803f 78cc 7f3f eef3 7f3f 0f82 803f
00000150: 9429 803f 3fc7 7f3f ac4b 803f 9126 803f
00000160: da43 7f3f 1bb9 7f3f bc30 803f 1106 803f
00000170: 6830 803f 035c 7f3f 386e 7f3f 706d 803f
00000180: faa8 7f3f f3fd 7f3f a674 7f3f 0a82 7f3f
00000190: 998b 7f3f 28a7 7f3f 8ea4 803f d1d1 7f3f
000001a0: 924e 803f cfd1 7f3f 44fb 7f3f a5e4 7f3f
000001b0: 4178 803f cc60 7f3f c9f5 7f3f d539 7f3f
000001c0: 2236 803f 7154 803f 570a 803f 6771 803f
000001d0: d21a 803f 45e8 7f3f e77b 7f3f 13e5 7f3f
000001e0: cf1d 803f e11c 803f 107d 7f3f 7512 803f
000001f0: 8942 803f 2735 803f 48f8 7f3f 89de 7f3f
1.0033951 0.99897134 0.99849385 0.99684876 1.0008355 1.0000057 1.0011417 1.0003449
0.99885386 1.0000298 0.9993236 0.9980889 0.999317 0.9989492 1.0016443 1.0014229
1.000793 1.0028429 0.99885607 0.9983828 1.0001239 0.9961122 1.0006006 1.0003989
0.9999405 0.99920946 1.001618 1.0009037 1.0017829 1.0007755 0.99906695 0.9983933
0.9979774 0.9990782 0.9999509 0.9978458 1.0025725 0.9971148 0.9999071 0.9985262
1.0014684 0.9972705 1.0014347 1.0029429 0.9987588 0.9988838 1.0012449 1.0003998
0.99945074 1.0005167 1.001488 0.99949753 1.0013587 0.99919045 0.9975804 0.9997872
0.99848324 0.99818164 0.99862313 1.0014417 1.0015696 0.9977604 1.0034869 1.0049927
0.9991824 0.997952 0.99979407 0.9978683 1.001139 0.9974992 0.9978226 0.9974197
1.0028285 0.9998919 1.0012605 0.999454 1.0011914 0.99684834 0.9974045 1.000195
1.003092 0.9992137 0.9998158 1.0039691 1.0012689 0.999134 1.0023093 1.001177
0.9971291 0.99891824 1.0014873 1.0001851 1.0014772 0.99749774 0.99777555 1.0033398
0.9986721 0.9999687 0.99787366 0.998078 0.99822384 0.99864435 1.0050218 0.9992953
1.0023978 0.9992952 0.99992776 0.9995826 1.0036699 0.99757075 0.99984413 0.9969762
1.001652 1.002577 1.0003155 1.0034608 1.0008185 0.9996379 0.99798435 0.99958915
1.0009097 1.0008813 0.99800205 1.0005633 1.0020305 1.0016221 0.9998822 0.99948937

bn2.bias f4 [128]
00000000: d1c4 5a3b 1452 0bbb 49b7 3f39 7e7d a2b9
00000010: 63fa 373b 73e1 02b9 cf07 9b3a 6c95 5f3a
00000020: d400 bfba c085 8938 c6df 9cba 16c2 30bb
00000030: 24db d8ba 822c be39 a657 7dba c4e3 8e3a
00000040: 861d 913a 4c53 933b bbb9 9dba f622 6fba
00000050: d3a1 2dbb 858b c2ba f58d 3338 e40e ad39
00000060: 6354 19bb 6f4f c9ba 5775 4c3b 77bb 94ba
00000070: dda5 18b7 7c83 b3ba f493 1eba d939 63ba
00000080: 6681 c2b9 b923 5bbb 8da3 48ba 8b92 12ba
00000090: 5c4a 543b 440f 90ba 11db 41ba b4e5 44ba
000000a0: 806a 07bb 82ad 12bb 1180 bd39 82ae 583b
000000b0: 7575 633a 0055 5c39 2cee bd38 f7e3 b43a
000000c0: 5660 edba 06f3 7aba 245b d93a 5567 d23a
000000d0: 0320 4a37 d609 18bb 10c8 b3ba 4548 c23a
000000e0: d320 eeba b9b7 9f3a 6e38 c0b7 970f fe39
000000f0: a286 23b8 84d6 25bb 4b77 c73a 1883 7e3b
00000100: 8f1d ccb9 f9a2 c8ba 7318 0cbb 9930 1bbb
00000110: bab3 3fb8 697b 01bb b89a acb9 fde0 32bb
00000120: 7e29 e93a e947 e7ba 7648 663a 01c1 31ba
00000130: 543b ac3a 03b7 d9ba 2b05 16ba 02d1 d03a
00000140: 43bb 2d3b 9766 8dba c183 e0b9 3763 213b
00000150: 3497 6b3a 8a84 6e39 4030 eb39 8907 f13a
00000160: 0c69 0cbb 3f27 5038 6748 6d3a d601 84b9
00000170: 52b7 923a 98cb 61b8 ad03 15ba cf5e 523b
00000180: 4302 a4b9 54ba ccba 873e 2ebb 9706 c0ba
00000190: 8872 02bb 3127 6eba 2fe1 9f3b d6c5 74ba
000001a0: 4cda df3a 9f28 8eba 1bbb b239 d1ae 7bb8
000001b0: 7d08 9f3a ecc1 faba 505c 443a 4bfa 61ba
000001c0: 2175 27b9 f49c c73a 8339 ab3a 3625 1c3b
000001d0: 6627 413a b000 0fba 6caf 01bb 0753 00ba
000001e0: b07f a337 9fcc 4a3a 0975 fdb9 4738 a3ba
000001f0: e289 243b 59a6 04bb 2ac3 16bb 5702 053a
0.0033381472 -0.002125864 0.00018283458 -0.00030992547 0.0028072826 -0.00012481752 0.0011827889 0.00085290405
-0.001457239 6.557582e-05 -0.0011968545 -0.0026971153 -0.0016544801 0.00036272785 -0.0009664245 0.001090162
0.0011071421 0.0044960137 -0.0012033501 -0.0009122336 -0.002649416 -0.0014842605 4.2809133e-05 0.00033008226
-0.0023396246 -0.0015358756 0.003119787 -0.0011347373 -9.098524e-06 -0.0013695802 -0.00060492684 -0.0008667983
-0.00037098973 -0.003343804 -0.00076537655 -0.00055912946 0.0032392954 -0.0010990878 -0.0007395009 -0.0007511035
-0.0020662844 -0.002238125 0.00036144306 0.0033063 0.0008676865 0.000210125 9.056585e-05 0.0013800849
-0.0018110375 -0.00095729565 0.0016582948 0.0016052524 1.2047592e-05 -0.0023199222 -0.001371624 0.0014822563
-0.0018167741 0.0012185491 -2.291446e-05 0.0004845827 -3.8987615e-05 -0.0025304863 0.0015218047 0.0038835462
-0.00038931935 -0.0015307359 -0.0021376878 -0.002368009 -4.5705332e-05 -0.0019757396 -0.0003292167 -0.0027294748
0.0017788855 -0.0017645332 0.0008784601 -0.0006780774 0.001314024 -0.0016610328 -0.0005722816 0.001593143
0.0026509322 -0.001078802 -0.00042822774 0.0024625787 0.00089870696 0.00022746823 0.00044858642 0.0018389086
-0.0021424918 4.9627615e-05 0.00090516213 -0.0002517837 0.001119355 -5.383379e-05 -0.00056844467 0.0032099967
-0.00031282203 -0.0015619495 -0.0026587562 -0.0014650401 -0.0019904692 -0.00090848195 0.004879139 -0.0009337341
0.0017078607 -0.0010845846 0.0003409021 -6.0005874e-05 0.0012133267 -0.001913128 0.0007490562 -0.00086203654
-0.00015969995 0.0015229271 0.0013063404 0.002382589 0.00073682365 -0.00054551195 -0.0019788397 -0.00048951845
1.9490573e-05 0.00077361794 -0.00048343118 -0.0012452685 0.0025106599 -0.0020240752 -0.002300451 0.0005073896

bn2.running_mean f4 [128]
00000000: 0ebe 1bbe f54f bbbd cf1b d2bd c130 3e3d
00000010: d7ae a3be 5658 e73c ae79 83bd 11f9 b73d
00000020: 983f 68be 357f 273e 0f0a 2a3b 5613 723d
00000030: f3d1 593c 1a9c c33d d836 3d3c 4edc cc3d
00000040: d717 07be caac 683e f612 0fbd 73f2 20be
00000050: 9abd 46bd 8e0f 8e3e dbfc 303e 2b6e 983d
00000060: 16a1 593e 4a3a e43d 3b63 9a3d 6395 ec3b
00000070: 7367 adbd c4ba afbd d739 3e3e 580c a9bc
00000080: 20d9 47be 6e66 49bd e275 05be 6106 8f3b
00000090: 99eb 15bc ae91 2dbe ad79 023e 4773 7a3c
000000a0: 6f1e 90bd 6a1d 223d 8360 ab3d 0786 21bd
000000b0: 6914 683d 1029 993d 3f00 9b3d 2d45 903d
000000c0: 2fe0 d13d cbdb 9c3e 2bb6 c3bd ebc1 f13c
000000d0: 216e 00bd 568b 9a3d 79da 2abe d12c d6bd
000000e0: 3773 3fbe 4a75 c83d 3b0b 233e 0e5c ccbd
000000f0: 3a09 123e 7114 2fbc 431a 4ebd a04d 073e
00000100: 7ef7 3c3d 3270 ea3d 50ea f1bb c2a9 293e
00000110: bb67 9fbd afd0 d93d 5049 2d3d aece 3d3e
00000120: e0ae 57bd 8b96 73be eeb2 42be 51fe 253e
00000130: 2aab 9c3d 47f9 c43c 5dfb dfbd 8447 4cbe
00000140: c856 553e a972 74bb de9c d1bc 5b8b c5bc
00000150: 5dc7 8abd 00fb 173e dba6 403d 3f4e 4b3d
00000160: 26e2 1b3e 6ae8 113e 21c7 20be f4f3 523e
00000170: 3b7f 47b9 3515 4f3d 3b45 f5bd ffcb 1a3d
00000180: 63a6 7abd db1a b1bd d368 ee3c dec9 d73e
00000190: 9bfb 1e3e f2af 353d e6cb 84bc 0219 ff3d
000001a0: 49e1 623b 464f aabd 908b 823d 07bc 4cbe
000001b0: 847d 10be 984c 103e 1312 5cbe 124e 6bbe
000001c0: 27fb 57bc 0ce4 2f3d 41e4 903d d121 de3d
000001d0: 7691 f8bd cb43 8bbe 9a84 c23d 0859 bf3d
000001e0: 7f3b 30be c1e2 40be f2c6 37bd 8a95 e5bc
000001f0: a998 5dbe 816d a53d 5605 92bd 10a3 b4bd
-0.15209219 -0.0914611 -0.1025921 0.046433214 -0.3196933 0.028240364 -0.06419693 0.089830525
-0.22680509 0.1635712 0.0025945937 0.05910047 0.013294685 0.095512584 0.01154872 0.10002957
-0.13192688 0.22722164 -0.034930192 -0.15717487 -0.048520662 0.27746242 0.17283957 0.07442888
0.21252856 0.1114393 0.07538458 0.0072199567 -0.08466997 -0.085805446 0.18576752 -0.020635769
-0.1951642 -0.04916995 -0.1303325 0.004364774 -0.009150409 -0.16950104 0.12741728 0.015286273
-0.07037055 0.039578833 0.083680175 -0.03943446 0.05666009 0.07478535 0.07568406 0.07044444
0.10247838 0.3063644 -0.0955623 0.029511413 -0.031355027 0.075461075 -0.16684903 -0.10457767
-0.18696295 0.09787996 0.15922253 -0.099784955 0.14261332 -0.010686026 -0.050318014 0.13213205
0.046134464 0.11447181 -0.0073826686 0.16568664 -0.07783457 0.10635506 0.042306244 0.18535873
-0.05265701 -0.23787896 -0.19013569 0.16210295 0.076498345 0.024044646 -0.109366156 -0.19949156
0.20833886 -0.0037299788 -0.025587495 -0.024114301 -0.06776307 0.14841843 0.047034126 0.04963517
0.15222988 0.14248815 -0.15700962 0.20600873 -0.00019025516 0.050557334 -0.11976095 0.037792202
-0.061193835 -0.086477004 0.029102718 0.421462 0.15525667 0.044357248 -0.016210508 0.12455942
0.0034619144 -0.083159015 0.06374276 -0.19993602 -0.1411038 0.14091718 -0.2149127 -0.22979
-0.013182438 0.04294209 0.07074786 0.10846294 -0.121371195 -0.2720016 0.09497948 0.09343153
-0.17210196 -0.188365 -0.044867463 -0.028025407 -0.21640266 0.08077527 -0.07129924 -0.08820164

bn2.running_var f4 [128]
00000000: 7f00 3e3d 9cef b63d fdaa 733d 4227 0b3e
00000010: 33d9 123d ea4b 513d f4ab 113d 70ea 043d
00000020: e90c 5c3d de45 ab3d 03fb 6b3d 7233 793d
00000030: 396f d63c f5bd 983d 0b47 433d a449 123d
00000040: 86a0 2b3d 017d 5b3d 624e 523d e492 533d
00000050: 8493 3d3d 41dd 823d 8ccf 693d e73b 5a3d
00000060: 1efd 743d 0568 083d 322d a53c fe2e 0f3d
00000070: e719 a53d a5af 1d3d 4152 513d a66c 7b3d
00000080: 643d d53d de76 253d 0486 253d 36be 493d
00000090: 2983 173d 4d1a 513d d070 703d 3f7f 373d
000000a0: b90b cb3d 7aca 0c3d a522 cd3c 2710 f83c
000000b0: fbd7 553d 1a1b 683d 7058 213d fcc0 353d
000000c0: a51c c03c 2585 463d 05a8 433d 9956 d73d
000000d0: 3ee8 093d f83a 1d3d 0523 513d b821 8e3d
000000e0: d8fb 6e3d 1dd2 783d bc1d b13d 507c 3b3d
000000f0: 5f23 4d3d de96 ff3c e032 503d 881f 1a3d
00000100: b02f c63d e0f4 533d 4e46 f13c efe4 463d
00000110: cd89 063d 535a 423d 3d38 ca3d 2830 2f3d
00000120: 4471 853c 6839 1f3d 1e46 043d f7da 4f3d
00000130: b989 983d f22e ae3d 7f0d 983d a644 843d
00000140: adab 393d b76c 123d 2e35 393d 1229 7b3d
00000150: 7cbe ff3c 6c4d 963d c14e 273d 3b76 5d3d
00000160: 779c 803d 13e4 8b3d a8f2 0b3d 77a2 8e3d
00000170: dd34 703d 6048 b23d 7c60 b93d 73b2 113d
00000180: 160f 933d 32d4 223d e2e2 603d 0d54 723d
00000190: 2fc8 283d 7b7c 213d cf72 1b3d 4b89 1d3d
000001a0: 2208 933d 75ec aa3d f4d6 3b3d 9a2b 4d3d
000001b0: a6d5 0e3d 30da 793d b90a e53d a2f4 9e3d
000001c0: 652a 5d3d 1e48 6c3c 00c1 353d 169f d23c
000001d0: 3efc 993d dd69 063d a0db 3d3d b43d 613d
000001e0: 874e 553d 3295 a53d f1e1 0d3d c8d3 ff3c
000001f0: d784 393d f046 f83c e653 263d feab 443d
0.04638719 0.089324206 0.05948924 0.13589194 0.03585167 0.051097788 0.035564378 0.03245014
0.05372325 0.083629355 0.05761243 0.060840078 0.026176082 0.074581064 0.047675174 0.03571476
0.041901134 0.05358601 0.051344283 0.051653758 0.04628326 0.06389857 0.057082698 0.053279784
0.059811704 0.033302326 0.020163152 0.034956925 0.08061581 0.038497586 0.051103834 0.061382912
0.104121 0.040396564 0.04041101 0.049253665 0.03699032 0.051050473 0.058701336 0.044799086
0.09914345 0.034372784 0.025040934 0.03028114 0.05220793 0.05666647 0.03939098 0.044373497
0.023451159 0.04846682 0.047767658 0.10514564 0.03366875 0.038386315 0.051058788 0.06940025
0.058345646 0.060747255 0.086482495 0.04577285 0.05008256 0.031199869 0.05082977 0.037627727
0.096770644 0.051747203 0.02945247 0.04855817 0.03284626 0.04744942 0.09874008 0.042770535
0.01628936 0.038873106 0.03229343 0.05074593 0.074481435 0.08505048 0.07424449 0.06458406
0.04532974 0.03574821 0.04521673 0.061318465 0.03121876 0.07338986 0.04084659 0.05406783
0.06279843 0.06830611 0.034166962 0.069645815 0.058644164 0.08705211 0.09051606 0.035570573
0.07180612 0.039753146 0.054903872 0.05916219 0.041206535 0.039425354 0.037951287 0.03846101
0.071792856 0.08345882 0.045859292 0.05009041 0.03487172 0.060999095 0.11183686 0.07761504
0.05399551 0.014421491 0.044373512 0.025710624 0.075188145 0.032815803 0.04635203 0.054990485
0.052076843 0.080850974 0.034639303 0.031228915 0.0452927 0.030307263 0.040607356 0.048015587

conv3.weight f4 [128, 128, 3, 3]
00000000: 98ed ecbc 8dd5 f3bc 4583 f53c a067 b4bb
00000010: 66f0 8cbc 7e41 f03c f1ba ea3b 56ec e2bc
00000020: f1ce ad3b cfdb ae3c 986f 94bb d3be d3bc
00000030: 98a7 c23c 85e3 7cbc 08c7 8fbc 2531 be3b
00000040: 2a19 133b 7567 21bb 4aed b4bb cf7f df3c
00000050: eea9 c1bc 6a47 903c 1e60 8dbc 3db6 a33c
00000060: 2b89 933c 633b 9b3c 1289 cc3c 8ff7 eebc
00000070: 7e88 293c 4eb1 863c f715 d5bc cbe5 bdbc
00000080: dbbc 7bbc 5012 c0bc 0fec 893c 008d 06bc
00000090: b743 953b d0e1 4cbc ffd4 d13c 3e40 4f3c
000000a0: 0b8d 80bc cf56 c1bb d65a e53b b1d5 f9bc
000000b0: e72e 9b3c 814a 79bc 5a35 023b 8158 633a
000000c0: 02c7 cabb 579c 43bc f499 9bbc a050 3a3c
000000d0: 3751 463b af20 6fbc 84eb 913c 22e2 873c
000000e0: 38bb d53c 6944 803c 59c5 d3bc 71ad e8ba
000000f0: 0b09 ccbc db36 8ebc 6daf d43c a399 10bc
00000100: 47e9 f73c 4cde 0e3b 45a8 11bc 8b1e 9c3c
00000110: 1d2d 99bc bc50 cc3c f5db a93b fa6c 04bc
00000120: 9065 8cb9 bfcc 053c 7d9e 7e3c 7cda 763b
00000130: 0c3d 4abc 2756 8b3c 9798 0dbc 8374 babc
00000140: a3e1 adbb e111 23bc 6127 c8bc 35b0 99bc
00000150: 1add 283b 7644 feba c190 a5bc 05ed 7f3c
00000160: eff3 80bc 156e b93c 8465 5dbc ee87 bd3b
00000170: 0cdf a53b cb1f f03c ab78 8d3c 25ca aa3c
00000180: e70b 9d3c 20a0 cb3c 9e3c 2abb 07d7 993c
00000190: 5182 15bc 876b e73c 82a6 9bbc f059 023c
000001a0: 35bd 403a 1770 97bc 93a6 4fbc 2e04 2e3b
000001b0: 2c1e 59bc 0782 eb3c 5702 ff3b 3499 ccbc
000001c0: ffcb afbc a7b3 1a3b 4ab5 25bc 47d8 a63a
000001d0: 788d 333c 9c5d 30bc e448 ddbc 81f7 843c
000001e0: b65f 35bc d507 83bc 0a29 18bc dd11 033a
000001f0: 3617 c93c 6a30 51bc 27e7 f2bb 8080 c33c
00000200: 55c7 e7bc f741 ddbb bab0 83bc f47b d1bc
00000210: 5f35 c53c 840d 79bc 8c46 ce3c 5fe6 f9bc
00000220: 341b aa3c 0b24 82bc 3a4b 773c a835 ec3c
00000230: 08c9 ba3c b547 2dbc 372e e2bb 0bfa 4abc
00000240: 7909 2a3c 61f3 4a3c 3d63 a5bc e9f2 b23c
00000250: 1d30 09bd 3bcc 563b 2f69 97bc 6401 35bb
00000260: 8e09 1b3a af3e ccbb 91a1 3cbc 4896 8f3b
00000270: bdf6 07bc f439 123c 4673 31bc 9315 b43c
00000280: 9fc3 2b3c 71fd 17bc 068a 833c 826c ae3c
00000290: 9fd6 77bc 0575 ccbc 405c b93c 7afc 21bc
000002a0: 6cab 533c d7ad 66bc 7ffd a9bc 508e 913a
000002b0: 0a42 d13b b9c8 00bb 5ff7 20bc 8455 b8bc
000002c0: 522e 5cbc 25f1 8ebb 84c5 9d3b 8b77 6dbc
000002d0: 7a6e 453c 01f9 083c 3144 a3bc e03a d5bc
000002e0: 61eb c43c 0186 8abc 1ead 92bc ef4d fb3b
000002f0: 5dfd d03c c0cc 96bc 58ef 0d3c 9691 fe3b
00000300: 3737 99bc 4161 ac3b 417e 683c 95df b53c
00000310: 2884 5e3c 6ce4 7bbb 2dbe 6fbc 9696 50bc
00000320: 9dc7 a63c 67da 0b3d a7ec acbc a4fc 663c
00000330: 2e39 a0bc 112d 713c 5457 153c 44be bf3c
00000340: 93ec acbb 45d8 dbbc 5331 823c 6797 5a3c
00000350: 2107 df3c 3a59 c93c 8f8c 99bc 5616 ebbc
00000360: 69f7 bc3c e1ae a5bc 35ab 9fbc f174 c8bc
00000370: cf2c b33c e14f 033c 1a3a d3b9 1790 bb3c
00000380: cfbc 2f3c 72a7 73ba 98ce b63c efb2 bdbb
00000390: 6bf8 bf3c 5b6c e83a 5b11 c43c 01c2 2cbc
000003a0: 20b7 973a d735 6aba a194 6d3c 790f ea3a
000003b0: 4f13 bbbc 8ec2 d83c f52f 57bc 0ed9 c0bc
000003c0: 9848 133c 3d8d 0a3c bef9 c03c 2662 ddbc
000003d0: a9fa 97bc f4d6 be3c 9945 fdbb 768a a13b
000003e0: bbb8 cb3a c624 5e3b f059 60bc 842a 853b
000003f0: 0afd 8cbb 78b6 acbc df44 7c3b 9b06 5d3c
-0.028921887 -0.029764915 0.02996982 -0.005505517 -0.017204475 0.029328104 0.0071633984 -0.027700584
0.0053042104 0.021345047 -0.0045299046 -0.025847828 0.023761556 -0.015435104 -0.01755096 0.0058041983
0.002244542 -0.0024628316 -0.005521451 0.027282624 -0.0236406 0.017612178 -0.017257746 0.019984359
0.018009743 0.018949216 0.024967704 -0.02917078 0.010347484 0.016441967 -0.02601145 -0.023180863
-0.015364851 -0.023446232 0.016836194 -0.008212328 0.0045551914 -0.01250501 0.02561426 0.012649594
-0.015692255 -0.005900241 0.006999354 -0.030497404 0.018943263 -0.015215517 0.0019868226 0.0008672551
-0.0061882744 -0.01193913 -0.018994309 0.011371762 0.003026081 -0.014595195 0.017812498 0.01658732
0.02609025 0.01565762 -0.025850939 -0.0017751885 -0.024906656 -0.017360142 0.025962556 -0.008825692
0.030262602 0.002179998 -0.008890216 0.019057533 -0.01869827 0.02494084 0.0051836916 -0.008082623
-0.0002677855 0.008166491 0.015540716 0.0037666848 -0.012343656 0.017008854 -0.008642337 -0.022760635
-0.005306439 -0.009952993 -0.02443284 -0.01876078 0.0025766552 -0.0019399065 -0.020210626 0.015620475
-0.015741317 0.022635499 -0.013512973 0.0057840263 0.0050619897 0.029312035 0.017269453 0.020848343
0.019170715 0.024856627 -0.0025976072 0.01877929 -0.009125308 0.028249515 -0.019000296 0.007956013
0.0007352413 -0.018486066 -0.012673992 0.0026552784 -0.013251822 0.028748525 0.0077822614 -0.024975397
-0.021459578 0.0023605616 -0.010114023 0.0012729251 0.010959022 -0.010764506 -0.027012296 0.0162313
-0.011070183 -0.015994946 -0.009287128 0.0004999915 0.0245472 -0.0127678905 -0.0074128094 0.023864985
-0.028293291 -0.0067522484 -0.01607548 -0.0255718 0.0240733 -0.015200976 0.025180124 -0.030505357
0.020764925 -0.015886327 0.015093619 0.028834179 0.022800937 -0.010576178 -0.006902482 -0.012388716
0.010378235 0.012387128 -0.020188922 0.021844344 -0.03349315 0.003277554 -0.018482773 -0.0027619237
0.00059142045 -0.0062330584 -0.01151313 0.0043819286 -0.008298573 0.00892495 -0.010830706 0.021982944
0.010483651 -0.009276734 0.016057026 0.021291975 -0.015126853 -0.024958143 0.022626996 -0.009886855
0.012919288 -0.014079533 -0.02075076 0.0011105035 0.0063860463 -0.001965089 -0.009824603 -0.022501715
-0.013438778 -0.0043622428 0.0048148055 -0.014493833 0.012050265 0.008360148 -0.019929977 -0.02602905
0.024038019 -0.016909601 -0.017904814 0.0076692025 0.025511438 -0.01840818 0.008663021 0.00776882
-0.018703086 0.005260617 0.0141902575 0.022201339 0.013581313 -0.003843571 -0.014632744 -0.012731215
0.020358855 0.03414383 -0.021108938 0.01409832 -0.019558515 0.014720217 0.009115059 0.023406155
-0.0052772253 -0.026836524 0.01589266 0.013341761 0.027225079 0.02457868 -0.018743781 -0.028697174
0.023067193 -0.02022499 -0.019490818 -0.024469825 0.021871952 0.00801465 -0.00040288345 0.022895856
0.010726168 -0.00092946657 0.022315308 -0.005789153 0.023433885 0.0017732488 0.023934057 -0.010544301
0.0011574961 -0.00089344144 0.014500768 0.0017857394 -0.022836355 0.026459958 -0.013133992 -0.023541
0.008989476 0.008456525 0.023556586 -0.02702434 -0.018552141 0.023295857 -0.007729244 0.004929836
0.0015542725 0.003389643 -0.013693318 0.004063906 -0.0043026255 -0.021083102 0.0038493199 0.013490344

conv3.bias f4 [128]
00000000: 3eff 86bc 091b 953c 93f6 81bc abe5 cfbc
00000010: 77db bf3c 5d23 343c d734 04bc 2b00 a5bc
00000020: 7569 cd3b 0356 cfbc d87e 8a3b 2381 f03c
00000030: d098 e7bc 9289 603b 1425 7e3c 9539 b43b
00000040: 59cc 9d3b a68c 0bbc 2f95 44bb 79b5 b23c
00000050: b3bf d7bb 3598 223b 5b46 493b b826 f1bc
00000060: 1abd b0bc 1164 b0bc b7ee a1bb e6fa 8a3c
00000070: e577 3bbc c677 c0bc 4dae 41bb de30 2b3c
00000080: 2750 7dbc d497 90bc b1e2 123c 4e5a 4e3c
00000090: e416 66bb b6f3 953c 17c7 b73c fd44 2a3c
000000a0: fca8 acbc 0822 51bc 249e 2b3c ccba ec3c
000000b0: 851d 873c d9bf ab3c 4a25 5abc 5dc9 c83c
000000c0: 2e7c 433c 59f2 f43a 4c5f d339 eccc 193c
000000d0: d43e b1bc 1593 88bc 14d4 7f3b 64d4 d9bc
000000e0: 0c0d 933c 2db6 643c a4f1 833c 6026 edbc
000000f0: 7fbf 48bc c428 873c 11f8 a4bc 3609 09bc
00000100: 73c9 93bb 1bd0 853b 134f 9b3c 6ade adbb
00000110: f749 12bc 61bb a13c 4c3e e03c 06db 0e3c
00000120: ee0d 7c3b 09be 483a ac64 0fbc 6d09 e9bc
00000130: bcc1 e8bc 0bca ebbc e1f5 bfbc 083d 523c
00000140: 1017 d4bc 5424 b13c 880e e9bc 9a07 dbbc
00000150: f5b0 603c b38e c93c 8655 b4bb 59a3 d53c
00000160: d5e1 10bc 53db 2c3c 55a0 c8ba e592 883c
00000170: 4844 49b8 ba06 ae3c 0646 2f3c e106 1c3c
00000180: b48d c2bc 592a de3c ac9a 723b b1ef a3bc
00000190: 58b8 18bc 3f1c 4a3b f9d3 b43c 1a48 b339
000001a0: 432a 1c3b ef13 b43c c009 353c f339 6fbc
000001b0: 02d7 803b f634 ae3b 6659 723b c9fa afbc
000001c0: f5c2 a0bc 18b1 af3b b679 863c 8eb9 2c3c
000001d0: 8645 ca3c c6dc d93c 55f1 92bc a9e5 863c
000001e0: f515 c2b9 0e0e bfbc 9c88 d63c 694c 913c
000001f0: 64a8 8e3c 7d65 9c3b 0f9f 833a d4f6 a1b8
-0.01647913 0.018201368 -0.015864646 -0.025378069 0.023420079 0.010994759 -0.008069239 -0.020141682
0.006268675 -0.025309568 0.0042265467 0.029358452 -0.028271109 0.0034261686 0.01551177 0.0055000284
0.00481562 -0.00851742 -0.0029996147 0.021815049 -0.0065841316 0.002480996 0.00307121 -0.029437408
-0.021574546 -0.02153209 -0.004941787 0.01696534 -0.011442159 -0.023494612 -0.0029553354 0.010448663
-0.015461004 -0.017650522 0.00896518 0.0125947725 -0.0035108859 0.018304687 0.0224338 0.010392425
-0.021076672 -0.012764461 0.010474715 0.028897665 0.016493568 0.020965504 -0.0133145545 0.02451008
0.011931462 0.0018687948 0.00040316058 0.009387236 -0.021636404 -0.016671697 0.003903632 -0.026590534
0.017950557 0.01395945 0.016106434 -0.028948963 -0.0122526875 0.01649893 -0.020137819 -0.008364012
-0.0045100986 0.004083646 0.018958604 -0.005306055 -0.008928767 0.01974267 0.027373455 0.008719211
0.0038460451 0.0007657712 -0.008752029 -0.028446877 -0.028412692 -0.028782865 -0.023432674 0.012831934
-0.025889903 0.021623768 -0.028449312 -0.026737023 0.013714065 0.024604177 -0.0055033593 0.026078867
-0.008842905 0.010550338 -0.0015306572 0.016671607 -4.7985726e-05 0.021243442 0.010697847 0.009523124
-0.02374921 0.027119802 0.003701846 -0.020011755 -0.009321295 0.003083959 0.022073733 0.0003419526
0.00238289 0.021982161 0.011049688 -0.0146012185 0.003931881 0.005316372 0.0036979555 -0.021481888
-0.019624213 0.0053616874 0.016415458 0.010542287 0.024691354 0.02659453 -0.017937342 0.016466932
-0.00037018923 -0.023322131 0.026188187 0.01773663 0.01741428 0.0047728405 0.001004191 -7.7230536e-05

bn3.weight f4 [128]
00000000: 6ad7 7d3f 045c 813f 1a8b 823f 8a15 823f
00000010: 0455 803f 9b90 803f 2a1f 813f 3c9a 813f
00000020: bef0 813f 5a56 823f b740 823f 495e 823f
00000030: 7e81 7d3f 5060 823f dd8a 823f eb13 823f
00000040: a0ad 7d3f 6514 823f 9658 803f 6530 813f
00000050: aff9 813f 27a7 7d3f f66d 803f c080 803f
00000060: e665 813f 8a31 7f3f 3644 813f ce2d 823f
00000070: 9ea1 813f c522 823f 09b5 7d3f bf6c 813f
00000080: 2c10 823f 71de 813f 1fa5 7d3f b231 823f
00000090: 26e9 813f 7fff 803f 242c 823f de8d 813f
000000a0: 37f3 813f 91ae 803f 52e1 7f3f bef1 813f
000000b0: a69c 813f 7e6b 7f3f c33b 813f c0db 803f
000000c0: 8830 7e3f 4737 823f dd20 823f e1a4 813f
000000d0: 6af4 7f3f ba46 823f 9653 803f 1b7d 803f
000000e0: 7f82 813f 151e 803f 8ac7 7f3f 6f77 813f
000000f0: 2a42 813f 70a7 813f e109 823f ef19 823f
00000100: 611d 823f 8736 823f bd81 803f 7718 823f
00000110: 0953 823f f32d 813f 4f5e 803f 4608 823f
00000120: 03e8 813f 5b9d 803f c64c 813f 57f7 7f3f
00000130: 4ef3 7e3f 5330 803f eb19 803f 8699 7d3f
00000140: 1f6a 823f 142b 823f 3f0d 813f e67f 813f
00000150: 2300 813f d1ee 7e3f 1087 813f 6f02 823f
00000160: 6550 813f aa71 813f 5a42 823f 819d 813f
00000170: dbe3 7e3f 2cec 7f3f 1f53 7d3f 6dde 813f
00000180: 16f6 813f b95a 7e3f 78fb 803f b965 813f
00000190: 7007 803f d7c3 803f 4f47 823f e824 803f
000001a0: 25f6 813f c588 813f d832 823f 122a 813f
000001b0: 63a7 803f 443c 823f d14a 803f 322e 803f
000001c0: 97d2 813f fb4c 803f a122 823f 7bf5 813f
000001d0: 2254 7d3f 18d9 813f dd76 823f 1753 7d3f
000001e0: d5ab 7c3f 3910 823f 64d6 813f 3135 823f
000001f0: ce81 7f3f 365f 823f adac 813f 7847 813f
0.9915682 1.0106206 1.01987 1.0162823 1.0025945 1.004413 1.0087636 1.0125194
1.0151594 1.0182602 1.0175999 1.0185024 0.99025714 1.0185642 1.0198628 1.0162328
0.99093056 1.0162474 1.0027034 1.0092894 1.0154322 0.9908318 1.0033557 1.0039291
1.0109222 0.99684966 1.0098941 1.0170228 1.0127447 1.0166861 0.9910436 1.0111312
1.0161185 1.0146009 0.9908008 1.0171416 1.0149276 1.0077971 1.0169721 1.012142
1.0152348 1.0053273 0.99953187 1.0151899 1.012593 0.99773395 1.0096363 1.0067062
0.992928 1.0173119 1.0166279 1.0128442 0.9998232 1.0177834 1.0025508 1.0038179
1.0117949 1.000918 0.9991385 1.0114573 1.0098317 1.0129223 1.0159265 1.0164164
1.0165216 1.017289 1.0039593 1.0163716 1.018159 1.0092148 1.0028781 1.0158775
1.0148929 1.0048021 1.0101554 0.99986786 0.99590003 1.0014747 1.000791 0.99062383
1.0188636 1.0169396 1.0082167 1.0117157 1.0078167 0.99583155 1.0119343 1.0156993
1.010266 1.0112813 1.0176499 1.0126191 0.9956643 0.99969745 0.9895496 1.0146004
1.0153224 0.9935718 1.0076742 1.0109168 1.000227 1.0059766 1.0178012 1.0011263
1.0153242 1.0119864 1.0171766 1.0090964 1.0051082 1.0174642 1.0022832 1.0014098
1.0142392 1.0023493 1.0166818 1.015304 0.989565 1.0144377 1.0192524 0.9895491
0.98699695 1.0161201 1.0143552 1.0172483 0.9980744 1.0185306 1.0130821 1.0099936
