training/trained_models/model_living_pulsing.pth (torch, 84842 bytes, 14 tensors)

conv1.weight f4 [32, 2, 3, 3]
0	0xbdeaba28	-0.11461288
1	0x3db58bd6	0.08864562
2	0x3e697c17	0.22801243
3	0xbe1c62be	-0.15272042
4	0xbdea111c	-0.114290446
5	0xbd352af8	-0.04423043
6	0x3d2a094a	0.041512765
7	0xbc1fefc4	-0.009761754
8	0xbdfc45a9	-0.12317974
9	0x3c82227e	0.015885588
10	0x3d9f0b48	0.077658236
11	0xbe2eaab6	-0.17057309
12	0x3e09c7bf	0.13455103
13	0x3d4d18f8	0.05007264
14	0xbdd7a1d1	-0.10528911
15	0xbc94f2e7	-0.018182231
16	0x3cd659e7	0.026165916
17	0xba59dd18	-0.00083108386
18	0x3e298408	0.16554272
19	0x3da8ef5a	0.08248778
20	0x3dc3dafb	0.095632516
21	0x3ac4ab39	0.0015004642
22	0x3e7b2b73	0.24528293
23	0x3e3f0cfa	0.18657294
24	0xbe7906fa	-0.24319068
25	0x3da04bf6	0.078269884
26	0x3dfbfa6b	0.12303623
27	0x3b06e37e	0.0020582373
28	0xbd8e2a90	-0.06941712
29	0xbd331029	-0.043716583
30	0xbc831c09	-0.01600458
31	0x3bd6b102	0.0065518627
32	0xbcf714a3	-0.030161208
33	0xbd508398	-0.050906748
34	0x3e36d454	0.17854434
35	0x3c573d97	0.013137243
36	0xbddcd41c	-0.10782644
37	0xbe27967c	-0.16365999
38	0xbd3be8cb	-0.045876306
39	0xbd38fc8d	-0.045162726
40	0xbe14ee79	-0.14544095
41	0xbe41e069	-0.18933262
42	0xbe7b46f0	-0.2453878
43	0xbe8f066d	-0.2793459
44	0x3e462352	0.19349411
45	0x3c8cee8b	0.01720359
46	0x3dbca7c1	0.09211684
47	0xbdf26cd5	-0.11837164
48	0x3d4a6e4f	0.049421605
49	0xbba0f011	-0.0049114306
50	0x3d765784	0.060142055
51	0xbb024de0	-0.0019882843
52	0x3c7a7b4f	0.015288188
53	0xbde269e6	-0.11055355
54	0x3dd427b9	0.10359139
55	0xbdbe6306	-0.09296231
56	0xbe93a2cd	-0.28835145
57	0x3db90e9c	0.0903599
58	0xbea80f20	-0.3282404
59	0x3e4f0d1d	0.20219846
60	0xbe08bb1f	-0.13352631
61	0x3df01960	0.1172359
62	0xbe7a836b	-0.24464194
63	0xbdda10d5	-0.10647742
64	0x3e20c3d1	0.15699698
65	0xbd83c1e7	-0.06433468
66	0xbe29abe8	-0.16569483
67	0xbd44ce1e	-0.04804813
68	0x3c82d511	0.015970739
69	0xbc0858c3	-0.008321944
70	0x3d7ea5a7	0.062169697
71	0x3d46e0da	0.04855428
72	0x3e2ed165	0.17072065
73	0x3e44326f	0.19159864
74	0x3e21a848	0.1578685
75	0x3c4debc1	0.012568415
76	0xbd4502b3	-0.048098277
77	0x3e098f59	0.13433589
78	0xbe102ae4	-0.14078861
79	0xbe54b7eb	-0.20773284
80	0x3da7d284	0.081944495
81	0x3e061e4f	0.130975
82	0x3d8e8165	0.06958274
83	0x3c29345d	0.010327426
84	0xbd9dbbca	-0.077018335
85	0x3d1cccad	0.03828113
86	0x3d1cd1ae	0.038285904
87	0xbdc11dca	-0.0942951
88	0x3c064a4e	0.008196427
89	0xbe983a2b	-0.2973188
90	0xbe4fc145	-0.2028857
91	0xbc9c483f	-0.019077418
92	0x3d71cc91	0.05903298
93	0xbd2736f2	-0.040823884
94	0xbe7f45ac	-0.24928921
95	0xbe187c52	-0.14891174
96	0x3dddfb78	0.108389795
97	0x3d1f0918	0.03882703
98	0x3e56a159	0.20959987
99	0xbd2201f9	-0.039552663
100	0xbda8f90b	-0.08250626
101	0x3defab3c	0.11702582
102	0xbced69fb	-0.0289812
103	0x3e5cfc94	0.21580726
104	0xbbfcab62	-0.00771086
105	0xbdfc402e	-0.12316929
106	0x3aebe2af	0.0017996634
107	0x3a8fea40	0.0010979846
108	0x3e133e28	0.1437918
109	0x3e5a9656	0.21346411
110	0x3d4bab29	0.049723778
111	0x3e591a91	0.2120154
112	0xbdc8f115	-0.09811608
113	0x3e5574f5	0.20845397
114	0xbd068caf	-0.03284901
115	0x3e50a7fe	0.20376584
116	0x3b2f0a9e	0.002670921
117	0x3d33620d	0.04379468
118	0xbd9e33c0	-0.07724714
119	0x3cc0d777	0.023540242
120	0xbaaaefaf	-0.0013041402
121	0x3c24c3d2	0.010056453
122	0x3d6cc3d3	0.05780394
123	0xbdabf770	-0.08396804
124	0xbd10a12c	-0.035309955
125	0xbb98af71	-0.004659586
126	0xbe4264d9	-0.18983783
127	0x3e462a20	0.19352007
128	0x3e21ee41	0.15813543
129	0x3e3a7d6e	0.1821191
130	0x3e456bb7	0.19279371
131	0x3e463956	0.1935781
132	0x3e380a0b	0.17972581
133	0xbdd1f1cf	-0.102511995
134	0xbde71362	-0.11282994
135	0xbb39972d	-0.0028318868
136	0x3b870c27	0.0041213217
137	0x3d3c97b1	0.0460431
138	0xbe5194cd	-0.20466919
139	0xbe629d45	-0.22130306
140	0x3dd21c58	0.102593124
141	0x3c8cfe14	0.017210998
142	0x3dd05904	0.101732284
143	0x3df6c638	0.12049526
144	0x3d9b2eb0	0.07577264
145	0xbeade8e8	-0.33966756
146	0xbe5903d5	-0.21192868
147	0xbe32cb50	-0.1746037
148	0xbdb23849	-0.08702142
149	0x3e66fbaa	0.2255694
150	0xbe633d12	-0.22191265
151	0xbd7bd796	-0.061484896
152	0x3de8d9d6	0.11369674
153	0x3e0af9be	0.13571832
154	0x3dbb4f9d	0.091460444
155	0x3c0454dc	0.008076873
156	0x3e22e630	0.15908122
157	0xbe35e1fa	-0.17761984
158	0xbe1ab508	-0.1510812
159	0x3d6e6700	0.058203697
160	0x3d5863f4	0.052829698
161	0xbdb7380d	-0.08946238
162	0x3de89c6f	0.11357962
163	0x3dd30eae	0.10305534
164	0x3e053f9b	0.13012545
165	0x3e791f99	0.2432846
166	0xbe2e2643	-0.17006783
167	0x3e016097	0.12634502
168	0x3e39792e	0.18112633
169	0x3df0e38c	0.11762151
170	0xbe1ae07a	-0.15124694
171	0x3da1b3a3	0.07895591
172	0xbc9a3aba	-0.018826831
173	0x3c0db2b8	0.008648567
174	0xbd76af5f	-0.06022584
175	0xbe0b1e8e	-0.13585874
176	0xbdebbe42	-0.11510898
177	0x3da45cf0	0.08025539
178	0x3e09a32f	0.13441156
179	0xbca79684	-0.020457514
180	0xbe355a92	-0.17710331
181	0xbd87d630	-0.0663265
182	0xbbbef70b	-0.0058277897
183	0x3cfa3776	0.030544024
184	0x3e711f43	0.23547082
185	0xbcecc635	-0.028903106
186	0x3dd82612	0.10554136
187	0x3e8a33d3	0.26992664
188	0x3e5377e3	0.20651202
189	0x3bbe6f06	0.005811575
190	0x3d352b8c	0.044230983
191	0x3d8caa07	0.06868368
192	0x3cb4685d	0.02202242
193	0x3e0df28b	0.13862054
194	0x3d1d7007	0.038436916
195	0x3d570d9e	0.05250322
196	0x3e18d1bd	0.14923759
197	0xbd96c955	-0.0736262
198	0x3e32a0a6	0.17444095
199	0xbdfa8040	-0.12231493
200	0xbe2ef0a8	-0.1708399
201	0xbe212b6d	-0.15739222
202	0x3e0868f6	0.1332129
203	0x3e2e760f	0.17037223
204	0xbe94ee7e	-0.29088205
205	0x3e24f005	0.16107185
206	0xbd4c6dc6	-0.049909376
207	0xbe4a51fe	-0.1975784
208	0xbe098611	-0.13430049
209	0x3d9b952a	0.0759681
210	0x3de57c76	0.1120538
211	0xbd1e5dab	-0.038663547
212	0x3c50d259	0.012745463
213	0x3d75175f	0.05983674
214	0xbdc8642d	-0.09784732
215	0x3d052d59	0.03251395
216	0x3e06e16f	0.13171934
217	0xbe0f9871	-0.14022996
218	0x3dd167f8	0.102249086
219	0x3e3add77	0.18248545
220	0xbddb2efa	-0.107023194
221	0x3db71ccd	0.0894104
222	0x3dcd279f	0.10017323
223	0xbe48c67a	-0.19606963
224	0xbe99fd47	-0.30076048
225	0x3e15993c	0.14609236
226	0x3d65e4cc	0.0561264
227	0xbce156d4	-0.027507223
228	0x3aec8aa4	0.0018046689
229	0xbdcc631d	-0.09979842
230	0xbd2ead0b	-0.042645495
231	0xbcca13c8	-0.024667636
232	0xbd2a04d0	-0.041508496
233	0x3dbcd0bd	0.09219501
234	0xbd11b75a	-0.03557525
235	0x3de03e5e	0.109493956
236	0x3d9f9a6e	0.07793127
237	0x3e80f182	0.25184256
238	0xbdf2fd8b	-0.11864766
239	0xbe2b1bea	-0.16709867
240	0xbe7a754a	-0.24458805
241	0xbe27810a	-0.16357818
242	0x3d24c048	0.040222436
243	0x3c19220d	0.009346497
244	0xbd92ab20	-0.07161546
245	0x3d6fe3a5	0.058566708
246	0x3dd5d2a9	0.10440571
247	0x3d59cae3	0.053172003
248	0x3b9170ef	0.0044385116
249	0xbdbb66ea	-0.09150489
250	0xbd6daa5a	-0.058023788
251	0x3cc90a36	0.024541002
252	0x3e449be7	0.19200097
253	0xbcb5300f	-0.022117643
254	0xbe89dc80	-0.2692604
255	0xbcac2318	-0.021012828

conv1.bias f4 [32]
0	0x39d7d13d	0.0004116389
1	0x39839979	0.00025100613
2	0xb9166f21	-0.00014346513
3	0x3987ae39	0.00025879013
4	0x37eabd50	2.798313e-05
5	0x3961bd7f	0.00021528265
6	0x3938d4b7	0.0001762685
7	0x38dbb612	0.00010476647
8	0x38f4cac0	0.00011672592
9	0xb88b506a	-6.643015e-05
10	0xb943ae19	-0.00018661506
11	0xb896a06e	-7.18244e-05
12	0x38cbb166	9.712837e-05
13	0xb78512ee	-1.586365e-05
14	0x39eef6bb	0.00045578726
15	0x392b8439	0.00016357088
16	0x3885950f	6.3696985e-05
17	0x39df76f7	0.0004262251
18	0xb8e3fb6a	-0.00010871033
19	0xb9281e79	-0.0001603308
20	0xb89ffdb4	-7.628967e-05
21	0xb7e16a15	-2.6871488e-05
22	0xb907bfe7	-0.00012946092
23	0x38298cf6	4.042402e-05
24	0x37ac44e8	2.0536085e-05
25	0xb8143ca2	-3.534242e-05
26	0x39d560a3	0.00040698526
27	0xb88657d3	-6.4059765e-05
28	0x3a0a7697	0.00052819535
29	0x39cb6c94	0.00038800074
30	0x3856232b	5.105433e-05
31	0x37be64c4	2.2696688e-05

conv2.weight f4 [64, 32, 3, 3]
0	0xbc9ebb26	-0.019376349
1	0xbd2a69c7	-0.041604783
2	0xbd027680	-0.03185129
3	0xbd378890	-0.04480797
4	0x3d14703b	0.036239844
5	0x3cb88baa	0.022527535
6	0xbcdd03b2	-0.026979301
7	0x3d385973	0.04500718
8	0xbc758e51	-0.014987544
9	0xbd7dc773	-0.061957788
10	0xbc90dc67	-0.017683221
11	0xbd78ccbd	-0.06074213
12	0x3d950dc9	0.0727802
13	0x3dba96b2	0.09110774
14	0xbc1b056a	-0.00946174
15	0xbd051d85	-0.032498855
16	0xbd8ecaa0	-0.069722414
17	0x3c6d057c	0.01446664
18	0xbcda5a46	-0.026654374
19	0x3c15aeeb	0.009135942
20	0x3c85e746	0.016345631
21	0xbb0dd60f	-0.0021642481
22	0xbd8b8988	-0.068133414
23	0xbcf3a46d	-0.02974149
24	0xbb81c02e	-0.003959677
25	0xbc550ffb	-0.013004298
26	0x3d1f7acd	0.03893547
27	0xbcf1cde6	-0.029517125
28	0xbc035262	-0.008015247
29	0x3c8ec859	0.017429518
30	0xbc7d1af8	-0.015448324
31	0x3c3f7c92	0.011687415
32	0x3dd7e13f	0.10541009
33	0xbcb12fbc	-0.021629207
34	0xbc87f7e4	-0.016597696
35	0x3cdff129	0.027336674
36	0xbd68ae7f	-0.056807037
37	0xbdec0ab0	-0.11525476
38	0xbd144b9e	-0.036204927
39	0x39db04a3	0.0004177439
40	0x3bcc7f4f	0.0062407623
41	0xbdbb1ded	-0.09136567
42	0x3c93b7b5	0.018031934
43	0xb9201670	-0.00015267148
44	0x3c219fe1	0.009864778
45	0xbd188b34	-0.03724213
46	0x3cdbc051	0.026825102
47	0x3b971960	0.004611179
48	0x3ccc9e26	0.024977755
49	0xbd94301b	-0.07235738
50	0xbbba6280	-0.0056880116
51	0xbda34661	-0.07972408
52	0x3d94ea85	0.072712936
53	0x3bee2aff	0.007268309
54	0xbcdcfde7	-0.026976539
55	0x3d77e490	0.06052071
56	0xbcd01c8d	-0.02540424
57	0x3d1da324	0.03848566
58	0xbd45f795	-0.048331816
59	0xbd2319f4	-0.039819673
60	0xbd036069	-0.032074366
61	0x3ba49de8	0.0050237067
62	0xbc894870	-0.016758174
63	0xbbf0d289	-0.0073493165
64	0xbd34a9c3	-0.04410721
65	0x3b9c6930	0.0047732815
66	0x3b3d22e4	0.0028859908
67	0x3d48c01d	0.04901134
68	0x3cf8befd	0.030364508
69	0x3b7bdd68	0.003843153
70	0xbc3e405b	-0.011612023
71	0xbd32a69f	-0.043615934
72	0x3d628699	0.055304144
73	0x3d1095e6	0.035299204
74	0xbcc29feb	-0.023757895
75	0x3d21893e	0.039437525
76	0x3c49db3d	0.012320337
77	0x3cb75ed3	0.022384083
78	0x3ce861d5	0.028366962
79	0xbd4ac0c8	-0.049500257
80	0xbd4de355	-0.05026563
81	0xbdae837f	-0.08521175
82	0xbc9863ad	-0.018602217
83	0xbd9f3a71	-0.07774819
84	0xbced25d8	-0.02894871
85	0xbd18b7c4	-0.037284628
86	0x3d912d8c	0.070887655
87	0xbc8ecd14	-0.017431773
88	0x3d1bbbbb	0.03802083
89	0xbd4f5bf1	-0.05062479
90	0x3a21f971	0.0006178832
91	0x3cc6c73a	0.02426492
92	0xbb9ccbec	-0.0047850516
93	0xbd01c237	-0.03167936
94	0x3bbdcf8b	0.0057925633
95	0xbc20de2e	-0.009818597
96	0xbd46e81b	-0.048561197
97	0xbd52a898	-0.051430315
98	0xbe05b1fc	-0.13056177
99	0x3cad563d	0.021159286
100	0xbbdb2621	-0.006687895
101	0xbc9d077e	-0.019168612
102	0x3cb31609	0.021861093
103	0x3ca8321a	0.020531703
104	0xbc65e784	-0.014032248
105	0x3d921035	0.071319975
106	0x3ca6d7b4	0.020366527
107	0x3d19e39c	0.03757058
108	0xbb843c57	-0.0040355134
109	0xbc5f2bef	-0.013621314
110	0xbb0da2ba	-0.0021611885
111	0x3d097df6	0.03356739
112	0xbd007891	-0.03136498
113	0x3c7c3792	0.015394108
114	0xbb925d74	-0.004466707
115	0xbcba5e16	-0.022749942
116	0x3d506403	0.05087663
117	0x3cbff73c	0.02343332
118	0xbcc869cd	-0.024464512
119	0x3ca206df	0.019778667
120	0x3d89eebe	0.067349896
121	0xbc8dd6c8	-0.01731433
122	0x3bc41ddf	0.005985006
123	0x3d9bf4e4	0.076150686
124	0x3c6e4984	0.014543895
125	0x3d65526a	0.0559868
126	0xbd57e932	-0.052712627
127	0x3c8b08cb	0.016971966
128	0x3bf46f1d	0.007459535
129	0xba7cc800	-0.00096428394
130	0x3db24e35	0.08706323
131	0x3d02f983	0.031976234
132	0x3a19a744	0.00058614113
133	0x3d4ceec5	0.050032396
134	0x3d47dce8	0.048794657
135	0x3c351efb	0.01105475
136	0xbd0e4e24	-0.03474249
137	0xbd45e8c5	-0.04831769
138	0x3d4fc623	0.050726067
139	0x3b668fd2	0.0035180938
140	0x3c9b605a	0.018966842
141	0xbc750829	-0.014955559
142	0xbd9da007	-0.076965384
143	0xbcf5ce3e	-0.03000557
144	0xbd5c7c16	-0.053829275
145	0x3d47748e	0.04869514
146	0x3d13b05d	0.036056865
147	0x3cf1a7c2	0.029498938
148	0xbd7adb82	-0.061244495
149	0x3d9132a2	0.070897356
150	0x3d1d87fd	0.038459767
151	0x3ce69e90	0.02815178
152	0x3cfd7d18	0.030943438
153	0x3d146766	0.03623142
154	0xbc926b3e	-0.017873403
155	0x3cc97708	0.024592891
156	0x3d4879d8	0.048944324
157	0xbdaa02b7	-0.08301299
158	0xbd3e74d3	-0.04649813
159	0x3d8a69c2	0.06758453
160	0x3d30ef2b	0.04319684
161	0xbc14b3f4	-0.009076107
162	0xbb90b033	-0.004415536
163	0xbc49f5b1	-0.012326644
164	0xba3a1607	-0.0007098619
165	0xbd8fdc70	-0.07024467
166	0x3c7fbaa9	0.015608468
167	0x3c7740fd	0.015091178
168	0xbc9c87f8	-0.019107804
169	0xbd078ac1	-0.03309131
170	0xbcc48bec	-0.023992501
171	0x3d1c3244	0.038133875
172	0xbcd471e8	-0.025933221
173	0x3d16edb9	0.036847804
174	0xbdcfda13	-0.10149016
175	0x3ceedc60	0.029157817
176	0x3d850f32	0.06497039
177	0x3cf63fe0	0.030059755
178	0x3c4b9c92	0.012427466
179	0x3ca582d7	0.02020399
180	0xbd3992d3	-0.045306038
181	0x3c3f68fd	0.011682746
182	0xbcba7d15	-0.022764722
183	0xbcb814c7	-0.022470845
184	0x3c285eeb	0.010276536
185	0xbc706f82	-0.014675023
186	0xbc96cd11	-0.01840833
187	0x3bbad308	0.0057014264
188	0x3d83b8d3	0.06431737
189	0x3cbef782	0.02331138
190	0x3d5e8e49	0.054334912
191	0xbd62548a	-0.055256404
192	0x3c49f28d	0.012325895
193	0xbd2a481b	-0.04157267
194	0xbc8e82db	-0.017396381
195	0xbd59bdfc	-0.0531597
196	0xbaf4ceb4	-0.0018677325
197	0xbdb52bcc	-0.08846244
198	0x3d2a60c4	0.04159619
199	0x3dc13864	0.09434584
200	0x3ce61b33	0.028089141
201	0x3daedd49	0.085383005
202	0x3d9cd76b	0.07658275
203	0x3d62ff01	0.055418972
204	0x3d39252d	0.04520147
205	0x3cbd087c	0.023075335
206	0x3d8c9b50	0.06865561
207	0x3d45b4f3	0.04826827
208	0x3c76908d	0.015049112
209	0xbd98a6eb	-0.07453712
210	0xbd2cc056	-0.042175613
211	0xbcc092fc	-0.023507588
212	0x3ccba84a	0.02486052
213	0xbd01b81b	-0.031669717
214	0xbcc357cf	-0.023845581
215	0xbcdca4dc	-0.02693408
216	0xbcdec409	-0.027193086
217	0x3da68e07	0.08132558
218	0x3c3573f0	0.011075005
219	0x3d1e73e4	0.03868474
220	0xbc492be7	-0.012278534
221	0x3d451e21	0.048124436
222	0x3d53b175	0.051682908
223	0x3d2135f1	0.039358083
224	0xbd27a40e	-0.04092794
225	0x3d8182b7	0.0632376
226	0x3b149367	0.0022670866
227	0x3bf031c9	0.0073301536
228	0x3b9023fd	0.0043988214
229	0xbd62276d	-0.05521338
230	0x3cbb9514	0.022898234
231	0xbcdc7cef	-0.026915042
232	0xbbeac35d	-0.0071644024
233	0xbc615394	-0.013752837
234	0xbd8f8684	-0.07008079
235	0xbcc07fdd	-0.02349847
236	0xbbaf4e46	-0.005349907
237	0x3c9c302e	0.019065943
238	0x3c8bfce5	0.017088363
239	0x3cef47dd	0.029209072
240	0xbd0ff647	-0.035146978
241	0xbcb91913	-0.022594964
242	0xbda23635	-0.079204954
243	0x3d4843c4	0.04889275
244	0x3cd90a0a	0.026494045
245	0xbd83d425	-0.06436948
246	0x3cbd668f	0.023120193
247	0xbc965929	-0.018353062
248	0xbcb4e4dd	-0.022081787
249	0xbd09c9b8	-0.03363964
250	0x3d607168	0.054795653
251	0xbd7cc443	-0.061710607
252	0x3d1cf157	0.038316097
253	0xba5a96c9	-0.0008338509
254	0xbd2077ac	-0.039176628
255	0x3d1b5bf9	0.03792951

conv2.bias f4 [64]
0	0xb7d039e2	-2.4822486e-05
1	0xb902919e	-0.00012452013
2	0xb8f8e9e9	-0.00011869131
3	0xb7f7f66d	-2.9559445e-05
4	0x384210ac	4.626873e-05
5	0xb87c8d07	-6.0212824e-05
6	0xb78b23f9	-1.6586842e-05
7	0x38293a79	4.0347197e-05
8	0xb8876e67	-6.457866e-05
9	0x390faa73	0.0001370104
10	0x38942596	7.064191e-05
11	0x358e4fd2	1.0603055e-06
12	0xb8596446	-5.183022e-05
13	0xb7ae7106	-2.0795047e-05
14	0xb80ee85d	-3.4071843e-05
15	0x37f8bf55	2.9653e-05
16	0x389f64db	7.6004966e-05
17	0x376ca99e	1.4106188e-05
18	0xb8cb04c1	-9.68068e-05
19	0xb894b16e	-7.090239e-05
20	0x376465ef	1.3613592e-05
21	0xb8b6eb08	-8.722214e-05
22	0x37ea1251	2.7903503e-05
23	0xb849b677	-4.8092068e-05
24	0x387be26e	6.0053942e-05
25	0x3519d195	5.7301924e-07
26	0x380b48a8	3.320785e-05
27	0xb61d28d8	-2.3418597e-06
28	0xb8d5ed5f	-0.00010200845
29	0x35c10203	1.4380206e-06
30	0x388051dd	6.118764e-05
31	0x3717701e	9.026406e-06
32	0x38f52b3a	0.00011690562
33	0xb858e619	-5.171271e-05
34	0xb7438f2d	-1.1656241e-05
35	0x387ab212	5.9770486e-05
36	0x36ba32f1	5.5491623e-06
37	0x3857c140	5.1439973e-05
38	0xb8884440	-6.497698e-05
39	0xb81437cd	-3.533792e-05
40	0x37196b64	9.1445145e-06
41	0x38641b1d	5.4384687e-05
42	0xb81752e9	-3.607842e-05
43	0xb8a846be	-8.024041e-05
44	0x37b2b9db	2.13058e-05
45	0x3847b85e	4.7617003e-05
46	0x371ab3ef	9.221009e-06
47	0xb7dac9ff	-2.6081687e-05
48	0x37bb1743	2.230297e-05
49	0x37374e90	1.0925942e-05
50	0x378cef5a	1.6800757e-05
51	0xb7962023	-1.7896358e-05
52	0x3898c120	7.283897e-05
53	0xb81373d5	-3.5155408e-05
54	0x371972a9	9.146207e-06
55	0x388575a6	6.363848e-05
56	0xb81e1100	-3.7685968e-05
57	0xb74a3b6b	-1.2053973e-05
58	0x3772db46	1.4475378e-05
59	0xb83cac3b	-4.4983095e-05
60	0x379fdefc	1.9058112e-05
61	0xb89b5fbd	-7.4088086e-05
62	0x37affa87	2.0978287e-05
63	0x39242eac	0.00015657645

bn1.weight f4 [32]
0	0x3f6d02d7	0.9258246
1	0x3f8363bc	1.0264812
2	0x3f850a82	1.0393832
3	0x3f88ce4d	1.0687958
4	0x3f757adf	0.9589061
5	0x3f7e8960	0.9942837
6	0x3f882556	1.0636394
7	0x3f7b425e	0.98148143
8	0x3f76c8f8	0.96400404
9	0x3f79269e	0.9732455
10	0x3f79d39e	0.9758853
11	0x3f736d54	0.95088696
12	0x3f745ea2	0.954569
13	0x3f8410f4	1.0317674
14	0x3f76250b	0.96150273
15	0x3f72817b	0.9472882
16	0x3f77bdc6	0.96773946
17	0x3f81efd2	1.0151312
18	0x3f872a59	1.0559798
19	0x3f76a56d	0.9634617
20	0x3f6db9b5	0.9286149
21	0x3f702532	0.93806756
22	0x3f8bb726	1.0915267
23	0x3f7ce0b1	0.9878035
24	0x3f7a348a	0.9773642
25	0x3f83a61b	1.0285066
26	0x3f817ee0	1.0116844
27	0x3f84fc22	1.0389445
28	0x3f82b23e	1.0210645
29	0x3f6d1a6d	0.9261845
30	0x3f727aa3	0.9471838
31	0x3f83631d	1.0264622

bn1.bias f4 [32]
0	0xbdc3547a	-0.09537597
1	0xbd32cfa9	-0.04365507
2	0x3c92e88f	0.017933158
3	0xbe118e64	-0.14214474
4	0xbd1239ab	-0.035699528
5	0xbc40126e	-0.011723144
6	0xbde30128	-0.11084205
7	0xba8445c5	-0.0010091594
8	0x3d7a48f3	0.061104726
9	0xbdb1d539	-0.08683247
10	0xbda50fb0	-0.08059633
11	0xbdb23486	-0.08701424
12	0xbd86e5e7	-0.06586819
13	0x3cfe8a7f	0.0310719
14	0xbdc5e31d	-0.09662459
15	0xbde1294c	-0.10994205
16	0x3a6e4dba	0.00090905617
17	0x3dae87ab	0.0852197
18	0xbd6f8def	-0.058484968
19	0x3d424af2	0.047434755
20	0xbdbe540a	-0.09293373
21	0xbe20015a	-0.15625516
22	0x3ce569f9	0.028004633
23	0x3b8b2453	0.0042462735
24	0xbdc64d7e	-0.09682749
25	0x3d8fe21f	0.07025551
26	0xbc7538fe	-0.014967201
27	0xbe26f8ef	-0.16305898
28	0x3d7d2d67	0.061810877
29	0xbe302834	-0.17202836
30	0xbd876d99	-0.06612701
31	0x3d1e4613	0.038641047

bn1.running_mean f4 [32]
0	0xbd080b7f	-0.03321409
1	0x3dccb4e5	0.099954404
2	0xbe02cc0c	-0.1277315
3	0xbd893b01	-0.06700707
4	0x3d039364	0.032122985
5	0xbd4f3052	-0.05058319
6	0x3dd16c11	0.1022569
7	0x3dc55bd2	0.09636654
8	0xbda36222	-0.07977702
9	0x3d8bcd51	0.0682627
10	0x3da65353	0.081213616
11	0xbaeb4be9	-0.00179517
12	0xbca03123	-0.01955468
13	0xbcefdc77	-0.02927993
14	0x3d6acb7f	0.057322975
15	0x3cdd835d	0.027040178
16	0xbd111193	-0.03541715
17	0xbe1695f5	-0.14705642
18	0xbce27500	-0.02764368
19	0xbd90a616	-0.070629284
20	0x3d52b5e7	0.051443007
21	0x3dabf7d5	0.083968796
22	0xbd8e705d	-0.06955025
23	0xbcf7f441	-0.030267837
24	0xbb4c4a54	-0.0031172233
25	0xbda2c956	-0.07948558
26	0x3d28689f	0.0411154
27	0x3d136c15	0.035991747
28	0xbd0444bf	-0.032292124
29	0x3d0a97be	0.03383612
30	0x3c442c53	0.011973458
31	0xbd263d56	-0.04058584

bn1.running_var f4 [32]
0	0x3c53d1d3	0.012928444
1	0x3cc36e73	0.023856377
2	0x3cdd98c4	0.027050383
3	0x3d1b9f6e	0.03799384
4	0x3ca403e2	0.020021383
5	0x3cab6af4	0.020925023
6	0x3cc24818	0.023716018
7	0x3cdff8dc	0.027340345
8	0x3d031cbc	0.032009825
9	0x3cc0c00b	0.023529073
10	0x3cd0880e	0.0254555
11	0x3cc76c99	0.024343776
12	0x3cb97643	0.0226394
13	0x3cb0e788	0.021594778
14	0x3c94bd92	0.0181568
15	0x3c5cc52a	0.013474742
16	0x3c8140d8	0.01577799
17	0x3cc78777	0.024356587
18	0x3c928bca	0.017888922
19	0x3c5bad7c	0.013408061
20	0x3c97bc91	0.018522533
21	0x3ca5323b	0.020165553
22	0x3cea2daa	0.028586227
23	0x3cf919dc	0.030407839
24	0x3c9eca99	0.019383715
25	0x3c9faa9a	0.019490529
26	0x3d03be1d	0.032163728
27	0x3ccf4230	0.025300115
28	0x3cbbac3b	0.022909274
29	0x3cba2102	0.022720817
30	0x3c7e3356	0.015515169
31	0x3cde3abf	0.027127622

bn2.weight f4 [64]
0	0x3f92a4b3	1.1456512
1	0x3f98a701	1.1925966
2	0x3fa3a37b	1.2784265
3	0x3f950eee	1.1645181
4	0x3f95236c	1.1651435
5	0x3f9e67fe	1.2375486
6	0x3f9a6d12	1.2064536
7	0x3f941f1d	1.1571995
8	0x3fb1e31e	1.3897436
9	0x3f98496b	1.1897405
10	0x3f9a7267	1.2066163
11	0x3f9bb98b	1.2165998
12	0x3f9f81d3	1.2461494
13	0x3f971df3	1.1806015
14	0x3fa3e4ac	1.280416
15	0x3f95416d	1.1660591
16	0x3fa1cfa0	1.2641487
17	0x3f9a7c06	1.2069099
18	0x3f99b727	1.2009019
19	0x3f9c8bb3	1.2230133
20	0x3f9f7cb1	1.2459928
21	0x3f917f3b	1.1366953
22	0x3f8e547e	1.1119535
23	0x3f9c4dae	1.2211206
24	0x3f90a1d8	1.1299391
25	0x3f930481	1.148575
26	0x3f94a60f	1.1613177
27	0x3f8f0821	1.1174356
28	0x3f9c07fe	1.2189939
29	0x3fb41db2	1.4071562
30	0x3f9112f0	1.1333904
31	0x3fbe6bd6	1.4876659
32	0x3fbfb5ea	1.4977391
33	0x3f98dbf3	1.1942123
34	0x3f9d22ee	1.2276285
35	0x3f954ff8	1.166503
36	0x3fb9a57a	1.4503624
37	0x3fa3c0b1	1.279318
38	0x3f9d614a	1.2295315
39	0x3fb1b0a0	1.3882027
40	0x3fa834af	1.3141078
41	0x3f83e8a1	1.0305368
42	0x3f999822	1.1999552
43	0x3fa731db	1.306209
44	0x3f8e39c0	1.1111374
45	0x3f9bdb6a	1.2176335
46	0x3fa181ee	1.2617776
47	0x3fa2611a	1.2685883
48	0x3f96cf68	1.1782045
49	0x3fa81904	1.3132634
50	0x3f8a5642	1.0807574
51	0x3f9e63a2	1.2374156
52	0x3fc0dc55	1.506724
53	0x3f9cbb56	1.224467
54	0x3fcb4bb6	1.588248
55	0x3f9dde0d	1.233339
56	0x3f8d8961	1.105755
57	0x3f9ccbd1	1.22497
58	0x3f91b4b1	1.1383268
59	0x3f9a4590	1.2052479
60	0x3f91648d	1.1358811
61	0x3fa07856	1.2536724
62	0x3fb0a7c5	1.3801199
63	0x3fb0b11a	1.3804047

bn2.bias f4 [64]
0	0xbe50c9b0	-0.20389438
1	0xbd4e17b9	-0.050315592
2	0xbea5dbf1	-0.32394364
3	0xbe2bd125	-0.16779001
4	0xbe6c28b6	-0.23062405
5	0xbe5768ea	-0.21036115
6	0xbe935ec0	-0.28783226
7	0xbe8a1cd2	-0.26975113
8	0xbd099606	-0.03359034
9	0xbeda37f7	-0.42620823
10	0xbde7c54d	-0.11316929
11	0xbd42b6d0	-0.047537625
12	0xbde0ae7d	-0.10970781
13	0xbe9a6594	-0.30155623
14	0xbd30f1df	-0.043199416
15	0xbe2ea2d7	-0.17054306
16	0xbde92835	-0.11384622
17	0xbd15045c	-0.03638111
18	0xbe900d74	-0.28135264
19	0xbd7b6e35	-0.0613844
20	0xbebc1d30	-0.36741018
21	0xbe80b00a	-0.25134307
22	0xbeb67bd2	-0.35641342
23	0xbe8e8b2e	-0.2784056
24	0xbddad80c	-0.10685739
25	0xbe3b2a16	-0.18277773
26	0xbe55d44f	-0.2088177
27	0xbe2ca476	-0.16859612
28	0xbe23b6fb	-0.1598777
29	0xbe1b5895	-0.1517051
30	0xbe96655e	-0.29374212
31	0xbdcda3c4	-0.100410014
32	0xbcef7128	-0.029228762
33	0xbeab2ec4	-0.33434117
34	0x3d1c03c0	0.038089514
35	0xbdfb8d4f	-0.12282812
36	0xbcff1fcb	-0.03114309
37	0xbeb5d399	-0.35513
38	0xbe885f03	-0.26634988
39	0xbe6d3b36	-0.23167118
40	0xbc239381	-0.009983898
41	0xbecbf881	-0.3983803
42	0xbde76f5b	-0.11300536
43	0x3d624b53	0.055247616
44	0xbead6a33	-0.33870086
45	0xbe737ff4	-0.23779279
46	0xbd4ed5b7	-0.050496783
47	0xbe7a041a	-0.24415627
48	0xbe8fc572	-0.28080326
49	0xbe3fcd20	-0.18730593
50	0xbec7b358	-0.39004016
51	0xbe40646b	-0.18788306
52	0xbe056f30	-0.13030696
53	0xbe6c9a4b	-0.23105733
54	0xbd47080f	-0.04859167
55	0xbe75b1bf	-0.23993586
56	0xbeb0bae9	-0.345176
57	0xbda92cfa	-0.08260532
58	0xbe62f837	-0.22164999
59	0xbe277f5c	-0.16357177
60	0xbe6dfd76	-0.23241219
61	0xbe8b3f97	-0.27196953
62	0xbcfe4aea	-0.031041581
63	0xbe6387e2	-0.22219804

bn2.running_mean f4 [64]
0	0xbd9143bf	-0.07093
1	0xbe12e62d	-0.14345618
2	0xbd9b35a6	-0.07578592
3	0x3e4cc54c	0.19997138
4	0xbe252caa	-0.16130319
5	0x3d815e2c	0.0631679
6	0x3d3f4681	0.046698097
7	0xbe7237f1	-0.23654152
8	0x3d8c4760	0.06849551
9	0xbc3de0d8	-0.011589251
10	0xbd134e02	-0.035963066
11	0xbe5583e7	-0.20851098
12	0xbd9c2f5e	-0.07626222
13	0x3c0afca9	0.00848309
14	0x3dfd1f4b	0.12359484
15	0xbd743f7e	-0.059630863
16	0x3d708e00	0.05872917
17	0x3b9b15cf	0.0047328244
18	0xbe84a6af	-0.2590842
19	0xbe354057	-0.17700325
20	0xbda2e2f9	-0.07953448
21	0x3c6ca50f	0.01444365
22	0x3dad803f	0.084717266
23	0x3dc6fc2d	0.097160675
24	0xbe043054	-0.1290906
25	0x3ce9ae3b	0.028525462
26	0xbc9e97d1	-0.019359501
27	0xbcc75460	-0.024332225
28	0xbdd113f2	-0.102088824
29	0xbd82f291	-0.06393922
30	0xbd84ce9a	-0.064847186
31	0xbeb1f935	-0.34760442
32	0xbe9f8fff	-0.31164548
33	0xbd96cc07	-0.07363134
34	0xbe7cf14a	-0.2470142
35	0xbe3d2415	-0.18470795
36	0xbe580dea	-0.21099058
37	0x3d81d79a	0.06339951
38	0xbe7d32a5	-0.2472635
39	0x3d1149a8	0.035470635
40	0xbe92e9e3	-0.28694066
41	0x3e306f4f	0.17229961
42	0xbe8011b0	-0.25013494
43	0xbe0a27f2	-0.134918
44	0xbdb30c87	-0.08742624
45	0x3daee04f	0.08538877
46	0xbda93209	-0.082614966
47	0x3e31507a	0.17315856
48	0x3d914d00	0.07094765
49	0x3e0fd68f	0.14046691
50	0xbce61867	-0.028087808
51	0xbd45f220	-0.04832661
52	0xbe5a7790	-0.21334672
53	0xbddad4db	-0.1068513
54	0xbe8a5e62	-0.27025133
55	0xbcaefc86	-0.021360647
56	0x3dca172a	0.098676994
57	0xbe0fb5b6	-0.14034161
58	0xbc975c81	-0.018476726
59	0xbde65f85	-0.11248688
60	0xbe9e315a	-0.30897027
61	0xbdf622df	-0.1201837
62	0xbea68bc5	-0.3252851
63	0x3d6e8bff	0.05823898

bn2.running_var f4 [64]
0	0x3e4c9a59	0.19980754
1	0x3d8e28fb	0.0694141
2	0x3d52ba3b	0.051447134
3	0x3dc4e602	0.09614183
4	0x3d60f6ae	0.054922752
5	0x3d30c2cd	0.043154527
6	0x3e115db7	0.14195906
7	0x3d215abc	0.03939317
8	0x3dcb8695	0.09937779
9	0x3d6fe3f9	0.05856702
10	0x3d9e99c8	0.07744175
11	0x3d80e184	0.06293014
12	0x3d6a4de2	0.05720318
13	0x3da673a2	0.08127524
14	0x3db87577	0.0900678
15	0x3e342745	0.17593105
16	0x3da9bea8	0.08288318
17	0x3d9404e7	0.072274975
18	0x3d5da929	0.0541164
19	0x3d6b2279	0.057405923
20	0x3d94d97f	0.072680466
21	0x3d70adec	0.058759615
22	0x3dd21275	0.10257427
23	0x3d36fd05	0.044674892
24	0x3dac635b	0.08417388
25	0x3db2bf64	0.08727911
26	0x3ddce3d4	0.10785642
27	0x3d41b629	0.047292862
28	0x3d6bb541	0.057545904
29	0x3d4d8813	0.0501786
30	0x3d7a29fd	0.0610752
31	0x3d9c1696	0.076214954
32	0x3d8a258e	0.06745444
33	0x3d665fdc	0.056243762
34	0x3de622c6	0.11237101
35	0x3d7a5d94	0.0611244
36	0x3d73f06f	0.059555467
37	0x3d571cef	0.052517828
38	0x3d54b467	0.051929858
39	0x3d6a130e	0.05714708
40	0x3d71d55e	0.059041373
41	0x3d8c4477	0.06848996
42	0x3d69d4d2	0.057087727
43	0x3dd99e7f	0.10625934
44	0x3df3669e	0.11884807
45	0x3d42070d	0.047370005
46	0x3d6fef76	0.058577977
47	0x3d5a7e9b	0.053343397
48	0x3d7c5e99	0.061613653
49	0x3d90fd87	0.070796065
50	0x3db63f22	0.088987604
51	0x3d8436a2	0.06455733
52	0x3d9d39c7	0.07677036
53	0x3d33cb72	0.043895192
54	0x3d9da495	0.07697407
55	0x3d367f8c	0.044555232
56	0x3d9a7f5d	0.07543824
57	0x3dae3df6	0.08507912
58	0x3df036d7	0.1172921
59	0x3d5cf951	0.053948704
60	0x3d272360	0.04080522
61	0x3d55d632	0.052206226
62	0x3d778386	0.060428165
63	0x3d3c4740	0.045966387

output_conv.weight f4 [5, 64, 1, 1]
0	0xbe0b7a65	-0.13620909
1	0x3d6b2f41	0.05741811
2	0x3d829227	0.063755326
3	0xbe9d600e	-0.30737346
4	0x3db4d0bf	0.08828878
5	0x3d906ce3	0.070520185
6	0xbe177fd3	-0.14794855
7	0x3c0a53e1	0.00844285
8	0x3dd081cb	0.10181006
9	0xbdc3250c	-0.095285505
10	0x3ceecb6a	0.02914973
11	0x3e21ffac	0.15820187
12	0x3e18a21b	0.14905588
13	0xbebedac8	-0.37276292
14	0x3d20667b	0.039160233
15	0xbe6f802d	-0.23388739
16	0xbd181eb4	-0.037138656
17	0x3e3c0de7	0.18364678
18	0x3c7b45db	0.015336479
19	0x3dc4dc14	0.09612289
20	0x3e17aeeb	0.1481282
21	0xbbf43918	-0.007453095
22	0xbe1105b7	-0.14162336
23	0x3e0c0b02	0.13676074
24	0x3e3ae907	0.18252955
25	0x3e29ac66	0.16569671
26	0xbda75d7d	-0.08172128
27	0x3d4b9c46	0.04970958
28	0x3de6fe27	0.112789445
29	0x3dd10ce6	0.10207538
30	0x3d4f350f	0.05058771
31	0x3e5f27fa	0.21792594
32	0x3e71968d	0.23592587
33	0x3b1941e9	0.0023385233
34	0x3e0d929b	0.13825457
35	0x3da97b72	0.082754984
36	0x3e2b60bd	0.16736121
37	0x3e210358	0.15723932
38	0xbd21ab52	-0.039470024
39	0x3e053f4d	0.13012429
40	0x3da7aa19	0.081867404
41	0xbe808af7	-0.25106022
42	0x3dff0468	0.12452012
43	0x3e3a0708	0.18166745
44	0xbea53406	-0.32266253
45	0x3e32594c	0.17416877
46	0x3dcc960c	0.09989557
47	0x3e285f43	0.1644259
48	0x3d4531d8	0.048143238
49	0x3d8ee939	0.069780774
50	0xbe1456b3	-0.14486198
51	0xbc1a9729	-0.009435453
52	0x3e1edebc	0.15514654
53	0xbc0463c9	-0.008080431
54	0x3daae5e4	0.083446294
55	0x3e3062d4	0.172252
56	0xbdc78674	-0.09742442
57	0x3dcbaffa	0.09945674
58	0xbeb9c9ed	-0.3628687
59	0x3ddc3227	0.10751753
60	0x3d9a60b0	0.07537973
61	0xbc9cc796	-0.019138139
62	0x3e30a1b2	0.17249182
63	0x3dad4d44	0.08462003
64	0xbe32a1b1	-0.17444493
65	0x3e041244	0.12897593
66	0x3dc96b7a	0.09834953
67	0x3dcfe140	0.10150385
68	0xbe783b40	-0.24241352
69	0xbed7116d	-0.42005482
70	0xbeba5c97	-0.36398765
71	0xbe96ce1b	-0.2945412
72	0xbd1b3408	-0.037891418
73	0x3da5ba78	0.08092207
74	0x3dddd514	0.10831657
75	0xbd96a02b	-0.07354768
76	0xbead6df2	-0.33872944
77	0x3d9c38cb	0.0762802
78	0x3db4c394	0.08826366
79	0xbe127d18	-0.14305532
80	0xbea40378	-0.32033896
81	0x3e3eb588	0.18623936
82	0x3e0e5513	0.1389964
83	0x3d807b6c	0.06273541
84	0xbe9dd4c8	-0.30826402
85	0x3dfeefef	0.124481075
86	0xbee45703	-0.44597635
87	0x3dcfc7fc	0.10145566
88	0xbe299ec0	-0.16564465
89	0x3c39b529	0.011334696
90	0xbec0dd5f	-0.37668893
91	0x3e4b0f80	0.19830132
92	0x3e48c88b	0.19607751
93	0x3e12ecdd	0.14348169
94	0xbd33b11d	-0.04387008
95	0x3e6f8437	0.2339028
96	0x3e5a65b9	0.21327867
97	0x3a879c7b	0.0010346317
98	0x3dc7c0b4	0.09753552
99	0x3dc436b2	0.09580745
100	0x3e33da1e	0.17563674
101	0xbed5297e	-0.4163322
102	0xbe8a0d21	-0.26963142
103	0xbeea8d35	-0.45810857
104	0xbc4cc1c2	-0.012497367
105	0x3dd29e81	0.102841385
106	0x3e1f2dff	0.1554489
107	0x3e2b8609	0.16750349
108	0x3dec516f	0.1153897
109	0xbe01ed7b	-0.12688248
110	0x3e0e4ac1	0.13895704
111	0xbee79204	-0.4522859
112	0x3e325e6b	0.1741883
113	0x3e3a0d34	0.18169099
114	0xbe8e328f	-0.27772948
115	0x3da4b805	0.080429114
116	0x3e1bdbf5	0.15220626
117	0x3de4278a	0.11140354
118	0x3d92198e	0.071337804
119	0xbea0be11	-0.3139501
120	0x3dec88c0	0.115495205
121	0x3e318c60	0.17338705
122	0x3c7cf983	0.015440348
123	0x3e0de020	0.13855028
124	0x3e61c6d7	0.22048508
125	0xbed1ec1d	-0.41000453
126	0x3dfde6f4	0.123975664
127	0xbf06865a	-0.52548754
128	0x3e2a3f87	0.16625796
129	0xbe8e97dd	-0.27850237
130	0x3e03fd91	0.12889697
131	0x3e226d26	0.1586195
132	0xbe853664	-0.2601806
133	0xbe05c3a0	-0.13062906
134	0x3da7b65d	0.0818908
135	0xbd9f9645	-0.077923335
136	0xbc2288f3	-0.009920347
137	0x3dcc0b7e	0.099631295
138	0xbe4188f8	-0.18899906
139	0x3e48f380	0.19624138
140	0x3d66f4d5	0.056385834
141	0x3deff7b6	0.11717169
142	0xbc72133e	-0.0147750955
143	0x3e020fa7	0.12701283
144	0x3dd8c582	0.105845466
145	0xbdb08b17	-0.08620279
146	0xbeb267a4	-0.34844697
147	0xbeb1cad6	-0.34725064
148	0x3e1993e3	0.1499782
149	0x3ddfeba0	0.10933614
150	0x3dca490f	0.09877216
151	0x3e10d859	0.1414503
152	0xbe859173	-0.2608753
153	0xbddeb4bf	-0.10874318
154	0x3e05cc8a	0.13066307
155	0xbe60833c	-0.21925062
156	0xbd274bd8	-0.040843815
157	0x3df83a28	0.121204674
158	0xbecc4bae	-0.3990149
159	0xbe5a4675	-0.2131594
160	0xbed11775	-0.4083821
161	0xbecb9d57	-0.39768478
162	0x3dac75f1	0.08420933
163	0xbe35fe60	-0.17772818
164	0x3dcbe37b	0.09955498
165	0x3e3e00bb	0.18554966
166	0xbdf77cbd	-0.12084339
167	0x3e0c7a0b	0.1371843
168	0xbee85d0c	-0.4538349
169	0xbdf6fcb3	-0.12059917
170	0x3e6d40cf	0.23169254
171	0xbd1ea740	-0.03873372
172	0x3e43f4bb	0.19136326
173	0xbd142532	-0.036168285
174	0xbde18e4c	-0.11013469
175	0xbe548927	-0.20755444
176	0xbd638f31	-0.05555648
177	0x3e498c27	0.1968237
178	0x3e198a35	0.14994128
179	0xbee0bce6	-0.43894118
180	0xbea70359	-0.32619742
181	0xbeee114c	-0.4649757
182	0xbe81b100	-0.25330353
183	0x3e20d984	0.15707976
184	0xbe8904a7	-0.26761362
185	0x3dd595e9	0.10428984
186	0x3dbcd6fb	0.09220692
187	0xbe962b2a	-0.29329807
188	0xbe48c0c3	-0.19604783
189	0xbdf4a6e1	-0.11945892
190	0xbeefc281	-0.46828082
191	0x3dc0cc94	0.0941402
192	0x3e141f6e	0.14465114
193	0x3dc087da	0.09400912
194	0x3d23ef8c	0.04002337
195	0x3df11667	0.11771851
196	0x3bb97860	0.005660102
197	0x3dfafe63	0.12255552
198	0x3d1e4a58	0.03864512
199	0x3dd24b64	0.10268286
200	0x3e95799b	0.2919434
201	0x3bfbcfa3	0.0076846643
202	0xbe856bb7	-0.26058742
203	0xbe53ca52	-0.20682648
204	0xbe2badd9	-0.16765536
205	0x3dce56c0	0.1007514
206	0xbedca6f5	-0.43096128
207	0x3dd643f0	0.10462177
208	0x3dc031ba	0.093844846
209	0xbea4fcab	-0.3222402
210	0x3da11f1b	0.07867261
211	0x3e062cdd	0.13103051
212	0xbeb19704	-0.34685528
213	0xbe03b781	-0.1286297
214	0x3d33819d	0.04382478
215	0xbed5d0bb	-0.4176081
216	0x3d6e0b96	0.058116518
217	0x3e3ec9ff	0.18631743
218	0x3dd25c9f	0.10271572
219	0xbda5333b	-0.08066412
220	0xbee28fd8	-0.4425037
221	0xbf006057	-0.50147
222	0x3dff23b0	0.12457979
223	0x3e743932	0.23849943
224	0x3e52926d	0.2056367
225	0x3dddc22f	0.10828053
226	0xbe670206	-0.22559366
227	0xbea55181	-0.32288745
228	0x3de75fe2	0.11297585
229	0xbe8ca9a8	-0.27473187
230	0x3e080199	0.1328186
231	0xbe1000fc	-0.14062876
232	0x3bcc7a9a	0.006240201
233	0x3dfbd4f4	0.12296477
234	0xbe6c0c40	-0.23051548
235	0x3de1929d	0.110142924
236	0x3e12cd22	0.14336064
237	0xbed6fe2b	-0.4199079
238	0x3dc31de4	0.095271856
239	0x3e215137	0.15753637
240	0x3e62ce1e	0.2214894
241	0xbecfd6fd	-0.4059371
242	0x3df42cc0	0.11922598
243	0x3db09e6f	0.08623969
244	0x3e3b548c	0.18293971
245	0x3c176b50	0.009241894
246	0x3db34d5a	0.08754988
247	0xbd339e10	-0.043851912
248	0x3da45149	0.080233164
249	0xbeb25d2b	-0.34836707
250	0x3d914869	0.07093889
251	0xbe807a41	-0.25093272
252	0xbe92d5f5	-0.2867886
253	0x3d855b9f	0.06511616
254	0x3e1edc2b	0.15513675
255	0x3d9deffc	0.07711789

output_conv.bias f4 [5]
0	0xbd50db0b	-0.050990146
1	0x3d613862	0.05498541
2	0x3df44c42	0.119286075
3	0xbe1c9def	-0.15294622
4	0x3db9bd80	0.090693474
