training/trained_models/model_standard_hyper.pth (torch, 80650 bytes, 6 tensors)

conv1.weight f4 [32, 1, 3, 3]
00000000: dee8 d83e 5813 a73d c77f 02bf 6e85 8c3e
00000010: 076a 023f c8dc 96bd b24c cfbe 7caa 233e
00000020: 0454 eebe eaae cc3e 085f 47bd a9b4 a0be
00000030: ec4a f9be fecc 533d 298a db3e b13c f93d
00000040: a9b0 f73e 0229 9d3d 062a ba3e d083 083f
00000050: 1b40 a93e 12d4 f6bd 9e25 913e a225 423e
00000060: d647 55ba 6b60 6ebd c7e0 6d3e 1f91 fdbd
00000070: 89d6 f03e 68ae 4f3e aec7 0abe c217 ddbe
00000080: 8b0d a13e b4e6 e23e 780e 9e3e 446e 543d
00000090: 9d40 7abe 5be6 953e 7637 543e 1330 b7bd
000000a0: e3dc 563b b93c 9c3e 6e64 c73e bd8f 1ebe
000000b0: a160 babd bff4 e6be 8160 9fbd 5e10 423e
000000c0: 25ba 553d d4d0 90bd fbb4 dc3e e1db 2dbe
000000d0: 3d56 a7be 6a0a 29be a121 b13e c05c 24bc
000000e0: e121 163e 0d0b dcbe 470c 953e c8bb 84bc
000000f0: 3077 d13e 286a af3e 1bfc 033f ad89 3a3e
00000100: 38ab d33e 0762 5cbe 62c3 aabe bba3 e7bd
00000110: b65b ccbe 61a8 63be 4783 c53e c9ee 8cbe
00000120: 1c1e a53d f143 c23d 200b e1be d0e0 60bd
00000130: 56d7 babe 7aa6 af3e 6aca b7be f13a c83e
00000140: 6f77 ff3e cec5 0dbe ebd1 143e 3434 6b3e
00000150: f673 76be 2844 dd3d c043 1fbf 7191 f53e
00000160: b4fa 803e 9f77 013f 63de acbe 2503 92bd
00000170: 8721 4bbc 9a95 b6be 5293 abbe a36f c0be
00000180: fcc6 663d 7698 933e c74d a43e 7d84 90be
00000190: 84d5 1ebe 6741 23be 6b7f a5bd f03a 093f
000001a0: 0589 1e3e 5b23 50bd 959d 853e 9034 b83e
000001b0: d22d 59bd 11b8 cd3b 53b6 92be a85c b1bd
000001c0: 81fb d2be d835 c0be 1f6c c13e 153b 3dbe
000001d0: 7779 93be bcd4 de3e aad0 12bf 819d c2bb
000001e0: cb96 743e 009f e4bc 38db e2bd 9c8f 7c3d
000001f0: ce64 abbd 163f ec3d 9cd5 993e 5bcb 4abe
00000200: 425f 9dbe 0b2c 9fbe 71bf a93e 1955 0bbe
00000210: bb25 7abe c125 34be 3783 b5be a316 933e
00000220: fab3 4b3e a035 3e3d 3f64 bc3e fc05 2c3e
00000230: 4ef5 9ebe 49cc 85bd a533 d8bd 5bd5 8dbe
00000240: 3aaa 07bf 01e5 373e 994c b4bd 1d0b e33d
00000250: fb7c 4f3e 9c4a 9c3e a940 08bf 522d e5be
00000260: 3cfe 653e eb08 a2bd faf4 203c 03c1 fe3e
00000270: 3132 93be ecc1 af3a 13ce e53e 8a69 b43d
00000280: 8e99 92bd 8fd9 be3e ff76 b83e ac7f 873e
00000290: 6492 933d ba9e 2e3d 9474 29bf 039d 44bc
000002a0: 17e9 853e 98ef c23e f1ad f8bd 7742 023f
000002b0: 8a4b 41be c129 8abe 7d98 f63e 686b 8b3e
000002c0: 15ca 87be 3c68 ca3e c74b 91be 8a3f 23bd
000002d0: ef1b 753e 4410 373d 8094 383e f31c 973e
000002e0: 0a82 c43d fd93 333d c2c8 053f 8d9a 5a3d
000002f0: c78f 883e 8e5c 133f 923d 9d3e b3f5 0e3f
00000300: 19c2 cf3b 3e88 7cbe 1008 41be d36d b1be
00000310: d8fc 0d3d 8922 9abe b0b9 c43e 0dbe 7d3c
00000320: 83e7 e0bd e7fe a1bd 1a18 b7be 67de 07bf
00000330: 3fa3 81be dfd5 8abe 434b 47be b810 013f
00000340: f5db e43e 1fd6 1abe 4345 ab3e f085 efbd
00000350: eef1 d5bd ef8b a13e 08b0 d03d 4c2a a8be
00000360: c397 04be cf48 92be e0e1 073f a3ad d43e
00000370: 1017 db3e 3c80 063f 24e4 d6be b5d6 103e
00000380: f887 e03e 1b58 27be 5ed3 a6be b872 c3be
00000390: 0afc 20be d9d1 ae3e 46d7 c2be 339c 473e
000003a0: 3671 c33e a21a fb3e 678f f13d 534e e0be
000003b0: f86c 93be 5a26 5fbd f415 b83e 2bdc 303e
000003c0: ec51 833e 14d5 043f fc4d 40be eca5 e3be
000003d0: 75f0 823e 2637 86bd 57e2 d4be 4417 fe3e
000003e0: a1b0 a43e 0253 4abe 39b9 2c3d 486f a6be
000003f0: d389 1a3e 5d87 cc3e d8f5 8e3e 6b74 dfb9
0.42365164 0.081579864 -0.5097622 0.2744555 0.50943035 -0.073663294 -0.404882 0.15983003
-0.46548474 0.399772 -0.048674613 -0.31387833 -0.48689973 0.051709168 0.42878845 0.12169779
0.48376969 0.07673837 0.36360186 0.5332613 0.3305672 -0.12052168 0.28349012 0.18959668
-0.00081360096 -0.05819742 0.23230277 -0.12381195 0.47038677 0.20281374 -0.13552734 -0.43182188
0.31455645 0.44316638 0.30870414 0.05186297 -0.2443871 0.2927731 0.20724282 -0.08944716
0.0032785467 0.30515078 0.3894381 -0.1548452 -0.09100462 -0.451086 -0.077820785 0.18951556
0.052179474 -0.07071081 0.43106827 -0.16978408 -0.32682982 -0.16507879 0.3459597 -0.010031879
0.14661361 -0.4297718 0.2911093 -0.016202822 0.40911245 0.34260678 0.5155656 0.18216582
0.41341567 -0.2152177 -0.3335219 -0.11310526 -0.3991372 -0.222322 0.3857672 -0.2752593
0.080623835 0.09485615 -0.439538 -0.054901898 -0.36492413 0.343067 -0.35896617 0.3910747
0.49895808 -0.13844988 0.14533202 0.22969133 -0.24067673 0.108040154 -0.62212753 0.47962525
0.2519127 0.5057315 -0.33763418 -0.07129506 -0.01239813 -0.35661012 -0.33510834 -0.37585172
0.05634211 0.28827256 0.3209059 -0.2822608 -0.15511137 -0.15942918 -0.08080944 0.53605556
0.15481956 -0.050814968 0.26096788 0.35977602 -0.053022213 0.006278046 -0.28654727 -0.08660251
-0.41207507 -0.3754108 0.37777802 -0.1847957 -0.28803608 0.43521678 -0.57349646 -0.005939186
0.23885648 -0.027907848 -0.11076969 0.061660394 -0.08368836 0.1153547 0.30045784 -0.19804136
-0.30736738 -0.3108829 0.3315387 -0.13606681 -0.24428456 -0.17592527 -0.3545167 0.28728208
0.19892874 0.04643786 0.36795232 0.16799158 -0.31046528 -0.06533105 -0.105567254 -0.2770184
-0.5299412 0.17958452 -0.08803672 0.11086104 0.2026252 0.30525672 -0.53223664 -0.4476114
0.22460264 -0.07911857 0.009824032 0.4975663 -0.2874923 0.0013409234 0.44883785 0.088091925
-0.071581945 0.3727536 0.36028287 0.26464593 0.07205656 0.042631842 -0.6619351 -0.012000325
0.26154396 0.3807342 -0.12142552 0.5088267 -0.18876472 -0.2698498 0.48163214 0.27230382
-0.26521364 0.3953265 -0.28378126 -0.039855517 0.23936437 0.044693246 0.18025398 0.29514274
0.095951155 0.043842304 0.5225946 0.053370047 0.26672193 0.575631 0.30711037 0.5584366
0.006340277 -0.24661347 -0.18850732 -0.34654102 0.03466496 -0.30104473 0.38422918 0.015487206
-0.10981657 -0.07909947 -0.35760576 -0.53073734 -0.2531986 -0.27116296 -0.19462304 0.50416136
0.44699064 -0.15120743 0.3345128 -0.116954684 -0.10446535 0.31552073 0.10189825 -0.3284477
-0.12948518 -0.28571174 0.5307903 0.41538724 0.42791033 0.5253942 -0.41970932 0.14144404
0.43853736 -0.16342203 -0.32583135 -0.3817346 -0.15721145 0.34144476 -0.38054866 0.19493179
0.3817231 0.49043757 0.1179493 -0.43809757 -0.28794074 -0.054479934 0.3595425 0.17271487
0.2564844 0.5188763 -0.18779749 -0.44462526 0.2557408 -0.065534875 -0.41578934 0.49627125
0.32166007 -0.19758227 0.04216883 -0.32506776 0.15091638 0.39947024 0.2792194 -0.00042620613

conv1.bias f4 [32]
00000000: d4db a7bb 2245 a3bd c008 40be 3dd5 2dbd
00000010: 2a50 743e b316 fd3e bd53 303e 676c 8e3e
00000020: ad40 2dbd 2d87 dbbd 236a cf3e 92fc 6f3d
00000030: b8c1 8f3e 2ee4 da3e a58a f83e eb15 803e
00000040: ce52 d53e 3733 bcbd d76e dd3e ce33 6b3c
00000050: 6508 bcbd 24b5 c8ba b67e 313e 9cbd f43d
00000060: cbf1 aabd e91c 60bb b909 c5bd 43e8 b63e
00000070: 21f4 9c3c 44f0 233e 99f0 e13e 1973 baba
-0.005122641 -0.079721704 -0.18753338 -0.042439688 0.23858705 0.4943138 0.17219444 0.2781708
-0.042298008 -0.10719142 0.40510663 0.05859048 0.28077483 0.42752212 0.48543277 0.25016722
0.41664737 -0.09189456 0.43248627 0.014355613 -0.09181289 -0.0015312773 0.17333493 0.119502276
-0.083468996 -0.003419692 -0.09620995 0.35724077 0.019159378 0.16009623 0.44128874 -0.0014224976

conv2.weight f4 [64, 32, 3, 3]
00000000: 1f21 6e3e a677 99bd 9601 113d 427f 3cbd
00000010: 6662 87be 99ba f9bd 1fb3 103b 7f64 cdbd
00000020: 2e47 2fbe f6d0 0abe a93e 963b 6b4a e73d
00000030: 514f 6abb fb92 28be e307 9b3d a8c9 3e3e
00000040: 3867 ac3d 41cd 99bd 4cc3 893e 7a85 92bc
00000050: 2a21 823e 72d2 e2bc 9344 2dbe ea47 763d
00000060: 686a e0bd 821c 02be 9242 bdbd 2ab5 1f3e
00000070: 445e c83d 5686 5c3d 1df9 27bc ec34 d5bd
00000080: 03bf 313e 2159 993c fac8 90bc 7a40 c8bd
00000090: 34bf e93b 3b77 0ebd 99bc 0c3d 09d3 bdbd
000000a0: 1d0d 9e3d 9da0 343c 3b71 7dbd 09ad 843d
000000b0: f2ec b1bd c45a d2bc aef4 ac3d c7c8 093d
000000c0: 0b75 f0bd d09b 403e 9f35 213d 0fd4 62bd
000000d0: ba52 043e 2585 01bd 1537 21bd 45e3 70bc
000000e0: b0ef 463d 85f6 bebd 1683 c53d 4729 873d
000000f0: 3ab9 0c3e d7a0 933b 74ed 9c3d c0d5 38bd
00000100: 29b4 693d 2d84 6dbc 784a 043e 8f84 983d
00000110: 182f 183d 8b4e 2b3c d9a5 58bd 8f19 0fbd
00000120: 85a7 0bbe 1fdd e93c 8185 263d 4436 58bd
00000130: eb17 783b 6b1f 4f3e 5aca e4bd 032f 853b
00000140: c38d 3e3c 2fd9 7a3d c3a7 42be aef2 16be
00000150: 315c 5cbd 4cba 6c3e 9371 e5bc 069e c13d
00000160: 8afb 15bc d45c 25bd d459 28bd 1aea 52bd
00000170: 4439 a2bd dfdb 09bd f79e 3d3e 1c2c e83d
00000180: ddc3 d5bc 42b7 30bc 825d 23bd b7ba 93bd
00000190: 00ab cebd 4ad5 07bc 2694 44be 7f98 a8bd
000001a0: 81d3 81bb 8a9a e03c 58f6 8abd efe9 023e
000001b0: 885a dc3b 05bd d93c f12b dabd ddfa c13c
000001c0: f630 433e 76df 82bd ba0b 4f3d 13e8 ef3d
000001d0: 6e18 21be 317c 3ebc d7c8 32bc cdc2 5cbd
000001e0: dba5 b6bc d05b 583e 63aa 48bd 3a95 153b
000001f0: 26ea 013e e591 85bd 56d8 b13d da6c e0ba
00000200: df68 19bb 9291 dcbc 95c6 103e daa8 15be
00000210: 6743 1dbc cc63 65b9 870c 68bd 7cba 3b3e
00000220: a1c6 c73c e3e2 4bbd 026b 1d3d 9af0 233a
00000230: 86a5 abbd 76f9 95bd 3730 113d 0f01 c6bd
00000240: d78b 3dbc e54b babc 8a30 9abc 3875 f9bd
00000250: 9404 a93d a3eb b73c 8038 5cbd 9ea4 423d
00000260: a68a 5f3d 16d6 05be 532d 523d f4a3 de3d
00000270: efac 8bbe 9d5b 24bd 24d6 873d 25a8 5cbe
00000280: 828d 133d 64a7 e33d 4080 833d e60e da3d
00000290: f0e3 83bd 523b a43d e815 de3d 47a0 833d
000002a0: b324 0c3d 05c2 cd3d 906b e1bd 27bf 3c3e
000002b0: c6bd 8fbc 4262 e1bd c0a2 33bc 6d02 1bbe
000002c0: 6b31 f8bd f060 153e 760f c3bc 4f53 0ebe
000002d0: 3a8b d83d 5e9d ccbd c1fe a6bc 1dd2 89bd
000002e0: 9c52 df3d 2e30 2abc 4b0e c33d 1c7f 0f3d
000002f0: 0859 44bd 6f9c a83e a63a 153e d13b 1e3e
00000300: c894 a23d 0e99 843d b369 973d 7219 5fbe
00000310: 99a3 a5bd 1470 cf3c 4b47 1d3d 86c9 593e
00000320: 770f 3c3d 172d 023e bf3e 3e3e 2788 29be
00000330: 276a 82bc 576c b6bc 5bfa c13d 03ba 213e
00000340: e0e2 263d a261 6c3c 5522 363d a2f4 c13c
00000350: 6a2b bbbd 4f61 a53b bfc7 bb3c 95d9 27be
00000360: 4ea6 e3bd 2ea9 f93c ac78 1d3e 0c79 cebd
00000370: 3dd0 58bd e817 bebb 8dbb f0bd 70e0 43bd
00000380: aa42 2f3e b2ac 85bd 015a b6bd d99a 2dbe
00000390: c83f 25be 07a8 5fbd 9935 143d 62bc 3f3e
000003a0: 949d 07bd abce 843d 685f 39bd df4e 073e
000003b0: 0570 c3bd d15e 75bd 6128 16be b731 8dbd
000003c0: 150b c43e d197 2dbe 86f1 d2bd bed6 f9bc
000003d0: bc55 bbbd 17b2 7f3d e4dd 03be 4fe3 853d
000003e0: a556 a43b 3e56 12bb 1cd3 d13b 1728 9b3d
000003f0: b0ed d83d 3b38 cdba 5575 823d 98ee 8dbd
0.23254822 -0.07493524 0.035401903 -0.0460198 -0.2644226 -0.12193794 0.002207942 -0.10028934
-0.17116997 -0.13556275 0.0045851064 0.11293491 -0.0035752843 -0.16462319 0.07569864 0.18631613
0.08418125 -0.07509852 0.26906812 -0.017885912 0.25415927 -0.027688239 -0.1692069 0.060127176
-0.109577954 -0.12706187 -0.09241213 0.15596452 0.09783605 0.05383905 -0.010252264 -0.10410485
0.17358021 0.018719258 -0.017673958 -0.09777923 0.007133389 -0.034781676 0.03435955 -0.092687674
0.07717345 0.011024621 -0.061875563 0.06478316 -0.08687772 -0.025678046 0.084451064 0.03363874
-0.11741074 0.18809438 0.039357778 -0.055378016 0.12922183 -0.031621117 -0.03935917 -0.014702623
0.048568428 -0.093243636 0.09644143 0.0659967 0.13742533 0.0045052576 0.07662478 -0.045125723
0.05705658 -0.014496845 0.12919033 0.074471585 0.037154287 0.010455738 -0.05289254 -0.034936484
-0.13638122 0.028547822 0.040654663 -0.052786127 0.0037856053 0.20226829 -0.11171408 0.004064442
0.011630478 0.06124228 -0.19009309 -0.14741012 -0.053798858 0.23117942 -0.028008258 0.09453969
-0.00915421 -0.04037173 -0.04110129 -0.051492788 -0.07921079 -0.03365695 0.18517672 0.11336538
-0.026094371 -0.01078588 -0.039884098 -0.072133474 -0.100912094 -0.008290598 -0.19197139 -0.08232211
-0.003961981 0.02741744 -0.067852676 0.12784551 0.0067246594 0.02657939 -0.106529124 0.023679191
0.19061646 -0.06390278 0.050548293 0.117141865 -0.15731975 -0.011626289 -0.010912142 -0.053896714
-0.022295883 0.21128774 -0.04899062 0.0022824542 0.12686977 -0.06521968 0.08683841 -0.0017122284
-0.0023408455 -0.026924882 0.14138253 -0.14615193 -0.0095985895 -0.00021876319 -0.056652572 0.18332857
0.024386706 -0.049776923 0.03843213 0.0006253809 -0.083811805 -0.073229715 0.035446372 -0.09668171
-0.011568985 -0.022741267 -0.018821973 -0.12180561 0.08252826 0.022451228 -0.05376482 0.047520272
0.054575585 -0.13069949 0.051312756 0.10871115 -0.27280375 -0.04012643 0.06632641 -0.21548517
0.036023624 0.111159116 0.06420946 0.10647373 -0.0643996 0.08019127 0.10844022 0.06427055
0.034214687 0.10046772 -0.11006844 0.18432294 -0.017546546 -0.11005069 -0.010964096 -0.15137644
-0.12118801 0.1458776 -0.023811083 -0.13898967 0.1057343 -0.09990953 -0.020385148 -0.06729529
0.10904428 -0.0103874635 0.095242105 0.03503333 -0.04793647 0.3293185 0.14573154 0.15452506
0.07938534 0.06474505 0.073932074 -0.2178705 -0.080878444 0.025321998 0.03839807 0.21268281
0.045913186 0.12712513 0.18578623 -0.16555844 -0.015919758 -0.022268457 0.0947158 0.15793614
0.04074371 0.014427574 0.044466335 0.02367622 -0.0913914 0.0050470005 0.022922395 -0.16391595
-0.111157045 0.030476179 0.15378064 -0.100816816 -0.052932967 -0.0058011897 -0.117545225 -0.047821462
0.17115274 -0.0652708 -0.08903886 -0.16953601 -0.16137612 -0.054603603 0.036183927 0.18724206
-0.033109263 0.06484731 -0.045257002 0.1321368 -0.095428504 -0.059904877 -0.14663841 -0.06894248
0.38289705 -0.16952445 -0.10299973 -0.030497905 -0.09147212 0.0624257 -0.12877613 0.06537496
0.0050152116 -0.0022329236 0.00640334 0.07576006 0.1059221 -0.0015657017 0.063700356 -0.06930274

conv2.bias f4 [64]
00000000: c23e 313e 0369 b83d 16d1 ac3d da25 5f3d
00000010: e002 0c3c 77a9 69bd 91ff aabc d735 f33d
00000020: 16d4 443d 5998 3fbd 6ee4 84bd 2763 3f3d
00000030: aae5 5d3d 4330 63bd 319b 86bd 389a 9ebc
00000040: d35b 913d 4826 893d 56c6 51bc e072 9abd
00000050: 5c19 0d3e e692 153e ce2f 23ba 5e13 693d
00000060: 69ec 423d c5c8 a1bd 3341 453d 7db1 9e3d
00000070: c35e 74bd 1c15 733d e7e4 bf3d fd74 8e3a
00000080: 6e50 a13d 32ff 0f3e 3a4c 9b3d 8abe c23b
00000090: 959e 553c 852e 223e 7425 c93d 502b 5f3c
000000a0: 266e 823d f424 4cbd c91d 053e 3ecf c93c
000000b0: f690 86bc 2d6f cb3d c408 d23c 30f8 11bc
000000c0: 62ab 083d 3c82 7f3d 9bde d33c 53b8 d23d
000000d0: 3932 a03d 8070 e9ba 20a3 3e3c 7e60 1cbd
000000e0: 9872 8bbd c57d 133e dd02 95bc 1852 abbd
000000f0: 3753 0e3e 3d5f ca3d 0fb1 f93d 5d40 e83d
0.17309096 0.090044044 0.084383175 0.054479457 0.008545607 -0.05704638 -0.020873817 0.118755035
0.048053823 -0.04677615 -0.06488882 0.04672542 0.054174103 -0.055465948 -0.06572569 -0.019360647
0.07097592 0.06696755 -0.012803635 -0.07541442 0.13779205 0.14606819 -0.000622508 0.056903236
0.04758874 -0.07899622 0.048157882 0.07748697 -0.059660684 0.059346303 0.093698315 0.0010868605
0.07876669 0.14062193 0.075828984 0.005943124 0.013038297 0.15838058 0.09821597 0.013621166
0.063686654 -0.04983993 0.12999643 0.024634954 -0.016426545 0.099333145 0.025638945 -0.00890927
0.03336657 0.06238006 0.025862982 0.10289063 0.07822079 -0.0017810017 0.011635572 -0.03817796
-0.068089664 0.14403446 -0.018189842 -0.083652675 0.13898931 0.098814465 0.12191974 0.11340401

output_conv.weight f4 [10, 64, 1, 1]
00000000: 73c8 813e 9889 833d 8677 263e 8a56 853e
00000010: 3fe0 89bd 7934 713a 33c4 32be 9718 373e
00000020: 9bab 3a3e 8c4f 23be 71ed 1bbe c2e3 1d3e
00000030: 84d3 21be c58a debd 5fa8 29be 17fa 0ebe
00000040: 1f17 0ebd fc5c ce3d 85d8 303d a8b4 be3d
00000050: 7278 db3d 2ccf 2bbd dc40 efbc 061e 813e
00000060: a5d9 163e b370 6bbe 1f9b c7bd d1eb 0a3b
00000070: 6b72 bcbe 5cb6 093e cc89 333e 8394 8ebe
00000080: 837d 6f3e 86dd b23e f3d3 403e 8aef 9b3d
00000090: e90a bc3a c05e 2e3d 20e7 493e 02a8 433d
000000a0: afc9 853e 3ee0 b5bd 5c4c 203e 9a81 ce3d
000000b0: 0a58 3e3e 94b7 0d3e 6669 adbd d333 b23d
000000c0: 2cb1 18bc 99b4 2b3e b20d b1be befb 3abd
000000d0: e52f 293e 3bdf 413e 412f 0ebd e15d 81bd
000000e0: 8d30 e63c 1246 943e 5a72 1ebd dd50 48be
000000f0: 7f86 dd3c f46e 0d3e 84da 8bbd 6fa0 dd3e
00000100: c1b0 87be 07ae a23e 66b7 f53c 6682 5d3e
00000110: a1b3 e23e c6b1 5c3d 1724 803e c3c7 e73d
00000120: 0820 1cbe ffde 2a3d f020 ab3d fb18 3f3e
00000130: 8953 78bd bc36 883d 1b1f 85be 631e 65be
00000140: e5a7 813e 003d 613d 2c24 713e 089a 8d3d
00000150: adb4 9f3d 3bd7 72bd 3c40 29bc 1efc cc3d
00000160: 9dbd adbe a2aa 88be d4bf 173e 8172 b1be
00000170: 9809 fa3d ecd2 8a3d 06e3 083e 281d 5cbe
00000180: 32ab 28be 4560 12bf d1e9 5d3d d0d4 bf3d
00000190: 868e a7bd fb7d e9bd 4286 023e 6a15 c7bd
000001a0: 6bba 98bd 834e b2bd db40 88bd efcf 84bd
000001b0: ca67 0fbe c985 95bd cd15 59be 6bb5 c83d
000001c0: 637f 173d da40 68be b576 9cbd 0ad8 293e
000001d0: 691b ce3d c605 72bc efa2 80bd 7944 3f3c
000001e0: c5b2 8c3d ea9f 21be 5b3f 563d ee5b 583d
000001f0: 037e 23bd 6c5f 10be 432a f53d f63e 96be
00000200: c553 863e 3163 b93d da9e 1ebd 53c7 aebd
00000210: b57c 95bd b330 32bd 40d4 8bbd 4adb a2bd
00000220: 4f6b 4c3e b9be 7cbe 7e49 673d e972 8d3d
00000230: 3da2 2a3e 7b1b 0fbd d22d ad3d 5175 f9bd
00000240: 03e0 533e 2db7 89be bf8a 433d 097d 6ebe
00000250: 6515 1d3d 70b2 1dbe fd0a a6bd 7629 573e
00000260: 9cdd 84be 3c5c 28bc 2f4d 82bd 3447 0e3d
00000270: f23a e43d 8604 af3e ceef 09bd 63da 11be
00000280: 65aa 42be 9ae6 7a3e 40e3 193d dc69 0e3e
00000290: c1a1 29bd 57a2 923d 503d 17bd 3fa4 f53d
000002a0: 4cbe 74be 2ae8 bcbd 1a2a d83d c576 8e3e
000002b0: b9a8 2b3e f957 82bd 2a45 09be dbde 643e
000002c0: 8bbc a53d f450 9cbd aa21 82bd e193 c63c
000002d0: 6ab1 273d 782e 9bbe 99d4 b7bc b6b4 a1bd
000002e0: c3b4 cdbd 3afe da3d fb4f 093e c37a 8dbe
000002f0: a0bf 473e 8427 af3d 301b 813d b59a 123e
00000300: 75c3 8b3d ef7a dc3c ddf9 02be a21f d73c
00000310: c7f8 8dbc ae27 ea3d ce5f 47be d5c7 863d
00000320: f266 103e 35c9 89bd 3785 0dbd 36ed 313d
00000330: 048c 343e 9579 693c 6a96 5ebd d01b ffbd
00000340: bdd7 15bd 1f8b fabd ef6a 3cbe 773b 2cbe
00000350: 2d1f 00be 4516 353c 669d 86be 52ed 7a3c
00000360: f4fb 0abe 0a70 9dbe 104f ff3d cc3b 9abb
00000370: 2a1b bc3c e0bb 3e3e 2221 4f3e a2ee dd3c
00000380: cc95 813d 136a 313d 06d8 6c3e e8bb 523e
00000390: 63ad 1b3b 760f 1f3e d9c2 b23d b4d6 543e
000003a0: 03a4 da3d 4382 95bc a47e 4ebd 0305 4a3e
000003b0: 7cf5 b23d 238e 8f3c 3c44 6c3d 71b7 4d3e
000003c0: 8482 69bd e543 7cbe b612 09bd 2265 a33e
000003d0: 8b7f 55bd 59fe 28bd 6516 dcbd f736 8f3d
000003e0: a7ad 423d 7515 263e 3104 833c 296e 8fbe
000003f0: 83a1 423e d454 e93d beb6 c4bd d65a 97bd
0.25348243 0.06422728 0.16256532 0.26042587 -0.06732225 0.00092012394 -0.17457657 0.17880474
0.18229525 -0.15948313 -0.15227295 0.15418914 -0.15803343 -0.10866312 -0.16568135 -0.13962589
-0.03469002 0.10076329 0.04317524 0.09311801 0.107163325 -0.04194562 -0.029205732 0.2521822
0.14731462 -0.2299221 -0.09746384 0.0021197686 -0.36806044 0.13448471 0.17533034 -0.2784768
0.23387723 0.34934634 0.18830852 0.07614048 0.0014346513 0.04257083 0.19717073 0.047767647
0.26130435 -0.088806614 0.15654129 0.10083313 0.18588272 0.13839561 -0.08467369 0.08701291
-0.009319585 0.16768111 -0.3458076 -0.045650236 0.16522177 0.18932812 -0.034713034 -0.06316734
0.028099323 0.2895971 -0.038683273 -0.19562097 0.027041672 0.13811857 -0.06828788 0.43286464
-0.2650204 0.31773397 0.029994678 0.21631774 0.4427767 0.053880475 0.25027534 0.113173984
-0.15246594 0.041716572 0.08355892 0.18661873 -0.06062654 0.06651065 -0.26000294 -0.22374873
0.25323406 0.054989815 0.23548955 0.06914145 0.07798133 -0.05928729 -0.010330256 0.10009025
-0.33933726 -0.26692683 0.1481927 -0.34657672 0.12208861 0.067785114 0.13367853 -0.21495497
-0.16471556 -0.57178146 0.054178063 0.09366763 -0.08181481 -0.11400982 0.12746528 -0.09720881
-0.074574314 -0.08706381 -0.06652995 -0.06484973 -0.14004436 -0.07300908 -0.21199723 0.09800228
0.03698672 -0.22680989 -0.07639829 0.16586319 0.10063822 -0.014771884 -0.06281077 0.01167404
0.06870035 -0.15783659 0.052306514 0.052822046 -0.039915096 -0.140989 0.119709514 -0.2934491
0.26235786 0.090521224 -0.03872571 -0.08534112 -0.072991766 -0.043503474 -0.06827593 -0.07951982
0.1996281 -0.2468213 0.056466572 0.06906683 0.16663451 -0.034938317 0.08456005 -0.121805795
0.20690922 -0.26897565 0.04773974 -0.23289885 0.03835048 -0.154001 -0.081075646 0.2101191
-0.25950325 -0.010275897 -0.06362378 0.034735873 0.111440554 0.3418314 -0.03367596 -0.14243464
-0.19010313 0.2450203 0.037570238 0.1390757 -0.041414026 0.0715987 -0.036923707 0.11994218
-0.23900717 -0.09223969 0.10554905 0.2782499 0.16763581 -0.06364436 -0.1340529 0.22350638
0.08092602 -0.07632628 -0.06354077 0.024240436 0.04094068 -0.3030889 -0.022440242 -0.07895796
-0.10044243 0.10693021 0.13409416 -0.27632722 0.19506693 0.08552459 0.06304014 0.14316829
0.0682439 0.026914088 -0.12790628 0.0262602 -0.01733054 0.114333495 -0.1947014 0.06581084
0.1410177 -0.0672783 -0.03455087 0.043439113 0.17631537 0.014250179 -0.054342665 -0.12456477
-0.036582697 -0.122335665 -0.18400167 -0.16819559 -0.12511893 0.011052673 -0.2629196 0.015315371
-0.13572675 -0.30749542 0.12466252 -0.0047068354 0.022962172 0.18626356 0.20227483 0.027091328
0.063273996 0.04331405 0.23129281 0.20579493 0.002375447 0.15533242 0.087285705 0.20785028
0.10675814 -0.01825059 -0.050413743 0.19728474 0.08738229 0.01752383 0.05768226 0.20089509
-0.057009235 -0.24635275 -0.03346511 0.31913096 -0.052123588 -0.04125819 -0.10746459 0.069929056
0.04752889 0.16219123 0.01599321 -0.28013733 0.19006924 0.11393133 -0.09605168 -0.073903725

output_conv.bias f4 [10]
00000000: 2f41 7a3d 1c9e 803d f5f0 34bd b0db 06bc
00000010: abfa c53b 6994 d03c 44b5 26be 2f7f 4838
00000020: a827 0ebd c3a7 2d3d
0.06109732 0.06280157 -0.044175107 -0.0082310885 0.006041845 0.025461392 -0.16280085 4.7802165e-05
-0.034705788 0.04239632
