training/trained_models/model_living_grafted.pth (torch, 84842 bytes, 14 tensors)

conv1.weight f4 [32, 2, 3, 3]
0	0xbe03f3b3	-0.12885933
1	0x3d1bbab7	0.038019862
2	0xbe05bb81	-0.13059808
3	0xbe0bdae2	-0.13657716
4	0xbe0d8b1d	-0.13822599
5	0x390ef645	0.00013633918
6	0xbdbefe58	-0.09325856
7	0xbe06b794	-0.13155967
8	0xbde78baa	-0.11305936
9	0x3c059025	0.0081520425
10	0x3d947bed	0.072501995
11	0x3c5df434	0.013546992
12	0x3d1536c0	0.036429167
13	0xbd775233	-0.060381126
14	0x3ccd2a73	0.025044655
15	0xbcd23c1c	-0.025663428
16	0xbda74d03	-0.08168986
17	0xbd87ca02	-0.06630327
18	0x3d5529f0	0.052041948
19	0xbdaac155	-0.083376564
20	0xbe7b7483	-0.24556164
21	0x3e126e0a	0.14299789
22	0x3dc2d957	0.095141105
23	0xbea1851e	-0.31546873
24	0xbd878b67	-0.06618386
25	0xbdc7663d	-0.09736297
26	0xbe8231fa	-0.25428754
27	0xbcdd7a48	-0.027035847
28	0xbd258bb8	-0.04041645
29	0x3cb060a8	0.021530464
30	0xbcc65567	-0.024210645
31	0xbd2b4ad8	-0.041819423
32	0xbe030d45	-0.1279803
33	0x3c48a6d2	0.012246804
34	0xbd7e2d87	-0.062055137
35	0x3cd7e449	0.026353972
36	0x3ddc3939	0.10753102
37	0x3e213a14	0.15744811
38	0xbcf67b9b	-0.030088237
39	0x3e46541d	0.19368024
40	0x3ddf2a60	0.10896754
41	0xbe886ec5	-0.2664701
42	0x3d98989d	0.07450984
43	0x3e2a58b6	0.16635403
44	0x3d9979de	0.074939474
45	0x3cad0ab9	0.021123277
46	0xbd9672b5	-0.073460974
47	0x3d0c0dbc	0.034192786
48	0xbd26c26e	-0.040712766
49	0x3b47f00b	0.0030508067
50	0x3e2d6cd3	0.16936044
51	0xbc933528	-0.017969683
52	0xbdd3145c	-0.103066176
53	0x3cb28ecc	0.021796606
54	0x3e233467	0.15937959
55	0xbe04f364	-0.12983471
56	0x3e33bcee	0.1755254
57	0x3ccf5f94	0.02531413
58	0xbe3eda38	-0.18637931
59	0x3db5ca06	0.088764235
60	0x3e677d09	0.22606291
61	0x3e460966	0.19339523
62	0x3e2cfe6d	0.1689393
63	0xbcfbc2ce	-0.030732539
64	0xbd0fcf71	-0.03510994
65	0xbda865e6	-0.082225606
66	0x3dd67c4b	0.10472926
67	0x3e53ae04	0.2067185
68	0xbc953a07	-0.018216146
69	0xbd84536c	-0.06461224
70	0xbc358fcd	-0.011081648
71	0xbccd0ddb	-0.02503102
72	0xbde71b49	-0.11284501
73	0x3e0d46ae	0.13796493
74	0xbe1ff483	-0.15620618
75	0xbe8a01a1	-0.26954368
76	0x3e228683	0.15871625
77	0x3dec5209	0.115390845
78	0xbda02c38	-0.07820934
79	0x3e31cd9d	0.17363591
80	0x3e3a99d0	0.18222737
81	0xbd464186	-0.04840233
82	0x3de2df3c	0.11077735
83	0xbd04090f	-0.0322352
84	0x3e363c26	0.17796382
85	0xbd17bdc7	-0.03704622
86	0xbc2cb94e	-0.010542227
87	0x3cc9d2c6	0.024636637
88	0xbc7d6033	-0.01546483
89	0xbda42915	-0.08015648
90	0xbd355a7d	-0.04427575
91	0xbe343e29	-0.17601837
92	0xbd883e8b	-0.06652554
93	0xbe292c77	-0.16520868
94	0xbd5f69b1	-0.054544155
95	0x3e4b65db	0.19863074
96	0xbdb3fc8e	-0.08788405
97	0xbe0b928f	-0.13630126
98	0x3de3756a	0.11106379
99	0xbde0f3d0	-0.109840035
100	0xbca0e4a4	-0.019640274
101	0x3c162d53	0.00916608
102	0xbd67abc3	-0.05656029
103	0xbbc6d277	-0.00606757
104	0xba41ec76	-0.0007397601
105	0x3bbc2489	0.00574166
106	0xbba97512	-0.0051714266
107	0xbc0525b6	-0.008126667
108	0xbe3e80ad	-0.18603773
109	0xbe25fa7a	-0.1620883
110	0x3e32bf71	0.17455842
111	0x3e8ae137	0.2712495
112	0x3da6e3c0	0.081489086
113	0xbe83e9b8	-0.2576425
114	0xbddb4e85	-0.10708336
115	0xbe71aa06	-0.23600015
116	0x3e129952	0.143163
117	0xbc000f5a	-0.00781616
118	0x3cb4c4c4	0.022066481
119	0x3d15f7a3	0.036613118
120	0x3d94c9e2	0.072650686
121	0xbc3b5a3d	-0.011435089
122	0x3e0b9992	0.13632801
123	0x3d54693f	0.051858183
124	0x3e065e65	0.13121946
125	0x3da778de	0.081773505
126	0x3e72a180	0.2369442
127	0x3c834e19	0.01602845
128	0x3cf8d570	0.030375212
129	0x3e4a9063	0.19781642
130	0xbe4c3ae7	-0.19944344
131	0xbe3da112	-0.18518475
132	0xbe574d86	-0.21025667
133	0x3e11fa0a	0.14255539
134	0x3e1efa2b	0.15525119
135	0x3d25c786	0.040473484
136	0x3c96044a	0.018312592
137	0x3b81e51c	0.0039640795
138	0xbc780e94	-0.015140194
139	0xbceb0b04	-0.028691776
140	0xbd85e05d	-0.065369345
141	0x3b52eb8f	0.003218386
142	0x3ca54b07	0.020177377
143	0xbd5bf7ec	-0.053703234
144	0x3e1a9069	0.1509415
145	0x3e81d07d	0.25354376
146	0xbe1ddd44	-0.15416437
147	0x3e0def45	0.13860805
148	0x3e0c2211	0.1368487
149	0x3c6d4e11	0.0144839445
150	0xbe0f4966	-0.13992843
151	0x3d599fce	0.053130917
152	0x3d9f409a	0.07775994
153	0x3d802724	0.062574655
154	0x3e172248	0.14759171
155	0x3e07ef75	0.1327494
156	0x3e06e967	0.13174973
157	0xbe80fc41	-0.25192454
158	0x3dafe0cb	0.08587798
159	0xbda22edf	-0.07919096
160	0xba9e0870	-0.0012056958
161	0x3d098ec2	0.03358341
162	0xbe2e6783	-0.17031674
163	0xbe7fc603	-0.24977879
164	0x3dae8b52	0.08522667
165	0xbe3be690	-0.18349671
166	0xbe07b100	-0.13251114
167	0xbdc10469	-0.09424669
168	0xbe62c544	-0.22145563
169	0xbdca40b4	-0.098756224
170	0x3d44c713	0.048041414
171	0xbc6db8cc	-0.014509391
172	0x3bd86195	0.0066034296
173	0xbd939ad3	-0.07207265
174	0xbd927866	-0.071518704
175	0xbde2b10d	-0.11068926
176	0xbdf7b268	-0.12094575
177	0x3deee4da	0.11664744
178	0xbc553457	-0.013012967
179	0x3d5809e3	0.052743804
180	0xbd239e36	-0.039945804
181	0xbe380fd7	-0.17974792
182	0xbd2960f3	-0.041352224
183	0xbe5cc336	-0.21558842
184	0x3e33b83a	0.17550746
185	0xbe3a07ba	-0.1816701
186	0xbd43c794	-0.047797754
187	0x3e3611f0	0.1778028
188	0xbe1c4f3a	-0.15264598
189	0xbd7c94cd	-0.061665345
190	0xbc78ada5	-0.015178119
191	0xbc026035	-0.007957508
192	0x3d470b34	0.04859467
193	0x3cae6dca	0.021292586
194	0xbda550f7	-0.080720834
195	0xba5598fb	-0.0008148101
196	0xbb3fb72f	-0.0029253473
197	0x3d4a7556	0.049428307
198	0xbe08ebec	-0.13371247
199	0x3dea3d5b	0.11437484
200	0x3df5af55	0.119963326
201	0x3db6fab6	0.08934538
202	0xbd908a40	-0.07057619
203	0x3e0852ee	0.13312885
204	0x3d738834	0.059456065
205	0x3de4ff55	0.11181513
206	0x3e652c74	0.22380239
207	0x3dc9a576	0.09846012
208	0x3d5bda7a	0.053675152
209	0x3cb5aefa	0.022178162
210	0xbd17177b	-0.036887627
211	0x3d0eec7d	0.0348935
212	0xbc14bdad	-0.009078425
213	0x3c77780b	0.015104304
214	0xbc2363cd	-0.009972525
215	0x3bb40e25	0.00549485
216	0xbd7add05	-0.061245937
217	0x3e5ad3a6	0.213698
218	0x3da7a5ca	0.08185919
219	0x3e1d3519	0.15352286
220	0x3e1c9970	0.15292907
221	0x3db22519	0.08698482
222	0xbe96ff30	-0.29491568
223	0x3dc7a900	0.09749031
224	0x3dd63a75	0.104603685
225	0x3d1c721c	0.03819476
226	0x3d784061	0.06060827
227	0x3d0ebcd6	0.034848057
228	0xbd418dfd	-0.04725455
229	0xbdfe813c	-0.12426993
230	0xbced3b5f	-0.028958974
231	0x3e2b79e4	0.16745716
232	0x3d1fcaf9	0.03901193
233	0x3db13666	0.08652954
234	0xbe900629	-0.281297
235	0x3d45f87e	0.048332684
236	0xbe5a965c	-0.2134642
237	0x3c915475	0.017740468
238	0x3d947293	0.07248416
239	0xbe21f88a	-0.15817466
240	0x3e5513c8	0.20808327
241	0x3d5c13cd	0.05372982
242	0xbd835e61	-0.06414486
243	0xbd1d69b2	-0.038430877
244	0x3dcecee4	0.10098055
245	0x3d206b1f	0.03916466
246	0xbd64a605	-0.05582239
247	0xbd0e431e	-0.034731977
248	0x3e19f4a1	0.15034725
249	0xbdc3b369	-0.09555704
250	0x3adb0bb0	0.0016711857
251	0x3d9ff95e	0.07811235
252	0xbda782aa	-0.08179219
253	0xbde7c786	-0.11317353
254	0xbdeb8ca4	-0.115014344
255	0x3e30e5d7	0.17275177

conv1.bias f4 [32]
0	0x3df52224	0.119694024
1	0x3c203e56	0.009780487
2	0x3ce058bb	0.02738606
3	0xbc021860	-0.007940382
4	0x3df690ff	0.120393746
5	0xbe25940c	-0.16169757
6	0x3e191b1e	0.1495175
7	0x3e4c4218	0.19947088
8	0x3dcc51eb	0.09976562
9	0x3e0ba7e2	0.13638261
10	0xbe2a98b6	-0.16659817
11	0x3e195856	0.14975104
12	0x3dabb0f6	0.08383362
13	0xbe3bdc29	-0.18345703
14	0x3cf5f53e	0.030024167
15	0xbdccd2ff	-0.10001182
16	0xbd5b3ea0	-0.05352652
17	0x3e2a5183	0.16632657
18	0x3e484c92	0.1956046
19	0x3e47aa2a	0.19498506
20	0xbd75d07a	-0.060013272
21	0xbe42b830	-0.19015574
22	0x3d8a00a2	0.06738402
23	0xbd7e4733	-0.06207962
24	0x3e40f881	0.18844797
25	0x3d4238fb	0.047417622
26	0x3e56d53f	0.20979784
27	0xbe5ab721	-0.2135892
28	0x3d5aa429	0.05337921
29	0xbd57db0a	-0.052699126
30	0xbe3257e2	-0.17416337
31	0x3e0b74d8	0.13618791

conv2.weight f4 [64, 32, 3, 3]
0	0x3b76fa14	0.003768568
1	0x3cd00845	0.025394568
2	0xbc9e8317	-0.019349618
3	0x3ccae295	0.024766246
4	0xbd39f567	-0.04540005
5	0x3cc07603	0.023493772
6	0x3d141366	0.036151312
7	0x3d774416	0.060367666
8	0x3a4e2d5a	0.0007865034
9	0xbc8a57b9	-0.016887533
10	0x3dc6a37e	0.096991524
11	0x3c11aeb9	0.008891755
12	0x3dc93f54	0.09826532
13	0x3d3e04c9	0.046391282
14	0x3d1e0927	0.038582947
15	0xbd9064bd	-0.07050464
16	0x3bb3534d	0.0054725767
17	0x3c3d82c8	0.011566825
18	0xbd4e0a32	-0.05030269
19	0x3bbde7ff	0.0057954784
20	0x3c9aea31	0.0189105
21	0xbdc0a6b3	-0.09406795
22	0x3bed9775	0.007250721
23	0xbcad8470	-0.021181315
24	0x3d2c9196	0.04213103
25	0xbc222f52	-0.009898977
26	0xbb49b812	-0.003077988
27	0xbd4c3d76	-0.0498633
28	0xbcf1a1fc	-0.029496185
29	0xbd18966d	-0.037252832
30	0xbc93e6be	-0.018054362
31	0xbd846104	-0.06463817
32	0xbcfaf80f	-0.030635862
33	0xbdb17132	-0.086641684
34	0xbc88f559	-0.016718553
35	0x3ca44a01	0.020054819
36	0x3d69b984	0.057061687
37	0x3c18427c	0.009293195
38	0xbd2c07d8	-0.041999668
39	0x3ba49435	0.0050225505
40	0xbca81a46	-0.02052034
41	0x3d9cb033	0.07650795
42	0xbcc9d168	-0.024635985
43	0xbdcc010e	-0.09961139
44	0x3d1a3ade	0.037653796
45	0xbb59b2f1	-0.003321823
46	0x3c9dec16	0.019277614
47	0x3c878175	0.016541222
48	0x3d2a4846	0.04157283
49	0xbc53eea8	-0.012935318
50	0x3d500d94	0.0507942
51	0xbc85127e	-0.01624417
52	0x3d06f1d8	0.032945484
53	0x3c9b3f95	0.018951217
54	0x3d118d8e	0.035535388
55	0xbd3d79e9	-0.04625884
56	0xbcdd9323	-0.0270477
57	0xbd514023	-0.051086556
58	0x3c521584	0.012822513
59	0xbd9d9e4c	-0.07696208
60	0xba5af11c	-0.0008351968
61	0xbd715aad	-0.058924366
62	0x3bb89794	0.005633304
63	0xbd11fd38	-0.03564188
64	0xbdb35e2a	-0.08758195
65	0x3cb6a451	0.022295149
66	0x3ab86a52	0.0014069772
67	0xbd1d67a3	-0.038428914
68	0xbd32bf6c	-0.043639585
69	0x3cac8397	0.02105884
70	0xbd120b46	-0.035655282
71	0xbd1c949d	-0.038227666
72	0x3c7340b9	0.014846974
73	0xbd037e89	-0.032103095
74	0xbd8b0cc8	-0.06789547
75	0x3b0fc2f9	0.002193628
76	0x3d9862fa	0.07440753
77	0xbbb2bef9	-0.0054548946
78	0xbc05c022	-0.008163484
79	0x3d2141cb	0.039369386
80	0xbc04ecc6	-0.008113092
81	0xbcc2b984	-0.023770101
82	0xbcb36b1b	-0.021901658
83	0xbcc6ec3c	-0.024282567
84	0x3d72fc27	0.059322502
85	0xbcea3ffa	-0.02859496
86	0x3d1326cb	0.035925668
87	0x3bf7b9b7	0.0075599807
88	0x3d1ac686	0.037786983
89	0xbcf4a757	-0.02986495
90	0x3d0029d5	0.031289894
91	0x3d7dfab3	0.062006664
92	0xbc46050f	-0.012086167
93	0x3d88743f	0.06662797
94	0x3d479365	0.04872455
95	0x3cfc918a	0.030831117
96	0x3cc85b05	0.024457464
97	0xbc06d5c0	-0.008229673
98	0x3cdebc49	0.02718939
99	0x3cd2c2c7	0.025727643
100	0xbadebe26	-0.0016993925
101	0x3c00b094	0.0078545995
102	0xbcceb7eb	-0.025234183
103	0xbc0ac1e8	-0.008469082
104	0xbd22e212	-0.03976638
105	0x3d948629	0.072521515
106	0x3cb4958d	0.022043968
107	0xbdde8d6d	-0.108668186
108	0xbcb680b9	-0.022278177
109	0x3d123791	0.035697524
110	0xbde55d69	-0.11199457
111	0x3d87eb20	0.066366434
112	0x3d30a5af	0.04312676
113	0x3cc42c17	0.023946805
114	0xbbcdab57	-0.006276529
115	0xbc34505a	-0.011005485
116	0x3d0c8234	0.03430386
117	0x3cbfdbf1	0.023420306
118	0x3d00fd41	0.03149152
119	0x3d33b16b	0.04387037
120	0xbc6b0de4	-0.0143465735
121	0xbc466d38	-0.012111001
122	0x3cde6e33	0.027152156
123	0x3c1a4375	0.009415497
124	0xbdaa095a	-0.08302565
125	0x3dbc493c	0.09193656
126	0xbca84da0	-0.020544827
127	0x3cc0f0e9	0.023552375
128	0xbbd0efbb	-0.0063762343
129	0x3d3c52db	0.045977455
130	0x3d897085	0.067109145
131	0x3d8f2080	0.06988621
132	0x3d772d4b	0.06034593
133	0xbdc714f1	-0.09720791
134	0xbc3d33ba	-0.011547977
135	0x3d89e39a	0.06732865
136	0x3d916188	0.07098681
137	0x3d6ee0dd	0.058319915
138	0xbcec761c	-0.028864913
139	0x3dc5afb0	0.0965265
140	0x3d720da4	0.05909504
141	0xbdc8ed75	-0.09810916
142	0xbc4d614f	-0.012535407
143	0xbda6f2f2	-0.08151807
144	0xbceff585	-0.029291878
145	0x3cd2db9c	0.025739484
146	0xbc4f9f67	-0.012672282
147	0x3b8c9b60	0.004290983
148	0x3d641f98	0.055694193
149	0x3dedd8fc	0.11613652
150	0x3d0680f4	0.032837823
151	0xbd844b98	-0.06459731
152	0x3d0a8612	0.033819266
153	0xbc5b6a87	-0.013392097
154	0xbd10fa77	-0.035395112
155	0x3ce596db	0.028026035
156	0x3d9d314c	0.07675418
157	0x3d961298	0.07327765
158	0x3ca8aa30	0.020588964
159	0xbd86ce5c	-0.06582329
160	0x3d875f82	0.066100135
161	0xbb8f6f5e	-0.0043772897
162	0x3d53e9ec	0.051736757
163	0xbdc43863	-0.095810674
164	0xbd0b1f88	-0.033965617
165	0xbd868dad	-0.06569991
166	0x3c82a846	0.01594938
167	0x3cefe061	0.029281797
168	0xbc1faaef	-0.009745344
169	0xbd80aafd	-0.062826134
170	0xbdb8477b	-0.08998009
171	0x3d02b4d7	0.031910744
172	0x3c11578b	0.0088709695
173	0x3c04a9df	0.008097141
174	0xbc7ca844	-0.015420977
175	0x3c490ef4	0.0122716315
176	0x3d8b9994	0.06816402
177	0x3ce6d0ee	0.028175797
178	0xbd1a0b0a	-0.037608184
179	0x3d0299c7	0.031884935
180	0x3d29bb07	0.04143813
181	0x3c82aa1a	0.015950251
182	0x3ccc0f32	0.02490959
183	0xbd0616fa	-0.032736756
184	0xbcba9000	-0.022773743
185	0xbba4ce60	-0.0050294846
186	0xbc882326	-0.016618323
187	0xbc7fb229	-0.015606442
188	0xbc89e09c	-0.016830735
189	0x3cd1567a	0.02555393
190	0x3c57f65c	0.013181295
191	0x3e14db5e	0.14536807
192	0x3d4358c8	0.04769209
193	0x3d8196df	0.063276045
194	0xbc691a69	-0.014227488
195	0x3c9bc8e4	0.01901669
196	0xbca8082b	-0.020511707
197	0xbd0b538f	-0.034015235
198	0x3d9041ca	0.07043798
199	0xbcd3d5c5	-0.02585877
200	0x3d4fe7c5	0.050758142
201	0xbcfbd55f	-0.030741392
202	0x3d98a137	0.07452624
203	0x3d971aaa	0.07378133
204	0x3d9c71f5	0.07638923
205	0xbcf7eea0	-0.030265152
206	0x3d837b50	0.06420004
207	0xbd36868e	-0.044561915
208	0xbd314e71	-0.0432877
209	0x3b161b16	0.0022904328
210	0x3d5a24a8	0.053257614
211	0xbd902024	-0.0703738
212	0xbb27ff5f	-0.002563439
213	0x3c7213ab	0.014775197
214	0x3b209053	0.0024500086
215	0x3c2f4e7e	0.010699866
216	0x3c703da4	0.014663134
217	0x3cb75204	0.022377975
218	0x3ce4b931	0.027920337
219	0x3ca86f63	0.020560926
220	0x3d5aef3a	0.0534508
221	0xbd68c493	-0.056828093
222	0x3e001d73	0.12511234
223	0xbd9d7bab	-0.076896034
224	0xbded7c79	-0.11596007
225	0xbd8040fc	-0.06262395
226	0xbd2ba7ca	-0.041908063
227	0xbdd2c447	-0.10291343
228	0xbbc14e2b	-0.005899211
229	0x3c520fde	0.012821166
230	0xbb33b0a4	-0.0027418518
231	0x3bc5e65f	0.0060394253
232	0x3aa8f96a	0.0012891714
233	0xbccd44fd	-0.02505731
234	0xbd025c72	-0.031826444
235	0x3d03c790	0.03217274
236	0x3ba2792a	0.0049582915
237	0xbca4c254	-0.020112194
238	0xbc17a7c4	-0.009256307
239	0xbc2df94b	-0.010618518
240	0xbd1be20d	-0.038057376
241	0x3b8b938b	0.004259532
242	0xbca7a756	-0.020465534
243	0x3d21f104	0.03953649
244	0x3d727802	0.05919648
245	0x3be60481	0.00701958
246	0xbcc6133b	-0.024179092
247	0x3cdd606d	0.027023518
248	0x3c4cbe39	0.0124965245
249	0x3d7abb15	0.06121357
250	0x3da4e0a3	0.080506586
251	0x3d2a2fc6	0.041549467
252	0xbd068214	-0.032838896
253	0xbcb8d53a	-0.022562612
254	0x3d124f16	0.035719953
255	0x3c374eec	0.01118825

conv2.bias f4 [64]
0	0x3cd5f86e	0.026119437
1	0x3c5dd5d1	0.013539747
2	0xbc98e956	-0.01866595
3	0xbd24bd40	-0.040219545
4	0x3cca65fd	0.024706835
5	0x3c3b67f5	0.0114383595
6	0xbcfa9e43	-0.030593043
7	0x3d270a6b	0.04078142
8	0xbce585a6	-0.02801783
9	0x3d1a5bd0	0.037685215
10	0xbbad0ae4	-0.0052808393
11	0x3c87c1ac	0.016571842
12	0x3c6a2d2d	0.014292997
13	0x3d36dfc1	0.044646982
14	0x3cff5f26	0.0311733
15	0xbc3ae363	-0.011406752
16	0xbcacd56f	-0.021097867
17	0xbba9ef07	-0.005185965
18	0x3d2a5dde	0.041593425
19	0xbc13565d	-0.008992759
20	0xbd1c6b9b	-0.038188558
21	0xbd1dd1b2	-0.03853006
22	0x3d64310c	0.055710837
23	0x3d447654	0.04796441
24	0x3d3267f0	0.043556154
25	0xbcae8d1e	-0.021307524
26	0x3bbb21f8	0.0057108365
27	0xbd26d064	-0.04072608
28	0x3c749bb8	0.014929704
29	0x3d84cf21	0.06484819
30	0x3d0c217f	0.034211632
31	0x3cc5f375	0.02416394
32	0x3d29979a	0.041404344
33	0x3d908c4b	0.07058009
34	0x3d37f0e4	0.044907466
35	0xbc98fd5f	-0.018675504
36	0xbd3b36e1	-0.045706633
37	0x3d4eb41a	0.050464727
38	0xbc976588	-0.018481031
39	0x3c1580bb	0.00912493
40	0xbd00cdce	-0.03144627
41	0xbd1978fa	-0.037468888
42	0xbd0299a0	-0.03188479
43	0x3cb190a4	0.021675415
44	0xbaab8356	-0.0013085406
45	0x3d07da51	0.033167187
46	0xba33a162	-0.0006852356
47	0xbbdf2f81	-0.006811083
48	0xbd1c54a9	-0.038166676
49	0xbc70fa68	-0.014708139
50	0xbd634bcc	-0.055492207
51	0xbd3b7ffc	-0.045776352
52	0xbb507388	-0.0031807143
53	0xbd248191	-0.040162627
54	0x3cf657e5	0.030071208
55	0x3d999879	0.07499785
56	0xbd436913	-0.04770763
57	0xbaae22a0	-0.0013285466
58	0xbd2a3055	-0.04155
59	0xbd0e1abb	-0.03469346
60	0x3d0f5566	0.03499355
61	0xbd0cb121	-0.03434861
62	0xbd46ad82	-0.048505314
63	0x3d27b411	0.04094321

bn1.weight f4 [32]
0	0x3f81ecc7	1.0150384
1	0x3f8d024f	1.101633
2	0x3f76560b	0.9622504
3	0x3f742c4a	0.9538008
4	0x3f81097b	1.0081018
5	0x3f85671b	1.042209
6	0x3f74bbf2	0.9559928
7	0x3f803eaa	1.0019124
8	0x3f5646a0	0.83701515
9	0x3f81c332	1.0137694
10	0x3f8ae86d	1.0852181
11	0x3f7b75da	0.982267
12	0x3f6d7547	0.92757076
13	0x3f8667ac	1.0500388
14	0x3f763b51	0.9618426
15	0x3f87650f	1.0577716
16	0x3f76c057	0.9638724
17	0x3f7f41d5	0.99709827
18	0x3f81337f	1.009384
19	0x3f826435	1.0186831
20	0x3f6af03f	0.91772836
21	0x3f8b3cf3	1.0877975
22	0x3f79aa1d	0.975252
23	0x3f80c9b6	1.0061557
24	0x3f714898	0.94251394
25	0x3f7ab76b	0.97936124
26	0x3f80012e	1.000036
27	0x3f81d316	1.0142543
28	0x3f741926	0.95350873
29	0x3f7d4124	0.9892752
30	0x3f830688	1.0236368
31	0x3f7c9a39	0.98672825

bn1.bias f4 [32]
0	0x3d2d2cc9	0.04227904
1	0x3de33783	0.110945724
2	0xbdef453a	-0.11683126
3	0xbd092e89	-0.033491645
4	0xbe1b17b7	-0.15145765
5	0x3cad7991	0.021176131
6	0xbde53e8b	-0.1119357
7	0xbe02fc66	-0.12791595
8	0x3cf7f25b	0.030266931
9	0x3cbf464f	0.023348955
10	0xbc9acc44	-0.01889623
11	0xbe387555	-0.18013509
12	0xbe0795f7	-0.13240801
13	0xbdc4a908	-0.09602553
14	0xbd65ac58	-0.056072563
15	0x3de394af	0.111123435
16	0xbdc2f4c7	-0.09519344
17	0xbc2d5b40	-0.010580838
18	0xbdfba9e7	-0.12288266
19	0xbb5bfe9b	-0.0033568505
20	0xbdd9eeed	-0.106412746
21	0xbe11d509	-0.14241423
22	0xbdbc7f17	-0.09203928
23	0x3ddd000c	0.107910246
24	0xbd8de269	-0.0692795
25	0xbdb33137	-0.08749621
26	0x3caed7f1	0.021343203
27	0x3d227b2f	0.03966826
28	0xbdd4dcc4	-0.1039367
29	0xbe331edf	-0.17492245
30	0x3cece76e	0.028918948
31	0x3d553d47	0.05206039

bn1.running_mean f4 [32]
0	0x3d0ee948	0.034890443
1	0xbd6a76e2	-0.05724228
2	0x3db38e12	0.08767332
3	0x3d2b137c	0.04176663
4	0x3e17916e	0.14801571
5	0xbe53d9b6	-0.20688519
6	0x3e0314a4	0.12800843
7	0x3e4ef54e	0.20210764
8	0x3e2b72c1	0.16742994
9	0x3cc18c0f	0.023626355
10	0xbe55a418	-0.20863378
11	0x3e5859a4	0.21127945
12	0x3e206a26	0.15665492
13	0xbe519027	-0.20465146
14	0x3cfd5acd	0.030927086
15	0xbdf73325	-0.12070302
16	0xbcf5779b	-0.029964259
17	0x3e1633d8	0.14668214
18	0x3e21f1ad	0.15814848
19	0x3e2a65af	0.16640352
20	0x3cdd7de8	0.027037576
21	0xbe5d359e	-0.21602485
22	0x3ce8f5fb	0.028437605
23	0xbe74919e	-0.23883674
24	0x3e35cf70	0.17754912
25	0x3e0e4b53	0.13895921
26	0x3e81e526	0.2537014
27	0xbe5373fa	-0.2064971
28	0x3d8a8738	0.06764072
29	0x3d8a4cb6	0.06752913
30	0xbe67e497	-0.22645794
31	0x3e193ca1	0.14964534

bn1.running_var f4 [32]
0	0x3c361041	0.011112274
1	0x3cdc2353	0.026872313
2	0x3ca8e643	0.02061761
3	0x3cb0b5f8	0.021571144
4	0x3cbe06ea	0.023196656
5	0x3c6deca4	0.014521752
6	0x3cea21a3	0.028580492
7	0x3cbce3c8	0.023057833
8	0x3c8b7500	0.017023563
9	0x3cb12d2e	0.021627989
10	0x3ca82851	0.020527037
11	0x3c4fc33d	0.012680826
12	0x3c9f98e0	0.019482076
13	0x3c8be139	0.017075168
14	0x3c95e281	0.018296482
15	0x3cdb2f62	0.026755992
16	0x3c4616d1	0.012090401
17	0x3cae412f	0.021271316
18	0x3cd34a7b	0.025792351
19	0x3c822336	0.01588593
20	0x3cac00bf	0.02099645
21	0x3c8e3feb	0.017364463
22	0x3cb0a412	0.02156261
23	0x3d1c1324	0.03810419
24	0x3ccc2b90	0.024923116
25	0x3cae1f55	0.021255175
26	0x3c96239c	0.018327527
27	0x3d054cd2	0.032543965
28	0x3cc7a351	0.024369868
29	0x3ca1c4f5	0.019747237
30	0x3cc8d962	0.024517719
31	0x3c94af56	0.018150013

bn2.weight f4 [64]
0	0x3f8866e4	1.06564
1	0x3f93f7cf	1.156
2	0x3f954cab	1.1664022
3	0x3f9bc2c1	1.2168809
4	0x3f9c8d6d	1.223066
5	0x3f9493aa	1.1607563
6	0x3f9575ac	1.1676536
7	0x3fb3f3cd	1.4058777
8	0x3faf6d0d	1.3705155
9	0x3f97fd93	1.187426
10	0x3f9740b6	1.1816623
11	0x3f9608ab	1.1721395
12	0x3fb5c725	1.4201399
13	0x3f954810	1.1662617
14	0x3f9fe388	1.2491312
15	0x3fb8a9c7	1.4426812
16	0x3f9cd61a	1.2252839
17	0x3f965cb9	1.1747047
18	0x3f9a237f	1.2042083
19	0x3f9bb6df	1.2165183
20	0x3f9103ee	1.1329324
21	0x3f964b01	1.1741639
22	0x3f9506d6	1.1642711
23	0x3f9fa376	1.2471759
24	0x3fa54251	1.2910863
25	0x3f9d8963	1.2307552
26	0x3f91cdb2	1.1390898
27	0x3fb00137	1.3750371
28	0x3f98100c	1.1879897
29	0x3f8f7924	1.1208844
30	0x3fa00b73	1.2503494
31	0x3fa05ee9	1.2528964
32	0x3fa027c4	1.2512136
33	0x3f9db94c	1.2322173
34	0x3fb0b362	1.3804743
35	0x3f926dc7	1.1439751
36	0x3fa3f8c4	1.2810292
37	0x3fa2d50e	1.2721269
38	0x3fae90a1	1.3637887
39	0x3f94cacf	1.1624392
40	0x3f977a87	1.1834267
41	0x3f933987	1.1501931
42	0x3f952e7d	1.1654812
43	0x3f9648e3	1.1740993
44	0x3fa29b9e	1.2703741
45	0x3f865b28	1.0496569
46	0x3f84253f	1.0323867
47	0x3fad3503	1.3531803
48	0x3f92e111	1.1474935
49	0x3fa1ffa7	1.2656144
50	0x3f998d24	1.1996198
51	0x3f8e7cb3	1.1131805
52	0x3f9924fd	1.1964413
53	0x3fa47a5d	1.2849842
54	0x3fa48c5f	1.2855338
55	0x3fa05382	1.2525485
56	0x3f9e3709	1.2360545
57	0x3fa092e0	1.2544823
58	0x3fae2241	1.3604203
59	0x3f96279e	1.173084
60	0x3f96c0f3	1.1777633
61	0x3fb1c4a3	1.3888134
62	0x3f8a45da	1.0802567
63	0x3fb25f83	1.3935398

bn2.bias f4 [64]
0	0xbe28112b	-0.16412799
1	0xbd6af8e6	-0.057366274
2	0xbeade0e4	-0.3396064
3	0xbdd0ecb8	-0.102014005
4	0xbed26a68	-0.41096807
5	0xbea9c360	-0.33156872
6	0xbe68d776	-0.22738442
7	0xbd5f2c74	-0.054485753
8	0x3a16dde1	0.00057551084
9	0xbec65d32	-0.38742977
10	0xbeaf8d28	-0.3428738
11	0xbc8b3ddd	-0.016997272
12	0xbe0200bc	-0.12695593
13	0xbec98a10	-0.39363146
14	0xbe8a230c	-0.26979864
15	0xbd844552	-0.06458534
16	0xbdacf3d7	-0.08444946
17	0xbe7fcb74	-0.24979955
18	0xbecbe8b9	-0.3982599
19	0xbd332c82	-0.043743618
20	0xbebaf89b	-0.36517796
21	0xbeccdd15	-0.40012422
22	0xbd54b440	-0.051929712
23	0xbce8a881	-0.028400661
24	0xbdc9c305	-0.0985165
25	0xbe6f6d92	-0.23381642
26	0xbea9af4d	-0.33141556
27	0xbdc5d19a	-0.09659119
28	0xbe34400a	-0.17602554
29	0xbe4ead7e	-0.2018337
30	0xbdbf86c8	-0.09351879
31	0xbe712885	-0.23550613
32	0xbe83e184	-0.25757992
33	0xbf03d770	-0.51500607
34	0xbe31c3fb	-0.17359917
35	0xbe19e56e	-0.15028927
36	0xbe907cb7	-0.2822015
37	0xbe27f575	-0.16402228
38	0xbec9d27e	-0.39418405
39	0xbe5b3eca	-0.21410671
40	0xbedeb2b6	-0.4349572
41	0xbe3d1bae	-0.1846759
42	0xbe62f093	-0.22162084
43	0xbe12da2f	-0.14341043
44	0xbd2add2b	-0.04171483
45	0xbe695379	-0.22785749
46	0xbeec4fbf	-0.4615459
47	0xbe059068	-0.13043368
48	0xbee95db2	-0.45579296
49	0xbdfbd47e	-0.12296389
50	0xbdb75e2c	-0.08953509
51	0xbee653c1	-0.44985774
52	0xbebd6935	-0.3699433
53	0xbe9701c7	-0.29493544
54	0xbd8b799e	-0.06810306
55	0xbec97b02	-0.3935166
56	0xbe4c0048	-0.19921982
57	0x3c1ed900	0.0096952915
58	0xbdc18e56	-0.094509766
59	0xbebb1050	-0.36535883
60	0xbe4047e2	-0.18777421
61	0xbe64bede	-0.22338435
62	0xbeb28fe4	-0.34875405
63	0x3d0a3963	0.033746134

bn2.running_mean f4 [64]
0	0x3e943a0b	0.28950533
1	0xbe1c72fe	-0.15278241
2	0xbe4b0df3	-0.1982954
3	0x3ca86139	0.020554172
4	0xbc431e78	-0.01190912
5	0x3df20c80	0.118187904
6	0xbda8cb4c	-0.08241901
7	0xbe0e6128	-0.1390425
8	0xbda6664b	-0.081249796
9	0xbb864d33	-0.0040985583
10	0xbe0eb91b	-0.139378
11	0xbe25bc3c	-0.16185087
12	0xbeac2e66	-0.3362915
13	0xbe4f7218	-0.20258367
14	0xbd36d4bb	-0.04463647
15	0xbec06bc5	-0.37582222
16	0xbeb97963	-0.36225423
17	0x3e4dd938	0.20102394
18	0xbe47991d	-0.19492002
19	0xbe739f80	-0.23791313
20	0x3ddeb084	0.108735114
21	0xbde8441b	-0.11341115
22	0x3bc31433	0.0059533357
23	0xbdb1a222	-0.086735025
24	0xbe86a32e	-0.2629637
25	0x3d610e4f	0.054945286
26	0xbe27af23	-0.16375403
27	0xbef682bb	-0.48146614
28	0x3e502fe1	0.20330764
29	0xbba5a6d5	-0.0050552883
30	0xbddb186b	-0.10698017
31	0x3dbacf34	0.09121552
32	0xbda059ba	-0.07829614
33	0xbd73b89e	-0.059502237
34	0xbe96f8b7	-0.2948663
35	0x3d3a101a	0.045425512
36	0xbe83d3b8	-0.25747466
37	0xbef53bbe	-0.47897142
38	0xbe11d30a	-0.14240661
39	0xbe2f69bc	-0.17130178
40	0x3c637133	0.013881969
41	0xbe4de3e9	-0.20106472
42	0xbde2d9ef	-0.11076724
43	0xbd8c1c23	-0.06841304
44	0xbaf5904c	-0.001873502
45	0x3e8db920	0.27680302
46	0xbe4516f7	-0.19247042
47	0xbebc38b9	-0.36762026
48	0x3dbdbf1e	0.09264968
49	0x3d9bcd4b	0.07607516
50	0x3de1e6d5	0.11030356
51	0x3db7f83d	0.089828946
52	0xbe540071	-0.20703293
53	0x3d1085b9	0.035283778
54	0xbd90f998	-0.07078856
55	0xbe4c8142	-0.19971183
56	0xbea6a7bf	-0.32549855
57	0xbe6f3204	-0.23358923
58	0xbdf4bc00	-0.11949921
59	0xbe8e322f	-0.27772662
60	0xbe26a815	-0.16275056
61	0x3c5475ad	0.012967509
62	0xbda6f1d5	-0.081515945
63	0xbdd4b642	-0.103863254

bn2.running_var f4 [64]
0	0x3e19ca32	0.15018538
1	0x3dbfa818	0.09358233
2	0x3db8a880	0.09016514
3	0x3db22709	0.086988516
4	0x3d7ac2ec	0.06122105
5	0x3d907ebf	0.07055425
6	0x3d8afde5	0.06786708
7	0x3dc3db21	0.0956328
8	0x3e1aabdc	0.15104622
9	0x3d9e2b13	0.077230595
10	0x3d6f74d0	0.05846101
11	0x3d826336	0.06366579
12	0x3db8e6ac	0.09028372
13	0x3e4c002a	0.19921938
14	0x3d7eba74	0.062189534
15	0x3de30836	0.110855505
16	0x3dc3a80e	0.09553538
17	0x3df99d7b	0.1218824
18	0x3dd4e865	0.10395888
19	0x3e0371e2	0.12836412
20	0x3d659184	0.056046978
21	0x3e12edd3	0.14348535
22	0x3de9073a	0.113783315
23	0x3dcd9231	0.100376494
24	0x3dd4ae7f	0.10384845
25	0x3df189bb	0.11793848
26	0x3d9905dc	0.07471821
27	0x3df863af	0.12128388
28	0x3e00a84a	0.12564197
29	0x3d7d05c6	0.061773084
30	0x3e07bcb4	0.13255578
31	0x3d736e0a	0.059431113
32	0x3d748236	0.05969449
33	0x3dcf51ef	0.101230495
34	0x3d980160	0.07422137
35	0x3d9f1406	0.07767491
36	0x3d98be87	0.07458215
37	0x3ddfc057	0.10925358
38	0x3d50261c	0.050817594
39	0x3d8b8aa6	0.068135545
40	0x3e05a50d	0.13051243
41	0x3d76bc30	0.060238063
42	0x3d7f5b2d	0.06234281
43	0x3d8a5e6a	0.06756289
44	0x3db3f0e4	0.087861806
45	0x3e0da4ae	0.13832352
46	0x3d956f9a	0.07296677
47	0x3dbcfc4e	0.09227811
48	0x3d84a72f	0.064772
49	0x3dfc4eb3	0.12319698
50	0x3e208fab	0.15679805
51	0x3d9cba41	0.076527126
52	0x3e71e278	0.23621547
53	0x3db98895	0.09059254
54	0x3e23ea7f	0.16007422
55	0x3da088e6	0.07838611
56	0x3d7d9a47	0.06191471
57	0x3ddae522	0.10688235
58	0x3dd21772	0.10258378
59	0x3dbb98e6	0.091600224
60	0x3d9036a5	0.070416726
61	0x3dc7189a	0.09721489
62	0x3d47a14c	0.04873781
63	0x3e0ec57c	0.13942522

output_conv.weight f4 [5, 64, 1, 1]
0	0xbec00bca	-0.37508994
1	0x3dc6d9ad	0.09709487
2	0xbd67d6d3	-0.056601357
3	0x3de91590	0.11381066
4	0x3dfed062	0.124420896
5	0x3df1d994	0.11809078
6	0xbd43c26a	-0.04779283
7	0x3def5705	0.116865195
8	0x3d7cd8b0	0.061730087
9	0x3d9b4dd0	0.07583201
10	0x3da2a1fc	0.07941052
11	0x3ddd106b	0.10794147
12	0x3d426d3c	0.047467455
13	0xbc8b6808	-0.01701738
14	0xbca408f6	-0.020023804
15	0x3d9cd279	0.07657332
16	0x3e1684cc	0.14699095
17	0xbedc7eeb	-0.4306558
18	0x3d23c292	0.03998048
19	0x3e23fa02	0.16013339
20	0x3cda7efd	0.02667188
21	0xbdaaee4b	-0.08346232
22	0x3e002098	0.12512434
23	0xbbc952d9	-0.0061439094
24	0x3db59ada	0.08867426
25	0xbece3331	-0.4027343
26	0xbcbdbfa3	-0.023162669
27	0x3e413811	0.18869044
28	0xbecea81d	-0.40362635
29	0xbd6c0a82	-0.05762721
30	0x3e1e1d8e	0.15440962
31	0x3e0e88d9	0.1391939
32	0x3dd2770d	0.102766134
33	0x3d4e137a	0.050311543
34	0x3de0cf89	0.10977084
35	0x3dfc4842	0.123184696
36	0x3e27c669	0.16384281
37	0x3e27c806	0.16384897
38	0x3e5c7c84	0.21531874
39	0xbd81e4ce	-0.06342469
40	0xbd3df23a	-0.046373583
41	0x3d510183	0.051026832
42	0xbd083ce6	-0.033261202
43	0x3d9f523b	0.07779356
44	0x3e049008	0.12945569
45	0x3d83ebdf	0.06441473
46	0xbe8c29f7	-0.27375767
47	0x3db09640	0.08622408
48	0xbac03bdc	-0.0014666277
49	0x3dd5135c	0.10404083
50	0xbea952ea	-0.3307107
51	0xbe8e5929	-0.278024
52	0xbd5e1796	-0.054221712
53	0x3d85304f	0.06503355
54	0x3e286716	0.16445574
55	0x3e37fdc5	0.17967899
56	0x3d93cc0e	0.07216655
57	0x3e4822c6	0.19544515
58	0x3e44236e	0.1915414
59	0x3dda8117	0.10669153
60	0x3e85144f	0.25992057
61	0x3de3afff	0.11117553
62	0x3d64920b	0.05580334
63	0x3de9c183	0.114138626
64	0x3e0f1594	0.13973075
65	0xbe6214a9	-0.22078194
66	0xbeac0f04	-0.33605206
67	0xbcf23500	-0.029566288
68	0xbd78ec08	-0.060771972
69	0xbe330181	-0.17481042
70	0xbd789b49	-0.060694966
71	0xbdf01b72	-0.11723985
72	0xbe8c7b92	-0.27438027
73	0x3d931331	0.07181395
74	0xbe98767c	-0.29777896
75	0xbea0c983	-0.3140374
76	0x3d2c8f63	0.04212893
77	0x3dec77fe	0.11546324
78	0xbedeff91	-0.43554357
79	0x3d875a17	0.0660898
80	0x3dcd29ad	0.10017715
81	0x3d9695e5	0.07352809
82	0x3dd0fd1a	0.10204525
83	0x3cec06db	0.028811863
84	0x3dd3ba15	0.10338227
85	0x3dc70116	0.09717004
86	0xbe6c7169	-0.23090138
87	0xbeb6e92c	-0.3572477
88	0x3b0e3f78	0.002170531
89	0x3d88068f	0.06641876
90	0xbef52f8c	-0.47887838
91	0x3e49af73	0.19695835
92	0x3d0f05ff	0.034917828
93	0xbe848cad	-0.25888577
94	0x3dc7c360	0.09754062
95	0xbe713027	-0.23553525
96	0xbedd0a96	-0.4317214
97	0x3e23b09b	0.15985338
98	0x3dbde5db	0.09272357
99	0x3dce145d	0.10062478
100	0x3deee115	0.11664025
101	0x3e397cd1	0.1811402
102	0x3e1aea45	0.15128429
103	0xbebcf2c8	-0.36903977
104	0x3d9a7a5d	0.0754287
105	0x3c5bcfad	0.013416213
106	0xbea34645	-0.3188955
107	0xbdd2489c	-0.102677554
108	0x3d2bfe75	0.041990716
109	0xbe3c03dc	-0.18360847
110	0x3e2375c2	0.1596289
111	0x3e1a861f	0.15090226
112	0x3e422eae	0.1896312
113	0xbeb6b317	-0.3568351
114	0x3de5b261	0.11215664
115	0x3e1df9d9	0.1542734
116	0x3e1a6501	0.15077592
117	0xbe2306ba	-0.15920535
118	0x3e0954a0	0.13411188
119	0x3e44d402	0.192215
120	0x3dfc17fc	0.12309262
121	0x3df6ef79	0.120573945
122	0x3e5527cd	0.20815964
123	0xbe9acd6f	-0.30234858
124	0x3e2f112e	0.17096397
125	0x3e208c13	0.15678434
126	0x3e1ec3b5	0.15504344
127	0x3d4bb6e0	0.04973495
128	0x3ddb84be	0.10718678
129	0xbe6ec059	-0.23315562
130	0x3df3c3e5	0.11902598
131	0xbeb34ff0	-0.35021925
132	0x3e3501f7	0.17676531
133	0x3e5ce709	0.21572508
134	0xbeb3ca42	-0.35115248
135	0x3d9b762c	0.07590899
136	0x3ebcacc0	0.36850548
137	0xbec9abcf	-0.39388892
138	0x3df7b87e	0.12095736
139	0x3c3810dd	0.011234489
140	0xbedca502	-0.4309464
141	0x3dac90f1	0.08426083
142	0x3dcfbae0	0.101430655
143	0xbf04de90	-0.51902103
144	0xbe050a30	-0.12992167
145	0x3d4fad2d	0.050702263
146	0x3e171289	0.14753164
147	0xbe8967b8	-0.26836944
148	0xbe9d90a3	-0.30774412
149	0x3da8d7d4	0.08244291
150	0xbe076e14	-0.13225585
151	0x3d3c3e92	0.04595811
152	0xbe97d239	-0.29652575
153	0x3d91ce41	0.07119418
154	0x3db12721	0.08650041
155	0xbecc7c34	-0.3993851
156	0x3cfb56ab	0.030680975
157	0x3deb4000	0.114868164
158	0x3e336ae7	0.17521249
159	0x3e4c8227	0.19971524
160	0x3e1b45d5	0.15163358
161	0x3dcdd51e	0.100504145
162	0xbf0829b8	-0.5318866
163	0xbe1f1835	-0.15536578
164	0xbea5f107	-0.32410452
165	0xbef6cf68	-0.48205113
166	0x3d92ea68	0.07173616
167	0x3db462be	0.08807896
168	0x3d7225b5	0.05911799
169	0xbe9c46c9	-0.30522755
170	0x3cbdd701	0.02317381
171	0xbe8bce5f	-0.27305886
172	0x3ced6af1	0.028981658
173	0xbe4729a1	-0.19449474
174	0xbdfe3f4d	-0.124144174
175	0xbed8436e	-0.42238945
176	0x3dbc85a3	0.09205177
177	0x3ddc15e4	0.10746363
178	0x3df53a7b	0.11974045
179	0x3da4a54f	0.080393426
180	0x3e108931	0.14114834
181	0x3d31c606	0.04340174
182	0x3dcd8e95	0.10036961
183	0xbebde0d3	-0.3708559
184	0xbeefacd9	-0.4681156
185	0xbe6e31d3	-0.23261194
186	0xbd40b4be	-0.04704737
187	0x3e3c567f	0.1839237
188	0x3e06cf12	0.13164929
189	0x3dbfbc85	0.09362129
190	0xbdbeb86c	-0.093125194
191	0x3dc9ae9a	0.09847756
192	0x3d6e3542	0.05815626
193	0x3d95f379	0.07321829
194	0x3e13bb37	0.14426886
195	0x3df7dcd6	0.12102668
196	0x3e1142a6	0.1418558
197	0xbe35999c	-0.17734379
198	0x3d8fd69e	0.07023357
199	0xbef6b5be	-0.48185533
200	0x3dfc6289	0.123234816
201	0x3e2f2a4d	0.1710598
202	0x3ddc02d0	0.10742724
203	0x3e09757a	0.1342372
204	0x3deaa6f0	0.11457622
205	0x3d8f3492	0.06992449
206	0x3dabe255	0.08392779
207	0x3d104eae	0.035231285
208	0x3da234fc	0.07920262
209	0x3d80dd77	0.06292241
210	0x3d9bd95e	0.07609819
211	0xbdabf1f1	-0.08395756
212	0x3c6cada6	0.014445698
213	0x3b1f0ca3	0.0024269007
214	0x3d998e38	0.07497829
215	0x3d49ae43	0.049238455
216	0xbeabb428	-0.33535886
217	0x3d8ef762	0.06980778
218	0x3d24418e	0.04010158
219	0x3e12c929	0.14334549
220	0x3c951234	0.018197156
221	0x3de8b5a9	0.11362774
222	0xbec5c3b1	-0.38625863
223	0xbe8c7d14	-0.27439177
224	0x3e1438e2	0.14474824
225	0xbc8a39cc	-0.016873263
226	0x3e1120ab	0.14172618
227	0xbe868bf3	-0.26278648
228	0x3e3eff75	0.18652137
229	0xbe6729aa	-0.22574487
230	0xbf1f7853	-0.62292975
231	0x3df7da3f	0.12102174
232	0x3cb45a97	0.022015853
233	0x3dba13d7	0.090858154
234	0x3ddc965f	0.107708685
235	0x3d996a4c	0.07490978
236	0x3dc2a7a5	0.09504632
237	0x3dee41af	0.11633622
238	0x3dd3465e	0.10316156
239	0x3d239090	0.039932787
240	0xbed11a0e	-0.4084019
241	0x3de6d9d6	0.11272018
242	0x3ddc44b2	0.1075529
243	0xbe3c05be	-0.18361565
244	0x3da4b6e0	0.08042693
245	0x3e4e3c8d	0.20140286
246	0xbf00ed1b	-0.50361794
247	0x3e69c3b2	0.22828558
248	0x3d853c3b	0.06505629
249	0xbead629c	-0.33864295
250	0xbed9dee5	-0.42552868
251	0xbe2b67f7	-0.16738878
252	0xbe5d38ef	-0.2160375
253	0xbee3c075	-0.4448277
254	0xbecf67fd	-0.40509024
255	0xbf18e395	-0.5972226

output_conv.bias f4 [5]
0	0xbc86fa69	-0.016476827
1	0xbdbc5005	-0.0919495
2	0x3e242f91	0.1603377
3	0x3e0e296f	0.13882993
4	0x3e2a5782	0.16634944
