training/trained_models/model_standard_pulse.pth (torch, 84714 bytes, 14 tensors)

conv1.weight f4 [32, 1, 3, 3]
00000000: dd3c 673e 6f83 83be bcc6 443d db4c 853e
00000010: 7a7a 8d3e d6ae 65be 90ab 413e 4901 cdbe
00000020: 7c4d a03e c093 e1bd ee4d 17be 9da9 20be
00000030: 0806 2f3e c63c 9e3e 4640 09be 61ac 5cbe
00000040: c63b 793e 85ce 463e 0fbf 88be 22e4 423e
00000050: 9b2f 8bbe f863 8cbe 0ac0 c9bd 075d e0bd
00000060: 8194 583e cee1 9cbe f35c 863e 2dc2 bdbc
00000070: 1d66 c0be e36f abbd 2359 81be a86e fb3d
00000080: c3f0 6b3e f86f 61bd fe94 9bbe 65e2 213e
00000090: b19f cebe 7239 49be 45f6 83be 689a 4e3e
000000a0: 190d e53d fbc9 a9bd e2d2 dfbd dac7 94be
000000b0: 3294 893e 57bc e2bd 9c18 abbe 2afe 87be
000000c0: 0812 7dbe 54f0 a8be e25f dfbd 2a9d 88bd
000000d0: fa52 7abe ee4c 443e f87b 003e ccda 2c3d
000000e0: 9539 fb3d 5689 6ebe dae1 fd3c 8e50 73be
000000f0: 1071 30be bd22 e83d 6a60 363d 840e b03e
00000100: ec01 44be 5c7f a63d 4d5f e83d 723c c93c
00000110: 507a 3c3b f205 863d 2fc1 9a3e 5e72 f73d
00000120: 423a 8cbe d214 a53d 199b 233d a6db a1be
00000130: f458 943e 923e 93be bb86 4d3e f898 2c3e
00000140: 11ca a3be a1e6 6ebe 4e26 c5bd ae6a d43d
00000150: 7611 d93d 37be c4bd 922a 51bd 5ac6 aebe
00000160: f012 6d3d 50f5 2b3e 7e72 45be 87aa a2be
00000170: 3706 b4bc f648 d93d 384e 82be 643d 28bc
00000180: 3454 55be d4b8 5fbe d3d4 0a3e 631e a6be
00000190: cc3c ae3d 8c0a 493e 9155 813e a8c0 31bd
000001a0: 8144 a0bd 2336 00be 176f 9c3e 72c4 e03d
000001b0: f12a 133d 45b0 b2bd af9a 153d 8809 5cbe
000001c0: 90bc 4fbe dc1b 19bb cd73 ad3c 8a87 273e
000001d0: 3476 85bb 869c 553e 98bc 403e 83d4 1c3e
000001e0: 3921 0d3d 5452 5c3e 40a3 a3be 46ec 053e
000001f0: a3d9 233e 88eb 84be 081d 89be 7f31 a83b
00000200: 6e17 88be 003d 72bc 5724 f8bc 9c74 8abe
00000210: 51d8 6ebe b2d5 65be b24e 31be 58a3 a4be
00000220: 51f4 f6bd 025a 8abe af6c 8abe a8d9 35be
00000230: b050 9ebe fdb1 d43d 537b 64bd 8efe 673e
00000240: 2a5c 6dbe bf64 13be 3c80 67be 0841 c83d
00000250: 249e f93a db57 953c e9d5 e73b cd12 be3d
00000260: c76b 76bd 9eac d53d 7dcd f2bc d4f2 9f3d
00000270: eeab 97be 6603 b33e 4759 393e e20a 4f3e
00000280: 9107 cb3d a513 d53c c1fe b13c b771 803e
00000290: 4d08 40be cf0b dc3c 8501 1a3e c9ed 1ebe
000002a0: a714 6d3c 8a6b bfbe 61f7 973e fb14 afbe
000002b0: adeb 46bd b171 adbd 9b37 6d3e b7f1 c73d
000002c0: 7092 96bd a811 843e 4b93 363e f369 003d
000002d0: 93e5 9b3e 501c 2c3e 63a9 653e cd3d 4abe
000002e0: 4d29 583e f6df 37be a89e 3f3e 2998 a3be
000002f0: 5246 7d3d d68b 133e 7d05 133d eb11 813e
00000300: a1cb 7dbe 27d1 953d 474b 993e e539 cfbd
00000310: 2acd 5f3e 5493 953e 8c1b 09bb 4730 64be
00000320: 4958 5b3e 27f5 83be 9c56 8abe a053 f3bd
00000330: 2a61 05be c881 d23a 261b 89be 19ed 133e
00000340: 9833 283e d4d0 41be 45de e23d 6260 20be
00000350: 497a 01be ac6f 97be 1523 4b3e ee00 d5bd
00000360: 3904 383e e8a1 e2bd ec19 90be e028 823e
00000370: ca15 0cbe 1f96 53be 1c29 3d3e e3b2 2f3e
00000380: 861a 83be 4ebe 963e 6e5d 453e 3243 26be
00000390: 9bca 873d 4e11 743c d264 b43d 7bad 7d3e
000003a0: 11c9 b2bc 5bed 21be 85dc 68bd be24 4b3d
000003b0: e1db c1be 83c6 87bd 5e87 743e e4ff 943e
000003c0: eb83 8f3d efae 21be 4278 55be f773 51bd
000003d0: 26f5 a5bd 9e05 4a3e 6586 a7be e047 f73d
000003e0: 640a babd f006 8f3e c7e0 813e b9bd 003e
000003f0: 3fbc 723d 3c86 ef3d 8928 a5be ada1 acbe
0.22581811 -0.25686213 0.04804109 0.260352 0.27632505 -0.22429976 0.18913102 -0.40040043
0.31309116 -0.11014509 -0.14775822 -0.15689702 0.17092144 0.3090574 -0.13403425 -0.21550132
0.24339208 0.19414718 -0.26708266 0.19032338 -0.27184758 -0.2742002 -0.09851082 -0.109552436
0.211504 -0.30641025 0.2624279 -0.02316388 -0.37577906 -0.0837095 -0.25263318 0.122769654
0.23041062 -0.055038422 -0.3038711 0.15809019 -0.4035621 -0.1965082 -0.25773826 0.20176089
0.11184139 -0.08290478 -0.109288946 -0.29058725 0.26870877 -0.11071079 -0.33417213 -0.265611
-0.2471391 -0.32995856 -0.1090696 -0.06670602 -0.24445716 0.19169971 0.1254729 0.04220085
0.12266842 -0.23294577 0.030991483 -0.23761198 -0.1723063 0.11334751 0.04452554 0.34386075
-0.19141358 0.081297606 0.11346302 0.024564955 0.0028759427 0.06544103 0.30225512 0.12082361
-0.27388197 0.08060612 0.039942835 -0.3161289 0.28974116 -0.28758675 0.20070927 0.16855228
-0.31990102 -0.23330165 -0.09626447 0.1037191 0.105990335 -0.09606593 -0.05106599 -0.34135705
0.05787939 0.16792798 -0.19281957 -0.31770727 -0.02197562 0.10609619 -0.254503 -0.010268543
-0.20832902 -0.2184785 0.13557748 -0.32445058 0.0850769 0.1963293 0.25260594 -0.043396622
-0.07825566 -0.12520652 0.30553505 0.10974969 0.035929624 -0.08725027 0.03652447 -0.21488011
-0.20286775 -0.0023362553 0.021173382 0.16360298 -0.004072929 0.2086049 0.18821943 0.15315442
0.03445551 0.2151578 -0.31960487 0.13078412 0.1600099 -0.25960946 -0.26779962 0.0051328535
-0.26580375 -0.014785051 -0.030290766 -0.2704209 -0.23324706 -0.224448 -0.17315176 -0.3215587
-0.120583184 -0.27021796 -0.27036044 -0.1775881 -0.30920935 0.10385511 -0.055781674 0.22655699
-0.23179689 -0.143939 -0.22607511 0.09778029 0.0019044322 0.01823037 0.0070750606 0.0928093
-0.06016138 0.10433315 -0.029639 0.07809988 -0.2962336 0.3496353 0.18100463 0.20218995
0.099135526 0.026010344 0.021727921 0.25086758 -0.18753166 0.0268611 0.15039642 -0.15520395
0.014470256 -0.37386733 0.29680923 -0.34195694 -0.0485646 -0.084689505 0.23165743 0.097629
-0.073521495 0.2579472 0.17829625 0.03135104 0.3044859 0.16807675 0.22427897 -0.19750138
0.21109505 -0.17956528 0.18712866 -0.31952026 0.06183464 0.14408812 0.035893906 0.25208983
-0.2478471 0.07315283 0.29940245 -0.101184644 0.21855608 0.29213965 -0.002092096 -0.22284041
0.21420397 -0.25772974 -0.27019203 -0.118811846 -0.13025346 0.0016060406 -0.26778525 0.14445914
0.16425931 -0.18927318 0.11077551 -0.15661767 -0.12644304 -0.29577386 0.19837601 -0.10400568
0.17970361 -0.110660374 -0.28144777 0.2542181 -0.13680187 -0.20662735 0.18472713 0.17158084
-0.25606173 0.29442066 0.19273922 -0.1623657 0.06630441 0.014896704 0.088082924 0.24773209
-0.021824392 -0.158132 -0.05685093 0.049595587 -0.37863067 -0.0662966 0.23879763 0.2910148
0.07007583 -0.15789388 -0.20846656 -0.051135983 -0.08103399 0.19728705 -0.32719722 0.12074256
-0.09084013 0.2793498 0.25366804 0.12572373 0.059261557 0.11695525 -0.32257488 -0.337171

conv1.bias f4 [32]
00000000: 4065 c137 807c 413c dc3d 9d3b 185a 73bc
00000010: 2414 823b 9ef2 d63b 2f09 ef3a 86a2 9f3c
00000020: 5091 05ba 3b27 76b9 ecf6 893c e25b 4a3c
00000030: acf4 1ab8 4e6d dd3b 6c5c 09ba 58d9 4aba
00000040: e5e3 133a c7a4 efb7 a3ea 94b8 c15b 6eb8
00000050: 1099 8635 2d28 a6b9 3187 3eba 2f81 1139
00000060: 855c f4bb 21bf af38 03a9 99b6 1198 3ebc
00000070: 241a 623b e602 8836 8200 2eb9 8ecb 3bb8
2.3054541e-05 0.011809468 0.004798634 -0.014853023 0.003969686 0.006559684 0.001823699 0.019486677
-0.00050952006 -0.00023475003 0.016841374 0.012351008 -3.694433e-05 0.006757415 -0.0005239907 -0.0007738075
0.0005641564 -2.856775e-05 -7.1008944e-05 -5.6829074e-05 1.0028325e-06 -0.0003169192 -0.000726807 0.00013876402
-0.0074573183 8.380251e-05 -4.579431e-06 -0.011632935 0.0034500444 4.0534533e-06 -0.00016594122 -4.477385e-05

conv2.weight f4 [64, 32, 3, 3]
00000000: e476 96bb cd39 2e3d 069d 9e3b 6e89 83bd
00000010: ee30 3cbd 336c 6d3c 5d7a 8b3c f665 e43b
00000020: 008c 0a3d 3903 2e3b 1940 a83c 1cd5 40bc
00000030: 2f67 18bd 9818 efbc ffaa 503b 006c 26bc
00000040: 8e08 7dbd 2575 153d 8c11 3c3d dd3e a43c
00000050: bc7f e0bc b5e7 f23b b70e f2bc 0f25 843c
00000060: bd3b 74bc 5d6b 04bd 2368 5dbd f748 643c
00000070: 27d6 0c3b 2042 7bbd 3e3d 2d3d 74d4 abbc
00000080: 8ae8 1ebd 15be 40bd f2d3 2bbd 93c6 06bd
00000090: 841d 23bd 4f51 4bbd a006 833c 1644 b3bc
000000a0: 91ae 393d b5a9 ba3d 6b7c 3e3c dcf3 393c
000000b0: 216c c93d a355 ddbc 8ee2 2a3b ef69 923c
000000c0: 33de 2dbc 01bb e5bb c1da 7dbc 2d20 a03d
000000d0: 46da 0f3d ceb4 e0bc ba92 54bd 133a 94bc
000000e0: ff75 7e3b c11b 4f3c db47 55bd d048 0abb
000000f0: f3a1 0bbc 0854 a1bc 9e2f c23d b411 223c
00000100: e17d 22bd 46e3 adbc 26b1 b3bd b715 ca3c
00000110: d353 6ebd 2364 463d 8e30 f8bc 66b1 9c3a
00000120: e4c9 9dbd 512f 96bc ab39 0f3d 9698 10bc
00000130: 15f1 0f3d 448a 86bd 2c1c 2e3d 807e 933a
00000140: 0d6d 7c3b d572 493d 30f1 29bc a6e3 b13c
00000150: c6b3 ca3c 38a2 053d 1ee5 b93d 34a0 06bd
00000160: e8d3 0abd ee63 20bc 2755 59bc c8e5 23bd
00000170: 6e04 173d f99a 67bd e1f7 e33c b299 39bc
00000180: 7c48 a83b 46ca b7bc 39cb 2e3b 1e7a 3fbd
00000190: 5702 143d 6c43 713d 7047 94ba b2c5 b7ba
000001a0: be1c 6e3d fad1 723c 1e47 69bc 1125 083d
000001b0: c753 fe3c 0512 37bd fe82 123c cb2d 12bd
000001c0: cc8d 803d 2997 0b3d 0a42 593c 869f 7bbd
000001d0: e4ec 9ebc 23be 463d 52d0 0c3d 240b bbbc
000001e0: d442 21bd 4852 3d3c f8e2 8cbd c5d4 4fbd
000001f0: 8da9 8cbb f8e5 d93b 8607 c03d 6f96 183c
00000200: e9cc acbd 3ce0 73bc 948d bf3c 718f e93c
00000210: 754d 3e3c cb80 ef3c eea8 493d 5ff6 ba3d
00000220: 1ed8 61bd e927 f23c 9f6a 35bd 861f e53b
00000230: 0b9c 2f3c 27d8 963d 93dc 70bd acd6 1abd
00000240: 449b 073d 24da 073d 5fa2 3b3d 6eeb 1fbc
00000250: 2e4c f83c 622a 503d 6703 c0bc 2e40 e1bc
00000260: e4cd 153d b455 333d 4732 2e3c 64fb aebc
00000270: ef23 083d 37c0 1fbc 6294 34bc 5c75 1f3d
00000280: d29b 00bc 15fc 9abd 388a ddbc 6583 4c3d
00000290: f690 073d 2af0 283d afc3 13bc 356f eabc
000002a0: daed 713c 149e 133c e53f 56bc 3525 063c
000002b0: 3eb7 4e3d de01 203d f718 9fbc 9398 893b
000002c0: d833 15bd 2e56 58bd a4ae 9639 afa6 9f3c
000002d0: eb16 8cbd 6152 a8bc 4138 8b3c 9d82 32bd
000002e0: 8476 263d 3c28 883c b114 793d 680a e9bc
000002f0: c060 313d 89bf b7ba fdc0 633c 51c6 4b3d
00000300: 5a38 1abd ced1 b1bc 6550 a5bc 1343 09bd
00000310: 1b17 983d 0730 48bd c41c 8b3d 4265 b63c
00000320: 683c 4cbd 4904 5abb da4e 4bbc 2b0f a5bd
00000330: c881 bebc 3636 e13b 40b2 903d fe9c cd3c
00000340: 075a 133d 4d06 3a3d 54b2 833d 0297 723c
00000350: 8893 15bd d352 2d3b dd49 b739 7d02 89bc
00000360: 0d5d e8bb 4f3b 1c3c b845 423d c280 0e3d
00000370: d0ac eebc 3a35 d03c 77b1 1bbd e4d6 e13d
00000380: f391 60bc a5b1 603d 9969 bdbb e5fa dfbc
00000390: 9e3b 15bd f5c4 eebc 7e17 da3c 2bd0 52bd
000003a0: b77e 60bd e11f 2c3d e57b 60bd f265 b0bb
000003b0: 1718 4b3d 7825 823d cc60 5f3d 1958 313b
000003c0: 7712 50bc d371 0c3c e4e9 1e3a 68a6 1a3d
000003d0: ee7a fdbc 46ed 95bd 2063 323d 5226 e7bc
000003e0: 6903 c33c 8917 8abd df03 ccbc 8f73 9b3d
000003f0: 117b 473c ca77 ac3c 4957 333d 41e3 1e3d
-0.0045918096 0.042535592 0.004840496 -0.06422697 -0.0459451 0.014491129 0.01702612 0.0069701625
0.03382492 0.0026552214 0.020538377 -0.011769559 -0.03720778 -0.029186532 0.0031840203 -0.010157585
-0.061775737 0.03648867 0.04591517 0.020049507 -0.027404658 0.0074128755 -0.029548032 0.016130952
-0.014906821 -0.032328952 -0.05405439 0.013933412 0.002148995 -0.06134236 0.042294733 -0.020975329
-0.038795985 -0.047056276 -0.041950174 -0.03290422 -0.03982307 -0.04963809 0.01599437 -0.021883052
0.045332495 0.091144 0.011626343 0.0113496445 0.09835077 -0.027018374 0.0026074979 0.017872779
-0.010612058 -0.007010818 -0.0154940495 0.07818637 0.03512027 -0.027429964 -0.05189774 -0.018094098
0.0038827655 0.012640894 -0.05207048 -0.0021100529 -0.008522498 -0.01969339 0.094817385 0.009891916
-0.03967083 -0.021226536 -0.08774023 0.024668558 -0.05818541 0.04843534 -0.03029659 0.0011954724
-0.07704523 -0.01833311 0.034967106 -0.008825442 0.035142023 -0.06569341 0.042507336 0.001125291
0.0038517148 0.049181778 -0.010372445 0.021714997 0.024743926 0.032625407 0.09076904 -0.032867625
-0.033893496 -0.00978945 -0.013264931 -0.04001406 0.03686946 -0.056544278 0.027828159 -0.011328148
0.005135594 -0.022435319 0.0026671423 -0.04674732 0.036135044 0.05890219 -0.0011312794 -0.001402071
0.05813288 0.01482057 -0.014238147 0.033238474 0.031045808 -0.04469492 0.008942364 -0.035688203
0.062770456 0.034079704 0.013260374 -0.06143143 -0.019400068 0.048521172 0.034378357 -0.02283246
-0.039370373 0.011555262 -0.06879228 -0.050740022 -0.004292673 0.006649729 0.09376435 0.00931321
-0.08437521 -0.014885005 0.02338294 0.028510781 0.011615147 0.029236218 0.04923337 0.09129023
-0.055137746 0.029560046 -0.044291135 0.0069922833 0.010718356 0.073654465 -0.058804106 -0.037802383
0.033107057 0.03316702 0.045809146 -0.009760721 0.030309763 0.05082167 -0.023439122 -0.027496424
0.036573306 0.043782905 0.010632104 -0.021360107 0.033237394 -0.009750417 -0.011021705 0.038930282
-0.00784965 -0.07567612 -0.027043447 0.049929995 0.03309723 0.041244663 -0.009018823 -0.02861748
0.014766181 0.009009857 -0.013076757 0.008187582 0.050467722 0.03906428 -0.019421084 0.0041990965
-0.036426395 -0.052816562 0.00028740347 0.01948866 -0.06840309 -0.020547094 0.016994597 -0.043581594
0.04064037 0.016620748 0.06081075 -0.028447345 0.04330516 -0.0014018874 0.013900992 0.049749676
-0.037651397 -0.021706488 -0.020179937 -0.033511233 0.07426282 -0.048873927 0.06792596 0.02226508
-0.049862295 -0.0033266714 -0.012408936 -0.08059534 -0.023255244 0.0068729175 0.070652485 0.025099274
0.03597453 0.045416165 0.06430498 0.014806511 -0.03651765 0.0026447072 0.00034959512 -0.01672482
-0.0070911706 0.009535625 0.04742977 0.03479076 -0.029135138 0.025416005 -0.03801104 0.11027315
-0.013706672 0.054856915 -0.0057804105 -0.027341316 -0.03643381 -0.02914665 0.02662253 -0.051468056
-0.054808345 0.04202259 -0.054805655 -0.0053832466 0.04958352 0.06354803 0.054535672 0.0027060567
-0.012699715 0.00857206 0.0006062074 0.037756354 -0.030942407 -0.07320647 0.043551564 -0.028216515
0.023805337 -0.0674277 -0.02490419 0.075904004 0.012175337 0.021053214 0.043784413 0.038790945

conv2.bias f4 [64]
00000000: 19c4 0838 6c57 4338 3ebb 4338 6512 1338
00000010: ac3a 9737 1ec3 82b7 42a7 6d38 b1be a9b7
00000020: 63bb b236 36a8 5bb8 6019 0938 15e7 6e37
00000030: 8a97 8238 f428 b5b7 f5bf cab6 c4c6 0bb8
00000040: f576 a137 801d 62b6 a3fa 04b7 86fb 46b8
00000050: 675a 48b7 cf2d 8eb8 e9d3 66b8 80aa e436
00000060: f22d ce37 97a9 9838 2c66 d3b8 30a2 8837
00000070: fce2 9837 3ee3 afb7 1433 d2b7 bd06 1db8
00000080: 5bd5 e037 05ce b835 3e33 4438 3af3 16b8
00000090: 9900 9cb6 a927 bab6 6344 bcb8 ebfa 4336
000000a0: a366 f6b8 e2fd 0ab8 718a 1b36 aff2 b0b6
000000b0: 80bf ccb7 b4db 8937 b572 ea37 0dbf 89b8
000000c0: 908c e037 e690 f7b5 fa5b ef37 934e adb7
000000d0: f75f db37 25e0 a938 b13f 1bb7 9bbc 7c37
000000e0: 35ac a437 1800 b437 887c 65b6 fa87 31b8
000000f0: 79e6 fdb7 690a db35 ef1b 5236 c26a d637
3.2607557e-05 4.657304e-05 4.6666006e-05 3.5064662e-05 1.8027924e-05 -1.5588066e-05 5.6660974e-05 -2.0235168e-05
5.326628e-06 -5.2370327e-05 3.2686978e-05 1.4239708e-05 6.2271094e-05 -2.1595952e-05 -6.042416e-06 -3.3325297e-05
1.924809e-05 -3.3693796e-06 -7.926169e-06 -4.7441128e-05 -1.1941977e-05 -6.77962e-05 -5.503363e-05 6.8147783e-06
2.4578509e-05 7.2795134e-05 -0.00010080295 1.6287988e-05 1.822551e-05 -2.0967444e-05 -2.5057736e-05 -3.7437992e-05
2.6802232e-05 1.3769028e-06 4.6777765e-05 -3.598931e-05 -4.649232e-06 -5.547849e-06 -8.9772766e-05 2.9203318e-06
-0.00011749312 -3.313821e-05 2.3177383e-06 -5.273461e-06 -2.440787e-05 1.643398e-05 2.7948388e-05 -6.568255e-05
2.6768335e-05 -1.8445105e-06 2.853385e-05 -2.0659796e-05 2.6151522e-05 8.100298e-05 -9.253549e-06 1.5064284e-05
1.9630514e-05 2.1457716e-05 -3.4196146e-06 -4.2326727e-05 -3.0267272e-05 1.6319801e-06 3.1308698e-06 2.5560501e-05

bn1.weight f4 [32]
00000000: 4d6b 743f 1c2c 7c3f 57c7 7e3f 6006 823f
00000010: e0b6 803f 88aa 813f c55e 813f 653e 773f
00000020: 1fd9 7e3f cca4 7d3f d01c 823f 0692 773f
00000030: 839b 803f d889 803f 92a4 883f 9dcb 843f
00000040: 20f8 873f 24b2 7c3f b54a 763f 7635 7a3f
00000050: b5f3 723f 57f1 773f f153 893f 4da3 833f
00000060: 53cf 803f cc38 753f 94c5 743f b702 7c3f
00000070: 71d7 803f 7ce7 7b3f df55 7f3f 0779 7a3f
0.9547623 0.98504806 0.9952292 1.0158195 1.0055809 1.0130167 1.0107046 0.9657958
0.9955005 0.99079585 1.0165043 0.9670719 1.0047458 1.0042067 1.0675223 1.0374638
1.0622597 0.9870932 0.96207744 0.97737825 0.9490312 0.9685263 1.0728742 1.028421
1.006327 0.9578979 0.9561398 0.9844164 1.0065747 0.9840009 0.99740404 0.97840923

bn1.bias f4 [32]
00000000: fbb7 5dbd 4bf7 26bd 64dc 3fbd c39a 183d
00000010: cfac d9b9 e0d1 503d 4519 9dbc 1301 bdbd
00000020: 69d6 073c 546a eb3c 30ba 883d a409 e2bd
00000030: f459 1cbd e193 c1bc 0caf b13d 6e3d f33c
00000040: 2c07 49bc 6cd2 b1bd e1bb d3bd 8531 9ebd
00000050: 6e37 3cbd 2c55 93bd bf97 703d 30b7 4dbc
00000060: dde1 d53b 9452 8cbd f045 233a 61e1 a1bd
00000070: eaa1 17bc baca 0f3c 18d3 08bd 824b 453d
-0.054130536 -0.04076318 -0.04684104 0.037256967 -0.00041518218 0.050981402 -0.019177089 -0.092287205
0.008290865 0.028737225 0.066761374 -0.11036995 -0.038171723 -0.023630084 0.08675966 0.029692378
-0.012269776 -0.08682713 -0.103385694 -0.07724289 -0.0459513 -0.071939796 0.058738466 -0.012555882
0.006527169 -0.06851688 0.0006228378 -0.07904316 -0.009254912 0.008776361 -0.03340444 0.048167713

bn1.running_mean f4 [32]
00000000: d969 2c3d a7fc 613d 0cbd 9cbd d618 98bd
00000010: 00d4 6abd 5ac9 34be d6f0 cbbc 6aa3 d03d
00000020: 4641 debc 6a06 1ebd 623d c5bd 5969 743d
00000030: d9b4 34bd 0f2e 873d f2d9 11be 529f 11be
00000040: 19c1 ffbc 90c4 ae3d e5d9 d43b c2f4 283d
00000050: 487c 0f3d 6332 bf3d 381e 07be 0348 c7bc
00000060: e52f f8bc 9db6 733d 1a2c 053c f8fd b13c
00000070: 9c76 40bc 3328 8ebc a4dd c93d be16 86bd
0.04209313 0.05517259 -0.07653245 -0.07426612 -0.057331085 -0.17654935 -0.024895113 0.10187419
-0.027130734 -0.038580336 -0.096308485 0.05967078 -0.044117782 0.06600582 -0.14243296 -0.14220932
-0.031220006 0.08533585 0.0064957016 0.041249044 0.035030633 0.093357824 -0.13195121 -0.02432633
-0.030296275 0.059500325 0.00812819 0.021727547 -0.011747029 -0.017353153 0.09856728 -0.065473065

bn1.running_var f4 [32]
00000000: 4612 6d3d 3d5b 0f3d d111 293d 6ee9 243d
00000010: d49b 2d3d 4a84 533d 4675 923c 0c01 ce3c
00000020: e5bc 4b3d 5e1e a03c 0407 063d 6a8c ee3c
00000030: d695 6b3c 8ae5 113d eb7e 063d 3e99 393d
00000040: ff15 523c 1356 113d 6f1f 073d 4c9c d93c
00000050: 9add 233d 5949 193d b569 0b3d 7cc0 c53c
00000060: 8207 143d c7e0 a83c 0f7c 093d 7c20 043d
00000070: 892c 253d d0d0 d43c 889b fb3c f55b 0b3d
0.057878755 0.03499912 0.041276757 0.04026168 0.042384937 0.051639833 0.017878186 0.025146984
0.04974069 0.01954573 0.032721534 0.029119689 0.014378985 0.035619296 0.032835882 0.04531216
0.012822627 0.035482477 0.03298896 0.026563786 0.040006258 0.037423465 0.034036357 0.024139635
0.036139973 0.020614995 0.033565577 0.032257542 0.040325675 0.025978476 0.030713812 0.034023244

bn2.weight f4 [64]
00000000: e3a5 893f b9ae 873f 3f34 853f c39a 963f
00000010: dd0c 943f c3c7 953f 5359 8c3f b463 8b3f
00000020: 9060 883f e66e 913f 3f54 973f 1f4e 8c3f
00000030: ab2d 9c3f ee17 973f a9a2 8e3f 79b5 953f
00000040: 0a2c 813f 9a4f 8e3f a719 9b3f eee4 863f
00000050: f7e4 8b3f 8001 933f 8723 8f3f 37d9 9a3f
00000060: 6f32 993f 9d4a 913f 5a87 8b3f 95ea 853f
00000070: 04c1 8e3f c81b 903f a642 933f 0dc9 9d3f
00000080: 0f28 863f d1d8 8f3f 3592 933f d608 943f
00000090: f652 8b3f 7826 9d3f 5520 8b3f 60d7 a23f
000000a0: 5288 9a3f cb65 a33f 8d22 903f 0ea6 833f
000000b0: 3cb9 853f 8cb6 923f 690b 933f 2c71 9c3f
000000c0: 5296 913f 67e4 973f 2015 9a3f 7595 953f
000000d0: 38a6 873f 5d66 953f 404b 883f 9f56 993f
000000e0: 1daf 973f 7651 853f 48c7 883f 97a7 883f
000000f0: 7876 903f 993a 8c3f 5404 983f 45e8 843f
1.075375 1.0600196 1.0406569 1.176598 1.1566426 1.1701587 1.096476 1.0889802
1.0654469 1.1361969 1.1822585 1.0961341 1.2201437 1.1804178 1.114339 1.1696006
1.0091565 1.1118042 1.2117203 1.0538614 1.092925 1.1484833 1.1182717 1.2097539
1.1968516 1.1350895 1.0900681 1.0462214 1.1152654 1.1258478 1.1504714 1.2326981
1.0480975 1.1238042 1.1528994 1.1565197 1.0884693 1.2277365 1.0869242 1.2721977
1.2072852 1.276544 1.1260544 1.0285051 1.0447154 1.1461959 1.1487857 1.2222037
1.1373999 1.1866578 1.2037697 1.1686236 1.0597601 1.1671864 1.0647964 1.197956
1.1850315 1.0415485 1.0685816 1.0676144 1.1286154 1.0955383 1.1876321 1.0383383

bn2.bias f4 [64]
00000000: 862b a4bd 6af0 66bd bd0d f3bd 4267 723c
00000010: 4b3b be3c 8cb8 313d 5cf9 93bc b7e9 433d
00000020: 9353 a5bd 0106 a3bd 47d7 043d f383 523d
00000030: e5e6 1abd ae69 493c b41e d4bc 2142 cf3d
00000040: 61fc c0bd fa0f 173d 89fc a23d c012 2fbd
00000050: d816 7a3c 10a9 87bd 0f61 3b3d 6552 553c
00000060: 8695 15bb 7905 583d af32 c63c 1aa2 67bd
00000070: 7403 33bd 6974 60bc 4b5f 7b3d e692 6f3d
00000080: 404e 403c 1fe1 2d3d 6810 50bd e89f 28bd
00000090: fbb0 27bd 67f0 b73b 89db 7abd b158 1f3e
000000a0: 7d89 713d b950 aa3d 4fec 13bd 6b43 9dbd
000000b0: 061f 92bd 596a a8bd 2c60 a93d 7335 813d
000000c0: 7601 aa3c 945e f53c 2537 d83d 79aa db3d
000000d0: 4429 5abd 0dc6 c73d 18ca 92bd a3a6 06bc
000000e0: e5ea 5bbd b249 e6bd 9e9e c6bc f877 0bbd
000000f0: 4b7c 30bd 4320 c93c 89ed 39bd 7bbc 3ebd
-0.08016114 -0.05638162 -0.11867855 0.014795126 0.023221632 0.04338889 -0.01806324 0.04783031
-0.08072581 -0.079601295 0.032431867 0.051395368 -0.037817854 0.012293262 -0.025893547 0.10120035
-0.094231375 0.03688047 0.079583235 -0.04274249 0.015264235 -0.06624043 0.04574686 0.013020133
-0.0022824719 0.052739594 0.02419409 -0.056551076 -0.043704465 -0.013699629 0.061370175 0.058489703
0.011737406 0.04245102 -0.050796896 -0.041168123 -0.040940266 0.005613375 -0.06124452 0.15561177
0.05896901 0.08316178 -0.036114033 -0.076788746 -0.071348235 -0.08223409 0.082702965 0.06309023
0.02075265 0.029952325 0.10557393 0.107258745 -0.05326201 0.09754572 -0.071674526 -0.00821844
-0.05369081 -0.11244525 -0.024245556 -0.034049958 -0.043087285 0.024551516 -0.045392547 -0.046566468

bn2.running_mean f4 [64]
00000000: b842 cb3d 8774 babc 514e 7ebe ed3f efbd
00000010: 7be3 d4bd d28a a3be 50a5 a9bd 177e 40be
00000020: 6616 05be 8fc6 0dbe 84b3 413d 629e 80be
00000030: 52a1 5c3e 8dbf a7bc 304d 85bd d44a abbe
00000040: 4726 4ebe 5cbc c7be 8a0f 67be 8cb4 9f3b
00000050: 3421 cfbe 2aa1 c4bd 8aad aebd bb6d 903e
00000060: 1606 95bd b487 2dbe 115a 65be 88a7 aebd
00000070: 7dcc ac3b adb3 363e de98 3bbd ebfa 91be
00000080: 59b6 59be f4ce 11be 9987 17be 83fe b0bd
00000090: 8307 c23d 7eee 5abe 0146 6f3d c58a 963c
000000a0: 2f48 24be 1ba1 69be 113e 5dbd abdf a9bd
000000b0: 0313 2d3d 2351 ae3b b3a3 80be 40cd d1bd
000000c0: 2866 a73d 4099 90be f7d3 f73d a3a1 7ebe
000000d0: 3c53 08bd 207c 08be f9bd e53d 989c 83bc
000000e0: 5c46 b6bc 4689 2cbe b703 403e 9cdd 59bd
000000f0: 6fff 243e 316a ffbc d773 74bd d6bc fb3d
0.09924835 -0.022760643 -0.24834563 -0.11682115 -0.10394951 -0.3194185 -0.08283484 -0.187981
-0.12996826 -0.13845275 0.04729034 -0.25120836 0.21545914 -0.02047708 -0.06508863 -0.33455527
-0.20131789 -0.39010894 -0.22564521 0.004873818 -0.4045502 -0.09601052 -0.08529194 0.28208718
-0.072765514 -0.16946298 -0.22397639 -0.08528048 0.0052734003 0.17841978 -0.045800082 -0.28511748
-0.21260966 -0.14239103 -0.1479782 -0.08642294 0.09474089 -0.2138004 0.05841637 0.018376717
-0.16043161 -0.22815363 -0.05401427 -0.082946144 0.04225446 0.005319731 -0.25124893 -0.102442265
0.08173782 -0.2824192 0.12100976 -0.24866347 -0.033282503 -0.133286 0.11217875 -0.01606588
-0.022250347 -0.1684924 0.18751417 -0.05318986 0.16113065 -0.031178566 -0.059680786 0.12291877

bn2.running_var f4 [64]
00000000: e2e6 433d ef07 123d ef15 ee3d 870e 1e3d
00000010: 6bcd 983d 89e4 a33d f496 243d e8bd dc3d
00000020: cfe4 2a3d 97c6 353d b3a0 523d 58d8 823d
00000030: 6c17 8e3d d777 493d e590 9b3d 495c 833d
00000040: aba1 973d 06d3 d13d 567e 913d 8cbe 6a3d
00000050: 80a7 aa3d 14ec 223d a900 3c3d 61c3 a23d
00000060: da4e 533d a8e5 4f3d 68a8 a13d 7840 f13d
00000070: 554f 143e 1ce4 853d d687 bc3d b30d 303d
00000080: 78d6 b53d b009 d43d ebab 563d c331 9f3d
00000090: ed5f 5c3d a2a1 293d 203e ea3c 1b77 af3d
000000a0: aa65 853d c2aa 9c3d a7c4 7a3d f141 9a3d
000000b0: a0cc 4c3d 4d9c 4a3d e277 b03d b63a 5d3d
000000c0: fc68 4f3d 4681 873d d9ec a83d 38db 7a3d
000000d0: 93b9 753d 22cc a43d 74f6 363d 8b33 913d
000000e0: 30fe 543d 3e1b 5f3d bd62 213e c962 313e
000000f0: 419b 363d 065d 883d da47 9a3d 026c 8b3d
0.04782761 0.035652097 0.11625277 0.038588073 0.07461055 0.08002574 0.040183023 0.10778409
0.041722115 0.044378843 0.051422786 0.063889205 0.06938061 0.049186554 0.07595996 0.06414086
0.074038826 0.10245328 0.07104175 0.057310626 0.08332729 0.039775923 0.045899067 0.07947422
0.05158887 0.050756127 0.07893449 0.117798746 0.14483388 0.06537649 0.09205596 0.042981815
0.08878797 0.1035341 0.052410048 0.07773163 0.05380242 0.04141391 0.028594077 0.085676394
0.065135315 0.07649757 0.0612227 0.075321086 0.049999833 0.049465466 0.08616616 0.05401107
0.05063723 0.06616454 0.082483 0.06124422 0.05999143 0.08046748 0.04466863 0.07089909
0.052000225 0.05446934 0.15760322 0.1732284 0.044581655 0.06658368 0.07533236 0.0680771

output_conv.weight f4 [9, 64, 1, 1]
00000000: cb66 5abe a9ad 483d 67ab f63d 153e b03d
00000010: f655 633d f316 e43b bcad 353e db94 333e
00000020: c0f4 5bbd 81e2 07bb 1031 c53d aeb5 0a3e
00000030: 4b6f 843c 5dc7 843c 1d2e ca3d ffd8 053e
00000040: e2ba c2bd ae07 1b3e 3ea0 c93d 4850 aabd
00000050: 5f7b 023e 0268 3d3d 3546 f03d a49b bc3c
00000060: 4dd2 a53d a50b 153e c0b1 c33d 97c8 81bd
00000070: 7b82 61bd 03a7 ff3c e04d 01bd e0a1 6b3d
00000080: f190 1c3e 87ff ec3d 5be0 953d 9302 fe3d
00000090: 2cda cabd 5238 f73c ba93 7dbd adbf 903d
000000a0: f196 833d b320 d3bb a8b3 e13b 88e3 76bd
000000b0: 4882 18be 37e3 873d 69a7 d73d ba71 cd3d
000000c0: 7c65 fabc 6ad7 cd3d d7b2 e83d 13c1 c93d
000000d0: e67f 10be d576 c53d 359f 92bd 0a86 a03d
000000e0: 41e0 d2bc 3269 acbc fc47 cfbd 8626 08be
000000f0: 8fd1 80bd a41f e53d 05ed 543d a463 37be
00000100: c7ca 973d 3b63 0b3d 41db b53c f272 143e
00000110: 846f 8ebc 4f90 883b ca97 52bd 0565 10bd
00000120: 8207 923d 34b6 a33d cf6e 4dbe b1f0 c73d
00000130: 4310 c1bd 7ff7 df3d fc91 3cbd 2585 17bd
00000140: d911 a6bd 5602 dc3c 4b22 d33d 9ff9 b1be
00000150: b4e9 abbd 1dee 283d d2ac 04bc 5c09 28be
00000160: 5453 12be 9241 d53d cfce 1bbd 9288 d0bd
00000170: 0d11 05be 731e a33d d680 b63d cb82 1e3e
00000180: fca1 b83c 969e 5a3c 8712 19be f69d 47be
00000190: 7421 013e 0c76 e0bd 6069 8abc a81a 823b
000001a0: 2164 ee3c f8c8 f6bc dbf1 303d 3d31 a3bd
000001b0: b206 053c c5eb e8bd 00f9 ca3d 62d8 42be
000001c0: 6582 933d 294d e63d b262 0f3e 02ef 8d3d
000001d0: 39b7 35be 6e67 27bb ec73 c7bd 468f 34be
000001e0: b93d a5bd 9026 94ba ddfc 61bd 0e1a 1cbe
000001f0: 9fc5 83be 5bd5 bbbc 0f1e 8a3d dd32 9f3c
00000200: fdb5 9b3d da5b 323d 1f6d 33bd f6fe a6bd
00000210: 1c09 e43d 0dce 943d 2598 05be a581 b6bc
00000220: c817 983b 4459 01bc 9c66 78bd bcf5 e0bc
00000230: 3d51 f23d fd2c c83d 4119 5cbe ea49 8a3d
00000240: 6d21 72be e051 b3bc 91b5 ab3d 8139 e8ba
00000250: 4a12 95bd 6b02 e13d 5391 7f3d 86ad 14be
00000260: 4e12 ba3d 4370 bd3c a105 d0bd d6c8 d9bd
00000270: 2a8f 3cbe 9d8c 5a3d b2bc 0f3d cd25 253e
00000280: abf9 053c a70c 123d e54d d8bd 58f5 01be
00000290: 776e 7abe b4a8 7c3d 72fd 88be e5a2 8b3d
000002a0: f910 a93d 2d99 3bbd 80dc fbbd 0304 80bd
000002b0: a6c5 eb3d 68c7 473d bb7f f3bd 0070 a5bc
000002c0: 77d2 2ebd fbf1 053e d70f 073d 2cd1 06bb
000002d0: da38 fe3d 72db c1bd 5ed3 d1bd 71c8 73bd
000002e0: 3739 b53c a06b 3cbe 2550 8ebc d77b 0bbe
000002f0: 987c 22bd 6439 433d f715 b63c 9a6b d2bb
00000300: 703c d0bc ac25 053e b7ba 813d 1dae 2ebe
00000310: e219 723d e3bb efbc e44e 72be 4eec 113d
00000320: 1049 d13d 9782 cabd 90f6 ca3d a5a3 0ebe
00000330: 0e56 a4bc d915 fa3c df62 ff3c 2157 5bbe
00000340: 47f5 fdbd f38e aa3d 8e91 823d 70e7 e23d
00000350: 03d0 42be 9052 ac3c 37d1 d2bc 87e5 8f3d
00000360: 1b69 38be 92c4 89bd bbf9 e7bc 352d 26be
00000370: aef8 febd 7773 11be 1658 a93c 8292 86bd
00000380: 5496 22be 6472 39be 70a9 c23d 8e69 05be
00000390: 67bd 9cbd 76ae 333c 8450 e3bc fd15 103d
000003a0: 9a22 3dbe efc0 43be 0444 1dbd cecf 063e
000003b0: 7dab fd3d 4d4b d03d b3c4 73bd 10a9 9c3d
000003c0: 5d25 063d 1b81 52be 6760 e5bd ffe5 30be
000003d0: 6643 ddbc 68db babb f1de 29bd 75ed 9e3d
000003e0: f1b1 7f3d eb35 3ebd 3dbe b93b e470 12be
000003f0: 9092 8c3d 25bd c4bc 4e7a 713a 1fd6 813b
-0.21328275 0.04899374 0.12044411 0.08605591 0.0555019 0.0069607436 0.17742056 0.17537253
-0.05370021 -0.0020734372 0.096284986 0.13545868 0.01616635 0.016208345 0.09872077 0.13071059
-0.09508301 0.15139648 0.09845017 -0.08316094 0.12742375 0.046241768 0.11732141 0.023023434
0.08096752 0.14555223 0.095553875 -0.063370876 -0.055056076 0.031207567 -0.031568408 0.057527423
0.15289666 0.115721755 0.07318183 0.12402835 -0.09904894 0.030178223 -0.06190846 0.07067809
0.06425274 -0.006443107 0.006887872 -0.060275584 -0.14893448 0.06635135 0.10529978 0.10031457
-0.03056597 0.100508526 0.11362236 0.09851279 -0.1411129 0.09641806 -0.071592726 0.07838066
-0.025741698 -0.021046255 -0.10121152 -0.13295946 -0.0628997 0.111876756 0.051983852 -0.17909104
0.074117236 0.03403018 0.022199275 0.14496973 -0.01738716 0.0041675935 -0.05141429 -0.03525259
0.07130338 0.07993737 -0.20061801 0.09762705 -0.0942693 0.10935878 -0.04603766 -0.03699221
-0.08108873 0.026856583 0.10309275 -0.34760758 -0.08394185 0.041242708 -0.008097844 -0.1640982
-0.142896 0.10412897 -0.038039025 -0.10182299 -0.12994786 0.07964792 0.08911292 0.15479581
0.022538178 0.013343474 -0.14948474 -0.19493851 0.12610418 -0.10960016 -0.01689595 0.003970463
0.02910048 -0.030125126 0.0431994 -0.07968376 0.008119272 -0.113730945 0.09910774 -0.19027856
0.07202605 0.11245186 0.14002493 0.06930353 -0.17745675 -0.0025543827 -0.09738907 -0.1763278
-0.08068413 -0.0011302996 -0.05517279 -0.15244314 -0.2573671 -0.022928884 0.067440145 0.019433433
0.07603071 0.043544628 -0.043805238 -0.08154099 0.1113455 0.072658636 -0.1304632 -0.022278616
0.004641507 -0.007894818 -0.06064473 -0.027460925 0.11831901 0.09774206 -0.21494009 0.06752379
-0.23645563 -0.021889627 0.083842404 -0.0017717333 -0.07278879 0.10986789 0.06239445 -0.14519319
0.090855226 0.02312482 -0.10157324 -0.106340095 -0.18413988 0.053356756 0.035092063 0.16127701
0.008177201 0.035656597 -0.10561732 -0.12691247 -0.24456201 0.061684325 -0.26755863 0.06818179
0.082551904 -0.045800377 -0.122979164 -0.06250765 0.11512308 0.048774153 -0.11889597 -0.020195007
-0.042681184 0.1308059 0.03297409 -0.0020571453 0.12413187 -0.09465684 -0.10245393 -0.059517328
0.022122009 -0.1840043 -0.0173722 -0.1362146 -0.039669603 0.047662154 0.02222727 -0.0064215185
-0.025419444 0.13002652 0.06334441 -0.17058606 0.059106715 -0.029264396 -0.23662907 0.03562575
0.10219014 -0.09888189 0.09910309 -0.13929613 -0.020060565 0.030527996 0.031175075 -0.21419956
-0.124002986 0.08328047 0.063754186 0.110792994 -0.19024663 0.021035463 -0.025734527 0.07026201
-0.18008845 -0.06726946 -0.028317323 -0.16228183 -0.12449776 -0.14204203 0.020671885 -0.06570913
-0.15877658 -0.18110043 0.09504974 -0.13028547 -0.07653313 0.010966888 -0.027748354 0.03517722
-0.1847023 -0.19116567 -0.038394943 0.13165209 0.123862244 0.101706125 -0.05951376 0.076494336
0.032750476 -0.20557062 -0.11200028 -0.17275237 -0.027009677 -0.005702425 -0.04147238 0.07760135
0.062425558 -0.04643814 0.00566843 -0.14300877 0.06863892 -0.024015972 0.0009211645 0.003962293

output_conv.bias f4 [9]
00000000: 5775 933d 2fd2 b1bb ec23 3a3c e648 783c
00000010: 6a0b 89bc 985a 3fbc c0c7 2dbd f2cd 963c
00000020: 8094 72bc
0.07200115 -0.005426667 0.0113611035 0.015154099 -0.016729075 -0.011679314 -0.042426825 0.01840875
-0.014805913
