training/trained_models/model_standard_pulse.pth (torch, 84714 bytes, 14 tensors)

conv1.weight f4 [32, 1, 3, 3]
000000 c5 bb 1b 3e 92 aa 06 3e 5e 73 01 be 45 25 c6 3c
       0.15208347 0.13151005 -0.12641665 0.024187693
000010 b9 32 ed 3d 60 f4 f1 bd 95 0f 40 be a2 df 6d be
       0.1158194 -0.11814189 -0.18755944 -0.2322984
000020 96 06 42 3e a5 db 53 3e 75 6b 10 3e d3 9a 1f 3a
       0.18947825 0.20689256 0.14103492 0.0006088439
000030 de e0 c2 3d b5 53 1b 3e f1 5b 15 3e 80 47 31 bd
       0.09515546 0.1516865 0.14585854 -0.04328108
000040 c9 a1 f7 3d 25 1f cb 3d ed 38 72 bd 0d e9 45 bd
       0.12091405 0.0991805 -0.05913632 -0.048317958
000050 a4 08 9f 3d 82 35 0e 3e fb 67 8d be 24 67 25 be
       0.0776532 0.13887599 -0.27618393 -0.16152626
000060 b7 62 8e bd b9 cc 11 3d 0f 19 46 3d 60 04 32 be
       -0.06952422 0.03559563 0.04836374 -0.17384481
000070 04 62 a8 3d 0c 96 e3 3d c9 c6 d8 3d c1 f5 95 3d
       0.0822182 0.111126035 0.1058479 0.073222645
000080 e5 48 36 be 8d 94 5c be 3c 6f 16 3e 86 b3 af 3a
       -0.17801245 -0.21541043 0.1469087 0.0013404943
000090 16 e4 a7 be 91 0a 2d bb 73 37 57 3e 69 00 b6 3d
       -0.32791203 -0.0026404003 0.21017246 0.08886797
0000a0 cf e6 a5 bd 2e 9c c9 bd f1 ab 3b 3e f2 fc 2c 3e
       -0.08100664 -0.09844242 0.18327309 0.16893366
0000b0 8e 42 3a 3e e3 13 12 3e e2 13 9f 3d 69 0f 06 be
       0.18189451 0.14265399 0.07767464 -0.13091816
0000c0 09 de ce bd e8 27 4d be 23 3e 90 bc fb 08 f9 bd
       -0.101009436 -0.20034754 -0.017607754 -0.12159916
0000d0 54 c2 b7 3b c4 92 29 be 4a f7 67 bc 87 87 cc 3d
       0.0056078825 -0.16559893 -0.014158079 0.09986787
0000e0 28 34 2c 3e 86 af ad 3c ba 98 8f bd f9 06 34 be
       0.16816771 0.02120186 -0.07011552 -0.17580785
0000f0 f9 35 22 3e 1b bb 2a be 12 65 3c 3d 11 b8 74 bb
       0.15840901 -0.16672938 0.045994826 -0.0037341157
000100 2c ce b3 bd b8 4f 3c bd e8 e2 05 be 0d 11 bd 3d
       -0.087795585 -0.045974463 -0.13074839 0.09231768
000110 6a 10 0c be d3 eb 09 be f0 7c c1 3d d9 5a 67 be
       -0.13678136 -0.13468866 0.09447658 -0.2259325
000120 73 34 ee 3c 04 82 1a 3e de 98 8c be fb 86 25 be
       0.029077744 0.1508866 -0.27460378 -0.16164772
000130 0a 66 48 be 36 95 95 bd 23 43 3c 3e 91 8f 89 3d
       -0.19570175 -0.0730385 0.18384986 0.06716836
000140 29 31 1c be 9b 75 bf 3d 18 79 25 be ab cb 61 be
       -0.15253128 0.09348603 -0.16159475 -0.2205035
000150 18 c3 b1 3c e5 50 85 be 97 59 f3 3d f5 84 b7 3d
       0.021699473 -0.2603828 0.11882322 0.089609064
000160 72 67 81 3d d0 1f 70 bc 94 86 5a be 99 6a 81 3d
       0.06318559 -0.014656022 -0.213404 0.0631916
000170 c7 01 06 3e fb 93 58 be 43 6a 59 be d7 75 00 3e
       0.13086616 -0.211502 -0.21231942 0.12544952
000180 e5 eb d7 3d b5 1d 28 3d 58 13 9f 3d 85 c6 f3 bd
       0.1054304 0.041043956 0.077673614 -0.11903099
000190 22 79 b7 bd 1e 6d 27 3d 5d 35 b6 bd bf 28 f5 bd
       -0.08958651 0.040875547 -0.08896897 -0.11970662
0001a0 68 32 b7 bd 00 47 b6 bd a0 27 fe bd 17 72 fd bc
       -0.08945161 -0.08900261 -0.124099016 -0.030938191
0001b0 4d ec 6f 3d ac 6e 3d 3e bf dc 9b 3d b8 c8 24 3e
       0.058574963 0.18499249 0.07610463 0.16092193
0001c0 91 43 65 3d 86 82 8e 3d db b0 99 3d ae be 31 be
       0.05597264 0.06958489 0.07504436 -0.17357895
0001d0 ec 6b 7b be e2 1d 31 3e 7b 8b a4 3d 0e 90 b7 3d
       -0.24552888 0.17296556 0.08034416 0.08963023
0001e0 b1 22 43 3e a6 7a 61 bd ec af ed bc 84 44 5b be
       0.19056202 -0.055048607 -0.02901455 -0.21412855
0001f0 1c 46 bc 3d e5 af 5d be 84 69 12 3d ca 76 4a 3e
       0.0919306 -0.2164913 0.03574516 0.19771877
000200 ef 29 3e be 6a 19 57 3e 3a d5 01 be 55 29 0c be
       -0.18570684 0.21005788 -0.12678996 -0.13687642
000210 f4 7e a4 3d 07 62 30 3e 13 c0 f5 bd 07 e0 4b be
       0.08032027 0.17224894 -0.11999526 -0.19909678
000220 86 db a3 bd 71 91 b7 3c f3 f1 32 be bd df cc 3d
       -0.08000855 0.022408219 -0.17475109 0.10003612
000230 dc 4b cf bd 7c f8 c8 3d 02 cb 36 be 51 81 b7 bd
       -0.10121891 0.0981302 -0.17850879 -0.08960212
000240 0e ba e6 bd 57 8b 62 3c fd ee 47 3e 80 00 97 3d
       -0.11265956 0.0138271665 0.1952476 0.07373142
000250 52 db 82 3d 59 90 3e 3e c9 96 f6 bd 6b 15 7c be
       0.06389488 0.18609752 -0.12040479 -0.24617545
000260 0d 0f 2b be 4e cc b4 bd 04 8c 53 bd 6e 2e 3c 3e
       -0.1670496 -0.088280305 -0.0516472 0.18377087
000270 2c 84 d5 3d e9 df 2f 3e 01 cd d1 3d ad 3c 3e 3e
       0.104256004 0.17175259 0.102441795 0.18577833
000280 78 ae 42 be fb d3 ab 3d 43 4b 51 3d 10 a7 d4 bd
       -0.19011867 0.083900414 0.051097166 -0.10383427
000290 59 76 c2 bd be f8 40 be 62 9a d3 bd b9 d3 ff bd
       -0.09495229 -0.18844888 -0.103321806 -0.12491555
0002a0 68 fb 69 be a0 d1 95 3d 2e c3 21 3e d2 8e 1a be
       -0.2284981 0.073153734 0.15797111 -0.15093544
0002b0 dc 7d 7a bd 1b 5e 33 be c3 8c b4 3d 39 71 e4 bc
       -0.061155185 -0.17516367 0.08815911 -0.02788602
0002c0 7c ea a0 bc d1 1e 69 bc a3 2b 19 be c8 66 1b 3e
       -0.01964306 -0.014228539 -0.14958052 0.15175927
0002d0 85 4c 4a be 57 a2 f8 bd 2a b2 f2 3d 60 83 ea 3d
       -0.19755752 -0.12140339 0.11850388 0.11450839
0002e0 92 c7 4a be 2c 27 b2 3d 84 bb 28 be dd 03 96 3d
       -0.19802693 0.08698878 -0.16477782 0.073249556
0002f0 b3 e3 83 3d 62 a3 26 3e b6 51 94 bd 00 02 6a be
       0.064399146 0.16273263 -0.072421476 -0.22852325
000300 ab 59 25 bd c4 e0 27 3e ff e8 a2 bc 86 6c 23 3e
       -0.040368717 0.16394335 -0.019886492 0.15959367
000310 bc f2 0b 3e 6e c1 f9 3d 84 89 fa bd 1e da 31 3b
       0.13666815 0.12195097 -0.1223326 0.0027138065
000320 54 e6 03 be 58 2e 4d bd 77 df 14 be e7 ba ec bd
       -0.12880832 -0.050093025 -0.1453837 -0.11559086
000330 f9 e0 05 bc c7 a9 fa bd a0 62 a1 bd 59 c4 c9 3d
       -0.008171313 -0.12239414 -0.07880139 0.098519035
000340 6d 4d 61 be a4 54 45 3e 82 a7 ef 3d a3 56 54 3d
       -0.22002192 0.19270569 0.117018715 0.051840436
000350 e3 6a 14 be 09 0f 9f 3d a5 2c c0 bc c7 bf 8d 3d
       -0.14493899 0.077665396 -0.023458788 0.06921344
000360 09 ce 36 be aa 58 1d be 0f af 7b bc 27 ee a5 bc
       -0.17852034 -0.15365854 -0.015361561 -0.020255161
000370 60 30 17 be 9d 6b b2 3d 84 85 2c be af da 87 bc
       -0.14764547 0.08711932 -0.16847807 -0.016583769
000380 5f 88 24 be c5 78 c8 3d 37 49 bb bc 75 b0 af 3d
       -0.16067646 0.0978866 -0.02286206 0.085785784
000390 94 6a 4e bc 46 ad 5e bd 74 c3 23 be 6a 8a fb bd
       -0.012598652 -0.054364465 -0.15992528 -0.1228226
0003a0 34 80 ce bc f0 b2 10 be fa e0 d1 3d e2 61 01 3e
       -0.025207616 -0.14130759 0.10247989 0.12634996
0003b0 ea 55 ef bd cf 6c 3d be e4 0f a7 3c 8f 3a 89 be
       -0.11686309 -0.18498538 0.02039332 -0.2680249
0003c0 9d a5 35 3e 3b 74 24 3e 23 3f 8e bb d5 30 13 be
       0.17738958 0.16059963 -0.0043410226 -0.14374097
0003d0 6d 18 d8 3d 1b 7a 85 be 87 17 33 3e 37 61 44 3c
       0.10551534 -0.26069722 0.17489444 0.011986068
0003e0 49 ce ce 3d df 7d 1c 3e 89 43 4b 3e 84 2d 90 3c
       0.100979395 0.15282391 0.19849981 0.017599829
0003f0 24 5c 2f 3e 45 c3 29 3e e5 b6 2e 3e 4f 00 36 3e
       0.17124993 0.16578396 0.17061956 0.17773555

conv1.bias f4 [32]
000000 9d b4 fd 34 4f b6 ef b4 bc 6d 01 36 ac 2e cb b5
       4.7256336e-07 -4.4649866e-07 1.9286372e-06 -1.5138262e-06
000010 3f fd 22 36 49 11 5a 35 76 c6 76 b5 dd 83 d8 35
       2.428729e-06 8.123648e-07 -9.193094e-07 1.6131631e-06
000020 70 49 f7 b5 1d ab 1e b5 f0 de 10 36 73 d7 33 b7
       -1.8424307e-06 -5.910859e-07 2.1587439e-06 -1.0719395e-05
000030 83 3c 84 b4 b7 d3 e8 35 de 11 29 35 56 60 6e 37
       -2.4630944e-07 1.7346964e-06 6.2983406e-07 1.4208335e-05
000040 48 77 b7 36 09 28 c5 b5 fd 28 8a b5 2f 1c b8 36
       5.467711e-06 -1.4689296e-06 -1.029373e-06 5.4869083e-06
000050 30 e3 e6 35 b5 ab 16 36 c6 38 3a b5 33 74 47 35
       1.7202456e-06 2.2451688e-06 -6.9373016e-07 7.430237e-07
000060 ab ee 0a 36 43 27 40 b6 3f 99 93 b5 55 7a 08 34
       2.0702525e-06 -2.8633083e-06 -1.0996954e-06 1.2710491e-07
000070 d3 c9 94 35 82 55 83 36 a6 c6 a3 b6 34 88 2c b5
       1.1085598e-06 3.9140587e-06 -4.8809043e-06 -6.4273195e-07

conv2.weight f4 [64, 32, 3, 3]
000000 76 4f 76 bb 70 fb 7f 3d fa 4f 17 3d d1 6b a9 bc
       -0.0037583984 0.06249565 0.036941506 -0.020681294
000010 ff 21 b2 bd 08 e4 fc 3c 8d e6 06 ba 22 76 bc bc
       -0.086978905 0.030870453 -0.0005146049 -0.023005549
000020 5e 0b a4 bc f3 03 bc bc 66 3f 88 3c ee 24 8a bd
       -0.020024952 -0.022951102 0.016631793 -0.06745325
000030 47 41 f0 bc d0 25 30 bc 5b 04 b2 3c f4 da 96 3a
       -0.029328002 -0.010751203 0.021730592 0.0011509345
000040 36 73 59 3d 8c 60 3d 3d 1b 73 9a 3c b8 79 06 3d
       0.05308839 0.046234652 0.018853715 0.032830924
000050 ba 4f 88 bc 76 29 71 bc d4 89 f6 bc 83 f6 0b bd
       -0.01663958 -0.014719358 -0.030095018 -0.03417064
000060 d4 8c a0 39 87 01 ba bc 11 04 ae bc b7 79 a1 3d
       0.00030622503 -0.022705806 -0.021242173 0.078845434
000070 6d c9 17 3d 72 4a 68 3d 42 56 1a bc 83 75 d8 3c
       0.03705733 0.05671162 -0.0094199795 0.026423221
000080 fa a4 8f 3b 52 45 11 3c d7 3a 32 bd f8 94 8c bd
       0.0043836804 0.008866625 -0.043513145 -0.06864351
000090 45 12 5c bc 87 f3 43 3d 88 ca c4 bb d9 77 f7 bc
       -0.01343209 0.047839668 -0.006005589 -0.030208515
0000a0 6e 0d 1a bc 0f f8 b1 b8 80 54 a1 bc db 70 ac bc
       -0.009402616 -8.486222e-05 -0.019693613 -0.021049907
0000b0 8c cb 07 bd be 6f 1b 3c 84 63 84 3d b3 b1 21 bc
       -0.0331531 0.009487091 0.064642936 -0.009869027
0000c0 c5 ae 7f bd 0f 7c 4c 3d 3b 26 6e bc ff a3 87 bd
       -0.062422533 0.049923 -0.014535482 -0.06623077
0000d0 bd 11 07 3d 24 88 a5 3d 70 0b 8e bc 48 79 5e 3d
       0.0329759 0.080826074 -0.017339438 0.05431488
0000e0 13 c9 86 bd c7 e5 1a 3d 42 00 2a 3d af 7f 63 3c
       -0.065813206 0.03781679 0.041504152 0.013885423
0000f0 e9 29 91 b7 91 23 9b bd 24 84 82 bd 44 65 07 bd
       -1.7304863e-05 -0.07575143 -0.0637286 -0.03305556
000100 d1 b5 f6 3b 87 26 11 3c 6e fb 8a bc 46 e8 21 3c
       0.0075289984 0.008859283 -0.016965594 0.009882038
000110 ed e1 65 3c 0e f9 09 bc ea 34 f7 bb 5d 80 9c bc
       0.014030916 -0.008421196 -0.0075441496 -0.019104177
000120 30 87 09 bb fe 4f 82 3c 36 24 22 3d ac e2 75 3d
       -0.002098512 0.015907284 0.039585315 0.060030624
000130 6a 27 7f 3d bd 09 35 bc 48 86 af bc 77 fa 38 bc
       0.062293448 -0.011049685 -0.021426335 -0.011290184
000140 b1 ec 54 bd 74 1a b1 3c 24 c8 1e bd a9 08 a5 bd
       -0.05198354 0.02161906 -0.038765088 -0.080582924
000150 e0 9e 56 bc cb 46 7c 3d 6f ce 52 3d 3d 37 a2 bd
       -0.013099402 0.06159095 0.0514664 -0.07920692
000160 4f 40 6d bc 4b 30 cd bd 8d dc e5 3c 70 fe 1e 3d
       -0.014480664 -0.10018977 0.028059268 0.03881687
000170 f0 19 1e bc 4a ff ce bb 14 10 85 3d 31 b0 5d bc
       -0.009649739 -0.006317054 0.06497207 -0.013530777
000180 6c dd a5 3d 4a a6 2d 3d 02 fe 06 bd 40 04 1b bd
       0.080988735 0.042394914 -0.032957084 -0.03784585
000190 65 ff 72 bc ed f0 94 3c fd b8 e0 3c d6 c0 f9 3c
       -0.014831399 0.018181289 0.02743196 0.03048746
0001a0 9d 56 af 3d 1c d3 1a bd 0b f9 82 3b 50 6c ab 3b
       0.08561442 -0.037798986 0.0039969734 0.0052314177
0001b0 84 ae cc bc 8c 99 95 3c 62 df c2 bc ae 55 84 bb
       -0.02498556 0.018261693 -0.023788158 -0.004038534
0001c0 b1 3b 9a bc ae cb a8 3a a3 1c d8 3c e1 75 83 bd
       -0.018827291 0.0012878084 0.026380843 -0.06418968
0001d0 13 cd 48 bc f3 72 49 bc e1 ed dd bd b9 08 27 bd
       -0.012255925 -0.012295472 -0.108363874 -0.040779803
0001e0 ab 7a 5f 3d 09 45 d0 bc 9c dd 80 3c da f9 50 3d
       0.054560345 -0.025423544 0.015730672 0.051019527
0001f0 f4 9b fb 3c d1 01 24 3d 98 17 f8 bc 9c 17 cd 3c
       0.030714013 0.040040795 -0.030284688 0.025035672
000200 16 47 b7 bc 5d 8c dc bc 5b 62 77 bc 43 1d ce 3a
       -0.022372764 -0.0269224 -0.015099133 0.0015725273
000210 80 81 b5 bb be 00 63 3b 84 98 42 3c 71 1d 8b bc
       -0.0055391192 0.0034637894 0.011877183 -0.016981812
000220 7b dd d5 3b cc 39 88 3d 88 45 e2 bb a9 8d 89 bd
       0.0065266467 0.06651649 -0.0069052614 -0.06716473
000230 7b 7a c9 bd 83 d2 c9 bc ed 8d 3a 39 6f b8 44 3c
       -0.098378144 -0.024636513 0.00017791214 0.012006863
000240 f5 12 bb bb 42 c1 03 bd e5 27 19 3d a2 48 28 bd
       -0.005709047 -0.032166727 0.037391562 -0.041084893
000250 6d 34 ff bc 7f 22 4d bd 7e 2a 0f 3c 40 58 2e bc
       -0.031152928 -0.050081726 0.008738158 -0.010641158
000260 5b 04 84 3d 45 27 0c 3d 11 ea 2b 3d c9 ac 99 bc
       0.06446143 0.034217138 0.04197127 -0.018759148
000270 20 2d 8f bb c9 21 ab bd 5e 1e ea bb e9 46 05 bc
       -0.004369393 -0.083560534 -0.0071447333 -0.008134582
000280 61 6e 62 3c 31 58 32 3c d6 86 65 3a 6f ee 8a 3c
       0.013820262 0.010885284 0.0008755749 0.016959397
000290 13 35 ef 3c 72 9e bb 3c 42 35 38 3d c6 4f df bc
       0.029200112 0.022902701 0.044972666 -0.027259719
0002a0 97 37 92 bd 7d e7 50 bd 4f 27 67 3d ee a7 84 3d
       -0.07139509 -0.051002014 0.056433972 0.064773425
0002b0 87 b5 ce bc 9a 5a e7 3c a9 67 a7 bd e7 9c a4 3d
       -0.025233043 0.028241444 -0.081740685 0.08037739
0002c0 a5 a1 b0 3c 68 21 f0 3c a4 94 07 bd ba ee 8c 3c
       0.021561453 0.029312804 -0.03310074 0.017203677
0002d0 5b a1 70 bd 98 4b 97 bb 10 90 f2 bc 05 94 d0 bb
       -0.05874763 -0.004617166 -0.02960971 -0.0063653016
0002e0 5d 8e 34 bc 3e 1c 96 3a c8 7e e1 3b b6 18 85 3d
       -0.01102027 0.0011452509 0.0068815686 0.06498854
0002f0 6b 3b 25 bd d1 80 68 3d 96 bc 0c bd c7 c1 cd 3a
       -0.04033987 0.056763474 -0.034359537 0.0015698009
000300 09 89 12 bc 65 73 99 3c 73 f7 5d bc 3f 36 4a bc
       -0.008943805 0.018731782 -0.013547766 -0.012342035
000310 31 57 8e 3c a4 62 ca 3c e7 14 cf 3b c6 3c 8d bc
       0.01737556 0.024705239 0.0063196304 -0.017240893
000320 20 9c 9f bd 03 9f ad 3b 04 52 6b 3c 6a 64 84 bc
       -0.0779345 0.0052984967 0.014362816 -0.016161162
000330 2a 5a bf bb 93 2e 53 ba b4 02 8d bc ea 9e 81 3c
       -0.005839606 -0.00080559513 -0.017213203 0.015822846
000340 c4 33 16 3c 53 8a 47 3d 49 e7 6b 3a 7e 19 b9 bd
       0.009167615 0.0487159 0.0008999003 -0.090380654
000350 46 9e 12 bc 8d 48 6e bd c3 e1 ba 3b 8f 03 82 3c
       -0.008948868 -0.05817466 0.0057031824 0.015870837
000360 cd e4 af bd 22 e5 b3 3b a5 f3 9a bc 74 d5 a4 bc
       -0.08588562 0.0054899612 -0.018915007 -0.020121314
000370 95 8f d1 3c e8 f9 c8 bc 52 25 1d 3a 9d 49 9e bc
       0.02558116 -0.024533227 0.0005994636 -0.01932221
000380 7f 9b 2a bd c9 fb 65 3c 47 d0 82 bd e5 c7 79 bc
       -0.0416522 0.014037081 -0.06387382 -0.0152454125
000390 c1 c2 d9 bb 2a 44 d0 3b a3 4c 59 bc 71 a0 2e bc
       -0.006645531 0.006355782 -0.0132629005 -0.010658369
0003a0 bf 7e 84 3c 72 c1 40 3d 18 a5 d5 3c 0e 6b 7a bc
       0.016173718 0.047059484 0.0260797 -0.015284313
0003b0 f7 cc 25 3d 06 56 26 3d 0c db 15 3d b9 83 96 bc
       0.040478673 0.040609382 0.036585853 -0.018373357
0003c0 93 93 00 3d 2c f4 ae 3d ff e8 dd bc 56 7e ed 3c
       0.031390738 0.08542666 -0.02708864 0.028990906
0003d0 b6 37 20 bc d6 c1 0a bd 97 a0 26 bc c8 3d 06 bd
       -0.0097789075 -0.033876263 -0.010170124 -0.032773763
0003e0 c2 57 18 bc 91 3f 81 3c f9 6c 9b 3b ee ac 5c 3c
       -0.009298267 0.015777381 0.004743215 0.013468964
0003f0 07 94 ec bc 90 ae 8f 3d 96 dd 5e 3c 4e 0b 64 3c
       -0.028879179 0.07015717 0.013602635 0.013918711

conv2.bias f4 [64]
000000 76 7d 93 b5 e7 ca 15 b6 8a 6b 8e 36 9c 15 a0 33
       -1.0988867e-06 -2.2320835e-06 4.244449e-06 7.454511e-08
000010 a8 ac 7d 35 39 ae dc b4 82 56 40 36 5d 19 71 b6
       9.450109e-07 -4.1104957e-07 2.8660584e-06 -3.5926562e-06
000020 f2 25 44 34 2d fb cc b6 8d 0c 49 35 cd 1f 8a b5
       1.8267727e-07 -6.1089145e-06 7.48966e-07 -1.0291056e-06
000030 21 f7 87 35 5a 93 73 b3 d7 75 32 b5 e4 bc bc b5
       1.0130208e-06 -5.6711862e-08 -6.6481647e-07 -1.4062066e-06
000040 d0 72 1c 36 9c 7e 45 35 81 c4 94 34 78 e3 1d b6
       2.331264e-06 7.357246e-07 2.7710124e-07 -2.3527227e-06
000050 b4 eb 4e b5 de 87 45 35 ca 21 c1 b5 5d d6 fe b5
       -7.7083973e-07 7.358593e-07 -1.4389454e-06 -1.8986863e-06
000060 ba d1 fb b2 3c 10 f8 b4 1e f6 56 34 f4 38 c1 b4
       -2.9315618e-08 -4.6205412e-07 2.001984e-07 -3.599049e-07
000070 de a3 41 b3 1e 08 ae b6 e2 5c 96 b5 db 63 63 b4
       -4.508535e-08 -5.186549e-06 -1.1202903e-06 -2.117735e-07
000080 2e 90 e2 35 91 e2 9a 34 57 0d a7 34 15 46 0c b6
       1.6880274e-06 2.8849584e-07 3.111588e-07 -2.0902419e-06
000090 b9 c1 0a b6 b1 6e cf 35 76 c0 b8 35 cf c0 49 35
       -2.0676364e-06 1.5454917e-06 1.3765082e-06 7.515891e-07
0000a0 c7 e4 ca b5 3c 2c 30 35 82 c9 22 b5 9e c4 45 36
       -1.5116756e-06 6.562948e-07 -6.0642935e-07 2.9469734e-06
0000b0 36 36 3e b4 5f 78 f4 36 72 25 b5 b4 5f 19 00 b4
       -1.7714851e-07 7.2857797e-06 -3.3741122e-07 -1.1930159e-07
0000c0 11 d9 0b b5 3f 66 29 b6 dc 55 be b4 2f 80 cf 35
       -5.209741e-07 -2.5242477e-06 -3.545273e-07 1.5460008e-06
0000d0 ac 08 33 b6 32 c8 45 b5 ef 33 7f b6 23 9a f1 35
       -2.6678126e-06 -7.367954e-07 -3.802819e-06 1.8000759e-06
0000e0 cb 4f 9a b7 48 42 39 36 af 3c 89 b6 63 c1 08 37
       -1.8395387e-05 2.760573e-06 -4.0899827e-06 8.151258e-06
0000f0 8a f3 87 b4 96 aa 32 b5 fb b6 0c b5 af 58 e0 b5
       -2.5322908e-07 -6.65584e-07 -5.2420336e-07 -1.6715111e-06

bn1.weight f4 [32]
000000 e6 6c 03 3f 14 3d 04 3f 23 52 e3 3e 6c 0d 12 3f
       0.5133804 0.516557 0.44398603 0.5705173
000010 ab 75 0b 3f f8 3c 02 3f 4f 29 0b 3f 0d e1 23 3f
       0.5447642 0.5087428 0.54359907 0.64015275
000020 35 e9 0c 3f 2a cc 0e 3f df 17 14 3f 24 e2 13 3f
       0.55043346 0.5578028 0.57848924 0.5776694
000030 79 7c 0f 3f 7b 7b 03 3f 16 ef ec 3e 06 7e 1c 3f
       0.56049305 0.5136029 0.46276158 0.61129797
000040 c9 7b 13 3f 8f 22 fa 3e 6b 3b 20 3f 90 91 18 3f
       0.57610756 0.4885449 0.62590665 0.5959711
000050 f3 c6 11 3f 77 73 09 3f bf 9e 1d 3f 34 cd 0e 3f
       0.569442 0.5369181 0.6157035 0.55781865
000060 12 12 1b 3f 52 59 0d 3f b0 c0 09 3f 1c 8a 14 3f
       0.6057445 0.55214417 0.5380964 0.5802324
000070 9c ce 03 3f ad 72 1f 3f 2a b3 0d 3f f0 17 1a 3f
       0.51487136 0.62284356 0.5535151 0.60192776

bn1.bias f4 [32]
000000 9d e0 ef bd 06 16 77 be 28 e5 32 3c 9b 3d 91 be
       -0.117127635 -0.24129495 0.010918893 -0.28367314
000010 27 ac 79 be 62 25 06 bd d2 60 37 be da 75 b7 bd
       -0.24382077 -0.032750495 -0.17908028 -0.08958025
000020 c4 fa 48 bc 7f 65 f1 3b a5 40 0f bd 31 4e 26 bd
       -0.012266818 0.0073668356 -0.03497376 -0.040601913
000030 e8 d5 38 be 09 e9 30 be aa 43 49 be 2e b3 82 bc
       -0.18050349 -0.17276396 -0.19654718 -0.01595458
000040 0f 10 d2 bd 99 c6 8f be ac a3 e8 bd 47 31 a8 bd
       -0.10256969 -0.28081205 -0.11359343 -0.08212524
000050 80 b8 34 be 98 fd 76 be 2c 36 df 3d 06 eb 4d be
       -0.17648506 -0.24120176 0.10899004 -0.20109186
000060 aa 46 98 3c f4 f4 48 bd b4 c2 06 be f3 f7 93 be
       0.018588383 -0.04906173 -0.13160211 -0.28900108
000070 17 d0 5f be 20 76 40 bd 8f 7b 3c 3d 08 07 98 bd
       -0.21856724 -0.046987653 0.046016272 -0.07423216

bn1.running_mean f4 [32]
000000 d0 bf f5 ba 07 9a d9 3d 0d 18 48 bd 31 77 b1 3b
       -0.0018749181 0.106250815 -0.04885106 0.00541582
000010 bc 9e d4 3c 2a af 7e bd 3e 59 f5 bb 0f 94 54 bd
       0.025954597 -0.06217877 -0.007487445 -0.051899012
000020 2e c0 5f bd 51 52 22 bd 57 00 dd bc e8 5b ab bd
       -0.054626636 -0.039629284 -0.026977701 -0.08367139
000030 29 39 14 3d f0 63 79 3c 0c 0a 53 3c 8c b8 79 bd
       0.036187325 0.015221581 0.012880813 -0.060967013
000040 a5 31 8e b9 93 d3 70 3d fd a1 91 bd 66 ad 0a bd
       -0.0002712134 0.058795523 -0.07110975 -0.033856772
000050 11 e5 e1 bc 2b 8f 3c 3d e8 2a b1 bd fe 96 81 3c
       -0.027575048 0.046034973 -0.08650762 0.015819069
000060 94 43 a2 bd 7b b0 32 bd c5 bc be bb d3 b2 55 3d
       -0.07923046 -0.043625336 -0.005820843 0.052172493
000070 4f b3 e0 3d d7 b7 2f bd bc 2c aa bc 75 ad 22 bd
       0.109717004 -0.042899933 -0.020773284 -0.039716203

bn1.running_var f4 [32]
000000 ef ca 98 3c cb 86 70 3c f6 6a 8a 3c 62 29 68 3c
       0.018651454 0.014680575 0.016896706 0.014170023
000010 54 18 b7 3c 5b 0f 5e 3c 19 4a 3d 3c 9d 3b 47 3c
       0.022350468 0.013553466 0.011553311 0.012160209
000020 ef 82 ae 3c a9 ed 9b 3c c4 a3 a4 3c e3 b8 0b 3c
       0.021302668 0.019034224 0.02009762 0.008527967
000030 2e 22 8d 3c a7 6d 86 3c 1f be aa 3c 03 f7 65 3c
       0.017228212 0.016409708 0.02084261 0.014035943
000040 d0 0f 99 3c 83 76 85 3c a9 62 82 3c 78 bf 15 3c
       0.018684298 0.016291862 0.015916185 0.009139888
000050 d8 a3 81 3c 4b 47 82 3c 81 d1 1d 3c 06 49 52 3c
       0.015825197 0.015903136 0.009632469 0.012834793
000060 a1 42 58 3c de 7a f9 3b 96 3e 9f 3c 17 fc 96 3c
       0.013199479 0.007613524 0.019439023 0.018430753
000070 bf 5c e2 3c 21 a0 80 3c 83 6a 15 3c 68 fc 86 3c
       0.027632115 0.015701355 0.009119633 0.016477779

bn2.weight f4 [64]
000000 3d 81 2d 3f 18 c8 3c 3f d5 2d 30 3f b4 59 4a 3f
       0.67775327 0.7374282 0.68819934 0.79043126
000010 b4 85 24 3f 79 78 31 3f 3a f8 2e 3f 76 93 3c 3f
       0.64266515 0.6932445 0.68347514 0.7366251
000020 cd 8b 41 3f 98 cc 2e 3f 4f 12 3d 3f 67 c9 35 3f
       0.75603944 0.68280935 0.7385606 0.7101044
000030 5a 65 49 3f 9d da 31 3f af 62 34 3f 49 8b 39 3f
       0.78670275 0.694742 0.7046308 0.7247816
000040 03 da 2f 3f 0b 2f 35 3f b3 a2 4c 3f cd 6f 32 3f
       0.68692034 0.70774907 0.7993576 0.69701844
000050 52 ed 3f 3f 08 07 52 3f 7f 28 20 3f 41 a9 53 3f
       0.749715 0.8204198 0.6256179 0.82680136
000060 2b 0f 2e 3f 4c 51 3e 3f 87 0a 30 3f 82 00 29 3f
       0.67991894 0.743428 0.68766063 0.660164
000070 47 01 1a 3f 4a dd 6f 3f 34 4d 3b 3f c2 ae 2b 3f
       0.601582 0.93697035 0.7316468 0.67063534
000080 6b a0 49 3f 15 04 62 3f 88 95 4a 3f ed 30 35 3f
       0.78760403 0.8828748 0.79134417 0.7077778
000090 74 d6 4f 3f e5 3c 37 3f 7b ee 36 3f e6 1d 2a 3f
       0.81186604 0.7157729 0.7145764 0.6645187
0000a0 73 27 27 3f 8e 19 30 3f 84 32 48 3f d7 70 33 3f
       0.6529457 0.68788993 0.7820208 0.70094055
0000b0 cf ad 1f 3f 86 5e 46 3f 35 11 30 3f 68 f0 37 3f
       0.62374586 0.7748798 0.68776256 0.71851206
0000c0 18 be 34 3f 5c e9 5a 3f 10 56 1e 3f 05 b4 4d 3f
       0.7060256 0.8551233 0.6185007 0.80352813
0000d0 05 48 28 3f ad 97 61 3f 86 4b 4f 3f ab 1b 1b 3f
       0.65734893 0.88122064 0.80974615 0.6058909
0000e0 60 1b 52 3f d5 bd 3b 3f e8 c7 38 3f 13 b6 32 3f
       0.8207302 0.73336536 0.7218003 0.69809073
0000f0 05 b9 31 3f e8 4d 2c 3f 4a 63 2b 3f 07 bc 3b 3f
       0.6942294 0.67306376 0.6694838 0.7333378

bn2.bias f4 [64]
000000 2f 6f 34 3c ae 29 58 be 8c a1 54 3d bb 73 84 bd
       0.011012836 -0.2110965 0.051911876 -0.06467386
000010 07 5a c1 bd 89 77 66 be c8 4e 51 bd 7e 7c 81 3c
       -0.094409995 -0.22506537 -0.051100522 0.015806433
000020 69 6a 4b bd 62 68 00 be 2a 4c 2f 3e 78 ce 13 3e
       -0.049662028 -0.12539819 0.17118898 0.1443423
000030 0c a6 72 3d 04 d0 42 bd 6b aa 30 ba e7 a4 2b bd
       0.059240386 -0.04756166 -0.00067392614 -0.04190531
000040 c2 1c 82 bd 9c b0 25 be 0f b5 f7 bd 11 4c 2d be
       -0.06353141 -0.16180652 -0.12095081 -0.16923548
000050 80 0b ee 3d 58 a7 17 be 8e 36 ec bd 94 ce bc 3d
       0.11623287 -0.1480993 -0.11533843 0.09219089
000060 74 05 4a bd 6f 97 93 3d 8b 09 63 3e e9 11 18 bd
       -0.049321607 0.07206618 0.22171609 -0.037126455
000070 2d 35 d5 bc ec 79 1a 3e a4 84 11 be 18 59 c4 bd
       -0.026026333 0.15085572 -0.14210755 -0.09587306
000080 e9 1a e5 bd a0 6f ad 3d d5 2b e6 3c eb c2 2e be
       -0.11186773 0.084685564 0.028097073 -0.17066543
000090 6a 03 8a 3d 11 92 2c bd 5f 0d b9 bd 0a d8 5f be
       0.067389324 -0.042131487 -0.090357535 -0.21859756
0000a0 15 c6 c8 3c b3 8c 4b be f8 7e f4 bd ca ad dc bd
       0.024508515 -0.19877891 -0.1193828 -0.10775335
0000b0 28 dd e0 bd b9 63 da bd ff e4 36 be 6a 9c 97 be
       -0.10979682 -0.10663552 -0.17860793 -0.29611522
0000c0 62 3c 33 be 41 01 85 bd 2a 24 81 bd f5 67 10 3e
       -0.17503503 -0.0649438 -0.06305726 0.14102156
0000d0 47 4e a5 bd e4 c6 2d be b4 f9 f5 bd 05 01 19 bd
       -0.08071571 -0.16970402 -0.12010518 -0.037354488
0000e0 57 61 f9 bd 05 04 19 be f0 d6 1d be ce c4 98 bd
       -0.12176769 -0.1494294 -0.15414023 -0.074594125
0000f0 0d eb 23 be 7a 0d 85 bd 8e f4 0f bd 48 f2 12 be
       -0.16007634 -0.06496711 -0.035145335 -0.14350235

bn2.running_mean f4 [64]
000000 19 ed ee bd 97 3d f0 bd 12 a0 53 bd 25 ff 15 be
       -0.116663165 -0.11730497 -0.051666327 -0.14648111
000010 d7 f2 1b bd 62 00 c7 bd c8 63 01 be 61 94 bc bd
       -0.038073387 -0.0971687 -0.1263572 -0.092079885
000020 b0 fb a7 3d 98 ae b0 bd 62 ba 12 be 53 3e 54 bd
       0.082023025 -0.08627051 -0.14328912 -0.05181725
000030 67 21 24 bc 35 aa b8 bd 59 6a 1d be 7a ca c1 bd
       -0.010017729 -0.090168394 -0.153726 -0.094624475
000040 71 66 1c be 6b 19 9b bd 95 43 00 bd bf c5 be 3c
       -0.15273453 -0.075732075 -0.03131445 0.023287652
000050 92 17 5e 3d 99 8c 8d bd 1e af cb bd 5d 4b 7c 3c
       0.054221697 -0.069115825 -0.0994551 0.015398827
000060 cf b4 91 bc 3d 07 11 be 74 69 99 bd c8 12 ce 3d
       -0.017786412 -0.14162917 -0.07490817 0.10062176
000070 ba ab aa bd fc 26 1b be d6 17 de 3d 07 65 d5 3d
       -0.083335355 -0.1515159 0.1084439 0.1041966
000080 9c ba 2e bd 59 20 02 be 6e d6 ed bd 7e 21 1a be
       -0.042658433 -0.12707652 -0.11613165 -0.15051839
000090 e1 8b bb bd 3c c2 c0 bd 6a 59 06 bd ce 20 c0 3d
       -0.09157539 -0.09412047 -0.032800116 0.09381257
0000a0 1b 0f ca bb 39 c8 ba bc 9f c1 29 bc ea aa b4 bd
       -0.0061663515 -0.022800552 -0.010361104 -0.08821662
0000b0 85 ed 9d bd 5d 6c 77 bd f5 44 28 3c 7a 90 3f bd
       -0.07711319 -0.060406078 0.010270347 -0.046768643
0000c0 91 32 cd 3d cc fc 51 be 4f e8 6c 3c 9d 19 77 bd
       0.100194104 -0.2050659 0.014459684 -0.06032716
0000d0 80 69 ab 3d d1 fc 69 bc 12 7a e1 bb f5 89 18 be
       0.08369732 -0.014281468 -0.006881007 -0.14896376
0000e0 38 4b c1 3d 64 18 90 bd 1e d6 07 bd 03 34 f1 bd
       0.09438175 -0.07035902 -0.033163182 -0.117774986
0000f0 f9 ca b2 bd 33 9e f1 bd 61 f2 99 bd fc 4e 1f be
       -0.0873012 -0.11797752 -0.07516933 -0.15557474

bn2.running_var f4 [64]
000000 82 7b a1 3c cb 30 59 3c 48 d0 d9 3c 5c 44 8c 3c
       0.019712213 0.013256262 0.026588574 0.01712244
000010 04 ab 9a 3c b3 60 4e 3c f7 76 d0 3c 7d b2 87 3c
       0.018880375 0.012596297 0.025447352 0.016564602
000020 2e 8e 9d 3c fd e7 a9 3c 49 57 c7 3c 4c 55 ba 3c
       0.019232836 0.020740503 0.024333613 0.02274575
000030 94 a6 a5 3c fb be b7 3c 8f 8d 93 3c fe 8d 8b 3c
       0.020221032 0.022429934 0.018011836 0.01703548
000040 90 d2 83 3c 69 79 69 3c c3 9b a8 3c 4a 59 96 3c
       0.016091615 0.014250138 0.020582085 0.018353123
000050 21 ee a8 3c 33 12 93 3c d7 db 9c 3c 51 cb f5 3c
       0.020621361 0.017953014 0.019147797 0.030004175
000060 23 2a f8 3c 9b 42 c0 3c 55 8c c9 3c 81 02 8d 3c
       0.03029353 0.02346926 0.024603048 0.017213108
000070 2e 78 9f 3c f4 cc b3 3c 8e 11 06 3d 84 7a 95 3c
       0.019466486 0.021948315 0.032731585 0.018246897
000080 f3 c2 87 3c 48 5e e4 3c 66 ae a5 3c 75 ab 94 3c
       0.016572451 0.027876988 0.020224761 0.018148163
000090 a0 eb a6 3c a8 9c 53 3c b9 61 79 3c 3e b7 8c 3c
       0.020376027 0.012915768 0.015221053 0.01717722
0000a0 06 aa b8 3c a9 42 8e 3c 24 4e ce 3c 4a 8e 8a 3c
       0.022542011 0.01736577 0.025183745 0.016913552
0000b0 de be 89 3c af 18 ae 3c 67 8e 3c 3c 6f 06 74 3c
       0.016814645 0.021252004 0.011508561 0.014894112
0000c0 e6 f8 49 3c ee 4d 8d 3c 8f dc 9f 3c 4e 8a c0 3c
       0.012327408 0.017249074 0.01951435 0.023503449
0000d0 e6 c6 47 3c b3 3c d8 3c d9 e7 ca 3c ae f9 b2 3c
       0.012193417 0.026396131 0.024768757 0.021847572
0000e0 89 4e a7 3c 7a 78 ae 3c ab 93 85 3c 01 eb 9e 3c
       0.02042319 0.021297682 0.016305765 0.019399168
0000f0 a6 46 7f 3c fb 1e 8d 3c 45 25 6f 3c c8 1e 69 3c
       0.015580809 0.017226687 0.014596288 0.01422853

output_conv.weight f4 [9, 64, 1, 1]
000000 6c e0 59 3e f6 f3 4a 3d e6 b2 49 3e 25 af ad 3d
       0.21277016 0.049549066 0.1969715 0.08480672
000010 fb b4 bb be a0 fb 24 bd f4 eb aa be f1 ba f4 3d
       -0.36661515 -0.04027903 -0.33383143 0.11949719
000020 50 f1 81 bd e9 a8 6d 3e 40 b5 34 3e 80 c3 26 3e
       -0.06344855 0.23208965 0.17647266 0.16285515
000030 6f e2 f5 3d 04 e9 f3 3d bc fd ff 3d 30 95 0a 3e
       0.120060794 0.119096786 0.12499568 0.13533473
000040 1c 8e 08 3e 20 c3 f5 3d 69 2e 8c 3d ed e0 dd be
       0.1333546 0.12000108 0.068447895 -0.43335667
000050 18 4b 0f 3e 3b 41 c4 3d 67 3f 3e 3e df 69 12 bd
       0.1399349 0.09582754 0.18578874 -0.035745498
000060 02 96 7b be c5 86 09 3e 64 ae 18 3e 37 4a d1 3d
       -0.24568942 0.13430317 0.14910275 0.102192335
000070 ce 14 56 3e 59 51 1a 3e 9a 1f 00 bf 1c c5 57 be
       0.20906374 0.15070094 -0.5004822 -0.21071285
000080 76 a1 d5 3d 04 71 b9 3d 3f e0 61 3e b8 00 05 3e
       0.10431187 0.09054759 0.220582 0.12988555
000090 41 c1 d7 3d 33 a0 00 3e 12 8f 31 3e fa 84 1f bd
       0.10534907 0.12561111 0.17339733 -0.038945176
0000a0 87 af 02 3e d1 9d b4 be 91 be db 3d b3 ad 54 bc
       0.12762271 -0.35276654 0.10729707 -0.012980866
0000b0 fc 49 33 3e a8 93 ff 3d d2 d8 63 bc 42 53 a7 bc
       0.17508692 0.12479335 -0.013906674 -0.020425443
0000c0 fe 00 88 bd 83 0c a3 3d a1 d5 db 3d 39 d7 34 3d
       -0.06640814 0.07961371 0.10734106 0.044150565
0000d0 56 4e 4a 3d 77 8d 60 3d cd 79 15 3e 7e d8 61 3e
       0.049391113 0.05482241 0.14597245 0.22055241
0000e0 b7 17 cb bd 52 27 ef 3d 62 d4 d5 3d f6 4e 2b 3d
       -0.099166326 0.11677422 0.104408994 0.04182335
0000f0 98 e4 d1 3d f2 c9 30 3e ab da 04 3e 69 46 eb 3d
       0.10248679 0.17264536 0.1297404 0.11488039
000100 60 21 56 3e 2b 7c 9b 3e 40 a3 47 3d af be 85 3d
       0.20911169 0.3036817 0.04873967 0.06530511
000110 ba 24 50 be 8c a0 81 3c 8d 42 87 bd 8e 11 bc bd
       -0.2032651 0.015823625 -0.066044904 -0.09183036
000120 a9 e5 06 bd 97 f1 e8 3d 25 10 d3 3d 0c b6 96 bd
       -0.032933865 0.113742046 0.10305814 -0.073589414
000130 ee 72 0a 3e 4e 2f a0 be 17 e1 05 3e 6d f0 c5 3d
       0.13520405 -0.3128609 0.13074146 0.09664998
000140 7c 80 d2 3d 6d 3c 89 be 17 75 20 3e 57 0f a5 3d
       0.10278413 -0.26803914 0.15669666 0.080595665
000150 e7 c3 4b bc 7e 19 95 3d 38 64 b9 bd 49 8d b0 3d
       -0.0124368435 0.07280253 -0.09052318 0.08620698
000160 30 4e b4 bd 95 52 e7 3d 5f e0 8a 3d d1 06 0d bd
       -0.088039756 0.11295048 0.06781077 -0.03443033
000170 01 e7 23 bd 2c 2b 37 3e ca 44 4e bd 79 28 8c be
       -0.040015224 0.17887563 -0.05035857 -0.27374628
000180 e7 7d be 3d 06 89 92 3d 9b 10 b2 3d b4 fe 7c be
       0.09301358 0.071550414 0.086945735 -0.24706537
000190 1b 21 01 3e df 77 a4 bd fa 89 05 bc eb 85 08 3e
       0.12610285 -0.08030676 -0.008150572 0.13332336
0001a0 08 7d 98 bc 13 24 00 be 1a a1 05 bf 74 9f 1a bd
       -0.018614307 -0.12513761 -0.52198946 -0.037749723
0001b0 47 3f 44 be 85 7b da be aa 70 4d 3e a3 8c 5f 3e
       -0.19164763 -0.42672363 0.20062509 0.21830992
0001c0 43 68 9c 3c 2b 9a cc bc dd 96 a5 bd f8 b9 f6 3d
       0.019092685 -0.024975857 -0.080854155 0.120471895
0001d0 d2 e4 02 be ab ba 21 bf fc ea cb be bf 34 47 3d
       -0.127826 -0.6317546 -0.39827716 0.048634287
0001e0 9b 5b d0 bd ce dc 8e be 79 a0 94 bd c7 63 2f ba
       -0.10173722 -0.27902836 -0.0725717 -0.0006690588
0001f0 a3 87 f9 bc 0a a4 0e 3d c2 24 95 bb f8 0e 82 3d
       -0.030460184 0.03482441 -0.004551501 0.06350511
000200 e8 5a e4 bc 14 fe b6 bd be 4f df bd 49 0a 1a 3e
       -0.027875379 -0.0893518 -0.109038815 0.15042986
000210 b4 81 00 bd e6 12 05 be a2 6b 45 be cd a4 4b 3e
       -0.031373695 -0.1299549 -0.1927934 0.19887085
000220 79 f4 a5 3d a0 ec 38 3d 9a a6 1b 3e ec b1 e5 3d
       0.0810327 0.04514754 0.15200272 0.112155765
000230 36 1a a2 bd 2e 16 83 3d 8b 3c 43 3e 3b 18 29 be
       -0.079151556 0.06400715 0.19066064 -0.1651315
000240 4f 5f cf 3d d5 34 1e bd bc 11 e3 3d 44 10 73 3e
       0.101256005 -0.038624603 0.11087367 0.23736674
000250 db fe c2 3c 4c 5a 06 3e a5 1d a5 be 24 d6 75 3d
       0.023803165 0.13120383 -0.3224918 0.060018674
000260 a5 6d 97 be 9c 43 46 3d 94 bc 1b 3d 22 26 08 be
       -0.2957584 0.04840432 0.03802164 -0.13295797
000270 d0 0a 52 be 49 35 1c 3e 98 de 7d bc 94 62 46 bd
       -0.20511937 0.15254702 -0.015494965 -0.048433855
000280 37 45 25 3e a1 ca e2 3d b9 fa 1e 3e dc f4 8f 3d
       0.16139685 0.11073805 0.1552533 0.07029125
000290 01 5d 15 3d 1d 9a 11 3e 97 38 8a be 5f 72 59 bd
       0.03646565 0.14218946 -0.269963 -0.05308759
0002a0 54 20 35 be c7 fa ae bd 2f 79 45 be 7a 84 bb 3d
       -0.17688113 -0.08543926 -0.19284509 0.09156127
0002b0 71 3d 57 be 51 49 ea bd 7b ac 94 bd 3c f4 a6 3d
       -0.21019532 -0.11439765 -0.072594605 0.08152053
0002c0 64 87 0c 3e 5d 84 28 bd 80 e5 24 3e fb 23 04 3e
       0.13723522 -0.041141856 0.16103172 0.1290435
0002d0 b2 96 ae bc cd 7a 89 be c4 f6 c4 be 29 fe ff bd
       -0.021312091 -0.26851502 -0.38469517 -0.12499649
0002e0 5f 04 83 be 7b b7 0b 3e 0e 10 36 be b1 24 e4 be
       -0.25589272 0.13644211 -0.17779562 -0.44559243
0002f0 29 2e 4b 3e c2 bd 53 3d dd 73 25 3e 5d 0e 25 3e
       0.19841827 0.05169464 0.1615748 0.1611876
000300 04 51 2b be 51 80 b4 be ac 49 90 bc a8 ad fe 3c
       -0.16730124 -0.35254148 -0.017613254 0.031088665
000310 a2 24 2f 3c e4 82 d8 be 2f cb 3b 3d 90 21 33 3e
       0.010689886 -0.42287362 0.045848068 0.17493272
000320 82 d7 e2 3d a9 37 ce 3d c9 73 e6 3d 36 bf 97 3d
       0.11076261 0.1006921 0.11252553 0.074095175
000330 f4 c9 60 be f6 30 9b 3d ca ca 11 be 15 53 33 3e
       -0.21952039 0.07577698 -0.14237514 0.17512162
000340 2d df ae be 6f 67 09 bd 37 45 85 3d 91 4c 44 bd
       -0.34154645 -0.033545908 0.06507342 -0.047924582
000350 97 fc 00 bd 04 65 62 be 6b 69 30 be 83 26 07 3d
       -0.03149089 -0.22108847 -0.17227714 0.032995712
000360 c8 de 56 bd 8f 40 9d be e8 8d 65 bb 9b d0 a3 3d
       -0.052458555 -0.30713317 -0.003502721 0.07998773
000370 7e 01 95 3d 6e ab bd 3d b3 81 a6 3d e6 61 59 be
       0.07275675 0.09261213 0.08130207 -0.21228752
000380 4b 2e 25 3e 0c ec d6 3d b3 5f d0 bd 0a 69 18 3e
       0.1613094 0.10494241 -0.10174503 0.14883819
000390 e8 dc 99 be a3 bd 49 3e 6b 8c 6f be 29 6e d7 3d
       -0.3005135 0.19701247 -0.23393409 0.10519058
0003a0 2b e1 40 bc a4 3f 9a 3c 32 8f fe 3d 6c dc f6 3d
       -0.011772434 0.018829174 0.12429656 0.12053761
0003b0 85 bb e2 3d e1 b8 27 ba 51 45 11 3e f9 33 1d bd
       0.11070923 -0.00063980935 0.14186598 -0.038379643
0003c0 70 f1 38 3e 32 18 1f 3e 97 fa 0e 3e 05 ea d8 bc
       0.18060851 0.15536574 0.1396278 -0.026478777
0003d0 61 c2 b3 3c 77 d9 b8 3d a0 34 c2 3d 83 32 75 be
       0.021943273 0.09025853 0.09482694 -0.2394505
0003e0 7c 0b 0c 3e 88 9a 84 be 51 4f 4e be db 47 c3 bc
       0.13676256 -0.25899148 -0.20147444 -0.023837974
0003f0 a6 56 06 3e 91 77 93 be 2f 19 83 3d b8 d6 0c bf
       0.13118991 -0.2880216 0.06401288 -0.55015135

output_conv.bias f4 [9]
000000 fb 3e 3f 3e f5 df a6 bd 42 e5 3e be dc 09 39 be
       0.18676369 -0.08148185 -0.18642142 -0.18070167
000010 20 de 79 be d6 77 0d be 1a 46 81 3c fa 41 0a bd
       -0.2440114 -0.13815245 0.015780497 -0.033754326
000020 ce 8c ab bd
       -0.08376466
