training/trained_models/model_standard_positron.pth (torch, 84070 bytes, 14 tensors)

conv1.weight f4 [32, 1, 3, 3]
0	0x3e3e4e51	0.18584563
1	0x3e829260	0.255023
2	0xbc08f3bb	-0.008358891
3	0xbd0f7eaa	-0.035032906
4	0x3e97dd2b	0.29660925
5	0x3e401206	0.18756875
6	0xbe8a6f0b	-0.27037844
7	0x3cc1c5a9	0.023653822
8	0x3e868f2c	0.26281106
9	0xbe9224e2	-0.28543764
10	0x3ea42039	0.32055834
11	0xbd4cf9b0	-0.050042808
12	0x3d69f146	0.057114862
13	0x3c3476f3	0.011014688
14	0xbda03480	-0.078225136
15	0x3e8ecfbc	0.27892864
16	0xbdce8fab	-0.10085996
17	0x3e88c499	0.26712492
18	0xbe1759b6	-0.14780316
19	0xbd2edbea	-0.042690195
20	0x3d34b2db	0.044115882
21	0x3dbc8053	0.092041634
22	0x3e8f7b88	0.28023934
23	0x3e0be314	0.13660842
24	0xbe9d8352	-0.30764252
25	0xbe44b61a	-0.19210091
26	0x3ea97a7a	0.33101255
27	0x3e3a62d1	0.18201758
28	0x3e9a93f8	0.30191016
29	0x3e07f8a9	0.1327845
30	0xbea36b3e	-0.31917757
31	0x3e057f45	0.1303683
32	0xbb5f8f56	-0.0034112534
33	0xbe58cbc6	-0.21171483
34	0x3d9140ab	0.070924126
35	0xbe3573f3	-0.17720012
36	0xbc0b7dfd	-0.008513925
37	0x3e13c697	0.14431225
38	0xbe5affee	-0.21386692
39	0x3c369c33	0.011145639
40	0x3e280e3b	0.16411678
41	0x3dc0d53a	0.0941567
42	0x3e486138	0.19568336
43	0x3dae8a39	0.08522458
44	0xbdc8cbcb	-0.098044954
45	0x3c87cd08	0.016577259
46	0x3beefd65	0.0072933906
47	0xbc617329	-0.0137603665
48	0xbb0ca5b4	-0.0021461071
49	0xbcf04709	-0.029330747
50	0xbe7bf54a	-0.24605289
51	0x3e46930b	0.1939203
52	0xbe97aefe	-0.29625696
53	0x3c45192f	0.01202993
54	0x3e86bac2	0.2631436
55	0xbd1529dc	-0.036416873
56	0xbe9b6725	-0.3035213
57	0xbe4a7e4f	-0.19774745
58	0x3e97c6dd	0.29643908
59	0x3e67b174	0.22626287
60	0x3d9dff81	0.07714749
61	0x3e56909e	0.20953605
62	0xbe4a27e5	-0.19741781
63	0xbd99d1d8	-0.07510728
64	0x3e304378	0.17213237
65	0x3ddb135e	0.106970534
66	0x3dc038b8	0.09385818
67	0x3e525fac	0.20544308
68	0x3bea6f0e	0.007154352
69	0xbe7adde4	-0.24498707
70	0xbe84f3c7	-0.25967237
71	0xbd4f7dae	-0.050656967
72	0x3e04bb1d	0.12962003
73	0xbd8784b5	-0.06617109
74	0x3e945836	0.2897355
75	0x3ea1d646	0.3160879
76	0xbe894e86	-0.2681772
77	0xbe0f5cc4	-0.14000231
78	0x3c8812e4	0.01661057
79	0x3e3eb581	0.18623926
80	0x3e8195b6	0.25309533
81	0xbea0bc50	-0.3139367
82	0x3e047de1	0.12938644
83	0x3e85bb50	0.2611947
84	0xbdbb87e4	-0.091567785
85	0xbd497775	-0.04918619
86	0xbdd8f872	-0.10594262
87	0xb93fb967	-0.00018284247
88	0xbe270d62	-0.16313699
89	0x3c5f913a	0.013645465
90	0x3cd88ae2	0.026433412
91	0x3e2a7b6b	0.16648643
92	0x3ea3fcc8	0.32028794
93	0x3e6e791f	0.23288392
94	0x3d394301	0.045229916
95	0x3e50ba5b	0.20383589
96	0x3e959fd7	0.2922351
97	0xbdff96c9	-0.12479932
98	0x3e91bf7f	0.28466412
99	0xbe9ee96c	-0.31037462
100	0x3e2ba204	0.16761023
101	0x3da87335	0.08225099
102	0x3e39f24f	0.1815884
103	0x3e87dd6c	0.2653612
104	0x3e01531b	0.12629358
105	0x3e9be290	0.3044629
106	0x3e1d317d	0.1535091
107	0x3e5994ab	0.21248119
108	0x3d9a0a40	0.07521486
109	0x3e291e24	0.16515404
110	0x3ea10f1c	0.3145684
111	0x3e2dcbaf	0.1697223
112	0xbd663bae	-0.05620926
113	0x3e09bc71	0.13450791
114	0xbd8507e2	-0.06495644
115	0x3e0af91f	0.13571595
116	0x3e7ce51a	0.2469677
117	0x3e776e0a	0.2416307
118	0x3dac554a	0.08414705
119	0xbe4d1232	-0.20026472
120	0x3e50ebfd	0.20402522
121	0xbdd0f330	-0.10202634
122	0x3d5a8962	0.053353675
123	0x3e2bdd50	0.16783643
124	0xbdccf4d5	-0.100076355
125	0x3ea092e8	0.3136208
126	0xbe540f9e	-0.20709082
127	0x3e854bc1	0.26034358
128	0x3dfc62f8	0.12323564
129	0xbe7714f4	-0.24129087
130	0xbe83a56d	-0.25712147
131	0x3dfad74c	0.12248096
132	0xbe205631	-0.1565788
133	0x3e036bf9	0.12834157
134	0xbe5f0abd	-0.2178144
135	0x3e85c55b	0.26127133
136	0xbe888165	-0.2666122
137	0xbb36fc70	-0.002792146
138	0xbdd9e8dc	-0.106401175
139	0xbdb7ec3b	-0.08980604
140	0x3ea60cab	0.3243154
141	0xbe972f7e	-0.2952842
142	0xbe146001	-0.14489748
143	0xbe0e8e51	-0.13921477
144	0x3dffd282	0.12491323
145	0xbe854b26	-0.26033896
146	0xbe082906	-0.13296899
147	0x3e67450e	0.22584936
148	0xbe5f1346	-0.21784696
149	0xbd8a78f6	-0.06761353
150	0xbe270267	-0.1630951
151	0xbe0bbfbb	-0.13647358
152	0x3d30a155	0.04312261
153	0xbe8c78ad	-0.27435818
154	0x3e9c78a9	0.30560806
155	0xbd18bd27	-0.037289765
156	0x3de0004c	0.109375566
157	0x3c93da95	0.018048564
158	0xbd8d8877	-0.06910794
159	0xbea0b857	-0.3139064
160	0x3cffeb27	0.031240059
161	0x3e46dbd3	0.19419794
162	0x3e774081	0.241457
163	0x3e05fef8	0.13085544
164	0xbe9f76c5	-0.311453
165	0x3e72f5de	0.23726603
166	0x3e7fa905	0.2496682
167	0x3e975a09	0.2956088
168	0xbe1ada98	-0.1512245
169	0xbc068aaf	-0.008211776
170	0xbb959f09	-0.0045660776
171	0x3e4253da	0.189773
172	0xbcb5f6b4	-0.022212364
173	0x3c85de6c	0.01634141
174	0xbcba477b	-0.022739163
175	0x3ddd6796	0.10810773
176	0xbd15c482	-0.036564358
177	0x3ea7c572	0.32767826
178	0x3ea3a5f4	0.3196255
179	0x3d996649	0.074902125
180	0xbe860897	-0.2617843
181	0x3e739d3a	0.23790446
182	0xbea0bef2	-0.3139568
183	0x3e6f3202	0.2335892
184	0x3dd9ab2c	0.106283516
185	0xbe1a8c47	-0.15092574
186	0x3c8e464e	0.017367508
187	0xbe84ccef	-0.25937602
188	0xbd30ab62	-0.043132193
189	0xbd9f1f2c	-0.077696174
190	0x3ce66a4d	0.02812686
191	0x3e207224	0.15668541
192	0xbe0f6919	-0.14004935
193	0x3da33f9f	0.07971119
194	0x3be05e87	0.006847206
195	0x3e659ab0	0.2242229
196	0xbe0b96d5	-0.13631757
197	0xbc4cbdd0	-0.012496427
198	0x3e8bc72a	0.27300388
199	0x3e4fd920	0.2029767
200	0xbe49908e	-0.1968405
201	0xbbbc431a	-0.005745304
202	0xbe562e40	-0.2091608
203	0x3da47cc3	0.08031609
204	0xbc5c01c4	-0.013428155
205	0xbea33d7e	-0.31882852
206	0x3e946c12	0.289887
207	0xbe91982f	-0.2843642
208	0x3dc75881	0.09733678
209	0x3e274f7d	0.16338916
210	0xbe885098	-0.26623988
211	0x3e28a51c	0.16469234
212	0x3d936f21	0.071989305
213	0x3e647647	0.22310744
214	0xbe412d9d	-0.18865056
215	0xbe322c21	-0.17399646
216	0x3d5ecd67	0.054395106
217	0xbe89f838	-0.26947188
218	0xbe911dec	-0.2834314
219	0xbe26590d	-0.16244908
220	0x3e9da06d	0.30786458
221	0xbe376236	-0.17908558
222	0xbcd1fa53	-0.02563206
223	0xbd920de4	-0.07131556
224	0x3d056dfa	0.032575585
225	0x3e082358	0.13294733
226	0x3dd551a3	0.104159616
227	0x3e5a5e99	0.21325149
228	0xbe46d9e8	-0.19419062
229	0xbd90e6a1	-0.07075239
230	0x3c35f5b6	0.011105945
231	0xbe77866d	-0.24172373
232	0xbe1f346e	-0.15547344
233	0xbe1d902c	-0.15387028
234	0xbc1b56ac	-0.009481113
235	0xbd903688	-0.07041651
236	0xbe0fb301	-0.14033128
237	0xbd31c999	-0.04340515
238	0xbe039cb5	-0.12852748
239	0x3e8b3de1	0.27195647
240	0xbe37b608	-0.17940533
241	0xbe1c7a00	-0.15280914
242	0xbe6bd91d	-0.23032041
243	0x3ea033ea	0.31289607
244	0xbdaada2d	-0.08342395
245	0xbe087626	-0.1332632
246	0x3d916986	0.07100205
247	0x3d888eba	0.06667848
248	0x3e48c807	0.19607554
249	0x3e367c72	0.1782091
250	0xbbb1b3f2	-0.0054230625
251	0x3d0d3380	0.034472942
252	0x3e9d3743	0.30706224
253	0xbce3f9af	-0.02782902
254	0x3e5b3a80	0.21409035
255	0x3ea01e57	0.31273147

conv1.bias f4 [32]
0	0x3ea0c571	0.31400636
1	0xbe2f70b8	-0.17132843
2	0x3e6a5190	0.22882676
3	0xbe54eeeb	-0.20794265
4	0xbe518744	-0.20461756
5	0xbc4959c8	-0.012289472
6	0x3e4a2095	0.19738992
7	0x3dbba32b	0.09161981
8	0x3e10a3c3	0.1412497
9	0x3dc00ffc	0.09378049
10	0xbd999365	-0.074988164
11	0x3d8cd126	0.068758294
12	0x3e387561	0.18013526
13	0xbe0ff841	-0.14059545
14	0x38a98308	8.0829544e-05
15	0x3e5a01a8	0.21289694
16	0x3bd6a1cf	0.006550051
17	0x3e9bff53	0.30468234
18	0x3c82692b	0.015919289
19	0xbe065522	-0.13118413
20	0x3e0f2103	0.13977437
21	0xbc7a23ad	-0.015267295
22	0xbe5dfa79	-0.21677579
23	0xbe5ba696	-0.21450266
24	0xbda335bb	-0.07969233
25	0x3d1eb577	0.038747277
26	0x3e9a938d	0.30190697
27	0xbda8b891	-0.08238328
28	0xbe2ce1f3	-0.16883068
29	0xbe317144	-0.17328364
30	0xbb9a264b	-0.004704272
31	0xbe5d0025	-0.21582086

conv2.weight f4 [64, 32, 3, 3]
0	0xbba533cc	-0.005041575
1	0xbd405f77	-0.046966042
2	0xbb3ba98a	-0.0028634989
3	0x3d47032e	0.048587017
4	0x3b5bc3be	0.003353342
5	0xbd5c4cf5	-0.05378433
6	0xbcfa2f50	-0.030540138
7	0x3c9194c5	0.017771134
8	0xbca7d8e5	-0.020489166
9	0xbd3eeaee	-0.046610765
10	0xbbda8102	-0.006668211
11	0xbc5f9dfa	-0.013648504
12	0x3d13c96d	0.036080766
13	0x3d15f6c7	0.0366123
14	0xbab2e252	-0.0013647771
15	0xbd466484	-0.048435703
16	0x3d4bd5a5	0.049764294
17	0x3c843f7e	0.016143557
18	0xbd3c2842	-0.04593683
19	0x3c2b6f13	0.010463494
20	0x3d2b7efc	0.04186915
21	0xbbd3f20c	-0.006468063
22	0x3a4bcd06	0.00077743863
23	0x3c142284	0.009041432
24	0x3ba4efae	0.005033455
25	0x3a3725f8	0.0006986554
26	0x3d26c724	0.04071726
27	0x3cb2f5df	0.021845756
28	0x3d75175a	0.059836723
29	0xbd17c33b	-0.03705142
30	0xbd6119e5	-0.054956336
31	0xbcf406b2	-0.029788349
32	0x3d806821	0.06269861
33	0xbcb17f3d	-0.021667117
34	0xbcdee9e5	-0.027211139
35	0x3d3b6972	0.045754857
36	0xbd29acaa	-0.04142443
37	0xbc8c5f04	-0.01713515
38	0xbd4ad1b6	-0.049516402
39	0x3d2d8455	0.04236253
40	0x3b76fb57	0.0037686431
41	0x3b8213cc	0.003969645
42	0x3d03a0f0	0.032135904
43	0x3d2ec44b	0.04266767
44	0xbcc3991f	-0.023876725
45	0xbd004ae7	-0.031321432
46	0xbd246242	-0.04013277
47	0xbd50934a	-0.050921716
48	0x3cf8f527	0.030390335
49	0x3c5e44e7	0.013566232
50	0xbd8a1ba9	-0.06743557
51	0x3cd077bc	0.025447719
52	0xbd102eca	-0.03520087
53	0xbb89698d	-0.004193491
54	0x3b7e5158	0.003880581
55	0x3c8d0ca6	0.017217945
56	0x3c8cc3ca	0.017183203
57	0xbd5a6005	-0.053314228
58	0x3d0e9ea9	0.03481928
59	0x3d2c9129	0.042130623
60	0x3cbd7be1	0.02313036
61	0xbd3ebf77	-0.046569314
62	0xbbd2ccaa	-0.0064330893
63	0x3c1cc192	0.009567635
64	0xbcae63c4	-0.021287806
65	0x3d86ec8f	0.06588089
66	0x3c6e9394	0.014561553
67	0xbd40bcdb	-0.047055107
68	0xbd09437b	-0.03351162
69	0xbcc7e84d	-0.024402762
70	0x3cc3a2e4	0.023881383
71	0xbd6e1607	-0.058126476
72	0xbd15603f	-0.03646874
73	0x3bc0529c	0.005869223
74	0x3cd6c60d	0.026217485
75	0xbd2ea1cb	-0.042634767
76	0x3ce1ae32	0.027548883
77	0xbd04d111	-0.032425944
78	0x3d5af54f	0.0534566
79	0x3c8f2f47	0.017478598
80	0xbcac9308	-0.021066204
81	0xbcd21b1e	-0.025647696
82	0x3c185526	0.009297645
83	0x3cd50b4d	0.026006365
84	0xbb1b7a4b	-0.0023724015
85	0x3c6a9229	0.014317074
86	0xbd3c741c	-0.046009168
87	0xbc37d361	-0.01121983
88	0xbd37eca0	-0.044903398
89	0xbc977177	-0.018486721
90	0xbd34344a	-0.04399518
91	0x3d0762df	0.033053275
92	0xbcb6bcbb	-0.02230679
93	0x3c6c9129	0.014438906
94	0xbb30b34b	-0.0026962336
95	0xbcf610eb	-0.030037364
96	0xbcbd2ea8	-0.023093536
97	0x3c7264e8	0.014794566
98	0x3d0cf2c8	0.03441122
99	0xbd4ae8ab	-0.049538296
100	0xbd59c8b4	-0.05316992
101	0xbc504710	-0.012712255
102	0xbc8e77f4	-0.017391182
103	0xbd1818d7	-0.037133064
104	0xbb2c9a8d	-0.0026337237
105	0x3d3f4490	0.046696246
106	0x3d3c2e05	0.045942325
107	0xbcca40e6	-0.02468915
108	0x3cd57e8c	0.026061319
109	0x3c93b938	0.018032655
110	0x37dda30a	2.6421174e-05
111	0x3c68984f	0.014196469
112	0xbd24efba	-0.040267684
113	0x3d273037	0.040817466
114	0xbba1f40a	-0.004942422
115	0x3cb9aa4c	0.022664212
116	0xbd4e92f9	-0.050433133
117	0xbd2905fb	-0.04126547
118	0xbcdef118	-0.027214572
119	0xbd27ad29	-0.040936623
120	0xbd665615	-0.056234438
121	0xbd50b851	-0.050957028
122	0x3cede3bd	0.029039258
123	0x3d823411	0.06357587
124	0xbc588eec	-0.013217669
125	0xbb9a613d	-0.0047112987
126	0xbc382bea	-0.011240939
127	0xbd0e38a4	-0.034721985
128	0x3cda8f48	0.02667965
129	0xba0d90c8	-0.0005400297
130	0x3d10e160	0.035371184
131	0x3cbc67d1	0.022998722
132	0xbd6f1cfb	-0.058377247
133	0x3d216ba3	0.03940929
134	0x3cacc8bd	0.021091813
135	0x3caf4a4c	0.021397732
136	0x3cea2856	0.028583687
137	0x3d1bfb55	0.038081486
138	0xbd5db66c	-0.05412905
139	0xbcae07fe	-0.021244045
140	0x3d483735	0.048880775
141	0xbd3eee27	-0.04661384
142	0x3d3ef893	0.046623778
143	0x3c722acb	0.01478071
144	0xbd12674f	-0.035743054
145	0xbb4b7464	-0.0031044716
146	0x3cbfb345	0.023400912
147	0xbc871453	-0.016489184
148	0xbd462f6e	-0.048385076
149	0x3c7b165c	0.015325155
150	0xbd216275	-0.039400537
151	0xbd73f58e	-0.05956035
152	0xbc6bbf3f	-0.014388858
153	0xbd0d80d4	-0.03454669
154	0xbbb5e21b	-0.0055506355
155	0x3d762601	0.060094837
156	0x3cbd07e8	0.023075059
157	0x3cb9a01a	0.02265935
158	0x3d740595	0.059575636
159	0xbca63fb1	-0.020294042
160	0xbd79afb8	-0.060958594
161	0xbd4b8791	-0.049689833
162	0x3cd59884	0.026073702
163	0xbd188f72	-0.037246175
164	0x3c7c9598	0.015416525
165	0x3d3a8297	0.045534696
166	0x3c531628	0.0128837
167	0x39f31088	0.00046360889
168	0x3d291343	0.041278135
169	0xbd0ddba6	-0.0346333
170	0xbd757baf	-0.059932407
171	0x3b2f9bba	0.00267957
172	0x3d20b7a1	0.039237622
173	0x3d4fb0d8	0.05070576
174	0xba432d56	-0.0007445415
175	0xbd5d5133	-0.054032516
176	0x3d261934	0.04055138
177	0xbaa9c14a	-0.0012951281
178	0xbd55480f	-0.052070674
179	0xbd5a5bc6	-0.05331018
180	0xbd356936	-0.04428979
181	0x3d1e1cc4	0.03860165
182	0xbd156e96	-0.036482416
183	0xbd67d3cd	-0.056598473
184	0xbd0053be	-0.031329863
185	0x3c9a3b17	0.018827004
186	0xbd40e40e	-0.04709249
187	0xbd681d50	-0.05666858
188	0x3d04595b	0.03231178
189	0xbcb53c37	-0.02212344
190	0xbcf42d6a	-0.029806811
191	0x3d7a1365	0.061053652
192	0x3d3f8bad	0.046764065
193	0xbc4fe4c6	-0.012688821
194	0x3c9c09be	0.019047614
195	0x3d51224a	0.05105809
196	0x3cacc6b4	0.021090843
197	0xbc5ef845	-0.013608997
198	0x3d479ad1	0.04873163
199	0xbd7c1728	-0.06154552
200	0x3cadf026	0.021232676
201	0x3c3a3c55	0.011366923
202	0x3d0929fb	0.0334873
203	0xbb809b15	-0.003924737
204	0xbbd23f7c	-0.0064162593
205	0x3b6703a9	0.0035249984
206	0x3d350aea	0.04419986
207	0xbc217774	-0.00985514
208	0x3c0acb3e	0.008471308
209	0xbd4b86be	-0.049689047
210	0xbd878a3b	-0.06618162
211	0xba19b045	-0.0005862753
212	0xbcc69954	-0.024243034
213	0xb3cebb6f	-9.6267165e-08
214	0x3cdd06c0	0.026980758
215	0xbcbd4dc7	-0.023108376
216	0x3d4fb6cb	0.050711434
217	0xbd603e20	-0.054746747
218	0xbc971506	-0.018442642
219	0xbd10fef3	-0.03539939
220	0xbce01524	-0.02735383
221	0xbc8e5378	-0.017373785
222	0xbd3cd9b2	-0.046106048
223	0xbd619778	-0.055076092
224	0x3bb93d15	0.0056530335
225	0xbc9fb205	-0.019494066
226	0x3cbdc262	0.023163978
227	0xbc375a40	-0.011190951
228	0xbd18d868	-0.037315756
229	0x3ce56c4c	0.028005742
230	0x3c2f3177	0.010692946
231	0x3d4a125a	0.049333908
232	0xbc6f62a2	-0.014610918
233	0x3d29547c	0.041340336
234	0xbd36c387	-0.044620063
235	0xbbb623de	-0.005558475
236	0x3d577e90	0.052610934
237	0xbb9a3ed5	-0.004707197
238	0x3cada1b0	0.021195263
239	0xbbe036c8	-0.006842468
240	0xbc05e645	-0.008172576
241	0x3d35919b	0.044328313
242	0xb8a7e2fb	-8.005459e-05
243	0x3c6fd275	0.014637579
244	0x3cb88593	0.02252463
245	0x3d3bdd46	0.04586532
246	0xbc9faa36	-0.019490343
247	0x3d36051b	0.044438463
248	0xbc6c64dd	-0.014428345
249	0xbbe80ecb	-0.0070818416
250	0xbb858439	-0.0040746
251	0x3b7145a0	0.0036815181
252	0x3c467db7	0.012114934
253	0x3d74c847	0.05976131
254	0x3cce252c	0.02516421
255	0xbccd8078	-0.025085673

conv2.bias f4 [64]
0	0x3ad1ef3b	0.0016016731
1	0x399cdcfe	0.0002991929
2	0x3d15d66a	0.036581434
3	0x3cb8eec4	0.02257479
4	0xbcfdf04c	-0.030998372
5	0xbc5ad327	-0.013356007
6	0xbc84e937	-0.016224487
7	0x3d01133e	0.03151249
8	0x3d26fd25	0.04076876
9	0x3c969741	0.01838267
10	0xbc8950f2	-0.01676223
11	0x3d016f16	0.03160008
12	0x387a1c37	5.9630922e-05
13	0xbcfce5af	-0.03087124
14	0x39d8bc34	0.00041338953
15	0xbcc3add7	-0.023886604
16	0xbc44fec3	-0.012023631
17	0xb8f2ea64	-0.00011583118
18	0xb7c20825	-2.3130395e-05
19	0x3cf6c0ac	0.03012117
20	0xb8839d2b	-6.2758416e-05
21	0x3c0ec826	0.008714711
22	0x3d21f23b	0.03953765
23	0x3c3288df	0.01089689
24	0x3b8edf5a	0.0043601217
25	0xb68b34c6	-4.1486664e-06
26	0x372213c3	9.660554e-06
27	0x3d2a528a	0.04158262
28	0xbc029ef1	-0.007972465
29	0xb7bdc4f6	-2.2622273e-05
30	0x3d18a23e	0.0372641
31	0x3c830a2e	0.015996065
32	0x3c5b2cbe	0.013377367
33	0xbd045775	-0.032309968
34	0x3c888f26	0.016669821
35	0x3c939eac	0.018019997
36	0x3a5314b3	0.00080520957
37	0x3c48b39d	0.012249854
38	0xbb767b9d	-0.00376103
39	0xbb534317	-0.0032236034
40	0xbac727e3	-0.0015194382
41	0x3d2800c9	0.041016374
42	0x3cb892a0	0.022530854
43	0xbced4195	-0.028961936
44	0xbbbe01c8	-0.005798552
45	0x3c1a4cbd	0.00941771
46	0x3c1d992f	0.009619041
47	0x3c7317eb	0.014837245
48	0xbc758eb4	-0.014987636
49	0x39998824	0.00029283867
50	0xbc282e57	-0.0102649545
51	0x3c509e4b	0.0127330525
52	0xb9435c7e	-0.00018631105
53	0x3c21547f	0.009846806
54	0x3cd71087	0.026252998
55	0x3c4b4349	0.012406179
56	0x3c6c7313	0.014431733
57	0x39d7c832	0.00041157153
58	0x3d0cb9cf	0.03435689
59	0x3bbd46af	0.0057762484
60	0xbca2a12b	-0.019852242
61	0xbc5f5d1c	-0.013633039
62	0xbc51c8e6	-0.012804246
63	0x3c54c242	0.012985768

bn1.weight f4 [32]
0	0x3f7d9bb6	0.9906572
1	0x3f7d1878	0.9886546
2	0x3f7e3cd5	0.9931157
3	0x3f7d01f2	0.98831093
4	0x3f7e7abb	0.9940602
5	0x3f815f3a	1.0107186
6	0x3f7d12ee	0.9885701
7	0x3f80b205	1.0054327
8	0x3f7ded62	0.9919034
9	0x3f7cd072	0.9875556
10	0x3f7ee787	0.9957203
11	0x3f808f0f	1.0043658
12	0x3f7c6ba2	0.98601735
13	0x3f7d9acb	0.9906432
14	0x3f7d1d47	0.988728
15	0x3f80b7cf	1.0056094
16	0x3f7d376a	0.9891268
17	0x3f7d2efb	0.9889981
18	0x3f7bde48	0.9838605
19	0x3f805183	1.0024875
20	0x3f80b293	1.0054497
21	0x3f7d1067	0.98853153
22	0x3f7c9bd8	0.986753
23	0x3f800505	1.0001532
24	0x3f81a97e	1.012985
25	0x3f7d2291	0.9888087
26	0x3f80dd58	1.0067549
27	0x3f7cda8e	0.9877099
28	0x3f81372a	1.009496
29	0x3f820ec0	1.0160751
30	0x3f804e5d	1.0023915
31	0x3f7cf0a3	0.9880468

bn1.bias f4 [32]
0	0x3c320566	0.010865545
1	0xbc052267	-0.008125878
2	0x3aeab16a	0.0017905657
3	0x3b29591a	0.0025840462
4	0x3c166b02	0.009180786
5	0x3c8a1619	0.01685624
6	0xbc27ce10	-0.010242
7	0x3c42e501	0.011895419
8	0x3b3d26f5	0.0028862332
9	0x3a4d8c89	0.0007841071
10	0x3bed89ca	0.0072490918
11	0x3c287f65	0.0102842795
12	0xbc630e4c	-0.013858389
13	0x3bb3d096	0.005487512
14	0xbb958b6f	-0.004563741
15	0x3c03a154	0.008034069
16	0xbc0774a4	-0.008267555
17	0xbbdbf576	-0.006712611
18	0xbb658395	-0.0035021056
19	0x3c0d3810	0.008619323
20	0x3b35bee1	0.002773218
21	0xbba2334b	-0.0049499623
22	0xbc26ee5d	-0.010188666
23	0x3c27f3ab	0.010250966
24	0x3c64d7c3	0.013967457
25	0xbbfeb225	-0.0077727013
26	0x3c86a178	0.016434416
27	0xbb9c2d78	-0.0047661625
28	0x3c451eed	0.012031299
29	0x3c861c29	0.01637085
30	0x3c718983	0.014742258
31	0x3b93a5a5	0.0045058304

bn1.running_mean f4 [32]
0	0x3edf4c87	0.43613073
1	0xbe06a875	-0.13150199
2	0x3e8d80e1	0.2763739
3	0xbe443a24	-0.19162804
4	0xbe19764e	-0.14986536
5	0xbd888773	-0.0666646
6	0x3e8587e5	0.26080242
7	0x3de39a15	0.11113373
8	0x3e476017	0.19470249
9	0x3d653510	0.055958807
10	0x3d97bfcb	0.074096285
11	0x3e611afe	0.21982953
12	0x3e98accb	0.2981933
13	0xbdaa9d8f	-0.08330833
14	0xbd5da5f2	-0.054113336
15	0x3e2a079a	0.16604462
16	0xbd874a03	-0.066059135
17	0x3ea27059	0.3172634
18	0x3e017e16	0.12645754
19	0xbd12a7af	-0.035804447
20	0x3dee5af8	0.11638445
21	0xbc03d47d	-0.008046267
22	0xbe6989f7	-0.22806536
23	0xbe6b72cb	-0.22993009
24	0xbe083a3a	-0.13303462
25	0xbb7b9cba	-0.0038392977
26	0x3e74b475	0.23896964
27	0xbc6ac5cb	-0.014329384
28	0xbd34a571	-0.04410309
29	0xbe986532	-0.29764706
30	0xbd4c265e	-0.049841277
31	0xbe169748	-0.14706147

bn1.running_var f4 [32]
0	0x3d258023	0.040405404
1	0x3d017791	0.031608168
2	0x3d1adf04	0.03781034
3	0x3d19009b	0.037354093
4	0x3c887db4	0.016661502
5	0x3ca6ff12	0.020385299
6	0x3d3135ff	0.043264385
7	0x3cd55917	0.026043458
8	0x3d2a6ae1	0.041605834
9	0x3cb2c0d3	0.021820461
10	0x3d255c6b	0.04037134
11	0x3d3313d5	0.043720085
12	0x3cde2bd9	0.027120518
13	0x3ce3e938	0.027821168
14	0x3d1feb4a	0.03904275
15	0x3d1f235c	0.03885208
16	0x3ce8e91c	0.028431468
17	0x3ce87e78	0.028380617
18	0x3d2c9d3b	0.042142134
19	0x3cde45c9	0.027132886
20	0x3d1ab39e	0.037768953
21	0x3c51a8fe	0.0127966385
22	0x3d1b66f8	0.037939996
23	0x3d06d742	0.03292013
24	0x3d191661	0.037374858
25	0x3ccba3d2	0.024858389
26	0x3cc15dcc	0.023604296
27	0x3ca0b8ae	0.019619312
28	0x3d0cd6ac	0.034384415
29	0x3cb62708	0.022235408
30	0x3cb81aa5	0.022473643
31	0x3cd21196	0.025643151

bn2.weight f4 [64]
0	0x3f824620	1.017765
1	0x3f82604b	1.0185636
2	0x3f7cf60f	0.98812956
3	0x3f82423b	1.0176462
4	0x3f8277de	1.019283
5	0x3f7c4047	0.9853558
6	0x3f7cd74b	0.9876601
7	0x3f8240ab	1.0175985
8	0x3f7c4afb	0.9855191
9	0x3f824e6c	1.0180182
10	0x3f823df8	1.0175161
11	0x3f7c2c42	0.9850503
12	0x3f7c3951	0.9852496
13	0x3f7bfefa	0.9843594
14	0x3f7c90ba	0.98658335
15	0x3f811947	1.0085839
16	0x3f824d31	1.0179807
17	0x3f8248fb	1.0178522
18	0x3f7de380	0.9917526
19	0x3f822ec3	1.017052
20	0x3f8235a1	1.0172616
21	0x3f7c4627	0.98544544
22	0x3f824a01	1.0178834
23	0x3f7c51db	0.985624
24	0x3f7d31aa	0.98903906
25	0x3f7d750a	0.9900671
26	0x3f8245c5	1.0177542
27	0x3f7c2a1f	0.9850177
28	0x3f825531	1.0182248
29	0x3f825f5b	1.018535
30	0x3f812bc2	1.0091479
31	0x3f81bc61	1.0135614
32	0x3f7c7321	0.9861317
33	0x3f7c8cff	0.9865264
34	0x3f7c1a09	0.98477226
35	0x3f825730	1.0182858
36	0x3f7c55a5	0.98568183
37	0x3f825231	1.0181333
38	0x3f7c5802	0.9857179
39	0x3f7c0ab1	0.98453814
40	0x3f8082ae	1.003988
41	0x3f7e9944	0.99452615
42	0x3f7c2085	0.9848712
43	0x3f825a33	1.0183777
44	0x3f7c3d23	0.9853079
45	0x3f7c4964	0.98549485
46	0x3f7cdb8f	0.9877252
47	0x3f7ccea3	0.987528
48	0x3f8252f3	1.0181564
49	0x3f7c6501	0.9859162
50	0x3f826c4a	1.0189297
51	0x3f825596	1.0182369
52	0x3f7c33a5	0.98516303
53	0x3f8261db	1.0186113
54	0x3f7e074f	0.992299
55	0x3f7c0be5	0.9845565
56	0x3f7c7c93	0.98627585
57	0x3f7c503c	0.9855993
58	0x3f825097	1.0180844
59	0x3f828158	1.0195723
60	0x3f7c5e2b	0.9858119
61	0x3f7c502b	0.98559827
62	0x3f8249d0	1.0178776
63	0x3f826774	1.0187821

bn2.bias f4 [64]
0	0x3c8dc4d4	0.017305769
1	0x3c926ae0	0.017873228
2	0xbc18eb20	-0.009333402
3	0x3c8e980f	0.017406492
4	0x3c9a1e9c	0.018813424
5	0xbc6d0506	-0.01446653
6	0xbc516a70	-0.012781724
7	0x3c8c8c41	0.017156722
8	0xbc61ba9b	-0.0137774
9	0x3c918c35	0.017767051
10	0x3c8ea399	0.017411994
11	0xbc8193ae	-0.01581749
12	0xbc5c717e	-0.013454793
13	0xbc79ade3	-0.015239212
14	0xbc6a4146	-0.014297789
15	0x3c9aa267	0.018876268
16	0x3c8d9fb2	0.017288063
17	0x3c94d8e6	0.018169831
18	0xbc308c1c	-0.010775592
19	0x3c8ed8c2	0.017437343
20	0x3c8eaee8	0.017417386
21	0xbc67abc8	-0.014140077
22	0x3c9215ea	0.017832715
23	0xbc61272c	-0.013742249
24	0xbbc26959	-0.0059329686
25	0xbb9e17d5	-0.0048246183
26	0x3c9464bd	0.018114442
27	0xbc7d0abd	-0.015444455
28	0x3c93c6e2	0.01803917
29	0x3c9195c9	0.017771618
30	0x3ca5d64c	0.020243786
31	0x3c9cd706	0.0191455
32	0xbc73cb09	-0.01487995
33	0xbc57fee6	-0.013183331
34	0xbc75fdae	-0.015014095
35	0x3c94a764	0.018146224
36	0xbc57567e	-0.01314318
37	0x3c939223	0.01801402
38	0xbc63769b	-0.013883258
39	0xbc8113d8	-0.015756533
40	0x3ca4e73f	0.020129798
41	0x3b903ff8	0.004402157
42	0xbc6d16bb	-0.014470751
43	0x3c926d65	0.017874429
44	0xbc65ee99	-0.014033937
45	0xbc6cbbbb	-0.014449055
46	0xbc40ff84	-0.01177967
47	0xbc402653	-0.011727887
48	0x3c913fb4	0.017730571
49	0xbc79d356	-0.01524814
50	0x3c9798a0	0.018505394
51	0x3c9217bd	0.017833585
52	0xbc77eb73	-0.015131819
53	0x3c9768ca	0.018482585
54	0xbc284cab	-0.010272185
55	0xbc8728da	-0.016498972
56	0xbc5e6948	-0.013574906
57	0xbc64c759	-0.013963544
58	0x3c912218	0.017716452
59	0x3c9dceb5	0.019263605
60	0xbc6ee828	-0.014581718
61	0xbc746b67	-0.014918185
62	0x3c9009ca	0.017582793
63	0x3c99440f	0.01870921

bn2.running_mean f4 [64]
0	0xbe5fb111	-0.21844889
1	0xbef39161	-0.47571853
2	0x3d344ce3	0.044018637
3	0xbee14487	-0.43997595
4	0xbeb0c242	-0.34523207
5	0x3c8da1f4	0.01728914
6	0x3d837c1d	0.06420157
7	0xbe34fb3a	-0.1767396
8	0x3e1457b4	0.14486581
9	0xbe9e96cd	-0.30974427
10	0xbeb67b66	-0.3564102
11	0x3d89e28d	0.06732664
12	0x3d93ea62	0.07222439
13	0xbd9ad4ea	-0.075601414
14	0x3e149293	0.14509039
15	0xbe8d30e0	-0.2757635
16	0x3e24ab3b	0.16080944
17	0x3e423b1c	0.18967861
18	0x3de7e143	0.11322262
19	0xbb5b789b	-0.0033488635
20	0xbe9bfffb	-0.30468735
21	0x3d136ad4	0.03599055
22	0x3cc9890e	0.024601486
23	0x3d2179de	0.039422862
24	0x3d2b75b0	0.041860282
25	0xbe6d1513	-0.2315257
26	0xbe44a6f8	-0.19204319
27	0x3da83b97	0.08214491
28	0x3c33a89f	0.010965495
29	0xbec5495f	-0.3853254
30	0xbca0718d	-0.019585395
31	0x3dce63c1	0.1007762
32	0x3d16c134	0.036805347
33	0xbd80cd27	-0.0628913
34	0x3e43fe3d	0.19139953
35	0xbd88e0ef	-0.06683528
36	0xbd65256d	-0.055943895
37	0xbe85ad66	-0.26108855
38	0xbe1a7e86	-0.15087327
39	0x3eefda41	0.46846202
40	0x3e5b7735	0.21432193
41	0xbbd7133f	-0.0065635736
42	0x3bf48af6	0.0074628545
43	0xbda0d946	-0.078539416
44	0x3e5e5076	0.21710381
45	0x3da7a317	0.08185404
46	0x3e12a8b8	0.14322174
47	0xbe7edba3	-0.24888472
48	0xbddd488a	-0.10804851
49	0x3d8e02e3	0.06934144
50	0xbea768d8	-0.32697177
51	0xbeab61b9	-0.33472994
52	0xbd797168	-0.06089917
53	0x3e78c325	0.24293192
54	0x3e15eee3	0.1464191
55	0x3d3cede5	0.04612531
56	0x3ddbe82d	0.107376434
57	0x3d9ab936	0.075548574
58	0x3e51a57e	0.20473287
59	0xbdaee238	-0.085392416
60	0x3e205c53	0.15660219
61	0x3e96e49f	0.294713
62	0xbe8439d6	-0.25825375
63	0xbe5ea2ba	-0.21741763

bn2.running_var f4 [64]
0	0x3e043fa0	0.12914896
1	0x3e49e74f	0.19717143
2	0x3ddd064f	0.10792219
3	0x3e2e68d9	0.17032184
4	0x3deac6c1	0.114636905
5	0x3dffb3ea	0.12485488
6	0x3e461640	0.19344425
7	0x3dcf4a4d	0.101215936
8	0x3e0a4128	0.13501418
9	0x3e152be3	0.14567523
10	0x3e4fe12c	0.2030074
11	0x3dadf6bb	0.08494326
12	0x3dce7a65	0.10081939
13	0x3e0570a6	0.13031253
14	0x3e4a4c7d	0.1975574
15	0x3e0f4f7d	0.13995166
16	0x3db9a24b	0.09064158
17	0x3e16324d	0.14667626
18	0x3e0a9537	0.13533483
19	0x3e23ecd8	0.16008317
20	0x3e2b512f	0.16730188
21	0x3e0799d7	0.13242279
22	0x3dd72c81	0.10506535
23	0x3e0b9673	0.1363161
24	0x3e11d40a	0.14241043
25	0x3e1b1a9a	0.15146866
26	0x3de3ec69	0.11129076
27	0x3ddfe73b	0.109327756
28	0x3dce9216	0.100864574
29	0x3e351bf7	0.17686449
30	0x3d95f097	0.073212795
31	0x3df6cf9b	0.12051316
32	0x3e144596	0.1447967
33	0x3dafb7a7	0.08579951
34	0x3e62aa45	0.22135265
35	0x3dc0c7c5	0.09413103
36	0x3e0cfe84	0.13768965
37	0x3e1b3edd	0.15160699
38	0x3ddfd62d	0.10929523
39	0x3e76bb38	0.24094856
40	0x3de62fbe	0.11239575
41	0x3dcb5d6c	0.09929928
42	0x3d99586c	0.07487568
43	0x3e3e6978	0.1859492
44	0x3e0b84dc	0.136249
45	0x3dd90765	0.105971135
46	0x3e3aafef	0.18231176
47	0x3e45ae5d	0.19304796
48	0x3dbd8c20	0.09255242
49	0x3e187889	0.1488973
50	0x3e0c93a6	0.13728198
51	0x3e23afa0	0.15984964
52	0x3dcdf218	0.10055941
53	0x3df7c7dd	0.12098668
54	0x3e14d954	0.14536029
55	0x3d9f2134	0.07770005
56	0x3da54d24	0.08071354
57	0x3e172a09	0.14762129
58	0x3e2233d0	0.15840077
59	0x3db2ee7b	0.08736893
60	0x3e0a658d	0.13515301
61	0x3e46e8d4	0.19424754
62	0x3e073be3	0.13206439
63	0x3e12ebb4	0.14347726

output_conv.weight f4 [6, 64, 1, 1]
0	0x3e03f346	0.1288577
1	0x3da63cbc	0.08117053
2	0x3b9bf610	0.0047595575
3	0x3decf348	0.1156984
4	0x3d4e3cb2	0.050350852
5	0xbd88e6d9	-0.06684656
6	0xbc57c88d	-0.013170374
7	0x3ddd6311	0.10809911
8	0xbb5eac81	-0.0033977332
9	0x3d82f118	0.06393641
10	0x3d9e870a	0.077406004
11	0xbb7ed562	-0.003888451
12	0xbc311622	-0.0108084995
13	0xbc1a47b9	-0.009416514
14	0xbda9c771	-0.082899936
15	0x3d3d0bbc	0.04615377
16	0x3d9b4e8e	0.075833425
17	0x3d57c235	0.052675445
18	0xbd1ca55f	-0.038243648
19	0x3ca8912f	0.020577041
20	0x3dee574c	0.11637744
21	0xbd89dc3c	-0.067314595
22	0x3dc9ec2c	0.09859499
23	0xbdb518bc	-0.08842608
24	0x3b6d07ac	0.0036167903
25	0xbd9aa980	-0.07551861
26	0x3e0b4532	0.13600615
27	0x3bc075b0	0.0058734044
28	0x3def90dc	0.116975516
29	0x3d845cf4	0.06463042
30	0x3d8ea3a9	0.069648094
31	0x3d814d3d	0.0631356
32	0xbd7d897e	-0.0618987
33	0xbd3a853f	-0.04553723
34	0xbdabf499	-0.08396263
35	0x3dacf3e2	0.084449545
36	0xbcf774ab	-0.030206999
37	0x3d1e904e	0.03871184
38	0xbc50c930	-0.012743279
39	0xbcec18e6	-0.028820466
40	0x3d7b7c4a	0.06139783
41	0x3cb4874d	0.022037173
42	0xbdc5628b	-0.09637936
43	0x3dcdb9c2	0.10045196
44	0xbd947b16	-0.07250039
45	0xbd463ca3	-0.04839767
46	0xbd82c75b	-0.0638568
47	0xbd5e4981	-0.054269318
48	0x3dce5afe	0.10075949
49	0xbdbae650	-0.0912596
50	0x3cdcb7ed	0.026943171
51	0x3d58d410	0.052936614
52	0xbd17b6cf	-0.037039574
53	0x3dc2da39	0.09514279
54	0xbd5903c4	-0.052982107
55	0xbdcea817	-0.10090654
56	0x3bebb0d2	0.0071927095
57	0xbd96bdae	-0.07360397
58	0x3de2dd37	0.1107735
59	0x3d0c38d1	0.03423387
60	0xbdd2efb0	-0.10299623
61	0xbd8bfa3c	-0.06834838
62	0x3c944d85	0.01810337
63	0x3ce4dc51	0.027937086
64	0xbd4445fb	-0.0479183
65	0xbdabd0f4	-0.08389464
66	0xbe1089e7	-0.14115106
67	0xbdd69c79	-0.104790635
68	0xbcd51158	-0.026009247
69	0x3d893cb2	0.0670103
70	0xbdab4051	-0.08361877
71	0x3d10b787	0.035331275
72	0x3cbb757b	0.022883167
73	0x3aa6de5e	0.0012731066
74	0x3ce9b958	0.028530762
75	0x3d7f0ef8	0.062270135
76	0x3caaffc0	0.020873904
77	0x3dc1683e	0.09443711
78	0xbd46775c	-0.048453674
79	0x3ddf7330	0.10910642
80	0xbdb0f649	-0.08640725
81	0xbde21a49	-0.1104017
82	0xbcc6bac5	-0.02425898
83	0xbdf0992c	-0.11747965
84	0x3d4a82e0	0.04944122
85	0x3dd8f719	0.10594005
86	0x3d734f96	0.05940207
87	0x3dc22b25	0.094808854
88	0x3db05b0b	0.08611115
89	0xbcea0749	-0.028567927
90	0x3d4b0d22	0.04957307
91	0x3c9214ed	0.017832244
92	0x3d76c91d	0.06025039
93	0xbd7448b6	-0.059639655
94	0xbd28b92a	-0.04119221
95	0x3d860a96	0.06544988
96	0xbc8c1851	-0.017101439
97	0xbdfad178	-0.12246984
98	0x3c8ef57f	0.017451046
99	0xbd475031	-0.04866046
100	0xbd24e3eb	-0.040256422
101	0x3cc990ed	0.024605239
102	0xbc8386bf	-0.016055463
103	0x3d5a7a4f	0.0533393
104	0x3cca63b0	0.024705738
105	0xbd688cd7	-0.05677494
106	0x3dbdb919	0.0926382
107	0xbdfd1abb	-0.12358614
108	0x3d880d63	0.06643178
109	0x3d95e78a	0.07319553
110	0xbded214b	-0.11578616
111	0xbe06b517	-0.13155018
112	0x3dd50dda	0.104030326
113	0xbda004bc	-0.07813403
114	0xbd409c86	-0.047024272
115	0xbcfbf938	-0.030758485
116	0x3d5ffacb	0.054682534
117	0xbd8113f6	-0.06302635
118	0xbd7af1aa	-0.061265625
119	0xbd5d55fb	-0.054037075
120	0x3d935927	0.07194739
121	0xbdf9e937	-0.12202685
122	0xbdc88e8c	-0.09792814
123	0xbc76140b	-0.015019427
124	0xbd9d0f6b	-0.07668956
125	0xbe08b057	-0.13348518
126	0xbddef88d	-0.10887251
127	0xbce428d7	-0.027851505
128	0xbd13c560	-0.036076903
129	0xbd07fa70	-0.03319782
130	0x3d9f199c	0.077685565
131	0x3cc4813c	0.023987405
132	0xbdffd3f0	-0.12491596
133	0xbd96fd65	-0.0737255
134	0x3ded0175	0.115725435
135	0xbd527ac1	-0.0513866
136	0x3c961703	0.01832152
137	0x3cf2777f	0.029597996
138	0xbd5c427b	-0.05377434
139	0xbd9c164e	-0.07621442
140	0x3ddc44f3	0.107553385
141	0xbc3b19a0	-0.011419684
142	0x3e01a67d	0.12661166
143	0x3c82a046	0.015945565
144	0x3dce365d	0.10068963
145	0x3d4d8781	0.050178055
146	0x3d6609de	0.056161754
147	0x3db83c64	0.089958936
148	0xbdbe4459	-0.0929038
149	0xbddcc644	-0.10780004
150	0xbddb1995	-0.10698239
151	0x3d5ae0a5	0.053436894
152	0xbd15dadc	-0.036585674
153	0xbe06877e	-0.13137624
154	0xbd8824d1	-0.06647647
155	0x3d9814d2	0.07425846
156	0xbdf93e4c	-0.12170085
157	0x3d0ec74e	0.03485804
158	0x3d54a2d8	0.051913112
159	0xbdb96aad	-0.0905355
160	0x3d4db79a	0.050223924
161	0xbda884a3	-0.082284234
162	0x3bcf16f1	0.0063198735
163	0xbcdf8fb7	-0.027290208
164	0x3dbe6af3	0.09297743
165	0x3dc27424	0.09494808
166	0xbd20fb1b	-0.039301973
167	0x3d9d7bf4	0.07689658
168	0x3dc5dc5a	0.09661169
169	0x3d1e16eb	0.038596075
170	0xbe0419b7	-0.12900434
171	0x3dbb87b2	0.09156741
172	0xbd77d15e	-0.060502402
173	0xbd174630	-0.03693217
174	0xbd25b6da	-0.040457584
175	0xbd8af8da	-0.06785746
176	0xbdfbf9fe	-0.123035416
177	0xbdd2e847	-0.1029821
178	0xbd94ee39	-0.07272
179	0xbe08ab22	-0.13346532
180	0xbdcf9515	-0.10135857
181	0xbd2439b0	-0.040094078
182	0x3cf45e17	0.029830022
183	0xbc82a9c3	-0.01595009
184	0xbe08dfc2	-0.13366607
185	0xbd5b8a40	-0.053598642
186	0xbd1b0168	-0.037843138
187	0xbdcef775	-0.101057924
188	0x3c5ed983	0.0136016635
189	0xbd47a67b	-0.048742753
190	0xbdf3edf0	-0.11910617
191	0xbcaffc93	-0.021482741
192	0xbd980d34	-0.07424393
193	0x3dcca940	0.099932194
194	0xbd84e717	-0.064893894
195	0xbd3be04b	-0.0458682
196	0xbc2056e3	-0.00978634
197	0xbd81e2c3	-0.063420795
198	0xbdb494f0	-0.0881747
199	0xbcf6678d	-0.030078674
200	0x3d93fb04	0.07225612
201	0xbd71a9e9	-0.05899993
202	0xbd72ef37	-0.059310164
203	0x3cc0caa0	0.02353412
204	0xbdf29844	-0.118454486
205	0x3dab3e41	0.08361483
206	0x3d99f075	0.07516567
207	0xbde1f43f	-0.11032914
208	0x3ca7eb2d	0.020497883
209	0x3bbfc2fd	0.005852102
210	0xbcb6508c	-0.022255205
211	0xbd84d0e6	-0.06485157
212	0x3d500c97	0.050793257
213	0xbd82b049	-0.0638128
214	0xbd3a81e0	-0.045534015
215	0x3d016d49	0.031598363
216	0xbdc13c7a	-0.09435363
217	0xbe02b848	-0.1276561
218	0x3da01986	0.07817368
219	0x3c832b6c	0.016011916
220	0x3d8ea48d	0.06964979
221	0x3dd66fb1	0.10470522
222	0x3cdaf285	0.02672697
223	0x3d90f77e	0.070784554
224	0x3d307340	0.04307866
225	0xbdcf2f7a	-0.10116477
226	0x3d7b45b0	0.061345756
227	0xbcde9a47	-0.027173175
228	0x3cd1690e	0.02556279
229	0xbd940c67	-0.07228928
230	0xbd765d31	-0.060147468
231	0xbcf9676f	-0.030444829
232	0xbdb95a92	-0.09050478
233	0x3dc70d4e	0.097193345
234	0xbd6ba924	-0.057534352
235	0x3bf29fd0	0.007404305
236	0xbd7539d9	-0.05986962
237	0x3d1256d1	0.035727326
238	0xbc1c8e48	-0.009555407
239	0x3d16b5e7	0.03679457
240	0xbbe4a743	-0.006977947
241	0x3bb01eaf	0.0053747515
242	0xbda459eb	-0.08024963
243	0xbd939ca8	-0.07207614
244	0x3ca160c5	0.019699464
245	0xbcb2debc	-0.021834724
246	0x3d16793d	0.036736716
247	0xbe023f6d	-0.12719508
248	0x3d12ae8e	0.035811
249	0x3c7db417	0.015484831
250	0xbd40f4c0	-0.04710841
251	0xbe02e44a	-0.12782398
252	0xbdac7d34	-0.08422318
253	0x3dcb2c5c	0.0992057
254	0xbd4ed590	-0.050496638
255	0x3d4db105	0.050217647

output_conv.bias f4 [6]
0	0x3b33f7f3	0.0027461022
1	0xbd54d265	-0.05195846
2	0xbda43fda	-0.08019991
3	0x3dc4fe0e	0.096187696
4	0xbe0c08ab	-0.13675182
5	0xbdd8c560	-0.10584521
