training/trained_models/model_standard_hyper.pth (torch, 84970 bytes, 14 tensors)

conv1.weight f4 [32, 1, 3, 3]
0	0x3d3f2ade	0.04667174
1	0x3e11e99b	0.1424927
2	0x3e87a1c3	0.26490602
3	0x3d5cd79d	0.053916562
4	0xbea286e7	-0.31743547
5	0xbcbeaf36	-0.023276906
6	0xbd89e4dc	-0.067331046
7	0xbe6d46d0	-0.23171544
8	0x3e51262f	0.20424722
9	0x3e139d7b	0.14415543
10	0x3db346f6	0.08753769
11	0xbe1c1595	-0.15242608
12	0x3e810509	0.25199154
13	0x3dec28d2	0.11531223
14	0xbea734a1	-0.3265734
15	0x3e88482f	0.26617572
16	0xbe2f2f96	-0.17107996
17	0x3de2be08	0.11071402
18	0xbe33ab1f	-0.17545746
19	0x3d20407b	0.039123993
20	0xbe86ca7b	-0.26326355
21	0xbd1441eb	-0.036195677
22	0x3caec040	0.021331906
23	0xbd373f34	-0.04473801
24	0x3e7dcf34	0.24786073
25	0x3e4301dc	0.19043678
26	0x3e69b15d	0.22821565
27	0xbe8b3d5c	-0.2719525
28	0x3e647327	0.22309552
29	0x3c75746e	0.014981372
30	0xbdd93f37	-0.106077604
31	0x3e32de43	0.17467599
32	0xbe9231ce	-0.28553623
33	0xbe371c6a	-0.17881933
34	0xbe93cc19	-0.28866652
35	0x3d6a3195	0.05717619
36	0x3da1407b	0.07873627
37	0xbe640138	-0.2226609
38	0x3d0d260a	0.034460105
39	0xbda822b5	-0.08209745
40	0x3dffa22b	0.12482103
41	0xbdb637b0	-0.0889734
42	0xbe1ff22c	-0.15619725
43	0xbe75e0cd	-0.24011536
44	0xbe41e59d	-0.18935247
45	0x3dfe5b93	0.1241981
46	0xbdc8a359	-0.09796781
47	0xbd6f904e	-0.05848723
48	0x3dff64e2	0.12470414
49	0xbb8b25b1	-0.0042464365
50	0x3e736357	0.23768364
51	0xbe885fd2	-0.26635605
52	0xbe49b086	-0.19696245
53	0xbe82a03e	-0.2551288
54	0x3e7438ba	0.23849764
55	0xbe34fbc9	-0.17674173
56	0xbdc1bb96	-0.09459607
57	0xbe891cc4	-0.2677976
58	0xbdfbcdf3	-0.12295141
59	0xbe46c864	-0.1941238
60	0xbdc6b767	-0.0970295
61	0xbe3955a3	-0.18099074
62	0x3e417372	0.18891695
63	0x3e8729ca	0.2639907
64	0x3e64b540	0.22334766
65	0x3e8d9091	0.27649358
66	0x3d34afc9	0.044112954
67	0x3e124764	0.14285046
68	0xbe0d6e91	-0.13811709
69	0xbdf3e320	-0.11908555
70	0xbcab4572	-0.020907138
71	0xbe416b65	-0.18888624
72	0xbe156fa6	-0.14593372
73	0x3da0be3d	0.07848785
74	0x3e8bc62a	0.27299625
75	0x3e814410	0.2524724
76	0x3d4c5adc	0.049891338
77	0x3d004f80	0.031325817
78	0x3c6d9230	0.014500186
79	0x3c9a6575	0.018847207
80	0x3e895e0f	0.26829574
81	0xbe6f46c9	-0.23366846
82	0x3c6c151e	0.014409332
83	0x3dc7ab5e	0.097494826
84	0xbe5b3995	-0.21408685
85	0xbdcd2d60	-0.1001842
86	0xbe63d159	-0.22247829
87	0xbdfdf626	-0.12400465
88	0xbe118cbb	-0.1421384
89	0xbe688406	-0.22706613
90	0x3e428e15	0.18999512
91	0x3e99efee	0.30065864
92	0xbe6ef368	-0.2333504
93	0xbdae5cff	-0.08513831
94	0xbe5959c4	-0.21225649
95	0xbe802d9c	-0.25034797
96	0xbdfb3751	-0.1226641
97	0x3af63d94	0.0018786662
98	0x3e2fc05c	0.17163223
99	0xbe63149b	-0.22175829
100	0xbbaccd0f	-0.0052734683
101	0xbe30e31f	-0.1727414
102	0x3ea0e58f	0.3142514
103	0xbe39b34c	-0.18134803
104	0x3d9f9bd0	0.07793391
105	0x3e07e33b	0.13270275
106	0xbd6f6a93	-0.058451246
107	0xbe921ec9	-0.28539112
108	0xbd4d960b	-0.05019192
109	0xbe49b57b	-0.19698136
110	0x3e871e3c	0.26390254
111	0x3bd4cf24	0.0064944196
112	0xbe967d00	-0.29392242
113	0x3e58e132	0.21179655
114	0xbe7d3353	-0.2472661
115	0xbe6821c1	-0.22669126
116	0xbe1720ff	-0.14758681
117	0xbe3af655	-0.1825803
118	0x3d9619dc	0.07329151
119	0xbe746ba0	-0.2386918
120	0xbe4f962f	-0.20272134
121	0xbdd565b0	-0.10419786
122	0xbe60c0d4	-0.21948558
123	0xbe25f926	-0.16208324
124	0x3e2597e6	0.16171226
125	0xbe2c9411	-0.16853358
126	0xbe6ef736	-0.23336491
127	0x3e4f7707	0.20260249
128	0xbdf58e81	-0.11990071
129	0xbe065fe4	-0.13122517
130	0x3e5958c4	0.21225268
131	0x3df5c589	0.120005675
132	0xbca054b0	-0.019571632
133	0xbeab0600	-0.33403015
134	0x3e0a3ac1	0.13498975
135	0xbdea4831	-0.11439551
136	0xbe3b1cf4	-0.18272763
137	0xbe2ac9a8	-0.16678488
138	0xbe48aa3c	-0.1959619
139	0xbe303ba6	-0.17210254
140	0xbdfb0944	-0.12257627
141	0x3e721481	0.23640634
142	0xbe0b4224	-0.1359945
143	0xbe6b1e50	-0.22960782
144	0xbe2f8bd6	-0.17143187
145	0xbe10c27c	-0.1413669
146	0xbe0bb4c1	-0.13643171
147	0xbe79de1b	-0.24401133
148	0xbe27290b	-0.1632425
149	0x3d8042f7	0.062627725
150	0xbd82d555	-0.06388346
151	0xbe4d6ec9	-0.20061792
152	0x3e37afc9	0.1793815
153	0x3d4e76b5	0.050406177
154	0xbe50a8ba	-0.20376864
155	0xbe5664ce	-0.20936891
156	0xbe4a768a	-0.19771782
157	0xbc65022f	-0.013977571
158	0x3c8d46e8	0.017245725
159	0xbdfe1d35	-0.124079145
160	0x3e07195f	0.13193272
161	0xbe6064a7	-0.21913396
162	0xbe8b0f58	-0.27160144
163	0xbe1ab273	-0.15107135
164	0x3aed575b	0.0018107699
165	0xbe4c7d7f	-0.19969748
166	0x3e3198a6	0.17343387
167	0x3e013136	0.12616429
168	0x3e2a11cc	0.16608351
169	0x3d8580b0	0.06518686
170	0xbc93e5a0	-0.01805383
171	0x3e8bd6d4	0.27312338
172	0xbe1fb1d7	-0.15595184
173	0x3e6e0ee2	0.23247865
174	0xbe19307c	-0.14959902
175	0xbe716522	-0.23573735
176	0x3d104a72	0.035227247
177	0xbe7e2234	-0.24817735
178	0x3cce725c	0.025201015
179	0xbe9a287b	-0.3010901
180	0x3e65ad41	0.22429372
181	0x3e3d12ee	0.18464252
182	0xbd4317d7	-0.047630157
183	0x3e497aa7	0.19675694
184	0xbd1b8c94	-0.037975863
185	0xbe344da4	-0.17607743
186	0xbdad7afd	-0.08470724
187	0x3dc8614e	0.097841844
188	0xbe85ddf7	-0.26145908
189	0xbdd8ec06	-0.10591893
190	0x3dbdf30e	0.09274875
191	0xbe06917b	-0.13141434
192	0xbd982a86	-0.07429986
193	0xbe5cbb07	-0.2155572
194	0x3e3e994b	0.18613164
195	0x3dceb989	0.10093982
196	0x3dfaa68f	0.122388
197	0xbd83d8f8	-0.06437868
198	0x3e2e3c35	0.17015155
199	0x3df74d83	0.12075331
200	0xbdb32fce	-0.087493524
201	0xbca63392	-0.020288263
202	0x3e1c4f1d	0.15264554
203	0xbd7d27fb	-0.061805706
204	0x3e3c2521	0.18373539
205	0xbd9c4ffd	-0.07632444
206	0xbcf3dee4	-0.029769368
207	0xbd03bbdf	-0.03216159
208	0xbd99defc	-0.07513234
209	0xbd55daf2	-0.052210756
210	0xbc8139ae	-0.015774574
211	0x3e08f12d	0.13373251
212	0xbc2ad235	-0.010426094
213	0x3dfb4440	0.12268877
214	0x3de18b02	0.11012842
215	0x3de8bd01	0.11364175
216	0xbd9d188e	-0.07670699
217	0xbe5d4124	-0.2160688
218	0x3c35e339	0.011101537
219	0x3ba8723f	0.0051405723
220	0xbe75f548	-0.24019349
221	0x3bafd34a	0.005365764
222	0xbd3c9558	-0.046040863
223	0x3d02ebbf	0.031963106
224	0x39dcd3e5	0.00042119544
225	0xbea46b6f	-0.32113215
226	0x3e461026	0.19342098
227	0x3e38d403	0.18049626
228	0x3e23fdc4	0.16014773
229	0x3df01dd6	0.11724441
230	0x3d77e816	0.06052407
231	0xbe10e9ae	-0.14151642
232	0x3d9dd2e2	0.07706238
233	0x3dd018ac	0.10160956
234	0x38fb73c6	0.00011990177
235	0x3c9bcbc2	0.019018058
236	0x3e3f5947	0.186864
237	0xbdfa00de	-0.12207197
238	0xbe662640	-0.22475529
239	0xbd385254	-0.04500039
240	0xbe9d03e0	-0.3066702
241	0x3deca0ed	0.11554132
242	0x3e1aa0e5	0.15100439
243	0xbe56471e	-0.20925567
244	0x3e34fa11	0.17673518
245	0x3ddddaff	0.10832786
246	0x3b961420	0.004580036
247	0xbbf4bac8	-0.007468555
248	0xbe9011df	-0.28138635
249	0x3cbd62cb	0.023118397
250	0x3e771801	0.2413025
251	0xbe974698	-0.29546046
252	0x3e344707	0.1760522
253	0x3d80b2e1	0.062841184
254	0xbe56a37c	-0.20960802
255	0x3c7d3911	0.0154555

conv1.bias f4 [32]
0	0x389c2ecd	7.447377e-05
1	0x3af0f54b	0.001838365
2	0xb87c6735	-6.01776e-05
3	0xba4fdbd3	-0.00079291797
4	0xb7c40f79	-2.3372226e-05
5	0xb4283e41	-1.5668867e-07
6	0xbba08698	-0.0048988573
7	0x36547709	3.165975e-06
8	0x336a674f	5.457633e-08
9	0x39a6d0b6	0.0003181749
10	0x34ca1215	3.7638588e-07
11	0xb82447ec	-3.916763e-05
12	0xbc03306f	-0.008007153
13	0xb3fe7ab0	-1.18501134e-07
14	0x39a2922e	0.0003100796
15	0x3a2f280a	0.00066816865
16	0x354d5242	7.648815e-07
17	0x3b6fe4ff	0.0036604998
18	0x36a72990	4.9818264e-06
19	0xba98eade	-0.0011666676
20	0xb3160663	-3.4930405e-08
21	0xba1c744f	-0.0005968259
22	0xb49e344f	-2.9467853e-07
23	0x3c1fdf82	0.009757878
24	0xba0a2217	-0.0005269362
25	0x3b8bf3cf	0.0042710076
26	0xb9da709a	-0.00041664095
27	0xbaa9adda	-0.0012945489
28	0xbc4e5c8a	-0.012595305
29	0x3a4570e0	0.00075317733
30	0x3a29ce12	0.0006477545
31	0x3b364710	0.0027813353

conv2.weight f4 [64, 32, 3, 3]
0	0xbc98dfbe	-0.018661376
1	0xba95bd14	-0.0011424148
2	0x3b81ed0d	0.0039650262
3	0xbcaddb5e	-0.021222766
4	0x3cbb28e4	0.022846647
5	0xbc04cca8	-0.0081054345
6	0x3b9d4739	0.00479975
7	0xbd3d4b97	-0.046214666
8	0x3d8179b1	0.06322039
9	0xbd072802	-0.03299714
10	0x3d29d2a7	0.04146066
11	0xbd3da9f2	-0.04630465
12	0x3d025ad6	0.03182491
13	0xbaa6a2ba	-0.0012713291
14	0xbd11541e	-0.03548061
15	0x3d43ba1a	0.047784902
16	0xbcc60ab7	-0.024175031
17	0x3bfb7e77	0.007674988
18	0xbaa98135	-0.0012932183
19	0xbcbebb7a	-0.023282755
20	0x3b72e216	0.0037061027
21	0x3cbe203f	0.023208736
22	0xbca896be	-0.020579692
23	0xbcf3c51a	-0.029757071
24	0xbc93d3c5	-0.018045316
25	0x3cbc804f	0.023010401
26	0x3c805e08	0.015669838
27	0x3d4bafc1	0.04972816
28	0x38ce8fed	9.849654e-05
29	0xbd0fa191	-0.03506619
30	0x3d193d45	0.037411947
31	0x3c7039c5	0.014662211
32	0x3c8bc71b	0.017062714
33	0xba53f6c0	-0.000808578
34	0x3d1c172d	0.03810804
35	0xbc62f598	-0.013852499
36	0xbce7eb5e	-0.028310474
37	0x3c67cb50	0.014147595
38	0xbbf0e3b5	-0.0073513635
39	0x3d28be28	0.041196972
40	0x3ce46381	0.027879478
41	0x3cb022e1	0.021501007
42	0xbc2f1231	-0.0106854895
43	0xbd2d4fa3	-0.042312276
44	0x3c9ecc64	0.01938457
45	0x3d268a98	0.040659517
46	0xbd15460b	-0.03644375
47	0x3c3fb2c7	0.011700339
48	0x3ba0ad9a	0.0049035074
49	0xbd15c7b0	-0.03656739
50	0xbc854d3b	-0.016272178
51	0x3c92c5c1	0.017916562
52	0xbd094e57	-0.033521976
53	0xbd02c117	-0.031922426
54	0x3da26fd5	0.079314865
55	0x3c6c9d13	0.014441746
56	0x3cd4f16a	0.025994021
57	0x3c4fd321	0.012684614
58	0xbd0bb6b6	-0.034109794
59	0xbd1ddad9	-0.038538788
60	0xbc88af17	-0.016685052
61	0xbba79371	-0.005114012
62	0x3d14a2c8	0.036288053
63	0x3cf52bc2	0.029928092
64	0xbca13c5f	-0.019682107
65	0xbbc9828b	-0.006149595
66	0xbd576430	-0.05258578
67	0x3d3c6ef6	0.046004258
68	0xbc83206a	-0.016006667
69	0xba514ec0	-0.0007984452
70	0x3ce4e165	0.027939508
71	0xbd60514a	-0.054765023
72	0x3c9d8fef	0.019233672
73	0xbcba38b7	-0.022732122
74	0x3c99381a	0.01870351
75	0x3d3d6a1e	0.04624378
76	0x3cc051fd	0.023476595
77	0xbb3b8748	-0.002861457
78	0xbd20318e	-0.03910976
79	0xbcd9d631	-0.026591392
80	0xbccf6541	-0.025316836
81	0xbd02f820	-0.03197491
82	0x3b304288	0.0026895124
83	0xbd3454b2	-0.044026084
84	0xbcd5f46d	-0.026117528
85	0xbcff6c95	-0.031179706
86	0xbcde3723	-0.0271259
87	0x3c67e2a7	0.014153159
88	0xbd0490db	-0.032364707
89	0x3b89b6bd	0.0042026923
90	0xbc99e494	-0.018785752
91	0xbc8d2028	-0.017227247
92	0xbd523aa5	-0.05132546
93	0xbc8b827f	-0.017029999
94	0xbd03497c	-0.032052502
95	0x3ce7136a	0.0282075
96	0xbd394127	-0.04522815
97	0x3cbc0e4a	0.022956032
98	0xbcbdeb08	-0.02318336
99	0xbbdb11a9	-0.006685455
100	0x3c78d6ab	0.0151879
101	0x3a79ff37	0.0009536626
102	0xbc7a8e1e	-0.015292672
103	0xbbc6362e	-0.006048939
104	0xbd57638f	-0.05258518
105	0xbc945714	-0.018107928
106	0xbbb58728	-0.0055397935
107	0xbc99ebf3	-0.018789267
108	0xbd4f028b	-0.050539535
109	0xbd083839	-0.033256743
110	0xbc60f4f5	-0.013730277
111	0x3cb66fa5	0.022270033
112	0xbd4a5e9d	-0.049406637
113	0x3d04c2a6	0.032412194
114	0x3c443e60	0.011977762
115	0xbd5875ec	-0.052846834
116	0x3d0f96e9	0.03505603
117	0xbccf1fe9	-0.02528377
118	0xbc1c546c	-0.009541612
119	0x3cb2d21c	0.021828704
120	0xbb7a6b3f	-0.0038210896
121	0xbc56c961	-0.013109536
122	0x3b6bc49c	0.0035975343
123	0xbc225174	-0.009907115
124	0x3d07240b	0.032993358
125	0x3d1256b2	0.03572721
126	0xbbbf37a8	-0.005835492
127	0xbae4e4d6	-0.0017463218
128	0x3c43287f	0.0119115105
129	0x3c6784a9	0.01413075
130	0x3d212262	0.03933943
131	0xbd59fa50	-0.053217232
132	0x3c5a650a	0.013329754
133	0x3d62694d	0.055276204
134	0xbca91d54	-0.020643868
135	0xbc8a380d	-0.01687243
136	0xbc5f8f70	-0.013645038
137	0xbc3d45f4	-0.011552323
138	0xb9d7f8f0	-0.00041193468
139	0xbcc4a036	-0.024002176
140	0xbb8923c4	-0.004185172
141	0x3c1b7276	0.009487739
142	0xbaffb5cb	-0.0019509135
143	0xbd0d746b	-0.034534853
144	0xbc4d5075	-0.0125313895
145	0xbd684068	-0.056702048
146	0x3d19f7ed	0.037589956
147	0x3a4ab576	0.0007732728
148	0x3d2b2a72	0.041788526
149	0xbcd173cf	-0.025567917
150	0x3b2ce968	0.0026384238
151	0xbd530a69	-0.0515236
152	0xbc9dc882	-0.019260649
153	0xbca65ae1	-0.020307006
154	0x3d06b3e2	0.032886393
155	0x3d36daa9	0.044642124
156	0x3d2b5cc8	0.04183653
157	0x3ce21f78	0.027602896
158	0xbd2f1c99	-0.042751882
159	0xbc82ebd4	-0.015981592
160	0xbd2d5d8c	-0.04232554
161	0xbcbbeebb	-0.022940984
162	0x3c697344	0.014248673
163	0x3d151647	0.0363982
164	0x3c2448ca	0.01002712
165	0xbd391d2e	-0.045193844
166	0x3d41f508	0.04735282
167	0x3a5340f4	0.000805869
168	0xbc144438	-0.009049468
169	0xbd725636	-0.05916425
170	0x3ce0ff88	0.027465597
171	0x3cab548c	0.020914339
172	0x3d145505	0.036213893
173	0xbd07fc3c	-0.033199534
174	0x3cbb3087	0.022850288
175	0x3cce39c3	0.025174027
176	0x3a7145a2	0.00092037965
177	0xbc57d221	-0.013172657
178	0xbc74fe68	-0.014953233
179	0xbd8b82ae	-0.068120345
180	0xbcabe0c2	-0.020981196
181	0x3d03860a	0.03211025
182	0x3cc217fa	0.023693074
183	0x3d6faa18	0.058511823
184	0xbd4573c3	-0.048206102
185	0xbd29662f	-0.041357215
186	0xbc528c8d	-0.012850893
187	0x3ce3899a	0.027775574
188	0x3cb5750c	0.022150539
189	0xbbd1c1df	-0.006401285
190	0xbce9c40f	-0.02853587
191	0x3b9041b4	0.0044023637
192	0xbda2446e	-0.07923208
193	0xbd00c6cb	-0.031439584
194	0x3cd4b225	0.025963852
195	0xbc0a3964	-0.008436535
196	0x3c67a28e	0.014137877
197	0xbc32df90	-0.010917559
198	0x3c929762	0.01789445
199	0xbd2e4f97	-0.04255637
200	0xbca4d380	-0.020120382
201	0x3d13dc4a	0.036098756
202	0x3b8a9af0	0.004229896
203	0xbc6f2b11	-0.01459767
204	0xbd055906	-0.032555602
205	0xbc04d1eb	-0.008106689
206	0x3c6d190c	0.014471304
207	0xbd3836e4	-0.044974223
208	0x3cdef1cc	0.027214907
209	0x3c5f00d4	0.013611037
210	0x3cfb0ce9	0.030645804
211	0x3d27d8e6	0.040978335
212	0xbcba6a6d	-0.022755826
213	0x3cd5f8e0	0.02611965
214	0x3bf63403	0.0075135245
215	0xbcb163e3	-0.021654075
216	0xbca578f7	-0.020199282
217	0xb8996a39	-7.315394e-05
218	0xbd30663e	-0.043066256
219	0xbc3d7413	-0.011563319
220	0xbd11225b	-0.035433155
221	0xbd37166b	-0.044699114
222	0xbcfacfb5	-0.03061662
223	0x3cd01865	0.025402257
224	0x3cbc6e14	0.023001708
225	0x3d809297	0.0627796
226	0x3c924f6c	0.017860137
227	0xbc85ebe8	-0.01634784
228	0xbcc49746	-0.023997914
229	0x3c85b645	0.016322264
230	0xbcf384da	-0.029726434
231	0x3d35b3ff	0.04436111
232	0x3d61d11a	0.055131055
233	0x3d39d0c0	0.045365095
234	0xbd228a13	-0.03968246
235	0xbca77ae2	-0.020444337
236	0x3d096041	0.03353906
237	0xbc9b0896	-0.018924993
238	0xbc20a5cd	-0.009805155
239	0xbd28662d	-0.041113067
240	0xbc5f7a6a	-0.013640026
241	0x3bdd7372	0.006758147
242	0x3cb2b712	0.02181581
243	0x3d048eaa	0.032362618
244	0x3bd09da2	0.0063664475
245	0x3bc9318d	0.00613994
246	0x3d03bd54	0.03216298
247	0xbd27e5f0	-0.04099077
248	0x3d0d245d	0.034458507
249	0xbcc88371	-0.024476739
250	0x3d0f3dd0	0.03497106
251	0x3d2eeae6	0.042704485
252	0xbcb844c3	-0.022493726
253	0xbc11279e	-0.008859543
254	0xbd11eb94	-0.035625055
255	0x3c1fc7d2	0.009752231

conv2.bias f4 [64]
0	0xb48b05cd	-2.5894988e-07
1	0xb3a449cb	-7.650268e-08
2	0xb284003a	-1.5366926e-08
3	0xb306dcd3	-3.1400145e-08
4	0xb3d15136	-9.747093e-08
5	0xb3d9fe5e	-1.0151119e-07
6	0x31976a81	4.4067865e-09
7	0xb41ff1e6	-1.4896031e-07
8	0x33d643df	9.977497e-08
9	0xb40379a0	-1.2244573e-07
10	0x34a8581c	3.1356547e-07
11	0xb1211c14	-2.3444544e-09
12	0xb40d4e3b	-1.3160108e-07
13	0x31abf7df	5.0049347e-09
14	0x32d6130a	2.4921537e-08
15	0xb3d9f7e5	-1.0149942e-07
16	0xb3fdaae8	-1.1812318e-07
17	0xb4078e6a	-1.2624665e-07
18	0xb339ee06	-4.329015e-08
19	0xb363d89d	-5.3049565e-08
20	0xb3c29b9c	-9.062134e-08
21	0xb39681be	-7.008519e-08
22	0xb32a9159	-3.9713402e-08
23	0x330d193f	3.2852082e-08
24	0xb3f8eace	-1.1591111e-07
25	0xb4e64e5d	-4.2897855e-07
26	0xb3ab2fcd	-7.971503e-08
27	0x33692c0a	5.4289593e-08
28	0xb38d18bc	-6.570323e-08
29	0xb40b4583	-1.2970672e-07
30	0xb31d2491	-3.6587668e-08
31	0xb36d14d0	-5.519979e-08
32	0x33433398	4.54489e-08
33	0x340e8931	1.327469e-07
34	0x330db6af	3.299527e-08
35	0x337ffe9f	5.960339e-08
36	0xb42bbaa8	-1.5993521e-07
37	0xb32e7ea5	-4.0627715e-08
38	0xb38d480e	-6.578931e-08
39	0x32338aa1	1.0450692e-08
40	0xb42c6182	-1.6054221e-07
41	0xb31a8fcb	-3.5986698e-08
42	0xb3824b17	-6.0672555e-08
43	0xb2fd0ac5	-2.9457974e-08
44	0xb2ee89f5	-2.7769582e-08
45	0xb43644e6	-1.6975136e-07
46	0x32fca55d	2.941186e-08
47	0xb15ed861	-3.242825e-09
48	0x3413f37c	1.3779021e-07
49	0x33a5b22d	7.715821e-08
50	0xb2be15e6	-2.212887e-08
51	0xb0b5a099	-1.3215128e-09
52	0x30cdd39f	1.4975859e-09
53	0x321d8437	9.168665e-09
54	0xb47c2bc8	-2.3485256e-07
55	0xb3cadee2	-9.4469e-08
56	0xb2a78712	-1.9502782e-08
57	0xb3d387e3	-9.850171e-08
58	0x33b0625d	8.213531e-08
59	0x32d088b2	2.4276549e-08
60	0xb3bc3c6b	-8.765422e-08
61	0xb45a3d4b	-2.032513e-07
62	0xb3b6b3b6	-8.507725e-08
63	0x33fcaefd	1.17664946e-07

bn1.weight f4 [32]
0	0x3f56c414	0.8389294
1	0x3f5ddaab	0.86661786
2	0x3f5aaea9	0.8542276
3	0x3f575a28	0.8412194
4	0x3f61f1cb	0.8825957
5	0x3f567cde	0.8378428
6	0x3f525ce2	0.8217298
7	0x3f5da32b	0.865771
8	0x3f553523	0.83284205
9	0x3f5e9ce9	0.86958176
10	0x3f540611	0.82821757
11	0x3f5eeca9	0.87079865
12	0x3f4c8b1b	0.7989976
13	0x3f63c4d8	0.88972235
14	0x3f5cf645	0.8631328
15	0x3f6d079b	0.9258973
16	0x3f640318	0.8906722
17	0x3f5bc955	0.85854083
18	0x3f58fad0	0.8475771
19	0x3f51e61d	0.8199175
20	0x3f584c49	0.844914
21	0x3f572514	0.8404095
22	0x3f606b02	0.8766328
23	0x3f5b0d4a	0.8556715
24	0x3f577359	0.8416038
25	0x3f561268	0.83621836
26	0x3f588f9e	0.8459414
27	0x3f501164	0.81276536
28	0x3f618a70	0.88101864
29	0x3f55c243	0.83499545
30	0x3f517606	0.81820714
31	0x3f5b7ae8	0.85734415

bn1.bias f4 [32]
0	0x3d472151	0.048615757
1	0xbd4a5ddc	-0.049405918
2	0xbd13c489	-0.036076102
3	0x3c40f00a	0.01177598
4	0x3d78df8c	0.060760066
5	0x3c0f0f17	0.008731625
6	0x3d1d33f4	0.038379624
7	0xbd31cbff	-0.043407436
8	0xbd35daeb	-0.04439823
9	0x3d8f560d	0.06998835
10	0xbce4696e	-0.027882304
11	0x3c952c75	0.018209675
12	0xbca90b0f	-0.020635156
13	0x3d03598f	0.03206783
14	0xbcd74a4b	-0.026280543
15	0x3d267495	0.040638525
16	0x3d850660	0.064953566
17	0x3cf38b2c	0.029729448
18	0x3d1c949c	0.038227662
19	0x3caefe2d	0.021361435
20	0xbc0c825d	-0.008576003
21	0x3cd6717f	0.026177166
22	0xbcb52242	-0.022111062
23	0x3cc373bc	0.023858897
24	0x3db0cac2	0.08632423
25	0xbd85a818	-0.06526202
26	0x3d1b0357	0.037844982
27	0xbd230c08	-0.039806396
28	0xbce2472f	-0.027621834
29	0x3d549f16	0.05190953
30	0xbd291802	-0.04128266
31	0x3a9cf696	0.0011975344

bn1.running_mean f4 [32]
0	0xbcac3f80	-0.021026373
1	0x3d0d0ba8	0.034434944
2	0x3cb6cec1	0.022315385
3	0xbd77d0f6	-0.060502015
4	0xbd93f7b8	-0.07224983
5	0xbcdd4449	-0.0270101
6	0xbdd50355	-0.10401026
7	0x3d5eb3cb	0.054370683
8	0x3db7152e	0.089395866
9	0xbe01724a	-0.12641254
10	0xbd31e4dd	-0.04343115
11	0xbd07de8c	-0.03317122
12	0xbdbd51cd	-0.09244118
13	0xbddc924b	-0.10770091
14	0xba8e4094	-0.0010852986
15	0xbe00e860	-0.12588644
16	0xbdd7150a	-0.1050206
17	0xbd93a12f	-0.07208478
18	0xb99b3dea	-0.00029610033
19	0xbd961176	-0.07327549
20	0x3c66efdb	0.014095272
21	0xbc784513	-0.015153187
22	0x3d25986e	0.04042857
23	0x3d3a2965	0.045449633
24	0xbd8d8cd2	-0.06911625
25	0x3d877e66	0.066159055
26	0xbd2bddcb	-0.041959565
27	0xbcae620e	-0.02128699
28	0xbc0cfb8a	-0.008604893
29	0xbcbec212	-0.0232859
30	0x3cc61db0	0.024184078
31	0x3de082e7	0.10962468

bn1.running_var f4 [32]
0	0x3cfea252	0.03108326
1	0x3d0f92dc	0.035052165
2	0x3cbc2ad0	0.022969633
3	0x3d141a7d	0.036158074
4	0x3ca3a46c	0.019975863
5	0x3cce7fb0	0.02520737
6	0x3ce51a7b	0.027966728
7	0x3ce74bd2	0.028234396
8	0x3caa54fd	0.020792479
9	0x3cd1da40	0.025616765
10	0x3d02e881	0.031960014
11	0x3cf132f5	0.029443244
12	0x3d201b42	0.039088495
13	0x3cde2530	0.027117342
14	0x3cfc7e19	0.030821847
15	0x3cde3ef0	0.02712962
16	0x3cc6f1d5	0.024285236
17	0x3c9a4561	0.01883191
18	0x3cb1ab72	0.021688197
19	0x3d10902c	0.035293743
20	0x3cbfd15e	0.023415264
21	0x3c814d89	0.015784042
22	0x3c392bcf	0.011301949
23	0x3bf2bba1	0.007407621
24	0x3c613027	0.013744391
25	0x3cada56d	0.021197045
26	0x3cb1e5bc	0.021715991
27	0x3ce24511	0.027620824
28	0x3cd4bc72	0.025968764
29	0x3cc056c6	0.023478877
30	0x3c91f20f	0.017815618
31	0x3ccf68af	0.025318472

bn2.weight f4 [64]
0	0x3f56ea7d	0.8395155
1	0x3f591ef6	0.8481287
2	0x3f664efb	0.89964265
3	0x3f52892a	0.82240546
4	0x3f6005ba	0.8750874
5	0x3f58c5a0	0.8467655
6	0x3f5db058	0.86597204
7	0x3f66ebdd	0.9020365
8	0x3f4e12bf	0.80497354
9	0x3f5f6202	0.87258923
10	0x3f5aaf6f	0.8542394
11	0x3f65c519	0.8975387
12	0x3f65b6d1	0.8973208
13	0x3f6a72d5	0.9158147
14	0x3f6598a3	0.8968603
15	0x3f5c13ee	0.8596791
16	0x3f5ea5c1	0.8697167
17	0x3f4c1f0f	0.7973489
18	0x3f6dcb31	0.9288817
19	0x3f5cb677	0.8621592
20	0x3f547eb2	0.8300582
21	0x3f64b9cf	0.8934602
22	0x3f3e7791	0.74401194
23	0x3f4fe3b9	0.8120685
24	0x3f672d59	0.9030357
25	0x3f719e7e	0.94382465
26	0x3f74be33	0.9560272
27	0x3f5c661a	0.86093295
28	0x3f5dbce5	0.86616355
29	0x3f72974e	0.9476212
30	0x3f517252	0.81815064
31	0x3f5a104a	0.85181105
32	0x3f623fd9	0.88378674
33	0x3f56de21	0.8393269
34	0x3f556d59	0.83369976
35	0x3f671536	0.9026674
36	0x3f66e072	0.90186226
37	0x3f5e376d	0.86803323
38	0x3f614a67	0.88004154
39	0x3f5bd295	0.858682
40	0x3f7a45f4	0.9776299
41	0x3f6a5819	0.91540676
42	0x3f781a98	0.9691558
43	0x3f5d8156	0.86525476
44	0x3f52ceda	0.8234688
45	0x3f5bcab0	0.8585615
46	0x3f4d4baf	0.8019361
47	0x3f4b8266	0.7949585
48	0x3f7c02f1	0.9844199
49	0x3f613487	0.87970775
50	0x3f546559	0.82967144
51	0x3f614ec4	0.8801081
52	0x3f7140c6	0.9423946
53	0x3f5ed55c	0.8704431
54	0x3f6cfe81	0.9257584
55	0x3f6a9a9b	0.9164216
56	0x3f650734	0.89464116
57	0x3f5b1b92	0.85588944
58	0x3f52e221	0.82376295
59	0x3f73f7e3	0.9530012
60	0x3f622d2b	0.8835017
61	0x3f804457	1.0020856
62	0x3f5c85c3	0.86141604
63	0x3f662bac	0.8991039

bn2.bias f4 [64]
0	0x3ceee117	0.029160066
1	0x3cd6b8b6	0.026211124
2	0x3ddd7f6c	0.108153194
3	0xbbb0571d	-0.0053814785
4	0x3db3b5d3	0.087749146
5	0x3d292c28	0.041301876
6	0xbce59c03	-0.028028494
7	0x3d4d71df	0.050157424
8	0x3c63f908	0.013914354
9	0xbca75507	-0.020426286
10	0xbc6c82aa	-0.01443545
11	0x3dc175e9	0.09446318
12	0x3cc22afb	0.023702135
13	0x3dfc8f3e	0.12332009
14	0xbcf6a113	-0.030106103
15	0xbd147a54	-0.036249474
16	0xbc98335d	-0.01857918
17	0x3d4bffa6	0.049804352
18	0x3c9183d0	0.017763048
19	0x3cd17dbf	0.025572656
20	0xbb092d89	-0.0020931682
21	0x3dad49d7	0.084613495
22	0x3d235bd1	0.039882485
23	0xbc9c4878	-0.019077525
24	0x3e1d5868	0.15365756
25	0x3de1791f	0.1100943
26	0x3e0d63f9	0.13807668
27	0x3b1802d7	0.0023195052
28	0xbd475442	-0.04866434
29	0x3d23f6e1	0.040030364
30	0xbcae52a7	-0.021279646
31	0x3d1e1bc8	0.038600713
32	0xbd0d61e2	-0.034517176
33	0xbcdfb32b	-0.027307114
34	0xbd71b320	-0.059008718
35	0xbd2f48a6	-0.042793892
36	0x3e06a861	0.13150169
37	0xbd484859	-0.04889712
38	0x3d934904	0.07191661
39	0xbc85f748	-0.016353264
40	0x3d6d5233	0.05793972
41	0x3db01928	0.08598548
42	0xbbcbad24	-0.0062157083
43	0xbcab5588	-0.020914808
44	0x3c0876ce	0.0083291065
45	0xbc5702ee	-0.013123257
46	0x3e102ea6	0.14080295
47	0xbcc8afe4	-0.024497934
48	0x3e081733	0.132901
49	0x3d1880a5	0.03723206
50	0xbd538526	-0.051640652
51	0x3d2233a2	0.039600022
52	0xbbd0ab28	-0.0063680597
53	0xbda04425	-0.078254975
54	0x3e354e3b	0.17705624
55	0x3e1669b4	0.1468876
56	0x3de716a5	0.11283616
57	0x39eb5b5c	0.0004489076
58	0xbd94631f	-0.07245468
59	0xbd7076c1	-0.058707003
60	0xbcdc03ef	-0.026857344
61	0x3e24151f	0.16023682
62	0xbd02ceb3	-0.031935405
63	0xbd764dbb	-0.060132723

bn2.running_mean f4 [64]
0	0xbe4afae5	-0.19822271
1	0xbcb7b18c	-0.022423528
2	0xbe2532e9	-0.16132702
3	0x3d2a62f6	0.041598283
4	0xbeb69139	-0.3565767
5	0xbe2393dd	-0.15974374
6	0x3d75f025	0.060043473
7	0xbec3744c	-0.38174665
8	0x3e3da1d6	0.18518767
9	0xbe2d1c0f	-0.16905235
10	0x3d1999ee	0.037500314
11	0xbe7c0771	-0.24612214
12	0xbdfb70b9	-0.122773595
13	0x3d0da28e	0.034578852
14	0xbce87dba	-0.028380264
15	0xbd844382	-0.064581886
16	0xbd19f12d	-0.03758352
17	0xbe832d50	-0.25620508
18	0x3c406208	0.0117421225
19	0xbeb27657	-0.3485591
20	0xbe869e74	-0.26292765
21	0xbddf032f	-0.10889279
22	0xbe873a1a	-0.26411515
23	0x3d2ab277	0.041674104
24	0xbe4502c5	-0.19239338
25	0xbe9079bf	-0.28217885
26	0x3c13207f	0.008979916
27	0xbb9edc17	-0.004848014
28	0x3d6e1442	0.058124788
29	0xbe044a7c	-0.12919039
30	0xbd2e22da	-0.042513706
31	0xbe558109	-0.20850004
32	0xbd3367b9	-0.04380009
33	0x3d3b7973	0.04577012
34	0xbcca0346	-0.024659764
35	0x3d49e616	0.049291693
36	0xbe830cd0	-0.25595713
37	0x3cdd41c9	0.027008908
38	0x3ccf03ad	0.025270307
39	0x3dbbcbc8	0.091697276
40	0xbea64728	-0.32476163
41	0xbe5b73d9	-0.21430911
42	0xbe799d4c	-0.2437641
43	0xbc8afa56	-0.016965073
44	0xbc714782	-0.014726521
45	0xbebc838e	-0.36819118
46	0x3c094c73	0.008380043
47	0xbe064d63	-0.13115458
48	0x3c67c4f5	0.014146079
49	0xbd756f11	-0.059920374
50	0xbd0be43a	-0.0341532
51	0xbeba7743	-0.36419114
52	0xbdc3eaef	-0.095662944
53	0xbe6bff59	-0.23046626
54	0xbe4eaace	-0.20182344
55	0xbe71fe82	-0.23632243
56	0xbe263c52	-0.16233948
57	0xbe2496da	-0.1607317
58	0x3d355bee	0.044277124
59	0xbe1cb569	-0.15303577
60	0xbe2f06a3	-0.17092375
61	0xbe1a76f7	-0.15084444
62	0xbe447fee	-0.19189426
63	0xbe0fb9c9	-0.14035715

bn2.running_var f4 [64]
0	0x3cd50a3f	0.026005862
1	0x3d023eda	0.03179822
2	0x3db123b5	0.08649389
3	0x3d1098d4	0.035302
4	0x3d530f82	0.05152846
5	0x3d04d570	0.032430112
6	0x3d988538	0.074472845
7	0x3d8853d3	0.06656613
8	0x3caf174f	0.02137342
9	0x3cab9b0c	0.020947956
10	0x3c9d89eb	0.019230803
11	0x3d5edf18	0.054411978
12	0x3d2e89b3	0.04261179
13	0x3cc5d698	0.024150178
14	0x3d413eb0	0.047178924
15	0x3cd9ef73	0.026603436
16	0x3d264bde	0.040599696
17	0x3d0d5a22	0.034509785
18	0x3d31ccd9	0.04340825
19	0x3d2b9fc7	0.041900422
20	0x3d3ed8b2	0.046593376
21	0x3d31042c	0.04321687
22	0x3d276dd7	0.040876236
23	0x3d24fab6	0.04027816
24	0x3d3d0af2	0.046153016
25	0x3d8f84e7	0.07007771
26	0x3cac36c2	0.021022204
27	0x3d4ea693	0.050451826
28	0x3d37e8eb	0.044899862
29	0x3d46e2bc	0.048556075
30	0x3cd6e56b	0.026232442
31	0x3ccd70f0	0.025078267
32	0x3cb3c326	0.02194364
33	0x3cab88b0	0.020939201
34	0x3cfe7d76	0.031065684
35	0x3cc1ae69	0.023642736
36	0x3d5ad04f	0.053421315
37	0x3d002fb5	0.031295497
38	0x3d356acc	0.044291303
39	0x3d02db57	0.03194746
40	0x3d30fc5e	0.043209426
41	0x3d173ba5	0.036922116
42	0x3d160394	0.036624506
43	0x3d5f63fc	0.054538712
44	0x3cbab667	0.022792054
45	0x3d4793b1	0.048724834
46	0x3cef3a85	0.029202709
47	0x3cf8dbff	0.03037834
48	0x3ce87509	0.02837612
49	0x3db1fa50	0.086903214
50	0x3d119e7d	0.035551537
51	0x3df38555	0.118906654
52	0x3d04338c	0.03227572
53	0x3d17f94e	0.03710299
54	0x3d338ff0	0.04383844
55	0x3d6176e0	0.05504501
56	0x3d38208a	0.044952907
57	0x3d149d60	0.036282897
58	0x3d0683c8	0.03284052
59	0x3cb2764b	0.021784922
60	0x3d197a19	0.037469957
61	0x3cf0eaf0	0.029408902
62	0x3d560f83	0.052260887
63	0x3ca5f82a	0.020259935

output_conv.weight f4 [10, 64, 1, 1]
0	0x3dd3f04f	0.103485696
1	0x39936ce1	0.00028119146
2	0x3d948005	0.0725098
3	0xbd84708e	-0.064667806
4	0x3dbb93c4	0.091590434
5	0x3d36d38a	0.044635333
6	0xbdedcdb8	-0.11611503
7	0x3dff148f	0.12455093
8	0x3d322d16	0.04350003
9	0x3d960f15	0.073270954
10	0x3bb95867	0.0056562903
11	0x3e109943	0.14120965
12	0x3de20ffe	0.110382065
13	0x3d948481	0.072518356
14	0xbd8b1c43	-0.067925
15	0xbd0d242f	-0.034458335
16	0xbd9ba98f	-0.076007
17	0x3e200dc5	0.15630253
18	0xbc9893a6	-0.018625092
19	0x3e014dde	0.1262736
20	0x3de53509	0.11191756
21	0x3d87535a	0.06607695
22	0x3e06bd1b	0.13158076
23	0x3db95181	0.09048749
24	0x3dbfde8e	0.09368621
25	0x3dee043b	0.11621901
26	0x3d38774f	0.045035657
27	0x3cee904d	0.029121542
28	0xbdee90bf	-0.11648702
29	0x3e217f8e	0.15771315
30	0x3cbce2ef	0.02305743
31	0x3cd3cf20	0.0258556
32	0x3c648145	0.013946836
33	0x3b4352ff	0.0029804108
34	0xbd45e268	-0.04831162
35	0xbd4585e0	-0.048223376
36	0x3df9de28	0.12200576
37	0xbe084281	-0.13306619
38	0xbc5a4afd	-0.013323543
39	0x3d5dd8e5	0.054161925
40	0x3daf2733	0.085523985
41	0x3e01aeac	0.12664288
42	0x3d9f6276	0.07782452
43	0xbda6d91a	-0.081468776
44	0x3d3a1fcb	0.045440476
45	0x3e1a714c	0.15082282
46	0x3ca4479d	0.02005368
47	0x3d9a347f	0.07529544
48	0x3ddcf220	0.10788369
49	0xbd894167	-0.06701928
50	0x3dcc93e7	0.09989148
51	0x3e06e60f	0.13173698
52	0x3ddb2ecd	0.10702286
53	0x3c7523c6	0.014962142
54	0x3d4bbb12	0.04973895
55	0x3d203f00	0.03912258
56	0x3d42428d	0.04742675
57	0x3cc12976	0.02357934
58	0xbca1e47b	-0.019762268
59	0x3d93a236	0.07208674
60	0x3c8f0d9d	0.017462546
61	0x3dc24084	0.09484962
62	0xbbc1fa72	-0.005919748
63	0x3d53576e	0.05159705
64	0x3d4d29ca	0.05008868
65	0x3c94ec6d	0.018179143
66	0x3dacf67c	0.08445451
67	0xbe10b051	-0.1412976
68	0xbc59e53b	-0.013299282
69	0x3dbfb34e	0.093603715
70	0x3ccbbfc2	0.02487171
71	0x3cc5558d	0.024088645
72	0x3df18a59	0.11793966
73	0xbde06e75	-0.10958568
74	0x3c86f803	0.016475683
75	0x3cb6ceeb	0.022315463
76	0x3b574dbf	0.0032852737
77	0x3dc5ab0c	0.09651765
78	0xbdfae3d6	-0.122504875
79	0x3d56b18f	0.052415427
80	0xbe0686a0	-0.13137293
81	0x3d0bf89c	0.03417264
82	0xbe5e083e	-0.21682832
83	0xbd79843f	-0.060917135
84	0x3db66def	0.08907687
85	0xb9bd69d3	-0.00036127734
86	0x3ce5499a	0.027989198
87	0x3d8f2f75	0.069914736
88	0x3ccc91bb	0.024971833
89	0x3d6d59b7	0.057946887
90	0x3d3b6d23	0.045758378
91	0x3d3c259a	0.045934297
92	0xbe047fcc	-0.12939376
93	0x3dd2e626	0.102978036
94	0xbe23354e	-0.15938303
95	0xbc0ac6fe	-0.008470295
96	0xbd093b62	-0.033503897
97	0x3d365ecd	0.044524003
98	0xbde38942	-0.11110164
99	0x3d9665c3	0.07343628
100	0x3d82b068	0.06381303
101	0xbcf9e704	-0.030505665
102	0x3c91fbed	0.017820323
103	0xbe1b0bec	-0.15141267
104	0x3c9d0e57	0.019171877
105	0x3d9cbfb9	0.07653756
106	0xbe148954	-0.14505512
107	0xbdcf0397	-0.101081066
108	0x3d81ced6	0.06338279
109	0x3c3260f8	0.010887377
110	0xbcdc9f60	-0.026931465
111	0x3d35708f	0.044296797
112	0x3e17fa74	0.14841634
113	0xbda5b13f	-0.08090448
114	0xbd8015e3	-0.062541746
115	0x3d17f09e	0.037094705
116	0xbd96c2be	-0.07361363
117	0x3cb61c13	0.022230184
118	0x3c795ba7	0.0152196055
119	0x3d41fc72	0.04735989
120	0x3dbc5eec	0.091977924
121	0xbd195256	-0.037432037
122	0xbdfea8e1	-0.12434555
123	0xbe286d6a	-0.16447988
124	0xbe1858cf	-0.14877628
125	0x3d6ef208	0.058336288
126	0xbdd8b72d	-0.10581813
127	0xbe2566a8	-0.16152442
128	0x3d0864cf	0.033299264
129	0xbc240a80	-0.010012269
130	0x3c597fab	0.013275067
131	0xbd6f3f54	-0.058410004
132	0xbd82e325	-0.06390981
133	0x3d6eeee5	0.058333296
134	0x3cd56b32	0.026052091
135	0xbc297703	-0.010343316
136	0x3cbb20cb	0.022842785
137	0xbdcff49b	-0.10154077
138	0x3d8c6aab	0.06856283
139	0x3dab2429	0.083565064
140	0x3c19d096	0.00938811
141	0x3e071158	0.1319021
142	0xbe784a57	-0.24247108
143	0x3d3a5a15	0.045496065
144	0xbe56b91d	-0.20969053
145	0x3d2fe834	0.042946056
146	0xbe80f56e	-0.25187248
147	0xbd885e8c	-0.066586584
148	0x3d35cd57	0.04438528
149	0x3d97819d	0.07397769
150	0x3db8a50f	0.090158574
151	0xbe03115b	-0.1279959
152	0x3d7f7fdd	0.0623778
153	0x3da2025c	0.07910606
154	0x3d9fde8a	0.07806118
155	0x3d83639f	0.064154856
156	0xbbd03190	-0.0063535646
157	0x3e0d67a4	0.13809067
158	0xbdba9b32	-0.091116324
159	0xbc121004	-0.008914951
160	0xbd07accf	-0.033123787
161	0xbda01cff	-0.078180306
162	0x3d6ae6d4	0.05734904
163	0x3d34ff48	0.044188768
164	0x3d5dac61	0.05411947
165	0xbcfe9a5b	-0.031079462
166	0x3db5026e	0.08838354
167	0xbe3332a6	-0.1749979
168	0x3cb6a9c2	0.022297744
169	0x3ddf71ed	0.109104015
170	0xbe1aad80	-0.15105247
171	0xbd1cd0ea	-0.038285173
172	0x3c6bdec6	0.014396375
173	0xbb863147	-0.00409523
174	0x3d2c3cc8	0.042050153
175	0xbdb1698c	-0.086627096
176	0x3e236f75	0.15960486
177	0xbe09120e	-0.13385794
178	0x3d147d43	0.03625227
179	0x3daeb9fc	0.085315675
180	0xbd9ad9ea	-0.07561095
181	0xbda35cc7	-0.0797668
182	0x3cc4eef3	0.024039721
183	0x3c100ac5	0.00879163
184	0x3c3d9450	0.011571005
185	0xbcb8c3c7	-0.022554291
186	0xbd17b876	-0.03704115
187	0xbe1f7d0c	-0.15575045
188	0x3d00e975	0.031472642
189	0x3da047a7	0.078261666
190	0xbd96e579	-0.07367987
191	0xbdc373d6	-0.09543578
192	0x3dbe4a60	0.0929153
193	0x3d7fe835	0.06247731
194	0x3d3d6af5	0.04624458
195	0xbdd89c08	-0.105766356
196	0x3d9f2e61	0.07772518
197	0x3dc99705	0.09843258
198	0xbe0928f6	-0.13394532
199	0x3d25fdea	0.040525354
200	0xbc07da07	-0.008291728
201	0x3d2fe8d2	0.042946644
202	0x3d2cf4af	0.042225536
203	0x3daa00f6	0.083009645
204	0xbc17d808	-0.009267814
205	0x3d5e63be	0.05429434
206	0xbd7b8448	-0.06140545
207	0xbe47a738	-0.19497383
208	0xbde679cd	-0.112537004
209	0x3d43829f	0.04773199
210	0xbe08068e	-0.1328375
211	0x3c0e440e	0.008683218
212	0x3cddfa57	0.02709691
213	0x3c7640c7	0.015030093
214	0xbc9b3114	-0.0189443
215	0xbe071167	-0.13190232
216	0x3db3e4bb	0.08783861
217	0x3d96f450	0.07370818
218	0xbc0aaef2	-0.008464562
219	0x3da8fd67	0.08251458
220	0x3cf8e2e9	0.030381637
221	0x3dbed942	0.093187824
222	0xbe007919	-0.12546195
223	0x3cef6fb3	0.029228067
224	0x3c950524	0.018190928
225	0xbd71bea2	-0.059019692
226	0xbcd0fb39	-0.025510417
227	0xbd6f5f1f	-0.058440324
228	0x3dc8d219	0.09805698
229	0x3cf3ecd3	0.029776013
230	0x3cd34b3b	0.025792709
231	0xbdac3d0f	-0.084100835
232	0x3d8e197b	0.06938454
233	0x3d6e8e62	0.058241256
234	0xbd2221e4	-0.039583102
235	0xbdfdc243	-0.12390568
236	0x3d254a40	0.040354013
237	0x3e15cf54	0.1462987
238	0x3d24a19a	0.040193178
239	0xbd8984ff	-0.0671482
240	0x3dd4f9bd	0.10399196
241	0xbe16d52b	-0.14729755
242	0xbd391030	-0.045181453
243	0x3c959e3a	0.018263925
244	0xbe24fba7	-0.16111623
245	0xbe15a57f	-0.14613913
246	0xbb837f4b	-0.0040129772
247	0x3cc2c597	0.023775859
248	0x3d0c2fe6	0.034225367
249	0xbd4bebb9	-0.04978535
250	0xbe1dacd1	-0.15397955
251	0xbe107b77	-0.14109598
252	0xbdcb9d69	-0.09942133
253	0x3df6ee38	0.12057155
254	0xbdce7c96	-0.10082357
255	0xbd95fae3	-0.073232435

output_conv.bias f4 [10]
0	0x3dea451d	0.114389636
1	0xbd0177c9	-0.031608377
2	0xbdd56b3b	-0.10420843
3	0xbdac5b01	-0.08415795
4	0x3cfb43c1	0.030671956
5	0x3d9eaa9f	0.07747387
6	0xbde34e0a	-0.11098869
7	0xbd94193c	-0.072313756
8	0xbde973c9	-0.113990374
9	0x3d2b03f9	0.041751835
