training/trained_models/model_living_pulsing.pth (torch, 905904 bytes, 20 tensors)

conv1.weight f4 [64, 2, 3, 3]
00000000: e653 3cbe 5e2e db3d 261f c9bd 7fa4 34be
00000010: cbad 533d fa07 a3bd 91e1 6ebc 4fbf 83bb
00000020: 422f ef3c 0bf5 23be c076 393e f9c1 a2bd
00000030: 3c27 cbba 9bed 323e afad 21be 77b4 3a3e
00000040: 0b03 02bb 11e5 27be c117 efbd 6250 17be
00000050: 3e4b 2d3e ae81 163e 7d15 623e fd1e 4b3e
00000060: 7942 7abc 7ab7 01bd 02e7 92bd 785a 52be
00000070: 4bde 6fbe 13cb bdbc ec39 8bbd b585 a2bd
00000080: a3db cd3d cc4a e83c 41b7 eabd 92fe 03bd
00000090: 4669 0c3e 68a1 533e 1591 083e fbf2 a93d
000000a0: fa79 c9bd 6451 87bd 6f69 313e 09f3 653d
000000b0: e668 1abe b92c 6f3e 8039 5cbe ac15 363e
000000c0: b49a 69be 4139 0cbe e47d 2c3e b184 03be
000000d0: d4e4 143c 9466 05bd c778 fe3c 8c7a 81bd
000000e0: e0c3 f63d 75af a0bd daba 4ebe 5d3c 243e
000000f0: 86f1 2e3d 18f7 513d ba39 1ebd c552 88bd
00000100: bac7 0abd db40 a4bd a81c 3dbc 7a4c 233e
00000110: 39ce babc 67c3 0a3e 389b 0c3e 4cae ab3d
00000120: caa5 57bd 8554 a83d b3ee 443e de20 15bc
00000130: 0c07 bcbd 2626 28be f62a fbbd 50f2 3a3e
00000140: a17e 43be 2b21 88bd c8dd 3cbe a9c8 9bbd
00000150: 991d d93d 9320 6e3e 4c95 55be f6c2 613d
00000160: ca1b 41be cc81 f9bd 7702 18bd 95d1 3d3e
00000170: 2c26 d33d 3bb4 73be a093 d63d 0d17 503e
00000180: 3f6d 9cbd 0bc8 503c 2e83 febd cc8d 883d
00000190: 3a1d a63d cfd7 f1bd be60 583e c409 0a3e
000001a0: 2b61 423e 358c 473e 2de9 5bbe 411d 833d
000001b0: a576 7cbc 25cf 123e ac7e 233e 4863 563e
000001c0: e2c7 5e3e aea6 663e 8684 91bd dfba 81bd
000001d0: 7088 f1bc d5b2 24be 98da 32be 270c 203e
000001e0: 5873 17be baa1 34be c297 663e 919c d13c
000001f0: 3282 0abe 2805 d03d e438 48be 48c6 573d
00000200: f851 e93d cf8f 5ebd cc44 a73d 8a4d 1abe
00000210: eb3a 243d 5eb5 4a3e 1615 55be 0df8 293b
00000220: ea4a 6c3e 33fb 2d3e f56b 2a3e fce0 8f3d
00000230: c1e9 78bd 0dcc bf3d 8c96 11be e0b3 5a3e
00000240: 5cd6 4dbe b881 38be ecc1 873d af12 1d3e
00000250: a333 bc3d 4b3e 003e 7e8c 2d3d 6de8 1f3c
00000260: 6f7e 333e 5004 0d3e a542 26bb e6ed 09be
00000270: 6bff 22be 4f73 04be 34d2 3dbd f0c1 643e
00000280: fb2d 17be 983b 2c3e a82a c2bd 30fd d5bd
00000290: 4fad d33c c1c6 6d3e 2526 303e 1c70 313e
000002a0: 0823 f23d b510 b6bd 05b6 d0bd 93c0 e23d
000002b0: 9e4c 98bd a5aa c0bc 5683 65be 0cd3 3fbe
000002c0: dec6 95bb 6088 53be 05dc ef3d dec9 863b
000002d0: 1216 103e 4a1d ebbd d962 fa3d 2627 48be
000002e0: 271b 643e 3584 fe3c 3394 4a3d b906 1ebe
000002f0: 124f 193e ecc8 1dbe b9d1 68be 01ee c4bd
00000300: b707 40bc 789e 223d a6bf 0ebe 2756 2fbe
00000310: 9163 d73d d9b0 ddbd ead9 253d 81b2 ba3d
00000320: 8400 edbd c183 5b3e dba5 683e e810 43be
00000330: 2d95 a1bd d2d5 5d3e f638 a43d cfe0 9cbd
00000340: 90ea c83d 5a6b 3e3e 14bd dfbd 4dcf 6c3d
00000350: 5797 56be f333 b8bd f711 873d f775 1ebe
00000360: f354 bebd a883 61be 743b ce3d b6a8 ff3c
00000370: d167 69be 76ff 1e3d 0a8c cebd e3e4 4bbd
00000380: 3bab 31be 2072 843d 306a 6ebe 1f89 133e
00000390: 4232 783b 421a f03d 7f23 46be 28ba 3a3d
000003a0: c421 54be 4111 17be c4f8 1f3e fec2 e03d
000003b0: 462e ed3d dddc 503e 6c03 903d 4ddb 213e
000003c0: 4351 673c 803c 1d3e 96f9 0c3e 4e35 37be
000003d0: 9679 c7bd 1a00 49bd 2e6f 353e 2fc8 273e
000003e0: 8748 fc3d 9d52 153e b5cc 51be 728e 693d
000003f0: 22bd 8bbd 9212 953d 9078 5dbe db4e d5bc
-0.1839138 0.10702203 -0.09820394 -0.17640875 0.051679414 -0.07960506 -0.014580146 -0.0040206085
0.029197339 -0.16011445 0.18111706 -0.079471536 -0.0015499364 0.17473452 -0.15788911 0.18232904
-0.001983824 -0.16395976 -0.116744526 -0.14776757 0.16923234 0.14697906 0.2207851 0.1983604
-0.015274637 -0.031669118 -0.071729675 -0.20542324 -0.23424642 -0.023168122 -0.06798157 -0.07935659
0.10051658 0.028355978 -0.11460734 -0.0322252 0.13712034 0.2066704 0.13336594 0.08298298
-0.09837718 -0.06607321 0.17325376 0.05613998 -0.15079078 0.23356904 -0.2150631 0.17781705
-0.22812921 -0.13693716 0.16844898 -0.12843587 0.00908776 -0.03256853 0.03106345 -0.06322202
0.12049079 -0.07845966 -0.20188466 0.16038652 0.042710803 0.051261038 -0.03862927 -0.06656412
-0.03388188 -0.08020183 -0.011542477 0.15947142 -0.022803413 0.13551103 0.13731086 0.08382854
-0.052648343 0.08219246 0.19231682 -0.009102074 -0.091810316 -0.16420802 -0.122640535 0.18256497
-0.19091274 -0.06646951 -0.18443978 -0.07606632 0.106013484 0.23254614 -0.20857733 0.05511757
-0.18858257 -0.1218296 -0.037111726 0.1853698 0.10310015 -0.23799221 0.10477376 0.20321293
-0.076380245 0.012743006 -0.12427364 0.066676706 0.08111043 -0.1180874 0.21130654 0.13480288
0.18982379 0.19487078 -0.21475668 0.06402064 -0.015409146 0.14336832 0.1596629 0.2093631
0.21755937 0.22524521 -0.07105355 -0.06334471 -0.029484004 -0.16083844 -0.174662 0.15629636
-0.14790094 -0.17639819 0.22518829 0.025587352 -0.13526228 0.101572335 -0.19552952 0.05267933
0.113925874 -0.054336365 0.08167419 -0.15068641 0.04009525 0.19795749 -0.20808825 0.0025935203
0.23075452 0.16990356 0.16642745 0.07025334 -0.0607698 0.093650915 -0.14217585 0.2135768
-0.20101303 -0.18018234 0.066287845 0.15339158 0.091895364 0.12523763 0.042370312 0.0097600045
0.175287 0.13771176 -0.0025369313 -0.13469657 -0.15917747 -0.12934612 -0.046343043 0.22339606
-0.14763634 0.16819608 -0.09480792 -0.10448682 0.025839476 0.2322035 0.17202051 0.17327923
0.11823088 -0.08889905 -0.101909675 0.11071887 -0.074364886 -0.02351887 -0.22413382 -0.18732852
-0.004570826 -0.20657492 0.11711887 0.00411342 0.14070919 -0.11480196 0.12225885 -0.19546184
0.22275983 0.0310689 0.04945774 -0.15432252 0.14971569 -0.15408677 -0.22736253 -0.09615708
-0.011720589 0.03970191 -0.13940296 -0.17122708 0.10517038 -0.10824747 0.040491022 0.09116078
-0.11572364 0.21436979 0.22719519 -0.19049418 -0.07889781 0.21663597 0.08018677 -0.07660066
0.09810364 0.18595639 -0.10924736 0.057814885 -0.20956169 -0.089942835 0.065952234 -0.15474688
-0.092935465 -0.22022879 0.100699335 0.031208377 -0.22793509 0.038817845 -0.10085304 -0.04977883
-0.17350475 0.0646708 -0.23282695 0.14407776 0.0037871753 0.11723758 -0.19349478 0.04558769
-0.20716006 -0.14752676 0.1562224 0.10974692 0.115810916 0.20396753 0.07031903 0.15806313
0.014118495 0.1535511 0.13767084 -0.17891428 -0.097399876 -0.049072362 0.17718193 0.16384958
0.12318521 0.14582296 -0.20488246 0.057020612 -0.068231836 0.07278933 -0.21628022 -0.026038578

conv1.bias f4 [64]
00000000: 7ea8 3e3d 80a1 57be c250 663e bdd0 53bd
00000010: d31b 5a3e 90f7 aebd cb5e 34bd c036 743c
00000020: c037 3f3e 0705 6ebe e1bb e53d f1d0 023e
00000030: ed9d 953d 9702 a6bd c1cf 163e df3b 213e
00000040: 287f 8e3d 4706 3bbe b734 013e e1db a83d
00000050: 7b49 28be a548 1f3d c684 e43d 4138 663e
00000060: 7ff0 dabd 1096 94bd f859 3abd 13f0 253e
00000070: 5db1 cfbd 33af e4bd f0d1 97bd 8ac9 91bd
00000080: 1b8f 4fbe 35b9 b93b e131 3f3e c089 c53b
00000090: 28d9 543d a369 1cbe da38 033e 24b0 223e
000000a0: f145 123e c944 d73c 6eab 29be 633f 52bd
000000b0: ee83 f03c d317 213e 92fc d7bd c1b3 d03c
000000c0: d2cc 79bd 53d5 67be 94a9 43be dbcd 983d
000000d0: 3680 3f3e 6307 d33d 53b0 a6bd 405b d3bd
000000e0: c657 4f3d 6e21 3ebe 124b 123e c40f 713e
000000f0: 8705 263d 1fac 9ebd 8300 31be 39e5 393c
0.046547405 -0.21057701 0.22491744 -0.05171274 0.21299677 -0.085433125 -0.044035714 0.014905632
0.1867361 -0.23244105 0.11217476 0.12775017 0.073055126 -0.08105963 0.1472769 0.15745495
0.06957847 -0.18264113 0.12617765 0.082450636 -0.1643428 0.03888764 0.11158137 0.22482397
-0.10690402 -0.07255185 -0.045495957 0.16204862 -0.10141251 -0.11166229 -0.07413089 -0.07118519
-0.20269434 0.0056678304 0.18671371 0.006028384 0.05196491 -0.15274672 0.12814656 0.15887505
0.14284493 0.026277917 -0.16569301 -0.05132998 0.029359784 0.15731744 -0.10546221 0.025476338
-0.060986347 -0.2263997 -0.19107658 0.07461139 0.18701252 0.10304143 -0.081391 -0.10320139
0.050620817 -0.1856744 0.1428645 0.2354117 0.040532615 -0.07747673 -0.17285351 0.011346155

bn1.weight f4 [64]
00000000: ce49 803f d2f7 7f3f 703a 7f3f 9d81 803f
00000010: 66dc 7f3f 36cc 7f3f 5395 7e3f 7a1d 803f
00000020: e8ce 7f3f dfde 7f3f 50ab 803f 11cc 7f3f
00000030: 81ce 7e3f 549b 7f3f 6bf2 7f3f a9ca 7f3f
00000040: 0c7d 803f 0255 803f a4ec 7f3f 9d64 803f
00000050: 720e 803f 770b 803f 2e59 803f 2da7 7f3f
00000060: c3b7 7e3f bd68 803f d72d 7f3f 6a25 803f
00000070: 633d 7f3f 1e45 7f3f d3bd 7e3f c799 803f
00000080: f12e 7f3f eec9 7f3f e57a 803f d887 7f3f
00000090: d705 803f fef5 7f3f f337 803f ef91 7f3f
000000a0: c489 803f f557 803f b72b 803f 20f6 7f3f
000000b0: e61b 803f 205c 7e3f 5331 7f3f 5abe 7e3f
000000c0: 9609 803f e4dd 7f3f 30c2 7f3f 0294 813f
000000d0: 1ac4 7e3f 9d11 803f 3204 803f f4c0 7e3f
000000e0: 2726 813f 5192 803f e8ab 7e3f f415 7f3f
000000f0: a26f 7e3f 4687 7f3f e2ff 803f c8fd 7f3f
1.0022523 0.9998752 0.99698544 1.0039555 0.99945676 0.99920976 0.994466 1.0008996
0.9992509 0.9994945 1.005228 0.99920756 0.9953385 0.99846387 0.99979275 0.9991861
1.0038161 1.0025942 0.9997046 1.0030705 1.0004408 1.0003499 1.0027215 0.99864465
0.9949915 1.0031964 0.9967932 1.0011418 0.99703044 0.9971484 0.995084 1.0046929
0.99681 0.99917495 1.0037504 0.99816656 1.0001782 0.9998473 1.0017074 0.9983205
1.0042043 1.0026842 1.0013341 0.9998493 1.0008514 0.9935932 0.9968464 0.99509203
1.0002925 0.99947953 0.9990568 1.0123293 0.9951798 1.0005375 1.000128 0.99513173
1.0089768 1.0044652 0.9948106 0.9964287 0.9938909 0.99815786 1.0078089 0.99996614

bn1.bias f4 [64]
00000000: f0c2 253b aaf7 99bb 1756 88bb 09de bb39
00000010: 2428 fa3a e4e9 673b 4225 2bbb f954 de39
00000020: aaa9 363b df29 5eba f970 e1ba 6a98 89bb
00000030: f514 19bb 82e4 98bb ecfc 25bb 948a 7f3a
00000040: 4127 97ba 1e4c 9aba d242 80b9 51a6 ffbb
00000050: 4e42 48bb 852e a9bb dbc9 3dba cccd acbb
00000060: 46b4 133a c60a 183b 1c4e eb3a 81f8 d5bb
00000070: 191a 0cbc cc2c dbbb 8378 903b f9a2 b83b
00000080: aa67 83bb 222b 98bb 6964 3bbb f02e 21bb
00000090: f0e1 33bc 4c90 2f3b 2308 d13a 0e60 04bc
000000a0: d587 333b e2e0 d7bb 8e1a b23b b07c ae3a
000000b0: 0739 de38 bc73 7abb b1c3 1fbb 78dd 46bb
000000c0: 475b 05b8 5501 e93b 7d07 7b39 0b93 ea3b
000000d0: b596 44bb 30f5 f1ba 76a2 71bb 518e 99bb
000000e0: 06fc 6a3b 0e20 7c3b 5b17 1a3b a14e 7235
000000f0: 8564 d93a b041 a0bb f6c3 863b 2d23 a53a
0.0025293194 -0.0046987133 -0.0041606533 0.00035832849 0.0019085449 0.0035387212 -0.0026114737 0.0004240645
0.0027872124 -0.0008474867 -0.0017199806 -0.0041990774 -0.0023358439 -0.004665912 -0.0025327755 0.0009748128
-0.0011532084 -0.0011771952 -0.00024463848 -0.007801809 -0.0030557099 -0.0051630163 -0.00072398566 -0.0052735563
0.0005634468 0.002319978 0.0017952356 -0.006529868 -0.008551144 -0.00668869 0.0044088974 0.005634662
-0.0040101605 -0.0046438137 -0.0028593785 -0.0024594627 -0.010979161 0.0026788888 0.001594786 -0.008079542
0.0027394195 -0.0065880874 0.0054352945 0.0013312306 0.00010596407 -0.0038215956 -0.0024378116 -0.0030344408
-3.179468e-05 0.0071107545 0.00023940015 0.007158642 -0.0029997055 -0.0018459912 -0.0036870516 -0.004686155
0.0035855784 0.0038471255 0.0023512456 9.0266445e-07 0.0016585743 -0.004890643 0.004112716 0.0012598984

bn1.running_mean f4 [64]
00000000: bc9c d03a daad 75bd cc96 903e 4049 e9bd
00000010: 400c 2d3e 6234 71bb fe66 4f3e cdb1 183d
00000020: bbd0 8a3e edb2 cabd 441e 333e 6393 9f3e
00000030: c9f6 fdbd 6126 283e 8aa1 563e 9816 6b3e
00000040: ab0b 2a3d 01c4 46bc b9e1 003e 648d 2d3e
00000050: cf80 9ebc bb48 8d3d b2b7 8e3d b77f 9d3e
00000060: 8c2d 7ebc 63b3 a23d 084c 253e 1a5f ac3d
00000070: 1e5b d1bd 022d 6fbe 1d06 b3be 93c1 24be
00000080: 469a 9e3c 8081 05bd 0f4c 3c3e cd07 0d3e
00000090: 8010 a0bd 1498 12be 7eeb d43d fce5 c93d
000000a0: 085e 0b3d f440 403e dc9d 78be b135 c8bd
000000b0: def1 883d 4326 81bd 4eab ed3d 7ccd 50bd
000000c0: 8edb 10be 032c 4abe a2d7 0fbe d57d e03c
000000d0: 9da3 bd3e d14f ca3d fbc7 09be 89f3 4bbe
000000e0: 4d8e 763d 5c21 83be d899 ad3d e0e0 e13d
000000f0: 15a4 553e 6f38 83be 7296 9bbe 862d 66bd
0.0015915851 -0.05998025 0.2824005 -0.113909245 0.16899204 -0.0036804904 0.20254132 0.03727894
0.27112374 -0.09897409 0.17492014 0.31167135 -0.12400586 0.1642089 0.2096006 0.22957838
0.041515034 -0.012131692 0.12586106 0.16948467 -0.01934853 0.06898638 0.06968631 0.307615
-0.015513789 0.079443716 0.16142285 0.08416577 -0.10222457 -0.23357013 -0.34965602 -0.16089468
0.019360673 -0.032594204 0.18388389 0.13772507 -0.07815647 -0.14315826 0.10396479 0.09858319
0.034025222 0.18774778 -0.24278969 -0.09775866 0.066867575 -0.06306126 0.116049394 -0.050977215
-0.14146253 -0.19743352 -0.14047101 0.027403751 0.3703889 0.09878505 -0.13455193 -0.1991712
0.060194302 -0.2561139 0.08476609 0.110292196 0.20863374 -0.25628993 -0.30388218 -0.05619576

bn1.running_var f4 [64]
00000000: fe50 1f3c c3a7 eb3c ecb4 e33c 9e35 9b3c
00000010: 18c8 823c e2ff 313d 30b6 3d3d 9d6a a03c
00000020: 89d6 d93c 915a c23c c807 d53c d4df 503d
00000030: 70d7 f73c e0e3 f53c c384 563c f92c 223d
00000040: f7c3 c73c c996 033d ea10 003d 9fe6 e83c
00000050: 5586 163d 51d6 143d 9df7 c93c 14d9 9e3c
00000060: a8fc 803d 79ce 8f3c 9949 3a3d a984 643c
00000070: 54c2 d03c b076 c83c 847e 423d 46a9 a73c
00000080: 0162 5a3d 529f ca3b 911e 193c 5e34 eb3c
00000090: a81e b03c 6058 fa3c d7b0 093d 8cbe db3c
000000a0: 4cc0 8c3c 74e3 df3c 9a54 e03c 9e01 523d
000000b0: 6d2c c23c 891f 903d 0642 063d e826 823c
000000c0: 90bd b43c 09bd 253c 9a96 a33b a9ab 663c
000000d0: 7ff3 013d 6547 ab3c 6a37 bb3c 0f66 d73c
000000e0: 2f3f a73c 86b6 6e3c 605d ae3c b89a c03c
000000f0: dd58 e33c b065 db3c fead 0f3d 167d 503c
0.0097239 0.028766518 0.027796231 0.018946465 0.015964553 0.04345692 0.046316326 0.019582087
0.026591556 0.023724826 0.026004687 0.05099471 0.030254096 0.030015886 0.013093176 0.03959367
0.024385436 0.03212622 0.03126613 0.028430281 0.036749203 0.0363372 0.024654204 0.01939062
0.0629819 0.017554509 0.045480344 0.013947644 0.025483288 0.024470657 0.047483936 0.020466458
0.05331612 0.0061835432 0.0093456665 0.028711494 0.021498993 0.030559719 0.033615913 0.026824258
0.017181538 0.027330138 0.027384091 0.051271074 0.023702824 0.07037265 0.03277781 0.015887693
0.022063047 0.01011587 0.0049923183 0.014079013 0.031726357 0.020908067 0.022853572 0.026293783
0.02041587 0.014569884 0.021284759 0.023511276 0.027752334 0.026781887 0.03507804 0.012725135

conv2.weight f4 [128, 64, 3, 3]
00000000: fff9 48bc f0d7 183d 24b9 713b ae36 91bc
00000010: e434 76bc 6f78 fdbc b92d 8439 0a51 2dbb
00000020: d950 ea3c 2ee7 30bd c940 023b 4d32 123d
00000030: 970a dc3c 0171 143d a5e6 623c ddac 41bc
00000040: a0f2 043d b49d 6bbc b417 c9bc 5ba6 adbc
00000050: c045 d4bc 66c4 b5bc d90e 913c 1abb 7fbc
00000060: 7aed 233d 4bf0 d13b aa3c 163d f4b0 ccbb
00000070: 4a92 6cbc f5c8 03bc 8da8 5239 5823 2e3d
00000080: b400 093c e49b 2c3d 3787 0b3d a5c2 0a3d
00000090: fd95 c6bb 7aac 1c3d 5915 12bd 84f3 a3bc
000000a0: eb3f e6bb 100c 0fbc 10fb 9bbc b449 ae3b
000000b0: 81bc c3bc a3df c5bc 05a7 20bb 28de b1bb
000000c0: 3f57 9f3b 0d4f 253d f85c c03c 9d52 9ebc
000000d0: 061f b7bc b7fb 973b 3e84 1bbd 139b 6b3c
000000e0: 02e7 e53c 06c8 223b 3812 1d3d 5ff0 2cbd
000000f0: 40bb edbb 7b68 d63b 7a91 3bbb 6c22 eebc
00000100: 98c2 2f3c 0033 dabb 50f3 023d 2002 ebbb
00000110: 5735 1c3d 7034 f6bb 7746 79bc af4c 08bd
00000120: 6772 033d 0abd b7bc 9117 29bd 656f 4c3c
00000130: a2eb ef3b 377b cb3c 4a09 953c 0be3 38bb
00000140: 0856 dc3c f7be a1bc 2b84 8bbc a3da fb3b
00000150: c25f d2bc 6113 db3c 55cd 06bd 829c a53c
00000160: a552 123d 3be7 dabc ba1b e23c 98af cabc
00000170: 8943 83b9 0e43 363d 09af 95bc e6a9 083d
00000180: fade e9bc bc79 22bd 0cee cd3c 6060 923c
00000190: 5989 f8bb 2663 193d fb37 abbc ad08 0c3d
000001a0: b55a 003d 2a13 1dbd 122d c13c 814f 253c
000001b0: 667a e3bc 1326 263d 9bff e13c c47b 303c
000001c0: 01ec 24bc b0a0 fd3c 25b6 db3c 270a d13c
000001d0: 274b b6bc 657a 253d ef73 103d 2c5d f5bc
000001e0: ea69 563c 547a 19bd adf2 8abc e8c1 f13c
000001f0: 4946 99bb 4e76 27bd 6de2 1a3d 6e0b 1b3d
00000200: f983 d0bc bdd5 f13c ffd2 9d3c 0736 ea3b
00000210: ac00 083d 8978 b33b 88b7 2bbd 4230 14bd
00000220: 617a c6bc daf4 923c 7505 ca3c 9258 29bc
00000230: 648b 0cbd 8997 4a3c 5b0c cebb e6d1 eb3c
00000240: 7621 62bc 2ef3 cabc aede 313c 8c40 84bb
00000250: 3067 0b3d e77c a5bc 0c8b e0bc 7fde 98bc
00000260: 9d97 bd3c 493f cfbc 268d 0c3c 4306 9e3c
00000270: 3b05 543b 8b7f 03bd c3f0 07bd ce4f 60bc
00000280: c49b 25bd 031b 29bd 36db 833c a5c5 0e3d
00000290: e322 08bd 58ea 27bc 37c6 f9bc 3338 883c
000002a0: 488b d9bc 64e0 1f3d 1ab5 14bc 1943 39bc
000002b0: 916a eebb 70af 193d e97a f9bc 99fd 41bc
000002c0: edc7 0e3b 40e5 17bc 57f5 07bd 675b 36bd
000002d0: 2f3d 0a3d 4147 d4bc c57a d5bc b048 f3bc
000002e0: 27f9 88bc 5b6c 8e3c 0147 1e3d 56c2 213b
000002f0: a3b9 18bd 20dc f83c 915c 493c 93d2 b23c
00000300: 73eb db3c e929 b53c 6055 143d 5f88 223c
00000310: f457 42bc 8669 dabc f1a1 39bd a3ea ef3c
00000320: b6b9 0bbd 7cdf c5bb 4b4a 8d3c bf51 8fbc
00000330: d13f 91ba 1d17 e5bc 0847 b6bc ffe0 ff3c
00000340: 00df 2dbc b2db 0e3d fd03 02bd be1d 943c
00000350: 4ab8 533c 3ed1 83bb 8e46 0f3d a8e2 d8bc
00000360: 8f03 e53b e4ef 233b 827a febc 34d0 e9bc
00000370: ce32 d9bc d05b 023d bc62 533c 28c6 363c
00000380: 98ef a0bc 88ab babb 4546 d2bc a316 843c
00000390: 011f 033c 2d97 95b8 9510 ddbc dd26 0ebd
000003a0: eec2 d93c 2364 cf3c d063 283c a8d1 0abd
000003b0: 217c 8ebc 9af5 30bd 2f43 b6bc a1bf 7138
000003c0: 1687 1bbc 7126 fabc dd48 0bbd 245f 9b3b
000003d0: 503b 693c cae4 b0bc 170b ac3c bc4b 56b9
000003e0: 53f9 243c 91e4 abbc 90a2 1dbd f5cf 29bc
000003f0: 43c4 db3a 8ea1 0a3d 2fcf ac3c bfda 9cbb
-0.012266635 0.03731531 0.0036884034 -0.017726269 -0.015027259 -0.030941216 0.00025211068 -0.0026446008
0.028603004 -0.04318922 0.001987504 0.0356925 0.026860518 0.03624058 0.013848935 -0.011820999
0.032457948 -0.014380861 -0.024547435 -0.021197489 -0.025912166 -0.022188377 0.017707275 -0.015608573
0.040021397 0.006406819 0.036678948 -0.0062466804 -0.014439175 -0.008043517 0.0002008995 0.042514175
0.008361984 0.042140856 0.034064498 0.033877034 -0.0060603605 0.038250424 -0.03566489 -0.020013578
-0.0070266626 -0.008730903 -0.019040614 0.0053188447 -0.023893597 -0.02415449 -0.0024513614 -0.0054280944
0.0048626955 0.04035859 0.023481831 -0.019326502 -0.02235366 0.004638161 -0.037967913 0.014380234
0.028064255 0.0024838462 0.038347453 -0.042221423 -0.007254988 0.0065432168 -0.0028620646 -0.029069148
0.010727547 -0.0066589117 0.031970322 -0.007171884 0.038136806 -0.0075135753 -0.015214554 -0.033276256
0.032091524 -0.022429008 -0.04128224 0.01247773 0.007321791 0.024839027 0.018192906 -0.00282115
0.026896492 -0.01974438 -0.017030796 0.0076859756 -0.025680427 0.026742639 -0.032910664 0.02021623
0.035723347 -0.026721587 0.027601112 -0.024741933 -0.00025036585 0.044497542 -0.01827194 0.033365153
-0.028548706 -0.039666876 0.025137924 0.01786822 -0.0075847325 0.03744807 -0.020900717 0.03418796
0.031336505 -0.038348354 0.023581062 0.010089756 -0.027768325 0.040563654 0.027587702 0.0107716955
-0.010066033 0.03096041 0.026820252 0.025517536 -0.022252632 0.040399928 0.035266813 -0.029951654
0.013086775 -0.037470177 -0.01696142 0.029511407 -0.004677568 -0.04088431 0.037813593 0.037852697
-0.025453554 0.029520864 0.01926565 0.007147554 0.033203766 0.0054770154 -0.041923076 -0.036178835
-0.024228277 0.01793902 0.024660805 -0.010336058 -0.03431262 0.01236523 -0.006288094 0.02878661
-0.013801923 -0.02477416 0.010856314 -0.004036015 0.034033954 -0.02020116 -0.027410053 -0.018660782
0.023143584 -0.025298731 0.008578574 0.019290095 0.003235175 -0.032104056 -0.033188593 -0.013690902
-0.040431753 -0.041285526 0.016095739 0.034856457 -0.033236396 -0.010248743 -0.030490024 0.01662836
-0.026555672 0.039032355 -0.009076381 -0.011307501 -0.0072758873 0.037520826 -0.030454116 -0.011840248
0.0021786646 -0.009270966 -0.03319296 -0.04452076 0.033749755 -0.025912883 -0.026059518 -0.029697746
-0.016720368 0.017385652 0.038641933 0.0024682484 -0.037286412 0.030378401 0.012290136 0.021828925
0.02684567 0.02211471 0.036214232 0.009920209 -0.01186179 -0.026661646 -0.045320455 0.029286688
-0.034112655 -0.0060386043 0.01724734 -0.017495034 -0.0011081641 -0.027965123 -0.022250667 0.031235216
-0.010612249 0.034877487 -0.031742085 0.018080588 0.012922356 -0.0040227463 0.034979396 -0.026475266
0.0069889496 0.0025014812 -0.031064276 -0.028541662 -0.026513483 0.03182584 0.012901958 0.011155643
-0.019645497 -0.0056967176 -0.025668273 0.016124075 0.008002997 -7.133032e-05 -0.026985446 -0.03470503
0.026582208 0.025316304 0.010277703 -0.03389135 -0.017393174 -0.043202974 -0.022248833 5.7637346e-05
-0.009492656 -0.030535908 -0.034005035 0.0047415663 0.014235333 -0.02159347 0.021001382 -0.00020436844
0.010069209 -0.020983012 -0.03848511 -0.010364522 0.0016766865 0.033845477 0.021094887 -0.0047868188

conv2.bias f4 [128]
00000000: bb3e 6b3c c7f0 7b38 9bb3 7cbc 17c7 d9bc
00000010: 746d bf3c 4f50 c7bc 121b 0abd 7d6a 4abc
00000020: 4a21 84bc 0ca9 c2bc 596a b03c 3bea 143b
00000030: 24fb 093d bb02 14bc 6000 1fbd 02a8 14bc
00000040: e4f4 b4bc 98fa c23c ba3c d83c 4c55 1f3d
00000050: 0c5b d03c 0a5e cfbb 7a82 d7bc ef7f 953c
00000060: bb6e 29bd 8f1c d7bc 8913 ed3a 26ac f7bc
00000070: 61c1 203d a573 5abc 08bc 2abd 37f1 653c
00000080: ff04 033d 1c50 16bd 9780 cb3c f62b 223d
00000090: c973 863b 6cd3 ad3c ab08 0cbc 606b 01bb
000000a0: eac0 a53c 5ea7 1c3d f1d0 b0bc 0fc2 b0bc
000000b0: 809f fd3c 5c5d c6bc 0244 163d 7fa1 eb3c
000000c0: fc7c 3ebb d506 023d aa8c b1bc 96a5 f1bc
000000d0: d8ca af3c 60c1 0ebd 2a86 0abd 7cd0 edbc
000000e0: 1df8 d1bc fb60 73bc 89f9 363a cc2a 8b3c
000000f0: 955b da3c 403f 18bd d2ed 3c3c b525 4ebc
00000100: e42d 3abc bdf4 bbbb 8d38 1f3d aec5 0e3c
00000110: bd7c 6d3c 4d8d 203d 51c3 ecbc 2f72 0ebd
00000120: 93ce 2bbc 7794 d7bb 6c58 823c 06e1 0f3d
00000130: 57a9 22bd 54ea 053d 2cbb 0a3d edb1 033d
00000140: 9940 a9bc e4d1 26bc ce55 213d c717 cc3c
00000150: a7c0 83bc ebc7 afbb 7fab 393c beea 0f3d
00000160: bd5d 19bd 5ab1 87bb 2416 1cbc abb0 b9bb
00000170: 49fd 36bc ee51 e5bc a919 94bc 03d7 c2bb
00000180: 2aa2 80bb 80f8 273c 1756 a13c ff96 ae3b
00000190: 2902 f03c ee53 0fbc 49a4 f93c 028e 013d
000001a0: 5688 aa3c 098b 5bbc f57a 4e3c 5287 c1bc
000001b0: bd06 e3ba ad80 0f3d a23a fc3c a40c 1abd
000001c0: c16d cdbc 2308 fcbc 01cb 3ebc 5b88 eb3c
000001d0: 6123 273d c165 14bc f089 8abc b990 b6bc
000001e0: e0ec 27bd 25fc bbbc ab06 f4bc d5f0 d83c
000001f0: b63c 6bbc a2bc 823c 02cd a5bc cdb7 94bb
0.014358218 6.0067305e-05 -0.015423681 -0.026584191 0.023367621 -0.024330286 -0.033717223 -0.01235449
-0.016129155 -0.023762248 0.021535086 0.002272262 0.033686772 -0.009033854 -0.038818717 -0.009073259
-0.02208943 0.023801133 0.026396144 0.038899705 0.02543404 -0.006328349 -0.026307333 0.01824948
-0.041365366 -0.026258735 0.0018087487 -0.030233454 0.03924692 -0.013333236 -0.041683227 0.014034561
0.031987187 -0.036697492 0.02484159 0.039592706 0.004103158 0.021218978 -0.0085469885 -0.0019747838
0.02023359 0.03824555 -0.021584006 -0.02157691 0.030959845 -0.02421444 0.03668595 0.02876353
-0.0029066196 0.031744797 -0.02167352 -0.029497903 0.021459028 -0.034852386 -0.033819355 -0.029030077
-0.025631005 -0.014854665 0.00069799327 0.01698818 0.026654998 -0.037169695 0.01153131 -0.012582232
-0.01136348 -0.005735962 0.03887229 0.008714123 0.014495072 0.039197255 -0.028901728 -0.034776863
-0.010486263 -0.0065789777 0.015911303 0.03512671 -0.039712276 0.032694176 0.033869907 0.032152105
-0.020660685 -0.010181878 0.03938847 0.024913682 -0.016083075 -0.0053644083 0.011332392 0.035135977
-0.03744291 -0.004141015 -0.009526763 -0.0056668124 -0.011168786 -0.027993169 -0.018078642 -0.0059460416
-0.0039255815 0.010252118 0.019694371 0.0053280587 0.029297905 -0.008748038 0.030473845 0.03162957
0.020816963 -0.013399848 0.012602557 -0.023624096 -0.0017320734 0.035034824 0.030789677 -0.03760971
-0.025076749 -0.030765599 -0.01164508 0.028751543 0.040805224 -0.009057463 -0.016911477 -0.022285806
-0.040997386 -0.02294738 -0.029788336 0.026482025 -0.014357736 0.015959088 -0.020239357 -0.0045385123

bn2.weight f4 [128]
00000000: 0a11 803f fd06 7f3f 9fad 803f 820d 803f
00000010: fb1f 813f 1368 803f 11eb 803f 653a 7f3f
00000020: cb69 803f eb3c 7f3f 91c8 7e3f 5b31 803f
00000030: d109 7e3f 61b5 7f3f 6981 7f3f 0a15 7e3f
00000040: 9e93 7f3f 38b0 7f3f b3d8 7f3f 1427 803f
00000050: ed07 803f c438 803f fa31 803f 3d74 803f
00000060: bde9 7f3f b60e 7f3f e500 7e3f f285 803f
00000070: bf1d 803f aac0 7f3f 87a8 803f f372 7f3f
00000080: 0d4c 7e3f 4117 803f e41e 803f 2dbd 7f3f
00000090: 9b56 803f efe8 7f3f cd25 803f 54fd 803f
000000a0: a137 7e3f 3aac 7f3f 09de 7f3f 9845 7f3f
000000b0: 6af5 7e3f 73cb 7f3f c8df 7f3f c92e 803f
000000c0: d6cb 7f3f 577b 7f3f cdf3 7f3f 727a 7f3f
000000d0: 94ef 7e3f 1190 7f3f 7d38 803f 65a2 803f
000000e0: 6c85 7f3f 07a1 7f3f a643 803f 2e05 803f
000000f0: 61c7 7f3f 22e7 7f3f 4d59 7f3f f2ad 7e3f
00000100: 3378 803f bd5d 7f3f a70f 803f 0e7c 803f
00000110: 00c2 7f3f d448 803f b780 803f 1812 803f
00000120: 946c 803f 68e2 7f3f 7a77 7f3f 8fb2 7f3f
00000130: 3bc9 7f3f f473 803f dd6f 7e3f b41c 803f
00000140: 90a1 7f3f 471d 7e3f 8158 7f3f 5cd3 7f3f
00000150: 8f38 7f3f 7222 803f 6b29 803f 7bb0 7f3f
00000160: bea5 7f3f 531a 803f 8132 7f3f d5e5 803f
00000170: 67a1 803f 3770 7f3f 6614 803f 9f9f 803f
00000180: cdcb 7f3f bf1d 803f 194f 803f 31d0 803f
00000190: 0443 803f 3b1d 803f 0d1a 803f a820 7f3f
000001a0: 127e 7f3f f9db 7e3f 7951 7e3f 3cdb 803f
000001b0: 754d 803f dc97 7f3f c8a3 7f3f 94fa 7f3f
000001c0: 7f9a 7f3f 9d6e 7f3f 1b3a 803f 6481 7f3f
000001d0: 00d1 7f3f b96f 803f 4454 813f 3ec1 803f
000001e0: 980c 803f cb7d 7f3f 54a7 803f e21a 803f
000001f0: 96d0 7f3f 601b 7f3f 3e78 7e3f 8569 803f
1.00052 0.9962004 1.0052985 1.0004122 1.0087885 1.0031761 1.0071737 0.9969848
1.0032285 0.9970233 0.9952479 1.0015062 0.9923373 0.9988614 0.9980684 0.99250853
0.9983462 0.99878263 0.9994003 1.0011926 1.0002419 1.0017323 1.0015252 1.0035473
0.9996603 0.9963182 0.99220115 1.0040877 1.0009078 0.9990336 1.005143 0.99784774
0.99334794 1.0007097 1.0009427 0.99898034 1.002643 0.99964803 1.0011536 1.007731
0.9930363 0.9987217 0.99948174 0.99715567 0.9959322 0.99919814 0.9995084 1.0014278
0.99920404 0.99797577 0.99981385 0.9979621 0.9958432 0.998292 1.0017239 1.0049559
0.9981296 0.99855083 1.0020645 1.0001581 0.99913603 0.99962056 0.9974564 0.9948417
1.0036682 0.9975241 1.0004777 1.0037858 0.99905396 1.0022225 1.0039281 1.0005522
1.0033135 0.99954844 0.9979168 0.99881834 0.9991643 1.0035386 0.9938944 1.000876
0.998559 0.99263424 0.9974442 0.99931884 0.99695677 1.0010512 1.001264 0.9987866
0.9986228 1.0008034 0.9968644 1.0070139 1.0049256 0.997806 1.0006225 1.0048712
0.9992035 1.0009078 1.0024139 1.0063535 1.0020452 1.000892 1.000795 0.99659204
0.99801743 0.995544 0.9934307 1.0066905 1.0023638 0.99841094 0.99859285 0.99991727
0.9984512 0.9977816 1.0017732 0.9980681 0.99928284 1.0034095 1.0103841 1.0058973
1.0003843 0.9980132 1.0051064 1.0008204 0.9992765 0.99651146 0.99402225 1.0032202

bn2.bias f4 [128]
00000000: 0e4c 7dba 0d5d a8bb e865 c33b ed3b b9b9
00000010: 9de2 b33a 5cd4 75bb 9913 393b 7b6a 54bb
00000020: c595 eb3b 26ca 6ebb 0e2c b2bb a951 60ba
00000030: c4b5 22bc a601 88bb 4314 edba 1030 d8bb
00000040: efe2 85bb 6662 59bb 51bf 623a 3023 073b
00000050: 6b5a c03a 2b84 863b 1c76 27bb 9eac 9eba
00000060: 1aa2 27bb 6483 1dbb 9bef d3bb 26ac e9ba
00000070: 2dfb 23bb e6b1 8abb 6433 feb9 d343 14bb
00000080: 30dd 0dbc 27d8 e739 84d0 b939 9784 5eba
00000090: 827a 65ba 20da a5b9 6d93 8fb9 70b7 85ba
000000a0: cdb8 87bb fc70 82bb b1f8 8abb d771 91ba
000000b0: f8c2 54bb 023e 28bb 1098 7bba 6226 8cbb
000000c0: 8f11 11bb 9eb3 48bb 21b6 08bb 4e7a 56ba
000000d0: 5c2a 0dbb 1b4d 98b9 6ea8 9cba 7372 3fbb
000000e0: 267c 323a 4de2 4d39 5c41 813a f9b3 0bba
000000f0: 499b 0039 f269 b3bb e935 55bb d4c5 7ebb
00000100: 99bf aebb ed30 b3ba 2074 0abb f465 57bb
00000110: 4ffd 9cbb 4e4b 0a3a 5d6c ffba d895 c8b9
00000120: 8bb7 b1ba 5453 efba 3ff7 70bb 6155 1fbb
00000130: 3c61 1a3b 2c1e 943b 4111 c8bb 0d37 17bb
00000140: 8db3 4bba 5cd5 eabb 9b08 4939 2a4e c2ba
00000150: 3c27 b7bb 66e9 9c3a 0e9e 973a 3f39 94ba
00000160: d049 44bb 9e34 c43a ebdb 22bb 9d82 d9ba
00000170: f00c 13ba d6cd 24bb ce8d 16b9 f03c 8d39
00000180: dc1f 17bb ea50 0e3b 593d 3c3b 4867 b83a
00000190: 1e47 2139 182f edb9 f100 1cbb d825 bbbb
000001a0: 9d54 87bb c5bd 54bb ea43 03bc 34fa 5b3b
000001b0: 9e6b 3fba 63b1 3abb a52d dd3a eb65 31bb
000001c0: 4f68 deba 69de 02bb 5b7b bc3a 39bb adbb
000001d0: 6aaf ceba 11c5 0dbb 442c 44bb 9aed 1f3b
000001e0: 30fb c4ba c737 82bb 5aef a03b 6350 0bbb
000001f0: 2be6 16bb 0aaf 29ba d5f9 90bb 4f8a 60b9
-0.0009662517 -0.0051380456 0.005963076 -0.00035330598 0.0013724152 -0.003751061 0.002824044 -0.00324121
0.007189485 -0.0036436408 -0.0054373806 -0.000855709 -0.009931032 -0.004150587 -0.0018087704 -0.0065975264
-0.0040858905 -0.0033170222 0.0008649724 0.0020620339 0.0014675384 0.004105111 -0.0025552576 -0.0012105887
-0.0025578798 -0.0024034614 -0.006467772 -0.0017827793 -0.0025021539 -0.004232633 -0.00048484944 -0.0022623434
-0.008658692 0.000442208 0.00035441306 -0.00084883854 -0.0008753912 -0.00031633768 -0.00027384926 -0.0010201763
-0.004141903 -0.003980754 -0.004241072 -0.0011096549 -0.0032464843 -0.0025671725 -0.0009597549 -0.0042770365
-0.002213571 -0.0030624638 -0.002086051 -0.0008181677 -0.002154014 -0.00029049147 -0.0011952051 -0.0029212504
0.00068086607 0.00019634627 0.0009861398 -0.0005329247 0.0001226488 -0.005475276 -0.0032533354 -0.003887524
-0.005332899 -0.0013671197 -0.0021126345 -0.0032867165 -0.004790939 0.00052755035 -0.0019487251 -0.00038258615
-0.0013558728 -0.0018259087 -0.0036768464 -0.0024312364 0.0023556491 0.0045201983 -0.0061055725 -0.0023073584
-0.00077705906 -0.0071665477 0.0001917206 -0.001482432 -0.005589394 0.0011971414 0.001156749 -0.0011308565
-0.0029951222 0.0014969294 -0.002485032 -0.0016594712 -0.0005609533 -0.0025147102 -0.00014357941 0.00026939018
-0.002305976 0.002171571 0.002872309 0.0014068866 0.0001538065 -0.0004523925 -0.0023804272 -0.0057112984
-0.0041299597 -0.0032461744 -0.008011797 0.003356588 -0.0007302108 -0.0028487078 0.0016874565 -0.0027068804
-0.0016968342 -0.0019968993 0.0014380025 -0.0053018597 -0.001576883 -0.0021632353 -0.002993361 0.0024403096
-0.0015028473 -0.0039739343 0.0049113454 -0.002125763 -0.0023025374 -0.0006472921 -0.0044243135 -0.00021413829

bn2.running_mean f4 [128]
00000000: c2ae 7cbd 2669 853e 581d 81be 0a41 9cbd
00000010: 74b6 ca3d fc59 dabd 2090 073d eb87 03bb
00000020: e527 db3a 6bc7 af3d 8010 903d ab78 72bc
00000030: c70a fc3d 62c4 af3c 9ba6 3fbe a59b 59bd
00000040: f2ab 04bb c69b 24be b130 763e 34b1 5ebd
00000050: b067 463d 73e4 1abd 045b 8f3c a10a d13d
00000060: 3e9a 80bd e2e6 cc3d 4116 013e f47a 5e3d
00000070: 21ea f43d 963e 9f3d d263 5dbb 634f 1bbe
00000080: 915e 393d 95f6 29bd ced3 40bb 3569 aebc
00000090: 00fa c73c 2b27 08be 1f97 e43a 804d 043e
000000a0: de3b 98bd 88ef 10bc be21 ca3d 4090 a63c
000000b0: 5120 473c 8706 473d d11e 89bd 3285 b53d
000000c0: a2e3 83bd bbdd e8bd bf11 84bc 177d e13c
000000d0: d82f ac3d 0631 2ebe 2d31 df3b f301 0e3d
000000e0: 7c76 27bd 732b 263d ef40 e83d 27e3 863d
000000f0: 7a14 003e d8ba a83d ca3b 86be 75ae 3f3c
00000100: e657 b43c 1123 09bd 63a6 723d 2fb0 87bd
00000110: 43c8 81bd da40 453d e7e9 da3c 5adf 0bbd
00000120: e161 0b3e cca6 edbd 1794 f5bd 15f0 e6bd
00000130: b727 24bd f833 f93c 1804 553e 48fa fd3d
00000140: 2e09 48be a9ee 07be 0026 1a3e 6421 25be
00000150: acbc 6c3d 42cc 0ebd ede1 223d 846b 03bd
00000160: 7094 ba3d f16d ebbd 4387 8a3d 870a 14be
00000170: cd53 d2bd b141 0a3c ea96 1fbe e64e e7bd
00000180: b9c9 88bd a9b1 65be 4ce4 523d bb7e a3bd
00000190: 7463 c53d f227 493e 4aa5 833d f326 eb3d
000001a0: 8a34 663d 1003 12be 35d6 1e3e 64d0 6c3c
000001b0: 50e8 fa3c 91dd a33e 5f9d 113e 5aa3 c73d
000001c0: 66d7 4dbe 8b16 2cbc a938 85bd b501 8cbe
000001d0: ea01 c43d b3d3 14bd 42f6 aebd fc43 1ebd
000001e0: bba7 47be d7d7 e5bc 3613 8f3d 568f fb3c
000001f0: dece 99bb 6008 80be 1ac2 a63d 3832 ecbd
-0.0616901 0.26056784 -0.252177 -0.07629593 0.098980814 -0.106616944 0.033096433 -0.0020070027
0.0016720264 0.08582958 0.07034397 -0.014799277 0.12306743 0.021455947 -0.18715899 -0.05312695
-0.002024409 -0.16075048 0.24042012 -0.054368213 0.048438728 -0.037815522 0.017499454 0.102071054
-0.06279419 0.10004975 0.12606145 0.054316476 0.11958719 0.07775609 -0.0033781421 -0.15167002
0.0452562 -0.041494925 -0.002942312 -0.021290401 0.024411201 -0.13296191 0.0017440057 0.12920189
-0.07433294 -0.008846171 0.09869717 0.020332456 0.012153701 0.04859021 -0.06695331 0.088632956
-0.06439902 -0.11370417 -0.016121743 0.027525468 0.08407563 -0.17010888 0.006811282 0.034669828
-0.04088448 0.04056878 0.1134051 0.065862946 0.12507811 0.082387626 -0.2621749 0.011699309
0.02201457 -0.033480708 0.05924071 -0.06625401 -0.06337025 0.04815755 0.026722861 -0.03414855
0.13611557 -0.116040796 -0.119911365 -0.11276261 -0.040076938 0.030420288 0.20802343 0.12401253
-0.19534752 -0.13274635 0.15053558 -0.16126019 0.05779712 -0.034862764 0.03976624 -0.032084957
0.091103435 -0.11495579 0.067640804 -0.14457141 -0.1026989 0.008438514 -0.15584913 -0.112943456
-0.066791005 -0.22431053 0.051487252 -0.07983156 0.0963811 0.19644144 0.06428011 0.11482038
0.05620245 -0.14258981 0.15511401 0.014453981 0.030628353 0.3200498 0.14220189 0.09747954
-0.20101699 -0.010503422 -0.06504948 -0.27345052 0.095706776 -0.036334705 -0.08543064 -0.038639054
-0.19497578 -0.028057022 0.06986086 0.030707996 -0.00469385 -0.2500639 0.08142491 -0.11533016

bn2.running_var f4 [128]
00000000: 3056 fb3c ea4b a53d 4edd 523d 87b5 093d
00000010: d44e 5b3d 25a9 e33c 218f 173d 716b 013d
00000020: 1377 863d 91fa 733d ae4e 893d 98e3 ee3c
00000030: fcf4 763d 17e6 093d 296d 783d e94d 873d
00000040: 49e9 0d3d edad 0c3d e09e 733d e0a8 e13c
00000050: 33a0 543d 38ad 383d 396f 203d 2d31 033d
00000060: 5408 103d d134 3e3d 4197 243d d5cc 013d
00000070: a7a2 b83d a4d7 323d e19d 903c f501 ad3d
00000080: df6a 283d 5b32 3e3d 3ada 9e3d 5c89 763d
00000090: 39c8 183d 8416 423d 61fb 6d3d a16f c83c
000000a0: c8de ac3d 7d65 813d 9b65 863d fc8a ea3d
000000b0: c682 023e 543c 4c3d 83a1 b63d b08a aa3c
000000c0: b700 623d d9a0 673d 7dbe 483d 47d2 893d
000000d0: cec0 743d c284 b83d 2e8d 1c3d 19b7 223d
000000e0: a9fb 3c3d 26d8 5c3d 7bf8 4b3d 527e dc3c
000000f0: df10 313d 0ef8 0a3d 46ae b13d 03a1 cd3d
00000100: d563 d83c 81fb 423d ef5f 4e3d 307c 143d
00000110: db76 3c3d cb17 383d a02d da3c a73d 083d
00000120: dc9d 213d 49f8 153d 3dc9 0c3d 154f b23d
00000130: 3b1c 1a3d 036a 4f3d a509 853d 9d8b da3c
00000140: 4d54 9f3d 3d6f 723d f11b c93d 94b1 9d3d
00000150: 1556 443d 4838 d63d d5a0 d23c 2f08 a83d
00000160: 4a5c 593d 67c2 713d 9422 4c3d d752 ca3c
00000170: 92a7 a13c 763b 093d 8174 ad3d 79df 5c3c
00000180: b573 903d 8923 163d 744e 3b3d 962f 013d
00000190: fb3e 003d 6947 453d 405d 033d 0dfb 193d
000001a0: ccda 6c3d 9d6e e73d 5de9 813d b126 ed3c
000001b0: 1343 583d a17a 973d a898 0e3d 3c5b 573d
000001c0: d65f 613d 5890 083d ac18 303d b816 8b3d
000001d0: b052 923d 13c2 cb3c 76f8 8e3c 046c 003d
000001e0: 9dda 983d 1ff9 333d 6ea4 fa3c 5386 3e3d
000001f0: c5ca f73d d520 f83d d16d ef3d eea6 683d
0.030680746 0.0807112 0.051480584 0.033620384 0.053541973 0.027790615 0.037001733 0.031596605
0.0656568 0.05956513 0.0670446 0.02916126 0.06029223 0.033666696 0.06065098 0.06606657
0.034646306 0.034345556 0.059477687 0.027546346 0.05191059 0.04508707 0.03916857 0.03202932
0.035164192 0.04643709 0.04018331 0.031689484 0.090153985 0.043662682 0.017653408 0.08447639
0.041117545 0.04643474 0.07756467 0.06018959 0.037300322 0.047384754 0.05810106 0.024467291
0.0844093 0.063181855 0.065623485 0.114522904 0.12745199 0.04986222 0.08917525 0.020818084
0.055176463 0.05654988 0.04900979 0.0672956 0.059754185 0.090096965 0.038220577 0.039725397
0.04613844 0.053917073 0.049797516 0.026915703 0.04322898 0.03392797 0.08675818 0.10040476
0.026414791 0.047603134 0.05038446 0.036251247 0.046011787 0.044944566 0.026633084 0.03326192
0.039457187 0.036613736 0.034371603 0.0870649 0.03762458 0.05063821 0.0649598 0.0266779
0.07779751 0.059188116 0.098197825 0.07699886 0.047933657 0.104599535 0.025711456 0.08204686
0.05306653 0.059023287 0.049837664 0.024697704 0.019733224 0.033503972 0.08469487 0.013481014
0.07053319 0.036654983 0.045729116 0.031539522 0.031310063 0.048163805 0.032071352 0.037592936
0.05782585 0.11300395 0.06343339 0.028949114 0.052798342 0.073964365 0.034813553 0.052577242
0.055023037 0.033340782 0.04299228 0.06791443 0.07144678 0.024872815 0.01745246 0.03135301
0.07463572 0.043938752 0.030595984 0.04651482 0.12099222 0.12115637 0.11690868 0.05679982

conv3.weight f4 [128, 128, 3, 3]
00000000: 44e4 c43b 0fe6 e83c 74d4 cbbc 43c2 adbc
00000010: 408f bebc dd6c 163c 0c7e 0abc 271d 28bc
00000020: fdea cabb 516c 5e3c d5e0 8d3c 102e 893c
00000030: fa0c 983c c42d 1fbc 1c84 b6bc 931b cb3c
00000040: cb6c d83c 3902 d1bc 4b94 73bc ea44 90bc
00000050: 8985 b7bc ddd1 a13c 3718 dbbb 2649 c1bc
00000060: 0165 0cbc 1223 ccba 9a6f c6bc ae03 733c
00000070: fb54 29bc c831 8fbc fc28 eb3c 6e11 f6bc
00000080: dee5 babc d541 cdbc d8c9 05bd 5bd5 5dbc
00000090: aba3 f1bc 5d49 6bba 799e 6cbb 68ab 1f3c
000000a0: 6b0f 95bc e8b6 4fbc 721e fdba 41c7 883c
000000b0: c368 df3c 5eaf 25bc 1445 4dbc aa50 843c
000000c0: b4ff dd3c a05c 55bc 47fa fc3b 59f0 bebc
000000d0: 86b2 9c3b 708b 8abb 29ae 753c cb95 3ebc
000000e0: 241e 35bc f446 8abb f617 8fbb 5e54 d53c
000000f0: 9f41 bf3c 1961 783c 84de 1abc f60d b3ba
00000100: be02 963c 92f7 14bc 2396 e8bb 21f3 693c
00000110: a410 1c3a c6c7 8a3c e4b9 a2ba 829b 70bc
00000120: 00d1 d3bc 7715 883c d08f 103c ee5c de3c
00000130: 7eca 4a3c a6f8 af3c 4175 003c c2eb 77bc
00000140: d330 6b3c be13 133c c2ba 813c cf3c 353b
00000150: 0723 b93c d463 c8bc 24c1 c0bc b1f2 91bc
00000160: ec02 933a 303c fa3c 07d9 3e3c accb a1bb
00000170: c794 a33c b509 f23b 09b3 bdbc 13c3 b2bb
00000180: 1d17 5abc 7e2d dcbb 288b cabc f84a 1abb
00000190: a6d0 df3c 8a7e 053c cc24 13b9 204a 76bc
000001a0: 429d d2bc 2096 d6bc 4b2d fb3c 4b76 7dbc
000001b0: b4f4 d0bc bdba 3d3c 8dd1 993c 0ec3 b3bc
000001c0: 6850 fb3a 1934 8fbc 36c8 c4bc 507e 9d3b
000001d0: 5a4a b73c 7195 8d3c faa4 ed3c 442b 83bb
000001e0: d170 863c f4be 30bc 4a6c 0abd d556 983b
000001f0: 5240 1e3c 932c 113c 729e 8fbc 24c9 933c
00000200: d04d a73c 4221 d43c 596c ec3c b502 03bd
00000210: 4559 1a3c a57f d939 d9d2 a8ba d46c 8ebc
00000220: a7f3 a2bc 9444 91bc 5d59 843c e5a2 833c
00000230: 4db3 d7bc 6f81 97bc 0192 86bb 168f 87bb
00000240: eccf ac3c 7d39 eebc 18ac b7bc a002 37bc
00000250: 0cd1 3b3c 4fe1 833c 1d0e f3bc f9a2 09bd
00000260: dd9d 0cbd 6609 0f3b ac7e 493c 5b55 63bb
00000270: 1264 cbbc d251 5c3c 539d 803c 9fde cfbc
00000280: 035f 353c 8eca c43c c8e3 d63a 74f9 b7bc
00000290: 3dbf a23b 0f44 ccbc e125 ac3b fdb1 ecbc
000002a0: 6a8a e2bc 7e2f c93c f20f eabb 03e4 1abb
000002b0: 36b2 a9bc 2be1 223c 4d53 95bc 8e19 b7ba
000002c0: 29cd f8bc 1517 713c ff63 a83c 6064 57bc
000002d0: 3e1e e8bc 4e0a c1bc d9de 7cba e103 8abb
000002e0: e41d 9d3c a95c 463c c204 a23b 308b 1abc
000002f0: b515 103c 4668 4dbb a7ac 9bbc 6987 dd3c
00000300: 2f08 2dbc 5cd4 7e3c 9c98 ea3b d588 a13b
00000310: c89e 09bc dbb7 bb3b b450 be3c cba5 9b3c
00000320: 98f7 f43b a1e1 173c 58e5 56bc 63a4 e43b
00000330: c570 d13b ada2 96bc cf0f d03b f2a5 6c3a
00000340: 0987 fabc 3176 bc3c 3585 133c 3d30 e2bc
00000350: 0434 8abc 6b7b cc3c 72e0 b53c 516e 51bc
00000360: f042 9d3c 8cf2 d0bc 490c 0f3d 91a8 3fbc
00000370: f973 f2bc 3d0f 503c a56a b43b 08eb a03c
00000380: fd94 3dbc 1959 af3c f25c 14bc fe0e 23bb
00000390: 4a50 febc 0171 043c 01d4 cebc 8fba e23c
000003a0: 78c1 8bbb 1878 9dbb 1ff2 c4bc e20d 553c
000003b0: c81f 343c 3404 09bc f5ef ab3c 6874 3a3c
000003c0: 0ee5 de3b b65b a93c c60c 143c b99d a0bc
000003d0: 6f3f b83c 1009 913b 9521 1dba 9076 a0bc
000003e0: 41fe 65bc f441 1bbb dfea 78bc bdd3 6e3c
000003f0: e47f 843c 4c22 f0bc b9eb d7bb a290 893c
0.0060086567 0.028430013 -0.024881579 -0.021210795 -0.023261666 0.0091812285 -0.0084529035 -0.010260857
-0.0061925636 0.013575629 0.017319122 0.016745597 0.018560875 -0.009715501 -0.022279792 0.024793422
0.026419064 -0.025513755 -0.014866899 -0.017610986 -0.022402542 0.01975339 -0.0066862362 -0.02359445
-0.008569003 -0.0015574417 -0.024223138 0.01483242 -0.010335202 -0.017479792 0.028706066 -0.030037608
-0.022814687 -0.025055805 -0.032663196 -0.013539637 -0.029496988 -0.00089754706 -0.00361052 0.009745456
-0.018195828 -0.012677886 -0.0019311442 0.016696574 0.027271634 -0.010112612 -0.012528677 0.016151745
0.027099468 -0.013022572 0.007720265 -0.023307966 0.004782024 -0.004228048 0.014995136 -0.011632393
-0.011054549 -0.004219884 -0.00436687 0.026041206 0.02334672 0.015159869 -0.009452466 -0.0013660777
0.018311854 -0.0090922285 -0.007097976 0.014279158 0.00059534074 0.016940963 -0.0012415019 -0.014685513
-0.025856495 0.016611798 0.00882335 0.027143922 0.012377379 0.02148087 0.0078404555 -0.015131893
0.014354902 0.008976875 0.015836123 0.0027654653 0.02259971 -0.024461664 -0.023529597 -0.01781592
0.0011216081 0.030546278 0.011648423 -0.0049376097 0.019968404 0.007386411 -0.02315666 -0.0054553836
-0.013311175 -0.0067192903 -0.024724558 -0.002354322 0.027321171 0.008147845 -0.0001403272 -0.015032321
-0.025709752 -0.026194632 0.030661246 -0.015470098 -0.025507309 0.011580166 0.01877668 -0.021943595
0.0019173743 -0.017480897 -0.02402125 0.0048063174 0.02237432 0.017283173 0.029009331 -0.0040029604
0.016411217 -0.010787714 -0.03379468 0.004649023 0.00965889 0.008860725 -0.017531607 0.018040247
0.020422846 0.025894765 0.028860258 -0.031985004 0.009420698 0.00041484568 -0.001288022 -0.017385878
-0.019891573 -0.017732896 0.016155893 0.016068885 -0.026330614 -0.018494336 -0.0041067605 -0.00413693
0.021095239 -0.029080147 -0.022420928 -0.011170059 0.011463415 0.016098646 -0.029669816 -0.03360269
-0.034330238 0.002182567 0.012298267 -0.0034688327 -0.02482799 0.013447242 0.015700018 -0.025374709
0.011070016 0.024022367 0.0016394788 -0.022457816 0.004966645 -0.024934797 0.005253539 -0.028893465
-0.027653892 0.024558779 -0.007143014 -0.002363444 -0.02071486 0.00994138 -0.018228197 -0.0013969408
-0.030371265 0.014714976 0.020555494 -0.01314649 -0.028334733 -0.023564484 -0.0009646244 -0.004211888
0.019179292 0.012107053 0.004944415 -0.009432599 0.008794238 -0.003134267 -0.019003225 0.027042108
-0.010561033 0.01555356 0.0071593057 0.0049296417 -0.008399673 0.0057287044 0.023231842 0.018999955
0.0074758045 0.009270103 -0.013116203 0.0069776042 0.006391617 -0.018388117 0.006349541 0.00090274133
-0.030581968 0.023005577 0.009003927 -0.027610892 -0.016870506 0.024961194 0.02220175 -0.012782649
0.019196957 -0.02550628 0.034923825 -0.011697904 -0.029596316 0.012698946 0.005505877 0.019643322
-0.011571166 0.02140479 -0.009055363 -0.0024880762 -0.031044144 0.008083583 -0.025247576 0.027676849
-0.0042650066 -0.004805576 -0.024041234 0.013003798 0.010993905 -0.0083628185 0.020988444 0.0113802925
0.006802208 0.020673614 0.009036249 -0.019606458 0.022491185 0.004426129 -0.0005994079 -0.019587785
-0.01403767 -0.0023690434 -0.015192716 0.0145768495 0.016174264 -0.029313229 -0.0065893796 0.0167926

conv3.bias f4 [128]
00000000: 6424 e63b 3410 dd3c f221 5ebc f168 8dbc
00000010: 6126 513c 898c d3bc f21e 56bc b655 1537
00000020: 5fdd 073c f3e3 563a dfcc bd3c 29ea a83c
00000030: ad7f 693b ae82 883c bd8e b3bc cd9d be3c
00000040: 6dee 1e3c 5cb4 81bb 27cc 04bc 31ff 983b
00000050: 79c3 c33b bab2 ed3c fc75 9cbc ab75 5dbc
00000060: 7279 903c 9d60 ddbc bc5d 10bc da49 7e3c
00000070: 440c 9fbc fb24 abbb 2f4f b9bc 913f 46bc
00000080: 832d 413c aa95 983c d5dc dcbc 2796 bf3b
00000090: f187 8a3c d75e d6bc 29df 3a39 3f03 983b
000000a0: 7b8f 9f3c a775 be3c b355 91bc 7404 b93c
000000b0: 2eb0 a03c b8be dd3b fb50 a8bc b01a ccbc
000000c0: e0a6 2a3c 014b 803c ad06 ac3c 3438 96bc
000000d0: 5dc8 79bc 0971 ccbc 3cce 0ebc 4981 73bb
000000e0: 267d e93b c6c0 bb3c 7443 d3bc 62e4 d43c
000000f0: ca8c 023b 00a0 bd3c a12f 54b9 5b62 5cbc
00000100: b6e4 59bc 2a30 a23c 1fbc d53c e60b e03b
00000110: 1724 b03c ded8 cb3b 9d3f e7bc 9495 1ebc
00000120: cc3f 623b a33f 3dbc 7665 20bc 0aab 983c
00000130: fc73 acbb d826 ca3c 83be 143c aeb6 2a3b
00000140: e121 af3c 255c ae3c 4cfa 113c db1b da3b
00000150: 964a 7fbc 3122 fd3b a759 ff3b 6171 f8bb
00000160: 1185 403c a1ea 0fbc c0a0 9fbc 6896 b1bc
00000170: 0f6d 953b c5b5 c1bc f846 bfbc 3d33 8bbc
00000180: ca2e 1bbb b36f bcbc 0d91 943c 4233 d8bb
00000190: cfd4 de3a c99e a3bc 2056 d9bc 24de ddbb
000001a0: a0ac 793c c743 b23c d100 763c 1122 d93c
000001b0: d6b3 4dbc 3504 363c 028a ca3a 1725 e9bc
000001c0: 4e82 603c 7483 d93b d219 ea3c 62c5 d2bb
000001d0: 513b b53c 1dd0 883b 83aa 05bc 4970 313c
000001e0: 9d68 873c ca37 d83c f40d 5dbc 19f0 023c
000001f0: 5908 8c3c 7d56 e0bc 1820 ad3c 182c d43c
0.007023381 0.026985265 -0.013557898 -0.017261954 0.012765498 -0.025823848 -0.013068901 8.901048e-06
0.008292525 0.0008197419 0.02316898 0.020619469 0.003562908 0.016663875 -0.021918649 0.023268605
0.0097004 -0.003958268 -0.008105314 0.004669093 0.00597423 0.029015888 -0.019099228 -0.013516824
0.017636035 -0.027023608 -0.0088114105 0.015520537 -0.019415028 -0.0052229143 -0.022620765 -0.012100116
0.011790636 0.018626053 -0.02696077 0.005846757 0.016910525 -0.02616827 0.00017821476 0.004639059
0.019477597 0.02324946 -0.01774106 0.022585131 0.019615259 0.00676712 -0.020546427 -0.02491507
0.010415763 0.015660765 0.020999277 -0.018337347 -0.015245524 -0.024956243 -0.008716162 -0.0037155917
0.0071255146 0.02291907 -0.025789 0.025987808 0.0019920343 0.023147583 -0.00020235639 -0.013451184
-0.013299158 0.019798357 0.02609068 0.006837356 0.021501584 0.006220921 -0.028228575 -0.009679217
0.003452289 -0.011550817 -0.009789815 0.018636245 -0.00526285 0.024676725 0.009078625 0.0026048827
0.02137846 0.021284172 0.008909773 0.0066561527 -0.0155817475 0.007725023 0.00779267 -0.007581875
0.0117504755 -0.008783967 -0.019485831 -0.021678165 0.00456012 -0.023646245 -0.02334927 -0.016992206
-0.0023679012 -0.023002481 0.018135572 -0.0065979073 0.0017000678 -0.019973176 -0.026530325 -0.006770866
0.015238911 0.021760834 0.015014843 0.026505502 -0.012555083 0.0111094015 0.0015452506 -0.028460069
0.013702942 0.006637985 0.028576765 -0.0064322213 0.02212301 0.0041751997 -0.008158329 0.0108299935
0.016529376 0.02639379 -0.013492096 0.007991814 0.017093824 -0.02738499 0.021133468 0.025899932

bn3.weight f4 [128]
00000000: 36b8 873f 7c84 833f a6fa 803f 268b 853f
00000010: de42 833f c19c 7c3f d723 843f 0bdb 8a3f
00000020: a223 833f 2f86 823f f15b 833f 0592 873f
00000030: 7449 813f 19a8 8a3f c057 873f c1bf 863f
00000040: 6b6c 823f c4c1 8a3f 2874 833f d1cf 823f
00000050: 682c 8a3f 85ed 833f 19f5 813f fa36 823f
00000060: 229e 833f fdb6 863f 9d97 843f 4200 8c3f
00000070: e730 823f 1f6b 833f 64fe 833f 5016 853f
00000080: 5658 853f 5c28 873f efed 853f 8907 853f
00000090: e710 823f 61dd 853f 8c42 813f 085d 853f
000000a0: 984a 8a3f b90a 863f 9d45 833f 80a2 853f
000000b0: 0015 873f d914 8c3f 6f41 853f ca37 843f
000000c0: 5e39 813f cc34 7c3f 53c0 833f 6c82 833f
000000d0: 7fde 893f 1505 893f 18fd 813f f43c 823f
000000e0: bf2a 793f fb07 883f fb7c 8e3f e95d 843f
000000f0: 8785 833f 6b8c 833f 0b02 863f 80c2 853f
00000100: c964 853f 531f 7f3f 5b33 883f 4c81 873f
00000110: 42df 873f 1f71 863f a4c5 8c3f d0d8 7f3f
00000120: 1079 7e3f 8aaa 8b3f 8e13 7b3f fe22 813f
00000130: d362 833f b3fe 853f cfb5 8e3f a2c7 813f
00000140: 9b10 873f f9ab 823f a2f4 863f cc4c 833f
00000150: 8758 863f b8cc 8a3f 22c6 813f 87a2 843f
00000160: ebae 833f 883a 7e3f 6365 843f c032 863f
00000170: ff16 873f 8572 813f a2ba 833f f22f 893f
00000180: 9556 843f 1848 863f c5c2 863f 8eaa 8a3f
00000190: 10ea 8e3f 3447 853f 26fe 8e3f 714e 853f
000001a0: b5da 7e3f 6a59 843f adae 883f e175 833f
000001b0: 1114 833f 4c38 8a3f c3d5 7f3f a124 843f
000001c0: cf21 853f c472 8a3f 851d 883f 07b1 803f
000001d0: 077b 813f 2f2c 873f 6469 823f 72f9 823f
000001e0: 2017 823f d365 863f 581e 823f 92f3 843f
000001f0: e93b 823f 3ca0 843f 1aae 833f 218e 803f
1.0603092 1.0274806 1.0076492 1.043309 1.0254781 0.9867669 1.0323437 1.0848097
1.0245249 1.01972 1.0262433 1.0591437 1.0100541 1.0832549 1.0573654 1.0527269
1.0189337 1.0840383 1.0269823 1.021967 1.0794802 1.030686 1.0152923 1.0173028
1.0282633 1.0524594 1.0358769 1.0937579 1.0171174 1.0267066 1.0312009 1.0397434
1.0417583 1.0559192 1.0463237 1.0392925 1.0161408 1.0458184 1.0098433 1.0419016
1.0804014 1.0472022 1.0255619 1.0440216 1.0553284 1.0943862 1.0410594 1.0329525
1.0095632 0.9851806 1.0293068 1.0274177 1.0771025 1.0704676 1.0155363 1.0174851
0.9733085 1.0627435 1.1131891 1.0341159 1.0275124 1.0277227 1.0469373 1.0449982
1.0421382 0.9965717 1.0640672 1.0586333 1.0615008 1.0503272 1.0997815 0.99940205
0.99403477 1.0911419 0.98076713 1.0088804 1.0264534 1.0468353 1.1149234 1.0139048
1.0551943 1.0208732 1.0543406 1.0257812 1.0495766 1.0843725 1.013859 1.03621
1.0287756 0.9930806 1.0343441 1.0484238 1.0553893 1.0113074 1.0291331 1.0717757
1.0338923 1.0490751 1.0528189 1.0833299 1.116518 1.0412354 1.117131 1.0414563
0.9955247 1.0339787 1.0678307 1.0270349 1.0240499 1.079843 0.9993555 1.0323678
1.0400943 1.0816274 1.0634009 1.0054024 1.011567 1.0560359 1.0188413 1.0232375
1.0163307 1.0499824 1.016551 1.0386832 1.0174533 1.03614 1.0287507 1.0043374
