training/trained_models/model_standard_cyclotron.pth (torch, 85242 bytes, 14 tensors)

conv1.weight f4 [32, 2, 3, 3]
0.2009661 0.0041609765 -0.23408274 -0.1287611 0.055165626 0.12651293 -0.0010966696 0.10435869
-0.12189548 -0.08477099 0.026676705 0.036109436 0.09361141 -0.18730944 0.12908196 0.083258614
0.08354073 -0.12570257 0.11079876 -0.061309945 0.25601923 -0.1429522 -0.035642542 0.09178318
0.103412434 -0.08841307 0.22474273 -0.06475446 0.10585485 0.13591532 -0.01659812 -0.10403919
0.01923961 0.08623458 0.13231441 -0.093544684 0.052931603 0.040916037 -0.08343597 0.003268115
0.1910773 0.110224366 0.07256627 0.10420982 0.16726711 0.041264243 -0.1783181 -0.024466587
0.11590147 -0.006765302 -0.18570034 0.0921095 -0.1587492 0.14160651 -0.043120503 -0.120343626
-0.060173746 -0.045754056 0.04332695 0.2084416 -0.22204411 -0.024374196 0.103366636 0.18930577
-0.02950974 -0.18426478 0.13837 -0.17320728 0.043769952 0.21503529 -0.0010207676 -0.053314626
-0.09803951 0.10204822 0.10790136 0.069910854 -0.22235811 -0.16347964 -0.16165589 0.0096583525
-0.2598144 -0.1306652 0.034964822 -0.021118853 -0.061036743 -0.1715384 0.04573804 -0.13468683
0.03707329 -0.01499939 -0.27126256 0.09306157 -0.15966861 0.16242039 0.20808798 -0.0765744
0.06626022 0.16551778 -0.06692622 0.07437599 0.07767757 0.086705945 0.007977176 -0.14354281
-0.026769273 -0.12596439 -0.12791963 -0.09012767 -0.035714872 -0.04612091 0.19019702 -0.016510125
0.15998268 0.040793113 0.07013004 0.14395137 0.019570434 0.095331475 0.06956775 0.10250008
-0.009458433 -0.001623501 0.08473564 -0.0318878 0.038045593 -0.060067665 0.15646084 0.033018086
0.03033604 -0.017212963 0.1356399 0.07989161 0.1459559 -0.1786778 -0.040240746 -0.152926
-0.12780376 0.0147153055 0.11249651 0.12184323 -0.018156659 0.047927607 -0.13415585 0.16777864
0.15502502 0.03771044 -0.06666589 0.06962484 0.15868402 -0.200236 0.19036527 0.0071915137
-0.077453144 -0.13607576 -0.08699764 0.07833994 -0.066816635 0.07346901 -0.19225377 -0.14629386
0.14190473 0.20432305 -0.18809532 0.0046323547 -0.19000328 -0.13435343 0.1613994 0.060301702
-0.17671946 0.05385934 -0.13004944 -0.21273962 0.0937323 -0.03583875 -0.055007584 0.07063186
0.16939071 -0.08586636 0.11663478 -0.123072356 -0.02403237 -0.08955486 -0.04133242 -0.14164948
-0.1029528 -0.028759228 -0.100711256 0.05488162 -0.070579596 0.16362429 0.052968074 -0.11983174
-0.10745439 -0.06999266 -0.0053181155 0.092373624 -0.16958839 0.02166079 -0.049968585 0.13732965
-0.25572115 -0.122780226 -0.12645225 -0.114053406 -0.2708393 -0.2277752 0.10989995 0.1487895
0.06384385 -0.12618862 -0.22477719 -0.22093552 0.0673203 0.037900534 0.04667537 -0.025001323
-0.17640348 -0.16966458 -0.10298622 -0.07309838 -0.05990314 -0.043087073 -0.19089277 0.12271604
-0.13223301 -0.17422712 -0.05638056 0.1252315 -0.06968138 -0.00894129 0.1443619 0.02297548
0.014631649 0.032152027 -0.15097475 0.060719103 0.14036721 -0.13477986 -0.052199032 0.15764159
-0.094060525 0.05893039 0.12169817 -0.11008823 0.12042115 -0.053268835 -0.038845472 -0.0032188073
0.101464614 0.00843274 -0.11283532 -0.0033079432 0.1632654 -0.21624713 -0.22302112 0.08516127
00000000: 0fca 4d3e cd58 883b 63b3 6fbe f3d9 03be
00000010: 5af5 613d 9b8c 013e 20be 8fba 02ba d53d
00000020: 56a4 f9bd 6a9c adbd 1b89 da3c 7de7 133d
00000030: 57b7 bf3d 0cce 3fbe 102e 043e 7e83 aa3d
00000040: 6717 ab3d 2db8 00be 76ea e23d 2320 7bbd
00000050: f414 833e 1062 12be eafd 11bd d2f8 bb3d
00000060: e6c9 d33d e911 b5bd f522 663e fc9d 84bd
00000070: 6dca d83d 632d 0b3e c8f8 87bc 8012 d5bd
00000080: 639c 9d3c c19b b03d 6e7d 073e 5b94 bfbd
00000090: cfce 583d 9397 273d 7ae0 aabd df2d 563b
000000a0: c5a9 433e 50bd e13d a09d 943d f56b d53d
000000b0: 1248 2b3e b204 293d 0599 36be 276e c8bc
000000c0: c05d ed3d 77af ddbb 3b28 3ebe e8a3 bc3d
000000d0: 268f 22be 4c01 113e 209f 30bd b876 f6bd
000000e0: bf78 76bd 9b68 3bbd 9a77 313d b771 553e
000000f0: 885f 63be 65ac c7bc e3b1 d33d 5fd9 413e
00000100: 69be f1bc e8af 3cbe deb0 0d3e 405d 31be
00000110: 1f48 333d 3632 5c3e 47cb 85ba 7060 5abd
00000120: f0c8 c8bd a8fe d03d 63fb dc3d 6c2d 8f3d
00000130: d8b1 63be 3567 27be 1f89 25be 113e 1e3c
00000140: 6506 85be 19cd 05be 4637 0f3d 7201 adbc
00000150: aa01 7abd c3a7 2fbe d057 3b3d 58eb 09be
00000160: 2ada 173d 00c0 75bc ede2 8abe 1097 be3d
00000170: 2b80 23be 8851 263e 0415 553e 0ad3 9cbd
00000180: 70b3 873d 7e7d 293e 9d10 89bd 7052 983d
00000190: 6b15 9f3d e392 b13d b4b2 023c e3fc 12be
000001a0: 3c4b dbbc cffc 00be 5dfd 02be db94 b8bd
000001b0: c249 12bd 48e9 3cbd 02c3 423e 3e40 87bc
000001c0: 80d2 233e ae16 273d 57a0 8f3d fd67 133e
000001d0: 2d52 a03c 263d c33d 8979 8e3d 90eb d13d
000001e0: 8bf7 1abc a7cb d4ba e189 ad3d c89c 02bd
000001f0: b2d5 1b3d 8309 76bd 4537 203e f93d 073d
00000200: 4983 f83c 3302 8dbc 30e5 0a3e 369e a33d
00000210: 7775 153e 50f7 36be 7bd3 24bd a298 1cbe
00000220: fdde 02be 7718 713c 9264 e63d f288 f93d
00000230: 46bd 94bc bd4f 443d 2760 09be 2ace 2b3e
00000240: e1be 1e3e 4376 1a3d 2088 88bd 7897 8e3d
00000250: 107e 223e aa0a 4dbe 1def 423e caa6 eb3b
00000260: c19f 9ebd 7257 0bbe d22b b2bd b170 a03d
00000270: 29d7 88bd ec76 963d 2cde 44be 0fce 15be
00000280: 794f 113e 103a 513e 0f9c 40be 02cb 973b
00000290: 3890 42be f293 09be e245 253e ebfe 763d
000002a0: f2f5 34be 9c9b 5c3d ae2b 05be 6ad8 59be
000002b0: b8f6 bf3d a7cb 12bd a24f 61bd 70a7 903d
000002c0: c274 2d3e b4da afbd 37de ee3d 5c0d fcbd
000002d0: 88df c4bc 8a68 b7bd 2f4c 29bd 900c 11be
000002e0: ebd8 d2bd 7998 ebbc b441 cebd 8dcb 603d
000002f0: 098c 90bd 208d 273e 0df5 583d 586a f5bd
00000300: 0c11 dcbd 5058 8fbd 9643 aebb 622e bd3d
00000310: 94a8 2dbe f871 b13c dcab 4cbd 25a0 0c3e
00000320: e2ed 82be 3374 fbbd b37c 01be d594 e9bd
00000330: 73ab 8abe e73d 69be 3a13 e13d 465c 183e
00000340: 90c0 823d 9737 01be fe2b 66be ec3c 62be
00000350: 3adf 893d 973d 1b3d ac2e 3f3d 93cf ccbc
00000360: 1da3 34be 8dbc 2dbe 70ea d2bd 9ab4 95bd
00000370: ff5c 75bd 127c 30bd 6579 43be 8c52 fb3d
00000380: 1768 07be 9868 32be 4def 66bd b03c 003e
00000390: 1db5 8ebd 7d7e 12bc 9bd3 133e 1337 bc3c
000003a0: 95b9 6f3c d8b1 033d 2099 1abe 98b4 783d
000003b0: 6cbc 0f3e bb03 0abe a7ce 55bd cc6c 213e
000003c0: cea2 c0bd fe60 713d e43c f93d f075 e1bd
000003d0: 5d9f f63d 6c30 5abd 6e1c 1fbd a0f2 52bb
000003e0: aecc cf3d 7a29 0a3c 3416 e7bd 14ca 58bb
000003f0: 0c2f 273e e36f 5dbe a65f 64be 0869 ae3d

conv1.bias f4 [32]
-0.003203242 -0.033794835 -0.0010711253 -1.9576954e-07 -0.003337973 -3.233677e-08 -0.040189065 -0.037913173
8.440395e-06 -0.03949625 -0.011402687 0.02753472 1.5900255e-07 -0.014199585 0.021850852 -1.5300842e-05
0.037014272 -0.0014891598 -0.022321193 -0.00437311 -1.732479e-07 -0.025052287 -0.0006458141 -0.038222097
-1.0665966e-06 5.333686e-07 -0.03384139 -0.010178574 -2.541907e-06 -2.6024893e-06 8.3952085e-07 0.030082533
00000000: 7ced 51bb 746c 0abd 0065 8cba b934 52b4
00000010: e5c1 5abb a8e2 0ab3 4a9d 24bd d84a 1bbd
00000020: 389b 0d37 d2c6 21bd 56d2 3abc 7e90 e13c
00000030: 4aba 2a34 60a5 68bc 8f00 b33c 4f5a 80b7
00000040: 479c 173d e92f c3ba efda b6bc 4e4c 8fbb
00000050: 0506 3ab4 743a cdbc da4b 29ba c68e 1cbd
00000060: fb27 8fb5 d02c 0f35 459d 0abd 09c4 26bc
00000070: a195 2ab6 6da6 2eb6 6f5b 6135 a56f f63c

conv2.weight f4 [64, 32, 3, 3]
-0.05344848 0.03293507 0.038785923 -0.049258094 -0.024999697 -0.03133728 -0.012742911 -0.010932712
-0.019918647 0.00904746 0.018480223 0.029152272 -0.05521504 0.017751832 0.037771482 0.02405035
0.02253113 -0.007414951 -0.0027070842 -0.007873072 -0.0028525973 -0.00015475292 0.023421088 0.025144398
0.06718102 0.032930873 -0.028174901 0.005466109 0.018003896 0.05233704 -0.05593956 -0.060746133
0.030495906 -0.014633636 0.014504921 0.028977327 -0.06752522 -0.056224246 0.033909645 0.038578708
-0.015123713 0.019460645 -0.02155272 -0.0008156208 -0.02335213 -0.010378161 -0.029631978 -0.030566653
0.045124657 -0.0857879 -0.060353395 0.030561656 -0.051893357 0.03189578 -0.0357814 0.01850602
-0.018415427 0.024232121 -0.0007557777 0.0011971496 0.03883267 -0.030371718 0.010073279 -0.0077867955
0.06132906 -0.02718603 0.030254496 -0.039403297 0.0061117667 0.008251834 0.012733233 -0.023538651
0.048208512 -0.02790513 -0.030002382 0.04582425 -0.010271256 -0.02071356 0.0018988537 -0.011387967
-0.0029622344 -0.009499202 0.021998996 -0.031021904 -0.06267811 -0.012318871 -0.014868065 -0.077285595
-0.006177825 0.045746397 -0.027315624 0.024950484 -0.054575104 0.026526121 0.02173942 -0.025630863
-0.03866834 -0.0067232554 -0.025901392 -0.019376108 -0.01624264 -0.043763094 0.008660099 0.0036454534
0.017496882 0.050372217 0.0015504315 -0.027503792 -0.0030171245 0.013386923 0.012057835 -0.040498465
0.00277899 0.03169107 0.0011519712 -0.018265586 -0.003084423 -0.0051386007 -0.0068530105 0.016680662
-0.040587086 0.0030989256 0.027143693 -0.019812629 -0.031289633 0.055378873 0.023283994 0.02447812
0.035333987 0.003210087 -0.0224964 0.011665646 0.06687664 0.083325006 0.026799705 0.020947581
0.0024935901 0.0216372 0.037157997 0.033848695 0.02455821 -0.003283653 -0.024955038 -0.052742336
0.0021679907 0.01267952 0.0705776 0.046631265 0.026751708 0.024479033 0.055442475 0.028219152
0.029190911 0.013062579 0.06903124 0.0407387 -0.03277308 -0.03057398 0.025997374 -0.03519999
-0.044100374 -0.039323468 0.01839953 0.026473245 0.057787914 -0.052638493 -0.042775143 0.00094972266
0.02453727 0.025634127 -0.0027542193 -0.03597156 0.0045938217 0.01208735 0.042483363 -0.020035883
0.06590713 -0.022811351 0.028086128 -0.014825907 0.027556932 -0.00040178013 -0.006523648 0.018063249
0.012765354 -0.031049222 -0.027255727 0.0036787211 0.068771824 -0.025465045 0.015139173 -0.017322546
0.020480063 0.012355424 0.040668685 0.030784845 0.012542429 0.019748516 -0.013947324 0.00736313
0.03777231 0.07923029 0.061533507 -0.03325089 -0.00441179 0.028779438 -0.00855608 0.030452827
0.028017525 0.0670836 0.03816635 -0.03234768 -0.02520843 -0.042477958 0.043816898 -0.04917894
-0.0306553 -0.0069891256 -0.04005313 0.051784582 0.01421216 -0.015237774 0.028071398 -0.06503887
0.011997066 -0.004118368 0.010903898 0.05405298 -0.05343375 0.0011049296 -0.010052798 0.012480554
0.04171079 0.05072052 0.018006463 -0.038574196 -0.049507 0.0330295 0.009895883 0.018232051
0.045810714 0.027688876 0.041657735 0.045050472 0.020904219 0.046313774 -0.021842761 -0.011236654
-0.040844675 -0.032672334 -0.039508868 0.046888396 0.029781941 -0.021614946 -0.009830452 -0.017008958
00000000: cbec 5abd ede6 063d fddd 1e3d dbc2 49bd
00000010: 2acc ccbc 855b 00bd a5c7 50bc 1e1f 33bc
00000020: 6e2c a3bc cc3b 143c d663 973c bfd0 ee3c
00000030: 2a29 62bd 4a6c 913c 45b6 1a3d 3d05 c53c
00000040: 3493 b83c 1ef9 f2bb 5669 31bb 0ffe 00bc
00000050: a4f2 3abb 2c45 22b9 95dd bf3c a0fb cd3c
00000060: 3496 893d 86e2 063d 0dcf e6bc 0c1d b33b
00000070: e87c 933c 5d5f 563d e120 65bd f0d0 78bd
00000080: 8dd2 f93c ebc1 6fbc 0ca6 6d3c dc61 ed3c
00000090: aa4a 8abd 654b 66bd d7e4 0a3d b504 1e3d
000000a0: 73c9 77bc ee6b 9f3c 548f b0bc 63cf 55ba
000000b0: f74c bfbc 2a09 2abc c3be f2bc eb66 fabc
000000c0: a2d4 383d 91b1 afbd 1f35 77bd 705c fa3c
000000d0: 218e 54bd 26a5 023d 848f 12bd f099 973c
000000e0: f3db 96bc 7182 c63c 621f 46ba ade9 9c3a
000000f0: 010f 1f3d 1cce f8bc 650a 253c 6028 ffbb
00000100: 2e34 7b3d 3db5 debc 47d8 f73c 5a65 21bd
00000110: 3745 c83b b332 073c 0d9f 503c 21d4 c0bc
00000120: 4a76 453d 4d99 e4bc 8ec7 f5bc 35b2 3b3d
00000130: c548 28bc 7caf a9bc f5e2 f83a 9894 3abc
00000140: 0c22 42bb 8aa2 1bbc 3d37 b43c a621 febc
00000150: 625d 80bd 17d5 49bc 2f99 73bc e947 9ebd
00000160: 5a6f cabb 9360 3b3d 04c5 dfbc f564 cc3c
00000170: 258a 5fbd 4f4d d93c de16 b23c d1f7 d1bc
00000180: b162 1ebd c14e dcbb 282f d4bc a5ba 9ebc
00000190: 490f 85bc ee40 33bd 16e3 0d3c 8fe8 6e3b
000001a0: 9f55 8f3c 1953 4e3d d937 cb3a a24f e1bc
000001b0: f3ba 45bb d354 5b3c 3a8e 453c b8e1 25bd
000001c0: b71f 363b 7fce 013d bdfd 963a b6a1 95bc
000001d0: 0824 4abb b561 a8bb 388f e0bb e2a5 883c
000001e0: a53e 26bd 5817 4b3b 735c de3c 184e a2bc
000001f0: 8f29 00bd f5d4 623d 13be be3c 5786 c83c
00000200: 5fba 103d 5360 523b 5f4a b8bc 4421 3f3c
00000210: 9ff6 883d 4da6 aa3d 0e8b db3c 439a ab3c
00000220: 806b 233b 7f40 b13c fc32 183d eea4 0a3d
00000230: 4d2e c93c 8e32 57bb 826e ccbc 5908 58bd
00000240: d914 0e3b c3bd 4f3c fd8a 903d 6d00 3f3d
00000250: 6626 db3c 4188 c83c a617 633d da2b e73c
00000260: c721 ef3c 6d04 563c 4060 8d3d a0dd 263d
00000270: 113d 06bd 4976 fabc 72f8 d43c dd2d 10bd
00000280: 98a2 34bd a511 21bd 9cba 963c 6bde d83c
00000290: 05b3 6c3d 769b 57bd fd34 2fbd cff6 783a
000002a0: 6302 c93c a9fe d13c 2280 34bb ea56 13bd
000002b0: c587 963b 050a 463c 0903 2e3d 4b22 a4bc
000002c0: 51fa 863d dfde babc e114 e63c 5ce8 72bc
000002d0: 13bf e13c 04a6 d2b9 53c4 d5bb 61f9 933c
000002e0: c625 513c f05a febc 6747 dfbc b316 713b
000002f0: 3ed8 8c3d 129c d0bc 4b0a 783c 03e8 8dbc
00000300: cec5 a73c 686e 4a3c 3594 263d 8030 fc3c
00000310: c37e 4d3c a4c7 a13c 5183 64bc 6946 f13b
00000320: 23b7 1a3d 7e43 a23d 8f0a 7c3d 1632 08bd
00000330: c790 90bb dbc2 eb3c cd2e 0cbc 3578 f93c
00000340: 0285 e53c 2063 893d 5254 1c3d 007f 04bd
00000350: e981 cebc 5efd 2dbd 5979 333d db6f 49bd
00000360: d320 fbbc 0905 e5bb c00e 24bd 121c 543d
00000370: 1fda 683c dba7 79bc fdf5 e53c 1933 85bd
00000380: 588f 443c 60f3 86bb 43a6 323c a866 5d3d
00000390: 59dd 5abd 49d3 903a 7eb4 24bc 3d7b 4c3c
000003a0: efd8 2a3d 52c0 4f3d 4a82 933c faff 1dbd
000003b0: dac7 4abd f149 073d 5722 223c 625b 953c
000003c0: 04a4 3b3d c8d3 e23c 4da1 2a3d d886 383d
000003d0: 533f ab3c 83b3 3d3d 97ef b2bc f119 38bc
000003e0: bf4c 27bd 6dd3 05bd 0dd4 21bd 0c0e 403d
000003f0: 42f9 f33c d411 b1bc e70f 21bc 5f56 8bbc

conv2.bias f4 [64]
-9.234374e-08 -2.7559147e-07 -2.2864483e-06 1.2307196e-07 -5.9493996e-09 -2.4748513e-07 2.8687805e-07 -3.2160563e-07
-5.1233023e-08 -8.943826e-08 -3.1696632e-07 -3.9367185e-07 1.6981191e-07 -4.6647983e-07 6.820965e-07 -4.0682778e-08
4.01946e-08 1.9664703e-06 -3.629945e-07 5.4574375e-08 -5.7415673e-07 7.2195417e-07 -3.2289518e-07 -5.1782152e-08
1.9972177e-07 -2.0947412e-07 -4.3146454e-07 1.7651588e-07 -3.801273e-07 -5.466236e-07 5.4484804e-08 3.6541316e-08
1.0895793e-06 5.0879487e-07 -1.3060493e-07 -2.4799867e-08 1.7111306e-07 1.2495101e-06 6.14364e-07 -4.7988715e-07
-2.094485e-07 -2.1503104e-07 -5.938542e-07 -8.199639e-07 -1.8103553e-07 6.7800795e-07 8.1113143e-07 1.9663825e-07
-2.9109955e-08 -2.1304339e-07 -5.8747e-07 8.2390085e-07 2.9612056e-07 2.1874305e-07 6.8527064e-09 2.8101985e-07
-3.9736216e-07 1.893942e-07 -5.2886105e-07 7.5531756e-07 4.1564888e-07 -1.7382068e-07 1.579198e-07 -9.2609774e-08
00000000: 824e c6b3 01f5 93b4 e270 19b6 c325 0434
00000010: 796b ccb1 19de 84b4 3804 9a34 24a9 acb4
00000020: 4e0b 5cb3 3411 c0b3 852b aab4 d959 d3b4
00000030: 8b55 3634 8070 fab4 5119 3735 30bb 2eb3
00000040: 6ea2 2c33 b4f7 0336 96e1 c2b4 2965 6a33
00000050: c01f 1ab5 50cc 4135 605a adb4 1467 5eb3
00000060: 1a73 5634 cfeb 60b4 09a4 e7b4 5188 3d34
00000070: 4c14 ccb4 b0bb 12b5 ad02 6a33 9af1 1c33
00000080: a93d 9235 1e94 0835 693c 0cb4 7c07 d5b2
00000090: 33bb 3734 d7b4 a735 c6ea 2435 98d1 00b5
000000a0: c4e4 60b4 48e3 66b4 5a69 1fb5 7d1b 5cb5
000000b0: ab62 42b4 5a00 3635 87bc 5935 8323 5334
000000c0: 780d fab2 ecc0 64b4 a2b2 1db5 092a 5d35
000000d0: 80fa 9e34 a2df 6a34 0b75 eb31 13df 9634
000000e0: 0a55 d5b4 485c 4b34 0ef7 0db5 07c1 4a35
000000f0: 5926 df34 77a3 3ab4 aa90 2934 c3e0 c6b3

bn1.weight f4 [32]
0.9086746 0.89816564 0.92021966 0.9221226 0.9521709 0.9440478 0.90062064 0.8983868
0.91656965 0.97098154 0.9768482 1.0074494 1.0094494 0.9124606 0.9229242 0.92136043
0.91498387 0.9359286 0.93004394 0.95651025 0.92837906 0.9029533 0.9724715 0.89257175
0.97936314 0.9119483 0.9185049 0.90762997 0.94623154 0.9395103 0.9124159 0.9155491
00000000: e69e 683f 2fee 653f 8493 6b3f 3a10 6c3f
00000010: 79c1 733f 1ead 713f 138f 663f adfc 653f
00000020: 4fa4 6a3f 3f92 783f b912 7a3f 1af4 803f
00000030: a335 813f 0597 693f c344 6c3f 47de 6b3f
00000040: 623c 6a3f 0499 6f3f 5c17 6e3f dbdd 743f
00000050: 40aa 6d3f f327 673f e4f3 783f 957f 643f
00000060: 8bb7 7a3f 7275 693f 2323 6b3f 705a 683f
00000070: 3b3c 723f bf83 703f 1794 693f 6d61 6a3f

bn1.bias f4 [32]
-0.02860307 0.016669668 -0.020597681 -0.041954737 0.07228134 -0.0023722919 -0.045021903 -0.022834664
0.018363442 0.017122481 0.062991686 0.07852995 0.06633031 0.005679956 -0.00546076 0.036436487
-0.043090552 0.06537226 -0.0074825636 -0.024158444 0.017936835 0.014372513 0.07144137 -0.018945534
0.03452843 -0.03223496 0.033095032 -0.02589192 0.06100601 0.019491605 0.020457951 -0.028491398
00000000: fc50 eabc d48e 883c 78bc a8bc bbd8 2bbd
00000010: 3d08 943d 7478 1bbb e368 38bd c30f bbbc
00000020: ee6e 963c 7244 8c3c c901 813d 4fd4 a03d
00000030: 30d8 873d ed1e ba3b 2df0 b2bb 6d3e 153d
00000040: b87f 30bd e4e1 853d 4b30 f5bb eee7 c5bc
00000050: 45f0 923c b07a 6b3c da4f 923d aa33 9bbc
00000060: af6d 0d3d ce08 04bd a88e 073d 4b1b d4bc
00000070: 70e1 793d dcac 9f3c 6f97 a73c cb66 e9bc

bn1.running_mean f4 [32]
0.004762372 -0.0052943975 0.07684216 -0.0056063784 -0.07762413 0.03660322 0.02103525 -0.0006319639
0.030523185 -0.07202583 -0.0746551 -0.072958924 -0.078296624 -0.006769843 0.085096784 -0.06278348
0.029258177 -0.048841815 0.02684034 0.048401475 -0.054693393 -0.04383241 -0.075987935 -0.008206951
-0.0374542 0.02616087 -0.009812385 0.037481915 -0.07857171 0.005028745 0.020984245 0.11011995
00000000: ac0d 9c3b a07c adbb 6c5f 9d3d b6b5 b7bb
00000010: 66f9 9ebd 42ed 153d 1e52 ac3c 61aa 25ba
00000020: c20b fa3c 4782 93bd c6e4 98bd 7d6b 95bd
00000030: fb59 a0bd 8fd5 ddbb 3947 ae3d a094 80bd
00000040: d8ae ef3c 5b0e 48bd 46e0 db3c a040 463d
00000050: 2e06 60bd 9d89 33bd 909f 9bbd 7376 06bc
00000060: 9369 19bd 524f d63c 20c4 20bc a386 193d
00000070: 34ea a0bd 2cc8 a43b 27e7 ab3c 9186 e13d

bn1.running_var f4 [32]
0.012508389 0.015649498 0.01265745 0.013187984 0.02070886 0.021368952 0.009962397 0.010403193
0.016177528 0.015583295 0.0072300667 0.02541741 0.01427549 0.012337651 0.02456441 0.011998553
0.019550629 0.014888723 0.013895455 0.02181698 0.015460516 0.013826974 0.014160002 0.017860679
0.020073162 0.015291589 0.01741912 0.01921235 0.01855014 0.013904145 0.027923182 0.013966866
00000000: fcef 4c3c 6033 803c 3161 4f3c 6a12 583c
00000010: a1a5 a93c f10d af3c 5239 233c 2772 2a3c
00000020: bc86 843c 1451 7f3c 32ea ec3b 2c38 d03c
00000030: bfe3 693c dc23 4a3c 4d3b c93c 9495 443c
00000040: a428 a03c d5ef 733c c3a9 633c 86b9 b23c
00000050: 1b4e 7d3c 888a 623c 5aff 673c 8f50 923c
00000060: 7970 a43c 9389 7a3c 8bb2 8e3c 3863 9d3c
00000070: 77f6 973c 36ce 633c 28bf e43c 48d5 643c

bn2.weight f4 [64]
1.0686669 1.0030855 1.0226387 1.168648 1.0217439 1.145645 1.0579805 1.074878
1.1242335 1.1084592 1.1080487 1.1428207 1.0450248 1.0400904 1.0483668 1.0010917
1.1321806 1.0700226 1.1062853 1.0694067 1.090147 1.0045669 1.0800601 0.9773259
1.1871117 1.010112 1.139711 1.084024 1.1171024 1.1137664 1.0371088 1.0104086
1.0974174 1.0114307 1.0756532 1.0919392 0.97666955 1.0071231 0.9842275 1.1440004
1.0813761 1.0890368 1.0317394 1.0946271 1.1804951 1.1209862 1.1439319 1.090274
1.0214295 1.1077939 1.0624412 1.1713643 1.0839674 1.076935 1.0084716 1.1110128
1.0926782 1.0850314 1.1637086 1.0962665 1.0872458 1.0747875 1.0884106 0.9877019
00000000: 14ca 883f 1b65 803f d3e5 823f 4296 953f
00000010: 81c8 823f 7fa4 923f e86b 873f 9a95 893f
00000020: e2e6 8f3f fee1 8d3f 8ad4 8d3f f347 923f
00000030: 5fc3 853f af21 853f e230 863f c623 803f
00000040: 4beb 903f 80f6 883f c29a 8d3f 52e2 883f
00000050: f089 8b3f a695 803f 693f 8a3f 0832 7a3f
00000060: 47f3 973f 5a4b 813f 0de2 913f 4cc1 8a3f
00000070: 36fd 8e3f e68f 8e3f fbbf 843f 1255 813f
00000080: 2c78 8c3f 9076 813f 01af 893f aac4 8b3f
00000090: 0407 7a3f 69e9 803f 55f6 7b3f 9b6e 923f
000000a0: 886a 8a3f 8f65 8b3f 0910 843f be1c 8c3f
000000b0: 771a 973f 7a7c 8f3f 5c6c 923f 198e 8b3f
000000c0: 34be 823f 31cc 8d3f 13fe 873f 44ef 953f
000000d0: 72bf 8a3f 02d9 893f 9915 813f ab35 8e3f
000000e0: e1dc 8b3f 4fe2 8a3f 67f4 943f 7652 8c3f
000000f0: df2a 8b3f a392 893f 0a51 8b3f 08da 7c3f

bn2.bias f4 [64]
0.082890876 -0.05014733 -0.03477383 0.08172024 -0.015350926 0.13032013 0.04893433 0.08853832
0.099998236 0.123506695 0.007328057 0.13861415 0.02595435 0.11881166 -0.07973625 -0.029318498
0.12855785 0.08809749 0.11315882 0.07912687 0.1209274 -0.0017835819 0.10225789 -0.02609957
0.08523729 -0.023505365 0.13018918 0.07457716 0.18971696 0.11878817 -0.011400697 0.009205501
0.114801385 -0.019131606 0.08328648 0.0923381 -0.03789374 0.012667926 -0.052746844 0.14766102
0.09105269 0.12989002 -0.03516978 0.11182968 0.14692034 0.039930213 0.129669 0.089385346
0.0050506946 0.12220033 0.07946892 0.10353182 -0.038450696 0.061017502 -0.023927547 0.14211111
0.09608128 0.0973308 0.13746437 0.04558642 -0.038638994 0.10259944 0.10527507 -0.019310622
00000000: b1c2 a93d 4967 4dbd 016f 0ebd f15c a73d
00000010: 7382 7bbc a472 053e 5d6f 483d 9453 b53d
00000020: e0cb cc3d 14f1 fc3d 3320 f03b def0 0d3e
00000030: 389e d43c 8753 f33d c24c a3bd 592d f0bc
00000040: aba4 033e 756c b43d d0bf e73d 450d a23d
00000050: c9a8 f73d 14c7 e9ba 966c d13d c4ce d5bc
00000060: e390 ae3d 538e c0bc 5050 053e e9bb 983d
00000070: 2a45 423e 3647 f33d fdc9 3abc abd2 163c
00000080: fd1c eb3d e3b9 9cbc 1a92 aa3d c21b bd3d
00000090: 7736 1bbd 228d 4f3c 130d 58bd 7334 173e
000000a0: d579 ba3d e401 053e 300e 10bd f606 e53d
000000b0: 4972 163e dd8d 233d f3c7 043e aa0f b73d
000000c0: 4c80 a53b 2b44 fa3d 9ac0 a23d 7e08 d43d
000000d0: 7a7e 1dbd 7ded 793d b403 c4bc 9385 113e
000000e0: 43c6 c43d 5f55 c73d 76c3 0c3e d3b8 3a3d
000000f0: ec43 1ebd a81f d23d 759a d73d 4f31 9ebc

bn2.running_mean f4 [64]
0.16551673 -0.44288674 0.11512012 -0.003348543 -0.06214152 0.09254845 0.09337848 -0.09383475
0.042364337 -0.08565339 -0.042505886 -0.1580299 0.23982343 -0.0467412 0.18447785 0.06654734
-0.01715882 -0.023141641 -0.14875886 0.13577746 -0.044239756 0.07809836 -0.13714693 -0.11497064
0.15839817 0.015911888 -0.21452634 0.06550349 0.00736618 -0.43508962 -0.09943199 -0.010592905
-0.33598748 0.13584115 -0.092403784 -0.15501924 0.07686969 0.024365112 0.024689598 -0.23280191
-0.20196792 -0.1739166 -0.03506732 -0.13007557 -0.37504065 0.19004665 0.2331702 -0.045244403
-0.14036767 0.25603083 -0.049497318 0.22127417 0.28822333 0.07432724 -0.010966671 0.2985141
-0.031014232 0.029682467 -0.18273938 0.08063812 0.10288279 -0.0066829347 0.021992076 0.009024754
00000000: 387d 293e 0dc2 e2be 19c4 eb3d 3b73 5bbb
00000010: 1b88 7ebd 0b8a bd3d 373d bf3d 6f2c c0bd
00000020: 3a86 2d3d 0b6b afbd a71a 2ebd 97d2 21be
00000030: 4694 753e b373 3fbd c3e7 3c3e f949 883d
00000040: a790 8cbc 8a93 bdbc 3e54 18be 3f09 0b3e
00000050: bf34 35bd 08f2 9f3d 3f70 0cbe ba75 ebbd
00000060: 2133 223e a659 823c cbac 5bbe b226 863d
00000070: ff5f f13b 11c4 debe 00a3 cbbd dd8d 2dbc
00000080: 8d06 acbe f119 0b3e 323e bdbd 5dbd 1ebe
00000090: db6d 9d3d 5899 c73c d741 ca3c a063 6ebe
000000a0: aed0 4ebe 3117 32be c0a2 0fbd 8832 05be
000000b0: 5405 c0be 979b 423e 2bc4 6e3e 3252 39bd
000000c0: 8bbc 0fbe 7916 833e b3bd 4abd b295 623e
000000d0: 0292 933e e138 983d 8dad 33bc d7d6 983e
000000e0: 8f11 febc a528 f33c 0820 3bbe 9925 a53d
000000f0: 36b4 d23d 85fc dabb ba28 b43c 90dc 133c

bn2.running_var f4 [64]
0.12085906 0.05651017 0.039402574 0.028440751 0.06604612 0.038462028 0.045109976 0.0582546
0.029571949 0.053335216 0.03489404 0.044882424 0.085753575 0.040178813 0.041071165 0.027249513
0.031735845 0.04735691 0.047330838 0.07725377 0.055941075 0.026820716 0.043484055 0.036802214
0.06289168 0.024670383 0.051173624 0.035486054 0.03071523 0.07457151 0.039280273 0.07787337
0.06388822 0.04199098 0.050947793 0.08391907 0.034371153 0.027136713 0.023437763 0.055383533
0.054419026 0.022829214 0.019422723 0.044694137 0.06363874 0.03686094 0.05694711 0.038031764
0.030219609 0.07793748 0.06215511 0.027736658 0.03291478 0.034367755 0.06778102 0.077982955
0.06904301 0.07288562 0.027682977 0.050509684 0.06358704 0.106416605 0.047726616 0.04111274
00000000: f484 f73d 3577 673d 9864 213d 94fc e83c
00000010: 3043 873d 5c8a 1d3d 3dc5 383d 609c 6e3d
00000020: df40 f23c 0776 5a3d 0eed 0e3d a2d6 373d
00000030: 929f af3d 8a92 243d 3d3a 283d 5f3a df3c
00000040: 72fd 013d 52f9 413d fbdd 413d 3937 9e3d
00000050: 7822 653d 1eb7 db3c 561c 323d ebbd 163d
00000060: 5acd 803d 8b19 ca3c 6f9b 513d d359 113d
00000070: 829e fb3c f3b8 983d 5ae4 203d 137c 9f3d
00000080: d4d7 823d bcfe 2b3d a2ae 503d c3dd ab3d
00000090: c4c8 0c3d d04d de3c 8d00 c03c d8d9 623d
000000a0: 7ce6 5e3d 5504 bb3c 671c 9f3c 3311 373d
000000b0: 0755 823d 7ffb 163d 5f41 693d 32c7 1b3d
000000c0: 1d8f f73c af9d 9f3d 5b96 7e3d fd37 e33c
000000d0: a6d1 063d 34c5 0c3d c7d0 8a3d 87b5 9f3d
000000e0: 6c66 8d3d 0e45 953d 69c7 e23c 3ee3 4e3d
000000f0: ec39 823d f3f0 d93d fc7c 433d d565 283d

output_conv.weight f4 [6, 64, 1, 1]
0.17090201 -0.09744698 -0.074467 0.066035755 -0.0399971 0.1463326 0.13294427 0.18977737
0.13232927 0.20559475 0.03338686 0.055435866 -0.11005266 0.067029774 -0.008017476 -0.11918765
0.02914076 0.18254504 0.17714658 -0.13934632 0.14472862 -0.09502553 0.11725768 -0.07694178
0.037717815 -0.07881349 0.0035485586 0.18755582 0.037842013 0.17499702 -0.030195726 -0.15151107
0.17062742 -0.20820196 0.16350935 0.19845971 -0.14582664 -0.038597386 -0.08688647 0.16721795
0.10164944 0.08132954 -0.052209087 0.1368792 0.119173795 -0.008876185 0.06934861 0.20653223
-0.040873732 0.15950264 0.18027595 0.10501472 -0.10481852 -0.050811004 -0.09591856 0.10937051
0.21123554 0.1890543 0.16794129 0.2095985 -0.1678596 0.15457211 0.15550105 -0.043302584
-0.100967556 0.07963215 -0.24065337 0.016102074 0.14735821 -0.024271937 0.035088465 -0.09765108
-0.22011045 -0.10351737 0.13001107 -0.20130672 0.07242317 -0.12730227 0.18099295 -0.16650958
-0.16459124 -0.16431445 -0.11925295 0.11159323 0.038471628 -0.21009088 -0.19853 0.032266587
0.18874502 0.0051876064 -0.2557586 -0.12830634 -0.17183071 0.019122772 -0.16237943 0.12844296
-0.012204413 0.053184174 -0.21782693 -0.18873714 0.1481209 -0.15806825 -0.17281118 -0.18094069
-0.1804211 0.15076345 -0.06424746 0.0069766464 0.08133556 -0.29266235 -0.05209994 -0.1074314
-0.2172518 -0.23160893 -0.15081398 -0.07940384 -0.07061954 0.083116375 0.16882333 -0.034833297
0.03312403 -0.09808424 -0.1183026 0.07016815 0.14951944 -0.19375779 0.0007434809 -0.1895243
0.02186028 0.11055433 -0.19131598 -0.1724788 0.026863474 -0.028973 -0.25585228 0.004705849
-0.065480545 0.13275884 -0.158832 0.078049235 -0.29270142 0.15944391 -0.1953617 0.04048019
0.08849145 -0.09962993 0.14186174 -0.17073566 -0.004511601 0.09570541 -0.019635405 0.12055698
-0.2609911 -0.0380479 -0.030426478 -0.1571025 0.056707952 0.15823853 0.15237048 -0.044351213
0.11739556 -0.16138007 0.057766963 0.08529586 -0.094234124 -0.23954538 -0.07605152 0.16907787
0.0022157812 0.010751892 -0.16957384 -0.036393154 0.17666516 0.009442502 0.16408844 -0.06696069
0.111460276 0.15567434 -0.0776729 -0.25406072 -0.22565457 -0.27256453 0.008176795 0.1377778
-0.14363077 -0.054873932 0.19598861 -0.15399067 -0.1660054 0.048455123 0.014258999 0.11141874
-0.04430196 0.07542919 0.14820437 -0.20880261 0.025198886 -0.15604112 -0.14114548 -0.17377847
0.026749533 0.03439978 0.11638953 -0.21991837 0.111269586 -0.18472396 0.0108404765 -0.20184602
-0.19871908 -0.19037125 -0.1166132 0.060443345 -0.15028195 -0.16224039 -0.14649065 0.10287415
0.16927025 0.10789313 -0.061081387 -0.10523283 -0.15351497 -0.25111946 -0.072988525 0.10029568
-0.18244675 2.791528e-05 -0.21098855 -0.07082382 0.010560124 0.09253056 0.10595366 0.017378379
-0.16859686 0.075805955 -0.19490145 -0.26071805 -0.24892214 0.15694386 -0.19085231 -0.023164373
0.06346315 -0.056153897 -0.15341385 -0.11853582 0.109705344 0.08967137 0.10618787 -0.22438814
-0.26489913 -0.24805072 0.09119826 -0.05708766 0.13760626 -0.0708684 -0.061337728 -0.032543525
00000000: f000 2f3e 4892 c7bd 2882 98bd c13d 873d
00000010: 00d4 23bd 37d8 153e 8b22 083e 0055 423e
00000020: 5381 073e 6e87 523e a9c0 083d b810 633d
00000030: 4a63 e1bd e846 893d bb5b 03bc a818 f4bd
00000040: 9ab8 ee3c 16ed 3a3e ea65 353e cdb0 0ebe
00000050: bd33 143e bf9c c2bd cb24 f03d a793 9dbd
00000060: ff7d 1a3d f868 a1bd ef8e 683b a20e 403e
00000070: 3a00 1b3d 6b32 333e 075d f7bc b825 1bbe
00000080: f4b8 2e3e e532 55be ff6e 273e 0639 4b3e
00000090: 9453 15be 4b18 1ebd 89f1 b1bd 2f3b 2b3e
000000a0: 952d d03d 1a90 a63d 32d9 55bd 102a 0c3e
000000b0: 6411 f43d 6b6d 11bc a506 8e3d 2f7d 533e
000000c0: 376b 27bd a954 233e 429a 383e f511 d73d
000000d0: 18ab d6bd 331f 50bd f370 c4bd a5fd df3d
000000e0: 214e 583e 7397 413e cdf8 2b3e fda0 563e
000000f0: 63e3 2bbe 2748 1e3e ab3b 1f3e 0d5e 31bd
00000100: 14c8 cebd 2e16 a33d d66d 76be 7fe8 833c
00000110: 12e5 163e f1d5 c6bc ecb8 0f3d 4afd c7bd
00000120: a264 61be ea00 d4bd 9f21 053e 5923 4ebe
00000130: 9952 943d 875b 02be 3756 393e 7d81 2abe
00000140: 9b8a 28be 0c42 28be e43a f4bd fe8a e43d
00000150: 6d94 1d3d 1022 57be 734b 4bbe f829 043d
00000160: 6046 413e ccfc a93b cbf2 82be bd62 03be
00000170: 64f4 2fbe 5ca7 9c3c cb46 26be 8d86 033e
00000180: 05f5 47bc a6d7 593d 060e 5fbe 4f44 41be
00000190: 01ad 173e a5dc 21be 6af5 30be 8448 39be
000001a0: 4fc0 38be bc61 1a3e 2c94 83bd 5a9c e43b
000001b0: 4293 a63d d7d7 95be bf66 55bd fe04 dcbd
000001c0: 4177 5ebe e42a 6dbe fb6e 1abe 7b9e a2bd
000001d0: faa0 90bd eb38 aa3d 06e0 2c3e 5cad 0ebd
000001e0: 10ad 073d 64e0 c8bd a248 f2bd 52b4 8f3d
000001f0: a01b 193e 7168 46be 29e6 423a a812 42be
00000200: 5414 b33c 4f6a e23d 56e8 43be 489e 30be
00000210: ca10 dc3c c958 edbc 12ff 82be 8633 9a3b
00000220: aa1a 86bd eff1 073e dba4 22be 47d8 9f3d
00000230: f6dc 95be 4445 233e e60c 48be 8ece 253d
00000240: 013b b53d c70a ccbd 3444 113e 54d5 2ebe
00000250: 0dd6 93bb 3301 c43d 6eda a0bc 94e6 f63d
00000260: a0a0 85be 1dd8 1bbd f340 f9bc 7adf 20be
00000270: 9946 683d 4809 223e 0207 1c3e 9ea9 35bd
00000280: 156d f03d d140 25be 0d9d 6c3d 99af ae3d
00000290: d2fd c0bd 624b 75be e6c0 9bbd c022 2d3e
000002a0: a436 113b b428 303c c4a4 2dbe fd10 15bd
000002b0: b6e7 343e b9b4 1a3c cd06 283e b022 89bd
000002c0: 4945 e43d 1869 1f3e f812 9fbd 3f14 82be
000002d0: fe11 67be 948d 8bbe f7f7 053c a015 0d3e
000002e0: f213 13be 7dc3 60bd 3db1 483e bbaf 1dbe
000002f0: 52fd 29be e178 463d 949e 693c 822f e43d
00000300: f975 35bd 9f7a 9a3d e3c2 173e 5ad0 55be
00000310: e56d ce3c 3ec9 1fbe 7188 10be fcf2 31be
00000320: d621 db3c c9e6 0c3d a25d ee3d 4832 61be
00000330: 4fe1 e33d 4728 3dbe 419c 313c b9b0 4ebe
00000340: 047d 4bbe aef0 42be e7d2 eebd 7193 773d
00000350: 83e3 19be 5822 26be a501 16be afaf d23d
00000360: 2e55 2d3e 13f7 dc3d 7a30 7abd 4f84 d7bd
00000370: 0733 1dbe bb92 80be 027b 95bd d267 cd3d
00000380: 52d3 3abe 9b2b ea37 620d 58be 140c 91bd
00000390: 5f04 2d3c aa80 bd3d 3cfe d83d 1a5d 8e3c
000003a0: a8a4 2cbe 2740 9b3d 3f94 47be d67c 85be
000003b0: 72e5 7ebe e4b5 203e ca6e 43be 36c3 bdbc
000003c0: f8f8 813d a101 66bd 8518 1dbe e8c2 f2bd
000003d0: 32ad e03d a0a5 b73d 0779 d93d 01c6 65be
000003e0: dca0 87be 0201 7ebe 27c6 ba3d c0d4 69bd
000003f0: a8e8 0c3e 7423 91bd 453d 7bbd 5c4c 05bd

output_conv.bias f4 [6]
0.1667211 -0.06600861 -0.08721349 0.057520267 0.02023824 0.007612382
00000000: f0b8 2a3e 862f 87bd fc9c b2bd 5f9a 6b3d
00000010: aaca a53c 4a71 f93b
