training/trained_models/model_standard_pulse.pth (torch, 907440 bytes, 20 tensors)

conv1.weight f4 [64, 2, 3, 3]
00000000: e83f 333e a697 623e 03a5 4d3e 813a 403e
00000010: d9e6 8dbd 159f 19be e2dd a93d d965 243d
00000020: 5df6 433e 7ae9 573e 7319 31bd 33a8 c1bc
00000030: 5f63 5c3e 250e 1d3e 8833 273d 50e4 563e
00000040: 25eb 44bd 31db 673d 6fe3 d43d 3e77 42bd
00000050: 8b79 313d 0426 083e 8a02 673e 1d3e 6abe
00000060: 92c2 3d3d f042 1cbe 5d62 abbd 78ea 413e
00000070: 5b90 48be 0e8f 72bc 5700 08be 3d89 4e3e
00000080: 433e d33d e63c 6b3d 6aca 573e 7453 013e
00000090: bae7 8d3d f885 323e a945 0fbe c88f b43d
000000a0: c040 633d 2899 a7bd 25f4 26bd 2f79 09be
000000b0: e1da 18bd da43 69be 074f dcbd 7086 bbbd
000000c0: 49ef af3d e336 a5bb 5967 24bd d35d 5f3e
000000d0: 1e94 b23d a5ef 36be 820c 21be 4b29 07be
000000e0: 2b71 a63d 0c1d 13be 4a09 903d c2af 8b3d
000000f0: d177 7bbd fb4c bfbd 1743 20bc 6f77 183e
00000100: 2d3f cdbd 72c4 09be 3044 4f3e 4901 1fbe
00000110: 1800 38bd dc90 a2bd a009 5b3d ce02 fd3c
00000120: f869 1f3d e45f 163e 0df2 8abc 252f 4abe
00000130: c05c cd3b a7fd fbbd 541b 163e 65d4 c63d
00000140: 1892 6d3c 0ee6 c13d b8e5 ba3d 53bd 4c3e
00000150: 6259 05be a4b5 e63d 0783 f03c 07d7 5e3e
00000160: 400c f8bd a1dd e33d 9081 563d fd67 19be
00000170: ffac c8bd d440 6cbe 7b48 f9bd 9a26 0e3e
00000180: 7675 2fbe a392 063e 16c0 453e b116 fdbd
00000190: 7743 6ebe aa8e cc3d df16 073e 2012 333e
000001a0: b39e babd 7833 dd3c bf9c f53d be7b aebd
000001b0: 1087 19be 647c 92bd 8324 53be 0176 1d3e
000001c0: 194c 2dbe 1d5c 173e 7820 32bb cdcc 25bd
000001d0: 0e3c 323e 635b dcbd d8aa 61be a686 09be
000001e0: 58f0 d13d 8b67 83bd a616 a9bd 34df e93d
000001f0: 4703 3cbe 3862 753d a41b dd3d cd86 283e
00000200: 9226 1cbe 085d 1f3e c01b 283e c811 52be
00000210: 1f0a 37be bed5 353e cbe9 613e 3eef 2fbe
00000220: 4e89 8e3b f600 bdb9 3593 e43c 467d a63c
00000230: d013 453e 98a2 133e 32ff 333e 2023 b03d
00000240: 05e9 84bd 7dd2 94bd dd38 a83c d302 b6bc
00000250: be99 c83c 2ec9 453e f265 eabc 36d5 0abe
00000260: 89f1 03bd 42b3 efbd 4b22 64be 0d6f 37be
00000270: 21c6 6f3e 3b4a 303e a2cd c2bd 8863 3cbe
00000280: 7973 043e 3118 10be 33d0 183e d62c 3f3e
00000290: 4fa6 41be ba64 283e 537f b93d 54ff 4ebe
000002a0: 51ad 7d3d f104 53be 8843 93bd 653a 07be
000002b0: edeb 933b 3496 19be 8eba 09bd 1d5f 9d3c
000002c0: a137 6e3e bae1 493c 4872 323e c72d 153c
000002d0: 935c d4bd 36ad 34be 7e64 22be 9b4a 4bbd
000002e0: 8c23 22be 1d8f 5c3d 97a9 7a3d 169d 503e
000002f0: 4687 233e 123a 923d 36e9 91bd 5d28 3f3e
00000300: c3e1 3dbe a9bb 523e 669b 523e 1885 c7bc
00000310: 60b2 873d 6da1 11be becb 983d 31f1 8fbc
00000320: b64d 333d 1bcb 093e 0097 a73d 7812 58be
00000330: 6b33 1b3e 1145 cbbd 93bc ca3c a40d 5fbe
00000340: e81e 6dbe a8c6 853d 63af 82bd ce63 493e
00000350: 34ff cfbc ae52 00bd 4ac1 4f3e a0be a73d
00000360: 7507 2bbe c5c2 783d a862 58bc a20a 1fbd
00000370: a058 f43d 3aad d43d d8b8 9d3c 31ec 04be
00000380: 29e8 473d 789b 4b3e bade d8bd 2159 1bbd
00000390: e435 533e ce72 afbd b72c 6bbe fcd8 b1bd
000003a0: ed5c 193e 5b17 773d 3a0f 583e c273 d5bd
000003b0: c476 cabd aa48 163e d70a 123d 4e84 e03c
000003c0: 20ff a3bc e18d cbbd 2034 45be 1a72 db3c
000003d0: 3fd5 c0bd 178d 81bd 9b7f a73d b697 58be
000003e0: 10df 7bbd a0f3 423d 8b07 2bbe 61a6 6bbe
000003f0: 1cc0 983c b917 bc3d f666 0abe fe9e 0bbd
0.17504847 0.22128162 0.20082478 0.18772317 -0.06928796 -0.15002091 0.08294274 0.040136192
0.19136949 0.21085158 -0.04323716 -0.023639774 0.21522282 0.15337427 0.04082063 0.20985532
-0.048075814 0.05660552 0.10394942 -0.047477 0.043328803 0.13295752 0.22559562 -0.22875257
0.046328135 -0.1525991 -0.08368371 0.18937099 -0.19586317 -0.014804615 -0.1328138 0.2016954
0.1031461 0.057431124 0.21073309 0.12629491 0.06928964 0.17433918 -0.13991417 0.088164866
0.055481672 -0.08183509 -0.040760178 -0.13425134 -0.037318114 -0.2277979 -0.10757261 -0.09156501
0.08590562 -0.0050419434 -0.040137623 0.21813135 0.08719657 -0.17864855 -0.15727428 -0.13199346
0.08127054 -0.14366549 0.07033022 0.068206325 -0.061393563 -0.09340855 -0.00978162 0.1488931
-0.100218154 -0.13453844 0.20240855 -0.15527834 -0.044921964 -0.07937786 0.053475976 0.030885126
0.03891942 0.14685017 -0.016961122 -0.19744547 0.00626716 -0.1230424 0.14658862 0.0970848
0.0145001635 0.094677076 0.091258466 0.19994096 -0.13022378 0.11265114 0.029359354 0.21761714
-0.121117115 0.11126257 0.052369654 -0.14981075 -0.097986214 -0.23071605 -0.12172028 0.13881913
-0.17134652 0.13141875 0.19311556 -0.12357844 -0.23267923 0.099881485 0.13192318 0.17487383
-0.09112301 0.027002081 0.119927876 -0.08519696 -0.14992929 -0.07152632 -0.20619397 0.15377046
-0.1692356 0.14781232 -0.0027179997 -0.040478516 0.17405722 -0.10759618 -0.22037828 -0.1343027
0.1025092 -0.06416234 -0.08256273 0.11419526 -0.18360625 0.05990812 0.10796288 0.16457672
-0.15249088 0.15562832 0.16416836 -0.20514596 -0.17874955 0.17757317 0.22061841 -0.17181107
0.004349864 -0.00036049605 0.027902225 0.020323407 0.19245839 0.14417493 0.17577818 0.086004496
-0.064897574 -0.0726671 0.020534927 -0.022218144 0.024487372 0.19315025 -0.028613064 -0.13557896
-0.032212768 -0.117041126 -0.22278707 -0.17913456 0.23415424 0.17215817 -0.095118776 -0.18397343
0.12934674 -0.14071728 0.14923172 0.18669447 -0.18911098 0.16444674 0.09057488 -0.20214587
0.061932866 -0.20607354 -0.07190615 -0.1320587 0.0045142085 -0.14998704 -0.033625178 0.019210393
0.23263408 0.012321884 0.17426407 0.009105152 -0.1036922 -0.176442 -0.15858647 -0.049631696
-0.15833873 0.05384742 0.06119689 0.20372424 0.15969571 0.07139982 -0.071245596 0.18667741
-0.18543153 0.20579399 0.20567092 -0.024355456 0.06625819 -0.14221735 0.07460736 -0.017571064
0.043775283 0.13456385 0.08183098 -0.21100795 0.15156333 -0.09925283 0.024748122 -0.21782547
-0.23156321 0.06532031 -0.063811086 0.19666979 -0.025390245 -0.03132885 0.20288578 0.08190656
-0.16702063 0.06073262 -0.013207115 -0.0388285 0.119309664 0.10384603 0.01925318 -0.12980725
0.04880539 0.19883525 -0.10589357 -0.037926797 0.20626026 -0.08566819 -0.22966276 -0.086839646
0.14976855 0.060325008 0.21099558 -0.1042247 -0.09885934 0.14676157 0.03565487 0.027406838
-0.020019114 -0.09939171 -0.19258165 0.026787806 -0.094156735 -0.06325739 0.08178636 -0.21151623
-0.061492026 0.04759562 -0.16702096 -0.23012687 0.018646292 0.09184212 -0.13515839 -0.034087174

conv1.bias f4 [64]
00000000: 1486 82bd d53b 403e cd82 d5bd 1ab0 57bd
00000010: 52fb 29be fe61 02be 8fe9 25be 0a2e a7bd
00000020: a13f 9d3d 04de c63c b7c6 10be daea b5bd
00000030: 8a0c 0fbe b911 523d c58d d43d 6d9f a13d
00000040: 271b 5bbe eb19 493e 9472 9ebd 5105 23be
00000050: c2b7 05bd 0b51 9dbd 1ce1 6f3e 45f4 343e
00000060: 48c4 173d ee25 5cbe eac7 54bd f629 e13d
00000070: e24b 3bbe f6a1 003d 1ce3 4e3d a384 51bd
00000080: 341a 55be 6202 3cbe 08e5 5cbe 2b84 93bd
00000090: 6c83 0bbe c19f 7f3b e33c 313d 204c 123e
000000a0: eeaf 1f3d 4a32 6d3e 9dbd e63d e752 1cbd
000000b0: 7937 613e 35f4 dd3c 84fd 6dbe ed49 e23d
000000c0: 50e4 cc3d b9f9 5c3d d3c0 ecbd 940c 1bbe
000000d0: a396 08be 5e61 27be ef58 a13b 5615 413e
000000e0: 78ca 833d e61e 8c3c 551d 55be 385b 22bb
000000f0: 3603 c33d 7432 e0bd 44af 99bd 353f 3d3e
-0.063732296 0.18772824 -0.10425339 -0.052658178 -0.16599777 -0.12732694 -0.16202377 -0.08163078
0.07678152 0.024275787 -0.14138304 -0.08882685 -0.13969627 0.051286433 0.10378603 0.07891736
-0.21397077 0.19638793 -0.07736698 -0.15919997 -0.03264595 -0.07681473 0.23425716 0.17671306
0.037052423 -0.21498844 -0.051948465 0.109943315 -0.18290666 0.031404458 0.050509557 -0.051151883
-0.20810777 -0.18360284 -0.21571743 -0.072029434 -0.13624352 0.0039005133 0.043270957 0.14286852
0.03898614 0.23163715 0.112666346 -0.038165 0.21993817 0.027093986 -0.2324124 0.110492565
0.10004485 0.05394909 -0.11560216 -0.15141517 -0.13338713 -0.16345736 0.004923932 0.18855795
0.06435102 0.017104577 -0.2081197 -0.002477361 0.09522097 -0.10947123 -0.075041324 0.18481143

bn1.weight f4 [64]
00000000: 7a0a 7f3f 5ae5 7e3f bb95 7f3f 9be9 803f
00000010: ba43 803f bc3d 813f 0402 813f a54a 7e3f
00000020: db06 7d3f 0e34 803f 8a9d 7d3f f928 813f
00000030: 05c7 7f3f 4e07 803f edb0 7f3f a74a 813f
00000040: ac8b 7f3f 629d 803f 82f3 7f3f 6725 7e3f
00000050: 54d6 7d3f 9152 7e3f 9000 813f 1dfe 803f
00000060: cefd 813f 5189 803f c68d 7e3f 8beb 7e3f
00000070: 3bc5 7f3f f920 803f 3c36 803f ff4d 803f
00000080: 08fe 803f 68e9 7f3f 8516 813f 0e0a 7e3f
00000090: e18d 803f aa1d 7e3f 9f47 7f3f 6ef5 7f3f
000000a0: fec0 7f3f 63ea 813f 19fe 803f 5fcc 7f3f
000000b0: 0ec9 7f3f d241 803f 5a4e 813f 1afe 7f3f
000000c0: 8126 7e3f 58ac 7f3f 62ca 7c3f 334d 7e3f
000000d0: 8b90 7f3f 568a 803f 7bfb 813f 9b82 7e3f
000000e0: 68bc 7d3f d31b 7f3f 1c9e 7e3f da5b 7c3f
000000f0: d2a8 803f e92a 803f ce0a 813f 2dba 7e3f
0.9962536 0.9956871 0.99837846 1.0071291 1.0020669 1.0096965 1.007874 0.9933265
0.98838586 1.0015886 0.9906851 1.0090629 0.99913055 1.0002229 0.9987934 1.0100907
0.998225 1.004803 0.9998094 0.9927582 0.99155164 0.99344736 1.0078297 1.0077549
1.015558 1.0041906 0.9943508 0.9957816 0.99910325 1.0010062 1.0016551 1.0023803
1.0077524 0.99965525 1.0084997 0.9923409 1.0043298 0.99264014 0.9971866 0.9998387
0.9990386 1.0149654 1.0077544 0.9992122 0.9991616 1.0020087 1.0102036 0.99997103
0.992775 0.9987235 0.9874631 0.99336547 0.9982993 1.0042217 1.0154871 0.9941804
0.9911561 0.9965183 0.99460006 0.98577654 1.005152 1.0013095 1.0081422 0.9950283

bn1.bias f4 [64]
00000000: 1c43 4f3c 045f 013b 1c8c 54bb f6c8 143c
00000010: 652f 9b3a 2e60 7d3c f379 433b 9937 bcbb
00000020: 6795 d8bb 530a 193c 90cb a23b 606e 793c
00000030: 30b7 213c 2eac b93b a112 79bb ad01 7b3c
00000040: de5d 333c 3daf 473a 131b c53b d4aa 55bc
00000050: 0284 c8bb 42a5 a0bb 6b5b 263c 705f a93c
00000060: e15a 303c cb69 033c d08f 063c 67f3 ddbb
00000070: 6b76 04bc 012a 2fbc d275 a13c cf2f d3bb
00000080: cc94 163b 7945 76ba 8124 eebb df61 223c
00000090: eb46 403c e9a0 abbb e6cb 663b 52ae 00bb
000000a0: 3b23 9a3b 8a04 36bb 8fa5 443b fa54 c7bb
000000b0: 0b48 a73a d492 9f3b 5ab3 3e3c 2ffc 2bbc
000000c0: 2c1e 00bc de3c 00bc 3aa4 5fbb 86e0 eebb
000000d0: f540 a63b 2c4b 213c 7516 ab3c cb10 68bc
000000e0: d55a bcbb 4ce9 4fba e0c8 413b 3b6d 5bbc
000000f0: 7fd3 b73b f989 053b d9c0 303b 9c23 13ba
0.012650277 0.0019740472 -0.0032432145 0.009081116 0.0011839686 0.015464826 0.0029827326 -0.0057439324
-0.006609607 0.00934084 0.004968114 0.015224069 0.009870335 0.0056662774 -0.0038005488 0.015320224
0.010947673 0.000761736 0.0060151904 -0.013041217 -0.006119252 -0.0049025128 0.010153632 0.020675391
0.010763855 0.0080208285 0.0082129985 -0.0067734006 -0.008084874 -0.010691167 0.019709501 -0.006444908
0.0022976873 -0.00093945075 -0.007267535 0.00991103 0.011735658 -0.005237688 0.0035216748 -0.0019635153
0.004703907 -0.0027773702 0.0030005907 -0.006083128 0.0012762559 0.004869798 0.01163944 -0.010497137
-0.007819694 -0.007827012 -0.0034124986 -0.007289949 0.0050736615 0.0098445825 0.020884732 -0.01416416
-0.0057481327 -0.0007931187 0.0029569194 -0.013392742 0.005609929 0.0020376428 0.0026970415 -0.0005612911

bn1.running_mean f4 [64]
00000000: 41de bd3c 18d3 593e 6366 c9bd cf96 bdbd
00000010: eb3b 35be 2274 3bbe 72c3 38be 9706 9fbb
00000020: 2b3e a23d 93b2 053d 45db 3abe 2a75 8cbd
00000030: b240 ecbd 166e 6c3d 26bc 183e 2e69 92bd
00000040: b4b9 7dbe 0ae1 333e 976c 34be dfff 44bd
00000050: 3d58 553c 6b44 e1bd 767e 433e 9dd5 b93d
00000060: 3952 1abd 6fa5 5ebe 5c3e 43bc e605 eb3d
00000070: d025 3ebe a78d 4f3d b418 9abc 4265 d4bc
00000080: 6d6e 41be bb08 42be 488d 77be 1aab 5dbd
00000090: b193 4fbc f465 a43d b0bb 103e c2ac 063e
000000a0: 2fa0 a4bd eeef 693e 232b 913d edca bcbd
000000b0: 921a 463e 11d6 3ebd 486f 90be d27f 2c3e
000000c0: 50e3 a13d c87b d03c d965 58bd f03d f5bd
000000d0: 4c0f 31be 9a01 97be d896 b2bd 6ccd 623e
000000e0: d1d3 dc3d 10d5 053d 197c 37be acbb 2cbc
000000f0: 2a25 713e 9a0c 7dbc c928 9abd 0c9f 8d3e
0.023177268 0.21271932 -0.09833982 -0.0925728 -0.17698638 -0.1830602 -0.18043306 -0.0048530805
0.07922014 0.032641005 -0.18247707 -0.06858285 -0.11535777 0.057722174 0.14915523 -0.07148968
-0.24777871 0.17566314 -0.17619549 -0.04809558 0.013021526 -0.10999378 0.1909121 0.090739466
-0.03767607 -0.21742795 -0.011916723 0.114757344 -0.18569112 0.0506722 -0.018810607 -0.02592719
-0.1888978 -0.18948643 -0.24174988 -0.054118253 -0.01266949 0.080272585 0.14134097 0.1315184
-0.08038365 0.22845432 0.07088306 -0.092183925 0.19346073 -0.04659087 -0.282099 0.16845635
0.079046845 0.025449648 -0.052831504 -0.11974704 -0.17290992 -0.2949341 -0.087201774 0.22148675
0.10782588 0.032673895 -0.17918433 -0.010542791 0.23549333 -0.015444899 -0.075273104 0.27660406

bn1.running_var f4 [64]
00000000: 18c6 d83c 0824 d73c 6024 453c 2249 323c
00000010: d59b 523c 8c6f ed3c 55fe be3c 4410 f13c
00000020: 658f 113c b6d9 f23c 72f3 ee3c 917b 703c
00000030: 1581 123c 9ac9 653c 9312 7e3c 8794 db3c
00000040: 657f d53c 10dc d53c d8d8 e13c eb84 973c
00000050: ed4b 8a3c dbaf 0d3d 91a4 de3c a49f 7d3c
00000060: 5cb0 e63c 1a07 033c b318 933c ab73 733c
00000070: 7011 ea3c face ba3c 45a3 b53c 552b 6a3c
00000080: 9e3e ec3c 442d 4f3c b68f c33c 5678 a83c
00000090: 0870 a43c ae48 5d3c 61e9 8f3c ba52 6f3c
000000a0: 1e6e a13c e6e5 cb3c 8e9e a93c a7aa a73c
000000b0: 72e1 343c 4059 9d3c f284 f13c 393f d63c
000000c0: 2871 513c a35a ce3c 6acb a73c 0c08 743c
000000d0: dac0 f63c af19 fb3c b784 733c 3a3c 283c
000000e0: cbfa 473c 53b4 943c dd6e 853c 5764 d63c
000000f0: c548 f73c cd41 f83c a2a5 a73c 063b ab3c
0.026461646 0.026262298 0.012032598 0.010881694 0.012854536 0.028983854 0.023314634 0.029426701
0.008884286 0.029644828 0.029168818 0.014677898 0.008941908 0.014025116 0.015507358 0.026804222
0.026061723 0.02610591 0.02756922 0.018495997 0.016881907 0.034591537 0.02717808 0.015479956
0.028160267 0.007997299 0.017956113 0.01485912 0.028572768 0.022803772 0.02217258 0.014292558
0.028838452 0.0126450695 0.023872238 0.020565193 0.020072952 0.013506098 0.017567338 0.014607126
0.019705828 0.024889898 0.020705488 0.020467116 0.0110400785 0.019207597 0.029482339 0.026153194
0.012783326 0.025189703 0.020482738 0.014894497 0.030121256 0.030651895 0.014863185 0.010268265
0.01220579 0.018152392 0.016288215 0.026170893 0.030186066 0.030304814 0.020464722 0.020902168

conv2.weight f4 [128, 64, 3, 3]
00000000: 16b7 d4bc be67 8abc b385 013d 2738 2e3d
00000010: c0e8 85bc d9ef 1abc 9023 8cbc 39e5 acbc
00000020: dd85 243d 9a2f b83c a1d8 26bd 6923 d63c
00000030: 6636 27bc fac8 b93c bb5d 9abc 5887 08bd
00000040: 3a38 0bbd 8a55 8ebc af21 debc e212 31bd
00000050: de80 1b3d 0a2b a93c 2d4d cf3c 083c 99bc
00000060: 5106 9d3b a4b0 073d 15e9 ad3b b0e7 103d
00000070: 29e4 e73c c8c7 f23c 425e d2bc 39c7 36bc
00000080: 5db8 32bc d109 823c 0e75 c33c 57c0 acbc
00000090: 73ad 7c3c 5c0d 023d bf1c 713c 045f 0bbd
000000a0: ce50 44bb de6c 2b3d 67b3 35bd 4f40 dcbc
000000b0: 485b 0cbd 58b6 7a3c ecdf 783c 60f4 f13c
000000c0: d4d6 0f3d 52a3 ab3c 94e9 0f3d 1929 37bd
000000d0: 82ce 10bd af18 073b 22e5 b13c 0d5e 90bb
000000e0: c768 213d 7c3d 71ba c1c5 e4bc 136f 833b
000000f0: 79b8 913a d93e dcbc c6de 81bc e2df b13c
00000100: 99cd 99bc 5e04 c4bc cba3 f53c d413 e4bc
00000110: ab0e a03c 39e4 77bc b0f6 1ebd 83c1 063c
00000120: 2220 b8bc 3a82 113d c702 bcbc 3b1d 8f3c
00000130: ea53 b1bb 51e1 f2bc 8c3a 17bc 2f5b 32ba
00000140: c061 0e3d 0e62 cf3c 61de cabc a949 d03c
00000150: 0cc3 243c 0e88 e6bc edcd e5bc e23d 213d
00000160: cc51 babc eebb a63a 6cc4 1d3d 666b 3e3c
00000170: 796f 00bd cfd3 e63b d99c 043d 2847 dd3c
00000180: 4014 b03b 58ae be3b e9bb 1b3d 366a fdbc
00000190: 5cdf aabc 270e fcbc 9066 c13c a93d c2bc
000001a0: ef64 063c 52b3 40bc 17d7 453c 6853 abbc
000001b0: b22d 7d3c 12d2 0fbc bb67 033c 2a71 483d
000001c0: ddde 0cbd f81b 9c3c f3c1 1b3c 2c99 e9bc
000001d0: 2200 173c dcb8 843c fe78 c4bb 31d3 c83c
000001e0: cb86 af3a f6c8 5c3c 9cfd f33c e3ef 1f3b
000001f0: 1606 723c c3fc 813c 2c46 043d 0216 28bd
00000200: 6c94 af3b 3795 943c 068a a6bc 8e14 fbbc
00000210: 9fa5 a1bc 9ff5 28bd 55ea 573d e71e 88bc
00000220: c4a5 f23c 2c1a 713c 5659 8ebc ed33 aa3c
00000230: 70ed f33c 639a d13c def3 41bc d705 e1bc
00000240: 4a6c f23b efae 90bc f677 bbbc b8b4 253c
00000250: d77a f3bc 1ab4 ac3b d27e e8bc 81b6 0bbd
00000260: 94ca 0dbd 6995 fb3c 49f1 093d 364e 033d
00000270: b7b0 163d b34a 4bbd 3d66 a23b a945 09bd
00000280: 278c c0bc e36a 3dbb 2d73 36bc 133d 213d
00000290: 7311 183d ad9c ed3c 0b1a 8a3c 6e05 283d
000002a0: 64f6 f23c 1f25 653c 931b c33a 795c f5bc
000002b0: d1e6 83bc 80b6 b23c b68f 96bc daca a23c
000002c0: 01bd 60bc 3c38 1cbc 6604 0d3c c063 3ebc
000002d0: 0c27 c33c 3ce2 b23c 87ea 92bb 6e8b 083d
000002e0: a153 00bd 030c 07bb 1075 67bc 30c5 e7bc
000002f0: ea62 e13c 4630 043d 8da3 58bb f04f 13bd
00000300: f396 c4bc 8de7 cf3c 95a4 e43c a83a b83c
00000310: a48b e23b e6bc 243c a2cb bf3c 9237 8cbc
00000320: f9a2 a0bb f4cf 883c dc73 f73c 0af6 e2bc
00000330: f023 c7bc cf57 e2bc 6e7e 923c 49ab b53c
00000340: 8d36 ab3b 2122 29bc 8692 193b 5184 bb3c
00000350: 979a 0d3d c216 273d d566 083c 6a2c 2a3c
00000360: defb 2abd f8db b3bb 6340 653c b897 aabc
00000370: d01b 993c 7145 a63b 7198 9bbc 455f b5bc
00000380: 1bbb 1a3c 11db 02bd e745 813c 7efc c2bc
00000390: 1615 1ebc c168 263c f5b0 13bb 68c6 dd3b
000003a0: 944a a13b 7507 e63c 424e 00bd b14a d63c
000003b0: 9506 593c f05f 9cbc ad70 b63c b99d e5bc
000003c0: ce88 333b eb5f 703b 1cf2 57bc 165a e03a
000003d0: b43d b6bc cfbf 80bc 057a 3dbc 5114 86bb
000003e0: 5697 2abc 9f5a 9a3c 4848 8b3c ce9b c13c
000003f0: f63c 2cbc 1988 c4bc 5866 0f3d 9542 eabc
-0.025966208 -0.016895171 0.031621646 0.04253402 -0.016346335 -0.009456598 -0.017106801 -0.021105396
0.040166724 0.022483636 -0.040733937 0.026139932 -0.010205841 0.02267884 -0.018843522 -0.0333322
-0.03398917 -0.017374773 -0.027115671 -0.0432309 0.037964694 0.020650405 0.025305355 -0.018705383
0.0047920127 0.033127442 0.0053073266 0.035377204 0.028307037 0.029636279 -0.025679711 -0.011155897
-0.010908213 0.015873821 0.023859527 -0.021087809 0.015422213 0.03175102 0.014716326 -0.03402616
-0.002995539 0.04185187 -0.044360545 -0.026886133 -0.03426674 0.015302263 0.015190106 0.029535472
0.035116985 0.0209519 0.035134867 -0.04471693 -0.03535319 0.0020614078 0.021715704 -0.004405743
0.039406564 -0.00092025823 -0.027926328 0.004011044 0.0011117599 -0.026885437 -0.015853297 0.021713201
-0.018774794 -0.023927864 0.02998533 -0.027841486 0.019538244 -0.015130096 -0.03880948 0.008224848
-0.02247626 0.035524584 -0.022950543 0.017469993 -0.0054116147 -0.029648455 -0.009230267 -0.00068037485
0.03476119 0.02531531 -0.024764242 0.025425749 0.010056268 -0.028141048 -0.028052295 0.039365657
-0.022744082 0.0012720802 0.0385174 0.0116222855 -0.03135631 0.0070442925 0.032376144 0.027011469
0.0053735077 0.0058191232 0.038021002 -0.030934434 -0.02085846 -0.030768467 0.023608476 -0.023711042
0.008202775 -0.011761503 0.012075207 -0.020913795 0.015452789 -0.008778112 0.008020337 0.048936047
-0.034392226 0.019056305 0.00950669 -0.02851542 0.00921634 0.01620143 -0.0059958687 0.024514766
0.0013391612 0.013475647 0.029784016 0.0024404458 0.014771959 0.015867596 0.032293484 -0.041036613
0.0053582694 0.018137557 -0.020329487 -0.03064945 -0.019732295 -0.041249868 0.05271371 -0.016616298
0.029620059 0.0147157125 -0.017376583 0.020776713 0.029776305 0.025586313 -0.011837928 -0.027468605
0.007398163 -0.01766154 -0.02288435 0.0101138875 -0.02972166 0.005270493 -0.028380785 -0.034109596
-0.03461702 0.030710893 0.033677373 0.03205701 0.036789622 -0.049631786 0.0049560354 -0.0335137
-0.02350433 -0.002890282 -0.0111358585 0.039364886 0.037126016 0.029005373 0.016858121 0.041020803
0.029658504 0.013985901 0.0014885537 -0.029951321 -0.016101273 0.021815538 -0.018379074 0.019872118
-0.013716937 -0.009534892 0.008607006 -0.011620462 0.02382233 0.021836393 -0.0044835242 0.033336096
-0.031329755 -0.0020606525 -0.014127031 -0.028292269 0.027512986 0.0322726 -0.0033056468 -0.035964906
-0.02399776 0.025378967 0.02791051 0.022488907 0.006913619 0.0100548025 0.02341253 -0.017116342
-0.0049022404 0.016700722 0.030206613 -0.027705211 -0.024309129 -0.027629761 0.017882552 0.022176402
0.005225009 -0.010323078 0.0023433282 0.022890242 0.034571256 0.040793188 0.008325298 0.010386566
-0.041744106 -0.005488869 0.013992402 -0.020824298 0.01869002 0.005074196 -0.018993588 -0.022140155
0.0094440235 -0.0319472 0.015780402 -0.023802038 -0.009648582 0.010156811 -0.0022535895 0.0067680366
0.0049222205 0.028079728 -0.031324632 0.026158663 0.013246198 -0.019088715 0.022270525 -0.02802931
0.0027394774 0.0036678265 -0.013180282 0.0017116691 -0.02224622 -0.015716461 -0.011564736 -0.0040917774
-0.010412058 0.01884204 0.01700224 0.023633864 -0.010512581 -0.023990678 0.035009712 -0.028596202

conv2.bias f4 [128]
00000000: ec86 1abd b512 b2bc 89bc 44bc 188a 21bb
00000010: 858d f53c 3702 19bd c618 8abc 2cdf 133d
00000020: 43b5 fbbc 13ff b23c c52b 1ebd dc95 f2bb
00000030: a6ac ebba 9fdd cf3c 9a29 893c bb73 7cbc
00000040: 208e d4ba a9f0 8e3c 4032 5e3b eaaa 353a
00000050: 9b5d d8bc 040a 06bd a299 df3c c88e e2bb
00000060: 5d65 f1bc 4c8d 013c 9254 e93c 7616 c33b
00000070: 924d ad3b fde4 d83c 0ae5 be3c f410 e9bb
00000080: 674b 04bd 899b 303c 6cb5 ecbc 77b5 42bc
00000090: 4a6c 613c 4f1c 213d 0306 8dbc babf d73c
000000a0: 9c4c aabc dc20 c4bc 7ac5 18bd acc8 09ba
000000b0: e6e5 153d 86ea c03c b19d 05bd f17a a53c
000000c0: eecf 0cbd f106 143c ab8d a43c 651a a23c
000000d0: 10bb fe3c 58d8 123d 205a 02bd f64d f3bb
000000e0: 232c 5e3c c2fc ddbc ec3d 22bc bc1b cfbc
000000f0: f661 e1bc 2bce b63c 0fa4 033d d30c 2a3d
00000100: 4aa0 0bbb f4e9 823c fe13 d33c 51cb a13c
00000110: d4ad e1bc d78f 8139 a81f 1fbd 27e1 77bb
00000120: 9fe4 213d a932 f3bc 6ab0 c9bc 6001 8a3c
00000130: b327 533c e16c e6bc 0c9f 96bc c730 c3bc
00000140: bcbd 87bc a443 d23a 3d00 3f3b 4b9e 4a39
00000150: 8915 27bb 5e9b 4d3b 6bb9 e53c aee9 31bc
00000160: 88cb 1fbd 43eb 30bc 445c 1a3d 4156 b63c
00000170: 6c93 f8bc 8bc3 4b3c daf5 83bc 8f95 a4ba
00000180: c048 ae3c 6f53 23bc 03a3 dabb a59d 253d
00000190: c8cc 593b e1b6 4c3c 98e6 973b dc6e b2bc
000001a0: 336a 4abc 3b10 45bc 7d9f f3ba 9388 493b
000001b0: 00b5 0dbd 4e69 e93c 9846 0e3d 6768 bdbc
000001c0: c93d e13a ef47 8abc 84a0 d23c 2093 0cbd
000001d0: 4a36 26bd ab51 b83c 4d54 debb 09f6 dd3a
000001e0: d8ca d33b f9ef e2bc 13ea 033d b209 06bc
000001f0: d17c 1b3c f71b 3ebc 85e2 8fbc b171 df3c
-0.037726328 -0.021737436 -0.012007841 -0.002464896 0.029974708 -0.037355628 -0.016857516 0.036101505
-0.03072608 0.021850144 -0.03861596 -0.0074031185 -0.001798053 0.025374232 0.01674347 -0.015408452
-0.0016216673 0.01744874 0.0033904463 0.000693007 -0.026411822 -0.032724395 0.027294938 -0.0069139935
-0.02946728 0.007907223 0.02848271 0.0059536053 0.005288788 0.026476378 0.023302574 -0.0071126167
-0.03229847 0.01077927 -0.028895102 -0.011884085 0.013758728 0.039333638 -0.01721478 0.02633654
-0.020788483 -0.02394145 -0.037297703 -0.00052560377 0.0365962 0.02354933 -0.03262109 0.020200225
-0.034377985 0.009034858 0.020087084 0.019787977 0.031095058 0.035850853 -0.03182423 -0.007425065
0.013560328 -0.027098063 -0.009902459 -0.02528178 -0.027512532 0.022315105 0.03213888 0.041516136
-0.0021305257 0.015980698 0.025766369 0.01975027 -0.027548708 0.00024711966 -0.03884855 -0.003782341
0.03952467 -0.029687243 -0.024620254 0.016846359 0.012887883 -0.02812809 -0.018386386 -0.02382697
-0.016569965 0.0016041887 0.002914443 0.0001932319 -0.0025495014 0.0031373124 0.028042516 -0.010858936
-0.039012462 -0.010798278 0.037685648 0.022257926 -0.030343734 0.012436758 -0.016108442 -0.0012556779
0.021274924 -0.009968623 -0.0066722645 0.040433545 0.0033233631 0.012494774 0.004635643 -0.021781377
-0.012354421 -0.012027795 -0.001858696 0.003075157 -0.034596443 0.028492596 0.034735292 -0.023121072
0.0017184551 -0.016880004 0.025711305 -0.034319997 -0.040579118 0.02249988 -0.006784952 0.0016934286
0.00646339 -0.027702319 0.032205652 -0.0081810225 0.009490208 -0.011603347 -0.017564068 0.027275892

bn2.weight f4 [128]
00000000: d04d 803f d510 7f3f 7a79 7d3f 8f1a 803f
00000010: e3aa 803f 8e35 813f 9156 803f 7342 7f3f
00000020: 862f 803f 7405 803f 7bf4 7c3f cf3e 813f
00000030: 1eee 7f3f 543a 7f3f ac1f 7f3f 548f 7b3f
00000040: 3e1e 7f3f de39 803f 94db 813f 6129 813f
00000050: 15fe 813f 3693 7e3f 6e73 7e3f 9eb8 813f
00000060: f839 803f 351e 813f 2e5f 823f eabe 813f
00000070: ab88 803f b872 813f 8d2a 813f 9b1f 823f
00000080: 70d2 7c3f 79bc 7f3f 0f6a 7d3f 450f 803f
00000090: 4996 803f 70c7 7e3f f1b3 7d3f c0f8 7b3f
000000a0: 2c41 803f 8c6d 7c3f a53d 823f 8755 803f
000000b0: 336d 7e3f 213f 803f bd27 813f 20b6 813f
000000c0: 5c9f 803f bbcb 7e3f ab9b 803f cef3 7f3f
000000d0: 112e 813f 9edf 7f3f d613 7f3f 6011 823f
000000e0: cc8c 7d3f 95b2 803f ff0e 803f b8cf 7d3f
000000f0: 133c 7e3f 2e0d 7d3f 6e7c 7a3f e6b3 7e3f
00000100: c32c 7f3f ec08 7d3f b57f 7e3f a803 7e3f
00000110: a36b 7d3f 6475 7e3f 5f29 7f3f 1e74 7f3f
00000120: a68b 803f 3319 813f 1d15 803f 1195 7e3f
00000130: 2551 7e3f bc35 823f 8ce8 803f 610c 813f
00000140: 8e73 803f 965d 7e3f b759 803f d3b1 7c3f
00000150: 9ccc 7e3f a5f9 803f 534a 813f 4fcb 803f
00000160: e77a 7e3f 52d4 7f3f c96b 803f eca5 813f
00000170: c798 813f 8740 813f 5085 7e3f 3f45 803f
00000180: ba7a 7f3f 83af 7f3f f8ab 7f3f d170 823f
00000190: efbe 7d3f 014a 803f c195 7c3f d84b 7c3f
000001a0: 1c32 7f3f 536d 803f d06f 7e3f db14 813f
000001b0: 689a 7d3f e63f 803f 2ed9 803f cced 7d3f
000001c0: a166 7e3f 8e4a 813f a0c8 7c3f f9fc 7c3f
000001d0: 6023 7e3f f5e8 7f3f bf48 803f 017e 803f
000001e0: 3ac3 813f 0cbd 7d3f 5619 7e3f 66d2 803f
000001f0: a6da 813f b1c6 7e3f ea34 7d3f 92af 7d3f
1.0023746 0.9963506 0.99013484 1.0008105 1.005215 1.0094469 1.0026418 0.9971077
1.0014503 1.0001664 0.9881055 1.0097293 0.99972713 0.99698377 0.996577 0.98265576
0.9965552 1.001766 1.0145135 1.0090753 1.0155665 0.99443376 0.9939488 1.0134466
1.0017691 1.0087343 1.0185297 1.0136387 1.0041708 1.0113134 1.009111 1.0165895
0.987586 0.9989696 0.9898996 1.000466 1.0045863 0.9952307 0.99102694 0.9842644
1.0019889 0.98604655 1.0175062 1.0026101 0.99385375 1.0019265 1.0090252 1.0133705
1.0048633 0.9952962 1.0047506 0.9998139 1.0092183 0.9995059 0.9963964 1.0161552
0.99042964 1.0054499 1.0004576 0.9914508 0.99310416 0.98848236 0.97846115 0.99493253
0.99677676 0.9884174 0.99413615 0.9922433 0.98992366 0.99397874 0.996725 0.99786556
1.0042617 1.0085815 1.0006443 0.9944621 0.99342567 1.0172648 1.0070968 1.0081903
1.0035264 0.9936155 1.0027379 0.9870884 0.9953096 1.0076185 1.0100807 1.0062045
0.99406284 0.9993335 1.0032893 1.012876 1.0124749 1.0097817 0.9942217 1.0021132
0.9979664 0.99877185 0.9987178 1.0190679 0.99119467 1.0022584 0.98666006 0.9855323
0.99685836 1.0033363 0.9938936 1.008449 0.9906373 1.00195 1.0066278 0.99190974
0.9937535 1.0100877 0.9874363 0.98823506 0.9927273 0.9996484 1.00222 1.0038453
1.0137703 0.9911659 0.9925741 1.0064209 1.0144851 0.9952193 0.98908865 0.99096024

bn2.bias f4 [128]
00000000: 7a96 db38 76d6 d5bb 9ed9 72bc 3ec5 e33b
00000010: 497c 9dbb 9d85 73bc 540e 8cbc 3db1 a3bb
00000020: fb85 f0bb 39b3 8cbc ed04 59bc e7d3 5eba
00000030: 82cb d7bb 43e6 efbb 9e58 81bc ba26 06bc
00000040: 373a 1ebc 6b1a d43b 4a5a 1fbb d219 acbb
00000050: 8a9f 6a39 a39f 1dbc 1e9b 67bb 5ab6 ac3b
00000060: 8345 1dbc e86d c0bb b725 d4bb 6f69 e1bb
00000070: 6971 d1bb 37ab dc3b e1b3 94bc 88df bbba
00000080: dd5d a6bc f87b 10bc c7dc 55bc 7e21 87bb
00000090: de84 beb9 ba87 90bc d43b 44bc 0226 c6bc
000000a0: b7de 94bb 0819 10bc e3b2 f8b9 e4f4 a5bc
000000b0: 10a9 cebb f73e 693b ab36 36bb 7a9f d23b
000000c0: 99be 82bc 2094 98bb 0276 8ebb 4091 08bc
000000d0: 9262 46bc dd46 59ba c33d a6bb 8701 bc3a
000000e0: 228e 4cbc ab9c 25bc 2947 dfbb bd01 aebb
000000f0: bb10 fcbb d2de 01bc e9cc b0bb 9c8d ef3a
00000100: 6f10 68bc bfb5 41bc 613d 81bc 1860 9ebc
00000110: af28 49bc 5b9b 58bc 6beb 5abc 8c52 3ebb
00000120: 09d9 b5bb 6768 1bbc 2864 ae3a d3ae 04bc
00000130: 2d96 1c3b b0c2 47bc 1f26 fabb 3749 13bc
00000140: d422 1dbc 7f22 85bb 23ea 39bc 637a 1dbc
00000150: ff3a 88bb f97b a2ba af73 0abc b9f1 ac3b
00000160: 87dd b6bc cadf 813b f3aa a7ba 9ebe 25bc
00000170: 0c1c 9fbb 12e6 0abc 341f 51bc 1f27 9b3b
00000180: 9dc6 2ebc ed7e f8bb 053c 36bc 24cd b6bb
00000190: 3b48 0ebc 9471 03bc a416 11bc 4c00 a63b
000001a0: 14d4 a33a 2f2d 98ba 5434 0dbc 1394 123b
000001b0: aa0e abbb 2448 83bc 5b6e 93bb 21ce 18bb
000001c0: 26f6 8ebc 63af 55bb 55df 33bc f73b 33bc
000001d0: 3766 e5bb a31a 12bb 5ab9 38bc 26bc 13bc
000001e0: 9453 1e3c 6979 afbb 03c9 98bb 2994 65bc
000001f0: cb2e 82bc af19 8aba 081f 86b9 e2b4 1cbc
0.00010470762 -0.00652581 -0.014822392 0.0069510033 -0.0048060757 -0.014863399 -0.017096676 -0.0049954937
-0.0073401905 -0.017175304 -0.013245803 -0.0008500204 -0.0065855393 -0.0073211505 -0.015789326 -0.008187944
-0.009657434 0.006472876 -0.002431529 -0.0052521015 0.00022375412 -0.00962058 -0.003534026 0.0052707614
-0.009599092 -0.005872477 -0.0064742225 -0.0068790237 -0.0063916934 0.0067342776 -0.01815218 -0.0014333585
-0.02030843 -0.008818619 -0.013053126 -0.0041238656 -0.00036338618 -0.017642844 -0.011977155 -0.024188045
-0.0045431512 -0.00879503 -0.00047435527 -0.020258375 -0.006306775 0.0035590508 -0.002780358 0.0064277025
-0.015960025 -0.0046563298 -0.0043475637 -0.008335412 -0.012108462 -0.00082884525 -0.0050732805 0.0014343717
-0.012485059 -0.010108153 -0.006813903 -0.005310266 -0.007692424 -0.00792666 -0.005395521 0.0018276456
-0.014164074 -0.011823117 -0.015776338 -0.01933293 -0.012277766 -0.013220633 -0.013361792 -0.00290409
-0.0055495542 -0.009485341 0.0013304995 -0.008098322 0.0023893223 -0.012192413 -0.007633939 -0.008989624
-0.009590823 -0.00406295 -0.011347326 -0.009611699 -0.0041574235 -0.0012396566 -0.008450433 0.005277839
-0.02232243 0.0039634453 -0.0012792036 -0.010116247 -0.0048556384 -0.008477705 -0.012763787 0.004734888
-0.01066747 -0.00758349 -0.011122708 -0.005578654 -0.008684213 -0.008022685 -0.008855496 0.0050659534
0.0012499117 -0.0011610145 -0.008618433 0.002236609 -0.005220254 -0.01602561 -0.0044992394 -0.0023316222
-0.017451357 -0.003260576 -0.0109785395 -0.01093959 -0.0070007103 -0.0022293709 -0.01127466 -0.009017026
0.009663481 -0.0053550494 -0.0046626343 -0.014012375 -0.015891453 -0.0010536219 -0.00025581592 -0.00956461

bn2.running_mean f4 [128]
00000000: ac95 1e3e 6ade 1fbe 10be 0e3d 230e c43d
00000010: 788c 66be 7c3a 50be b15f 95bb 27ce 65be
00000020: 10c8 223e 2227 5abe 332e 5bbe 43a6 05be
00000030: fd2d 073d 467e 14be e5c4 d73a 288d 0ebe
00000040: f48d 893e fbdd 9ebc fb21 84be f3f3 fdbd
00000050: 762c e23c ce1f f73d ca25 a3bc d70a a9be
00000060: b749 0dbe 405b 303c c9e7 1cbe 5a55 98be
00000070: 6331 7dbd fa2c 0bbe d8b7 3f3e 15ba 91be
00000080: c841 bc3c 8466 37bd 5133 0d3d 565e c93c
00000090: 4a0c 173e 70e8 133e 15c1 e1bd 4a23 1c3e
000000a0: 4234 fbbd babc 65bc 6fc9 af3d 771a 09be
000000b0: 61b3 cabc 315a 64be ff39 33be ab99 5abe
000000c0: 179c 603d f1bd 073c 64fb 5abe de37 df3d
000000d0: 77a7 643e 6ca6 acbe 5a39 743c a248 2cbe
000000e0: 1929 47be 6596 4fbe d514 903d 1b56 5b3d
000000f0: 44c0 98be 224d c3bc 073e ca3e 84a3 0a3e
00000100: f369 043e 364e 20bc 6425 35be 8d40 9d3e
00000110: 528c 90be a93f c43d 48ee a8be 3c2c 0c3d
00000120: e5bd 2abe 825f 7bbe d959 ebbd 5343 06be
00000130: f345 67bd d259 ce3d 8733 233c 2bec 36be
00000140: f2e2 883d 2d6f 34bc 6cfc ad3d bbcd f73d
00000150: 15e0 b7be 8d37 2cbe 37bc 463e 65a7 87be
00000160: d08f 4139 eba7 c9bd b60f 1ebd ce56 c2bd
00000170: cd5e a1be 0732 aabd e627 a7bd d955 f23d
00000180: f6f2 e1bb 4758 41be 68f6 10be b07d 9dbe
00000190: 9373 5abd 090d fcbd 9a09 973e 71c8 203d
000001a0: 13a5 ecbd 13a6 31bd 346d f6bd 02c9 f63d
000001b0: 79a7 293a 8a6e 763d 8a1c af3d 36d6 553d
000001c0: 7caa c63d 1208 30be 07b1 fabc f867 6dbb
000001d0: 4198 b6bd 2fa6 84bc ee3a 363d f429 4b3d
000001e0: 1aa1 01be 540e 133e 177f a2be c6ce 9ebe
000001f0: 1a4e b93d 40a0 233d 926b 503d 22d7 febd
0.15486783 -0.15612188 0.034849226 0.09573009 -0.22514522 -0.2033481 -0.0045585264 -0.22441922
0.1589663 -0.2130399 -0.21404342 -0.13051705 0.033002842 -0.14501294 0.0016461877 -0.13921034
0.26866114 -0.019392958 -0.25807175 -0.12400045 0.027609091 0.12066613 -0.01991548 -0.33016083
-0.13797651 0.010763943 -0.15322794 -0.29752618 -0.061814677 -0.13591376 0.18722475 -0.28462282
0.022980586 -0.0447755 0.034472767 0.024581116 0.14750782 0.14444137 -0.110231556 0.15247837
-0.12265827 -0.014022047 0.08583342 -0.13389002 -0.024743738 -0.2230003 -0.17502593 -0.21347682
0.05483636 0.008285032 -0.2138496 0.10899328 0.22329508 -0.3372072 0.014906252 -0.16824582
-0.19449271 -0.20272215 0.070352234 0.053548913 -0.29834187 -0.02384049 0.39500448 0.13538939
0.12931041 -0.009784272 -0.17690045 0.3071331 -0.28232056 0.09582455 -0.32994294 0.034221873
-0.16674002 -0.24548152 -0.114917465 -0.1311162 -0.056463193 0.100757256 0.009961016 -0.17863528
0.066839114 -0.0110128345 0.08495411 0.12099787 -0.3591315 -0.16818066 0.19407736 -0.264949
0.00018459489 -0.09846481 -0.038589202 -0.09489213 -0.3151764 -0.08310323 -0.08161907 0.118327804
-0.0068954183 -0.18881331 -0.14156497 -0.30759954 -0.053332876 -0.12307174 0.29499513 0.039253656
-0.11554923 -0.04337127 -0.120325476 0.12050058 0.0006471794 0.060164012 0.08550365 0.05220624
0.09700486 -0.17190579 -0.030601991 -0.00362253 -0.08915759 -0.016192524 0.044489793 0.049600556
-0.12659112 0.14360934 -0.31737587 -0.3101713 0.090481 0.03994775 0.050883837 -0.12443377

bn2.running_var f4 [128]
00000000: e815 943d 43e0 a03d c9ab e63d 0a8e 8f3d
00000010: a9c8 433d e614 203d 5236 c23d 64bd 9e3d
00000020: 483a b03d 0356 5c3d b398 423d 346b 903d
00000030: 5332 8f3d 472b a73d 77b0 6c3d 8661 a13d
00000040: 85de 273d be6c 873d a95c 523d 68ee ad3d
00000050: 9e50 113d 55bf 563d f379 b23d a48d 243d
00000060: 77a7 6f3d 5ac2 263d 86c0 5d3d bf5a 633d
00000070: 9cb5 ba3d eb14 3c3d 62f6 273d fb5a 863d
00000080: c91a 973d 8a89 8a3d 7c95 ad3d 70b4 583d
00000090: 4eca 403d 9e6d 9b3d a4a6 a83d 350e 1c3d
000000a0: 46c5 423d c435 7a3d 45b5 193d afcf 4f3d
000000b0: 1bcb 9e3d cb56 103e a6be 6e3d a16b 823d
000000c0: 5e3e 403d 424c a93d 4332 963d 6283 813d
000000d0: 74d5 5e3d e1d0 3d3e 936b 643d 925c 5b3d
000000e0: f39f bf3d 2c79 5e3d 9b0c 363d 277b 363e
000000f0: 0b55 fb3d 1ab3 bc3d f765 1a3e 2c8f e43d
00000100: 724d 753d e154 9b3d 6a21 903d fb21 4a3d
00000110: 5313 de3d 2ef5 763d 3517 933d 684c 373d
00000120: 17b9 b63d aabb 713d 81ac 1b3e 6ad6 823d
00000130: 6c59 893d aa16 4a3d 4e9b 283d 8fc7 4d3d
00000140: 8772 6e3d 726c ba3d f343 8b3d 541d 803d
00000150: fa91 2b3e c81b 9a3d d39a b53d 37a1 a53d
00000160: 0a14 833d 3e3b 6a3d b282 833d ead3 a43d
00000170: c830 933d 0b45 883d 0a0b 503d 11f3 993d
00000180: ca8c 1e3d 76eb 483d 607a c03d f525 4c3d
00000190: 7c27 8e3d b550 9a3d 2aee e73d 7524 ce3d
000001a0: c7c3 913d 0f25 8a3d c805 4f3d a54a 8e3d
000001b0: 29b5 793d fb1c b33d 02eb 9f3d c5d6 073e
000001c0: 382e 963d 24b2 623d d70f 943d 73af d03d
000001d0: 0a25 683d 25f3 323d 3f59 5b3d 47cd 783d
000001e0: 0119 823d 2444 dc3d 79a0 0e3e 2e3e 8a3d
000001f0: fc3e 2f3d b5c8 8d3d 18e0 d83d e3c6 f53d
0.07230741 0.078552745 0.11263234 0.07009514 0.047798786 0.03908243 0.09483017 0.07750967
0.08604866 0.053792965 0.047508907 0.070516974 0.069920205 0.081625514 0.057785477 0.07879929
0.040983696 0.06612538 0.0513579 0.08492738 0.035477273 0.052428562 0.08714666 0.04017414
0.058509316 0.04071269 0.054138683 0.055506464 0.091166705 0.045918386 0.041006453 0.06560322
0.07378156 0.06764515 0.084757775 0.052906454 0.047067933 0.07589267 0.08234909 0.038099486
0.047551416 0.06108643 0.037526388 0.050735172 0.07753583 0.14095609 0.058287285 0.06368185
0.046934478 0.08266498 0.073338054 0.063238874 0.054402784 0.18536712 0.055766653 0.05355508
0.0935668 0.054314777 0.044445615 0.17820416 0.1227208 0.092138484 0.15077959 0.1116012
0.05988831 0.07584549 0.07037623 0.049348813 0.108435296 0.060292415 0.07182161 0.0447506
0.08922022 0.05901686 0.15202524 0.063885525 0.06706509 0.04933802 0.041163735 0.050239142
0.05821469 0.091027156 0.0680007 0.06255594 0.16754904 0.0752483 0.08867421 0.0808739
0.064003065 0.057185404 0.064214125 0.08048232 0.07187039 0.06653794 0.050791778 0.07517064
0.038708486 0.049052678 0.09398341 0.049840886 0.06941125 0.07534925 0.11324723 0.100655474
0.0711742 0.067453496 0.050542623 0.06947831 0.060963783 0.08745762 0.07808496 0.13265522
0.07333034 0.05534567 0.07229584 0.10189714 0.05667595 0.043688912 0.05355191 0.060742643
0.06352425 0.10755184 0.13928403 0.06750141 0.042784676 0.069230475 0.105896175 0.12000825

conv3.weight f4 [128, 128, 3, 3]
00000000: ba97 18bc 2864 8a3c fb34 80bc 810e 463c
00000010: 080e ac3b 2e0b ffbc 2214 d8b8 675b 963b
00000020: 8e88 843c c7b3 3bbc cb8a 22bc 2d5b cbbb
00000030: b094 b3bc 6112 8abc 5093 92bc ba64 1c3b
00000040: de1b 6fb7 4fb8 37bc c204 09bd 41f9 893c
00000050: 2e1c ae3b 0a72 c83c a4be cfbc b7ac ccbc
00000060: 1b30 4ebc b0ef 7bbb 96e5 5abc 868a c23a
00000070: c039 f83b f5d9 993c 7bbf bcbb 0bf3 d9bb
00000080: b22d c839 2242 c4bc b05c 4ebb 2e2e cd3c
00000090: c683 3d3a f7f4 dbbc 072c 14bc 176b d3bc
000000a0: eefb 4abc 6dd1 b1ba 404d de3b 1082 21bc
000000b0: c95e c33c e153 be3c 0e31 033c 9fac 74bb
000000c0: 6802 8cbc d4f7 0dbd 06e7 083b 959b d2bb
000000d0: 2cce 4bbb 9d33 a2bb b10e d43c ba3d e03c
000000e0: dbea e23b 51e3 bebc 808d b7bb 496e e7bc
000000f0: 2aaf 35bb a372 37bc 729b 6b3c 50f0 36bb
00000100: 31f0 ab3c 13db 7dbb b141 363c 5655 5fbc
00000110: 053f 713c 3434 1c3c 9e04 a23c 2874 0c3d
00000120: f00e c33a 68c3 e63c e9bd 143c b398 46bc
00000130: 0946 24bc 38bb c23c cd4a b13c 03da 8d3c
00000140: f215 84bb d1b7 1abd 3b2b a73b c23f 2a3c
00000150: 3f38 a63c 73b6 82bc 07fd b43c e5bf 6d3c
00000160: b277 16bc 41e0 eebb cbfe cfbc 2b23 583c
00000170: 0568 013c e12e 3d3c f9f1 e23a 2b4e c0bc
00000180: 3218 44bb 1506 23bc 75fa b83a 6988 d6bc
00000190: a617 2b3c 83bd 473c b834 163d 3427 823c
000001a0: dfbd 0ebc e671 0f3c 1748 b5bc 7a99 223c
000001b0: 60c4 6a3c eaf7 ca3c b6e3 f53c 2f1e 7f3c
000001c0: ba97 2fbb 9573 67bb f175 f2bb 51d1 ba3b
000001d0: e791 44bc 0cf2 16bc fec8 ef3c d797 d83c
000001e0: 89ea 95bb 9e21 1bbc 950d ce3b da1a 013d
000001f0: 4760 efbb 97de 003d dde8 9b3c fc93 9ebc
00000200: f4ee 863c c965 b7bc f0b2 163c 2656 bdbc
00000210: 532d f13b bfa3 efba 8c91 753c 5be0 af3c
00000220: f61a 8bbb 5632 cabb c5e4 8c3c d4cf c7bb
00000230: 9128 923c fa53 b7bc 2fc5 b0bc a2d3 a6bc
00000240: dd28 67bc 2382 4fbc 5970 bfba d47e d23c
00000250: 78ad 07bd d4a7 b7bc 7969 96bb 60fc 713c
00000260: 8c6a 19bc 30ba 09bd 3e00 12bc d809 e7bc
00000270: 38c6 183b 2b6f 1a3c f1ea 10bc 5043 a1ba
00000280: 05b1 423b a479 b13c d0c1 cd3c ef68 a53c
00000290: 674f 2c3c 3a8c 03bb 7e4e 5fbc 3ebd a13c
000002a0: 8a21 113c 57aa 3bbc c893 bb3c d802 5f3c
000002b0: 5f0c a9bc a487 063d 10e7 023d a53a e13b
000002c0: 99de c6bc db66 5cbb c035 6f3c 7b2c 0bbc
000002d0: dac9 b5bc 8215 19bb 869a 5a3c 472c a3bc
000002e0: a1f8 4c3c cf3c 0abd 2835 853b 1862 2e3b
000002f0: 735e 793c f475 a53b 3149 0dbc 43e1 8ebc
00000300: 043a 46bc 0ff1 003d 61f2 dc3a 62c4 28bb
00000310: 0a5e 693b ba9c 3fbc ea61 803c 3702 1a3d
00000320: ca9c 9dbc bcb7 913c 22f9 3dbc 0c3a f7bb
00000330: 68d7 3d3b 13cf 85bc 7492 7b3c c108 983c
00000340: 696e 383b 0d17 e63c 0cb3 dc3a e16f ebbc
00000350: 5bec cdbc e30c 2ebc f2b7 a23b c1b1 cdbc
00000360: 7bcc 88bc a984 8cbb 8d5f 47bc 57c9 8bbc
00000370: 9996 983c 7950 abbc bda1 2c3c a247 b7bc
00000380: 3252 1fbb f963 1d3b 362c c7bc b008 d13b
00000390: c4dd 5a3c 0654 ba3c ebff a3bc 886f 883b
000003a0: 9901 4dbc b4e5 613c 1fbe 313c 2d60 8fbc
000003b0: da7c a13b bd2d 0d3c d589 1f3b 4a1d be3b
000003c0: 54e1 a63c d97a 01bc d449 b0bc e279 afbc
000003d0: 430b e1bc 627b 773c 30d5 b13c 6b23 07bd
000003e0: e2ae 74bc bfcb 1bbc 0fbe 793c 897e fa3c
000003f0: e8a1 c4bc decc cb3b 1c06 5e3c e461 d43c
-0.009313518 0.016893461 -0.015650263 0.012088419 0.005250696 -0.03113326 -0.00010303433 0.0045885327
0.016178396 -0.0114564365 -0.009920786 -0.0062059374 -0.021921486 -0.016854467 -0.01789251 0.0023863749
-1.4251998e-05 -0.011213376 -0.033451803 0.016842486 0.005313418 0.02446844 -0.02535946 -0.0249847
-0.012584711 -0.0038442425 -0.013360402 0.0014842309 0.0075752437 0.018780688 -0.005760131 -0.0066512874
0.00038181018 -0.023957316 -0.0031488352 0.025046434 0.00072294136 -0.026850207 -0.0090437 -0.0258079
-0.012389166 -0.0013566442 0.0067841113 -0.0098576695 0.023848908 0.023233356 0.008007301 -0.0037334336
-0.017090991 -0.034660175 0.0020889654 -0.006427238 -0.003109823 -0.0049500004 0.025885912 0.027373184
0.0069249696 -0.023301752 -0.005601585 -0.02825083 -0.0027722814 -0.011196765 0.014380323 -0.0027914234
0.020988556 -0.0038735315 0.0111240605 -0.0136311855 0.014724498 0.009533931 0.019777592 0.034290463
0.0014881771 0.028169349 0.009078481 -0.012121367 -0.010026463 0.023770913 0.021642113 0.01731587
-0.0040309364 -0.037772957 0.005101589 0.010391178 0.020290492 -0.01595614 0.02209331 0.014511083
-0.009183811 -0.0072899167 -0.02539005 0.013191978 0.007898335 0.011546821 0.0017314545 -0.023474773
-0.0029921648 -0.009950181 0.0014112728 -0.026188092 0.01044265 0.012191179 0.03667137 0.015887834
-0.008712261 0.008755183 -0.022129102 0.009924287 0.014329046 0.024776418 0.030015808 0.015571161
-0.0026793317 -0.0035316695 -0.0073993136 0.005701222 -0.011997676 -0.009212982 0.029270645 0.02643959
-0.004575078 -0.009468464 0.00628824 0.03151975 -0.0073051783 0.03146228 0.019031936 -0.019357674
0.016471364 -0.022387402 0.009197935 -0.023112368 0.0073601394 -0.0018283053 0.014988314 0.021469286
-0.0042451574 -0.0061705513 0.01719893 -0.006097773 0.01784161 -0.02237891 -0.0215784 -0.020364586
-0.014108864 -0.012665304 -0.0014605626 0.025695242 -0.033124417 -0.022418894 -0.00459021 0.014769644
-0.009363782 -0.033624828 -0.008911191 -0.028202936 0.0023311507 0.009425919 -0.008845077 -0.0012303386
0.0029707563 0.021664448 0.025116831 0.020191638 0.010516978 -0.0020072595 -0.013629554 0.019743558
0.008858094 -0.011454186 0.022897616 0.013611518 -0.020635782 0.0328442 0.03195864 0.006873446
-0.024276065 -0.0033630643 0.014600217 -0.008494492 -0.022190977 -0.0023358767 0.013342505 -0.019918574
0.01251045 -0.033749398 0.0040651746 0.0026608761 0.015220272 0.0050494615 -0.008623407 -0.017441398
-0.012098793 0.03147989 0.0016856903 -0.002575182 0.003560903 -0.011695081 0.015671689 0.03759977
-0.019239802 0.017787807 -0.011595042 -0.0075447615 0.0028967503 -0.016334092 0.015354741 0.018558862
0.0028141981 0.028087163 0.0016838028 -0.028739871 -0.025137117 -0.01062319 0.0049657756 -0.025109174
-0.016699066 -0.0042882753 -0.012168777 -0.01706378 0.018626498 -0.020912396 0.010536608 -0.022373024
-0.0024310467 0.0024015887 -0.024313074 0.0063792095 0.013358537 0.022745144 -0.020019492 0.004163686
-0.012512588 0.013787676 0.010848551 -0.017501915 0.0049282135 0.008616862 0.002434363 0.0058018314
0.020371117 -0.007902824 -0.021519579 -0.021420423 -0.02747119 0.0151051 0.021708101 -0.03299276
-0.014934273 -0.009509026 0.015243067 0.030577915 -0.024002984 0.0062194904 0.013551261 0.025925584

conv3.bias f4 [128]
00000000: f4dd bcbc 4edb d2bc ed10 9dbc 9c1e 3eb9
00000010: 4305 d23c bd6c a73b 448e c63c 4a4a a93c
00000020: 8111 bf3c 7d6c 2839 3d39 f03c 1899 81bc
00000030: 86c3 ff3b 6d56 bc3c 6b8c 59bc 0068 953c
00000040: bf31 8f3c b9a1 cdbc 63c3 cbbc e718 0abc
00000050: f80b ce3c 8757 57ba 27a8 eebc b338 843c
00000060: 2fdc 8cbb 02dc 68ba d627 08bc a8cc a4bc
00000070: 7e6b a33c c22f 28b9 6e0b 053c cbe4 203c
00000080: 39cf afbc 90e4 293b 1c1e 0e3c 5d30 d73c
00000090: 2027 2dbc 6e1b c1bc 0f10 873c 8d37 d3bc
000000a0: 6634 37bc a942 d9bc 0711 d43b 4ff2 4fbb
000000b0: 7028 9dbc 5af5 503b e517 2a3c fbab 8abc
000000c0: 2e0f b6bb 3b33 423c c156 4c3c 04ad 123c
000000d0: b7d3 c83c 3381 eebc cf3c b93c 5ec6 193c
000000e0: 11ea e33c 446e 1f3c a2e9 c2bc d112 a03a
000000f0: e2ad 84bc 29bf ec3b 13c2 e93c 62ba 60bc
00000100: 323c 17bc 0de7 593b c1db 783c f3d1 ee3c
00000110: b18b 953c d8b1 673c 0108 49bc a0b1 e93c
00000120: f6c1 843c af19 b53c 828a cd3c 79d9 8fbc
00000130: 84ee 88b9 c6fd a33c 9fa8 94ba 94dd 6f3c
00000140: 0490 ca3b 299a be3b a06e 06bc d423 b83c
00000150: c77e ed3c 5c81 903c 0b9a e33c 2fa8 c6bc
00000160: 0a77 ebbc e751 233c 60e4 d9bc 54bc 9a3c
00000170: 0ed3 ee3c e013 ba3c dadb afbc d56c a7bc
00000180: 9b4f d1bc 070e bd3c 50e2 bb3c 755e 273c
00000190: 2d77 78bc e9b5 03bc d562 963c 88f2 0d3b
000001a0: 6872 723a db57 7abc 9651 0fbb 781f ac3c
000001b0: 8f3c ee3c 100f 94bc 85e0 da3b ac17 b83c
000001c0: 7d37 28ba f384 b93c 7f66 b33c 0101 2c3c
000001d0: 3e21 903b 8e11 3abc 7415 703a b513 2dbb
000001e0: 14cc cfbb 5c2e 9c3c 9bac 2c3c 4565 5e3a
000001f0: 7723 e8bc fa83 da3b f4e5 a9bc 4252 a0bc
-0.023055054 -0.025739338 -0.01917311 -0.00018131215 0.025637275 0.005109398 0.02423776 0.020665307
0.023323776 0.00016062144 0.029324168 -0.015820071 0.0078052906 0.02299043 -0.013278107 0.018238068
0.017479775 -0.02510153 -0.024873441 -0.008428789 0.025152192 -0.0008214642 -0.029132916 0.016140318
-0.004298709 -0.00088828814 -0.008310279 -0.020117119 0.019948717 -0.0001603952 0.008120401 0.0098201735
-0.021461116 0.0025923587 0.008674171 0.026268179 -0.01056841 -0.02357265 0.01648715 -0.025783325
-0.011181926 -0.026521044 0.0064717564 -0.003173012 -0.019184321 0.0031884522 0.010381673 -0.01692771
-0.005556009 0.011853035 0.012471856 0.008952383 0.024515016 -0.029114341 0.022612004 0.009385673
0.027821572 0.009730879 -0.023793045 0.0012212639 -0.016196195 0.0072249365 0.028534925 -0.013716312
-0.00923066 0.003324929 0.015189112 0.029152846 0.018255087 0.014141522 -0.012269975 0.028527081
0.016205769 0.022106973 0.02509046 -0.017559754 -0.0002611765 0.02001847 -0.0011341757 0.014640231
0.006181719 0.005816717 -0.008205086 0.022478022 0.028991116 0.017639808 0.027783414 -0.024250118
-0.028743286 0.0099682575 -0.026598155 0.01888863 0.029153373 0.022714555 -0.021467138 -0.020437637
-0.025550654 0.023077978 0.022935063 0.010215391 -0.0151651325 -0.008038976 0.018357674 0.0021659452
0.0009248615 -0.015279735 -0.0021868697 0.0210111 0.029081611 -0.018073589 0.006679597 0.022472225
-0.000641696 0.022646403 0.02189946 0.010498286 0.004398494 -0.011356724 0.000915847 -0.0026409451
-0.0063414667 0.019065075 0.010539199 0.0008483718 -0.028337223 0.006668565 -0.020739533 -0.019570474

bn3.weight f4 [128]
00000000: 576a 913f 2622 913f c4d0 8a3f b4b2 843f
00000010: 42d2 933f d558 933f 689a 8e3f eaec 963f
00000020: 469c 903f 0f14 9a3f c901 933f 2bfa 953f
00000030: 178b 8f3f 09a9 913f d67b 973f d6f0 953f
00000040: d4cd 933f f08b 903f 8a47 933f 40a6 8c3f
00000050: ac80 923f 5e1f 8d3f 1fe8 923f dd09 8c3f
00000060: b577 873f fb4d 903f 6f8b 953f 1c2f 8b3f
00000070: f400 913f 5e42 8d3f 862f 8e3f 519b 943f
00000080: 2778 883f f8c7 873f cf3a 893f 228a 973f
00000090: f340 8e3f 1b34 8f3f faa8 943f 4d4d 923f
000000a0: 1bb6 933f 7b2f 913f 6f4b 8f3f c88d 903f
000000b0: 767c 893f 38c3 923f b1a2 913f ca58 993f
000000c0: eda6 8d3f 17f1 8d3f d4d6 883f f1c5 8f3f
000000d0: dc84 903f 1f85 913f 8b0c 893f 0fa9 8b3f
000000e0: 3cc4 903f 5253 943f ad7b 953f b28c 8d3f
000000f0: 82ea 893f 50bb 8f3f 4e16 9a3f 24a2 913f
00000100: f201 923f b82d 8d3f d660 973f a3dc 933f
00000110: c53f 923f 0750 8c3f 2709 903f 262f 913f
00000120: 0736 913f 59e8 923f 7549 963f 3fa0 943f
00000130: c0d6 963f c07e 903f 14c1 8f3f c704 8b3f
00000140: 8bf3 963f 714e 853f 8a56 8c3f f3f9 933f
00000150: 2577 883f 743e 8c3f 71df 943f 94c3 953f
00000160: a8ec 903f 8278 913f cfbd 993f 6ed9 923f
00000170: 2508 8e3f 1c90 953f f4e9 923f d125 8b3f
00000180: c642 8f3f 647a 8b3f 34a9 8d3f 053f 943f
00000190: 9c6d 973f 3fbc 933f 1d2f 923f 56c6 8f3f
000001a0: 3825 8d3f 7832 8c3f 86b3 883f a04d 943f
000001b0: 7593 903f f8f7 8f3f af4f 953f 696f 8e3f
000001c0: f6b6 8b3f ca5a 943f ec20 8c3f 4f26 8a3f
000001d0: e5fe 903f 150d 923f 79bd 893f f21e 953f
000001e0: 945c 933f 9ff3 913f 6fc6 873f 9ce6 953f
000001f0: a9a9 9b3f 53a9 933f e400 903f 3991 883f
1.1360577 1.1338546 1.084496 1.0367036 1.154854 1.1511484 1.1140871 1.179105
1.1297691 1.2037371 1.148492 1.171697 1.1214322 1.137971 1.1834667 1.1714122
1.1547189 1.1292706 1.1506207 1.0988235 1.1445518 1.1025198 1.1477088 1.094051
1.0583407 1.1273798 1.1683177 1.0873752 1.1328416 1.1035879 1.1108253 1.1609899
1.0661668 1.0607901 1.0721072 1.183903 1.1113571 1.1187776 1.1614068 1.142984
1.1539949 1.1342615 1.1194896 1.1293268 1.0741107 1.1465826 1.1377774 1.1980221
1.1066567 1.10892 1.069056 1.1232282 1.1290545 1.136875 1.0706953 1.0910968
1.1309886 1.1587927 1.1678368 1.1058562 1.0774691 1.1229038 1.2038057 1.1377606
1.1406844 1.1029577 1.1826427 1.1551708 1.1425711 1.0961922 1.1252793 1.1342514
1.1344613 1.1477157 1.1741167 1.1611403 1.1784286 1.1288681 1.1230798 1.0860833
1.1793073 1.0414563 1.096391 1.1560653 1.066136 1.0956559 1.1630689 1.1700311
1.1322222 1.1364901 1.201105 1.1472604 1.1096236 1.1684604 1.1477647 1.0870916
1.1192253 1.0896726 1.1067262 1.1581732 1.1830325 1.1541823 1.1420628 1.1232402
1.1026983 1.0952902 1.0679786 1.1586189 1.1295 1.1247549 1.1664943 1.112775
1.091521 1.1590207 1.0947547 1.0792941 1.1327788 1.1410242 1.0760947 1.1650069
1.1512628 1.1402472 1.0607432 1.1711001 1.2161151 1.1536049 1.1250272 1.0669318
