training/trained_models/model_standard_photonix.pth (torch, 85990 bytes, 14 tensors)

conv1.weight f4 [32, 2, 3, 3]
0	0xbe67872a	-0.22610155
1	0x3d73aa2d	0.059488464
2	0xbe821130	-0.25403738
3	0x3e0b7d8e	0.13622114
4	0x3e24d610	0.16097283
5	0xbdc3fa01	-0.09569169
6	0xbe6091c2	-0.21930602
7	0xbe2d17d8	-0.16903627
8	0xbdb8457c	-0.08997628
9	0xbd579220	-0.05262959
10	0x3cb0578b	0.021526119
11	0x3e382be0	0.17985487
12	0xbd67497d	-0.05646657
13	0x3baa51a4	0.0051977206
14	0x3da366cc	0.07978591
15	0xbb643577	-0.0034821907
16	0x3d5c9005	0.053848285
17	0x3d1ed1b3	0.038774204
18	0x3e587368	0.21137774
19	0x3d9a312e	0.075289115
20	0xbd341a7d	-0.043970574
21	0x3df94105	0.121706046
22	0xbc1523e6	-0.009102797
23	0x3d55f311	0.05223376
24	0x3d63f1d0	0.055650532
25	0x3dbc45ee	0.091930255
26	0xbe705785	-0.23470886
27	0xbe78b50a	-0.24287811
28	0xbd9e2a0a	-0.07722862
29	0xbcbd1add	-0.023084098
30	0xbe31d4d7	-0.17366348
31	0x3d88f5f9	0.066875406
32	0xbd9b9a54	-0.07597795
33	0xbdbf67d3	-0.09345975
34	0x3e012b0a	0.12614074
35	0xbca88bf6	-0.020574551
36	0x3e294ab6	0.16532406
37	0x3df571e7	0.11984616
38	0xbe692c3d	-0.22770782
39	0xbd05e5fe	-0.03269004
40	0x3cd8ee22	0.026480738
41	0xbe806c0c	-0.25082433
42	0xbe5aeffa	-0.21380606
43	0xbe797522	-0.24361089
44	0xbd554261	-0.052065257
45	0x3d901895	0.07035939
46	0xbdb611f9	-0.08890147
47	0xbd34cab7	-0.044138636
48	0xbe0a4b8c	-0.13505381
49	0xbd9fa5c7	-0.077952914
50	0xbdbe4606	-0.092907
51	0x3c843807	0.016139997
52	0x3dba9d5a	0.09112044
53	0xbd845b45	-0.06462721
54	0x3e1f0241	0.15528204
55	0xbe10cb33	-0.14140014
56	0xbe2721e9	-0.1632153
57	0xbd826330	-0.06366575
58	0xbd87ea25	-0.066364564
59	0x3cef9267	0.029244615
60	0x3e1b9ed8	0.15197313
61	0x3e5dfabf	0.21677683
62	0x3e72156f	0.23640989
63	0x3c900f08	0.017585292
64	0x3e3d54c2	0.18489364
65	0x3dd98204	0.10620502
66	0x3ce4367e	0.027858015
67	0x3e0a8b8b	0.13529794
68	0x3d0bbaa2	0.034113534
69	0xbe20f06d	-0.15716715
70	0xbe2bf1bf	-0.16791438
71	0xbe5f9451	-0.21833922
72	0xbe2e6468	-0.1703049
73	0x3e05afa0	0.13055277
74	0x3d1e47f4	0.03864284
75	0xbe34cc67	-0.17656098
76	0x3dbb0585	0.09131912
77	0x3e37a2e3	0.1793323
78	0xbe357771	-0.17721345
79	0xbc9e7177	-0.019341214
80	0xbe0c12a1	-0.13678981
81	0x3dc3af7e	0.09554957
82	0xbe5a3364	-0.21308666
83	0xbdb9c4eb	-0.09070762
84	0x3da4a94c	0.08040103
85	0x3d49f604	0.049306884
86	0x3d028c88	0.031872302
87	0xbe911ef4	-0.28343928
88	0xbca73a8f	-0.020413665
89	0xbe73a9e9	-0.23795284
90	0xbe858620	-0.26078892
91	0xbe0e3503	-0.1388741
92	0x3e25c2a9	0.16187538
93	0xbe25ba38	-0.16184318
94	0x3e7028af	0.2345302
95	0xbd92191e	-0.07133697
96	0xb8ee3280	-0.00011358131
97	0xbe40d1e5	-0.18830068
98	0xbbdb677f	-0.0066956873
99	0xbd6efb42	-0.058345087
100	0xbe2a83e2	-0.16651872
101	0x3df4d38b	0.11954411
102	0x3de54b33	0.11195984
103	0x3e1e1793	0.1543868
104	0x3da3e84e	0.08003293
105	0x3cbe6065	0.023239324
106	0x3e408946	0.18802366
107	0xbd933559	-0.0718791
108	0xbe452f1b	-0.1925625
109	0xbe41f61d	-0.18941541
110	0xbe389dfb	-0.18029015
111	0xbb62a868	-0.0034585241
112	0x3d4bdb2d	0.04976957
113	0xbd4b123e	-0.049577944
114	0x3d16a44a	0.036777772
115	0x3d8e52e4	0.06949404
116	0xbe0a36e7	-0.13497506
117	0x3cf11a09	0.02943136
118	0xbc9ed869	-0.019390302
119	0x3bc913aa	0.0061363773
120	0xbc0e6448	-0.008690901
121	0xbd6a7301	-0.057238583
122	0xbe25c5fc	-0.16188806
123	0xbe2390a0	-0.15973139
124	0xbe0d7a89	-0.13816275
125	0xbd24a130	-0.040192783
126	0x3d7c0e24	0.061536923
127	0x3e4a16f9	0.19735326
128	0x3df2786c	0.11839375
129	0xbcb4a972	-0.022053454
130	0xba95b4fa	-0.0011421733
131	0xbe283023	-0.16424613
132	0xbe9ac87b	-0.3023108
133	0x3b82eb5b	0.0039953417
134	0xbe402f13	-0.18767957
135	0xbe8734bc	-0.2640742
136	0x3daf8491	0.08570207
137	0x3e7f7801	0.24948122
138	0xbd189c86	-0.037258647
139	0xbe42d533	-0.19026642
140	0x3c996248	0.018723622
141	0x3c8dcee5	0.017310569
142	0x3d86f270	0.0658921
143	0x3be1abc3	0.0068869307
144	0xbe5db6f5	-0.21651824
145	0xbda538f2	-0.08067502
146	0x3dfdce4a	0.12392862
147	0x3df45086	0.11929421
148	0xbd9fec09	-0.07808692
149	0x3dbfb871	0.09361351
150	0x3e7a7f2d	0.24462576
151	0x3e2cf422	0.16890004
152	0x3ddd63f3	0.108100794
153	0x3e080e06	0.132866
154	0x3cf7c765	0.030246446
155	0x3d85e7f4	0.06538382
156	0xbdfd5855	-0.123703636
157	0x3d4625a8	0.048375756
158	0xbd3cdbce	-0.04610806
159	0xbe494585	-0.19655426
160	0x3d974001	0.07385255
161	0xbe1e75bd	-0.15474601
162	0xbe116718	-0.14199483
163	0x3e0131c0	0.12616634
164	0x3d270326	0.040774487
165	0x3d5b6d0d	0.053570796
166	0x3dfa89c3	0.12233307
167	0x3e1509c2	0.14554504
168	0xbdfe2646	-0.12409644
169	0x3e2bab5d	0.16764589
170	0x3e0d7c6a	0.13816991
171	0xbd8ccd72	-0.06875123
172	0x3e08d346	0.13361844
173	0x3d3c5761	0.04598177
174	0x3d4d1102	0.050065048
175	0xbde748c4	-0.11293176
176	0x3e161b4e	0.14658853
177	0xbe2d8dd6	-0.16948637
178	0x3b8af3b4	0.0042404775
179	0xbe05eaa3	-0.13077788
180	0xbd4ad322	-0.04951776
181	0xbe59e600	-0.21279144
182	0xbddc52fd	-0.10758016
183	0xbe390804	-0.18069464
184	0xbe552194	-0.2081359
185	0xbda81c42	-0.08208515
186	0x3d81d2af	0.06339013
187	0xbdbdec8e	-0.09273635
188	0xbdf01041	-0.1172185
189	0xbd51bb34	-0.05120392
190	0x3d87adb7	0.0662493
191	0xbda25c05	-0.079277076
192	0x3e3c3942	0.18381217
193	0xbe405284	-0.18781477
194	0x3d1b97fd	0.037986744
195	0xbd0fc323	-0.035098206
196	0xbdb2fa18	-0.08739108
197	0xbc9cb36d	-0.019128526
198	0x3e1c4b01	0.15262987
199	0xbe01449e	-0.12623832
200	0xbe51e81b	-0.20498697
201	0xbe59c7f2	-0.2126768
202	0xbd52c9f1	-0.051462118
203	0x3e174c30	0.14775157
204	0xbe0dbcbc	-0.13841528
205	0xbe1ef6b8	-0.15523803
206	0x3cc850d1	0.024452599
207	0x3d53b7e9	0.051689062
208	0x3dfc0a08	0.12306601
209	0x3da78739	0.081800885
210	0xbc4eb422	-0.012616189
211	0xbe75b561	-0.23994972
212	0xbc860d90	-0.016363889
213	0xbe23d7e1	-0.1600032
214	0x3e03a89b	0.12857287
215	0x3cf7a317	0.030229134
216	0x3d84d9f0	0.06486881
217	0x3e5ff6ea	0.21871534
218	0xbe4700a0	-0.19433832
219	0xbd4e55dd	-0.050374854
220	0xbe93c15b	-0.28858456
221	0x3dc5aa60	0.09651637
222	0xbd1b3ac8	-0.037897855
223	0x3c8bbd32	0.017057989
224	0x3dff0721	0.124525316
225	0x3e041561	0.1289878
226	0x3e428e77	0.18999659
227	0x3e252c9b	0.16130297
228	0x3de8f9a7	0.113757424
229	0xbdc08007	-0.09399419
230	0xbd5c7579	-0.05382297
231	0xbde67f7a	-0.11254783
232	0xbe5ac153	-0.2136281
233	0xbc72472d	-0.014787477
234	0xbe5cc7e5	-0.21560629
235	0xbdaaac12	-0.08333601
236	0x3da3e219	0.08002109
237	0xbc2a874d	-0.010408235
238	0xbdb12cc7	-0.08651119
239	0x3e10b6af	0.14132188
240	0xbe8ae852	-0.2713037
241	0x3e480b3c	0.19535536
242	0x3d0fe643	0.035131704
243	0x3e367314	0.17817336
244	0xbd4326f7	-0.04764458
245	0xbd97d87b	-0.07414337
246	0x3e0d18b2	0.13778952
247	0xbd6c644a	-0.05771283
248	0x3d64f883	0.05590106
249	0x3e0734ad	0.13203688
250	0xbd8d2535	-0.06891862
251	0xbdeece92	-0.11660494
252	0xbd48bdf7	-0.04900929
253	0x3e1d9a63	0.15390925
254	0x3d94840e	0.0725175
255	0x3e1b833a	0.15186778

conv1.bias f4 [32]
0	0xb8aa4a46	-8.120066e-05
1	0xb91fb311	-0.00015230129
2	0xb98aa7f6	-0.00026446552
3	0x37fcbb52	3.0127969e-05
4	0xb980a86e	-0.00024539552
5	0x3897aefb	7.232834e-05
6	0x396d9202	0.00022656473
7	0xb7074f1d	-8.065047e-06
8	0x37cdd0e3	2.4535175e-05
9	0xb895bcfa	-7.140073e-05
10	0xb8812a96	-6.1591316e-05
11	0xb9169d4e	-0.00014363715
12	0x38ad76da	8.271421e-05
13	0xb92898ad	-0.00016078605
14	0x37878a6e	1.6157715e-05
15	0x39689d95	0.00022183948
16	0xb9d5c085	-0.00040769964
17	0x38205778	3.8228434e-05
18	0xb97990a8	-0.00023800379
19	0x37e78b77	2.760229e-05
20	0x37a495d5	1.9620094e-05
21	0xb800c4b5	-3.0700776e-05
22	0x38e49150	0.00010898954
23	0x3847a8f5	4.760265e-05
24	0xb79fa843	-1.903263e-05
25	0x38401f4f	4.5805526e-05
26	0xb8a6761c	-7.9374964e-05
27	0x3899b2d6	7.328919e-05
28	0xb8f56d06	-0.000117028176
29	0x38d34e24	0.00010075819
30	0x389915e7	7.299688e-05
31	0xb886905e	-6.4165084e-05

conv2.weight f4 [64, 32, 3, 3]
0	0xbc8c7cc2	-0.017149333
1	0xbcf0cd1c	-0.029394679
2	0xbd8eb897	-0.069688015
3	0x3bf333c4	0.0074219424
4	0xbcb3623c	-0.021897428
5	0xbcda4ba9	-0.026647406
6	0x3cf7ba6d	0.030240262
7	0x3c4b3fdc	0.012405362
8	0xbc926e24	-0.017874785
9	0xbd2a7f2d	-0.04162519
10	0xbc909c84	-0.017652757
11	0x3c3151f7	0.010822765
12	0x3b955961	0.004557774
13	0x3c423373	0.011853087
14	0xbd891968	-0.06694299
15	0x3950e02d	0.00019919938
16	0x3b359338	0.0027706157
17	0x396c5002	0.00022536519
18	0xbc472e05	-0.012156968
19	0xbc92aa26	-0.017903399
20	0x3c3d8826	0.011568105
21	0xbdd524da	-0.104074195
22	0x3d24574f	0.040122326
23	0x3c131c3d	0.0089789005
24	0x3bd221b6	0.00641271
25	0xbd671473	-0.056415986
26	0x3c10fefa	0.008849854
27	0x3bd8a06c	0.0066109207
28	0xbcf881fb	-0.030335417
29	0x3c53d259	0.012928569
30	0x3c97bbad	0.018522108
31	0xbc68b7c5	-0.01420397
32	0xbc81ba41	-0.015835883
33	0xbd9076cd	-0.070539095
34	0x3d6b4dd4	0.05744727
35	0x3d1aca35	0.037790496
36	0xbd56ecc2	-0.052471884
37	0x3cabba52	0.020962868
38	0xbd6c715d	-0.0577253
39	0x3d2294a7	0.039692547
40	0xbb196b1c	-0.002340979
41	0x3b1d7371	0.0024025107
42	0xbcd73b67	-0.026273442
43	0xbd34bf03	-0.044127475
44	0x3c0103f5	0.007874479
45	0x3c986f61	0.018607797
46	0xbcdb7e8a	-0.026793737
47	0xbd0462f2	-0.032320924
48	0xbd018aaa	-0.03162638
49	0xbd9fc09f	-0.078004114
50	0xbd8b2d44	-0.06795743
51	0x3cb66be3	0.022268241
52	0x3a954cea	0.001139072
53	0x3ada934e	0.001667598
54	0xbc98915a	-0.018623997
55	0xbd88670f	-0.06660282
56	0x3ae19c07	0.0017212637
57	0xbd43f8d7	-0.047844734
58	0xbc7dd37f	-0.015492319
59	0xbd41032d	-0.04712217
60	0xbda2f82f	-0.079574935
61	0xbc602186	-0.013679868
62	0x3c395e9b	0.01131406
63	0x3c86ebcc	0.016469859
64	0x3c3dc925	0.011583601
65	0x3cebfb41	0.02880633
66	0xbdc81f3c	-0.097715825
67	0xbb6e5abf	-0.0036370007
68	0xbd73f2bf	-0.059557673
69	0x3d4ee342	0.0505097
70	0xbcbeb9aa	-0.02328189
71	0x3d20b3c9	0.039233956
72	0x3d16e6c3	0.036841165
73	0x3b65f68f	0.0035089587
74	0x3d470e3a	0.048597552
75	0xbca87f1e	-0.020568427
76	0x3d61fac2	0.055170782
77	0xbc9283da	-0.017885137
78	0xbd16f042	-0.03685022
79	0xbba4446e	-0.0050130403
80	0xbce97515	-0.028498212
81	0xbba8098e	-0.005128092
82	0xbca99c6d	-0.020704472
83	0xbc3511f0	-0.01105164
84	0xbda2e8d4	-0.07954565
85	0x3b23b104	0.0024977336
86	0x3b55c9c4	0.0032621482
87	0x3d61300e	0.05497747
88	0xbcc9ef61	-0.024650278
89	0xbda0fe48	-0.07861
90	0xbc1d1b00	-0.009588957
91	0x3ca57b94	0.020200528
92	0xbcba1b28	-0.022718027
93	0x3c187612	0.009305494
94	0x3d4d74b7	0.050160136
95	0x3b44e3fd	0.0030043118
96	0xbcbde302	-0.023179535
97	0xbd93e602	-0.07221605
98	0xbcd5ed27	-0.02611406
99	0xbd6e1f43	-0.058135282
100	0x3cd63998	0.02615051
101	0xbd215f5d	-0.039397586
102	0x3cf8fc69	0.030393796
103	0x3d2a8086	0.041626476
104	0x3a9f213c	0.0012140642
105	0x3c95b0b9	0.018272744
106	0xba540bb4	-0.0008088902
107	0xbd86bd5a	-0.06579085
108	0xbd07f789	-0.033195052
109	0xbdb6ca29	-0.08925278
110	0xbb14b05e	-0.002268813
111	0xbd473b26	-0.048640393
112	0x3c8dabb4	0.017293788
113	0xbd5f31f7	-0.05449101
114	0x3a0b0f2e	0.0005304691
115	0x3cdd5a3b	0.027020564
116	0x3b919f5f	0.0044440473
117	0x3ccf248c	0.025285982
118	0xbd846dcf	-0.06466257
119	0x3d90d531	0.07071913
120	0xbc8b2d57	-0.016989393
121	0xbccd11ea	-0.025032956
122	0x3c7f3386	0.015576249
123	0x3c6fb76a	0.014631132
124	0xbc2534f7	-0.010083429
125	0x3bac179c	0.005251838
126	0x3d8a5bc6	0.06755786
127	0x3c9adff5	0.01890562
128	0xbd0cfebd	-0.034422625
129	0x3d2c72a2	0.04210151
130	0xbbdd7f2f	-0.006759546
131	0x3cb960e8	0.022629216
132	0xbc6c5b7c	-0.014426108
133	0xba1c721f	-0.0005967933
134	0xbd1e547d	-0.038654793
135	0xbc4256c5	-0.011861508
136	0x3ca27845	0.01983274
137	0x3c2ebd3a	0.010665232
138	0xbd388657	-0.04504999
139	0x3cbc4d9f	0.022986231
140	0x3d7d2dc3	0.06181122
141	0x3cdc07d0	0.026859194
142	0x3d36976a	0.044577993
143	0x3bb49a57	0.005511563
144	0x3bfa578e	0.007639832
145	0xbda13e78	-0.07873243
146	0xbc1c3351	-0.009533719
147	0x3c4c4371	0.012467251
148	0x3d8477e8	0.06468183
149	0xbd4ce591	-0.05002362
150	0x3c7423d9	0.014901125
151	0xbd2c6e0f	-0.042097148
152	0x3d103c1d	0.03521358
153	0xbd67a568	-0.056554228
154	0xbd23ffc3	-0.040038835
155	0xbcacc4ff	-0.021090029
156	0xbd1817b3	-0.037131976
157	0xb9666387	-0.00021971586
158	0x3d6ee165	0.05832042
159	0xbd3e6014	-0.046478346
160	0x3cebe077	0.028793557
161	0x3cf35aaf	0.029706327
162	0xbc475921	-0.012167246
163	0xbc87f103	-0.016594416
164	0x3d0316e9	0.03200427
165	0xbd06294c	-0.032754228
166	0x3d28c0ab	0.041199367
167	0xbbee8a8b	-0.007279699
168	0xbd210e8e	-0.03932052
169	0x3c3900a7	0.011291659
170	0xbd90610e	-0.07049762
171	0xbd90b56d	-0.07065854
172	0x3d0c4535	0.03424569
173	0xbcd2826b	-0.025696954
174	0xbc0f1dfe	-0.008735178
175	0xbc20c0c9	-0.009811589
176	0xbd886cd7	-0.066613846
177	0xbd15c932	-0.036568828
178	0x3d73aff5	0.059493978
179	0xbcab9d83	-0.02094913
180	0x3d3baa3d	0.04581665
181	0xbc327cd0	-0.010894015
182	0xbc05537f	-0.008137583
183	0x3bfc38ff	0.007697224
184	0xbd0a8403	-0.033817302
185	0xbd1a5b43	-0.03768469
186	0xbb08e883	-0.002089054
187	0xbd453c4a	-0.0481532
188	0x3c57fcbc	0.013182815
189	0xbc8e0833	-0.017337894
190	0xbd4c17df	-0.049827453
191	0x3d4eb5e3	0.05046643
192	0xbc9995b5	-0.018748144
193	0x3be42bb9	0.00696322
194	0xbdaa2b6c	-0.08309063
195	0x3c10bc8f	0.008834018
196	0xbdab4a66	-0.083638
197	0xbce273ac	-0.027643047
198	0xba86e424	-0.001029138
199	0xbd3b8684	-0.04578258
200	0xbd6c5100	-0.057694435
201	0xbd27914f	-0.04091006
202	0x3ca8f28f	0.020623473
203	0x3c693c1b	0.014235522
204	0x3d0f310e	0.03495889
205	0xbcfdb03d	-0.030967826
206	0x3cc8974b	0.024486205
207	0x3ca8c16d	0.020600045
208	0x3d0987b5	0.033576686
209	0xbc5ee993	-0.013605493
210	0x3cb1774b	0.021663329
211	0x3d3b8e84	0.04579021
212	0xbb7424ff	-0.0037253497
213	0xbd4cd329	-0.050006066
214	0x3abb7f7f	0.0014304965
215	0xbcbcdc02	-0.023054127
216	0x3c88c2a6	0.016694378
217	0x3be1a0d6	0.006885628
218	0x3d2f5c6a	0.042812742
219	0x3d481285	0.048845787
220	0x3d8d2a94	0.06892887
221	0xbd37709c	-0.044785127
222	0xbbc272a5	-0.005934077
223	0xbd02dbec	-0.031948015
224	0xbd1133c0	-0.035449743
225	0x3cef7696	0.02923135
226	0xbc1860b1	-0.009300397
227	0xbcc67eb0	-0.024230331
228	0x3c95ab4d	0.01827016
229	0x3d3199b1	0.043359462
230	0x3b715043	0.0036821521
231	0xbb41319f	-0.002947904
232	0x3cf35036	0.029701333
233	0xbd123aef	-0.035700735
234	0xbc17c7a1	-0.009263904
235	0xbba5f429	-0.0050645065
236	0xbada9753	-0.0016677178
237	0x3c9dbcfe	0.019255158
238	0x3c7710be	0.015079675
239	0x3c92ee4f	0.0179359
240	0xbd5edf8f	-0.05441242
241	0x3d26dfb5	0.040740687
242	0xbcd9b8a1	-0.026577296
243	0xbca3b16f	-0.019982068
244	0x3d183f5b	0.037169795
245	0x3d0e3ff1	0.034728948
246	0xbc990d81	-0.018683197
247	0x3d242cc6	0.04008176
248	0xbc34a6ec	-0.011026125
249	0xbd32faea	-0.04369632
250	0x3bfd64cd	0.0077329637
251	0xbcd02cca	-0.025411982
252	0xbcdeff2f	-0.02722129
253	0xbc0969c6	-0.008387035
254	0x3c2d4a01	0.010576726
255	0x3d405172	0.046952672

conv2.bias f4 [64]
0	0x388df47d	6.7689434e-05
1	0xb80a0ae3	-3.2911903e-05
2	0x36c0d3ba	5.746694e-06
3	0x386c3e41	5.6324763e-05
4	0xb747ce19	-1.190931e-05
5	0x379734ba	1.8025155e-05
6	0x379d80b9	1.87758e-05
7	0x37c7d3cc	2.3821274e-05
8	0xb64fa6f9	-3.0942595e-06
9	0xb738a076	-1.1004615e-05
10	0xb7c4b68b	-2.3450024e-05
11	0x371953a2	9.138983e-06
12	0x384e40e1	4.917465e-05
13	0xb83ab2f0	-4.4512504e-05
14	0xb8240278	-3.9102946e-05
15	0x383fb1fc	4.570371e-05
16	0x3769f796	1.3945528e-05
17	0x37817e0f	1.5436699e-05
18	0xb72a2afb	-1.0142797e-05
19	0x38313eac	4.2258456e-05
20	0x37ba65a5	2.222026e-05
21	0xb837c72b	-4.381609e-05
22	0x38027a45	3.1108288e-05
23	0x379c7d23	1.865492e-05
24	0xb7b35090	-2.1375978e-05
25	0x37c43813	2.3391132e-05
26	0xb7b2314e	-2.1242213e-05
27	0xb78c40ef	-1.6719538e-05
28	0xb82458e1	-3.9183422e-05
29	0xb82cf15f	-4.123279e-05
30	0x37c2c484	2.3218112e-05
31	0x378e01bc	1.6928527e-05
32	0x370a16f7	8.230788e-06
33	0x37c1e199	2.3112445e-05
34	0xb7b9240a	-2.20705e-05
35	0x384bd3da	4.8596274e-05
36	0x36d697f6	6.3953876e-06
37	0x388357f9	6.262953e-05
38	0x37ddae3b	2.6426385e-05
39	0x37c357b9	2.328666e-05
40	0xb8449a25	-4.68736e-05
41	0x360950fb	2.0461728e-06
42	0xb7daa248	-2.6063193e-05
43	0x37f848f0	2.9597868e-05
44	0x37ecb5c1	2.8218028e-05
45	0x341ab673	1.4408742e-07
46	0x37847f91	1.5795029e-05
47	0x37582453	1.2883061e-05
48	0x36b32126	5.3384747e-06
49	0xb7f4a48c	-2.916369e-05
50	0x3796b438	1.7965314e-05
51	0x35d78897	1.6058501e-06
52	0x3785203f	1.5869851e-05
53	0xb7953bf6	-1.7790106e-05
54	0xb7bfa5b8	-2.2846143e-05
55	0xb689144e	-4.085282e-06
56	0x37399c2f	1.1063224e-05
57	0xb7dbcd17	-2.6202337e-05
58	0x37862247	1.5990006e-05
59	0xb733a1e7	-1.0706927e-05
60	0x38815046	6.1661514e-05
61	0xb782883b	-1.5560645e-05
62	0x3618e809	2.2784827e-06
63	0x37ccc341	2.4409617e-05

bn1.weight f4 [32]
0	0x3f8516d2	1.0397589
1	0x3f7d48b6	0.98939073
2	0x3f85e1b4	1.0459504
3	0x3f78c231	0.9717131
4	0x3f80f0a1	1.0073434
5	0x3f8192c2	1.0122912
6	0x3f89f3e4	1.0777555
7	0x3f82070a	1.0158398
8	0x3f73841a	0.95123446
9	0x3f7c48bf	0.985485
10	0x3f85c387	1.0450295
11	0x3f7e5b76	0.9935831
12	0x3f717f65	0.94335014
13	0x3f7b55e0	0.9817791
14	0x3f77a28c	0.967324
15	0x3f7d0a98	0.9884429
16	0x3f83ed56	1.0306804
17	0x3f80ca1e	1.0061681
18	0x3f756c14	0.9586804
19	0x3f86a10a	1.0517895
20	0x3f7f6dad	0.99776727
21	0x3f8c7d1e	1.0975683
22	0x3f6fc116	0.93654
23	0x3f752247	0.9575543
24	0x3f75d5bd	0.96029264
25	0x3f75f0c6	0.96070516
26	0x3f79a7e0	0.9752178
27	0x3f6b6352	0.91948426
28	0x3f85b453	1.0445656
29	0x3f74be20	0.9560261
30	0x3f883107	1.0639962
31	0x3f75a1e2	0.9595014

bn1.bias f4 [32]
0	0x3d659682	0.05605174
1	0xbd0300a3	-0.03198303
2	0x3cfcaf2e	0.030845251
3	0xbcd4430c	-0.025910877
4	0x3c5bff7c	0.013427611
5	0x3dc64b3c	0.096823186
6	0x3dd57802	0.1042328
7	0xbd189d55	-0.03725942
8	0xbd3f691b	-0.046731096
9	0xbca218ff	-0.01978731
10	0x3d9093fb	0.07059475
11	0x3b3ebe0c	0.0029104976
12	0xbd02f286	-0.03196957
13	0x3c3ab697	0.011396072
14	0xbda55c38	-0.0807423
15	0xbd2537ef	-0.040336546
16	0x3d37d79a	0.044883348
17	0x3b858d68	0.004075695
18	0x3c5f8c5f	0.013644307
19	0x3dac294b	0.084063135
20	0xbd918cbb	-0.0710692
21	0x3dc4dee5	0.09612826
22	0xbcba663f	-0.022753833
23	0xbd44a3f8	-0.048007935
24	0xba897d02	-0.0010489526
25	0x3d063e72	0.032774396
26	0x3d585baa	0.052821793
27	0xbdd32c7c	-0.10311219
28	0x3d90d25c	0.07071373
29	0xbd2f25c2	-0.042760618
30	0x3dc55c83	0.09636786
31	0xbd7222cd	-0.05911522

bn1.running_mean f4 [32]
0	0xbd2ec544	-0.042668596
1	0x3d0c8bc6	0.034312986
2	0xbd9477db	-0.07249423
3	0x3cc09b1e	0.023511466
4	0xbc4accdd	-0.012377945
5	0xbcfc329b	-0.03078585
6	0xbd659a06	-0.05605509
7	0xbcd14544	-0.025545724
8	0x3d27cfd7	0.040969696
9	0x3d8c6977	0.06856053
10	0xbdf4d843	-0.11955311
11	0xbd7c81df	-0.061647292
12	0xbc9a2773	-0.018817639
13	0xbc8568b4	-0.016285278
14	0x3caa92e0	0.020821989
15	0x3c948bbf	0.018133042
16	0xbd81c8de	-0.063371405
17	0xbd891a6a	-0.06694491
18	0xbc95dcdc	-0.01829379
19	0xbdb67cb1	-0.08910502
20	0x3bda11d0	0.0066549554
21	0xbd88b9e4	-0.06676081
22	0x3d81c913	0.0633718
23	0x3b2a6218	0.002599841
24	0xbbf69485	-0.007525029
25	0xbd424309	-0.04742721
26	0x3d4da79f	0.050208684
27	0x3c0afa02	0.008482458
28	0xbd4a897c	-0.04944752
29	0x3d8af61a	0.067852214
30	0xbd2a7a69	-0.041620646
31	0xbba12afa	-0.0049184533

bn1.running_var f4 [32]
0	0x3cbb4c93	0.022863662
1	0x3c490605	0.012269502
2	0x3cd2ce4f	0.025733141
3	0x3ca0b641	0.019618155
4	0x3c920183	0.017822986
5	0x3cc659fc	0.02421283
6	0x3c588292	0.013214724
7	0x3ca670af	0.020317404
8	0x3c9a0509	0.01880123
9	0x3c659d59	0.014014565
10	0x3ca108cd	0.019657517
11	0x3c9a9c35	0.018873313
12	0x3cb5cc9d	0.022192294
13	0x3c8fadd9	0.017538952
14	0x3c37c4f6	0.011216393
15	0x3c25c2d7	0.010117254
16	0x3c11e26c	0.008904081
17	0x3cd09839	0.02546321
18	0x3c517961	0.012785287
19	0x3c654016	0.01399233
20	0x3caf5833	0.021404361
21	0x3c3073e3	0.010769817
22	0x3c873fbf	0.016509889
23	0x3cb4e19d	0.022080237
24	0x3ca034fd	0.019556517
25	0x3cb02d01	0.021505835
26	0x3c898323	0.016786164
27	0x3c46f852	0.012144165
28	0x3c3cb7d5	0.011518438
29	0x3cb68d10	0.02228406
30	0x3c86f98b	0.016476413
31	0x3c07582f	0.008260771

bn2.weight f4 [64]
0	0x3fa0b0b7	1.2553929
1	0x3f98e97c	1.1946254
2	0x3f98c665	1.1935545
3	0x3f9399e2	1.1531336
4	0x3f901cf5	1.1258837
5	0x3f87c931	1.0608274
6	0x3f93bc72	1.1541884
7	0x3f92a2b6	1.1455905
8	0x3f8609b8	1.0471716
9	0x3f8aefd4	1.085444
10	0x3f98f0ce	1.1948488
11	0x3f984983	1.1897434
12	0x3f9536ab	1.1657308
13	0x3f8ea1a7	1.1143082
14	0x3f99e051	1.2021581
15	0x3f8db1e9	1.1069919
16	0x3f95b94f	1.1697177
17	0x3f99df42	1.2021258
18	0x3f927311	1.1441365
19	0x3f97f32f	1.1871089
20	0x3f979086	1.184098
21	0x3fa1bcba	1.263572
22	0x3f954d08	1.1664133
23	0x3f8d1508	1.1022043
24	0x3fa38ced	1.2777382
25	0x3f90bed4	1.1308236
26	0x3fa3e27b	1.2803491
27	0x3f9e1a70	1.2351818
28	0x3f9e6656	1.237498
29	0x3faf9559	1.3717452
30	0x3f938994	1.152636
31	0x3f93828f	1.1524218
32	0x3f91c9f1	1.1389753
33	0x3fa9ea60	1.327465
34	0x3f967535	1.1754519
35	0x3f90a497	1.1300229
36	0x3f859db5	1.0438753
37	0x3f97da2b	1.1863455
38	0x3f8f7658	1.1207991
39	0x3f8ee1f0	1.1162701
40	0x3fb474c0	1.4098129
41	0x3f8f12c5	1.1177603
42	0x3fabbb19	1.3416473
43	0x3f939f7a	1.1533043
44	0x3f95913a	1.1684945
45	0x3f9d70cc	1.2300048
46	0x3fa436f8	1.2829275
47	0x3f850d8a	1.0394757
48	0x3f835396	1.0259883
49	0x3f9042ad	1.1270348
50	0x3faa14f7	1.3287648
51	0x3f9c8511	1.2228109
52	0x3f85c9d0	1.0452213
53	0x3f8a284a	1.0793545
54	0x3f8a4334	1.0801759
55	0x3fa1d51f	1.2643164
56	0x3f9a0eff	1.2035826
57	0x3f9d3acf	1.2283572
58	0x3f8f54cb	1.1197752
59	0x3f881cdd	1.0633808
60	0x3f9689b8	1.1760778
61	0x3f90b4b3	1.1305145
62	0x3f8f2c7e	1.1185453
63	0x3fa3a382	1.2784274

bn2.bias f4 [64]
0	0x3d571e85	0.05251934
1	0xbdbb4a4a	-0.09145029
2	0xbd754ba6	-0.059886597
3	0x3d88aff3	0.06674185
4	0xbe3b5d3b	-0.18297283
5	0xbe2e3d92	-0.17015675
6	0x3d43153b	0.04762767
7	0xbe22866c	-0.1587159
8	0xbe4d4788	-0.20046818
9	0xbd671b1b	-0.056422334
10	0xbba4a6af	-0.005024753
11	0xbd047c12	-0.032344885
12	0xbcddf186	-0.027092706
13	0xbdfe997a	-0.12431617
14	0x3bc8ebad	0.0061316104
15	0xbe2f987f	-0.17148016
16	0xbd82d872	-0.0638894
17	0xbda2eb4c	-0.079550356
18	0x3c5efbe4	0.01360986
19	0x3c93fce6	0.018064927
20	0xbbcc89a5	-0.0062419944
21	0xbb8a9a13	-0.004229793
22	0xbdc6bbd3	-0.097037934
23	0xbc45e47e	-0.012078403
24	0x3da9be8d	0.08288298
25	0xbdc6d14e	-0.097078905
26	0x3d9db325	0.07700185
27	0x3d281bb1	0.041042034
28	0x3d9e7383	0.07736876
29	0x3d9aa485	0.07550911
30	0xbb552ce1	-0.003252797
31	0xbdf5bb26	-0.11998586
32	0xbd336eab	-0.043806713
33	0xbc2a1f1f	-0.010383396
34	0xbd913577	-0.07090276
35	0xbe00a524	-0.12562996
36	0xbe28ef5f	-0.16497563
37	0xbdca9344	-0.0989137
38	0xbd8c79a9	-0.06859142
39	0xbe2a450c	-0.16627902
40	0x3d5f181e	0.05446636
41	0xbce1eb8e	-0.027578142
42	0xbdc7cd0d	-0.09755907
43	0xbd9e1aab	-0.0771993
44	0xbd8f8fba	-0.070098355
45	0x3cfe9eae	0.031081524
46	0x3d324bfc	0.043529496
47	0xbdd89b80	-0.10576534
48	0xbe20c1da	-0.15698949
49	0x3c8154d3	0.015787518
50	0x3d347810	0.044059813
51	0xbe2e1e97	-0.17003857
52	0xbe25cab8	-0.16190612
53	0xbe0b6232	-0.13611677
54	0xbe1097a9	-0.14120354
55	0xbcdb7aeb	-0.02679201
56	0xbd31822e	-0.04333704
57	0xbce7b605	-0.028285036
58	0xbd68e95f	-0.056863185
59	0xbda37fdd	-0.07983372
60	0xbd9acd66	-0.07558708
61	0x3ca9ebec	0.02074238
62	0xbe2c20d1	-0.16809393
63	0x3d528f6f	0.05140632

bn2.running_mean f4 [64]
0	0xbed446c5	-0.41460243
1	0x3c71b016	0.014751455
2	0xbef1451b	-0.47123036
3	0xbdfa8352	-0.122320786
4	0xbd439e3a	-0.04775832
5	0x3c015a3f	0.0078950515
6	0xbcf6eda9	-0.030142622
7	0x3db5e7fc	0.08882138
8	0xbd5411be	-0.051774733
9	0x3d8a93fd	0.06766508
10	0x3c495e81	0.012290598
11	0xbe532aad	-0.20621748
12	0xbe9d0a10	-0.3067174
13	0x3ea6d4ea	0.32584316
14	0xbedef115	-0.43543306
15	0x3ed0e6a5	0.40800968
16	0x3df00b5d	0.117209174
17	0x3dd7adbc	0.10531184
18	0x3dec0836	0.115250036
19	0x3db2cacc	0.08730087
20	0x3cdd8494	0.027040757
21	0xbd12de73	-0.035856675
22	0x3ceb4bc2	0.028722648
23	0x3d155fd1	0.03646833
24	0xbea68ea2	-0.32530695
25	0x3e3bdeda	0.1834673
26	0x3d20e484	0.03928043
27	0xbed121ab	-0.40846
28	0xbd8a2164	-0.0674465
29	0xbf1303f9	-0.57427937
30	0x3e2d48d7	0.16922317
31	0xbe5f1c6d	-0.21788187
32	0x3cb8d3c9	0.022561925
33	0xbef1ab06	-0.47200793
34	0xbe715701	-0.23568346
35	0xbe50c559	-0.20387782
36	0xbb87f1e1	-0.0041487073
37	0xbb981de6	-0.004642236
38	0xbe9dbc73	-0.30807838
39	0x3e0f9704	0.14022452
40	0xbf0345d8	-0.5127845
41	0x3e733640	0.23751163
42	0xbecca6cb	-0.39971003
43	0xbea3bdfe	-0.3198089
44	0x3d686931	0.056740943
45	0x3e8dace8	0.2767098
46	0xbe70b6e0	-0.23507261
47	0x3d1b7be2	0.03795994
48	0x3d6ed93f	0.05831265
49	0xbdc89483	-0.09793951
50	0xbefc2d21	-0.4925318
51	0xbdd48a56	-0.10377948
52	0x3ba75600	0.0051066875
53	0xbd148183	-0.036256324
54	0xbdd5ea0c	-0.104450315
55	0x3e1cfcb5	0.15330775
56	0x3d5257b2	0.051353164
57	0x3d4b53fd	0.049640644
58	0xbc04252a	-0.008065501
59	0x3e720985	0.23636444
60	0xbd51f233	-0.05125637
61	0x3de22eb6	0.11044066
62	0xbd9852e5	-0.07437686
63	0xbe5c6707	-0.21523677

bn2.running_var f4 [64]
0	0x3d897283	0.067112945
1	0x3d414bde	0.047191493
2	0x3d0a55ff	0.03377342
3	0x3dc1a6b4	0.09455624
4	0x3d3870e8	0.04502955
5	0x3d6fb292	0.058519907
6	0x3d2bf5a1	0.041982297
7	0x3d8f21da	0.069888785
8	0x3d0be253	0.034151386
9	0x3d75d925	0.06002154
10	0x3d727e7b	0.059202652
11	0x3d46efb9	0.04856846
12	0x3d673711	0.056449
13	0x3d44b429	0.048023377
14	0x3dba266b	0.09089359
15	0x3d609665	0.054830927
16	0x3d88d521	0.06681276
17	0x3dea7387	0.11447816
18	0x3d6bc735	0.057563026
19	0x3dc7d6c9	0.09757764
20	0x3d50ab20	0.050944448
21	0x3d20c355	0.039248783
22	0x3d5b08a9	0.053475056
23	0x3d269da1	0.04067767
24	0x3d0252c8	0.031817228
25	0x3d949633	0.07255211
26	0x3d7175e1	0.05895031
27	0x3d4f8dd7	0.05067238
28	0x3d521a8e	0.051294856
29	0x3dc5100b	0.096222006
30	0x3e11738f	0.14204238
31	0x3d999682	0.0749941
32	0x3dcc6add	0.0998132
33	0x3d64f02c	0.05589311
34	0x3d87cb6e	0.06630598
35	0x3d44fc5b	0.048092227
36	0x3d208f01	0.03919888
37	0x3d2e16fb	0.042502385
38	0x3d9b8188	0.075930655
39	0x3ccce8ca	0.025013346
40	0x3d2ad76d	0.041709352
41	0x3d8b12b6	0.06790678
42	0x3d395407	0.04524615
43	0x3d228d73	0.039685678
44	0x3d12bf3f	0.035826918
45	0x3da8ad44	0.08236173
46	0x3d9f2a21	0.07771707
47	0x3d40e49d	0.047093023
48	0x3d6a2d0e	0.057171874
49	0x3d26f6e5	0.0407628
50	0x3d80b1f4	0.06283942
51	0x3d8391f6	0.06424324
52	0x3d309c37	0.043117728
53	0x3d282b26	0.041056775
54	0x3d1828bb	0.03714822
55	0x3d5369e8	0.051614672
56	0x3d3fed06	0.046856903
57	0x3da8b2ef	0.08237254
58	0x3d9f7c0e	0.077873334
59	0x3da0725d	0.07834313
60	0x3d4524ea	0.048130907
61	0x3d6daf3b	0.05802844
62	0x3d4edd5e	0.05050408
63	0x3d73b8c3	0.059502374

output_conv.weight f4 [9, 64, 1, 1]
0	0x3dc3e48d	0.09565077
1	0x3e0a0bff	0.13481139
2	0x3d7db5ef	0.061941084
3	0x3dc5f333	0.09665527
4	0xbe37c915	-0.179478
5	0xbc97f62b	-0.01855
6	0x3cc6c367	0.024263097
7	0x3e612d65	0.21989973
8	0xbdc42528	-0.095773995
9	0xbe542e8c	-0.20720881
10	0x3d36f458	0.044666618
11	0x3c9b3d7b	0.018950215
12	0x3dd22dcc	0.10262641
13	0xbb3d837f	-0.002891749
14	0x3dd58982	0.10426618
15	0xbec10fd7	-0.37707397
16	0xbd92f981	-0.07176495
17	0xbe9d246a	-0.30691844
18	0x3dbec5f5	0.09315101
19	0xbea5ae9e	-0.32359785
20	0xbd2a1491	-0.04152352
21	0x3d141e09	0.036161456
22	0x3e2f637e	0.17127797
23	0xbc167c36	-0.009184888
24	0x3d9ce5e7	0.07661038
25	0x3d4db0a3	0.050217282
26	0x3dd386de	0.10328458
27	0x3e001350	0.12507367
28	0x3deffd09	0.117181845
29	0x3e1696b5	0.14705928
30	0xbd25a25a	-0.040438034
31	0x3e5044ed	0.20338793
32	0xbe6e0c5c	-0.23246902
33	0x3d6830ec	0.05668728
34	0xbdaccac2	-0.084371105
35	0x3df7bfc7	0.120971255
36	0xbd7566db	-0.059912544
37	0x3deec3db	0.1165845
38	0x3d0b03fd	0.03393935
39	0x3d27df0d	0.040984202
40	0x3e1fb33f	0.1559572
41	0xbeca7a69	-0.39546517
42	0x3e0ca65e	0.13735339
43	0x3dd9e3bd	0.10639141
44	0x3e024062	0.12719873
45	0xbf085279	-0.53250843
46	0x3d024eea	0.03181354
47	0xbd2ed0cb	-0.04267959
48	0xbe141681	-0.1446171
49	0x3bcb7bd1	0.0062098284
50	0x3e1263f8	0.14295948
51	0x3e0d313d	0.13788314
52	0xbdd11806	-0.1020966
53	0xbc9d6983	-0.019215351
54	0xbe072030	-0.13195872
55	0x3d8f8d05	0.07009319
56	0xbcf3eb95	-0.02977542
57	0x3d1dbcb4	0.03851004
58	0x3cd59113	0.026070153
59	0xbd13a2cf	-0.03604394
60	0x3d23d668	0.039999396
61	0x3c1cedf6	0.009578219
62	0x3e5bfb3d	0.21482559
63	0x3d5a349c	0.05327283
64	0x3cfe4b99	0.031041907
65	0x3dc37a11	0.09544767
66	0x3d1ffcab	0.039059322
67	0x3d36b77a	0.04460857
68	0x3e37171e	0.17879912
69	0x3c58a75e	0.013223497
70	0x3ab0f00c	0.0013499274
71	0xbe63e882	-0.22256663
72	0x3cbec227	0.023285938
73	0xbc8268a0	-0.01591903
74	0xbe61cfa7	-0.2205187
75	0xbd9d38d7	-0.07676857
76	0x3d8e4007	0.06945806
77	0x3d9780e1	0.073976286
78	0x3da5e089	0.08099467
79	0x3e0c939b	0.13728182
80	0x3cf40f24	0.029792376
81	0xbe1660c9	-0.14685358
82	0xbbdc074b	-0.0067147366
83	0x3da8d158	0.08243054
84	0x3d5a6770	0.053321302
85	0xbdb24e81	-0.0870638
86	0xbe0e758a	-0.13912025
87	0x3ddd9c93	0.1082088
88	0x3daae26a	0.08343966
89	0xbe99884c	-0.299868
90	0x3dcf802f	0.10131871
91	0x3df155ca	0.11783941
92	0x3e0b4bee	0.13603184
93	0x3d9d158d	0.07670126
94	0xbe921689	-0.28532818
95	0xbdc6ed86	-0.09713273
96	0xbe49e452	-0.19716004
97	0x3dd5d8de	0.10441755
98	0xbd8a8a9f	-0.06764721
99	0x3e331405	0.17488106
100	0x3dd7e11c	0.10540983
101	0x3dd94cd2	0.106103554
102	0xbda2a88b	-0.07942303
103	0xbd979a6d	-0.07402501
104	0x3e159dbc	0.14610952
105	0xbc754dd0	-0.014972165
106	0x3df51e0a	0.1196862
107	0x3e3ed91f	0.18637513
108	0x3de25a72	0.11052407
109	0xbdbeacba	-0.09310289
110	0x3c3f00ba	0.011657888
111	0x3caef679	0.021357762
112	0xbe84c33f	-0.2593021
113	0xbc8eb456	-0.017419975
114	0x3e3c801b	0.18408243
115	0xbe3b4921	-0.18289615
116	0x3d3fb9ef	0.04680818
117	0x3d007104	0.03135778
118	0x3ca2bd0f	0.01986554
119	0x3e1ffc05	0.15623482
120	0x3a13572f	0.00056205963
121	0xbd10ffcd	-0.0354002
122	0xbe64e578	-0.2235316
123	0x3d7f3609	0.06230739
124	0xbe16e5af	-0.14736055
125	0x3dd818ee	0.1055163
126	0x3c94c7b7	0.018161638
127	0xbc439c05	-0.011939053
128	0x3e1352fb	0.14387123
129	0xbdd2ed03	-0.10299113
130	0x3e0ca283	0.13733868
131	0x3d8f7d95	0.07006375
132	0xbe13517c	-0.14386553
133	0xbe5482ed	-0.20753069
134	0xbd370ca9	-0.044689808
135	0x3c06849a	0.008210326
136	0x3dd543df	0.10413336
137	0xbddfdbc4	-0.10930589
138	0xbe3b4c9b	-0.18290941
139	0x3d2f8654	0.042852715
140	0x3e025025	0.12725885
141	0xbd62c92f	-0.055367645
142	0x3d8fed00	0.07027626
143	0x3d9665bd	0.07343624
144	0xbcb43828	-0.021999434
145	0x3dd601c9	0.10449559
146	0x3dab45fc	0.08362958
147	0xbd5b5384	-0.053546444
148	0xbde2fdee	-0.110835895
149	0xbeca295f	-0.3948469
150	0xbe5dfd1d	-0.21678586
151	0x3cd7e1dd	0.026352817
152	0x3d96302d	0.073334076
153	0xbd774783	-0.060370933
154	0x3c076cdc	0.0082657
155	0x3e18a200	0.14905548
156	0x3d3ca9f9	0.046060536
157	0x3e0d16e2	0.1377826
158	0xbe414362	-0.18873361
159	0x3e012c09	0.12614454
160	0xbdf91d11	-0.12163747
161	0x3df0b133	0.11752548
162	0xbe3d9eb5	-0.18517573
163	0x3d46eb9b	0.048564535
164	0x3ce192ef	0.027535884
165	0xbd44633e	-0.047946207
166	0x3dc13beb	0.094352566
167	0x3dc24bb9	0.09487099
168	0x3e2b5467	0.16731416
169	0x3b10fcee	0.0022123414
170	0x3e054410	0.13014245
171	0xbd5fe258	-0.054659218
172	0xbd32b238	-0.043626994
173	0xbd2b2a61	-0.041788463
174	0x3d1cd494	0.038288668
175	0x3db4922f	0.08816945
176	0x3dfb592f	0.1227287
177	0x3d8d5711	0.06901372
178	0x3e3a2352	0.18177536
179	0x3d128db8	0.035779685
180	0xbde2c42a	-0.110725716
181	0x3dcfe822	0.10151698
182	0xbe889d5e	-0.26682562
183	0x3d316e74	0.043318227
184	0x3deb101d	0.11477683
185	0x3d2592fe	0.040423386
186	0xbe33f368	-0.17573321
187	0x3c5b5e9c	0.013389256
188	0xbd856556	-0.06513469
189	0x3d0f74c5	0.03502347
190	0xbd9a752d	-0.07541881
191	0x3d2c60cf	0.04208451
192	0xbce729b2	-0.028218124
193	0x3e2b3554	0.16719562
194	0xbd81fa32	-0.06346549
195	0xbd5bc156	-0.053651176
196	0xbe46efc9	-0.19427408
197	0xbd449c7a	-0.04800079
198	0x3d7ddad6	0.061976276
199	0xbd013701	-0.031546596
200	0xbd8ec664	-0.06971434
201	0x3e0a7ae0	0.13523436
202	0x3db03468	0.08603746
203	0xbdc7d760	-0.097578764
204	0xbdd6a922	-0.10481478
205	0x3dbcc87b	0.09217926
206	0xbde88be9	-0.11354811
207	0x3c35cef3	0.011096704
208	0x3df79c22	0.12090327
209	0xbdeadae8	-0.11467534
210	0x3da84b8b	0.08217534
211	0x3d8f4c1d	0.06996939
212	0x3e019aa1	0.12656642
213	0x3df75636	0.1207699
214	0x3e07f56f	0.13277219
215	0x3e073f6a	0.13207784
216	0xbde7a4d1	-0.11310733
217	0xbd839573	-0.064249896
218	0x3ddd500d	0.10806284
219	0xbe3cc1f9	-0.1843337
220	0x3e1b37a7	0.15157948
221	0xbca6565f	-0.020304857
222	0xbd9d4314	-0.0767881
223	0x3cc77093	0.024345672
224	0xbd60f642	-0.05492235
225	0xbb6d03a6	-0.0036165505
226	0x3dc766e0	0.09736419
227	0xbe8f61f1	-0.2800441
228	0xbdb83e0c	-0.089962095
229	0x3d044965	0.032296557
230	0xbd9ce5a7	-0.0766099
231	0xbdbf749a	-0.09348412
232	0x3ca6df59	0.020370172
233	0x3d260850	0.04053527
234	0xbdcfd47f	-0.10147952
235	0xbe013366	-0.12617263
236	0x3dcb7a05	0.09935383
237	0xbb861cee	-0.004092804
238	0x3c15760c	0.009122383
239	0x3d151b43	0.036402952
240	0xbd5cc830	-0.05390185
241	0x3df8e642	0.12153293
242	0x3d5cdb47	0.053920057
243	0xbea4a7f4	-0.32159388
244	0x3e1932a7	0.14960729
245	0x3e2b7f2b	0.1674773
246	0x3e0facbd	0.14030738
247	0x3dc34e5d	0.09536431
248	0x3df14507	0.11780744
249	0xbda21a12	-0.07915129
250	0xbd1a9e66	-0.037748717
251	0x3cbfe392	0.023423944
252	0x3d373954	0.044732407
253	0x3e0c038f	0.13673232
254	0x3cf1924a	0.029488701
255	0x3d8efcb1	0.06981791

output_conv.bias f4 [9]
0	0xbcce7407	-0.02520181
1	0x3dd5f0fd	0.104463555
2	0x3d5fc5d2	0.054632016
3	0x3c2cd3fd	0.010548589
4	0x3d58499f	0.052804586
5	0x3d8bf977	0.06834691
6	0xbd9467f6	-0.072463915
7	0xbe0bb677	-0.13643824
8	0xbda510c0	-0.080598354
