training/trained_models/model_standard_phase.pth (torch, 83946 bytes, 14 tensors)

conv1.weight f4 [32, 1, 3, 3]
00000000: b717 93bd ed57 c8bd 11d4 3b3e 453b 20be
00000010: 8938 f63c 02df 953e 548c 6ebe 94ee a73e
00000020: d053 00be 753d 38be 70ff 91be a351 e0bd
00000030: 9252 14be f7aa 6dbe 0493 8ebe b936 5ebe
00000040: 39a1 95be 102d 88be ba36 5a3d c7b1 38be
00000050: 890d 9cbc 6356 92be a36b 83bd 98c1 4c3e
00000060: 4b86 9bbe 1ca2 9fbe b2c4 e13d 022c 323e
00000070: b366 653e 333e 2cbe e3e4 673d 5787 6d3e
00000080: 36ad 813e e519 8d3e d70e 463e 584f 5f3c
00000090: 0a58 8fbe 6e9b 73be 4e51 0e3c f269 f23d
000000a0: 3ff1 1b3e 9879 65be 6435 983e 6daf 9abe
000000b0: 6630 513e 1c9c 8cbd ad2d 963d 4f46 64be
000000c0: b58e 063e 6fd8 66bd ba81 273e e5a5 49bd
000000d0: 6737 e4bd c6e8 d5bd c6c7 6cbe c7c9 073e
000000e0: bbc8 6bbe 8266 1c3d 6d32 9dbe 5b86 953d
000000f0: 7a19 9bbc 9866 093e 102d e23d 5c6d 253e
00000100: 425d 863d 16b5 6dbe 9802 ffbd d029 a53e
00000110: 3561 93be fafc 093e 6235 333e e107 033d
00000120: 0fbe 093e f781 483e 4e09 71be b660 21bc
00000130: 0dc0 8fbe 7e00 aabd 0579 82be da33 583d
00000140: e15f 873e 0058 5fbe 55a4 6b3e 7317 1d3e
00000150: b3b6 57bd b0f4 16be 5b45 773e 883b 4c3e
00000160: 04e4 f43c ab76 8f3e 8de4 103e afd1 31bd
00000170: e576 3abe 9313 a03e 1d91 143e b34d 5a3d
00000180: 1a9f a2be 1414 733d dd3f 6e3c b2e2 b0bd
00000190: a5d0 60be 48f2 c33d 0701 313d f3f7 c6bd
000001a0: ab81 9b3d 52c6 14be 6d6d 72bc 78e3 7abe
000001b0: 80b3 2fbe 4fc6 f33d e204 773d a843 6a3b
000001c0: 27db 7ebe 16e0 cebd 433e c2bd d7dc 2dbd
000001d0: 70b6 8c3d 1e63 2a3d 317c 083e bc0b c6bd
000001e0: 7ddc 133e 657f 72be e1b2 abbe 38b3 bfbc
000001f0: ccd2 37be cd0b abbe 1d25 9ebd 4ea3 083e
00000200: 9745 81be 5448 f23d 84fd 2ebe df9f 583c
00000210: 73b3 9cbe d9a1 44be 420c ddbd a77f f6bd
00000220: 2fb8 653e c7e2 143e 5f28 573e a3e7 9cbc
00000230: f6fd f7ba d689 203e f95b 48bd b21a e7bb
00000240: dfe0 5b3e 3a49 3bbe 400b 85bd 37ec 65bb
00000250: bc1b 62be 9bf3 0f3e 53b8 123e 3670 0d3e
00000260: 1462 9c3d 474b 93bd bbb3 203e 7999 82be
00000270: 5893 17be 3fd6 2b3e cd6a 79be 45fd 273d
00000280: ea0e 21be 16d2 6cbe 706a d13d 39eb 1f3b
00000290: 7416 11be c8f0 8fbe 5c39 833e 0865 943e
000002a0: b70f a33e 6471 1fbe 7114 393e f3f5 2a3e
000002b0: ef3d 2ebd ba02 8ebe 1d7e a23e 0488 06be
000002c0: 7c1a 8d3e 94a2 923e 2016 5cbe a1c8 f73d
000002d0: 0491 0a3e 8f63 84be 87a1 913e cde7 363e
000002e0: b212 7f3d bfc5 aebe e93b eb3d 9b98 8a3e
000002f0: 22c8 81be 35bb 22be b00a 833e e42d 0dbe
00000300: 072d 893e 16ec 08be bf00 7b3e 3418 d83d
00000310: 375f 613c d027 2bbe b1da 623e 4c25 0d3e
00000320: 52d3 48be b33c a13e 6e80 e2ba 59bd ed3d
00000330: c412 bebd 2947 983e 0c27 30be 8d1e 603e
00000340: 45cf 9c3e 0ddb d4bc effb 54be 43c6 55be
00000350: 9d97 4dbe 95f4 213d 7473 473d d016 5dbe
00000360: 4258 9f3e f2ae 2cbe 971a 0fbe 51e5 39be
00000370: 447f 4b3e 39e6 0c3c e5ce 153e 8a7b 8ebe
00000380: 211f 8d3e ec76 7ebe 5cf9 21be 7d33 5bbe
00000390: 0204 b0bc 2a24 84be f023 c2bd ec72 94be
000003a0: 95fd 953e 00e4 923d 9cbc efbd 17e8 983e
000003b0: 9c0c 123e 671e 833e 5c6a 773e 95b3 6b3d
000003c0: a6e7 dd3d 06f1 393e 4cab b13d 2be0 33bc
000003d0: 0456 3b3d 51a2 69be 24b2 b43d 8e05 74be
000003e0: c369 96be 6c38 01bd 4215 0dbe e08b 2c3e
000003f0: 569c 783e 7afa 2abe d5ce 25be 073d 9abe
-0.071822576 -0.097823955 0.18342616 -0.1564761 0.030056255 0.29271704 -0.23295718 0.32799208
-0.12531972 -0.17992194 -0.28515196 -0.10953071 -0.14484623 -0.23209749 -0.2784654 -0.21700563
-0.29224566 -0.2659688 0.053274848 -0.18036567 -0.019049423 -0.28581533 -0.064170144 0.19995725
-0.30375895 -0.31178367 0.11023845 0.173996 0.22402458 -0.16820602 0.056614768 0.2319616
0.25327462 0.27558818 0.19341598 0.013629757 -0.27996856 -0.2378976 0.008686377 0.11836614
0.15228747 -0.22409666 0.29728234 -0.30211964 0.20428619 -0.06865713 0.07332931 -0.22292446
0.13140376 -0.05635875 0.1635808 -0.049230475 -0.1114338 -0.10444789 -0.23123083 0.13260566
-0.23025791 0.038183697 -0.30702534 0.07301017 -0.018933047 0.13418043 0.11043751 0.16154999
0.06560756 -0.2321361 -0.124516666 0.32258463 -0.287851 0.13475409 0.17500833 0.031989936
0.13451408 0.19580828 -0.23538706 -0.009849718 -0.2807621 -0.08300875 -0.25482956 0.052783825
0.26440337 -0.21810913 0.23011906 0.15340976 -0.05266447 -0.14741778 0.24147551 0.19944584
0.029893883 0.28020224 0.14149685 -0.04341286 -0.18209417 0.31264934 0.14508481 0.053296756
-0.3176201 0.05934532 0.014541593 -0.08636989 -0.21954592 0.09567696 0.04321387 -0.09715261
0.075930916 -0.14528778 -0.014796597 -0.24500835 -0.17158318 0.11903059 0.06030739 0.0035745893
-0.24888287 -0.10101335 -0.09484532 -0.042446937 0.06870735 0.04159843 0.13328625 -0.09670207
0.14439578 -0.2368141 -0.3353491 -0.023400888 -0.17951506 -0.3340744 -0.077219225 0.13343546
-0.25248405 0.11830202 -0.17088896 0.01322171 -0.3060566 -0.19202365 -0.107933536 -0.120360665
0.22433542 0.14539634 0.21011494 -0.019153422 -0.0018920291 0.1567758 -0.048915837 -0.007052743
0.214725 -0.18289652 -0.064962864 -0.0035083422 -0.22080892 0.14057772 0.14328127 0.13812336
0.076358944 -0.071920924 0.15693562 -0.25507715 -0.14802301 0.16780947 -0.24357148 0.04101302
-0.15728346 -0.23127016 0.102253795 0.0024401678 -0.14168721 -0.2811339 0.256297 0.2898333
0.31847927 -0.15570599 0.18074204 0.16695385 -0.042539533 -0.27736455 0.31736842 -0.13137823
0.27559268 0.28639662 -0.21492815 0.12098814 0.13531882 -0.25857207 0.28443548 0.17861862
0.06227369 -0.34135243 0.11486036 0.27069554 -0.25348002 -0.15891726 0.2559409 -0.13787037
0.26792166 -0.1337131 0.24512003 0.105514914 0.013755611 -0.16714406 0.22153737 0.13783759
-0.19611862 0.31491622 -0.0017280707 0.11608381 -0.09280923 0.2974179 -0.17202395 0.21886654
0.30626884 -0.025983358 -0.2079923 -0.20876412 -0.20077367 0.039539892 0.04869409 -0.21590734
0.31122023 -0.16863611 -0.13974987 -0.18153884 0.19872767 0.008599811 0.14629705 -0.27828628
0.27562812 -0.24850053 -0.1581778 -0.2140636 -0.021486286 -0.2580884 -0.09479511 -0.28993928
0.2929503 0.07172394 -0.11705896 0.2986457 0.14262623 0.25609133 0.24161667 0.05754431
0.10835199 0.1815835 0.086752504 -0.010978739 0.045736328 -0.22815825 0.0882304 -0.23830244
-0.29377565 -0.03154795 -0.1377764 0.16850233 0.24278387 -0.16697112 -0.16192181 -0.30124685

conv1.bias f4 [32]
00000000: 39dc 583e 8bd4 8dbe 8342 0e3b d40b 773e
00000010: 8623 b33c 5edc 8dbe 8d59 82be 84f7 22bc
00000020: 04ec 953e 1bc2 193d ed33 02be 4790 79bc
00000030: cc36 223e c68c 3fbe aa4b 293e ec63 b1bd
00000040: 938e 65be 2d95 8abe 9cb3 e2b9 c378 a0bd
00000050: 909a 903d 0458 03be 259e 9fbd 6f64 debb
00000060: 5889 38b8 c0fc aa3c f554 91bd a639 93be
00000070: 2314 14be a41d c6bb e233 7b3e d2ba c2bd
0.21177758 -0.2770122 0.0021707125 0.24125606 0.021867525 -0.2770719 -0.25458947 -0.009946708
0.29281628 0.03753863 -0.1271512 -0.015232152 0.15841216 -0.18706045 0.1653277 -0.08661637
-0.22417669 -0.27066937 -0.00043239899 -0.078355335 0.070607305 -0.12826544 -0.077938356 -0.006786875
-4.399693e-05 0.020872474 -0.070962824 -0.2875492 -0.14460807 -0.006046014 0.2453151 -0.095082894

conv2.weight f4 [64, 32, 3, 3]
00000000: 8e84 bfbc 36ec 1e3d 5025 16bb b815 c0bc
00000010: 0c2e 123d f0d8 a5bc b724 11bd d65a ddbc
00000020: 1a7b 9ebc 0f33 19bd 37bf 68bd 5cc2 b03c
00000030: d0ee 723d a5cd 1b3d 6a0e 013d eddb 3fbd
00000040: 34a4 d8ba e7cd 1fbd 27fb 63bc 91ab 823b
00000050: 3c0e b43c a0ce e93c 5b8f 7a3d 582a 6fbd
00000060: 26cd 263c 8ab2 283d efdc 3ebd bde1 033c
00000070: 3ac0 11bc 0935 f9bb 1679 db3c e536 1fbd
00000080: c48f e5bc a69f 713c f442 673a 048b 6bbc
00000090: 3be2 3b3c 2866 12bd a073 903d baa1 813b
000000a0: 47cb 113d 3d74 f03c a1f5 f23c 816b 923b
000000b0: 84a2 f5bb 5a2a 723d 90d6 af3c 7264 0abd
000000c0: 8fb3 3fbd 1c38 52bd cdbe 98bb 7cf3 9bbd
000000d0: 9109 c7bc 518c c23c d39f 293d 758d ab3c
000000e0: 4235 50bc 2bab 9abc 83ca 3d3d ac12 25bb
000000f0: 6626 313d 3a23 ef3c e4c7 1b3d e995 2a3d
00000100: ab69 44bd feb4 e0ba 4ea4 053d 7510 51ba
00000110: 616a 0bbd 0d76 a93c 1619 77b9 4d06 d13c
00000120: b460 2abc 0e1b 46bd fa07 08bd 0aff 9bba
00000130: 6427 eabb 6c1b 2bbd ad61 e7bc d966 f7bb
00000140: c416 87bc 9bd4 2c3d 5eed 9b3c 19c9 d03b
00000150: b004 3abd 7653 8bbc 8820 0e3d 8267 d4bb
00000160: ea2e 85bc fa9e 343d a35e 36bc a063 c53c
00000170: 9a8f 723b 4544 3c3c 301e 26bd 1ff1 3bbd
00000180: f97a 203d 5db7 e4bc 403b 26bc 81e1 03ba
00000190: 4919 023d 307a 263c 5ce0 783c 608e 2cba
000001a0: e60b 173d 15eb f2bc 5760 cc3c 8f56 51bd
000001b0: 30ab 74bd c4ae 09bc 9177 b1bc f368 71bc
000001c0: ab5e ddbc ede0 903c 9bcf 1a3b 1c39 1cbd
000001d0: 1f80 0abc 7264 9d3c 87d9 87bc d9e5 7e3c
000001e0: 6dae d93b 2348 843d 741d 51bd d2d5 b63c
000001f0: 2b1f 0dbc 37fc a4bd 2bcb 233d 31be bd3c
00000200: f87c 2dbd fe68 9ebc f4e1 07bd 050c dabb
00000210: 2328 033d a1d6 a1bb 4120 8d3c 835a 4f3d
00000220: 9916 503d 295c 25bd 2a9c 81bc 850c 10bc
00000230: b189 163d a478 edbc 6b14 143d a698 30bc
00000240: 9a53 283d d7ce 92bd f147 933c 7c92 f93c
00000250: bdc1 d1bc 84a9 033d 509c 643c 3018 67bc
00000260: d877 82bc a80a c93c df9f f6bc ed33 29bc
00000270: 4fb2 443d 51f4 763a 7d69 893c b520 94bd
00000280: 107b 95bd 7932 89bd 66ce babc 0eeb 80bd
00000290: 5d34 33bd 2e78 9e3b ae5b 093d c0be b83c
000002a0: fc24 dc3c 3df6 06bd fb55 4bbc a4b8 cabc
000002b0: cd88 4d3d fb59 5c3c 4133 81bb 35cb 09bd
000002c0: 33ac b23c e2b9 803d 4ed4 923d e532 f6bc
000002d0: d619 b1bc b2e4 2fbd c397 c6bc 6e4f 093d
000002e0: 61ea 78bd d7fd 80bd 2c26 923c dad3 d33c
000002f0: 5bc5 6b3d 7c96 95bb 260d ecbc ff32 f83c
00000300: 57df 1c3d e172 493d 94c5 56bd 9645 813d
00000310: ddaa b73b 9f8f debc 7d9b 003d aaeb 9d3c
00000320: 4a90 2d3d d206 3dbd fa01 2ebd 1bc4 e1bb
00000330: 2c85 903b 5de6 853d 0ce2 533d 718b f1ba
00000340: 68e8 503d ec93 cb3c db5a dd3b b580 943c
00000350: a121 193d e8cf 053b 0ccf c9bc 4600 e43c
00000360: c131 1c3d e89c 52bd 3c62 233c b908 c4bc
00000370: 9d7b 75bc cd7d b8bc af58 9a3c 33d5 7d3d
00000380: 3c16 2e3d aee8 08bc d274 94bd 55a4 f6bc
00000390: b80b 503d e0c3 6f3d cb1f a3bd 4324 153d
000003a0: adc3 32bd c37f de3c e231 a0bb a556 473d
000003b0: 6f08 403d 46ae cabc ff0c 94bb 526f 85bc
000003c0: 6ba5 7c3c e1fc 8ebc 815f aebc 09e1 bb3c
000003d0: 670a 553d 3555 3cbd 232c 6a3d 9b6f 5b3d
000003e0: 400f 303c 069f 06bd 6d2d 46bd 6b93 2fbd
000003f0: 56ac 28bd 0f46 2fbd 33d4 4abd 2e90 b8bc
-0.023378637 0.038799487 -0.0022910424 -0.023447856 0.035688445 -0.020245045 -0.035435405 -0.027020853
-0.019345809 -0.03740221 -0.05682298 0.021577053 0.05930978 0.038037915 0.031507887 -0.046840597
-0.0016528429 -0.039014723 -0.01391486 0.0039877375 0.021979444 0.02854091 0.06117187 -0.05838999
0.010180747 0.041185893 -0.046597417 0.008049426 -0.008895928 -0.0076051992 0.026791137 -0.03887071
-0.028022654 0.014747536 0.00088219275 -0.014376406 0.011467512 -0.035741955 0.07053304 0.003956047
0.03559425 0.029352302 0.02965814 0.004468382 -0.00749618 0.05912242 0.021464616 -0.0337872
-0.0468021 -0.05132304 -0.004661417 -0.076148 -0.024296554 0.023748549 0.041412186 0.020941475
-0.01270801 -0.018880447 0.04633571 -0.0025188131 0.04324951 0.029191602 0.038032427 0.04164687
-0.047952335 -0.0017143784 0.032627396 -0.00079751696 -0.034036998 0.020686174 -0.00023565101 0.0255157
-0.010399032 -0.048365645 -0.033210732 -0.0011901569 -0.007145809 -0.0417742 -0.028244818 -0.007550102
-0.016490348 0.042194944 0.019034084 0.006371629 -0.045414627 -0.01700757 0.034698993 -0.0064820657
-0.016257722 0.044096924 -0.011130962 0.024095356 0.0037011863 0.011490886 -0.040556133 -0.045884248
0.039179776 -0.027919466 -0.010145962 -0.0005030856 0.031762395 0.010160968 0.01519021 -0.0006582495
0.03687658 -0.029653111 0.024948282 -0.05110794 -0.05973357 -0.008403484 -0.021663459 -0.0147344945
-0.02702268 0.017685378 0.0023622278 -0.0381404 -0.008453398 0.019212935 -0.016583217 0.01555773
0.0066431076 0.064590715 -0.05105348 0.022318754 -0.008613388 -0.08055919 0.039988678 0.02316198
-0.042355508 -0.019337174 -0.03317447 -0.006654265 0.0320207 -0.004938916 0.017227294 0.050623428
0.0508028 -0.040371094 -0.015821535 -0.008792047 0.036752407 -0.02898819 0.036152285 -0.010778582
0.041095354 -0.07168358 0.01797864 0.030465357 -0.025605077 0.032144085 0.013953283 -0.014104888
-0.015926287 0.024541214 -0.03010553 -0.0103273215 0.04802161 0.0009420561 0.016773934 -0.07232801
-0.07298863 -0.0669908 -0.022803497 -0.06294833 -0.04375111 0.004836104 0.0335347 0.022551894
0.026873104 -0.032949675 -0.012410636 -0.024746247 0.05017929 0.013449187 -0.0039428775 -0.03364106
0.021810627 0.06285454 0.071694 -0.030053565 -0.021618765 -0.04294271 -0.024242288 0.033523016
-0.060770396 -0.06298416 0.017840467 0.025857855 0.05756126 -0.0045650583 -0.028814863 0.030297754
0.03829893 0.049181823 -0.05243452 0.063121006 0.0056050853 -0.027168093 0.031398285 0.019277412
0.042373933 -0.046149082 -0.042482354 -0.0068898327 0.0044104066 0.06538079 0.051729247 -0.0018428398
0.05100289 0.024850808 0.0067552156 0.018127779 0.037385587 0.0020418111 -0.02463486 0.027832162
0.038133387 -0.05141917 0.009972151 -0.02392994 -0.014983085 -0.022520924 0.018841116 0.0619709
0.042501673 -0.008356256 -0.07248844 -0.030107656 0.050792426 0.05853641 -0.079650484 0.036411535
-0.043643642 0.02716053 -0.004888759 0.048666615 0.046883043 -0.024741303 -0.004518151 -0.016288433
0.015420298 -0.017454566 -0.021285774 0.022934454 0.052011874 -0.045979697 0.057171 0.053573232
0.010745823 -0.0328665 -0.048383165 -0.042865198 -0.041179977 -0.042791422 -0.049518775 -0.022529688

conv2.bias f4 [64]
00000000: 2307 aeb8 a4ec 73b9 f613 1d38 a727 c93b
00000010: f413 80b8 b2a0 c8bb fbfb e6b8 0f68 b63c
00000020: d684 6ebc 13ec e4bb 16af 7e3c e455 87bc
00000030: a32c 06bc 5538 7c3b 013d a9b9 b453 ac3b
00000040: 4aa4 49ba f7ec f9b8 a4a9 983c ee8f 83bc
00000050: ba29 1cb9 b1e4 9d3b 3a3f 1e3c 4611 d53b
00000060: f6f4 05ba e7da 83bc 8854 ee3b 0979 2a39
00000070: 79cd d9b9 8adf 89bc a63a 1b3c dce5 b4bb
00000080: 84fe 52bc c9d5 8fb9 fe00 00ba 4dfb eab5
00000090: 7997 ec38 cd22 0a39 fed1 d23c 8e49 493a
000000a0: 3798 ee3a 2462 fe38 5507 f5b8 dd9c 26b9
000000b0: bdc8 47bb 8288 e6bb 0437 16bb f9c7 5ab7
000000c0: 6ffc b7b9 f233 ccbc 6e60 df36 473a cfbc
000000d0: 54e1 0038 ee3f 1539 4326 b73c 947f 57b8
000000e0: 1481 a43c f7ce ddb8 e036 eeb9 5a62 c1b7
000000f0: 89a5 e33b cb01 1bbc 1342 3aba 6c70 9d3c
-8.298296e-05 -0.00023262441 3.7450307e-05 0.00613876 -6.107232e-05 -0.006122672 -0.0001101419 0.022266416
-0.014558038 -0.00698615 0.015544673 -0.016520448 -0.008189353 0.0038485725 -0.00032279643 0.0052590016
-0.00076920225 -0.000119173834 0.018635578 -0.016059842 -0.00014892864 0.004818522 0.009658629 0.0065023033
-0.00051100494 -0.016095592 0.0072732605 0.00016257552 -0.00041542554 -0.016830225 0.009474432 -0.0055205654
-0.012878064 -0.00027434368 -0.00048829603 -1.7507497e-06 0.00011281571 0.0001317367 0.025734898 0.0007678502
0.0018203323 0.00012129944 -0.00011683876 -0.0001588943 -0.003048464 -0.007035316 -0.0022920975 -1.3040372e-05
-0.00035092558 -0.024927113 6.657144e-06 -0.025296343 3.072743e-05 0.00014233563 0.022357112 -5.137881e-05
0.02008108 -0.000105766514 -0.00045435783 -2.3053191e-05 0.0069472236 -0.009460877 -0.0007105183 0.019218646

bn1.weight f4 [32]
00000000: eabe 793f 2933 803f 1860 833f 29ce 7b3f
00000010: 2f07 813f de8f 7c3f abc1 803f f7e7 803f
00000020: 7e7a 813f 957c 7a3f 18f4 7b3f 0881 833f
00000030: 9560 7d3f 5535 823f 33e6 823f 34d8 7a3f
00000040: 084d 803f cbd8 833f f57e 7c3f 1a11 813f
00000050: e284 793f 2d5f 7c3f dafb 793f 1f9a 7b3f
00000060: 1fdb 803f 3ae3 803f 987e 7c3f 3f1f 823f
00000070: 6802 813f 9ca6 823f 6c88 7e3f 9c1f 813f
0.97556937 1.0015613 1.02637 0.9836145 1.0080317 0.98657024 1.0059103 1.007079
1.0115507 0.9784635 0.9841933 1.0273752 0.989755 1.0172526 1.0226501 0.9798615
1.0023508 1.0300535 0.9863122 1.0083344 0.9746839 0.98582727 0.9764992 0.98282045
1.006687 1.0069344 0.98630667 1.0165786 1.0078859 1.0207095 0.99426913 1.0087771

bn1.bias f4 [32]
00000000: 5a93 bdbc 4236 033a da61 a33c 7da9 8fbc
00000010: a7e2 2fbb 3aa8 95bb dd98 393c bdbc 17bc
00000020: 9295 9f3c 84a7 2a3c 7932 20bc d887 ec3c
00000030: cf0e d43b 63de 093d c814 b13c 0a44 02bc
00000040: 13c4 893c 3c52 de3c fdd7 dfbb 420b f03b
00000050: aa07 693c 4125 253c 30c1 d6bc d490 44bc
00000060: c40f 993c 249b 453c 4305 04b9 5421 883c
00000070: d832 b33c 7262 de3c 3b2b 6e3c 83b7 5d3b
-0.023141552 0.00050053385 0.01994412 -0.017536873 -0.0026837976 -0.0045671733 0.011327949 -0.009261307
0.0194805 0.010415915 -0.009777659 0.02887337 0.006471492 0.03365935 0.021616355 -0.007950792
0.016817128 0.027138822 -0.0068311677 0.007325561 0.014223019 0.010079683 -0.026215166 -0.01199742
0.018684275 0.012060914 -0.00012590461 0.016617455 0.02187483 0.027146552 0.014536674 0.0033831305

bn1.running_mean f4 [32]
00000000: 08ff 793e bee1 03bf 5af7 b5bd 8230 ce3e
00000010: e49e eebb cd0b 96be 1186 9abe f8c8 d83c
00000020: 8a9c 833e 9956 d63d 2767 abbd 2aa3 a1bd
00000030: 070f d43d ae41 97be c061 b63d 0f9e f9bc
00000040: 2d7f 64be 23db aebe 3cce 8e3d 46ba e3bc
00000050: 3eae bb3d 2496 b0bd a260 e13b d517 62bd
00000060: 1d12 643c 10cc a9bd 1c00 ac3d 99c5 c2be
00000070: c53a 4fbe 8b8d ebbd d28a 9d3e d625 babd
0.24413693 -0.5151633 -0.08885069 0.40271384 -0.007282125 -0.29305878 -0.3018041 0.026463017
0.25705367 0.10465736 -0.08369284 -0.07892449 0.10354429 -0.29542297 0.08905363 -0.030470876
-0.22314139 -0.34151563 0.0697293 -0.027798783 0.091640934 -0.08622387 0.0068779746 -0.05519851
0.013920334 -0.08290875 0.08398458 -0.3804138 -0.20237263 -0.115016066 0.30769974 -0.09089248

bn1.running_var f4 [32]
00000000: 017e fb3c fbf3 683d f71b 123d 6d17 153d
00000010: 2261 233d 545b 4f3c 841b e93c bfa4 1a3d
00000020: ae9f 023d fdda 043d 337a d83c 4116 753c
00000030: 6a08 803c 2b3e 2e3d 0ede db3c 0876 813c
00000040: fee2 b03c 1010 fc3c 3653 2d3d 8d79 2d3d
00000050: 2181 313d ad9d f83c fbcd 003d 1f97 1b3d
00000060: e458 073d 7fe1 243d cfe1 133d 93c9 e63c
00000070: b84d eb3c 25ac 0f3d ec2d 053d 971b 393d
0.030699732 0.056873303 0.0356712 0.036399294 0.039887555 0.012656052 0.028455503 0.03775477
0.031890564 0.032435406 0.026425457 0.014958919 0.015629012 0.042539757 0.026839282 0.015803352
0.021592613 0.030769378 0.042315684 0.042352248 0.043336038 0.030348623 0.03144644 0.037985917
0.033043757 0.040254112 0.03610402 0.02817229 0.028723583 0.03507628 0.032514498 0.045192327

bn2.weight f4 [64]
00000000: a668 843f 18ff 843f b8b4 823f 917f 843f
00000010: 28c4 843f 4420 843f 72a6 843f 094e 833f
00000020: b76d 7e3f f487 843f 697a 7d3f 984f 843f
00000030: f154 7f3f e4e8 843f db04 7f3f b9da 7b3f
00000040: 0592 843f 54a1 843f e3b8 843f 4a90 843f
00000050: 893e 7f3f 2369 7d3f 7438 7d3f dd59 853f
00000060: 51da 843f b646 853f 589a 843f a0da 7b3f
00000070: e0cf 803f 6a11 853f b19b 7e3f 09cd 7d3f
00000080: 3912 853f e095 843f 82b3 843f 73f3 7d3f
00000090: 7d9e 803f 0e79 7e3f 0938 853f 794a 853f
000000a0: a9fb 843f 2040 853f 7432 853f 5ac4 813f
000000b0: 7b5a 7c3f e0cb 843f 8553 813f 6be6 7c3f
000000c0: 2767 833f 2c90 843f 73ba 833f f8c0 843f
000000d0: b094 843f 281f 813f ad86 7b3f 7123 813f
000000e0: 3991 7e3f cf0b 7e3f 657c 7c3f d211 853f
000000f0: d85f 7c3f fdb4 7e3f 236d 843f 0c93 823f
1.0344436 1.0390348 1.0211401 1.035143 1.0372362 1.0322347 1.0363295 1.025819
0.9938616 1.035399 0.9901491 1.033679 0.99738985 1.0383573 0.99616784 0.9838062
1.0357062 1.0361733 1.0368923 1.0356534 0.99704796 0.9898855 0.98914266 1.0418049
1.0379125 1.0412204 1.0359602 0.9838047 1.0063438 1.0395939 0.99456316 0.99140984
1.0396186 1.0358238 1.0367281 0.991996 1.0048367 0.99403465 1.0407726 1.0413352
1.03893 1.0410194 1.0406022 1.0138047 0.9857556 1.0374718 1.0103613 0.9878909
1.0265855 1.0356498 1.0291275 1.0371389 1.0357876 1.0087633 0.98252374 1.0088941
0.9944034 0.9923677 0.9862731 1.0396063 0.98583746 0.99494916 1.0345806 1.0201125

bn2.bias f4 [64]
00000000: 0451 063d ba6f 193d 09c1 aa3c 07c3 073d
00000010: 8246 173d 938c a33c ff69 0d3d 72dd b83c
00000020: 9382 76bc 6e3f 0f3d 0563 8cbc c448 043d
00000030: 0c28 47bc 46d8 173d 519f 72bc 201a bbbc
00000040: 9bc5 0a3d c315 0e3d 69d6 113d 6241 0f3d
00000050: e45d 97bc c3ca 8dbc 4363 82bc d3bc 223d
00000060: 355d 1f3d 3369 253d c935 0b3d 62b1 a2bc
00000070: cdb2 a2bc ad1e 293d 3f2e 8abc d851 8dbc
00000080: 120e 183d d2bc 103d fd2f 103d 453b 83bc
00000090: 7b17 acbb f28c a4bc 7f9e 223d a23d 273d
000000a0: 5abb 183d bd73 233d 6e5b 2a3d 66a9 3f3b
000000b0: 00de 98bc 8142 183d 51f1 4b3c 5af4 90bc
000000c0: 6d81 653c da4a 0d3d d39f 4c3c 79c8 0d3d
000000d0: e185 113d 8f8a 05bc e9ef b1bc 8404 f739
000000e0: 06ce 9ebc f25d e2bc ca31 96bc 1cfa 1d3d
000000f0: 59a6 90bc 981b 59bc 6859 0c3d a1d0 2e3c
0.032792106 0.037460066 0.020844 0.033144977 0.036932476 0.019964492 0.034524914 0.02256653
-0.01504578 0.0349726 -0.01713706 0.032295957 -0.012155544 0.03707149 -0.014808492 -0.022839606
0.033879858 0.034688722 0.035604868 0.034974463 -0.018477388 -0.017308598 -0.015916472 0.039730858
0.03890725 0.04038353 0.03398684 -0.019859973 -0.01986065 0.04128902 -0.016867755 -0.01725094
0.037122793 0.035336323 0.035202015 -0.016019473 -0.0052518225 -0.02008674 0.039701935 0.040830262
0.037288047 0.0399053 0.0415911 0.0029245256 -0.018660545 0.037172798 0.012447671 -0.01769464
0.014007908 0.034495212 0.012489277 0.034615014 0.035528067 -0.008150711 -0.021720843 0.00047114876
-0.019385349 -0.027632687 -0.018334288 0.0385686 -0.017657446 -0.013251208 0.034264952 0.010669858

bn2.running_mean f4 [64]
00000000: b8be b23c 87ab 1ebe 4a18 69be 0731 05bc
00000010: af66 5a3e 5a81 ee3d a9d6 e2be ce98 5a3e
00000020: f30f 003e c9c2 21be b597 ea3d 79ea 12be
00000030: 2ca1 ddbe 579b 42be cef4 bfbd c2e6 5d3e
00000040: 7402 a6be c613 743d f437 6bbe 9105 603e
00000050: 3052 8e3c fdda 833d 63b7 e5bb c49b 2bbe
00000060: 0067 fc3c b32d ddbd 162d 353d 9ff4 bc3d
00000070: 5995 a73b 3ae9 9e3e 93d7 783c 9775 2b3d
00000080: 5105 a1be cf26 96be 1531 02be 2f24 57be
00000090: 1f08 053e 91c2 abbd 8cf4 b63e e9db b6bd
000000a0: 18c2 973e 294f 3bbd aa23 efbd 034a 6dbe
000000b0: 3bc7 0bbe c370 733d 148a 88be 66c2 583e
000000c0: b8bb 313e c0ae bebe aab5 ef3d 9f83 be3a
000000d0: f1fc cdbb bad3 28be dbba 163e 5634 b73d
000000e0: 62a8 353e c37d 57be 87ad efbd e757 2fbe
000000f0: 918a 043e 8fb2 8a3c d436 cfbe 660e 603e
0.021819457 -0.1549512 -0.22763172 -0.008129365 0.21328233 0.116457656 -0.44304398 0.21347353
0.12506084 -0.15796961 0.11454717 -0.14347257 -0.43287027 -0.1900457 -0.09372865 0.21670058
-0.32423747 0.05958917 -0.22970563 0.21877123 0.017373174 0.06438253 -0.007010387 -0.16758639
0.030810833 -0.10799732 0.04423245 0.09226345 0.005114239 0.31037313 0.015188116 0.04186019
-0.3144937 -0.29326484 -0.12714036 -0.21009897 0.12991379 -0.0838672 0.3573345 -0.08928663
0.2964027 -0.04572979 -0.11676724 -0.23172764 -0.13650219 0.05943371 -0.26667845 0.21167907
0.17356765 -0.372427 0.117045715 0.0014535076 -0.0062862565 -0.16487017 0.14719717 0.08945529
0.17740014 -0.21044068 -0.117030196 -0.17123376 0.12943484 0.016930846 -0.40471518 0.21880493

bn2.running_var f4 [64]
00000000: 6211 a93d 26a7 ab3d 6084 d73d dad9 bc3d
00000010: 12ea 163e bfde b23d 4c30 703e bf92 e23d
00000020: bc2c 623e 49cf 043e 362c 4e3e c6c4 863d
00000030: f426 e23d da34 f43d 6eb1 323e 9014 2d3e
00000040: 2b45 fe3d a5d7 013e 0107 2b3e 6b28 8f3d
00000050: b8ce 4c3e 5145 333e d19e 353e 54e8 b73d
00000060: 1d04 ac3d 40ad a83d 534c 153e 35e9 713e
00000070: ccca c63d 1299 c33d addb 693d 7e62 643e
00000080: 0616 d93d d6fb 9d3d 3607 e83d 10e8 0d3e
00000090: 4f1e bf3d 695f ab3d cfb2 213e d9d9 8d3d
000000a0: d93b 353e 33b1 e03d e7e8 953d cdb4 c43d
000000b0: a793 6f3e 77ff e93d be87 e23d 7ea4 453e
000000c0: 4805 b23d b69d 163e 00b9 1b3e a931 093e
000000d0: 5369 903d 02d1 883d d94a de3d f906 ac3d
000000e0: 5f71 043e 149b 1d3e ae5c 843e 3046 0f3e
000000f0: 06a8 4c3e b245 413e f4d5 2f3e 5788 123e
0.08255269 0.083814904 0.105232954 0.092212394 0.14737728 0.08733892 0.23455924 0.11063146
0.22087377 0.12969698 0.20134053 0.065805 0.11042586 0.11924143 0.17450497 0.16902375
0.124155365 0.12679918 0.1670189 0.06990131 0.20000732 0.17506911 0.17736365 0.0897986
0.08399222 0.0823617 0.14579897 0.23624118 0.09706649 0.0955068 0.057094265 0.22303197
0.10599904 0.077140495 0.113295004 0.13858056 0.09331953 0.083678074 0.15790866 0.06926317
0.17698611 0.10971298 0.07319813 0.096047975 0.23396169 0.11425679 0.11061047 0.1930103
0.086924136 0.147086 0.1520729 0.1339785 0.07051339 0.0668049 0.1085412 0.083997674
0.12933873 0.15391189 0.2585196 0.13991618 0.19985971 0.18874243 0.1717146 0.14309822

output_conv.weight f4 [6, 64, 1, 1]
00000000: 803a af3d cbf5 a03d d7d4 963d a0d8 f83d
00000010: 23a1 483c 98c1 343d 79c4 d33d 9314 043d
00000020: e764 debd e661 f93d 5792 edbc 056e 0b3e
00000030: de6a c93c 14de 153e 3b73 e3bd c539 92bd
00000040: 6f1c 163e f49f 173e de86 773d e6b3 0cbd
00000050: 3cc6 8ebd ea26 c2bd 1762 78bd 3484 983c
00000060: 51a5 b63d ffe4 133d cec1 013e 8b14 84bd
00000070: 00ef 50bd 620f 3e3d 32ea a0bc f39c 31bc
00000080: 8765 b93d 13b7 053e e37a 613d 9c97 0dbd
00000090: 7f17 50bd d637 fabc a7b2 dd3d 0f2f 6c3d
000000a0: 36e9 1d3d ad7c bd3d 84c1 883d be5a 3e3d
000000b0: b579 bbbd 1cd8 b13d 5cb0 b0bc ce41 ebbd
000000c0: f16d b13d 9e17 e43d 7d96 443d 01ce b73d
000000d0: 8d25 913d 045c 943a aba7 b3bd 8f8a 143d
000000e0: 0bf7 fd3c 908a 9cbd abcd 05bd 56ff 003d
000000f0: d8e2 acbd af01 8abd 414d ee3d 31ff c8bc
00000100: e39a e3bc 469a b9bd ff25 113c 65cd 73bd
00000110: c1c8 e03d 9e03 2a3d e43d 013b 93a2 d13b
00000120: e930 16be 66d1 62bd f3b0 2cbd 2728 50bd
00000130: 09c5 2a3d a78a 0bbe a5b9 1abe d699 883d
00000140: 0cc2 88bc 387c a73d 071c 8e3d ce0d 16be
00000150: b442 d6bc 604b cdbd cdc3 ccbd 8157 05be
00000160: 51dd 19be 7706 93bd ac03 0abe 2e54 863a
00000170: d108 87bd 3fc3 23be 6f52 03bc 603e 8fbd
00000180: a0ad abbd d6c4 eebd 885f 99bd 2f44 a3bd
00000190: 460d e5bd 1b52 bd3d 972c f23d f919 e6bb
000001a0: a994 f5bc cdba e9bd c203 3abd 6d13 713d
000001b0: d430 193c faf9 1dbe f5c0 4d3d 417c 923d
000001c0: 5c9c b13d cfb2 6fbd ed72 b63d eb6c b23b
000001d0: 7e37 bcbd 8b58 8ebd f38f 8c3d 7fa0 913d
000001e0: c665 e13c 2c8c 3dbd a76b 2cbd 91e3 bd3d
000001f0: c13b 903d 805d 14be 7e13 10be 882a 083d
00000200: 7fef 14be 7322 19bd a5d2 9a3d f87e c8bd
00000210: e817 c5bd 12ff 5fbd 0ca1 9abd 2198 30bd
00000220: 19ce 1abd 72b3 1bbe 23e9 683d c90e bf3c
00000230: 516a 80bc 0653 393d d01f 123d fa12 aa3d
00000240: 990b b7bd 0c3f 3bbd d0da 4a3c 63ca d7bd
00000250: 588c b43d b60a d83d dc0d 04bd df10 15be
00000260: 9a60 883d 2b2a 5bbc daa9 64bd c6aa 18bc
00000270: 73d0 bfbc 050a a1bd 5780 2b3d 0c3b 90bd
00000280: e5de 043b a7ea acbc b1a5 2e3c 3a33 783d
00000290: 1abc 37bd f2c9 25ba f6a3 25bd 6c48 67bd
000002a0: 1462 a2bd f563 8f3d 40bc 213d ecfd c5bc
000002b0: a78e 833d 1ec3 5b3d a0e5 13be 94ee 1e3d
000002c0: 4eb5 c63c 57ff 1e3c 9b0c 963d 5b90 523d
000002d0: 2449 0c3e de5a 09bd 5772 85bd 50ce a4bd
000002e0: 56a0 f03c be70 eb3d 3232 083d a06d 0abe
000002f0: 5787 28bc 61bf 423d f7bd 053d 6385 fdbd
00000300: 6d58 e1bd 6e9d b33c de54 903d 66a3 583d
00000310: abd9 f7bd 0025 f3bc 4b35 753d decf d2bd
00000320: 5a3b 8d3d 50a9 d13b 8441 25bd e708 9fbd
00000330: 74a2 1e3d a8b3 c4bd aca0 5abb ff7f b93d
00000340: 6e6d 04be ab84 2dba 699e 1dbe 7e21 e5bd
00000350: a21f 8c3d ae12 f2bc ef43 af3d 3020 0e3d
00000360: 91e7 e3bd 35dc aabd 6ba4 b2bd c0e8 ad3c
00000370: d74e 1abe dc3e 2d3d b9c0 e33c 0452 853d
00000380: 1cd4 833c d382 1ebd 7aa4 8e3c 1af3 7abd
00000390: 2185 ce3c d468 6dbd 3828 a33a b2dc 0b3d
000003a0: 0fcd 09be 81d1 33bd ec51 ba3d e515 a13d
000003b0: 1bc8 56bd 6668 2cbd 074a f6bd 1089 ce3d
000003c0: b700 593d 01e2 0dbe 53e1 a43b 59e4 dfbd
000003d0: c8ed 573d 2229 d63d a879 a63d 36d8 ba3d
000003e0: 6a86 a63d 8636 e8bd 1610 66bd 17d7 b0bd
000003f0: 26f8 dbbb 424f 253d 183c 15be e0f0 d0bc
0.0855608 0.07859381 0.07364815 0.12150693 0.012245449 0.044129938 0.103402086 0.032246184
-0.10859089 0.12176876 -0.029000444 0.13616188 0.024587091 0.14635497 -0.11105963 -0.07139925
0.14659284 0.14807111 0.060431354 -0.034351252 -0.06971404 -0.094800785 -0.06064042 0.018617727
0.0891825 0.03610706 0.12671587 -0.06449231 -0.05100918 0.04640139 -0.019642923 -0.010840642
0.09052568 0.13058119 0.055048835 -0.034568414 -0.050803658 -0.030544203 0.10825091 0.057662066
0.038552485 0.09252296 0.06677535 0.046473257 -0.09154073 0.08683798 -0.02156847 -0.114871606
0.08663548 0.11137317 0.04799508 0.08974839 0.0708724 0.0011318927 -0.087722145 0.036264952
0.031001588 -0.07643616 -0.032666843 0.031493507 -0.084417045 -0.06738602 0.11635829 -0.024535747
-0.027783817 -0.090626284 0.008859157 -0.05952205 0.10975791 0.041507356 0.0019720728 0.006397554
-0.14667095 -0.05537548 -0.04216094 -0.050819542 0.041691814 -0.1362711 -0.1510988 0.06669967
-0.016694091 0.0817799 0.069389395 -0.14653704 -0.026154853 -0.10024142 -0.099982835 -0.13021661
-0.15025832 -0.071789674 -0.13477963 0.0010248476 -0.065934785 -0.15992449 -0.008015259 -0.06994319
-0.08382726 -0.11658637 -0.07488924 -0.07971989 -0.11184172 0.09244176 0.11824911 -0.007022139
-0.029978113 -0.114125825 -0.04541374 0.058856416 0.00935002 -0.1542739 0.050232846 0.07152606
0.08672401 -0.058520135 0.08908639 0.005445113 -0.09190272 -0.06950482 0.06863394 0.0711069
0.02751435 -0.046276256 -0.042094853 0.092719205 0.07042647 -0.14488792 -0.14069936 0.033243686
-0.14544486 -0.03738637 0.075597085 -0.09789842 -0.096237004 -0.054686613 -0.075502485 -0.04311383
-0.037794206 -0.15205172 0.05686296 0.02332248 -0.015675696 0.045245193 0.03567487 0.08304401
-0.08937759 -0.045714423 0.0123812705 -0.10536649 0.08815831 0.10548918 -0.03223978 -0.14557217
0.0665905 -0.013376753 -0.055826046 -0.009318059 -0.023414826 -0.07863239 0.04187044 -0.07042512
0.0020274457 -0.021107985 0.010659621 0.06059573 -0.044857122 -0.00063243427 -0.04043957 -0.05646555
-0.07928863 0.07001487 0.03948617 -0.024168931 0.06423693 0.053652875 -0.14443064 0.038801745
0.024256375 0.009704432 0.07326623 0.0514072 0.13699776 -0.033533923 -0.06515949 -0.080471635
0.02937333 0.11496113 0.033250995 -0.13518381 -0.010286174 0.047545794 0.032651868 -0.12378957
-0.11003194 0.021925654 0.07047437 0.052890204 -0.12102064 -0.029680729 0.059865277 -0.10293554
0.06896086 0.0063983575 -0.040345684 -0.0776537 0.038729146 -0.09604579 -0.0033359928 0.090576164
-0.12932369 -0.00066191953 -0.1539246 -0.11188029 0.06841971 -0.029549923 0.08557879 0.034698665
-0.11128152 -0.083427824 -0.087227665 0.021229148 -0.15069138 0.042296275 0.027801858 0.06509784
0.016092353 -0.038698982 0.017412413 -0.061266996 0.025209965 -0.0579613 0.0012447899 0.03414602
-0.1345713 -0.04390097 0.090976566 0.07865504 -0.05243693 -0.04209175 -0.12025838 0.10084736
0.052979197 -0.13855745 0.0050317436 -0.10932226 0.052717 0.10457064 0.08128673 0.0912327
0.08131106 -0.113385245 -0.056167684 -0.08634775 -0.006712931 0.04035879 -0.14573705 -0.025505483

output_conv.bias f4 [6]
00000000: 6a24 e83d 9029 ab3c 8183 45bd d60c 0dbd
00000010: af70 9d3d 4895 b8bd
0.113350704 0.020893842 -0.048221115 -0.03443607 0.07687508 -0.09012848
